Project/output/non_norm_latest/ddqn/final_model.pth (torch, 287307 bytes, 24 tensors)

fc1.weight f4 [128, 4]
000000 da 8e 7e 3e e9 84 5d 3c 25 f4 fa bf 42 4d a6 be
       0.24859181 0.013520458 -1.9605757 -0.32480818
000010 4b fc 22 be 61 1c 5f be 44 e5 c2 bc f6 91 04 be
       -0.15916555 -0.2178817 -0.023790963 -0.12946305
000020 f5 44 55 be ea 15 0e be 89 29 0e 3f 41 64 77 3c
       -0.20827086 -0.13875547 0.5553213 0.015099586
000030 8e 61 86 3e 32 74 94 3e 8d 4f e9 3e 44 ff 25 3e
       0.26246303 0.289949 0.45568505 0.16210657
000040 7f 0b 13 3d de ea c2 bc 11 1b 25 3e bf 27 86 bd
       0.035899635 -0.023793634 0.16123606 -0.0655055
000050 8c 77 9b 3d be 16 3e 3d 0f 14 ac bf 2d f1 02 be
       0.07591161 0.046408407 -1.3443621 -0.12787314
000060 69 1c 89 3e d8 ba 88 3d fc a1 1f bc a7 94 f2 3d
       0.26779488 0.066762626 -0.00974321 0.118447594
000070 9b 8b b5 be ce dd 2e 3d 12 bf 02 40 1e be d2 3e
       -0.35458073 0.042692 2.042912 0.41160673
000080 f3 7c b0 3e 3b f5 b0 3e df 14 8c 3f b7 51 93 3e
       0.3447033 0.34562096 1.0943869 0.2877328
000090 30 aa 4e 3e e1 b0 82 bc 5c 62 b5 bf 61 9f 97 be
       0.20182109 -0.015953483 -1.4170642 -0.29613784
0000a0 b3 39 85 3e 20 d1 73 be c3 e7 73 bd e2 5e ea bd
       0.26020584 -0.23810244 -0.059547197 -0.11443879
0000b0 c1 07 5e 3e 39 a4 23 be 5d 22 ab be 2c 5e e3 bd
       0.21682645 -0.15980615 -0.33424655 -0.11101946
0000c0 e9 13 18 3f 0c 56 d5 3e b0 bd ba 3d ec 92 86 3e
       0.5940538 0.4166721 0.09118211 0.26283967
0000d0 0b bc bf be ce df 66 be 86 39 3a bf 86 8c 48 be
       -0.37448153 -0.22546312 -0.72744024 -0.19584855
0000e0 68 69 b6 3e 54 87 40 3e 27 f9 66 be c9 73 fc 3d
       0.35627294 0.18801624 -0.22555982 0.12326772
0000f0 20 29 a4 3e 13 f1 57 3e 5a 01 a8 3f 2e db 50 3e
       0.32062626 0.21088056 1.3125412 0.2039611
000100 24 7e 0e 3e 1b b2 1b bd c4 16 b6 bd c0 86 b5 bd
       0.13915306 -0.03801165 -0.08891061 -0.08863592
000110 08 55 0b 3e ee df 29 bd 24 91 2a bf c4 61 06 3d
       0.13606656 -0.04147332 -0.66627717 0.03280808
000120 f3 e2 c0 3e ca ff 77 3e e2 48 80 bf 84 d2 8c 3d
       0.3767315 0.2421867 -1.0022242 0.0687609
000130 ac 4c 9b 3e 8d 10 35 be 23 ee e6 be 7c ef 21 bd
       0.30331933 -0.17682095 -0.4510356 -0.03953503
000140 7f c1 e7 bd 42 30 95 3d ef 7e 1c 3e 47 2c bd 3d
       -0.11316203 0.07284595 0.15282796 0.09236961
000150 b5 32 35 be 50 ae 3c be 8e 4d 29 bf d6 61 0a 3d
       -0.17695124 -0.1842587 -0.66133964 0.03378471
000160 a5 59 e2 bd 26 a6 d5 3d 10 9c ba 3f 94 fd 89 3e
       -0.110522546 0.10432081 1.4578876 0.26951277
000170 5d f3 02 3d 97 b8 0e bb 08 f1 6e bd dc 0e 56 3a
       0.03197037 -0.0021777505 -0.058335334 0.00081656664
000180 e2 c3 26 3e 56 c8 3b be 79 f7 91 be 4a bd 06 be
       0.16285661 -0.18338141 -0.2850912 -0.13158146
000190 99 ec be be 74 12 8f be 58 26 33 bf 9c 07 6e be
       -0.37289885 -0.27943766 -0.6998038 -0.2324509
0001a0 26 1a a3 bd 17 15 23 3d b5 ed dc 3e 9c b6 94 3d
       -0.07963972 0.039815035 0.43150106 0.072613925
0001b0 0d ee c1 3e 5a 64 8f bd 85 93 02 bf 2c a2 92 bd
       0.3787693 -0.070015624 -0.51006347 -0.07159838
0001c0 86 d2 21 be a8 2a fd 3c c4 aa 8b bf 07 13 9f be
       -0.15802965 0.03090413 -1.0911489 -0.31069204
0001d0 66 2c 91 bd 80 dc 1a 3d 1b dc 04 3f 73 9a 95 bb
       -0.070885465 0.03780794 0.51898354 -0.004565531
0001e0 dd 0f 82 be f9 f2 56 be 11 84 74 bf 90 25 98 be
       -0.25402728 -0.20991124 -0.9551402 -0.29716158
0001f0 29 47 34 bd 52 ab 36 bd 5a 9c c8 3e dc 7d 57 be
       -0.044013176 -0.044596978 0.39181787 -0.21044105
000200 bb a3 80 3d 64 e1 9e 3e 09 24 9a 3f f0 31 91 3e
       0.06281229 0.31031334 1.2042247 0.28358412
000210 80 8f 59 3e 0d a1 b1 3d d5 dd 86 3f d2 0d 09 3e
       0.21246147 0.08673296 1.0536448 0.13384178
000220 63 60 0a 3f 88 69 d2 3d 3c 8e a3 bf 12 c8 fd bb
       0.54053324 0.10274035 -1.2777781 -0.0077447975
000230 c0 55 ee 3d 11 fc 0f be 1f 17 fd be a0 e4 e4 bd
       0.11637449 -0.14061 -0.49431702 -0.11176419
000240 84 2b a3 be 99 83 8a be 17 d2 81 bf 60 9b 65 be
       -0.31869137 -0.27053526 -1.0142239 -0.22422552
000250 62 76 95 3d b3 58 db bd 0f 2b d6 be 46 88 08 be
       0.0729797 -0.107102774 -0.41829726 -0.13333234
000260 78 33 3b be 77 51 10 be ac 70 be 3d 83 22 e7 3c
       -0.18281353 -0.14093576 0.09298834 0.028214699
000270 45 5b 88 3c 5c af 6c 3d 09 75 a7 be 55 75 ce bd
       0.016645083 0.057784423 -0.32706478 -0.10080973
000280 c4 cb dd 3d a5 73 e9 bd 71 98 ec bf 6f d4 ae be
       0.10829881 -0.113990106 -1.8484021 -0.3414645
000290 ec 7e 1a be da be ea bc 14 4e 55 3e bf e9 eb 3d
       -0.1508748 -0.028655458 0.20830566 0.11519193
0002a0 ae 6c ec bc c7 c5 93 3d 30 ca c3 3c b2 61 19 3d
       -0.028860416 0.072154574 0.023900121 0.037446685
0002b0 10 e0 06 bf ca dd aa bd 61 d7 33 3f c4 aa ea 3d
       -0.5268564 -0.08343084 0.7025052 0.11458352
0002c0 c2 06 08 3e 7e 09 c5 bd 1d 1b 72 3e 54 ea be bc
       0.13283828 -0.09620951 0.23643155 -0.023305096
0002d0 f2 9f dd 3e 15 a5 89 3e 42 1b da be 9b 03 da 3d
       0.4328609 0.2688376 -0.4259892 0.10645219
0002e0 82 f1 25 3e cf c6 8b 3e af f9 13 bf 2f e4 97 bd
       0.16205409 0.27300116 -0.5780286 -0.074165694
0002f0 41 56 1d 3e ec 54 89 bd 9a 0d e4 bd 5b 62 da bd
       0.15364935 -0.06705651 -0.11135407 -0.10663291
000300 8f ae a1 bd ee 51 96 3d aa ac 0d be b6 dd 48 3e
       -0.078946225 0.073398456 -0.13835397 0.19615826
000310 43 d2 30 3e 89 25 a9 3e c6 e4 12 3f 1b 05 75 3e
       0.17267708 0.3303645 0.5738033 0.23927729
000320 0f db 29 be 88 de c8 bb f6 d5 40 3e 74 c4 2a be
       -0.1658747 -0.0061300434 0.1883162 -0.16676503
000330 89 26 88 bb c4 ae 76 3d 90 89 4f 3d 9c 32 11 be
       -0.0041549844 0.060225263 0.0506683 -0.14179462
000340 a7 c7 9e be 12 43 84 be b4 fd 80 bf ca b1 a0 be
       -0.31011698 -0.2583242 -1.0077424 -0.31385642
000350 5c 9f 9b 3d 82 5e 3f bd 34 b7 62 bb 62 bb ae bd
       0.07598755 -0.04672099 -0.003459406 -0.08531834
000360 dc 25 47 be 8c 17 00 bc bf ce bc 3f fc 79 98 3e
       -0.19448036 -0.007818114 1.4750594 0.29780567
000370 5b 81 a2 be a6 3e 44 3e 16 ea e2 3e 16 52 57 3e
       -0.31739315 0.19164523 0.44319218 0.21027407
000380 1d bb 0c bf fa 2a cd bd f8 4a b7 be d8 c7 0f bd
       -0.5497301 -0.10017963 -0.35799384 -0.035102695
000390 63 b0 fb 3c 2c 6e e1 3d b0 46 51 be c5 fc 65 3e
       0.030723756 0.11007342 -0.20437121 0.22459705
0003a0 e5 53 ab be d5 10 6b be f3 b7 78 bf 0d 3e 98 be
       -0.33462444 -0.2295564 -0.97155684 -0.2973484
0003b0 22 b6 63 3e 2b c7 fd 3d 09 17 a5 3f 38 75 34 3e
       0.22237447 0.12391504 1.2897655 0.1762284
0003c0 2f 88 6a 3e f2 4b b5 bd 3f 99 35 bf 1f 27 19 bd
       0.22903512 -0.08852376 -0.7093696 -0.037390824
0003d0 0e ec 94 be a6 71 20 3e f2 ad 06 3f 9d d2 84 3e
       -0.29086345 0.15668353 0.5260917 0.25941935
0003e0 4a 24 e3 bd 60 e6 3f be a7 42 13 bd e4 4c ff bd
       -0.11090906 -0.18740225 -0.035952237 -0.124658376
0003f0 42 a3 00 3f 0b c5 18 3e c8 24 ba bf b7 22 08 be
       0.5024911 0.14918916 -1.4542475 -0.13294493

fc1.bias f4 [128]
000000 17 10 db be 20 7a 32 3e 36 d1 9d 3e 9c 3c c5 bd
       -0.42785713 0.174294 0.30823678 -0.09630701
000010 17 f4 a7 3e 42 b0 90 be 29 87 3f 3e e9 ac bd be
       0.32803413 -0.28259474 0.18703903 -0.37045982
000020 d4 2c 04 be 6d 76 e0 be 5c 9a 99 3e b2 c5 9d 3e
       -0.12907726 -0.43840352 0.3000058 0.30814892
000030 05 19 0a be c1 a9 c9 bc dc 05 fa 3d 94 d5 28 be
       -0.13486107 -0.024617078 0.12208149 -0.16487724
000040 93 77 aa 3e a8 3f 1a be 0a 6c 42 be 48 54 b9 3e
       0.33294353 -0.15063345 -0.18986526 0.36197114
000050 27 a9 a3 3e b4 35 19 be c0 5b a9 be af eb 9f bd
       0.3196499 -0.14961892 -0.33077812 -0.07808625
000060 4b b1 a7 3e d9 b3 35 bd f2 2a b4 3e 60 c3 3f 3d
       0.3275245 -0.04436097 0.35189015 0.046817183
000070 e2 df cd be c1 12 af 3e db 05 92 be 35 b0 95 3e
       -0.40209872 0.34193996 -0.28520092 0.29235998
000080 cb 18 5a bd 5c fa cb be 9b 74 ee 3b 65 63 9b 3e
       -0.0532463 -0.39839447 0.007277084 0.3034927
000090 c1 f5 d5 bd 5e 7a 4d 3e 51 36 84 3e 67 ed a7 3e
       -0.104472645 0.2006621 0.2582269 0.3279831
0000a0 c0 b8 d8 be 94 1f 9d 3e 55 67 b6 3e 1f f3 4b be
       -0.42328453 0.30688155 0.3562571 -0.19916962
0000b0 f4 6d a9 3e 9d 0e 22 be f5 93 05 be 1a de a1 3e
       0.330917 -0.15825887 -0.13044722 0.31614763
0000c0 88 1b 8c 3e 8d 38 f3 bd 81 b5 6d bd 0f d9 ac 3e
       0.27364755 -0.118760206 -0.058034424 0.33759353
0000d0 38 92 51 be 89 b5 ac 3e a8 b0 c7 be 33 64 8b 3e
       -0.20465934 0.3373225 -0.39001966 0.27224883
0000e0 63 44 d6 bc 47 2b 52 3e 50 ac 85 be 38 17 83 be
       -0.026155656 0.20524321 -0.26108027 -0.25603652
0000f0 53 4f a8 3e d5 fc 17 3d 49 40 ee 3d 55 d9 bf be
       0.3287302 0.037106354 0.11633355 -0.374705
000100 ba a0 c0 3d c9 61 b9 bd df e9 cd be 0b 09 fb bd
       0.09405656 -0.09051854 -0.40217492 -0.12257584
000110 25 4a b6 bd 3c fb bf be b7 ab b3 3e 95 74 06 bf
       -0.08900861 -0.37496364 0.35091946 -0.5252164
000120 41 d3 35 3e 69 4d 75 3e d1 8e 3a 3e 8d fa ad 3e
       0.17756368 0.23955311 0.18218543 0.33980218
000130 32 87 8f 3e dd be 5a 3e cb 37 b8 be ed aa c9 3e
       0.28032833 0.21361871 -0.35980067 0.3938822
000140 d2 a0 dc be 4c 93 76 3e 01 f7 03 be 73 fb 5c 3e
       -0.43091446 0.24079627 -0.12887193 0.21580295
000150 0d 62 ef bd cf 99 e6 bd 88 3b ec be d7 44 2b 3e
       -0.116886236 -0.112598054 -0.4613917 0.16725479
000160 8b 37 78 bd c2 96 a0 3e bf a2 8e be 2f 53 7b 3e
       -0.060599845 0.3136502 -0.2785854 0.24543451
000170 70 55 82 3e a6 7d 7c bd 0d 4b 9b 3e 58 18 a7 3e
       0.2545581 -0.061643265 0.30330697 0.3263576
000180 a6 46 8a 3e f0 fb 8b be 9e d7 ad 3e d4 48 b6 be
       0.27007025 -0.2734065 0.33953565 -0.35602438
000190 2d af b0 3e d2 0c 1b bd 01 b1 a5 3e 4a 3a a4 3e
       0.3450865 -0.037854023 0.32361606 0.3207572
0001a0 ce 81 04 3e 56 23 ad bd cc f5 a1 3e 74 0f 1a 3e
       0.12940142 -0.084540054 0.3163284 0.15044957
0001b0 6a b1 cd 3d 38 cf e8 be 7c e2 cc bd d0 74 9c be
       0.10043605 -0.45470595 -0.10004136 -0.3055787
0001c0 00 04 ab 3e 1c f1 9d be d1 1f b3 be cf 31 e0 be
       0.3340149 -0.30848014 -0.34985211 -0.43788
0001d0 3d 1a 45 3e a2 fb a1 3e 96 4e 3e be 52 26 af 3e
       0.1924829 0.31637293 -0.18584666 0.34208924
0001e0 69 2e 41 3e 4a 96 df bd 0d ba 22 3e dd b1 a6 3e
       0.1886536 -0.10917337 0.15891285 0.32557574
0001f0 fb eb 97 be eb a2 b2 3e 00 ec 78 be 7f 31 a2 3e
       -0.29672226 0.34889922 -0.24308777 0.31678388

fc2.weight f4 [128, 128]
000000 58 73 01 bf 77 f5 43 bd 70 3c 28 3e 2a 4c 08 be
       -0.50566626 -0.047841515 0.16429305 -0.13310304
000010 6c e8 88 3e 58 aa 81 bf c0 cc 1e be 98 26 17 bf
       0.26739824 -1.013011 -0.15507793 -0.59043264
000020 27 4c 86 bf ad c1 c1 bf 15 c8 79 3e 09 5a c2 3e
       -1.049199 -1.513723 0.24392731 0.37959316
000030 aa a6 fc 3c 48 35 0f bf 22 90 c6 3c c7 74 5a be
       0.03084119 -0.55940676 0.02423865 -0.2133361
000040 cb 70 94 3e c9 e3 8c 3e 3b d4 32 bf d0 15 b5 3e
       0.28992304 0.27517536 -0.6985509 0.35368204
000050 e6 93 e8 3e ee 8a 38 bf 68 bf a8 bf 0b a9 01 3e
       0.45425338 -0.7208699 -1.3183413 0.12662141
000060 65 ef 01 3f 75 95 1d bf 69 39 c2 3e bb f0 3a 3e
       0.5075591 -0.6155618 0.37934425 0.18255894
000070 cc 7a a9 be 6b 2d bd 3e f5 ab 3b bf 33 5b a5 3e
       -0.331015 0.36948714 -0.7330926 0.32296142
000080 11 78 83 be ab 20 27 bf 25 ba e3 3d ba 89 e9 3d
       -0.2567754 -0.6528422 0.111194886 0.114032224
000090 97 85 d5 be b9 39 33 3e 28 85 49 3e 64 13 82 3e
       -0.41703483 0.17502488 0.19679701 0.2540542
0000a0 96 51 b1 be 04 96 8c 3b 18 20 9e 3d 9b 03 79 bf
       -0.34632558 0.004290344 0.07720965 -0.97271127
0000b0 4e 0e e1 3e c2 01 24 bf 7e 94 ec 3d 12 0b f4 3d
       0.43956226 -0.6406518 0.1155176 0.11916174
0000c0 df 22 10 3d 5e 2d dc bc 07 b9 73 be 03 a2 2d 3e
       0.035189506 -0.026877102 -0.23801051 0.16956334
0000d0 6d 4b 4e bf da ec 98 3e fe 07 b9 bf 58 a3 82 3e
       -0.8058384 0.29868203 -1.4455564 0.25515246
0000e0 a9 72 66 bf 52 85 24 bd 1f 00 fb be 34 52 82 bf
       -0.9001871 -0.040166207 -0.4902353 -1.0181336
0000f0 d3 cf b2 3d 26 94 fd 3c 6b 5f c4 3d 0d f6 84 bd
       0.087310456 0.030954432 0.09588512 -0.06492243
000100 8b 6f 2f bd 46 c6 05 bf 6f 73 7f be dd 95 26 bf
       -0.042830985 -0.52255666 -0.24946378 -0.65072423
000110 34 c2 2a be 15 70 9d be 0b d3 f7 bc 41 33 07 bf
       -0.16675645 -0.30749574 -0.030252 -0.5281258
000120 68 d6 d3 bc df b8 3c be ca cc 33 3d 2e 62 d5 3e
       -0.025859073 -0.18429898 0.043896474 0.41676468
000130 d2 15 83 bd 23 89 91 bc b1 d4 95 bf 24 bd 1f 3e
       -0.06400646 -0.017765587 -1.1705533 0.15599495
000140 db 0f b4 bf fb 6e 9e 3e 82 9c b7 be f0 97 2f 3e
       -1.4067339 0.30944046 -0.35861593 0.17147803
000150 5a f2 cf 3e 97 e8 9d be 8e 91 0d c0 25 78 e9 be
       0.40614587 -0.30841514 -2.212009 -0.45599476
000160 d2 c0 57 bf c4 91 71 3e e8 2e 49 bf cf c0 94 bd
       -0.84278595 0.23590761 -0.785872 -0.07263338
000170 67 c0 b2 3c 97 bf e2 be e0 cd 28 3e 9b 2e 1a 3e
       0.02182026 -0.44286796 0.16484785 0.15056841
000180 a8 bb 01 3d 41 2f 64 bd fd 7a 9c 3e 90 51 46 bf
       0.031673104 -0.055709127 0.30562583 -0.77468204
000190 2b e7 9a 3e e7 79 e2 be 25 bc ae 3e c7 5b d2 3d
       0.30254492 -0.4423363 0.34127918 0.102714114
0001a0 3e 16 92 be 23 cd f5 3d 68 e6 a8 3e a5 45 b2 bd
       -0.28532594 0.12002017 0.32988286 -0.0870469
0001b0 0c 28 a3 be 46 25 65 be f3 b1 03 bf e1 be 26 c0
       -0.3186649 -0.223775 -0.51443404 -2.6054003
0001c0 a3 a6 5f 3e e1 21 70 bf 8d 70 9a bf 29 d7 f3 bd
       0.2184091 -0.93801695 -1.2065598 -0.11906273
0001d0 82 51 ac 3c 06 96 d7 3e bf 66 72 bf 40 97 4c 3e
       0.02103496 0.42106646 -0.9468803 0.19979572
0001e0 e0 75 e2 3d d6 6a 6e be af 67 8a 3d b3 d7 80 3e
       0.11057639 -0.23282942 0.06758057 0.25164565
0001f0 f0 ca e5 be ab e8 c5 3e c1 ea d5 bf 38 1a 93 3e
       -0.44881392 0.38654074 -1.6712266 0.2873094
000200 8b 0a 5a 3d 05 66 cf 3d 34 42 80 3c 32 3e 4e 3e
       0.05323271 0.101268806 0.015656568 0.20140913
000210 9c 31 09 3f 7c a7 55 be 93 66 73 3e 41 fe af bf
       0.5359132 -0.20864671 0.23769598 -1.3749467
000220 c9 50 44 bf ce 84 57 be 4c bd 79 3e b9 a3 c7 3e
       -0.7668577 -0.21046755 0.24388617 0.38992098
000230 bd 91 c2 bd 6a 74 7d be 33 28 a0 3e b9 7e 4d be
       -0.095004536 -0.2475144 0.3128067 -0.20067872
000240 44 15 f3 3d 49 a0 36 be 4d 48 a5 bd 92 9c 27 3e
       0.118692905 -0.17834581 -0.08070431 0.1636832
000250 95 fc 71 3e 89 6a e7 bd 11 b6 e3 bf 3b 96 e2 3d
       0.23631509 -0.11299617 -1.7789937 0.110638104
000260 92 32 46 3e 56 31 59 be 58 a0 6e 3e f1 de 49 be
       0.19355229 -0.21210226 0.23303354 -0.19713952
000270 cc 5f 57 be c7 2d 53 3e 0c ee ef 3c 21 dc a1 3e
       -0.21032637 0.20622931 0.029288314 0.31613258
000280 6d ad 72 be 87 a6 2a bf 40 d9 8e 3e 98 0e bc 3e
       -0.23698969 -0.6666035 0.27900124 0.36729884
000290 fc 31 8f 3d 30 ff 3b 3e 32 44 fd 3d 3f 80 9c 3e
       0.06991956 0.18359065 0.12366523 0.30566594
0002a0 c6 66 8c 3e cf e7 86 3e 7e 4a 9e 3e 31 68 06 bf
       0.2742216 0.2634873 0.30916208 -0.52502733
0002b0 00 a6 d0 3d fc 7d 04 be 36 82 c0 3e ee 7a 97 3e
       0.10187912 -0.12938684 0.37599343 0.29585975
0002c0 2d 29 87 3e d8 64 42 3e c0 9c f3 3c 33 ed cc 3e
       0.26398602 0.18983781 0.02973783 0.4002472
0002d0 e0 04 5f bd 49 6f bb 3e c5 78 ba bf 86 a1 46 3e
       -0.05444801 0.3660834 -1.4568106 0.19397554
0002e0 cd bd d6 be 00 ac 0e bd 28 5a f6 3d e2 f9 1f bf
       -0.41941682 -0.034832 0.12028915 -0.62490666
0002f0 43 2f 91 3e ab e1 9e 3b cd b6 3e 3d 59 58 b1 3e
       0.2835637 0.004848679 0.04656105 0.34637716
000300 4f e4 77 3e 1f 5d b5 3c 95 9a 22 3c 35 5a 2b bd
       0.24208187 0.02213913 0.009924551 -0.041834075
000310 c1 c2 42 be 93 04 c6 bd da e3 d0 3e 99 3e 78 3e
       -0.19019605 -0.09668841 0.40798837 0.24242629
000320 21 7c 0d 3d 96 cf 07 3e 88 7d 22 3e 8c b0 33 3e
       0.034542207 0.13262782 0.15868199 0.17547816
000330 fa be 82 3d ba 4c 90 3e 6e 9a de 3c 8d 51 ee 3e
       0.06384082 0.28183538 0.027173247 0.46546593
000340 c0 b8 3b bf ff 0f 81 3e 16 79 cb bd 0b 92 49 3e
       -0.7332878 0.25207517 -0.09935205 0.19684617
000350 34 5d 44 3e b9 42 7c be 82 64 53 bf e5 ac ad bb
       0.19176179 -0.24634828 -0.8257524 -0.0053001516
000360 ad 06 42 bf 5b 0a c9 3d 1f c3 e2 bf 8a 58 2c bc
       -0.75791436 0.09816428 -1.7715796 -0.010519156
000370 0d fc 14 bd 72 4d 2d be f0 dd 00 3e 8b 04 b7 3e
       -0.036373187 -0.16924074 0.12584662 0.35745654
000380 95 f2 55 3e 0a 1b 59 be ac 49 c7 3e ac fe 13 3f
       0.20893319 -0.21201721 0.38923395 0.57810473
000390 78 bf d2 3e 6e 87 eb 3c d8 64 6c 3e 59 65 fa 3e
       0.41161704 0.028751101 0.23085344 0.48905447
0003a0 c9 d7 00 be 05 5c 78 bd 12 9c 99 3e 33 07 9b be
       -0.12582316 -0.06063463 0.30001885 -0.3027893
0003b0 72 09 44 bd 90 03 0e 3e 0a 1d 43 be 95 1f 91 bf
       -0.04786057 0.13868546 -0.19054046 -1.1337763
0003c0 66 4f 16 3e ab 1f e1 bf 49 44 f9 bf ba 72 c3 3e
       0.14678726 -1.7587789 -1.9473964 0.38173467
0003d0 43 1b eb 3c e6 65 a6 3e db b7 31 be af 7d 7c 3e
       0.028699523 0.32499617 -0.17355292 0.2465732
0003e0 3d 2f 7d 3c 49 1e 6b 3d d5 71 85 3e 54 fb d9 3e
       0.015453157 0.05740193 0.2606341 0.4257456
0003f0 c8 2a 50 be 27 29 91 3e c5 03 45 bf 7c 1a af 3e
       -0.2032882 0.2835171 -0.76958877 0.34199893

fc2.bias f4 [128]
000000 36 d3 c0 3e c5 63 bb 3e 20 ce ab bc f6 29 e0 bc
       0.3766114 0.36599556 -0.020972311 -0.027363759
000010 76 c0 b4 3e 18 26 7c 3e 97 ec 11 bd 85 a1 d5 3e
       0.35303086 0.24623907 -0.03562602 0.41724792
000020 d2 4e 07 bd 13 de 9e 3e df f1 a1 3e 0f 0b 9d 3e
       -0.033034153 0.31028804 0.31629845 0.306725
000030 2c c2 da 3e 88 f2 b6 3e ca 33 93 3e 10 e5 c9 3e
       0.42726266 0.35731912 0.2875045 0.39432573
000040 92 be 52 bc 6f f2 a4 3e 7e c1 a4 3d 39 3a b2 3e
       -0.012862818 0.32216212 0.08044718 0.34810045
000050 84 f4 4c be 60 33 ab bd de 8a 5f 3e fe 40 6a be
       -0.2001515 -0.083594084 0.21830317 -0.22876355
000060 8f ff 9a 3e 14 a1 99 3e 0d 96 7e 3e 53 5b aa 3e
       0.302731 0.30005705 0.24861927 0.332728
000070 77 c1 9b 3e e6 ee 5c bc e7 2d 9a bc b4 87 1b 3e
       0.3042104 -0.013484692 -0.018820716 0.15188485
000080 6c 12 dd 3e d6 52 9d 3e af 68 b9 3a 1c e5 ae bc
       0.43178117 0.3072726 0.0014145578 -0.021349482
000090 d7 fe 31 bd 9a 79 74 3e 1b 2f cd 3e 5d 67 57 3e
       -0.043455925 0.23874512 0.40075 0.21035524
0000a0 a2 a0 39 bd f1 24 bc 3e cf b0 96 3e ea db a0 3e
       -0.045319207 0.36746934 0.2943177 0.3141778
0000b0 39 c3 13 be a6 49 c5 3e 4c 55 aa 3e ea a2 94 3e
       -0.1442994 0.38532752 0.332682 0.29030544
0000c0 c8 5f 9d 3e 66 7a cb 3e c0 3f 90 3e 60 ed ae bd
       0.30737138 0.3974182 0.28173637 -0.085413694
0000d0 1d f1 98 3e a6 db 13 be 56 c0 94 3e 91 46 82 bc
       0.29871455 -0.14439258 0.2905299 -0.01590279
0000e0 b1 b6 a4 3e 7b ce 93 3e 07 c2 27 bd 94 13 2c bd
       0.32170632 0.2886847 -0.040956523 -0.04201086
0000f0 2f 5c 4a bd 2d 8c 7d 3e 6a d9 bc 3e 5f fc 41 3e
       -0.04940432 0.24760504 0.36884624 0.18943928
000100 f2 5e 42 bd 24 ec 7e 3c 13 24 b8 bc 80 a7 27 be
       -0.04745383 0.01555923 -0.022478139 -0.1637249
000110 a0 9b 1d bd f1 99 87 bc ac 85 e4 3c fd 93 86 bc
       -0.038478494 -0.016552897 0.027895771 -0.016427988
000120 e2 c6 1c bc 49 dd d3 3e 9e 30 a2 3e 6a 6c aa 3e
       -0.009568902 0.41379765 0.31677717 0.33285838
000130 b3 56 18 bd d0 36 cc bd 8e 5f 19 be 00 00 00 00
       -0.037192058 -0.09971392 -0.14977857 0.0
000140 cc 4a 60 3e 08 56 c5 3e 3f 09 92 3e ff 84 97 3e
       0.21903533 0.385422 0.2852268 0.29593655
000150 73 1f 91 bc 85 f7 00 be a1 25 9a 3e e9 06 89 3e
       -0.017715191 -0.12594421 0.30106834 0.26763085
000160 a8 a9 95 3e f2 7d 89 3e 10 76 bf 3e 21 16 cc 3e
       0.29231 0.268539 0.37394762 0.39860633
000170 89 84 9c 3e dd 95 b8 3e 0d c4 69 3e 76 cf 2e bd
       0.30569866 0.36051837 0.22828694 -0.04267832
000180 69 5c 9f 3e 6d 14 49 3e d8 f2 62 3e 05 b7 2c bd
       0.3112519 0.19636698 0.2216295 -0.04216673
000190 ba 42 a4 3e c1 9a 96 3e 37 4f 9a 3e d0 2a 21 be
       0.32082158 0.29414943 0.3013856 -0.15738988
0001a0 49 21 d1 3e 42 1a 9a bd ae 48 97 3e f3 66 36 bd
       0.40845707 -0.075245395 0.29547638 -0.044531774
0001b0 b4 8f c4 bc 24 17 d3 bd 52 df 7b 3e 11 e2 26 be
       -0.023994304 -0.10307148 0.24596909 -0.16297175
0001c0 8a 97 4f 3e f7 72 88 3e 3c a2 6f bc e0 b5 42 3e
       0.20272651 0.2665021 -0.014626082 0.19014692
0001d0 85 2c 97 be 01 eb fe bc 44 dc b5 3e b0 fc 51 3e
       -0.29526153 -0.031117918 0.35519612 0.20506549
0001e0 2e 8d 33 bd 34 90 ab 3e c8 77 61 3e 26 47 a2 3e
       -0.04383581 0.33508456 0.22018349 0.31694907
0001f0 b0 07 83 3e e7 13 76 3e e2 68 57 3d a5 88 31 3e
       0.25591803 0.2403103 0.05259026 0.17337282

fc3.weight f4 [2, 128]
000000 59 d3 0e 3f 7f bf 15 3f c8 ce 45 bd 74 20 0b ba
       0.5579124 0.58495325 -0.048292905 -0.0005307265
000010 fa ab e8 3d f7 eb 85 3e 0a 7e f6 bc b3 99 47 3f
       0.11360927 0.2615659 -0.030089397 0.779689
000020 92 81 e7 bd 3e 26 cf 3e 6b 07 02 3f 4f d8 32 3f
       -0.113040105 0.40458864 0.5079257 0.6986131
000030 ab 38 31 3e 82 76 32 3f 75 9c 16 3f 21 3a 07 3f
       0.17306773 0.6971208 0.58832484 0.5282307
000040 6b 01 1a be 4c 3d b7 3e 0f 72 59 bf 7c eb 06 3f
       -0.15039603 0.35788953 -0.84939665 0.5270307
000050 d0 1f a4 bf 2b ff c2 3e 2a 3d 89 3e a4 72 95 bf
       -1.2822208 0.38085303 0.26804477 -1.167561
000060 9d 61 a5 3e bd c0 76 3e c3 2c aa 3e 88 1d f2 3e
       0.32301036 0.24096961 0.33237275 0.47288156
000070 f8 fd e8 3e b7 d1 1e 3a 33 2f aa bd a9 d3 b4 3e
       0.45506263 0.00060584716 -0.08309784 0.35317734
000080 f0 c3 98 3e ac 96 3e 3f 39 ee 75 bf 31 7e 01 3e
       0.29836988 0.7444866 -0.96066624 0.12645794
000090 91 d0 d1 3c cf 45 9f 3e fe b1 b5 3e 5f d4 68 3e
       0.025612148 0.31107947 0.3548736 0.22737263
0000a0 54 a5 4a bd 30 d0 12 be 4b 8c 16 3f a4 78 d7 3e
       -0.049474075 -0.1433723 0.5880782 0.4208423
0000b0 ef 06 b5 be e1 2d 57 bb ed ea 10 3f 0a 92 a3 3e
       -0.35356852 -0.0032833742 0.5660847 0.31947356
0000c0 e8 c3 d3 3e 14 82 08 bd 6b 1d d7 3e 1b 6c 41 bf
       0.41360402 -0.033327177 0.42014632 -0.7555558
0000d0 26 59 1e be 95 63 f4 be ec f6 02 3e 6f 4e f9 bd
       -0.15463695 -0.47732225 0.12789506 -0.12173163
0000e0 8e 75 0e 3f 8e 3c 00 3f 3c 6a 65 bd 1c 80 7c be
       0.55648124 0.500924 -0.056009516 -0.24658245
0000f0 72 5b 1b bd 45 35 ae 3e 38 3b 05 3f 4a 6c 07 3f
       -0.037929006 0.34025016 0.52043486 0.5289961
000100 0e 26 85 be 96 1e 17 3f c0 43 af 3c de 86 1e bf
       -0.26005596 0.59031045 0.02139461 -0.6192454
000110 41 48 25 bf 0a 3a a8 3c 61 22 83 bf 4b 93 85 3d
       -0.64563376 0.020535488 -1.0244867 0.065222345
000120 75 49 a0 bb 92 a1 5a 3d df 92 13 3f 6d bf b1 ba
       -0.0048915693 0.05337674 0.5764598 -0.0013561078
000130 52 eb 57 bc de d2 15 bf 08 d1 b7 bf ab fe c3 3d
       -0.013178663 -0.5852488 -1.4360666 0.095700584
000140 c8 7b f7 3e 47 8d 67 3e c1 c1 db 3e c0 91 44 3e
       0.48336625 0.22612487 0.4292126 0.19196224
000150 5d 20 3b bd 20 a3 e9 3e 81 ac e4 3e f7 d2 ed 3e
       -0.04568516 0.45632267 0.4466286 0.46450016
000160 4c 2c 28 3f 17 af 01 3f b3 d0 0d 3f b2 70 f2 3e
       0.6569259 0.5065779 0.55396575 0.47351605
000170 91 08 ee 3e a1 dd 28 3f dd d3 98 3e 74 ab 4a bd
       0.4649091 0.6596318 0.2984914 -0.049479917
000180 10 66 a9 3e fd 82 a3 bd bd 60 b6 3e 87 24 95 bd
       0.3308568 -0.079839684 0.3562068 -0.07282358
000190 58 d3 cc 3e e9 b1 0b 3f f9 ae 0c 3f ce ab cb bf
       0.40004992 0.54568344 0.5495449 -1.5911806
0001a0 a1 a0 06 3e ac d2 d5 bf 50 f9 45 3f cc db 5e 3f
       0.13147213 -1.6704917 0.77333546 0.87054133
0001b0 8b a1 86 bd 18 92 9e be 32 80 83 3e 9c fb a8 bf
       -0.065737806 -0.30970836 0.25683743 -1.3201785
0001c0 81 36 19 3f 06 8c db 3e c4 93 ce bd 70 9b f3 3e
       0.5984879 0.42880267 -0.10086778 0.47579527
0001d0 ec bf 21 be 7d 23 45 bc 98 58 fc 3e 45 9c a1 3d
       -0.15795869 -0.012032387 0.49286342 0.07891134
0001e0 db a3 81 bc a0 f8 07 3f 18 c9 b4 3e db b4 ce 3e
       -0.015825203 0.53113747 0.35309672 0.40372357
0001f0 64 31 eb 3e d4 42 ce 3e 9b df 77 bf 8e 84 03 3f
       0.4593612 0.4028536 -0.9682557 0.5137414
000200 8c 2b ce 3e c0 ec e6 3d bf ac 2c 3d b0 7f 3f be
       0.402676 0.11275625 0.04215693 -0.18701053
000210 c3 42 13 3f 03 dd 03 3f 2e b9 d2 bd 94 72 ba 3e
       0.57523745 0.5150911 -0.102892265 0.3641554
000220 78 a5 ef 3d e2 11 83 3d 77 39 06 3f 04 5c dd 3e
       0.117014825 0.06399895 0.52431434 0.43234265
000230 05 ee 21 3f 81 19 0e 3f 9d 84 01 3e d3 68 f0 3e
       0.63253814 0.55507666 0.12648244 0.46954975
000240 9c 89 c0 bd 32 7d 30 3e ff 05 92 3e 00 fc 3e 3e
       -0.09401247 0.17235258 0.285202 0.18650818
000250 ba 45 0b 3f 3e 6d 38 bf af 38 81 3e 70 60 95 be
       0.5440327 -0.7204169 0.2523856 -0.29175138
000260 f5 f2 2a 3e cf ed 13 3f b9 6f 98 3e 3b 94 74 3e
       0.16694243 0.5778474 0.29772738 0.2388467
000270 4b 44 5c 3e 42 77 2f 3b c6 a2 61 bc 92 0c 74 be
       0.21510427 0.0026773964 -0.013771718 -0.2383292
000280 dd c3 09 3f 60 92 f5 3e 76 25 35 3f e1 4e 2c be
       0.5381449 0.47963238 0.70760286 -0.16826965
000290 e2 86 84 bc b8 0c 20 3e ab bb 26 3f 33 75 21 3e
       -0.016177598 0.15629852 0.6513011 0.15767364
0002a0 5d 03 d6 bd 96 9c 44 3f 0a 60 0f 3f 1b 95 86 3e
       -0.1044986 0.7680143 0.5600592 0.26285633
0002b0 40 d1 c9 bf 2c f0 39 3f 29 4d 9e 3e 1c 64 a3 3e
       -1.5766983 0.726321 0.30918244 0.31912315
0002c0 04 1d 22 3f f4 49 4a 3f b8 d9 31 bd 0e 18 37 bf
       0.63325524 0.79019094 -0.043420523 -0.7152108
0002d0 21 31 50 3f d0 ac bc bf 9d 28 f8 3e 3a 28 95 bc
       0.81324965 -1.4740238 0.48468485 -0.018207658
0002e0 2d a5 74 3e 2f 0f 06 3f 24 17 8e bd 04 41 8a bd
       0.23891135 0.5236692 -0.069380075 -0.06750682
0002f0 ce fa e6 bc 7d 22 ba 3d d1 7f a2 3d a8 06 cb bd
       -0.028195765 0.09088609 0.07934535 -0.09913379
000300 bf 6d 33 3e f8 2f 23 bf 50 d6 6a be 4b d0 c9 bf
       0.17522334 -0.6374507 -0.22933316 -1.5766691
000310 a6 94 90 be 64 4c 0e be aa 60 75 3e 65 80 87 bd
       -0.2823841 -0.13896328 0.23962656 -0.06616286
000320 aa 7a 6d 3d 5f 1b 3a 3f 31 b4 09 bd d7 7e 12 3f
       0.05797831 0.72698015 -0.03361911 0.5722479
000330 61 db 37 be c7 22 48 3f 99 60 28 be 40 5f 3a bb
       -0.1795478 0.78178066 -0.16443099 -0.002843812
000340 03 c6 fe 3e 3d d1 31 3f 60 f6 95 3e 8e bf 9f 3e
       0.49760446 0.694599 0.29289532 0.31200832
000350 7d 22 6d 3d 50 70 07 c0 0e d8 53 3e be fd 3f 3e
       0.05789422 -2.11623 0.20687887 0.18749139
000360 b1 23 de 3d db 5e e7 3e 0e e0 84 3e 59 f9 d1 3e
       0.10846651 0.45189556 0.2595219 0.4101055
000370 11 8a 30 3f fb 18 15 3e 77 2b f4 3e 17 cb f0 bd
       0.6896067 0.1456031 0.4768941 -0.11757486
000380 f7 df 91 3d e9 b6 3a 3f 8a 09 a5 bd 03 1a 7b bc
       0.07122796 0.7293535 -0.0805846 -0.015326026
000390 a2 e2 1a 3e 29 95 4f bd ea 4f 4b 3e 9e de 9f bb
       0.15125516 -0.05067936 0.19854704 -0.004878833
0003a0 ae aa 18 3f 75 5f ec 3d 22 08 b9 3e f3 a4 31 bf
       0.59635437 0.115416445 0.36139017 -0.6939232
0003b0 6a 1c 16 3d 1f 0b 17 bf 3e 4d 01 3f 39 7c 47 3f
       0.03664819 -0.59001344 0.5050849 0.77923924
0003c0 ca 13 d1 3e 9f 50 12 bd 48 3d 88 bd d9 1b 25 3e
       0.4083541 -0.035721418 -0.066523135 0.16123904
0003d0 76 1a 8f bf 5b 98 38 3d 4f ed 1c 3f 00 bd 0f 3f
       -1.117995 0.045067172 0.61299604 0.56147766
0003e0 f7 da 20 bf a1 37 f9 3e f5 27 ae 3e 38 ca f6 3d
       -0.62834114 0.48675254 0.3401486 0.12050289
0003f0 62 e8 03 3f fc 6e 14 3e 3e ca 74 3f f6 1e fa 3e
       0.51526463 0.14495462 0.956211 0.48851746

fc3.bias f4 [2]
000000 ab 39 aa 3e 32 b1 44 3e
       0.33247122 0.1920822

fc1.weight f4 [128, 4]
000000 29 9f 80 3e 67 1d 68 3c e3 58 fb bf 59 cb a5 be
       0.2512143 0.014167166 -1.9636501 -0.32381704
000010 a8 92 23 be 11 c9 5f be 7a ed da bc 91 e3 05 be
       -0.15973914 -0.21854044 -0.026724566 -0.13075091
000020 7a d8 50 be 62 3e 08 be 66 68 0d 3f 6f a1 f2 3b
       -0.2039508 -0.13305047 0.55237424 0.0074044983
000030 29 89 86 3e b9 59 93 3e 16 d8 e5 3e ba 61 24 3e
       0.2627652 0.2877939 0.44891423 0.16052905
000040 e8 84 11 3d 34 b4 c8 bc 9b 77 27 3e f6 a1 83 bd
       0.03552714 -0.02449999 0.1635422 -0.06427376
000050 c5 17 bf 3d b4 27 57 3d dc 49 ac bf 00 1a 06 be
       0.093307056 0.0525281 -1.346004 -0.13095856
000060 07 d6 88 3e 3d 2b 83 3d 01 ed 0c bc 5a 9b f4 3d
       0.2672579 0.064047314 -0.008601428 0.119436935
000070 02 fe b9 be dd 56 2f 3d 99 e7 01 40 4e 08 cf 3e
       -0.36326605 0.04280745 2.0297606 0.40436023
000080 34 f0 b0 3e a7 a2 b0 3e a2 63 8b 3f bc 82 92 3e
       0.3455826 0.34499094 1.088978 0.28615367
000090 17 89 5d 3e 45 3c 3b bc 80 f2 b4 bf 54 85 98 be
       0.21634327 -0.011427944 -1.4136505 -0.2978922
0000a0 3c 4d 85 3e 92 0b 74 be 4f fe 68 bd 79 b3 e7 bd
       0.26035488 -0.23832539 -0.056883153 -0.113135286
0000b0 02 a8 5d 3e bc 49 24 be 90 c0 a9 be f0 6d e0 bd
       0.21646121 -0.16043752 -0.33154726 -0.10958469
0000c0 84 4d 18 3f 88 d6 d4 3e 31 42 a5 3d 02 84 84 3e
       0.5949328 0.41569924 0.08069266 0.25881964
0000d0 44 7d be be ee 2d 67 be 90 9a 3a bf 3d e7 4b be
       -0.37204945 -0.22576115 -0.72892094 -0.19912429
0000e0 63 f4 b6 3e fb 5c 3f 3e a8 17 62 be 69 dd 02 3e
       0.35733327 0.18687813 -0.22079337 0.12779774
0000f0 8e 06 a4 3e 47 50 55 3e 9e 1a a7 3f ab ca 53 3e
       0.3203625 0.20831405 1.3054998 0.2068278
000100 14 f0 0d 3e 32 f3 1e bd b8 c1 b1 bd 8a 76 b2 bd
       0.13861114 -0.038806148 -0.08679527 -0.08714016
000110 a2 ab 0b 3e 8a af 33 bd 4c 61 2b bf 68 ad 26 3d
       0.13639691 -0.04386858 -0.6694534 0.040692717
000120 04 c6 c0 3e 35 0e 75 3e 93 3f 81 bf 47 1e 91 3d
       0.37651074 0.23931201 -1.0097526 0.07085853
000130 d7 2a 9b 3e e3 97 35 be a6 cf e5 be a8 b8 1d bd
       0.30306122 -0.17733721 -0.44884986 -0.03850618
000140 c1 ea e7 bd 36 60 94 3d 64 d8 1d 3e 2b 79 be 3d
       -0.11324073 0.07244913 0.15414578 0.09300455
000150 ae 39 33 be eb 93 38 be 72 9b 27 bf 25 68 06 3d
       -0.17502472 -0.18025176 -0.65471566 0.032814164
000160 6b 81 e1 bd 4e 59 da 3d a3 be b9 3f 68 89 87 3e
       -0.11011013 0.10661565 1.4511303 0.2647202
000170 5c f3 02 3d 97 b8 0e bb 07 f1 6e bd dc 0e 56 3a
       0.031970367 -0.0021777505 -0.05833533 0.00081656664
000180 a3 aa 26 3e 58 39 3c be 08 83 90 be 13 df 04 be
       0.1627603 -0.1838125 -0.2822497 -0.12975721
000190 fb 95 be be 42 2c 90 be 7a a9 32 bf 78 2f 6e be
       -0.372238 -0.28158766 -0.6978985 -0.23260295
0001a0 16 84 a2 bd 3e f5 22 3d 47 86 dd 3e fe 90 95 3d
       -0.0793535 0.039784662 0.43266508 0.07303046
0001b0 26 4d c1 3e d2 1b 96 bd 33 61 01 bf 8a 57 8a bd
       0.37754172 -0.07329525 -0.5053894 -0.06754978
0001c0 43 a3 23 be c8 bb e0 3c 85 ba 8b bf 04 11 9e be
       -0.15980248 0.027433291 -1.0916296 -0.30872357
0001d0 63 38 91 bd 1b 70 1b 3d 47 1f 05 3f 99 1a b1 bb
       -0.07090833 0.03794871 0.5200085 -0.005404782
0001e0 4a 3a 82 be 47 e8 56 be 9e 92 72 bf 8c 4a 97 be
       -0.25435096 -0.20987044 -0.9475497 -0.29549062
0001f0 9f 4d 36 bd 48 77 38 bd 87 b3 c9 3e e9 f8 56 be
       -0.04450762 -0.04503563 0.3939478 -0.20993389
000200 a0 6a 80 3d 4a 62 9f 3e 01 0f 9a 3f be d3 91 3e
       0.06270337 0.31129676 1.2035829 0.2848186
000210 b2 88 59 3e 8e 2f af 3d 5f 32 86 3f ad ee 05 3e
       0.21243551 0.08553992 1.0484122 0.13079329
000220 e8 15 0a 3f 33 1e ca 3d bd a2 a3 bf 1c d9 a6 bb
       0.53939676 0.09869041 -1.2784039 -0.0050917994
000230 c4 e3 ec 3d 33 19 11 be 1c c4 fb be 00 b6 e0 bd
       0.1156688 -0.14169769 -0.49173057 -0.10972214
000240 9d 52 a3 be 5e 65 8d be fd 44 81 bf 58 c8 61 be
       -0.31898966 -0.276164 -1.0099179 -0.22049081
000250 ac 5f 92 3d 95 d1 de bd b6 1e d5 be 5a 6b 06 be
       0.07147154 -0.10879818 -0.41624993 -0.13126889
000260 7e 00 3d be 54 35 0f be b7 2f b8 3d c5 42 b9 3c
       -0.18457219 -0.13985187 0.08993476 0.022614846
000270 a8 f2 82 3c 34 32 6b 3d d5 64 a6 be d7 19 cf bd
       0.015984848 0.057420924 -0.32498804 -0.101123504
000280 45 95 ce 3d d9 3a ec bd cf 04 ee bf d7 d6 b2 be
       0.10087065 -0.11534662 -1.8595217 -0.34929535
000290 d0 61 16 be cc b4 d0 bc 2a 2c 55 3e 00 1b e5 3d
       -0.1468575 -0.025476836 0.20817629 0.111867905
0002a0 b8 ea ed bc ab 1a 93 3d 22 a3 d5 3c 6c 67 1d 3d
       -0.029042587 0.07182821 0.026078764 0.03842871
0002b0 a4 56 06 bf d7 87 a2 bd 41 a8 34 3f 02 58 e4 3d
       -0.52475953 -0.07936066 0.70569235 0.11149599
0002c0 6e 1d 08 3e 76 36 c5 bd 31 98 73 3e fb fa bc bc
       0.13292477 -0.09629528 0.23788525 -0.023068896
0002d0 de ae dd 3e cd c8 88 3e f5 e9 dc be 9c 9e dd 3d
       0.43297476 0.267157 -0.43147245 0.10821268
0002e0 8e ca 24 3e 55 a8 8a 3e ba 1f 15 bf 46 0b 9b bd
       0.16092893 0.27081552 -0.58251536 -0.075705096
0002f0 a7 32 1d 3e 6c 59 8a bd 65 a0 de bd 8c 31 d8 bd
       0.15351354 -0.06755337 -0.108704366 -0.10556325
000300 9f 2c a2 bd fa c2 95 3d 67 8d 0c be 9e 6a 49 3e
       -0.07918667 0.073125795 -0.13725816 0.19669577
000310 a0 5c 31 3e bf f6 a7 3e b2 18 11 3f 18 d7 74 3e
       0.1732049 0.3280544 0.5667831 0.23910177
000320 75 ce 23 be 2b 2c 17 bc 74 e5 44 3e 59 a5 2a be
       -0.15996726 -0.009226839 0.19228154 -0.16664638
000330 1c 48 93 bb 2b a6 74 3d 0f 35 57 3d b6 86 10 be
       -0.00449468 0.059728783 0.052540835 -0.14113888
000340 ce 77 9f be 24 3c 85 be 48 ec 80 bf 0a d6 a0 be
       -0.3114609 -0.26022446 -1.0072107 -0.314133
000350 c5 24 9a 3d df 1b 43 bd 71 7b 08 bb 59 f6 ac bd
       0.075265445 -0.047634 -0.002082553 -0.084454246
000360 30 5b 4b be 18 72 30 bb 36 d8 bb 3f 9a d0 94 3e
       -0.19859004 -0.0026923474 1.4675357 0.290654
000370 cd 92 a3 be 07 67 44 3e 95 fd e1 3e 02 90 52 3e
       -0.31947938 0.19179927 0.4413878 0.20562747
000380 0e 97 0c bf 9a dd c9 bd d5 75 b7 be 13 6d 3e bd
       -0.5491799 -0.0985672 -0.35832086 -0.04649074
000390 70 6c 01 3d 0e c0 e0 3d 65 4a 4c be 4d 59 69 3e
       0.031597555 0.109741315 -0.19950254 0.22787972
0003a0 36 da ac be d2 47 6b be 5a 02 77 bf e1 81 96 be
       -0.33760232 -0.22976616 -0.96487963 -0.29395965
0003b0 b4 30 64 3e 82 f0 00 3e 0e b3 a4 3f 00 9b 26 3e
       0.22284204 0.12591746 1.2867143 0.16270065
0003c0 23 b5 69 3e bf 58 b7 bd 8f d1 34 bf cd 62 10 bd
       0.22823004 -0.08952474 -0.7063226 -0.035250474
0003d0 89 bc 93 be 8c 6a 26 3e 6d 03 05 3f ce 37 82 3e
       -0.28854778 0.16251582 0.5195835 0.254332
0003e0 6d b0 e3 bd 10 f8 41 be 51 f5 12 bd 4c 79 f7 bd
       -0.11117635 -0.18942285 -0.035878483 -0.120836824
0003f0 54 59 ff 3e 19 3b 13 3e 40 f3 ba bf f8 b8 06 be
       0.4987284 0.14378013 -1.4605484 -0.13156497

fc1.bias f4 [128]
000000 81 ca da be 38 ce 31 3e 30 98 9f 3e 20 94 c3 bd
       -0.42732623 0.17363822 0.31170797 -0.09549737
000010 57 c4 a7 3e cb fd 8c be c0 24 41 3e d9 62 bf be
       0.32766983 -0.2753738 0.18861675 -0.37380102
000020 54 71 03 be 2f 3e de be 27 90 99 3e c1 9f 9d 3e
       -0.128362 -0.43406817 0.29992792 0.30785945
000030 da 1d 0a be 02 aa bc bc 11 6a f4 3d 8f 82 29 be
       -0.1348795 -0.023030285 0.11934293 -0.1655371
000040 96 49 aa 3e 38 73 16 be 24 99 45 be d8 4a b9 3e
       0.33259267 -0.1469239 -0.192967 0.36189914
000050 b9 af a3 3e 30 c1 1a be dc 96 aa be af eb 9f bd
       0.31970003 -0.15112758 -0.33318222 -0.07808625
000060 b8 a2 a7 3e a5 cd 35 bd 9f 42 b4 3e a6 65 34 3d
       0.32741332 -0.04438557 0.35207078 0.044042252
000070 09 47 cd be 54 1a af 3e d3 a2 91 be e1 a4 95 3e
       -0.40093258 0.34199774 -0.28444538 0.29227355
000080 06 f6 41 bd c8 6e cc be 70 6b aa 3b 38 40 9b 3e
       -0.047353767 -0.3992827 0.005200796 0.30322433
000090 68 26 d3 bd d1 d1 4d 3e 84 63 84 3e ee b3 a7 3e
       -0.1031006 0.2009957 0.25857174 0.32754463
0000a0 fe 81 d1 be a1 3a 9e 3e 48 43 b6 3e 7d 09 4f be
       -0.4091949 0.30904105 0.35598207 -0.20218463
0000b0 ed 7c a9 3e 5b 1f 22 be ce 46 08 be 97 b5 a1 3e
       0.33103123 -0.15832274 -0.1330826 0.31583855
0000c0 d4 fa 8b 3e 70 bd f0 bd fd c1 6a bd 52 b9 ac 3e
       0.27339804 -0.11754882 -0.057313908 0.33735138
0000d0 bb ac 4b be 71 97 ac 3e 1b e1 c9 be 70 54 8b 3e
       -0.1989011 0.3370929 -0.39429554 0.27212858
0000e0 35 40 d6 bc 9a 78 50 3e 2f d4 84 be a6 4e 84 be
       -0.026153663 0.20358506 -0.25943133 -0.25841254
0000f0 64 0d a8 3e 11 cb fe 3c bf 3e ec 3d 9e dd c0 be
       0.32822716 0.031102689 0.11535405 -0.3766908
000100 fb 87 bf 3d c8 61 b9 bd a0 18 cb be b2 69 f3 bd
       0.09352108 -0.090518534 -0.39667225 -0.11885394
000110 24 4a b6 bd 39 c1 bf be f4 4c b3 3e dd 38 04 bf
       -0.0890086 -0.37452105 0.35019648 -0.51649266
000120 0f 5e 35 3e 01 85 74 3e 94 c0 3a 3e 36 e4 ad 3e
       0.17711662 0.23878862 0.18237525 0.33963174
000130 dc 8d 8f 3e 3f 31 5f 3e 6a 6c b8 be 2d eb ca 3e
       0.28037918 0.2179613 -0.36020213 0.3963255
000140 e8 9b dc be 40 6f 76 3e 74 ab f9 bd f6 52 5c 3e
       -0.43087697 0.24065876 -0.12190905 0.21516022
000150 f2 17 05 be 88 d1 e5 bd 58 7a ef be cc 37 2b 3e
       -0.12997416 -0.112216055 -0.46773028 0.16720504
000160 c7 08 67 bd 1c 17 a3 3e fe d7 92 be 70 26 7b 3e
       -0.056404855 0.3185357 -0.28680414 0.24526381
000170 5b 1d 82 3e 38 59 81 bd f2 fe 9a 3e c2 1f a7 3e
       0.2541302 -0.06315845 0.30272633 0.32641417
000180 ae 27 8a 3e c6 d0 8b be d2 a3 ad 3e 42 82 b7 be
       0.26983398 -0.2730772 0.33914047 -0.35841566
000190 7a a4 b0 3e d2 dd 1f bd 4e a2 a5 3e 08 fa a3 3e
       0.34500486 -0.039029904 0.3235039 0.32026696
0001a0 02 54 04 3e 04 7d b1 bd 60 78 a1 3e 11 e3 1b 3e
       0.12922671 -0.08666423 0.3153715 0.15223338
0001b0 24 cd c8 3d bb e3 ec be 57 8a cb bd 02 17 a0 be
       0.098047525 -0.46267495 -0.099384956 -0.31267554
0001c0 92 c2 ab 3e 80 e8 9c be 51 a3 b3 be 6c 23 db be
       0.33546883 -0.30646133 -0.35085538 -0.42800462
0001d0 d4 78 44 3e 7c f0 a1 3e 9b 03 3e be 68 e6 ae 3e
       0.19186717 0.31628788 -0.18556063 0.3416016
0001e0 05 08 41 3e 3d 87 df bd 3e 37 24 3e e3 8e a6 3e
       0.18850715 -0.109144665 0.16036698 0.3253089
0001f0 b9 1c 98 be 92 b7 b2 3e 5c 20 7a be a7 6b a3 3e
       -0.29709414 0.34905678 -0.24426407 0.3191807

fc2.weight f4 [128, 128]
000000 fd bb fd be 0c 5e 3c bd 45 42 29 3e 0e f7 05 be
       -0.49557486 -0.045988128 0.16529186 -0.13082525
000010 4e 69 89 3e 4a c9 7f bf f4 10 1e be d4 c1 16 bf
       0.26838154 -0.9991652 -0.15436155 -0.5888951
000020 55 e5 85 bf 94 c4 bf bf bd 56 7a 3e fe a9 c2 3e
       -1.0460612 -1.4981866 0.2444715 0.3802032
000030 fa 99 05 3d e2 ea 0d bf 54 87 d5 3c bb bb 56 be
       0.032617547 -0.5543653 0.026065506 -0.20970051
000040 de df 94 3e 45 4a 8e 3e ec bb 32 bf ce 55 b5 3e
       0.29077047 0.27791038 -0.69817996 0.35417026
000050 25 21 e9 3e c9 bd 33 bf 06 7a a7 bf 0b a9 01 3e
       0.455331 -0.70211464 -1.3084114 0.12662141
000060 f3 19 02 3f 43 27 1c bf c8 c5 c2 3e 17 f5 3b 3e
       0.50820845 -0.6099741 0.3804152 0.18355213
000070 ba 27 a1 be 6c c4 bd 3e a1 f1 34 bf 00 fa a5 3e
       -0.3147562 0.3706392 -0.70681196 0.32417297
000080 63 59 82 be e8 36 24 bf 3b b9 e7 3d f0 da ea 3d
       -0.25458822 -0.6414628 0.11314627 0.1146754
000090 93 ee d1 be bf f5 33 3e 6b ca 4a 3e 57 93 82 3e
       -0.4100233 0.17574213 0.19803779 0.25503036
0000a0 6c c0 a9 be 2a 9a ab 3b 89 29 a0 3d 55 cd 73 bf
       -0.3315462 0.0052368836 0.07820422 -0.95235187
0000b0 46 7a e1 3e 49 a8 23 bf fa 8c ee 3d 47 b7 f5 3d
       0.440386 -0.6392866 0.11647983 0.11997848
0000c0 e1 ee 13 3d 57 cc c2 bc e8 f0 70 be 40 c1 2e 3e
       0.036116485 -0.023779077 -0.23529398 0.17065907
0000d0 b0 36 4b bf 7b 63 99 3e 2b a9 b8 bf 50 67 83 3e
       -0.7938032 0.2995871 -1.4426626 0.2566476
0000e0 56 49 64 bf f0 8a 20 bd 8e 05 f2 be f1 e3 81 bf
       -0.891744 -0.039195 -0.47269863 -1.0147687
0000f0 26 ed b3 3d ce ec 00 3d 27 f0 c8 3d 0a 8d 7f bd
       0.08785467 0.031475835 0.098114304 -0.062390365
000100 9e 63 24 bd 46 c6 05 bf ca d8 6f be b2 25 25 bf
       -0.040134065 -0.52255666 -0.23422542 -0.64510643
000110 34 c2 2a be 4b 27 95 be dc c4 f1 bc 71 c2 03 bf
       -0.16675645 -0.2913154 -0.029512815 -0.5146857
000120 65 60 c4 bc 27 ae 3b be 77 6c 38 3d 2a cf d5 3e
       -0.023971746 -0.18328153 0.045025315 0.41759616
000130 51 8c 81 bd cb 76 88 bc bb e7 93 bf e6 de 20 3e
       -0.06325591 -0.016658207 -1.1555094 0.15710029
000140 57 6b b2 bf 63 ba 9e 3e b8 df b2 be 33 ec 30 3e
       -1.3939008 0.31001577 -0.3493631 0.17277603
000150 35 5a d0 3e 70 f8 9c be 02 7a 0c c0 86 8b e7 be
       0.40693823 -0.30658293 -2.1949468 -0.45223635
000160 a2 06 55 bf 4d 9a 72 3e 7c 79 48 bf eb 7e 93 bd
       -0.83213246 0.23691674 -0.7831037 -0.07201942
000170 5a ca bb 3c b6 dc df be ec fe 29 3e 7f 11 1b 3e
       0.022923637 -0.43723077 0.16601151 0.15143393
000180 4a cc 05 3d 54 36 2a bd 49 f4 9c 3e d4 92 43 bf
       0.03266553 -0.041555718 0.30655125 -0.76395917
000190 47 92 9b 3e 63 5e de be d3 34 af 3e 39 44 d4 3d
       0.30385038 -0.43431386 0.3421999 0.10364575
0001a0 e2 de 90 be b7 99 f9 3d 33 52 a9 3e 3e 2c b0 bd
       -0.28295046 0.12187522 0.33070526 -0.086021885
0001b0 42 b7 a1 be 3c 76 62 be 9d 2a 02 bf 9b 89 25 c0
       -0.31585127 -0.22115415 -0.5084627 -2.5865238
0001c0 87 ad 60 3e ec 65 6f bf 4a df 99 bf ad 06 d8 bd
       0.21941195 -0.93514895 -1.2021267 -0.10548148
0001d0 44 ce b8 3c 4c 21 d8 3e e8 4e 6d bf d3 39 4d 3e
       0.022559293 0.42212903 -0.92698526 0.2004159
0001e0 b6 2d e5 3d b8 67 68 be af 8b 8d 3d 3f 62 81 3e
       0.11190359 -0.22695816 0.06911408 0.25270268
0001f0 94 bc e5 be 47 6f c6 3e 44 ab d5 bf 28 9b 93 3e
       -0.44870436 0.38756773 -1.6692891 0.28829312
000200 5c 30 5b 3d eb 35 cd 3d d4 12 69 3c 78 50 4c 3e
       0.053512916 0.1002005 0.01422568 0.19952571
000210 98 ae 08 3f 23 e2 54 be 5b 51 71 3e c6 76 b1 bf
       0.5339141 -0.2078939 0.23566191 -1.3864372
000220 ac 94 44 bf eb 10 58 be 0f 31 78 3e ac c3 c6 3e
       -0.76789355 -0.21100204 0.24237464 0.3882116
000230 0f fc c6 bd c7 22 7f be 5b 3b 9f 3e 7a e5 4e be
       -0.09716045 -0.2491561 0.31099972 -0.20204726
000240 98 d3 ee 3d e7 cc 32 be be 6f ac bd b1 fa 25 3e
       0.11661452 -0.17460977 -0.08419751 0.16208912
000250 3a 53 70 3e 17 81 e6 bd ae 31 e4 bf 3a 96 e2 3d
       0.23469248 -0.11255091 -1.7827661 0.1106381
000260 d2 99 44 3e a4 7e 5a be c8 db 6c 3e cc 0e 4c be
       0.19199303 -0.21337372 0.23130715 -0.1992752
000270 f4 cb 5a be e9 23 51 3e f8 67 f0 3c ce b4 a0 3e
       -0.21366864 0.20423855 0.029346451 0.31387943
000280 6a 38 74 be 40 c9 2a bf 3f b5 8d 3e b3 4b bb 3e
       -0.23849645 -0.66713333 0.27677342 0.3658119
000290 36 c2 8d 3d 20 8d 3a 3e 5c b2 fa 3d 87 5b 9b 3e
       0.069218084 0.18217897 0.122410506 0.30343267
0002a0 58 fc 8a 3e dc 78 86 3e d9 4d 9d 3e 4d b3 06 bf
       0.27145648 0.26264083 0.30723456 -0.5261734
0002b0 ff 0e cd 3d fa 6f 07 be 22 eb bd 3e d2 6d 96 3e
       0.10012626 -0.1322631 0.37093455 0.2938066
0002c0 2a 84 86 3e c8 c5 40 3e 5b 56 d3 3c aa b1 cb 3e
       0.26272708 0.18825448 0.025798013 0.39783984
0002d0 a0 1d 62 bd 7c 6c ba 3e e3 89 bb bf 3f 30 45 3e
       -0.055204034 0.36410892 -1.4651455 0.19256686
0002e0 d6 37 d7 be 80 2e 15 bd f6 8b f5 3d 62 78 20 bf
       -0.42034787 -0.0364213 0.11989586 -0.6268369
0002f0 dc 4e 90 3e a8 a1 84 3a ec 8c 3a 3d d6 91 af 3e
       0.28185165 0.0010118978 0.04554455 0.34290951
000300 87 a5 76 3e 1e 5d b5 3c b6 b3 1c 3c 9c c7 32 bd
       0.24086581 0.022139128 0.009564331 -0.043647394
000310 c1 c2 42 be 22 58 ca bd 44 cc cf 3e e4 e5 78 3e
       -0.19019605 -0.09880091 0.4058553 0.24306446
000320 77 37 09 3d 09 66 06 3e c2 56 20 3e 72 cc 31 3e
       0.03350016 0.13124861 0.15658095 0.17363146
000330 af 4d 80 3d 4d 63 8f 3e 72 18 e1 3c 4b 80 ed 3e
       0.06264817 0.28005448 0.027477477 0.46386942
000340 5c 00 3c bf 76 9e 7f 3e 7a 83 c8 bd 48 3a 47 3e
       -0.7343805 0.24962792 -0.09790702 0.19455826
000350 db 0d 41 3e d9 5d 7e be 12 8c 53 bf 6a d9 be bb
       0.18852942 -0.24840488 -0.82635605 -0.0058242576
000360 3f 2b 42 bf 0f 11 c5 3d 04 58 e3 bf 40 b6 3c bc
       -0.7584724 0.09622394 -1.7761235 -0.011518061
000370 a4 58 1e bd c4 5a 2e be 2d ef fc 3d e4 40 b6 3e
       -0.038658753 -0.17026812 0.12350307 0.35596383
000380 51 36 53 3e 85 56 4d be b1 4a c6 3e 87 f0 14 3f
       0.20626189 -0.20052536 0.3872886 0.58179516
000390 07 eb d1 3e fe b2 e3 3c ea 6e 6a 3e ad 6e f9 3e
       0.40999624 0.027795311 0.22893873 0.4871725
0003a0 d9 cb 01 be 38 73 80 bd 12 7b 98 3e 5b df 9b be
       -0.12675418 -0.06271976 0.29781395 -0.30443844
0003b0 73 a0 49 bd dc 49 09 3e 19 19 44 be 2d a9 90 bf
       -0.049225282 0.13407081 -0.19150199 -1.1301628
0003c0 fb c5 14 3e 15 dd e1 bf 3f 7d fb bf b7 b9 c3 3e
       0.14528649 -1.7645594 -1.9647597 0.38227627
0003d0 56 44 d9 3c a0 8c a5 3e 0d 3f 32 be 52 60 7a 3e
       0.026521843 0.3233385 -0.17406864 0.24450806
0003e0 a4 89 59 3c a4 2e 63 3d 1d 60 84 3e 26 27 d9 3e
       0.013277445 0.0554644 0.2585458 0.4241268
0003f0 ba 43 54 be d3 46 90 3e 64 dc 46 bf 46 4d ae 3e
       -0.2072896 0.28179035 -0.7768004 0.3404333

fc2.bias f4 [128]
000000 30 3b c1 3e 53 60 ba 3e 1f ce ab bc f6 29 e0 bc
       0.3774047 0.36401615 -0.02097231 -0.027363759
000010 45 2a b4 3e 6e a5 7b 3e 97 ec 11 bd 7a 48 d6 3e
       0.351885 0.24574825 -0.03562602 0.4185217
000020 d2 4e 07 bd a6 4c 9e 3e 7a d8 a1 3e e7 05 9d 3e
       -0.033034153 0.30917853 0.3161047 0.30668566
000030 8a b8 d9 3e 50 af b7 3e 56 7f 92 3e b7 28 ca 3e
       0.42523605 0.3587594 0.28612775 0.39484188
000040 92 be 52 bc 34 69 a4 3e 68 c7 96 3d 02 55 b2 3e
       -0.012862818 0.32111514 0.073622525 0.3483048
000050 ca 6c 50 be c7 07 8f bd f3 3f 60 3e 5b d6 69 be
       -0.20354 -0.06983905 0.21899395 -0.22835676
000060 15 03 9b 3e d1 e3 99 3e 35 a3 7f 3e 82 9b a9 3e
       0.3027579 0.30056623 0.24964602 0.33126456
000070 0d b2 9b 3e e6 ee 5c bc e6 2d 9a bc 77 dd 1a 3e
       0.3040928 -0.013484692 -0.018820714 0.15123545
000080 52 2a dc 3e 27 5a 9d 3e 31 1f 4b bc 1c e5 ae bc
       0.43001038 0.30732843 -0.012397573 -0.021349482
000090 d7 fe 31 bd 3e 52 75 3e 92 fb cc 3e 24 51 59 3e
       -0.043455925 0.23957154 0.40035683 0.21222359
0000a0 a2 a0 39 bd e3 f3 bb 3e ca f5 96 3e 54 13 a0 3e
       -0.045319207 0.36709508 0.29484397 0.31264746
0000b0 34 5f 12 be 7b 08 c5 3e 29 7d aa 3e 0c c9 93 3e
       -0.1429413 0.38483033 0.33298615 0.28864324
0000c0 91 33 9d 3e be 43 cb 3e eb df 8f 3e 18 e1 b0 bd
       0.30703405 0.3970012 0.28100523 -0.08636683
0000d0 25 d6 99 3e a4 73 16 be 96 2c 94 3e 91 46 82 bc
       0.30046192 -0.14692551 0.28940266 -0.01590279
0000e0 d6 d8 a4 3e 82 13 93 3e 06 c2 27 bd 93 13 2c bd
       0.32196683 0.2872582 -0.04095652 -0.042010855
0000f0 2f 5c 4a bd e9 cf 7d 3e 22 ec bb 3e 3b b4 43 3e
       -0.04940432 0.24786343 0.36703593 0.19111721
000100 f2 5e 42 bd 71 e7 83 3c 13 24 b8 bc 7d 3c 29 be
       -0.04745383 0.01610157 -0.022478139 -0.1652698
000110 e7 cf 24 bd f1 99 87 bc da 25 eb 3c fd 93 86 bc
       -0.040237334 -0.016552897 0.028704572 -0.016427988
000120 e2 c6 1c bc 59 7f d3 3e 71 c9 a1 3e ff 14 aa 3e
       -0.009568902 0.41308096 0.31599 0.33219144
000130 b3 56 18 bd 25 13 cd bd 8b 0d 21 be 00 00 00 00
       -0.037192058 -0.10013417 -0.15727822 0.0
000140 56 bc 5e 3e 9b 17 c5 3e 9c 33 92 3e 0c e5 96 3e
       0.21751532 0.38494572 0.28555 0.29471624
000150 73 1f 91 bc ba 83 e9 bd 1e e2 9a 3e 9e 96 88 3e
       -0.017715191 -0.11402078 0.3025064 0.26677412
000160 0e 45 96 3e 21 d8 89 3e e8 82 be 3e 17 40 cc 3e
       0.2934956 0.26922706 0.3720925 0.39892647
000170 01 df 9a 3e 13 61 b8 3e d8 88 6a 3e 75 cf 2e bd
       0.30248263 0.36011562 0.22903764 -0.042678315
000180 af ea 9e 3e 74 dc 49 3e fb 6d 62 3e 04 b7 2c bd
       0.31038424 0.19713002 0.22112267 -0.042166725
000190 6b 92 a3 3e 2e b2 95 3e 12 81 99 3e fc 28 2a be
       0.31947646 0.29237503 0.29981285 -0.16617197
0001a0 96 20 d0 3e ab 00 ae bd f9 08 97 3e 75 fc f0 bc
       0.4064986 -0.08496221 0.29499033 -0.029417256
0001b0 b3 8f c4 bc d1 bc d3 bd 37 d6 7a 3e 1c fb 36 be
       -0.023994302 -0.10338748 0.24495779 -0.17869228
0001c0 3a 3b 4f 3e 2b 35 88 3e 3c a2 6f bc 37 9a 40 3e
       0.20237437 0.26603064 -0.014626082 0.18808828
0001d0 8a 73 98 be 00 eb fe bc 0d 48 b5 3e d2 63 51 3e
       -0.2977565 -0.031117916 0.35406533 0.20448235
0001e0 06 8b 31 bd f1 e6 ab 3e 59 ce 61 3e e0 a0 a1 3e
       -0.043345474 0.33574632 0.22051372 0.3156805
0001f0 03 9b 83 3e 03 c5 76 3e 82 d9 59 3d b1 51 31 3e
       0.25704202 0.24098592 0.053185947 0.17316319
