Project/output/acrobot/ddqn_duel_per/final_model.pth (torch, 832866 bytes, 44 tensors)

fc1.weight f4 [128, 6]
000000 6e 94 37 be a1 af f2 3d 2b d8 68 3e 9e 55 90 3d
       -0.17927715 0.11849905 0.22738712 0.0704758
000010 6b 91 ae be 7d 28 12 be 74 71 e0 bd 14 ea ac be
       -0.3409532 -0.14273258 -0.109591395 -0.33772337
000020 8a 40 9f be 4b 50 09 3f 20 96 1e bd 3f c4 10 be
       -0.31103927 0.5363814 -0.03871739 -0.14137362
000030 6a 32 19 bd c6 04 19 3f 23 87 fc 3d b9 02 2e 3e
       -0.037401594 0.5977291 0.12330463 0.16993226
000040 78 9e 32 bd a8 bc ed 3d 1b 7c d3 be 1e fe 10 3e
       -0.04360816 0.11608249 -0.41305622 0.14159438
000050 e2 17 5b 3e a6 cd 87 3d 51 90 6b 3e 9a dd 58 3d
       0.2139583 0.06631021 0.23004271 0.05294571
000060 b5 b3 31 3e ef c9 9b 3e 13 75 1f be d2 f4 5f 3e
       0.17353709 0.304275 -0.15572004 0.21870735
000070 05 91 56 be 83 b0 17 be 7d 87 c2 3e 50 6a 92 3e
       -0.20953758 -0.14813428 0.37993994 0.28596735
000080 ed 43 21 be 34 33 33 3d 59 d0 1d be de d4 02 be
       -0.15748568 0.043750003 -0.1541151 -0.12776515
000090 81 b7 30 3e d5 42 cf 3e 72 35 93 be 18 de 2e 3e
       0.17257501 0.40480676 -0.28751713 0.1707691
0000a0 b2 75 13 be 6a 14 76 3d 7d 0d 24 be e6 97 e8 bc
       -0.14400366 0.060078062 -0.1602077 -0.028392743
0000b0 bc b5 80 3e 82 97 99 bc df 7c 1f be 63 48 8b 3d
       0.25138652 -0.018749002 -0.15574978 0.06800916
0000c0 50 05 58 3b f4 22 7f bd 53 e5 07 bd af 71 dd be
       0.003296215 -0.062289193 -0.033177685 -0.43250796
0000d0 ee 4a 59 3e 99 4b 53 3d fc 9c 23 be 37 8f ad be
       0.2121999 0.051585767 -0.15977854 -0.33898327
0000e0 b5 61 79 be d5 f8 b3 bc 2e 69 d5 bd a0 5f 0f be
       -0.24353679 -0.021969238 -0.10420452 -0.14001322
0000f0 0f c9 4d 3e 86 76 e5 3e 99 ed d0 bc c1 78 ef be
       0.20096229 0.4481699 -0.02550392 -0.46771815
000100 99 2b 74 3d 50 e2 1b 3e 7e 07 ee 3c d1 d7 01 bd
       0.05961189 0.1522305 0.029056307 -0.03169996
000110 be 7d b6 be d1 f5 1a ba 7b 75 e7 3c 8c 1e 42 bb
       -0.3564281 -0.0005911263 0.028254261 -0.0029620258
000120 bb ee dd bc d3 c7 08 3e bd 77 0c 3e 3a ee 5e 3e
       -0.027091375 0.13357477 0.13717552 0.21770564
000130 00 54 64 bc 75 a6 52 be 34 a0 26 be 75 9b d3 3d
       -0.013936043 -0.20571311 -0.1627205 0.103323855
000140 c4 d8 75 be 16 40 fa bc 40 0c d9 bc 78 d0 25 be
       -0.24008471 -0.030548137 -0.026495099 -0.16192806
000150 37 ca ac be 3b f7 43 bd b2 d6 83 3d 35 1b 92 3e
       -0.33748028 -0.0478432 0.06437434 0.28536382
000160 ab a2 58 bd c6 f9 43 be 3a ca 0e be b0 1f 40 bd
       -0.052889507 -0.1913825 -0.13944331 -0.04690522
000170 59 94 25 3e 5a 4a 13 bf 56 b4 41 be 74 e5 a6 3d
       0.16169871 -0.57535326 -0.18916449 0.081492335
000180 60 4b 2f be bd f6 8b 3e b1 0a 4b 3e 38 68 7d 3e
       -0.17118597 0.27336684 0.19828297 0.24746788
000190 0b 83 9e 3d db 27 38 be 58 d7 05 bd a6 7a a8 bd
       0.07739838 -0.17983954 -0.03267607 -0.08226518
0001a0 22 70 66 be 51 df 2c 3e 47 b3 42 bc 2a d4 c7 3d
       -0.22503713 0.16882063 -0.011883563 0.09757264
0001b0 7b c5 b6 bd bb da 56 be 1c 8b 7a 3e 13 1c 24 3e
       -0.08924385 -0.20981877 0.24467129 0.16026334
0001c0 f1 8c 9c bd f8 87 47 be 45 5f 8f bd 51 2e 9a 3c
       -0.0764407 -0.19485462 -0.07000593 0.018820914
0001d0 46 fd 98 3e d2 b9 1e 3e d9 5d ff 3c 7b cc e2 3d
       0.29880732 0.15500572 0.03117268 0.11074158
0001e0 35 c2 77 be 31 c1 92 3d 6d ba 65 be 68 e2 6c bd
       -0.24195178 0.071657546 -0.22434397 -0.057833105
0001f0 9a 32 85 3d 49 06 3e 3e aa ce c0 bd c8 dd 93 be
       0.06503792 0.18557085 -0.09414418 -0.28880143
000200 f9 3e 25 3e 0f 72 da 3d 6e ee 87 be 5e 32 5d be
       0.16137303 0.10666286 -0.26549095 -0.21601245
000210 4a 12 49 3e f7 c8 88 3e 30 ef f5 bd 58 26 a5 bc
       0.19635883 0.26715824 -0.12008512 -0.020159885
000220 58 4d 15 3e 47 27 0a 3c a4 6a c1 3d 7e 2d 1c 3f
       0.14580286 0.008432216 0.09444168 0.61006916
000230 26 18 f6 be dc cb a0 3e 32 c6 ae bd ef 05 c7 3d
       -0.480653 0.31405532 -0.085338965 0.097179286
000240 98 a7 a9 3e 70 3c 75 3e 79 6e 93 3e 69 1c 41 3e
       0.33135676 0.23948836 0.2879522 0.18858494
000250 93 50 9b bd 06 22 c8 bd 63 00 67 3e 7d 1e 09 be
       -0.07583728 -0.097721145 0.22558741 -0.13390537
000260 a3 82 ea 3d 36 8f f0 3d ec 76 28 3c a9 c9 91 3d
       0.11450698 0.11746065 0.010282259 0.07118542
000270 d7 66 99 3e 6a 89 b5 b9 4f af 8d 3e 1a 85 39 bd
       0.29961273 -0.00034625392 0.27672812 -0.04529295
000280 58 5c c8 bd c1 e9 56 3d 70 07 77 be 4b 87 ec bd
       -0.09783238 0.05246902 -0.24123931 -0.115492426
000290 80 f7 df be a4 8d 68 bd 6d 06 21 3e bd e4 b6 bc
       -0.43743515 -0.056775704 0.15725107 -0.022325868
0002a0 23 c3 fb bd a9 3d 07 bf 43 11 f5 bd cf d8 19 3c
       -0.12293079 -0.5282846 -0.11966183 0.00939007
0002b0 a4 ae 12 3e 9d 37 d9 bd 82 31 2e 3d 20 17 7a 3d
       0.14324433 -0.106063105 0.042527683 0.06105721
0002c0 71 84 5c bd 54 0b 0d bf 01 aa 60 bc 1a de 3a 3e
       -0.053837243 -0.5509541 -0.013712407 0.18248788
0002d0 ff bf 4a 3e 9c d5 88 3e 69 d6 a2 be 7c c6 26 be
       0.19799803 0.2672547 -0.31804207 -0.16286653
0002e0 ea 17 8e 3e f9 f6 43 3e 62 7e 91 3d 0a 40 38 3e
       0.2775262 0.19137181 0.07104184 0.17993179
0002f0 57 ea 3f be 33 a0 2b 3e 64 ac 4a be 07 ff 1a 3c
       -0.18741737 0.1676033 -0.19792324 0.009460217
000300 43 b0 01 3e 56 49 06 be b0 7a a8 bd ff 7d 50 be
       0.12664895 -0.13113913 -0.08226526 -0.20360564
000310 0f 2e 59 3d bc 43 bb bd ba 5e 7e 3e 4e 0e d1 3e
       0.05302244 -0.09143779 0.24840823 0.40831226
000320 44 f1 b9 3d 26 d7 a4 be 2e 6d db 3c b0 f6 0c 3e
       0.09079221 -0.32195395 0.02678546 0.13765979
000330 21 85 e7 bc d4 dc a4 3e 9c ed a6 bd 0b 95 3e bc
       -0.028261723 0.32199728 -0.08150789 -0.011632214
000340 96 b6 84 3e e7 fe 40 3e 08 57 92 3e b0 53 5f be
       0.25920552 0.18847238 0.28582025 -0.21809268
000350 23 bd 19 3e 0b 12 b4 3d 2f 41 01 3e 00 96 4f 3d
       0.15013556 0.08792504 0.12622522 0.05068016
000360 5f d7 9a bd 69 5e 3a be 9b 99 b1 bd a8 da 07 bf
       -0.0756061 -0.18200077 -0.08671876 -0.5306802
000370 a2 ab fb bd 90 0d 93 3d bd f1 95 3e f7 a5 16 bf
       -0.12288596 0.07180321 0.29285994 -0.5884699
000380 71 91 c2 be 45 c2 17 be 63 3c 2a 3e 73 34 1e 3d
       -0.38001588 -0.14820202 0.16624598 0.03862424
000390 f0 b5 74 3e 4a cd 5b be 6f 93 12 bc d9 9d a6 3e
       0.23897529 -0.2146503 -0.008946284 0.32542303
0003a0 9d 05 d1 bd 21 fd 14 be 2b da 56 be 02 fe b6 be
       -0.10206149 -0.14549686 -0.20981662 -0.35740668
0003b0 d3 c8 8b be 08 8a ab bd a8 3e 63 bd 9f bd 40 bd
       -0.27301654 -0.08375937 -0.055479676 -0.047055837
0003c0 15 58 5e 3e 84 a7 87 be 3e f1 f4 bd 78 11 85 3e
       0.21713288 -0.26494992 -0.11960076 0.2598989
0003d0 5e ac 8c 3d ae d6 ab 3d 63 87 d2 bd 15 7f 61 bd
       0.06868814 0.08390556 -0.10279729 -0.055052835
0003e0 f4 5e ad be 82 96 e9 be bb 9c 27 be ea e2 7b 3d
       -0.33861506 -0.4562264 -0.16368382 0.0614957
0003f0 1f 43 72 3e 56 0a 92 3e 83 2b 83 3e 25 e4 21 bd
       0.23658417 0.2852351 0.25619134 -0.039524216

fc1.bias f4 [128]
000000 99 ae d6 bc 11 35 44 3c c0 a5 a7 bd 27 fb ab 3d
       -0.026206302 0.011975543 -0.08185911 0.08397513
000010 ba 36 de bc 13 16 5c 3e fd cd 29 be 60 ca 25 be
       -0.027125705 0.21492796 -0.16582485 -0.16190481
000020 9d 91 28 3c 9f c6 c4 bd 13 06 79 bd 56 e8 a6 3c
       0.010288623 -0.096081965 -0.06079681 0.020374458
000030 06 08 e9 bd dd d1 1e be e3 ce ed ba fc a1 a3 bc
       -0.113784835 -0.15509744 -0.0018143322 -0.019974701
000040 f8 64 28 be c1 c9 d6 3b f3 4f 92 bd bc 5b 1a 3e
       -0.16444767 0.0065548127 -0.07144155 0.15074056
000050 1d 0f a4 bd cd 27 d4 bd e0 7f 03 3c e1 0c 40 bd
       -0.08010695 -0.10359154 0.008026093 -0.046887282
000060 a3 ea 06 3e c9 0e 27 3d bf 8b 02 3e 56 ad 2d bd
       0.13175444 0.040785585 0.12748621 -0.042401634
000070 f2 0b fe 3c ed 89 48 3c d7 a1 a3 bd 69 3a 11 be
       0.031011555 0.012239915 -0.07989853 -0.14182438
000080 d4 1d c0 3d 28 e8 1e 3e 30 24 9f be 9a 66 cc 3d
       0.09380689 0.15518248 -0.31082296 0.09980507
000090 1a f3 15 3d b6 30 1e bd 00 25 e4 3d 6d a7 42 3d
       0.036608793 -0.038620673 0.1113987 0.04752295
0000a0 43 8c d1 3d a1 6c 88 bd 86 12 00 bd 02 38 fe 3d
       0.10231831 -0.06661344 -0.031267665 0.124130264
0000b0 69 07 f1 bc df 1b c4 3d 48 42 92 3c 61 75 87 bd
       -0.029422479 0.095756285 0.017853871 -0.06614185
0000c0 a0 f8 ab 3d ec 01 2c 3e 34 75 05 be 66 c4 d0 3d
       0.08397031 0.16797608 -0.1303299 0.1019371
0000d0 60 5d 34 bd f8 fc 52 bd 9d 55 3e bd 65 5e 9e 3d
       -0.04403436 -0.05151078 -0.046468366 0.07732848
0000e0 16 80 9c 3d 48 8e c7 3d c4 94 4c 3e c5 93 3d be
       0.07641618 0.09743935 0.19978625 -0.18513401
0000f0 ed ee ab 3d ec 32 2a be 1f 46 c8 bd 81 d6 c3 3c
       0.08395181 -0.16620988 -0.097789995 0.023905994
000100 d5 c0 1d be 54 53 2d be c1 40 22 3c 74 6d 4a 3e
       -0.15405591 -0.16926318 0.009903134 0.19768316
000110 ed b4 23 bd 0a d6 06 3e 4a 3f 6a bc c9 84 d9 3d
       -0.039967466 0.13167587 -0.014297316 0.1062103
000120 b2 8f 49 3e e9 ca 2f 3c 86 32 fe 3d 66 46 84 be
       0.19683722 0.01072953 0.1241198 -0.2583496
000130 82 d9 64 be ef 5a 50 bd 65 65 12 3e 74 75 17 3e
       -0.22348598 -0.05086797 0.14296491 0.14790899
000140 f1 f3 91 bd 92 95 6f be 70 6a 46 3e f7 56 69 3c
       -0.07126606 -0.233969 0.1937654 0.014241925
000150 73 ca 7d 3d 82 5c 15 3d 99 2e ed 3d 11 8c d6 bd
       0.06196065 0.036465175 0.115811534 -0.10475934
000160 4b 0b 17 be fa cb c4 bd 14 11 fe 3d 08 a3 66 be
       -0.14750402 -0.09609218 0.12405601 -0.22523129
000170 23 12 10 bd d1 77 c3 bd f9 0f 15 3d 1a ab e9 3b
       -0.035173547 -0.095443375 0.036392186 0.0071309926
000180 7e 70 be bd aa 87 0e 3e be a0 ed 3d 07 06 1c bc
       -0.092988 0.13918939 0.11602925 -0.009522921
000190 e2 e7 e4 3d e0 ef de bd 9b 59 1f 3d 73 b9 c5 bd
       0.11177041 -0.10885596 0.038903814 -0.09654512
0001a0 85 45 9e 3b 2a 79 f7 bd 66 73 0e bd b2 b1 45 3e
       0.0048300647 -0.12083657 -0.03477802 0.19306067
0001b0 9a a0 e2 3d 9b b1 1d be 9f 4a 02 3e 04 e7 a5 bd
       0.110657886 -0.15399782 0.12723778 -0.08100703
0001c0 0c f3 ba 3d 0e 5d 18 be bd 80 04 3e 97 82 e2 3d
       0.09128389 -0.14879248 0.12939735 0.11060064
0001d0 93 db c8 3d a1 a1 56 3d 8a cf c1 3d 5f 06 83 bd
       0.098075055 0.052400235 0.09463413 -0.063976996
0001e0 1c b1 03 3e ee 12 13 be d9 0f f3 3c 0a 57 11 3e
       0.1286053 -0.1436269 0.029670643 0.14193359
0001f0 83 78 99 bd a4 92 43 3e 53 c9 e8 bd 78 bd 63 3e
       -0.07493689 0.19098908 -0.113665245 0.22240245

fc2.weight f4 [128, 128]
000000 76 b0 0b be 60 f4 6d 3d 79 eb 5e be 33 f3 8e 3c
       -0.13641533 0.058094382 -0.21769513 0.01744995
000010 6a 4c 10 3e a7 3b 2f 3e 6f 67 45 3d b1 84 b6 bd
       0.1409165 0.171126 0.048194345 -0.089120276
000020 62 80 b6 bd c8 6e 5f 3d 58 ce 12 be fa e3 c7 3d
       -0.08911206 0.05454901 -0.14336526 0.0976028
000030 44 85 03 3e 02 81 e9 3d 3e 19 00 bd b5 35 b2 3d
       0.12843806 0.114015594 -0.031274073 0.0870165
000040 7f aa 5e 3d d7 3e 8c 3d 75 8e be 3d 3c da 74 3d
       0.054361816 0.06847923 0.09304515 0.059778437
000050 1e bc b9 3d e1 44 21 3d 87 c3 92 3d c9 84 41 bc
       0.09069084 0.03937233 0.071662 -0.011811444
000060 7b 70 66 3e 00 02 83 3d 92 14 24 bb e6 c1 9f bb
       0.22503845 0.06396866 -0.0025036675 -0.0048754094
000070 a6 50 1c be 07 d7 05 3e 2f 9b 02 3e fc 39 20 be
       -0.1526514 0.13070308 0.1275451 -0.1564712
000080 7d 73 66 3d 1a bf d0 bd 86 4a a6 3a 2a 9a 28 bc
       0.056262482 -0.101927 0.0012687005 -0.010290662
000090 28 3f 1a bb f8 d9 6e 3c a3 24 37 3e b0 74 99 bc
       -0.002353618 0.014578335 0.1788507 -0.018732399
0000a0 41 0a 72 3e 3a 6f 19 be 1c 50 62 3d c5 37 10 3e
       0.23636724 -0.14983836 0.05525218 0.14083774
0000b0 73 c4 28 bc 89 e9 8b 3d 2f f3 b6 3c 23 6c 38 bc
       -0.010300743 0.06831653 0.022332756 -0.011256251
0000c0 f4 02 f4 bd 7c c1 00 3e 91 a6 62 be 24 bf b6 bd
       -0.11914626 0.12573808 -0.22133853 -0.08923176
0000d0 9a 56 5a be 26 79 b2 bd 8d 5c c0 bc d8 0e c3 bd
       -0.21322098 -0.087145135 -0.023481632 -0.095243156
0000e0 51 2d 30 3d fe e6 93 3d b3 e7 af 3d e8 de a7 bd
       0.043011967 0.07221793 0.08589115 -0.08196813
0000f0 6d c1 45 bd d3 e7 06 be 19 01 f4 3c 4e 00 15 3e
       -0.04828017 -0.13174371 0.02978568 0.14550897
000100 aa 9f 90 bd 83 e7 c2 bd 2d 2b 03 3d b3 cf e1 3d
       -0.070617035 -0.095168136 0.032023598 0.110259436
000110 18 60 f4 3d 0e 9c 65 3e de e1 12 3c e5 a8 c4 3d
       0.11932391 0.22422811 0.008964984 0.096025266
000120 f9 31 03 bd 10 89 42 bd 67 43 cd 3c 11 8d 1f be
       -0.03203008 -0.047493994 0.025056554 -0.15581156
000130 b1 b1 2b bd 14 fb 4a bc cb 01 6b bb a8 b0 b2 bc
       -0.041917507 -0.012388963 -0.0035859223 -0.021812752
000140 95 3d 39 3d 98 03 f4 bd 73 3a 18 3e f3 51 51 be
       0.045224745 -0.11914748 0.14866047 -0.20441417
000150 f9 3b b1 3c bc 68 ee bd 03 2f 1b 3e 62 ef 7e 3d
       0.021635043 -0.1164107 0.15154652 0.062240012
000160 df 2b f3 bb 4f 0f bb 3d 08 d1 a4 bd ea f0 28 3e
       -0.0074210013 0.09133779 -0.08047682 0.16498151
000170 db 55 d9 bd fb 64 9f bc 31 1c 00 3e 66 60 ea 3d
       -0.10612079 -0.01945733 0.12510754 0.11444168
000180 34 4d 08 bc 26 cd 8b 3c 42 20 42 bc 56 e8 17 3e
       -0.008319188 0.017065596 -0.011848511 0.14834723
000190 3b 7e 09 3e e7 e6 c5 3d 21 4c 85 3b b1 e6 50 be
       0.1342706 0.09663182 0.004067913 -0.20400502
0001a0 61 97 6b 3d 03 a2 b0 3c 6b 79 e0 bd 56 46 2c 3d
       0.057517413 0.021561628 -0.10960659 0.042059265
0001b0 73 3d ac bd 1b 54 b2 bd 21 73 28 bc ab f6 eb 3d
       -0.08410158 -0.08707448 -0.010281355 0.115216576
0001c0 c8 c7 14 be 45 e1 42 be 63 58 0f 3c 57 6e 99 3c
       -0.14529335 -0.19031246 0.0087491 0.018729372
0001d0 c8 bc 3f bd f8 07 07 bd 33 eb bc 3d 16 aa bc bc
       -0.046810895 -0.032966584 0.09224548 -0.023030322
0001e0 37 94 48 3d dc 96 21 be cb cb 2f 3e da d7 31 3e
       0.048969474 -0.15780205 0.17167585 0.17367497
0001f0 9f 3b ab bd 36 a0 02 3e 2c 9d c0 bd 46 63 53 3e
       -0.08360981 0.12756428 -0.09404978 0.20643339
000200 26 46 fb bb e8 fc cf bd 6f 76 87 bb 4e 38 39 bd
       -0.0076682745 -0.1015566 -0.0041339914 -0.045219712
000210 97 f8 85 bd 8c 00 47 bd 5f 56 61 3d 8f c4 ec bd
       -0.065415554 -0.048584506 0.05501401 -0.11560928
000220 b6 01 31 bd b5 29 b8 be 67 67 6e bd a2 b9 37 3e
       -0.043214522 -0.3596932 -0.05820408 0.17941907
000230 18 fe 7d 3d f4 b7 e9 bd a8 88 df bd b6 1d 14 3d
       0.0620099 -0.114120394 -0.10914737 0.036161147
000240 9e 43 e2 bd ce d1 35 3c 70 2c 9a bc f5 7d 11 3d
       -0.11048053 0.011097385 -0.018820018 0.035520513
000250 6a 41 3d bd 8f be b5 bd db ef 8a bd 2f 5f 5b 3e
       -0.04620496 -0.08874237 -0.0678403 0.21423028
000260 5f 59 7b bb fc 63 58 3d ca f4 0d 3e c6 f5 8e bc
       -0.003835283 0.052829728 0.13862911 -0.017451178
000270 31 da 72 3c c1 af f9 3c d1 d8 e1 bd 50 47 5a be
       0.014822529 0.030479314 -0.110276826 -0.21316266
000280 5c a5 ff 3c 24 84 02 3e 34 a8 ca be 15 ad 3b bd
       0.03120678 0.1274572 -0.39581454 -0.04581936
000290 8b 54 91 3d 7d 87 ad 3d 7d bc 43 3e ff 6f 43 3e
       0.070962034 0.08473108 0.19114871 0.19085692
0002a0 55 3b 16 3d f6 0c 72 3d 2f 78 5d be 15 00 e1 3d
       0.036677677 0.05909439 -0.21627878 0.10986344
0002b0 9e 60 f9 bd cb d6 87 bd 08 d1 a4 bc 57 77 96 3d
       -0.121766314 -0.066327654 -0.020119205 0.07346981
0002c0 f4 32 68 bd b0 f7 34 bd e2 df be 3d 46 ed 8f 3d
       -0.056689218 -0.044181526 0.09320046 0.07027678
0002d0 c4 5f a9 3d 61 3f 9e 3d c4 b0 30 be 16 91 3e 3e
       0.08270219 0.07726932 -0.1725493 0.18610033
0002e0 b4 3d e3 be 37 55 14 3e 9c 20 b5 bc c9 d7 7a bd
       -0.44383013 0.14485632 -0.022110276 -0.061240945
0002f0 0d 31 b5 bd cf 80 d3 bd 58 d2 14 3e 63 3f b3 3d
       -0.08847246 -0.10327303 0.14533365 0.087523244
000300 c4 d6 89 be d3 7e 91 bd b2 d7 3f be 94 2e 1e be
       -0.26921666 -0.07104268 -0.18734625 -0.15447456
000310 4b f2 16 3e df ff 81 39 10 34 7a bd b2 45 46 3d
       0.14740865 0.00024795436 -0.061084807 0.04840631
000320 63 33 e0 bc b8 cd 7b 3c 49 bd f6 bd f3 2f 58 be
       -0.027368253 0.015368871 -0.12047822 -0.21112041
000330 2d f0 c8 3d d5 43 37 3d 73 3b 91 3c 99 14 6e 3e
       0.09811435 0.044742424 0.017728543 0.23250045
000340 21 6e 77 be 69 c4 1c ba 2f 27 51 3d 30 37 d6 3d
       -0.24163105 -0.0005980195 0.05106276 0.10459745
000350 13 e7 92 3c f3 a7 f9 bd e5 e6 67 bd fe ed 70 bd
       0.01793245 -0.12190237 -0.056616683 -0.058820717
000360 88 b2 0b bf bb 45 81 bb 30 b4 57 3d ac 31 2c bd
       -0.5456929 -0.00394508 0.052662075 -0.04203956
000370 46 34 ca bc 6e e1 34 bd 1f 5a 4c 3e b7 80 33 3e
       -0.024683129 -0.0441603 0.19956253 0.1752957
000380 92 e8 f4 bc 72 96 52 3e d8 5a f1 bd 25 6e 5e be
       -0.029896054 0.20565203 -0.11784905 -0.21721704
000390 06 64 fc bc 96 69 14 be 78 8d 72 bd c9 b2 d4 bd
       -0.030809414 -0.14493403 -0.059216946 -0.10385663
0003a0 c6 e0 18 bd 61 15 b2 bd a4 db 5f 3d a8 23 f1 3d
       -0.037323736 -0.08695484 0.054652825 0.11774379
0003b0 32 ba 17 be 50 1f 16 3d 8f d8 4b 3b 36 f9 00 be
       -0.14817122 0.036650956 0.003110442 -0.12595066
0003c0 8b 6a 0e 3e a3 ff 84 3c 5e a8 7b bd b0 37 84 bb
       0.1390783 0.016235178 -0.061439864 -0.004034959
0003d0 56 58 f0 bd 72 ce 4b 3e 1f 17 9d bc 13 a6 7c 3e
       -0.11735599 0.19902971 -0.019176064 0.24672727
0003e0 39 28 8a be 1d 7b 3a 3d 2b 66 5e be 7f 83 db 3d
       -0.26983812 0.045527566 -0.21718661 0.1071844
0003f0 79 12 ac bd d0 96 b5 3d 25 5f 3e 3e 7f 69 56 bc
       -0.08401961 0.08866656 0.18590982 -0.013086676

fc2.bias f4 [128]
000000 d6 07 da 3d e2 92 a2 3d 1a de 95 3b 3a 70 dd bd
       0.10646026 0.07938172 0.0045735957 -0.10812421
000010 26 57 96 bc 3a f1 d4 3d 7e de e4 3d c4 7d a7 3c
       -0.018352102 0.10397573 0.111752495 0.020445712
000020 57 d5 30 3e 5d fc 6a 3d cc 4a ec 3d e2 8b 82 bc
       0.17268883 0.05736958 0.11537704 -0.015935842
000030 52 80 49 bd 87 f3 21 3e 10 0f b8 3d 13 0a 11 3d
       -0.04919464 0.15815555 0.08987248 0.03541
000040 7b 6b 05 3e 34 a9 2a 3d e9 13 48 bd 00 49 b8 bd
       0.13029282 0.04166527 -0.048847113 -0.08998299
000050 7f c7 d9 3c 9b 7e 05 3e 4f 5c 3c 3e 73 e1 6c bb
       0.026584385 0.13036577 0.18394588 -0.003614512
000060 b4 4c f6 bb d2 20 b0 3c 98 7f c1 3d d1 16 5c 3a
       -0.007516468 0.021500025 0.09448165 0.0008395734
000070 d4 3d f0 3c 8e 68 94 bd 03 e7 0c 3e 73 00 ce 3c
       0.029326357 -0.07246505 0.13759999 0.025146699
000080 51 f4 04 3a 92 72 31 bb 45 1a 07 3d 2a 2f db 3d
       0.00050718064 -0.0027076346 0.032984037 0.10702355
000090 48 ff d8 3d c3 2a 24 bc 09 66 00 3e bc 84 c9 3d
       0.10595566 -0.010019961 0.12538923 0.0983977
0000a0 09 66 bb 3d 1e 8c bb 3d 19 e1 c1 3d 8c 97 e6 3d
       0.09150321 0.091575846 0.09466762 0.11259374
0000b0 02 15 0e 3d a8 b0 cf 3d 70 1a a7 3d c2 f8 e9 bc
       0.034688003 0.101411164 0.081593394 -0.028561
0000c0 c2 87 7d bc 58 85 da bc d0 cb 0e 3e b7 d0 74 3d
       -0.015474262 -0.026674911 0.13944936 0.05976936
0000d0 a5 20 06 bd c0 cc d8 3d b1 ee 54 3c 94 6f 15 bd
       -0.032745976 0.10585928 0.012996362 -0.036483362
0000e0 35 ac b1 3c f3 32 98 3d 94 56 a9 bc e2 05 b3 3d
       0.02168856 0.07431593 -0.020671166 0.087413564
0000f0 8c 78 a9 bb fc c8 a8 3d 55 a3 e3 3c 09 c5 d7 3d
       -0.005171841 0.0824146 0.027787844 0.10535628
000100 29 0a 84 bd 5d 16 94 bc a4 b6 f8 3d 59 39 08 3e
       -0.064472504 -0.01807707 0.12144211 0.13303126
000110 81 7f 00 3e d7 0e bb 3a b4 12 7f 3d f9 9f 01 3e
       0.12548639 0.001427139 0.062273696 0.12658681
000120 49 82 de 3d 64 59 9d 3d 67 c8 45 bc 5a 61 e6 bc
       0.10864694 0.076830655 -0.012071705 -0.028122593
000130 d6 06 11 3d ce fe 8a 3d 47 e3 3b 3c 3b c2 b5 3d
       0.03540691 0.067868814 0.011467761 0.08874937
000140 e1 ea c7 3d 97 66 92 3c 96 d7 0b 3e 2a 3d 98 3d
       0.097615965 0.017871184 0.13656458 0.07433541
000150 83 5d e7 3d e6 c7 b4 3d f6 73 f1 3d 2a 47 0a 3e
       0.11297133 0.0882719 0.11789696 0.1350371
000160 db df 08 bd cd 50 9c 3d 84 fd 04 bd 41 9b f2 3d
       -0.03341661 0.07632599 -0.032468334 0.118460186
000170 eb f6 d2 3d 62 f7 07 3d e8 0b ef 3d a3 d7 bf 3d
       0.10301002 0.033194907 0.11672193 0.09367301
000180 70 84 ca 3d 3e 9e bf bd e8 6a eb 3d da 15 5c bc
       0.09888542 -0.09356354 0.11495 -0.013432944
000190 43 36 a1 3d 5a 02 77 3c 52 e4 d3 3c de f2 19 3c
       0.07871678 0.015076244 0.025865708 0.009396283
0001a0 0c 5e 47 bc 7d ab 58 bd 61 19 1e 3d 10 20 3f 3e
       -0.012168419 -0.05289792 0.038598422 0.18664575
0001b0 71 7e 03 3e 2b f0 74 bc 46 ca ae 3d 8d df ce 3d
       0.12841202 -0.014949839 0.08534674 0.10101233
0001c0 ae 3b cf bb b8 30 05 3d 71 62 05 3d e3 54 06 3d
       -0.006324253 0.032517165 0.032564584 0.032795798
0001d0 2b c4 34 3d f0 de a4 3d 55 5e 0b 3e 35 cb 2e 3d
       0.044132393 0.080503345 0.13610204 0.042674262
0001e0 42 8b 26 3d 4e be cf 3d e0 bc 8c bc e8 a6 94 3d
       0.04066015 0.101437196 -0.017179906 0.07258397
0001f0 be 54 76 3d fe 2c be 3d e8 ab 29 3e 8d db 13 3e
       0.06013941 0.09285925 0.16569483 0.1443922

fc_value.weight f4 [128, 128]
000000 bc 70 1d 3e 40 b6 41 3e 3d 72 1e 3e 28 0f 39 3d
       0.15375036 0.18917179 0.15473266 0.04518047
000010 cf 4b 41 be 35 2f 03 3d 21 c5 b5 3d c9 bc 02 bf
       -0.18876575 0.032027442 0.0887549 -0.51069313
000020 cc 3a 84 3d d3 bf 35 bd 74 59 e7 bd a9 65 77 be
       0.06456527 -0.04437239 -0.11296359 -0.24159874
000030 0e 45 5a bf 29 45 fe bd 84 9d 35 3e 19 a8 32 bc
       -0.8526162 -0.12415535 0.17735869 -0.010904335
000040 68 e3 ac bd 18 a8 63 3b cd 10 53 3d 44 4f 17 be
       -0.08441812 0.0034737643 0.051529694 -0.14776331
000050 54 21 c2 3d 8c 49 36 3d 4f 95 ee 3d f4 f2 1a 3b
       0.09479013 0.044503734 0.11649572 0.0023643347
000060 75 ad 98 be 97 0e 11 be fe 16 34 3e d6 99 0f be
       -0.29819837 -0.14165722 0.17586896 -0.14023528
000070 e6 27 44 bd a6 68 dc 3d fc ca 51 bd 01 8f e4 be
       -0.047889613 0.107621476 -0.05121897 -0.44640353
000080 4b e3 31 3c cc 5a c3 bd ef 75 1c bd e0 66 84 3d
       0.0108574135 -0.095388025 -0.038198408 0.06464934
000090 ab 45 17 3e c0 7a a5 bd c1 71 d8 3d f2 f1 21 3e
       0.1477267 -0.08080053 0.10568572 0.15814951
0000a0 60 1d 44 3e e8 04 91 ba 6f 7d 28 3e bf d6 3f bd
       0.1915183 -0.0011064084 0.16454099 -0.046835657
0000b0 3c 17 9e bd aa 99 f7 bc 09 5f 13 3e 01 b2 4f be
       -0.07719275 -0.03022464 0.14391722 -0.20282747
0000c0 da 32 17 3e ee 8d 1c be 56 5d a9 3d 68 25 8e 3d
       0.14765492 -0.15288517 0.082697555 0.069407284
0000d0 1a 33 ec bc 31 58 8a 3d 5a e4 aa 3c 47 05 b6 3c
       -0.02883296 0.067551024 0.02086084 0.022219313
0000e0 e4 e0 ea be 72 b8 cf bd 50 0b 27 3e 64 e8 82 3c
       -0.45874703 -0.10142602 0.16312909 0.015979953
0000f0 8c 08 f9 3d 82 b2 e3 3d 0c 36 16 3e 3f ec 81 3d
       0.12159833 0.11118032 0.14669055 0.063438885
000100 05 0b 80 be b5 60 d0 3d 08 91 41 3e 30 1d 41 3e
       -0.25008407 0.101746954 0.18902981 0.1885879
000110 92 16 81 3e 36 f7 43 be 4e ad 20 3e 89 f6 22 3d
       0.25212532 -0.19137272 0.1569111 0.039785895
000120 a2 a7 b5 3c bc ef d3 3d 7d 16 3e be 3e d8 4f b8
       0.02217466 0.1034846 -0.18563266 -4.9554037e-05
000130 2e 8f d7 3c 56 9e 1a be ae 07 11 bd aa 4b 98 3c
       0.02631339 -0.15099463 -0.035407715 0.018590767
000140 24 36 1c bc e8 84 1b 3e 03 d9 bd 3d 79 37 81 3e
       -0.0095343925 0.15187418 0.09269907 0.25237635
000150 d5 8d d3 3d aa 63 b7 3d e1 9c 83 bc b9 8d 4b 3e
       0.10329787 0.08954556 -0.016066017 0.19878282
000160 82 04 9e be f6 15 23 3e 3e 5a 91 3b 20 80 86 bd
       -0.30862814 0.15926346 0.0044358065 -0.06567407
000170 bc e8 45 3e 43 bd 36 bd 34 10 0e 3e 17 2d 94 bd
       0.19327062 -0.044614088 0.13873369 -0.07235163
000180 6a 6f ae 3c ef ee 95 3e 2b f2 5d 3e 19 2d 5b be
       0.02129336 0.29283854 0.21674411 -0.21403922
000190 41 f0 39 3c db 68 42 3d 2d 7c 8c be 9f 75 0c be
       0.011348785 0.04746328 -0.2743849 -0.13716744
0001a0 d4 fa cb 3d fc 7e 9f 3c 74 12 48 be 52 0d 4b 3e
       0.09959951 0.01946973 -0.1953829 0.198293
0001b0 66 17 0c be 55 b9 03 be 56 01 36 3d 4a fe 91 3b
       -0.13680801 -0.12863667 0.044434868 0.0044553624
0001c0 00 24 15 bf 22 e0 8a bd 32 e7 c6 3a e6 d5 78 3d
       -0.58258057 -0.06781031 0.0015175103 0.060750864
0001d0 53 f1 4d 3e 3a 32 ef 3d 63 40 a4 3d 9c 05 2f 3e
       0.20111589 0.11679502 0.08020093 0.17091984
0001e0 7b ff 3c be 9f 23 3e 3d 58 97 1f 3a b0 f9 65 3e
       -0.18456833 0.04642069 0.00060879206 0.2245853
0001f0 8c 81 50 3e c8 9f 40 3e 65 db 56 3e ce 60 b8 3c
       0.20361918 0.18810952 0.2098213 0.022507098
000200 54 bb 28 3e 15 38 7b 3e 86 7c 4e 3e d0 86 49 3e
       0.1647771 0.24533112 0.2016469 0.19680333
000210 9a b5 0c be 21 31 15 3d 71 24 68 3d b2 7b a5 be
       -0.1374115 0.036423806 0.05667538 -0.32320935
000220 3b 01 b1 bc ed 10 c0 3c 31 83 8b 3d 0d 43 34 be
       -0.021607032 0.02344557 0.06812132 -0.17603703
000230 0c 6a a2 be 8d 48 a6 bd 6a 43 19 3e 6b 5d 6f 3e
       -0.31721532 -0.08119307 0.14967123 0.2337548
000240 83 8d b6 bd aa 2b 03 3e c6 99 0b be bb 6d 92 bd
       -0.0891371 0.12809625 -0.13632879 -0.07149836
000250 9b e1 e4 bd 7b 28 75 bb 98 31 f1 3d 5b 41 74 3d
       -0.11175843 -0.0037408161 0.117770374 0.05963264
000260 35 18 ba be 7b 93 8e bd d9 86 1e 3e 7d a1 45 3e
       -0.36346593 -0.069617234 0.15481128 0.19299884
000270 0a ca 88 bd da cc a3 3d 56 ab 1e 3e 62 1c cf be
       -0.06679161 0.07998057 0.15495047 -0.40451342
000280 68 d4 e9 bd e6 44 d9 3d e6 f7 aa 3c 45 9a 1c 3e
       -0.114174664 0.106088445 0.02087016 0.15293224
000290 ac 8b 4e 3d fc ff 79 3e be e3 ac bb 59 54 27 3e
       0.05042617 0.24414057 -0.0052761724 0.1634077
0002a0 f1 eb 84 3d 5e 70 ab b9 e5 a7 3f 3e 76 a6 8e bc
       0.06490315 -0.00032699382 0.1871639 -0.01741336
0002b0 0e 7a 0a bd f9 95 3c bd ac 41 23 3e 58 5a cf 3c
       -0.033807807 -0.046041463 0.1594302 0.025311634
0002c0 9b 1a a9 bc 5f c9 3a bd 15 44 62 3d 18 44 35 3e
       -0.02064257 -0.0456022 0.05524071 0.17701757
0002d0 39 18 04 bd 33 08 61 3e 1c 82 34 3e f1 c2 c0 bc
       -0.032249663 0.21975784 0.17627758 -0.023530455
0002e0 ec 2a b4 be f3 ca 97 bd 0d aa 8a 3d f8 57 86 3d
       -0.35188997 -0.07411756 0.06770716 0.065597475
0002f0 0f 80 39 3e 7e 42 d7 3d b1 39 be 3c 69 f5 85 bd
       0.18115257 0.10510729 0.023220869 -0.06540949
000300 98 84 10 be f7 1d 71 3e 42 d0 26 3e f7 ba b2 3c
       -0.1411308 0.23546587 0.16290382 0.021817667
000310 aa 16 47 3d c7 8a 35 3c 64 a2 8d 3d 5f 01 58 3d
       0.0486056 0.01108045 0.06915739 0.052735683
000320 49 7f 38 3b 47 0a 39 3e e5 98 b5 bd e8 91 80 3d
       0.002815204 0.18070327 -0.08867053 0.062778294
000330 00 a9 0c 3e 48 26 25 bc 16 6b a1 3d 06 c0 e9 3c
       0.13736343 -0.010079928 0.07881753 0.028533947
000340 ed 8d 2f 3e 12 6c 9f 3e e8 93 ad 3d 8e b9 6d 3e
       0.17143984 0.3113714 0.084754765 0.23215315
000350 bb 04 d7 3d b1 c3 6e 3e cf 09 4a 3e e0 4e e4 3d
       0.10498949 0.23316838 0.19730304 0.11147857
000360 c0 c2 1d 3d 90 82 3b bd 05 f7 e9 bd 7a fc 34 3e
       0.038515806 -0.04577881 -0.11424068 0.17674437
000370 cc 92 f6 3d 14 e8 09 3e e1 20 49 3d 5e 8d 90 3d
       0.12039718 0.13467437 0.04910362 0.07058214
000380 28 c5 7e 3d 9a 51 6b 3e d7 61 a2 3d 75 bd 4a bc
       0.06219974 0.22980347 0.07928818 -0.012374272
000390 50 91 8e 3e 81 5e e5 3d 01 b9 71 3d 8b 30 cf 3c
       0.2784524 0.11199666 0.059014324 0.025291702
0003a0 13 84 bf bc 6b 31 38 bd 15 75 22 be 7c 89 68 3e
       -0.023378408 -0.044969004 -0.15864976 0.22708696
0003b0 12 65 84 bc 0c 9d 18 3e 24 6f 2f 3e eb 93 72 3d
       -0.016161475 0.14903659 0.1713224 0.059223097
0003c0 ff bb 3d be d6 df f8 3d 37 4f 4e 3d 7b be 42 3e
       -0.18528746 0.12152068 0.050368514 0.19017975
0003d0 13 3c 4d 3d 43 40 27 3e af 4b 68 3e 76 1d d8 3c
       0.05010612 0.16333108 0.22685121 0.026381236
0003e0 17 61 13 be 70 fd 38 bd f1 cc 75 3d c6 7b 40 3d
       -0.14392506 -0.04516357 0.0600099 0.04699304
0003f0 9e a4 61 3d 30 d6 12 3e c3 63 ce 3d db f8 6a 3d
       0.05508863 0.14339519 0.10077622 0.057366233

fc_value.bias f4 [128]
000000 19 de 5d 3d 37 ad 86 3d 26 e8 62 3d 32 8a 7f 3d
       0.054166887 0.06576007 0.055397175 0.062387653
000010 68 32 c1 3c 84 7e 3d bc 48 b9 73 3d 29 42 8e 3d
       0.023583606 -0.011565808 0.05950287 0.06946213
000020 ae 85 8c 3d 46 93 b6 bb 3b 72 1c bb 56 33 b6 3d
       0.06861435 -0.0055717556 -0.0023871798 0.0889651
000030 6f f2 e6 3c 65 8f f1 bb db 00 50 3d ca 4f 30 3d
       0.028191773 -0.0073718303 0.050782066 0.043044843
000040 cf 1d 9a bc 9b 43 74 3d 0b cb 85 3d cd 86 bb 3c
       -0.018813042 0.059634786 0.06532868 0.022891426
000050 05 c5 9b 3b 34 11 5c 3d dc 0d f7 3d 0f 76 84 3d
       0.004753711 0.053727344 0.1206319 0.064678304
000060 0d 72 85 3d ec 50 c8 bb 8f 80 65 3d 72 58 b1 3c
       0.06515894 -0.0061131623 0.056030806 0.02164862
000070 d0 35 81 3d ff 67 80 3d c7 ee 8b 3c 3e f8 12 3d
       0.06309092 0.06269836 0.017081631 0.035881273
000080 41 38 67 3c d1 36 6c 3d da 30 be 3d e1 9e 8c 3d
       0.014112533 0.057669464 0.092866614 0.06866241
000090 b8 fe 30 3d 53 e4 02 3d 2b ef d8 bc 1e c5 eb 3d
       0.04321167 0.03195603 -0.026481232 0.115122065
0000a0 09 fa 5d 3d 3a 86 79 3d bf 2b 6a 3d 04 5f da 3d
       0.05419353 0.060919024 0.057170626 0.10662654
0000b0 de 02 95 3d b2 f1 6b 3d 27 15 63 3d 1e b5 6b 3d
       0.072759375 0.057603545 0.055440094 0.057545774
0000c0 fa 10 a2 3d c0 37 62 3d 7e 09 6b bc 66 a1 8f 3d
       0.07913394 0.05522895 -0.014345525 0.07013206
0000d0 76 96 8a 3d 21 8f d8 3d 67 22 2b 3d e5 65 6f 3d
       0.067669794 0.10574175 0.041780856 0.058446784
0000e0 a5 8b 79 3d fd 13 47 bc 50 5b 46 3d c7 c6 00 3d
       0.06092419 -0.012150762 0.048426926 0.03143957
0000f0 31 3d 9d 3d d3 69 85 3d 1e 46 23 3d e0 d6 70 3d
       0.07677687 0.06514325 0.03986179 0.05879867
000100 a6 d3 5e 3d 56 da 20 3d 3a 5f d7 3d 88 7e 43 3d
       0.054401062 0.03927072 0.1051621 0.04772809
000110 39 b3 b1 3d 1b d3 24 3d 82 2f 1c 3d 89 e9 c0 3d
       0.08676762 0.04024039 0.038131244 0.09419543
000120 34 27 6a 3d 4a 9b a3 3a 66 82 3c 3d 5a 41 99 3d
       0.057166293 0.0012482193 0.046022795 0.07483168
000130 69 8b 6d 3d 02 68 de bc 81 f1 1f 3d d5 a0 a1 3d
       0.05799428 -0.027149204 0.039048675 0.078920044
000140 4c da fb 3c 00 00 00 00 2b 5b b5 3d 80 3b 9d 3d
       0.03074374 0.0 0.088552795 0.07677364
000150 08 f6 a9 3a f0 db 69 3d 70 65 87 3d 03 5e 4c 3d
       0.0012967 0.057094514 0.066111445 0.049894344
000160 30 f1 41 3d bd 10 68 3d df d8 d1 3d 58 86 8d 3d
       0.047349155 0.056656588 0.10246443 0.0691039
000170 24 4b 1d 3c a5 4f 90 3d f5 a9 f7 3c cf e3 64 3d
       0.009600434 0.07046441 0.030232409 0.055881318
000180 98 0d bb 3d 7d b9 7f 3d 39 8c 40 3d c0 29 8f 3d
       0.09133452 0.062432755 0.047008727 0.06990385
000190 fa 88 6c 3d 40 19 80 3d 40 e8 22 3d be ec 28 bd
       0.05774782 0.06254816 0.039772272 -0.0412414
0001a0 08 7f 91 3c 88 db 9a 3b a6 a1 62 3d 4d b3 6d 3d
       0.017760769 0.004725877 0.05532994 0.058032323
0001b0 b7 23 90 3d 3f 55 64 3d a9 c2 a2 3d 31 c3 8d 3d
       0.07038062 0.05574536 0.07947285 0.069219954
0001c0 ed 13 eb 3d 53 17 7d 3d ad 9e 8c 3d db ea 93 3d
       0.1147841 0.06178982 0.068662025 0.072225295
0001d0 cb 2e 9e bc a9 7d dc 3b 6b d8 26 3c 63 19 73 3d
       -0.019309422 0.006728847 0.010183434 0.059350383
0001e0 86 52 65 3d 92 25 68 3d f3 a7 55 3d a2 eb 90 3d
       0.055986904 0.056676455 0.052162122 0.070761934
0001f0 f7 b0 96 3d d1 56 d4 3d ce 15 3e 3d 15 08 08 3d
       0.07357972 0.103681214 0.046407513 0.033210833

value.weight f4 [1, 128]
000000 10 11 a7 be f5 db 47 be 93 d1 8e be 2d 72 3c 3f
       -0.32630205 -0.195175 -0.27894267 0.7361172
000010 c9 aa 66 3f 3e 2c 03 3f c0 37 40 bf cb b0 9f be
       0.9010435 0.51239383 -0.7508507 -0.3118957
000020 0b 96 91 be 07 30 dd 3d 7d c5 07 3d 14 ba bf 3e
       -0.28434786 0.10800176 0.033147324 0.37446654
000030 5c 65 a4 3e f3 d4 58 3f ef 3d e8 3e 01 32 ee 3e
       0.3210858 0.84699935 0.45359752 0.46522525
000040 05 e3 34 3f 0e e0 64 be 34 18 9c be ee 90 0f 3f
       0.70658904 -0.22351095 -0.30487216 0.5608052
000050 1d ad 7b 3f a6 ae 45 3f d9 bb 98 bf 65 33 da bd
       0.98311025 0.7721962 -1.1932327 -0.10654334
000060 82 d1 3a bf 18 60 3e 3f 03 6f 26 3f c3 df 23 3f
       -0.72975934 0.7436538 0.6501314 0.6401331
000070 31 a7 a2 3e 43 5a 20 be 44 c5 4b 3f b0 a6 a5 3e
       0.31768182 -0.15659432 0.7959788 0.32353735
000080 b6 55 42 3f 6b 47 29 be d9 40 61 3f 8d 2a fb bd
       0.75912035 -0.1653115 0.87989575 -0.12263975
000090 c5 fe 28 be 1a cb 9e be f4 d4 22 3f 21 3d 81 3f
       -0.16503437 -0.3101433 0.6360619 1.009678
0000a0 9f 8c b5 3e 27 5c a5 bd 1c a6 7e be ea be 5f be
       0.35458848 -0.08074217 -0.24868053 -0.21850172
0000b0 68 f4 59 3f fb 27 60 be af f3 8a be 30 d8 21 be
       0.8513856 -0.21890251 -0.2713904 -0.15805125
0000c0 35 33 2e 3f 28 19 5d be 83 ae 12 3f 42 20 47 be
       0.68046886 -0.21591628 0.57297534 -0.19445899
0000d0 ec d5 9c be fd b9 b2 be 0b ea f2 3e 35 33 6a be
       -0.3063196 -0.34907523 0.47444186 -0.22871096
0000e0 a0 c9 01 be 78 1a c3 bd 0a e1 42 3f df 7d e2 be
       -0.1267457 -0.09526533 0.7612463 -0.44236657
0000f0 c9 f9 3f 3f 14 33 03 bf 8d 91 20 3f 6c 45 8a be
       0.74990517 -0.51249814 0.6272209 -0.2700609
000100 01 b9 85 be 46 1a 8e 3f 3e 0d 68 3f 4d 3c 3e 3f
       -0.2611771 1.1101768 0.90645206 0.7431076
000110 8e ce 80 be 3c 3a 68 3f 99 30 c2 3e 7f c3 e3 3f
       -0.2515759 0.9071386 0.37927702 1.7794036
000120 23 1b f5 bd 8a 44 97 bf 8a e6 91 3f 51 61 c7 3e
       -0.119680665 -1.1817791 1.139848 0.38941434
000130 a4 30 39 be 41 dd 5c 3f d9 14 5c 3f 15 eb 8d be
       -0.18084961 0.86275107 0.8596931 -0.27718416
000140 94 97 76 3f ed 15 ce bd 66 75 39 be 9d bc 12 3f
       0.9632504 -0.10062776 -0.1811119 0.5731905
000150 e8 54 5d 3f 3e 6b a9 3f 18 2c 9a be 8e ed 6a 3f
       0.8645768 1.3235853 -0.30111766 0.9176873
000160 a5 b1 32 3f 8c a4 eb bd 4b 88 44 be 5c e5 3d 3f
       0.69802314 -0.11505994 -0.19192617 0.741781
000170 e6 54 60 3f 15 19 92 be 84 7f 35 3f 39 5a 5e be
       0.87629545 -0.2853476 0.708977 -0.21714105
000180 a7 21 19 3f 54 b1 68 be 7b 38 d0 3f da 7c a3 be
       0.59816974 -0.22723895 1.6267236 -0.31931192
000190 82 08 e9 3e 45 60 72 be ec 7e 82 3f 69 6f 06 bf
       0.45514303 -0.23669536 1.0194983 -0.5251375
0001a0 b2 b1 e4 3e b3 17 c5 3e a7 ea 88 be 16 eb 7f be
       0.4466682 0.38494644 -0.26741526 -0.24992022
0001b0 5c ff 35 be 0b 6a 54 be 06 89 a7 be 8e 8e 6b bd
       -0.17773193 -0.20743577 -0.32721728 -0.057508998
0001c0 0e a0 87 be 6e 72 01 3f c3 b4 8f be 6b 97 6a be
       -0.264893 0.5056523 -0.28067598 -0.22909324
0001d0 03 63 42 3f 69 c6 48 3f 02 a9 98 3f 9f 32 84 be
       0.7593233 0.7842775 1.1926577 -0.2581987
0001e0 89 4c 71 be 9d 63 19 be 47 99 07 3f d2 1b 18 be
       -0.23564352 -0.14979406 0.5296826 -0.14854363
0001f0 d2 30 0d 3f 00 af 45 3f 05 0a 0a 3f bc 0b 1e 3f
       0.5515262 0.77220154 0.5392154 0.61736655

fc_adv.weight f4 [128, 128]
000000 32 94 ac 3b da 7d a2 bd fc f0 05 be a5 2e e5 b9
       0.0052666897 -0.079341605 -0.1308021 -0.00043713037
000010 b3 08 19 3e 85 66 ab bd b3 5b 0d be 26 14 75 bd
       0.14944725 -0.083691634 -0.13804512 -0.05983367
000020 4c 02 b2 3d b7 71 05 3e 9b 4f 50 3c 5e ee 1c 3e
       0.08691844 0.1303166 0.012714292 0.15325305
000030 b4 9a a1 3d a9 10 71 bb 3a d4 97 bd 2f 7d d0 bb
       0.078908354 -0.0036783612 -0.07413526 -0.0063625793
000040 85 8c b2 3d 9e ac aa 3d ac c8 fc bd 9b 21 1f be
       0.08718208 0.08333705 -0.123429626 -0.15540163
000050 fa ef 4a be 78 1c b4 bd ae c3 0f 3e d9 ee 42 3e
       -0.19818106 -0.087944925 0.1403949 0.19036426
000060 5f 33 de bd 69 39 58 bd 70 df 97 3c a6 98 5e 3d
       -0.10849642 -0.052789126 0.01853916 0.054344796
000070 2c a2 0b 3d 93 84 c5 bc 06 d6 b2 bd a5 af b9 bd
       0.034090206 -0.024111068 -0.08732228 -0.09066705
000080 cf 16 38 3c 46 27 af bd 19 fe 42 3d b6 0f d8 3d
       0.011235907 -0.08552413 0.047605608 0.105498716
000090 ce 56 c7 be 69 f6 d4 3d 48 9c de bd 73 a8 95 3d
       -0.38933414 0.103985615 -0.10869652 0.0730752
0000a0 08 6e 85 3d 9c 74 8e be f7 b8 5c 3e d0 00 bb 3d
       0.065151274 -0.2782334 0.21554933 0.09131014
0000b0 c8 a0 38 3e 40 ed be 3d 37 34 5e 3c 7e b3 48 3e
       0.18030083 0.093225956 0.013562254 0.19599721
0000c0 0f 87 0d be cf 7c 12 bd 99 7f 8a 3c da 50 9e 3b
       -0.13821052 -0.035763558 0.016906546 0.0048314156
0000d0 25 3e 8e bd 1b 6d bd bc f4 68 25 be 81 8f 11 3e
       -0.06945447 -0.023123315 -0.16153318 0.14214899
0000e0 62 b2 48 3e 07 73 d0 3d ae 02 d7 3d 3b 85 29 3c
       0.19599298 0.1017819 0.10498558 0.010346706
0000f0 36 e9 26 be 4b 3a de 3d e5 f4 98 be 7d 41 ee 3d
       -0.162999 0.10850962 -0.2987434 0.11633585
000100 ff 95 05 bc 0c b2 66 3e 6c a4 8d bd 61 2d 28 be
       -0.008153438 0.22528857 -0.069161266 -0.1642356
000110 53 ee 97 3d 0b 6f 3b be 27 76 e5 3d b2 82 14 3b
       0.074185036 -0.18304078 0.112041764 0.0022660908
000120 b3 7a 34 3d 0f b3 a3 3d 43 94 3f 3d 08 11 f4 bb
       0.044062328 0.07993137 0.046772253 -0.0074483193
000130 4a e7 bc bb b6 22 f1 bd be 07 03 be 9b cb 0d be
       -0.0057648765 -0.11774199 -0.12795922 -0.138472
000140 4e 08 29 3e 72 06 85 3b 45 45 84 3d 77 52 94 be
       0.16507074 0.004059606 0.064585246 -0.28969166
000150 49 81 67 be 8e 80 b6 3d 55 23 09 3d db a0 ca 3d
       -0.22607912 0.089112386 0.03348096 0.09893962
000160 2c 24 0a bd 3f aa 9f 3d e1 2f 9d 3d 13 7f 61 bc
       -0.033725902 0.07796144 0.07675148 -0.013763207
000170 d5 ff d4 3d 2c 44 a5 bd 67 05 5e bc 2f 06 ca bd
       0.104003586 -0.080696434 -0.013551093 -0.09864461
000180 ed 28 5c be 51 60 37 be 63 37 38 be 64 10 cd 3d
       -0.21499987 -0.17907836 -0.17989878 0.10012892
000190 24 72 13 3e b6 6e 2c 3e 65 81 5c be f5 6a 48 bd
       0.1439901 0.16839108 -0.21533735 -0.048930127
0001a0 bb 0e 39 bd d9 39 8b 3e 7e b2 ad bc 6d ef a6 be
       -0.045180064 0.27192572 -0.021203276 -0.32604542
0001b0 e3 b6 cd bd 6b b0 aa bd d0 0a f6 bd de 1e e8 bd
       -0.100446485 -0.0833443 -0.12013781 -0.113340124
0001c0 1b 21 20 be 6f 51 19 3d b5 8b bb bd b7 2c f2 bc
       -0.15637629 0.037431177 -0.091575064 -0.029562337
0001d0 82 73 8e be 84 12 1c be f8 89 7e 3c 72 c5 40 bd
       -0.278225 -0.15241438 0.015535824 -0.0470633
0001e0 f8 c9 05 3d 3d 78 b7 3d 62 5a 81 3d bf 70 90 bd
       0.032663316 0.089584805 0.06316067 -0.070527546
0001f0 f7 66 13 bd ca 84 68 bd b1 3c 4f be 3f 4b 96 3d
       -0.035986867 -0.056767263 -0.20237996 0.07338571
000200 53 bf 3c bb e1 61 63 bd 9c 79 81 bd dd f5 8f bd
       -0.0028800562 -0.055513266 -0.06322023 -0.070293166
000210 a9 f7 90 be 35 ff 06 3d 91 47 76 bd ab 2b cc bd
       -0.2831395 0.03295823 -0.060126845 -0.099692665
000220 90 a0 e7 3d 04 03 a8 3d 4e 19 a0 bd ae e5 a3 3c
       0.11309922 0.082037 -0.078173265 0.02000698
000230 51 60 23 3e 5c b1 4f be df 59 47 3a 60 3c f5 bd
       0.1595471 -0.20282501 0.00076046394 -0.11974406
000240 72 60 41 bd ba 3a c7 3d eb e8 4a bd 3a 4b bc bd
       -0.047211118 0.09727998 -0.049538534 -0.09194036
000250 d1 22 72 3d 70 e2 64 bd 41 96 27 3e 84 21 7e 3d
       0.059115235 -0.05588001 0.16365911 0.06204368
000260 bd 84 78 3e 7e 9f ae 3d df fc 54 bd d8 20 89 3d
       0.24269386 0.085265145 -0.05199897 0.066957176
000270 be ed 9b 3c 6e 33 de bd da 98 18 3e 3e ad fd 3d
       0.019034263 -0.10849653 0.14902058 0.12386559
000280 18 10 21 bd cc 24 37 3d 1f 1d 8e bd 2b 1e 8c bc
       -0.03932199 0.044712827 -0.06939148 -0.017104229
000290 8c 30 85 3b a2 69 e1 bc cd 73 8f 3c 13 98 4a 3e
       0.004064625 -0.02751619 0.017511273 0.19784574
0002a0 02 13 49 3e 7c 6d 18 3e 68 c8 79 bd 00 ca d4 bd
       0.19636157 0.14885515 -0.060982138 -0.10390091
0002b0 c6 c1 9b 3d 35 24 2f 3d 78 ff ef 3d f1 32 fd 3c
       0.07605319 0.04275914 0.11718649 0.03090808
0002c0 8b 79 f9 3d 0b 7f d0 bd 80 75 03 be 28 78 d3 3c
       0.121813856 -0.101804815 -0.12837791 0.02581413
0002d0 69 6b 03 be dc d7 83 3d 67 4e 27 bd 5d a3 41 3d
       -0.12833942 0.06437656 -0.040846255 0.047274936
0002e0 9a 90 04 be e1 38 b6 bd e9 4f ed bd 90 d3 ad 3d
       -0.12945786 -0.088975675 -0.11587507 0.08487618
0002f0 7c 0c e9 bd 7c c4 c6 3d d1 4a 32 be 3f 90 85 3c
       -0.11379334 0.09705445 -0.17411353 0.016304133
000300 1e 07 fc bd 31 14 25 3d c0 59 e8 3d fa 33 3d 3d
       -0.12306045 0.04030246 0.113452435 0.046192147
000310 ca 11 aa 3d 23 a8 0d 3e ef 35 f1 3d af 63 19 bd
       0.08304174 0.1383367 0.11777865 -0.03744858
000320 85 4b 40 3c 9c cd e1 3c ba 82 2b bd dd 16 5a 3d
       0.011736755 0.027563863 -0.041872717 0.05324446
000330 1c e5 20 be 16 ed 3c be c1 50 24 3e 97 44 df 3c
       -0.15712398 -0.18449816 0.1604643 0.027254386
000340 0e ef 85 3d be db c1 3d 24 08 03 be 41 22 cc bd
       0.06539737 0.094657406 -0.12796074 -0.09967471
000350 60 f9 ae 3c 06 4f ae 3c 61 7e 18 3c 38 8f d3 bd
       0.021359146 0.021277916 0.009307475 -0.10330051
000360 44 9a ac bc 59 51 88 3d f8 43 d8 bd 0b f9 90 3d
       -0.021069653 0.06656141 -0.10559839 0.07078751
000370 20 64 33 bd c7 b4 a1 3d 6e 12 99 3c e6 b4 82 3d
       -0.04379666 0.07895809 0.018685546 0.0638216
000380 ad 98 af bd 1f 1f 32 be 86 5f bc 3d fb 8f 22 bc
       -0.085740425 -0.17394684 0.09197907 -0.009922023
000390 43 34 14 3e 2d f2 32 3c 4a 6d 4f 3d 46 ff f2 ba
       0.14473061 0.010921997 0.050641336 -0.0018539212
0003a0 93 6c 8b bd 7e 68 59 be 7f 08 0a 3e 02 ba 7a 3d
       -0.06807818 -0.21231267 0.13479804 0.061212547
0003b0 a5 6c 38 be 29 96 f1 bd 6f c3 56 3d b9 0a eb bd
       -0.18010195 -0.11796219 0.052432474 -0.114766546
0003c0 86 2f 02 bd 07 d7 25 be 81 0b fc bd 65 74 cf 3d
       -0.031783603 -0.16195308 -0.12306882 0.10129622
0003d0 92 2c 87 bd 09 03 a5 3d 49 8d f7 3c d8 c2 7d bd
       -0.06600298 0.080572195 0.030218737 -0.061953396
0003e0 ab 64 02 bd 32 e8 60 bd d9 73 8d bb 8a ec 00 be
       -0.031834286 -0.05490894 -0.0043167886 -0.12590232
0003f0 f4 63 b6 3d ee ca 45 be 1b d4 72 bd db 1d c8 bd
       0.08905783 -0.19315693 -0.05928431 -0.097713195

fc_adv.bias f4 [128]
000000 89 30 8c 3c d2 31 59 3a 5a c4 b5 bb 25 35 da 3b
       0.017112987 0.0008285317 -0.0055470886 0.0066591674
000010 f3 15 45 bc 2d 95 06 bd 28 0c 58 3d 12 d0 9d bc
       -0.012029159 -0.03285711 0.052745968 -0.019264255
000020 40 f4 84 3c 0d fd 83 bc 20 e0 d2 3a 98 09 ad bc
       0.016229749 -0.016111875 0.0016088523 -0.021122739
000030 ca 1d 54 bb 17 c3 47 3b 22 5b b5 3c e4 96 2c bd
       -0.0032366388 0.0030481273 0.022138182 -0.042136088
000040 bd 88 01 bc e1 07 74 bc f9 5e 98 b9 df d7 3e bb
       -0.007906136 -0.014894457 -0.0002906246 -0.0029120368
000050 c7 a0 10 bd b9 32 19 bc 6e c2 70 3c 41 8e 89 3c
       -0.03530958 -0.009350472 0.014694793 0.016791465
000060 e7 53 98 3c 0f f9 25 3d 30 d7 08 3d 1d a7 27 bd
       0.018594695 0.040520724 0.033408344 -0.040930856
000070 a5 86 48 ba b5 01 0b bd 79 cf a0 3b 9a d9 45 bd
       -0.0007649458 -0.033937175 0.004907545 -0.048303224
000080 2f 5c 57 3d 62 aa d0 3c 7b 68 08 3d ef 2b d8 3c
       0.052578148 0.02547187 0.033302765 0.026388137
000090 46 df 58 bd ea 8e 80 bc 96 07 b0 3c da b4 4e 3d
       -0.052947305 -0.015693147 0.021487992 0.050465442
0000a0 bb 69 39 bc 84 12 c8 bb 88 31 9f bd 4f 8b 8a 3c
       -0.011316712 -0.006105723 -0.07773119 0.01691213
0000b0 00 c3 7d 3d d6 2b 3f 3c 5b e9 8b 3c ab 35 b7 3c
       0.061953545 0.011668166 0.017079046 0.022364458
0000c0 17 3d 96 bc cf 72 46 bc b6 0e 71 3c 33 92 dd 3c
       -0.018339677 -0.012112333 0.01471298 0.027047252
0000d0 8c 7f 60 bb 4e 91 75 bb e3 5a 82 bb d5 4e 2f 3d
       -0.0034255711 -0.0037470642 -0.0039781197 0.04279979
0000e0 de 07 ff bb 9c 42 e2 3a 1c 72 d6 3c df e2 93 3c
       -0.0077829203 0.0017262283 0.026177458 0.018052517
0000f0 e0 45 91 bb 00 da 26 3d 22 76 8f bc 19 44 d8 3a
       -0.0044333786 0.040735245 -0.017512385 0.0016499787
000100 ed 5d df bc 8b 8d df 3c b0 d5 50 bd 3b 43 9a 3b
       -0.027266467 0.027289173 -0.05098504 0.0047077215
000110 58 46 47 b9 d8 9a 85 3c 43 fc cd bc eb cc 03 bc
       -0.00019004324 0.016309187 -0.025144702 -0.008044462
000120 13 d1 d5 3c 00 00 00 00 85 37 f0 3b c4 fc 82 bb
       0.02610067 0.0 0.007330837 -0.003997417
000130 1b f2 e1 3c 95 48 f8 39 71 53 59 3c 1f f0 43 bc
       0.027581265 0.00047356324 0.013264523 -0.011959105
000140 75 10 3e 3c 37 e9 52 bd 34 15 94 bc 99 8a 5d bc
       0.011600603 -0.051491942 -0.018076517 -0.013521814
000150 1e 54 02 3c 3c b6 a5 bb de 66 4f 3d 24 14 26 3d
       0.007954625 -0.0050571244 0.05063521 0.04054655
000160 a5 5c a6 bd aa 6f c1 3a 62 a1 da bc 6b 85 38 3d
       -0.08123139 0.001475801 -0.026688281 0.045049112
000170 01 44 82 3c 11 d4 45 3d 3b 5c d9 bc f1 0a 15 3d
       0.015901567 0.048297945 -0.026533237 0.036387388
000180 95 eb f0 39 6d de 6a bc 92 e6 83 bc 25 ff 3a 3d
       0.0004595189 -0.014335257 -0.016101155 0.04565348
000190 8c 24 44 bc cf c8 23 bd 78 d7 f5 bc 71 37 78 3c
       -0.011971604 -0.039986428 -0.03000997 0.015149937
0001a0 90 08 2d 3d 46 9b c7 3c cc 79 9d 3d 7a 53 26 3c
       0.042244494 0.024366032 0.076892465 0.010151738
0001b0 08 12 46 bc 6f 79 3f 3d 96 db eb 3c 5c a7 1f bc
       -0.01208926 0.046746667 0.02879123 -0.009744491
0001c0 44 a4 02 3d 15 d8 af 3c 68 80 c2 3c 4b 5b d4 bb
       0.031894937 0.02146534 0.02374287 -0.0064806095
0001d0 ba d1 00 bc b0 65 52 bd a3 8a 93 ba ed 5b 3f 3c
       -0.007862503 -0.051366508 -0.0011256527 0.011679632
0001e0 c3 9f ac bc 81 1b a1 3c 91 26 29 be 62 43 9f bc
       -0.021072274 0.019666435 -0.16518618 -0.01944131
0001f0 13 e4 7b bc 61 40 81 bd dc 42 6d 3c f9 c4 7a 3b
       -0.015374201 -0.063111074 0.014481273 0.0038264378
