Project/output/mountaincar/ddqn_duel_per/best_model.pth (torch, 824610 bytes, 44 tensors)

fc1.weight f4 [128, 2]
-0.07587659 -0.15967254 -0.18816403 1.1945614 -0.20200512 -0.9653475 -0.06024298 -1.1179141
0.24657255 1.1085643 -0.24401128 -0.60866064 -0.08876344 -0.057005405 0.022279471 1.0940602
0.2782373 -0.016487466 0.035897236 -2.5609508 0.064021304 1.2179009 0.018686563 1.0761707
0.46930528 0.76911235 -0.04890703 -2.4684913 -0.1117764 -0.35899147 0.20363614 1.1341722
0.14949425 0.08657897 0.49402612 0.9494178 0.25922439 0.8178652 -0.055702165 1.495336
0.052056912 0.9519989 -0.01263869 -0.06753823 -0.20766322 1.2071902 -0.17448112 -1.4586556
0.39204285 0.24185286 0.32248554 1.00757 0.18174551 1.1641539 0.16168073 1.3243912
0.15358832 0.09789964 -0.027135469 0.0535033 -0.06860806 -1.02964 0.30033487 0.3989264
0.3346329 0.2128658 0.2020131 1.0765747 0.014671935 0.88893974 -0.009458926 0.20137437
0.011139884 0.010868357 -0.016573997 1.2257309 -0.13575861 0.31772262 -0.014861842 -0.044254012
0.017994698 0.993027 -0.098204434 -0.31218866 -0.13686235 -1.8022004 0.23739342 1.200181
-0.2174478 -1.8501213 -0.008327503 0.006784107 0.052942242 1.2193321 0.012696058 0.021090552
0.3110707 0.011622432 0.025412792 -0.20430602 0.3235328 0.29305008 0.039328147 0.17156006
0.31313977 0.12259396 -0.081326 0.36191854 -0.04564633 -1.1811931 -0.08336836 -0.092970826
0.3740733 1.3610203 0.2381388 -0.28511608 -0.26023325 -0.4860343 0.15225936 1.307049
-0.0457181 -1.3185561 -0.095092386 -0.7026212 -0.21738677 -0.10499058 0.012640121 0.0032601373
-0.16427273 -2.0137298 0.24146034 -0.31222317 0.006064297 -0.042398024 0.08740195 1.1763394
-0.036680624 0.0061781057 0.12323323 1.8813217 0.076462336 0.89314914 -0.2049016 0.30026773
0.07394354 1.8398975 -0.08688744 -1.0039951 0.061984662 1.3188715 0.16035876 1.0287155
-0.09221834 0.015662614 -0.1506083 -1.3429425 -0.21035357 -0.038641665 0.03320911 1.082231
-0.1643845 -0.36732787 0.07391701 1.3056785 0.21108302 1.0056831 0.06115666 -1.4746106
-0.008624083 -1.4015678 -0.114687495 -0.0129857 0.3238263 1.3497255 0.18106107 1.049545
0.095300466 0.4994174 0.017779607 1.0677979 -0.033982087 1.0609286 -0.175024 1.099743
-0.007607045 -1.0281879 -0.11291282 1.0070044 0.22700025 1.273996 0.23529644 1.0751321
-0.09442328 -0.5983444 0.12115891 1.1165735 0.12511191 0.38053784 -0.020154718 0.2519496
0.33934003 0.8906845 -0.09179785 0.5906656 -0.019546736 0.09759003 -0.044718735 -1.181699
-0.11636256 0.063608415 -0.066102386 0.921607 0.18251 -0.6606917 -0.23378986 0.15074775
0.038629457 1.0973172 0.2445397 0.22117855 -0.17905389 -0.56687367 -0.11076119 -0.43009794
0.033955343 1.3377463 0.0013592133 1.0950847 -0.15221217 -0.5637655 -0.061691888 1.0842195
-0.13948624 -0.22521795 -0.10744131 -0.8953453 -0.053970814 1.1053926 -0.067133695 -2.4680972
-0.003831052 1.0390521 -0.20400336 0.5300385 0.07661563 1.357944 -0.09062009 -0.46608537
-0.16423514 -0.29970953 -0.042581085 -1.209086 0.028654238 1.6386272 -0.13720909 0.24258599
00000000: 3065 9bbd 3381 23be 12ae 40be 63e7 983f
00000010: 6eda 4ebe 0421 77bf 58c1 76bd cf17 8fbf
00000020: 847d 7c3e 6fe5 8d3f 18de 79be 2fd1 1bbf
00000030: 9bc9 b5bd 807e 69bd 7083 b63c 2a0a 8c3f
00000040: 1f75 8e3e b910 87bc fb08 133d 9ee6 23c0
00000050: 9a1d 833d 2de4 9b3f 9014 993c f6bf 893f
00000060: c848 f03e 8ce4 443f bd52 48bd c3fb 1dc0
00000070: 06eb e4bd bbcd b7be fe85 503e 8e2c 913f
00000080: 0515 193e 5150 b13d fef0 fc3e 0c0d 733f
00000090: 0fb9 843e 9d5f 513f f427 64bd 2c67 bf3f
000000a0: a139 553d 33b6 733f 8212 4fbc 7c51 8abd
000000b0: aba5 54be 3585 9a3f 2eab 32be 3ab5 babf
000000c0: d7b9 c83e 47a8 773e d31c a53e 0ef8 803f
000000d0: 7f1b 3a3e ff02 953f a28f 253e a785 a93f
000000e0: 4246 1d3e 9b7f c83d 344b debc 4726 5b3d
000000f0: 6282 8cbd 3ecb 83bf 7ec5 993e 1540 cc3e
00000100: 0155 ab3e 7ef9 593e 86dc 4e3e 33cd 893f
00000110: 8e62 703c 8e91 633f 9cf9 1abc 1535 4e3e
00000120: 0f84 363c 3111 323c 31c6 87bc c0e4 9c3f
00000130: 4e04 0bbe 8aac a23e 157f 73bc b243 35bd
00000140: 9e69 933c 0437 7e3f 681f c9bd 31d7 9fbe
00000150: a525 0cbe 81ae e6bf 4317 733e 889f 993f
00000160: a3aa 5ebe c6d0 ecbf 1470 08bc 374d de3b
00000170: f7d9 583d 1313 9c3f 2003 503c 18c6 ac3c
00000180: a944 9f3e 036c 3e3c 7d2e d03c 9935 51be
00000190: 17a6 a53e a90a 963e 8d16 213d 71ad 2f3e
000001a0: db53 a03e 8b12 fb3d 3f8e a6bd 634d b93e
000001b0: a5f7 3abd 5631 97bf 08bd aabd 7d67 bebd
000001c0: 8986 bf3e ea35 ae3f a8da 733e bcfa 91be
000001d0: 4b3d 85be 7dd9 f8be e1e9 1b3e 624d a73f
000001e0: e742 3bbd 72c6 a8bf ccbf c2bd fcde 33bf
000001f0: a39a 5ebe 4d05 d7bd 8318 4f3c 07a8 553b
00000200: 1c37 28be f3e0 00c0 6141 773e b7db 9fbe
00000210: 03b7 c63b 8da9 2dbd cbff b23d 4a92 963f
00000220: 6c3e 16bd b571 ca3b b461 fc3d 26cf f03f
00000230: 4998 9c3d 6ca5 643f bad1 51be b1bc 993e
00000240: b66f 973d c381 eb3f 0bf2 b1bd e982 80bf
00000250: a1e3 7d3d c8d0 a83f 1635 243e f3ac 833f
00000260: f8dc bcbd e24e 803c 1039 1abe 8ae5 abbf
00000270: ed66 57be b946 1ebd 4706 083d 8c86 8a3f
00000280: 6954 28be 6612 bcbe cd61 973d 7920 a73f
00000290: 2626 583e 39ba 803f 687f 7a3d 0ac0 bcbf
000002a0: 074c 0dbc 9366 b3bf 47e1 eabd f9c1 54bc
000002b0: 90cc a53e cec3 ac3f 1368 393e 7e57 863f
000002c0: e42c c33d a3b3 ff3e 8aa6 913c 9aad 883f
000002d0: cd30 0bbd 82cc 873f 7e39 33be 61c4 8c3f
000002e0: 8544 f9bb a99b 83bf d63e e7bd 85e5 803f
000002f0: c172 683e 4d12 a33f 8df1 703e ee9d 893f
00000300: fe60 c1bd 192d 19bf 2a22 f83d e1eb 8e3f
00000310: 561d 003e dbd5 c23e 821b a5bc 8aff 803e
00000320: fabd ad3e e603 643f 8300 bcbd dc35 173f
00000330: 7a20 a0bc 48dd c73d fe2a 37bd ea41 97bf
00000340: 7e4f eebd 2145 823d b060 87bd 70ee 6b3f
00000350: e7e3 3a3e 1723 29bf 9c66 6fbe 9e5d 1a3e
00000360: ec39 1e3d e474 8c3f 9d68 7a3e a17c 623e
00000370: e759 37be a21e 11bf c3d6 e2bd cc35 dcbe
00000380: c214 0b3d 453b ab3f a127 b23a bc2b 8c3f
00000390: 82dd 1bbe f052 10bf a2b0 7cbd b4c7 8a3f
000003a0: 7bd5 0ebe 899f 66be 310a dcbd 5935 65bf
000003b0: 8010 5dbd 817d 8d3f 647d 89bd 4ef5 1dc0
000003c0: 6312 7bbb a9ff 843f 42e6 50be 9ab0 073f
000003d0: a8e8 9c3d 1cd1 ad3f 0797 b9bd bea2 eebe
000003e0: 422d 28be 8773 99be 8169 2ebd 54c3 9abf
000003f0: 4bbc ea3c 89be d13f 8a80 0cbe 7668 783e

fc1.bias f4 [128]
0.13469677 -0.0061138025 -0.10555261 0.124246426 0.040594105 0.066076934 0.13608971 -0.014986208
0.24769513 0.110286914 -0.02856579 -0.014702204 0.07729635 0.074682765 0.10224642 0.09495455
-0.07897415 0.0052300435 0.09817416 -0.022453401 -0.022523252 0.15214327 -0.061128564 -0.03573543
0.064542666 0.052138355 0.046144396 -0.020561703 -0.08157317 0.13136399 0.13375047 -0.023727559
0.07023019 0.108481914 -0.006389378 -0.018439624 -0.0068442235 0.00064429926 0.11876947 0.1649769
-0.028391164 0.14296046 0.052472744 0.039096203 -0.17538795 0.17511469 -0.023113552 -0.0075544585
-0.023823218 0.19902019 0.018015672 -0.02879992 -0.063500516 0.1250011 0.120654404 0.11456249
0.105272174 0.21184678 0.046841845 -0.02805866 0.13794325 0.12078174 0.15422902 -0.007249253
0.068216056 0.21560591 0.18162556 -0.030572692 0.14605786 0.037677392 0.054206096 0.05536663
0.0073533067 0.12090847 -0.027290555 -0.038838122 0.12810104 -0.12628302 0.069351636 -0.020133648
0.10461113 -0.031708475 0.1095057 0.10638758 0.1435361 0.08525462 0.0661429 0.052177038
0.089591265 -0.010793009 -0.013078738 -0.14848125 0.12274528 -0.055648755 0.11054457 0.02984685
0.11872531 -0.031845193 0.11458574 0.15875643 0.09151235 0.15298702 0.16732796 0.12976561
0.16460027 -0.03052033 0.16644217 0.028782565 -0.02794115 0.063863814 0.13470104 0.07668116
-0.02975334 0.011757996 -0.12066394 -0.028549759 0.12087905 0.12979417 -0.0245343 -0.07187149
-0.039639857 -0.015551324 -0.03214533 0.12626429 0.09577256 0.13098788 0.036216155 -0.113856144
00000000: f3ed 093e 4b56 c8bb f72b d8bd e974 fe3d
00000010: 0146 263d 5853 873d 1a5b 0b3e b688 75bc
00000020: cba3 7d3e 1bde e13d ce02 eabc 83e1 70bc
00000030: 8c4d 9e3d 47f3 983d 9266 d13d 8877 c23d
00000040: 33bd a1bd c960 ab3b 890f c93d 32f0 b7bc
00000050: af82 b8bc 72cb 1b3e f261 7abd 505f 12bd
00000060: f22e 843d 078f 553d e801 3d3d 0471 a8bc
00000070: d60f a7bd 4884 063e e2f5 083e 4c60 c2bc
00000080: d9d4 8f3d c42b de3d fd5d d1bb b20e 97bc
00000090: 8245 e0bb 31e6 283a 683d f33d b4ef 283e
000000a0: 9694 e8bc 3a64 123e a9ed 563d 5723 203d
000000b0: e698 33be 4451 333e a258 bdbc 648b f7bb
000000c0: e928 c3bc f3cb 4b3e 9a95 933c cfed ebbc
000000d0: 8f0c 82bd 4a00 003e a819 f73d bd9f ea3d
000000e0: f098 d73d 5dee 583e 3cdd 3f3d 46db e5bc
000000f0: ff40 0d3e 6b5c f73d 36ee 1d3e 248b edbb
00000100: dcb4 8b3d ccc7 5c3e 0dfc 393e 9573 fabc
00000110: 3190 153e 9c53 1a3d 3607 5e3d 1fc8 623d
00000120: 02f4 f03b dc9e f73d 7190 dfbc b914 1fbd
00000130: eb2c 033e 5650 01be 3b08 8e3d 52ef a4bc
00000140: 5c3e d63d bfe0 01bd 8644 e03d bbe1 d93d
00000150: 21fb 123e f999 ae3d ee75 873d 97b7 553d
00000160: a07b b73d 29d5 30bc 3448 56bc 780b 18be
00000170: e161 fb3d f3ef 63bd 3165 e23d 6281 f43c
00000180: 4126 f33d 1b70 02bd eeab ea3d 0c91 223e
00000190: d46a bb3d a1a8 1c3e 0558 2b3e 47e1 043e
000001a0: f98c 283e c505 fabc d16f 2a3e 6ac9 eb3c
000001b0: d7e4 e4bc 08cb 823d 12ef 093e 030b 9d3d
000001c0: 47bd f3bc 9ca4 403c a81e f7bd 2fe1 e9bc
000001d0: 6f8f f73d c3e8 043e 28fc c8bc 5c31 93bd
000001e0: 675d 22bd fbca 7ebc d2aa 03bd 6d4b 013e
000001f0: 6724 c43d b021 063e 6457 143d 692d e9bd

fc2.weight f4 [128, 128]
0.0050863717 0.34911463 -0.296953 -0.10223248 0.11257251 -0.05952145 -0.057395797 0.08362384
-0.023779886 -0.60772836 -0.1322741 -0.22000669 0.10346984 -0.5459594 -0.006199425 0.13924469
0.0029117302 0.2673595 -0.10843738 -0.25702843 -0.2853981 0.20355368 0.2413104 -0.14406906
-0.04535348 0.12522379 0.048068266 0.034854073 0.004651137 0.13465896 0.0648197 0.1115213
-0.2143462 -0.0038163746 -0.11760544 0.1427818 -0.07943876 -0.6512832 0.13297938 0.08578683
-0.12898983 0.03187765 -0.026910411 0.077780165 -0.32801667 0.07974049 -0.20953268 0.002319552
0.26201168 0.2766347 -0.27868977 0.13596265 -0.43408334 -0.035215095 0.17467514 -0.07207837
0.14049724 -0.04698018 0.14256285 0.026246957 0.066184856 0.10327661 0.18035921 -0.048210688
0.14236256 -0.12475475 0.058636386 -0.27999115 0.066744074 0.12442839 0.019987177 -0.035532713
0.20716695 -0.02908122 -0.12904501 -0.054510467 0.031300172 -0.58749604 -0.027916439 -0.2572989
0.020647144 -0.2534515 0.1545624 0.07838718 -0.003155357 -0.0025432797 -0.033219714 0.21300098
0.036103833 -0.08761835 -0.6847252 -0.6532075 0.053870652 -0.6789681 -0.05564437 0.056662854
0.19053504 -0.21343821 -0.043164004 0.1868182 0.11723804 -0.033735566 0.3187865 0.17091858
0.2268022 -0.3408174 -0.23538715 0.022652319 -0.12842155 0.2079542 0.009343288 0.087359086
-0.24522078 -0.5641823 -0.54344445 -0.4742024 0.019441128 -0.020604985 -0.47224241 -0.7643379
-0.44069767 0.06400843 -0.2434301 0.18173084 0.01925706 0.10991319 -0.18352745 -0.38795936
0.13580939 0.09245997 -0.14194164 -0.04278759 0.09173914 0.10456372 0.0386932 -0.03293459
0.12492636 -0.028209668 -0.072374724 0.0037088166 0.051026434 0.07148655 -0.06795787 -0.024153357
-0.003694372 0.0084727025 -0.08973995 -0.07558437 0.12026004 -0.06348594 0.14376026 0.12883765
0.037970528 -0.11138691 0.0665233 0.14557673 0.12518755 -0.088545375 0.123305134 -0.068138145
0.055959523 0.0943281 -0.11505931 0.13390483 0.116233766 0.09062115 -0.11918116 0.12832509
-0.15345529 -0.07978864 -0.070236996 0.09116848 -0.08827551 -0.06941899 -0.09463379 -0.005251217
0.071286745 -0.15937342 0.055722937 -0.053694103 0.13629124 -0.103984095 -0.06707412 -0.02218353
0.035116713 0.10690284 0.055099178 -0.07645855 -0.060908988 -0.058752388 0.14594819 -0.056284998
0.013337736 0.09602562 -0.13377343 0.12844427 -0.015542064 -0.06058069 0.05667448 -0.021225547
-0.030595202 -0.0869625 0.029782353 0.004996855 -0.077804305 -0.091370165 -0.02168428 0.036094524
0.03457871 0.09272079 -0.047203794 0.043018993 -0.12961987 0.006337306 0.006453629 -0.025362894
-0.013266717 -0.0031330357 0.12869833 -0.13572787 -0.13819282 0.028717492 -0.1185302 -0.097633414
0.14380214 -0.066239506 0.025157947 0.084393 0.10726625 -0.11607054 0.002578197 0.07356155
-0.1533541 0.096795015 -0.095896885 -0.09132633 0.13427447 -0.12645848 0.14141375 -0.02564005
-0.050671436 0.14147055 0.04037093 -0.11167578 -0.09679275 -0.026735658 0.103772916 -0.06737191
0.07270341 0.100079745 0.076294236 -0.052354738 -0.09399986 0.0029171638 -0.12723139 -0.06973087
00000000: 94ab a63b 27bf b23e 390a 98be 435f d1bd
00000010: 6b8c e63d c4cc 73bd db17 6bbd fa42 ab3d
00000020: 09ce c2bc 1694 1bbf dd72 07be 6f49 61be
00000030: ffe7 d33d ffc3 0bbf 8c24 cbbb 2996 0e3e
00000040: bad2 3e3b 58e3 883e 6b14 debd 3b99 83be
00000050: b31f 92be 6070 503e 131a 773e d786 13be
00000060: 92c4 39bd aa3a 003e 3be3 443d 25c3 0e3d
00000070: 9168 983b 0ae4 093e 31c0 843d 4865 e43d
00000080: 927d 5bbe 241c 7abb 1fdb f0bd 6435 123e
00000090: cab0 a2bd 7fba 26bf bf2b 083e 01b1 af3d
000000a0: e915 04be 2492 023d 3973 dcbc 354b 9f3d
000000b0: cdf1 a7be fb4e a33d bc8f 56be a003 183b
000000c0: 6526 863e 10a3 8d3e 6db0 8ebe cb39 0b3e
000000d0: 2c40 debe b43d 10bd 0ade 323e d39d 93bd
000000e0: 82de 0f3e 4a6e 40bd fffb 113e dc03 d73c
000000f0: ed8b 873d b082 d33d 16b0 383e 9278 45bd
00000100: 7ec7 113e 6b7f ffbd b52c 703d 005b 8fbe
00000110: 1eb1 883d 50d4 fe3d 26bc a33c c08a 11bd
00000120: 9323 543e bd3b eebc 6024 04be 5e46 5fbd
00000130: 9c34 003d 2466 16bf 04b1 e4bc aebc 83be
00000140: 3324 a93c 65c4 81be 9b45 1e3e 7589 a03d
00000150: 1bca 4ebb 27ad 26bb 6511 08bd ee1c 5a3e
00000160: 9de1 133d 4071 b3bd 274a 2fbf 9b38 27bf
00000170: 79a7 5c3d dad0 2dbf 5aeb 63bd 4f17 683d
00000180: 9e1b 433e 8c8f 5abe bdcc 30bd 454d 3f3e
00000190: 7f1a f03d 4e2e 0abd fc37 a33e 4805 2f3e
000001a0: d63e 683e 9e7f aebe 5409 71be 5b91 b93c
000001b0: f080 03be f2f1 543e 9714 193c 52e9 b23d
000001c0: 281b 7bbe 406e 10bf 2d1f 0bbf a8ca f2be
000001d0: 0043 9f3c c9cb a8bc c2c9 f1be a6ab 43bf
000001e0: 20a3 e1be da16 833d bd45 79be a617 3a3e
000001f0: fbc0 9d3c 2b1a e13d 9fee 3bbe 9ca2 c6be
00000200: 9e11 0b3e a75b bd3d 2659 11be 0a42 2fbd
00000210: bbe1 bb3d 8125 d63d c37c 1e3d 6ce6 06bd
00000220: 64d9 ff3d f617 e7bc 3339 94bd 9e0f 733b
00000230: 1801 513d 8a67 923d 7f2d 8bbd 43dd c5bc
00000240: 471d 72bb 17d1 0a3c 94c9 b7bd facb 9abd
00000250: e54a f63d eb04 82bd e435 133e 04ee 033e
00000260: fc86 1b3d d21e e4bd 5e3d 883d 1112 153e
00000270: 2a31 003e 4757 b5bd 6787 fc3d 038c 8bbd
00000280: d035 653d 172f c13d 37a4 ebbd 591e 093e
00000290: f80b ee3d 9597 b93d 4115 f4bd a767 033e
000002a0: 6223 1dbe 3a68 a3bd 6ad8 8fbd 8ab6 ba3d
000002b0: cac9 b4bd 8b2b 8ebd 5ccf c1bd 6712 acbb
000002c0: c9fe 913d c932 23be bc3d 643d 59ee 5bbd
000002d0: ee8f 0b3e 9df5 d4bd 285e 89bd 3cba b5bc
000002e0: 8bd6 0f3d e0ef da3d adaf 613d 4d96 9cbd
000002f0: b47b 79bd 58a6 70bd 7173 153e 198b 66bd
00000300: 8586 5a3c 15a9 c43d e7fb 08be e586 033e
00000310: 24a4 7ebc 7523 78bd 8023 683d 33e1 adbc
00000320: caa2 fabc 6519 b2bd 1ffa f33c a8bc a33b
00000330: dd57 9fbd 4820 bbbd 3ba3 b1bc dad7 133d
00000340: 68a2 0d3d 66e4 bd3d c458 41bd af34 303d
00000350: 12bb 04be 2da9 cf3b f778 d33b d8c5 cfbc
00000360: a55c 59bc 9e53 4dbb 7fc9 033e 3ffc 0abe
00000370: 6b82 0dbe f240 eb3c f6bf f2bd 07f4 c7bd
00000380: de40 133e 94a8 87bd 0a18 ce3c 3dd6 ac3d
00000390: 68ae db3d 64b6 edbd f8f6 283b 70a7 963d
000003a0: db08 1dbe 773c c63d 9665 c4bd 4d09 bbbd
000003b0: 3f7f 093e 557e 01be c4ce 103e 150b d2bc
000003c0: da8c 4fbd a8dd 103e fd5b 253d 45b6 e4bd
000003d0: 473b c6bd bd04 dbbc e586 d43d 49fa 89bd
000003e0: 87e5 943d 9cf6 cc3d 2740 9c3d ec71 56bd
000003f0: 0083 c0bd e32d 3f3b f248 02be 0fcf 8ebd

fc2.bias f4 [128]
0.13833554 -0.021293418 -0.0050855195 -0.0008261813 0.10774152 0.10524785 0.0397536 -0.012340571
0.19277056 -0.015295738 0.07133971 0.11230774 -0.0022459493 0.029677473 0.046158325 0.13009235
-0.0054092794 0.07734237 0.08232423 0.10543107 0.0 0.09293047 0.029289844 0.10635733
0.09407609 0.094599724 -0.0087717045 -0.008795191 0.0045273346 0.07327983 0.093578964 0.0
-0.0003544661 0.06762954 0.04705001 0.026739601 -0.0031645957 0.13255462 0.039882414 0.0
0.061242275 0.07996434 0.1022273 0.14298931 0.11257136 0.10893898 0.0 -0.017330088
-0.039162267 0.0 0.009631623 0.061711203 0.0 0.19749139 -0.047993235 0.0180408
0.09056507 0.061130922 0.11731404 0.052265324 -0.003810907 0.03785589 0.059450082 0.1397177
0.0 0.043409444 0.06912919 0.07589312 -0.004090399 0.081596896 -0.017031908 0.0
0.13481884 -0.0059195557 0.0047243224 0.0028437525 0.15170015 0.10524163 0.10257408 -0.0064914725
0.14077179 0.11797148 0.08434188 0.07680755 -0.059507757 0.10847833 -0.0043595885 -0.029354634
0.013399209 0.07216314 0.0 0.0 0.06867883 0.030604597 -0.017736869 0.10396604
0.10894951 0.0 0.0 0.023788543 -0.0025097614 0.112472445 0.03961358 0.06807591
0.10862209 0.011813848 0.0 0.14210893 0.066521965 0.0 0.0 0.048749473
0.075312875 0.10940295 0.008038908 0.10322441 -0.020085575 0.0 0.0024171511 -0.06637204
0.0 -0.008970374 -0.0050295247 0.0 0.14816545 -0.022499787 0.12992007 0.08681661
00000000: d5a7 0d3e 896f aebc 6ea4 a6bb 1794 58ba
00000010: 96a7 dc3d 2f8c d73d acd4 223d 1b30 4abc
00000020: a565 453e fa9a 7abc 8e1a 923d 9a01 e63d
00000030: c730 13bb 2c1e f33c 8310 3d3d ee36 053e
00000040: 5340 b1bb ad65 9e3d 9b99 a83d 3fec d73d
00000050: 0000 0000 5552 be3d 41f1 ef3c dfd1 d93d
00000060: f7aa c03d 80bd c13d 32b7 0fbc b419 10bc
00000070: 095a 943b bc13 963d 54a6 bf3d 0000 0000
00000080: a2d7 b9b9 5b81 8a3d 83b7 403d 020d db3c
00000090: 1b65 4fbb 66bc 073e be5b 233d 0000 0000
000000a0: 2ed9 7a3d 58c4 a33d 8c5c d13d ca6b 123e
000000b0: d08b e63d 661b df3d 0000 0000 d4f7 8dbc
000000c0: 9d68 20bd 0000 0000 f4cd 1d3c e3c4 7c3d
000000d0: 0000 0000 2f3b 4a3e 8e94 44bd 4dca 933c
000000e0: 2e7a b93d 6b64 7a3d 5842 f03d 2a14 563d
000000f0: 69c0 79bb c70e 1b3d ee81 733d 2812 0f3e
00000100: 0000 0000 1ace 313d 9b93 8d3d da6d 9b3d
00000110: c108 86bb 461c a73d 8086 8bbc 0000 0000
00000120: f30d 0a3e d5f8 c1bb 7dce 9a3b 405e 3a3b
00000130: 4957 1b3e ec88 d73d 5c12 d23d 6bb6 d4bb
00000140: 7b26 103e 089b f13d 70bb ac3d 474d 9d3d
00000150: 68be 73bd e329 de3d e1da 8ebb 2179 f0bc
00000160: 5b88 5b3c 45ca 933d 0000 0000 0000 0000
00000170: 7da7 8c3d 7eb6 fa3c e94c 91bc 26ec d43d
00000180: ec20 df3d 0000 0000 0000 0000 31e0 c23c
00000190: cf7a 24bb f457 e63d d941 223d 626b 8b3d
000001a0: 4275 de3d df8e 413c 0000 0000 0185 113e
000001b0: ab3c 883d 0000 0000 0000 0000 87ad 473d
000001c0: a33d 9a3d a70e e03d a0b5 033c 5267 d33d
000001d0: 818a a4bc 0000 0000 1169 1e3b 10ee 87bd
000001e0: 0000 0000 7af8 12bc b6ce a4bb 0000 0000
000001f0: afb8 173e 7951 b8bc c409 053e e8cc b13d

fc_value.weight f4 [128, 128]
0.05338553 -0.01405881 0.06461657 -0.10467513 0.10502546 0.18501928 0.07415018 -0.1478737
0.28000972 0.07086514 0.57850015 0.28787112 0.04342213 0.05239853 -0.34247792 0.18419787
-0.094447814 0.36137056 0.2656539 0.0027634692 0.11388072 0.23927353 -0.28826287 0.21323445
0.25425592 1.0503452 -0.18319188 -0.104060955 -0.120292276 -0.2142043 0.21468538 -0.09202326
0.07016303 0.010779741 0.23996013 0.22607313 1.048622 0.22873732 0.11716291 -0.10922809
0.035916705 0.118216075 0.11337751 0.20550522 0.23933241 0.13822497 -0.14286284 0.12205396
0.1480686 -0.09422839 -0.108676985 -0.2530927 -0.12469759 0.35843977 0.12087068 0.30479586
0.0859779 0.2224202 0.14237967 0.18095487 -0.037288647 -0.28245342 -0.24841455 0.20122331
-0.031075394 0.09870641 0.21926874 0.21640289 0.040479857 0.2152279 0.11827033 -0.013770301
-0.009072584 0.1172717 -0.14542432 -0.24669324 0.5140049 0.272102 0.062489558 -0.039558247
0.33500296 0.18239507 0.09279699 0.04874858 0.08564573 -0.4791169 -0.0849761 -0.6236794
-0.27790782 0.27396545 -0.14144447 -0.09715987 -0.56786007 -0.123836376 -0.12590323 0.27815086
0.20617202 -0.01751205 0.024596237 0.24091141 0.014730056 0.21191987 0.27430677 0.34804913
0.24383384 0.061453324 0.11608691 0.184752 0.21089908 -0.06478184 -0.01083194 -0.025432669
0.2087511 0.2380026 -0.11280201 0.31323373 -0.06614123 -0.017631881 -0.17646168 -0.30211586
0.012735427 -0.07535181 -0.11516946 0.14916301 0.21832255 -0.2191331 0.19227794 0.08848269
0.068931215 -0.039573893 -0.06596737 -0.504401 0.19907069 0.09703414 0.2308392 -0.11936572
0.07996896 0.112000585 0.68699914 0.16007222 -0.10257942 0.04457443 -0.60174555 0.23744614
-0.10539077 0.34929472 0.08979418 0.18971097 0.11463418 0.07300185 -0.46080366 0.24174389
0.004501191 1.2217963 -0.37985483 0.032837868 -0.5085298 -0.5685109 0.1088365 0.13846473
0.0022893318 -0.5351103 0.14659259 0.3183169 0.97055733 0.24490462 0.23909253 0.10255508
0.2573088 -0.006156502 0.20693816 0.27679488 0.20186017 0.22694029 0.12860751 -0.0041627334
0.040987607 0.044572216 -0.14337908 -0.74755806 -0.072928086 0.4499292 0.1278476 0.18470745
0.19102746 0.2957048 0.023462407 0.15294823 -0.05278877 -0.39432335 -0.5665588 0.10987813
-0.089726776 0.26946175 0.0057941875 0.39147666 0.04618928 0.05633489 -0.01847903 -0.07057065
-0.14360401 -0.009523552 -0.07868995 -0.43459487 0.35765627 0.2605659 0.24596386 0.028365467
0.22637907 0.31240767 0.18634056 0.2539687 0.22348815 -0.7578228 -0.14740638 -0.83566433
-0.45476353 0.085844986 -0.090776235 -0.09796827 -0.94487154 -0.5252665 -0.4909871 0.037113074
0.18520911 -0.12788887 -0.03307172 0.22975579 -0.036656912 0.25810656 0.39957586 0.31382996
0.21675365 0.022334691 -0.10838265 0.06733955 0.118294574 -0.07613518 -0.08061768 -0.3849939
0.022123894 0.17591844 -0.28472692 0.082314566 -0.11334318 -0.07595604 -0.53303033 -0.45702213
-0.041100714 -0.4849045 0.061525736 -0.015493112 0.004565991 0.051611792 0.09263158 0.10832494
00000000: c9aa 5a3d ec56 66bc b155 843d ea5f d6bd
00000010: 9717 d73d b275 3d3e 0ddc 973d 346c 17be
00000020: 6f5d 8f3e be21 913d 9618 143f d863 933e
00000030: 67db 313d d79f 563d 4459 afbe 5e9e 3c3e
00000040: db6d c1bd 9005 b93e ca03 883e 521b 353b
00000050: 4c3a e93d 1f04 753e 3197 93be 225a 5a3e
00000060: d52d 823e b671 863f a796 3bbe e91d d5bd
00000070: cc5b f6bd 5f58 5bbe 7cd6 5b3e b176 bcbd
00000080: a2b1 8f3d 839d 303c 1cb8 753e b77f 673e
00000090: 3f39 863f 1e3a 6a3e 1cf3 ef3d fab2 dfbd
000000a0: 651d 133d 451b f23d 7832 e83d f66f 523e
000000b0: 8e13 753e d98a 0d3e a34a 12be 6df7 f93d
000000c0: 4c9f 173e d0fa c0bd 0a92 debd 5e95 81be
000000d0: 7361 ffbd 6b85 b73e 0c8b f73d 340e 9c3e
000000e0: 2e15 b03d 1fc2 633e facb 113e 3c4c 393e
000000f0: fbbb 18bd bc9d 90be 6260 7ebe 7c0d 4e3e
00000100: d391 febc 9626 ca3d fc87 603e b898 5d3e
00000110: 35ce 253d b464 5c3e b737 f23d d49c 61bc
00000120: 2da5 14bc 252c f03d 1dea 14be 279d 7cbe
00000130: d395 033f f450 8b3e 0df5 7f3d d407 22bd
00000140: 8285 ab3e c6c5 3a3e 590c be3d 97ac 473d
00000150: 0767 af3d cf4e f5be f307 aebd 74a9 1fbf
00000160: ef49 8ebe 3345 8c3e d2d6 10be c1fb c6bd
00000170: 475f 11bf ed9d fdbd c7ec 00be ca69 8e3e
00000180: c21e 533e 6e75 8fbc 0c7e c93c 7bb1 763e
00000190: 5556 713c 8601 593e f071 8c3e 7f33 b23e
000001a0: 94af 793e 7bb6 7b3d f9be ed3d a12f 3d3e
000001b0: eef5 573e 57ac 84bd 7378 31bc 2c58 d0bc
000001c0: d9c2 553e f4b6 733e bd04 e7bd 2c60 a03e
000001d0: 0e75 87bd bc70 90bc 5fb2 34be eeae 9abe
000001e0: 41a8 503c 0d52 9abd f7dd ebbd 30be 183e
000001f0: f28f 5f3e 6d64 60be 82e4 443e 6a36 b53d
00000200: cf2b 8d3d 3c18 22bd e719 87bd 6d20 01bf
00000210: 30d9 4b3e d6b9 c63d 1c61 6c3e 0476 f4bd
00000220: c4c6 a33d 9060 e53d 2ddf 2f3f f9e9 233e
00000230: 2915 d2bd ad93 363d ff0b 1abf 1525 733e
00000240: 1ed7 d7bd c2d6 b23e 03e6 b73d 9843 423e
00000250: 53c5 ea3d fe81 953d 75ee ebbe b68b 773e
00000260: ba7e 933b d263 9c3f 557c c2be 0081 063d
00000270: 022f 02bf ee89 11bf ace5 de3d b3c9 0d3e
00000280: 9d08 163b fdfc 08bf 5e1c 163e 6ffa a23e
00000290: 7276 783f 47c8 7a3e acd4 743e 6608 d23d
000002a0: fbbd 833e 7bbc c9bb 99e7 533e 0fb8 8d3e
000002b0: 6fb4 4e3e 0963 683e b0b1 033e 8a67 88bb
000002c0: 9fe2 273d 5b91 363d f7d1 12be f75f 3fbf
000002d0: 525b 95bd 1f5d e63e 7bea 023e f323 3d3e
000002e0: b49c 433e 9f66 973e 3c34 c03c 769e 1c3e
000002f0: 0a39 58bd c0e4 c9be ff09 11bf c907 e13d
00000300: acc2 b7bd e4f6 893e 2bdd bd3b a16f c83e
00000310: f830 3d3d 6abf 663d 5661 97bc 5887 90bd
00000320: ee0c 13be ac08 1cbc 3228 a1bd 3883 debe
00000330: b91e b73e e568 853e f3dd 7b3e b25e e83c
00000340: eacf 673e e6f3 9f3e 0fd0 3e3e 2f08 823e
00000350: 14da 643e ad00 42bf b3f1 16be 19ee 55bf
00000360: c4d6 e8be 7fcf af3d e4e8 b9bd 97a3 c8bd
00000370: 1ae3 71bf de77 06bf a962 fbbe e103 183d
00000380: 75a7 3d3e 4df5 02be 3676 07bd 1a45 6b3e
00000390: 8f25 16bd 8b26 843e 3595 cc3e 52ae a03e
000003a0: abf4 5d3e 3ef7 b63c b9f7 ddbd 51e9 893d
000003b0: 6d44 f23d c3ec 9bbd e21a a5bd ec1d c5be
000003c0: 2b3d b53c f723 343e bac7 91be 8a94 a83d
000003d0: 7820 e8bd d78e 9bbd ad74 08bf cefe e9be
000003e0: 3959 28bd 6745 f8be 6902 7c3d d2d6 7dbc
000003f0: 4f9e 953b e366 533d a0b5 bd3d 77d9 dd3d

fc_value.bias f4 [128]
0.13010211 0.09215433 0.086516015 0.11944865 0.024888461 0.031611558 0.0 0.061320577
0.11929289 0.1697292 0.046481326 -0.010480709 0.1399077 0.0 -0.028894495 0.17776407
0.044195257 0.0 0.0 -0.020281482 0.036822222 0.02833353 0.13632603 -0.026185995
0.0 -0.010806308 -0.0057338746 0.075313576 0.08968232 -0.0114172 0.0 0.0051482683
0.0 0.1067876 0.087994434 -0.00097463216 0.0 0.16810556 0.0 -0.030545356
-0.0065123513 -0.0036953862 -0.019579422 -0.01556211 0.0 0.007285984 -0.016002372 0.0
-0.010481452 -0.019542689 0.20670862 0.09611227 0.104629144 0.0 0.031639006 -0.0062263957
0.08895746 -0.0100782905 -0.010854108 0.12794147 0.17238511 0.0 -0.00023236737 -0.012890415
0.10477019 -0.0063437447 -0.005713239 0.1114041 0.23325787 0.17648403 -0.001662603 0.16881548
0.0 0.15045823 0.12855656 0.0929732 0.11507208 -0.004574167 0.011645697 0.17563286
-0.010066018 -0.0072712693 0.14354056 0.17326666 -0.0043815044 0.034134857 -0.011611874 0.07603252
-0.006132912 0.0 -0.0018008229 -0.00041695003 0.17353985 0.049508534 0.20491028 0.16296023
0.13036343 0.14305802 -0.0041667866 -0.014781278 0.0 0.12998946 -0.0075289235 0.109966144
0.002859237 0.0 0.15150215 0.12873043 -0.01352442 0.0024141956 0.03878744 0.0
0.10707049 0.1628155 0.05725591 0.1455708 0.14082769 0.13465036 -0.0024085322 -0.070635654
0.0036452424 -8.023564e-05 0.0 -0.04374027 0.2728995 -0.007354974 -0.0035918106 0.14406806
00000000: 7d39 053e 69bb bc3d 4f2f b13d 7ea1 f43d
00000010: e3e2 cb3c 1f7b 013d 0000 0000 492b 7b3d
00000020: d54f f43d 7ecd 2d3e 3463 3e3d 48b7 2bbc
00000030: f743 0f3e 0000 0000 26b4 ecbc c907 363e
00000040: 1606 353d 0000 0000 0000 0000 5a25 a6bc
00000050: e6d2 163d b81b e83c 0d99 0b3e 0384 d6bc
00000060: 0000 0000 f10c 31bc 3ae3 bbbb 013e 9a3d
00000070: 5dab b73d 350f 3bbc 0000 0000 ceb2 a83b
00000080: 0000 0000 75b3 da3d 6d36 b43d 757e 7fba
00000090: 0000 0000 dd23 2c3e 0000 0000 413a fabc
000000a0: 9065 d5bb 4b2e 72bb 0665 a0bc 38f8 7ebc
000000b0: 0000 0000 43bf ee3b 6817 83bc 0000 0000
000000c0: 65ba 2bbc fd17 a0bc 6dab 533e 83d6 c43d
000000d0: ce47 d63d 0000 0000 e797 013d cb06 ccbb
000000e0: 542f b63d 6a1f 25bc 6ed5 31bc 1703 033e
000000f0: b985 303e 0000 0000 a4a7 73b9 5232 53bc
00000100: c191 d63d 30df cfbb 1f36 bbbb d527 e43d
00000110: 27db 6e3e 3bb8 343e b3eb d9ba f7dd 2c3e
00000120: 0000 0000 b911 1a3e 55a4 033e bc68 be3d
00000130: e9aa eb3d e5e2 95bb 98cd 3e3c 1ad9 333e
00000140: f1eb 24bc d443 eebb 4cfc 123e d16c 313e
00000150: b992 8fbb fed0 0b3d bb3f 3ebc f0b6 9b3d
00000160: 98f6 c8bb 0000 0000 9709 ecba 169a dab9
00000170: 6eb4 313e 76c9 4a3d 00d4 513e 0cdf 263e
00000180: fe7d 053e cd7d 123e 8a89 88bb 2c2d 72bc
00000190: 0000 0000 f51b 053e 30b5 f6bb ee35 e13d
000001a0: 0962 3b3b 0000 0000 6123 1b3e e9d1 033e
000001b0: 8795 5dbc 7b37 1e3b 94df 1e3d 0000 0000
000001c0: c647 db3d 1bb9 263e 2c85 6a3d 8310 153e
000001d0: 2235 103e c9e1 093e 77d8 1dbb 6da9 90bd
000001e0: 05e5 6e3b 2e44 a8b8 0000 0000 ff28 33bd
000001f0: 7cb9 8b3e fe01 f1bb 9564 6bbb 9486 133e

value.weight f4 [1, 128]
-0.29669666 -0.38697562 -0.3974978 0.6454138 -0.64429367 0.5150565 -0.15810288 -0.33127108
0.6170952 -0.9914267 -0.61718714 0.10998123 -0.2724526 0.037286635 0.3264631 -0.28807744
-0.6330025 -0.08293287 0.18961996 0.12532336 -0.6426146 -0.5778992 -0.38752735 0.27835166
0.17877355 0.21716052 0.05803024 0.49210528 -0.3714359 0.12612441 -0.20536189 -0.6712482
0.17711015 -0.2994539 -0.34958956 0.4391589 0.07775905 -0.23243223 -0.02436821 0.32559583
0.48300463 0.512718 0.43223974 0.18339524 0.1238927 -0.70810103 0.69109327 0.02421218
0.1091298 0.37204355 -0.23717152 0.6882836 -0.52235985 0.20556468 -0.641495 0.201321
-0.42589384 0.39599508 0.17069739 0.72890234 -1.0961435 0.083539665 -0.14318776 0.1900689
0.8434923 0.15118095 0.56538916 -0.37266403 -0.28578833 -0.78218925 0.12762628 -0.91423094
0.16067742 -0.7466249 0.5761581 -0.35415357 0.6886404 0.08985555 -0.6119884 -0.98555166
0.19377372 0.16655962 -0.29209724 -1.0601375 0.48265678 0.4563975 0.09657089 -0.49706492
0.17432584 0.1041239 0.09815632 0.63031465 -1.0186893 -0.5896623 -0.22302556 -1.0011073
-0.28210405 -0.2557853 -0.67854625 -0.03942076 -0.030759241 -0.30624717 0.07695596 0.6828762
0.43928322 -0.15327677 -0.24011 -0.3020519 -0.09865725 -0.7367393 0.5640143 -0.058456786
-0.43067014 -0.787288 -0.5482736 -0.78771526 -0.24576801 -0.31310195 -0.0220279 0.89909166
-0.6961895 -0.65348727 -0.106587976 0.18402785 -0.46609667 0.20811634 0.2010163 -0.2726283
00000000: a0e8 97be ab21 c6be d584 cbbe d739 253f
00000010: 6ef0 24bf beda 033f b9e5 21be 5d9c a9be
00000020: f3f9 1d3f 24ce 7dbf faff 1dbf d73d e13d
00000030: e87e 8bbe dfb9 183d 2c26 a73e e37e 93be
00000040: 740c 22bf b5d8 a9bd bc2b 423e c454 003e
00000050: 6482 24bf 34f1 13bf fc69 c6be 1c84 8e3e
00000060: 6a10 373e 545f 5e3e 1eb1 6d3d 39f5 fb3e
00000070: d92c bebe c226 013e 634a 52be ecd6 2bbf
00000080: 5d5c 353e 0652 99be 67fd b2be 6fd9 e03e
00000090: 2340 9f3d b702 6ebe d79f c7bc 7fb4 a63e
000000a0: 624c f73e 7d41 033f 874e dd3e f6cb 3b3e
000000b0: 75bb fd3d 1c46 35bf 7deb 303f 9f58 c63c
000000c0: 727f df3d 7e7c be3e 17dd 72be 5b33 303f
000000d0: 60b9 05bf 8c7f 523e 0439 24bf 1827 4e3e
000000e0: c20e dabe debf ca3e 4ccb 2e3e 5899 3a3f
000000f0: 6e4e 8cbf d816 ab3d d09f 12be 6ca1 423e
00000100: 1def 573f 2ecf 1a3e 58bd 103f d2cd bebe
00000110: d952 92be 8e3d 48bf 77b0 023e 0a0b 6abf
00000120: 9f88 243e cf22 3fbf 197f 133f 9e53 b5be
00000130: bd4a 303f 3006 b83d 46ab 1cbf 1d4d 7cbf
00000140: 9e6c 463e 9b8e 2a3e c58d 95be 96b2 87bf
00000150: ca1e f73e efac e93e f5c6 c53d 4b7f febe
00000160: 7982 323e e93e d53d 2e06 c93d 4d5c 213f
00000170: 6964 82bf 1cf4 16bf d060 64be 4924 80bf
00000180: f16f 90be 4af6 82be 35b5 2dbf aa77 21bd
00000190: cefa fbbc 6ecc 9cbe 169b 9d3d fad0 2e3f
000001a0: bbe9 e03e 96f4 1cbe 65df 75be 8ca6 9abe
000001b0: d00c cabd f29a 3cbf 3e63 103f 6270 6fbd
000001c0: cc80 dcbe b58b 49bf a95b 0cbf b5a7 49bf
000001d0: 9caa 7bbe e64e a0be db73 b4bc df2a 663f
000001e0: 7a39 32bf f14a 27bf cc4a dabd cc71 3c3e
000001f0: 39a4 eebe 731c 553e 38d7 4d3e f095 8bbe

fc_adv.weight f4 [128, 128]
0.054567438 -0.12937227 0.13290495 0.24216782 -0.055407956 -0.009901605 -0.05750134 0.030730683
0.16548021 0.10201092 0.29859617 0.14312571 0.12739079 0.18093267 -0.0042232256 0.08562062
0.06983839 0.08885661 -0.044735 0.123634554 -0.042497743 0.09605132 -0.079929575 -0.103568286
0.15821457 -0.23611148 0.2854164 0.085119024 -0.06179786 -0.010264282 0.15797067 -0.112146646
-0.057023186 0.03075596 0.17573088 -0.087287426 -0.19842596 0.14426069 0.11668147 -0.045968387
-0.10604085 0.18888092 0.16366974 -0.0611236 -0.09137679 0.11056367 0.10636563 0.0035414018
-0.14405076 -0.0016770767 -0.040217858 0.103296556 -0.13500793 0.15008934 0.23875825 -0.17907757
-0.07387819 0.022316232 -0.048338942 -0.018411739 0.05782908 0.23728217 -0.011498841 -0.03053937
0.0513617 -0.030789675 0.022333764 0.027432576 -0.13385263 -0.072376736 -0.082762614 0.031295527
0.10165638 0.13084686 0.094311856 0.096413255 0.22931731 0.12617126 -0.026969695 0.14717545
0.121930875 -0.09646022 -0.10975893 0.10190905 -0.11613086 0.033036567 0.09857534 0.03210572
0.03426491 0.06469621 0.08984329 0.11094227 0.24772495 -0.05918704 -0.00012495604 -0.047794577
-0.066825256 -0.13726561 -0.09136653 -0.07764899 0.07380974 0.007326351 0.059961688 0.22715835
0.054780215 0.049794964 -0.11151819 0.027594281 -0.068019405 0.092053354 -0.04503336 0.19759294
-0.10259117 0.009242185 -0.12927672 0.103904225 0.12089106 0.003077445 0.14380117 0.21294788
0.032067508 0.25004804 0.12663619 -0.1151139 0.08121202 -0.10757785 -0.06873311 -0.009035981
0.092070036 0.011952388 -0.04862202 -0.05613656 0.13305512 0.09686684 -0.16723031 -0.14262234
-0.047784675 -0.1466819 0.22395472 0.09302897 0.07539169 0.038665768 -0.14961642 -0.07927678
-0.06630444 0.05206609 0.15874942 -0.057511676 -0.04030831 0.13340293 0.040082917 0.14587867
0.06619912 -0.06725963 -0.025250025 0.00094260136 -0.021013048 -0.061141517 0.03718766 -0.13789816
-0.15277533 -0.024237568 -0.042312652 0.08521996 0.049833886 0.05184207 -0.09107513 0.029000903
0.16686714 0.053560074 -0.063265525 0.0019483899 -0.05924385 -0.0047479314 0.0651126 -0.11663357
0.01442559 0.10420487 0.06867237 -0.089618504 0.0890134 0.0058718906 -0.044686247 -0.1473868
0.186518 0.14338921 0.08813557 0.113469124 -0.12396294 -0.0587236 -0.12622906 0.09331816
-0.12179936 0.031107929 0.11671937 -0.05010261 0.13220577 0.08376503 0.1680908 -0.123249605
-0.1789517 0.113451995 -0.1186421 0.0023330653 -0.007829684 0.023681346 -0.037961572 0.08897183
0.017306356 0.060611967 -0.123497 -0.031138772 -0.078996256 0.061513353 -0.13171479 -0.0430548
-0.20744233 0.0037681386 -0.025622934 -0.0010444727 0.100673124 -0.09599799 0.069481485 -0.13120398
-0.01873951 -0.078514524 -0.067381874 -0.10868845 0.13299513 -0.12326045 0.2096955 -0.29421833
0.15541671 0.027441328 -0.076536484 -0.180331 0.013894856 0.12554863 0.061396237 -0.15164772
-0.05468887 0.030496612 -0.19863214 -0.030701576 -0.09868404 -0.100559115 -0.121365674 0.03751315
0.018186959 -0.062590584 0.102616765 -0.12936942 0.042706825 -0.04915519 0.10107394 0.065536566
00000000: 1b82 5f3d 2a7a 04be 3c18 083e d7fa 773e
00000010: 74f3 62bd 573a 22bc 8686 6bbd eabe fb3c
00000020: a573 293e 1aeb d03d 99e1 983e 8c8f 123e
00000030: bb72 023e 6a46 393e fc62 8abb dd59 af3d
00000040: 6e07 8f3d 74fa b53d 0c3c 37bd 1d34 fd3d
00000050: 1d12 2ebd 8eb6 c43d 1eb2 a3bd 9c1b d4bd
00000060: 0003 223e 35c7 71be 1922 923e e252 ae3d
00000070: c11f 7dbd 852b 28bc 10c3 213e 24ad e5bd
00000080: 2591 69bd ecf3 fb3c ccf2 333e c0c3 b2bd
00000090: 2d30 4bbe 13b9 133e b2f6 ee3d 5949 3cbd
000000a0: f22b d9bd 006a 413e 0a99 273e bd5c 7abd
000000b0: c123 bbbd 356f e23d 39d6 d93d dd16 683b
000000c0: 0b82 13be 5bd1 dbba 7bbb 24bd 258d d33d
000000d0: 853f 0abe 05b1 193e 0b7d 743e 1c60 37be
000000e0: 734d 97bd 88d0 b63c 0eff 45bd 37d4 96bc
000000f0: 2fde 6c3d 19fa 723e a365 3cbc b32d fabc
00000100: a560 523d a13a fcbc 4cf5 b63c 48ba e03c
00000110: aa10 09be 413a 94bd 727f a9bd bd2f 003d
00000120: 3831 d03d b8fc 053e 9326 c13d 5074 c53d
00000130: 28d2 6a3e 0a33 013e 8def dcbc 29b5 163e
00000140: e5b6 f93d f08c c5bd 4ac9 e0bd b1b5 d03d
00000150: 04d6 edbd 5a51 073d dee1 c93d 4a81 033d
00000160: 5d59 0c3d 727f 843d c2ff b73d b335 e33d
00000170: 9cab 7d3e 1c6e 72bd a206 03b9 3fc4 43bd
00000180: aedb 88bd 5b8f 0cbe 601e bbbd 6f06 9fbd
00000190: 9029 973d e311 f03b 639a 753d 339c 683e
000001a0: 3861 603d cef5 4b3d a663 e4bd 670d e23c
000001b0: c24d 8bbd 7886 bc3d e774 38bd ce55 4a3e
000001c0: 521b d2bd 896c 173c 1e61 04be bdcb d43d
000001d0: bb95 f73d f6ae 493b 9d40 133e 020f 5a3e
000001e0: 3859 033d 4c06 803e ebac 013e d6c0 ebbd
000001f0: 7d52 a63d c751 dcbd f2c3 8cbd a70b 14bc
00000200: 378f bc3d f3d3 433c e227 47bd 73ef 65bd
00000210: 9a3f 083e 1f62 c63d 6c3e 2bbe 970b 12be
00000220: ddb9 43bd c833 16be 6354 653e f985 be3d
00000230: f566 9a3d ff5f 1e3d 0c35 19be dd5b a2bd
00000240: 9fca 87bd 4143 553d 358f 223e 5d91 6bbd
00000250: 541a 25bd c79a 083e fc2d 243d 3861 153e
00000260: 6793 873d 6bbf 89bd 24d9 cebc e818 773a
00000270: 8e23 acbc 876f 7abd 1652 183d 2d35 0dbe
00000280: 2371 1cbe dd8d c6bc 0850 2dbd cd87 ae3d
00000290: 9e1e 4c3d 5a58 543d 9985 babd 4d93 ed3c
000002a0: 38df 2a3e cf61 5b3d 5b91 81bd 1e61 ff3a
000002b0: aea9 72bd 8994 9bbb c159 853d 95dd eebd
000002c0: 4f59 6c3c 5d69 d53d 19a4 8c3d e889 b7bd
000002d0: a84c b63d fd68 c03b ed08 37bd 91ec 16be
000002e0: 93fe 3e3e 9fd4 123e 6c80 b43d 8062 e83d
000002f0: 48e0 fdbd 2888 70bd 3142 01be 971d bf3d
00000300: f171 f9bd 0ed6 fe3c 910a ef3d 6538 4dbd
00000310: f360 073e 008d ab3d ff1f 2c3e 4a6a fcbd
00000320: 1d3f 37be 8559 e83d a1fa f2bd 57e6 183b
00000330: 1348 00bc 62ff c13c 987d 1bbd dd36 b63d
00000340: 0fc6 8d3c 4144 783d ffeb fcbd bd16 ffbc
00000350: cac8 a1bd 6df5 7b3d 3ee0 06be 3b5a 30bd
00000360: c36b 54be e0f2 763b 30e7 d1bc b0e6 88ba
00000370: b62d ce3d 989a c4bd 4f4c 8e3d 565a 06be
00000380: 9a83 99bc 39cc a0bd 82ff 89bd 0d98 debd
00000390: e02f 083e fa6f fcbd 6bba 563e c9a3 96be
000003a0: 8f25 1f3e a3cc e03c 29bf 9cbd b1a8 38be
000003b0: 40a7 633c d28f 003e 9f7a 7b3d 8a49 1bbe
000003c0: 7001 60bd 08d4 f93c 3966 4bbe df81 fbbc
000003d0: dc1a cabd f0f1 cdbd 918e f8bd 64a7 193d
000003e0: d1fc 943c 7e2f 80bd bd28 d23d 6b79 04be
000003f0: 5aed 2e3d f456 49bd dbff ce3d 0938 863d

fc_adv.bias f4 [128]
0.05243688 0.015329313 0.0 0.035693098 -0.012399401 -0.035416007 0.044786636 -0.060559064
0.04281851 0.024804696 -0.0025906016 0.024768554 0.054588098 -0.012140788 0.08638684 0.0
0.038320903 0.025208563 -0.019537715 -0.006514102 -0.0044028363 0.07056724 0.0 -0.04922182
0.04000544 0.014314357 0.0 0.042725243 0.0 -0.018031197 -0.024763076 0.020531155
0.05118531 0.0 0.039244946 -0.0054069767 0.032130916 -0.008170605 0.019758914 -0.023217792
-0.0039584986 -0.00014305516 0.03242503 -0.017385188 -0.002309485 -0.033135615 0.073831625 0.0725393
0.0051282663 0.0 0.011830564 -0.018426988 -0.024967426 -0.047221716 -0.01575637 0.0003040292
-0.024709381 0.05812042 0.03676369 0.06870347 0.038534973 0.0 0.03640384 -0.004830741
0.007120896 -0.041510683 -0.009622965 0.072952196 0.052334066 0.01689714 -0.027844504 -0.008114612
-0.0051018605 0.029807862 0.044947766 -0.0065368307 0.0009262531 -0.004342305 -0.030825755 0.037339702
-0.013672159 0.0 -0.015735703 0.01589228 -0.010305321 0.0 0.01829845 -0.03848294
0.0 -0.005160149 0.08548165 0.055535942 -0.016453786 -0.005300242 -0.0043157847 0.010114482
-0.024647232 0.06720092 0.0 -0.007992957 0.0 -0.0071581644 -0.005352714 0.042207003
0.04714686 0.04210623 -0.017460437 0.042439178 0.07285002 -0.0002547792 -0.022507874 -0.029104521
0.0126638375 -0.0019060046 0.020281993 -0.008977336 -0.047688313 -0.016354349 0.034853328 0.0
0.013659447 -0.00048406632 0.0 0.0 -0.02731401 0.0 0.026065873 -0.030231623
00000000: 0ec8 563d cd27 7b3c 0000 0000 ed32 123d
00000010: db26 4bbc 6010 11bd 3172 373d c80c 78bd
00000020: 7662 2f3d 3833 cb3c 15c7 29bb 6ce7 ca3c
00000030: c597 5f3d 28ea 46bc 95eb b03d 0000 0000
00000040: 61f6 1c3d 3082 ce3c 8f0d a0bc 4074 d5bb
00000050: ab45 90bb 8f85 903d 0000 0000 d29c 49bd
00000060: bfdc 233d c486 6a3c 0000 0000 aa00 2f3d
00000070: 0000 0000 29b6 93bc efdb cabc f430 a83c
00000080: b0a7 513d 0000 0000 4fbf 203d 022d b1bb
00000090: b59b 033d 00de 05bc 72dd a13c 3d33 bebc
000000a0: 4bb6 81bb 1401 16b9 1cd0 043d 626b 8ebc
000000b0: bb5a 17bb 36b9 07bd 0935 973d 7c8f 943d
000000c0: 040b a83b 0000 0000 fbd4 413c 32f4 96bc
000000d0: 7d88 ccbc 8f6b 41bd 8113 81bc 1c66 9f39
000000e0: 546b cabc ad0f 6e3d 8695 163d 68b4 8c3d
000000f0: d9d6 1d3d 0000 0000 311c 153d 314b 9ebb
00000100: 6856 e93b 1b07 2abd a4a9 1dbc f667 953d
00000110: 3f5c 563d df6b 8a3c 281a e4bc 26f3 04bc
00000120: 822d a7bb 9e2f f43c 261b 383d e932 d6bb
00000130: cbcf 723a e549 8ebb 4b86 fcbc 84f1 183d
00000140: 3101 60bc 0000 0000 29e8 80bc 8730 823c
00000150: a6d7 28bc 0000 0000 a2e6 953c 4aa0 1dbd
00000160: 0000 0000 7816 a9bb 0111 af3d a879 633d
00000170: 17ca 86bc a7ad adbb 6d6b 8dbb 36b7 253c
00000180: fee8 c9bc a3a0 893d 0000 0000 e4f4 02bc
00000190: 0000 0000 098f eabb d265 afbb 40e1 2c3d
000001a0: 111d 413d 9577 2c3d 3109 8fbc b4d4 2d3d
000001b0: 6432 953d e393 85b9 6f62 b8bc 9b6c eebc
000001c0: fc7b 4f3c e7d2 f9ba 6c26 a63c ad15 13bc
000001d0: d254 43bd 8ef9 85bc 5dc2 0e3d 0000 0000
000001e0: e0cb 5f3c 48ca fdb9 0000 0000 0000 0000
000001f0: a1c1 dfbc 0000 0000 1988 d53c 4fa8 f7bc

advantage.weight f4 [3, 128]
-0.25306743 -0.03972543 0.058326077 -0.35724884 -0.11761311 0.819792 0.27837482 0.5950694
-0.017584087 -0.14360367 0.043169837 -0.10362122 -0.25185126 -0.020295788 -0.6036304 -0.0711213
0.06913038 -0.14720286 0.33276412 0.06210533 0.26186562 -0.9715803 0.13729797 0.70089316
0.01990584 0.21561883 -0.15521449 -0.1809551 0.11009194 0.38606283 0.37425208 -0.18334955
-0.22897099 -0.16719355 -0.20962223 0.21758755 0.49778777 -0.020296587 -0.1480469 0.37387738
-0.024330087 -0.18135408 0.5638295 0.27742425 0.29580045 0.37899756 0.62155247 -0.5893495
-0.21260463 0.13273278 0.08279887 -0.20090018 0.062325206 0.07704856 0.32428452 -0.07290596
0.47686723 0.64635867 -0.34339035 -0.48502612 -0.39590222 0.014995865 -0.3385439 0.037903223
0.012412485 0.35574245 0.18816674 -0.56838363 0.53883165 -0.38516006 0.3574896 0.037776668
0.43811792 -0.3378923 -0.39481452 0.044318363 0.015106235 -0.36680186 -0.045097224 0.035117745
-0.34545738 0.15074514 0.20917004 0.066557884 0.3761311 0.07579756 -0.37381753 0.40875873
0.15174326 -0.17088571 -0.56459033 -0.31889015 0.23476025 0.17488882 -0.21297522 0.031359065
0.213656 0.5222371 -0.010831845 0.12969503 0.04582274 0.108705856 0.02478888 -0.35527214
0.48915076 -0.111372225 -0.25470132 -0.28860456 0.63471043 0.047295112 0.4693748 -0.072024636
0.021986658 -0.30390164 0.7402636 0.055611625 0.04405167 -0.11387581 -0.25373825 -0.1745928
0.24969737 -0.10023479 0.10277888 -0.2024662 -0.38842475 0.13449864 -0.21030115 0.035519242
0.10566668 -0.122361384 0.16038291 -0.06343916 -0.05992958 0.14798872 -0.37419418 0.3643885
-0.06868265 -0.19257054 -0.17496699 -0.073483795 -0.110833384 0.14101191 0.2892721 0.1868101
-0.050097886 -0.044002723 0.041043367 0.17920671 0.02226986 -0.19743423 0.12560904 0.014309751
-0.14866616 -0.08217882 -0.18489169 0.03332564 0.06480358 0.02101863 0.045858163 -0.17389794
-0.17632952 -0.0049365074 0.0068030255 0.12897944 -0.17720917 0.19999239 0.09360943 0.0506275
0.10763487 -0.26976243 0.19089158 0.2552874 0.043818485 0.25819924 0.29341474 0.019672465
-0.100305766 0.06880338 -0.09101931 -0.08059417 0.066528626 0.15023153 -0.09040043 0.0033854195
0.19123763 0.3379534 -0.0958124 -0.1626089 -0.061234172 0.14241363 -0.117877245 0.09429071
-0.124613695 0.14978695 -0.035897497 0.33209878 0.2380254 -0.16770002 0.22042015 -0.16251041
-0.049909376 -0.18500304 -0.18575864 -0.041247457 -0.27063012 -0.15081248 0.19791529 -0.002984524
-0.24150725 -0.1306845 -0.25594264 0.049876474 0.053545337 0.054461394 -0.16957572 0.23707765
-0.12689053 0.028548684 -0.013387213 -0.21179317 -0.04115762 -0.006286883 0.008935722 0.045172486
0.24023636 0.33636937 0.1663396 -0.14924918 0.086650044 0.14135337 0.020983385 0.20934345
-0.21581258 -0.08199215 0.1317036 -0.085347086 0.2129859 0.13539504 0.2860513 0.1007552
-0.08041243 -0.07417354 -0.279512 -0.10899007 0.05339617 -0.011006088 0.099320486 0.015510907
-0.30998877 -0.17396952 -0.042465575 0.078407414 -0.3601317 -0.0125279045 0.035564344 -0.104317054
00000000: 0e92 81be 22b7 22bd 53e7 6e3d 52e9 b6be
00000010: 24df f0bd e3dd 513f 2587 8e3e 7856 183f
00000020: 810c 90bc d70c 13be dbd2 303d 5d37 d4bd
00000030: a6f2 80be 5a43 a6bc 8687 1abf 0ba8 91bd
00000040: 3b94 8d3d 59bc 16be 0f60 aa3e 2962 7e3d
00000050: 4013 863e 7db9 78bf d797 0c3e bc6d 333f
00000060: 9211 a33c 2fcb 5c3e 8cf0 1ebe 4b4c 39be
00000070: e277 e13d 07aa c53e f89d bf3e fcbf 3bbe
00000080: 5f77 6abe c934 2bbe 36a7 56be 45cf 5e3e
00000090: 0ade fe3e 0745 a6bc 9b99 17be db6c bf3e
000000a0: e44f c7bc e2b4 39be 2157 103f 8d0a 8e3e
000000b0: 2873 973e f80b c23e 101e 1f3f 9cdf 16bf
000000c0: 07b5 59be 1aeb 073e 7492 a93d c7b8 4dbe
000000d0: b748 7f3d a3cb 9d3d 9f08 a63e b84f 95bd
000000e0: f127 f43e c377 253f dcd0 afbe 5855 f8be
000000f0: b2b3 cabe 37b1 753c a055 adbe 6940 1b3d
00000100: bc5d 4b3c e023 b63e c8ae 403e 9781 11bf
00000110: dff0 093f b333 c5be e008 b73e b5bb 1a3d
00000120: fe50 e03e 3800 adbe 2125 cabe 2c87 353d
00000130: 2480 773c 74cd bbbe deb7 38bd a0d7 0f3d
00000140: cadf b0be ef5c 1a3e ac30 563e 804f 883d
00000150: 4194 c03e c03b 9b3d 0365 bfbe d348 d13e
00000160: 9662 1b3e aafc 2ebe fe88 10bf 9245 a3be
00000170: fe64 703e 0e16 333e 2d16 5abe 5d72 003d
00000180: a3c8 5a3e 55b1 053f 0d78 31bc c6ce 043e
00000190: a0b0 3b3d 2da1 de3d 0d12 cb3c 3be6 b5be
000001a0: f871 fa3e 1f17 e4bd 3668 82be fac3 93be
000001b0: 627c 223f 85b8 413d e551 f03e a781 93bd
000001c0: 5d1d b43c ff98 9bbe ea81 3d3f 04c9 633d
000001d0: 866f 343d b837 e9bd fbe9 81be 74c8 32be
000001e0: abb0 7f3e e647 cdbd bc7d d23d 4d53 4fbe
000001f0: 9cdf c6be 03ba 093e 2f59 57be a07c 113d
00000200: c667 d83d 9b98 fabd 6b3b 243e 64ec 81bd
00000210: b878 75bd 5b8a 173e 6196 bfbe 2191 ba3e
00000220: 7da9 8cbd 3631 45be 8c2a 33be ac7e 96bd
00000230: 9dfc e2bd 6d65 103e 791b 943e 264b 3f3e
00000240: 7133 4dbd 333c 34bd 171d 283d f781 373e
00000250: 486f b63c 332c 4abe a89f 003e 7273 6a3c
00000260: f13b 18be 5f4d a8bd 3f54 3dbe 7780 083d
00000270: bdb7 843d 432f ac3c c5d5 3b3d 4d12 32be
00000280: ba8f 34be 6dc2 a1bb eaeb de3b 3013 043e
00000290: 5276 35be ceca 4c3e 4db6 bf3d c85e 4f3d
000002a0: ac6f dc3d 4d1e 8abe 1579 433e 08b5 823e
000002b0: 037b 333d b132 843e 753a 963e 2628 a13c
000002c0: 1c6d cdbd c9e8 8c3d 5568 babd 8e0e a5bd
000002d0: 2940 883d 4bd6 193e dc23 b9bd eadd 5d3b
000002e0: ccd3 433e 3a08 ad3e 4b39 c4bd f382 26be
000002f0: afd0 7abd e1d4 113e a069 f1bd 7d1b c13d
00000300: 7735 ffbd c061 193e 4109 13bd da08 aa3e
00000310: eebc 733e 8eb9 2bbe d2b5 613e 2169 26be
00000320: c66d 4cbd 7071 3dbe 8337 3ebe 18f3 28bd
00000330: 0890 8abe 966e 1abe 4eaa 4a3e 0198 43bb
00000340: ad4d 77be 28d2 05be ea0a 83be 464b 4c3d
00000350: 5b52 5b3d e912 5f3d 42a5 2dbe 7cc4 723e
00000360: 97ef 01be eede e93c 0b56 5bbc 4fe0 58be
00000370: e494 28bd 3202 cebb 2267 123c c906 393d
00000380: 8500 763e 9b38 ac3e ee54 2a3e c7d4 18be
00000390: 9475 b13d f0be 103e 59e5 ab3c 215e 563e
000003a0: f9fd 5cbe 80eb a7bd 4fdd 063e 74ca aebd
000003b0: fa18 5a3e ffa4 0a3e 5175 923e be58 ce3d
000003c0: 46af a4bd 4ce8 97bd 321c 8fbe 3036 dfbd
000003d0: f1b5 5a3d e152 34bc 8a68 cb3d 7621 7e3c
000003e0: d9b6 9ebe 1125 32be 62f0 2dbd 1194 a03d
000003f0: 2f63 b8be d741 4dbc ebab 113d 2ea4 d5bd

advantage.bias f4 [3]
-0.041899033 -0.03581804 0.05739979
00000000: 529e 2bbd f0b5 12bd 0b1c 6b3d
