Project/output/mountaincar/ddqn_duel_per/final_model.pth (torch, 824674 bytes, 44 tensors)

fc1.weight f4 [128, 2]
-0.07599944 -0.1587618 -0.18858331 1.1954362 -0.20218031 -0.96714115 -0.059681058 -1.1194627
0.24733742 1.1087075 -0.24316902 -0.610643 -0.088915475 -0.056116432 0.022380346 1.0939466
0.2787085 -0.014523696 0.036479056 -2.562987 0.06353099 1.2190381 0.018043496 1.0762438
0.46919993 0.77149945 -0.048452403 -2.470295 -0.11126019 -0.35951412 0.20303789 1.1379113
0.14949425 0.08657897 0.494827 0.94543606 0.26064816 0.8152362 -0.056679387 1.4958276
0.05002225 0.9534509 -0.012827194 -0.0663396 -0.20785062 1.2088534 -0.17437752 -1.46049
0.39109927 0.24551964 0.32168958 1.0087665 0.18281111 1.1647263 0.16176791 1.3244246
0.15358832 0.09789964 -0.02725137 0.054767366 -0.06840931 -1.0301466 0.3004716 0.4023585
0.333621 0.2146653 0.20144758 1.0769566 0.014536941 0.88892287 -0.009458926 0.20137437
0.011139884 0.010868357 -0.016837884 1.2265189 -0.13586766 0.3179912 -0.015030414 -0.042879276
0.015938364 0.993281 -0.09813384 -0.3113634 -0.13653351 -1.804547 0.23802927 1.2003742
-0.21693476 -1.8614066 -0.0084195165 0.008321538 0.054757237 1.219203 0.012696058 0.021090552
0.31029344 0.0096240025 0.025202923 -0.2030158 0.3233361 0.29398823 0.039328147 0.17156006
0.31321982 0.12741996 -0.08126119 0.3615784 -0.04491689 -1.1818521 -0.08342238 -0.09241692
0.37347764 1.3642288 0.23863974 -0.28387666 -0.26023722 -0.48815084 0.15238115 1.3066504
-0.045180034 -1.318712 -0.09483795 -0.70231825 -0.21749593 -0.10426213 0.012640121 0.0032601373
-0.163107 -2.0192056 0.24172916 -0.311336 0.006077909 -0.041901972 0.08783086 1.1755434
-0.036702447 0.0068169073 0.12279704 1.8820163 0.075775005 0.8911905 -0.20554662 0.3012999
0.073557414 1.8413446 -0.08661891 -1.003531 0.06089185 1.3199017 0.16022368 1.0314544
-0.092061386 0.016789626 -0.15016356 -1.3569931 -0.21007855 -0.040799767 0.03326574 1.082479
-0.16437922 -0.36644363 0.075679615 1.3051912 0.20932022 1.0094771 0.061395925 -1.475221
-0.007975174 -1.4026291 -0.11507743 -0.014503187 0.3222025 1.3509624 0.18210249 1.0510068
0.09548072 0.5015832 0.01726508 1.0679622 -0.034702897 1.0612693 -0.17499122 1.0961401
-0.006693198 -1.0296351 -0.11346809 1.0068613 0.2245576 1.2780652 0.23445053 1.0767313
-0.09433704 -0.5981081 0.12137559 1.1176238 0.1249024 0.38254339 -0.020283984 0.2530919
0.33790305 0.89330226 -0.09187892 0.5930036 -0.019566176 0.09839179 -0.044408828 -1.1816835
-0.116661735 0.064893685 -0.06642696 0.92281425 0.18262103 -0.66125053 -0.23407789 0.14963393
0.037345354 1.0975304 0.24766393 0.21922764 -0.17904612 -0.5662395 -0.110220395 -0.43093953
0.032675568 1.338135 0.0010890425 1.0959351 -0.15244517 -0.5693598 -0.06254213 1.084355
-0.1396375 -0.2248729 -0.10697462 -0.89621884 -0.0550392 1.1054593 -0.0656174 -2.4733977
-0.0048414646 1.0385475 -0.20466474 0.52971774 0.077535205 1.3580239 -0.09061562 -0.4653717
-0.16405046 -0.30159757 -0.04210159 -1.2099792 0.02774795 1.6410162 -0.13759199 0.24022286
00000000: 98a5 9bbd 7492 22be fc1b 41be 0e04 993f
00000010: 5b08 4fbe 9096 77bf 2074 74bd 8e4a 8fbf
00000020: 0546 7d3e 21ea 8d3f 4d01 79be 1a53 1cbf
00000030: 5119 b6bd 58da 65bd fd56 b73c 7106 8c3f
00000040: e1b2 8e3e ccf4 6dbc 106b 153d fb07 24c0
00000050: 891c 823d 7109 9c3f f4cf 933c 5bc2 893f
00000060: f93a f03e fd80 453f 0776 46bd 5019 1ec0
00000070: 62dc e3bd 3c12 b8be 2ae9 4f3e 14a7 913f
00000080: 0515 193e 5150 b13d f759 fd3e 1908 723f
00000090: ad73 853e 52b3 503f a528 68bd 4777 bf3f
000000a0: 21e4 4c3d 5c15 743f 2729 52bc 0edd 87bd
000000b0: cbd6 54be b5bb 9a3f 0590 32be 56f1 babf
000000c0: 2a3e c83e 8069 7b3e 7fb4 a43e 431f 813f
000000d0: d632 3b3e c015 953f 7da6 253e bf86 a93f
000000e0: 4246 1d3e 9b7f c83d 443e dfbc bf53 603d
000000f0: 2e1a 8cbd d8db 83bf 6ad7 993e ef01 ce3e
00000100: 5fd0 aa3e 38d1 5b3e 4648 4e3e b7d9 893f
00000110: 5a2c 6e3c 7390 633f 9cf9 1abc 1535 4e3e
00000120: 0f84 363c 3111 323c 9aef 89bc 92fe 9c3f
00000130: e420 0bbe becf a23e 2042 76bc 2ea2 2fbd
00000140: 2c91 823c aa47 7e3f 65fa c8bd 066b 9fbe
00000150: 71cf 0bbe 65fb e6bf f2bd 733e dda5 993f
00000160: 2524 5ebe 9242 eebf 03f2 09bc 0f57 083c
00000170: 2049 603d d80e 9c3f 2003 503c 18c6 ac3c
00000180: c8de 9e3e fead 1d3c 5c76 ce3c 60e3 4fbe
00000190: 4f8c a53e a085 963e 8d16 213d 71ad 2f3e
000001a0: 595e a03e 617a 023e 446c a6bd ce20 b93e
000001b0: c6fa 37bd ee46 97bf 5ad9 aabd 1545 bdbd
000001c0: 7638 bf3e 0d9f ae3f fa5d 743e 4858 91be
000001d0: d03d 85be e8ee f9be ce09 1c3e 5240 a73f
000001e0: b30e 39bd 8ecb a8bf 663a c2bd 21cb 33bf
000001f0: 41b7 5ebe 6287 d5bd 8318 4f3c 07a8 553b
00000200: 8505 27be aa3a 01c0 d987 773e 6f67 9fbe
00000210: 3229 c73b 67a1 2bbd aae0 b33d 3578 963f
00000220: 4e55 16bd 5d60 df3b 047d fb3d e9e5 f03f
00000230: ed2f 9b3d 1025 643f d07a 52be fb43 9a3e
00000240: 45a5 963d 2eb1 eb3f 4165 b1bd b473 80bf
00000250: bc69 793d 8af2 a83f ad11 243e b306 843f
00000260: ae8a bcbd 668a 893c 7ac4 19be f3b1 adbf
00000270: d51e 57be a81d 27bd a841 083d ac8e 8a3f
00000280: 0753 28be 809e bbbe eafd 9a3d 8110 a73f
00000290: 0a58 563e 8c36 813f 4b7a 7b3d 0bd4 bcbf
000002a0: 4eaa 02bc 5a89 b3bf b7ad ebbd c69e 6dbc
000002b0: baf7 a43e 56ec ac3f 1379 3a3e 6487 863f
000002c0: 658b c33d c267 003f 7f6f 8d3c fcb2 883f
000002d0: a024 0ebd acd7 873f e630 33be 524e 8c3f
000002e0: 9d52 dbbb 15cb 83bf f561 e8bd d5e0 803f
000002f0: 6df2 653e a497 a33f cd13 703e 55d2 893f
00000300: c733 c1bd 9d1d 19bf c493 f83d 4c0e 8f3f
00000310: d4cc ff3d badc c33e 992a a6bc 4395 813e
00000320: a101 ad3e 75af 643f 042b bcbd 15cf 173f
00000330: 3f49 a0bc a381 c93d 08e6 35bd 6841 97bf
00000340: 59ec eebd fbe6 843d dc0a 88bd 8e3d 6c3f
00000350: 0201 3b3e b747 29bf 1db2 6fbe a339 193e
00000360: 71f7 183d e07b 8c3f 9d9b 7d3e 367d 603e
00000370: de57 37be 12f5 10bf 3bbb e1bd 1ba4 dcbe
00000380: d1d6 053d 0248 ab3f 34be 8e3a 9a47 8c3f
00000390: 961a 1cbe 90c1 11bf 1716 80bd 25cc 8a3f
000003a0: 22fd 0ebe 1545 66be 8215 dbbd 996e 65bf
000003b0: c970 61bd b17f 8d3f 6a62 86bd 264c 1ec0
000003c0: 26a5 9ebb 20ef 843f a293 51be 959b 073f
000003d0: c7ca 9e3d bad3 ad3f af94 b9bd 3345 eebe
000003e0: d8fc 27be ff6a 9abe b872 2cbd 99e0 9abf
000003f0: ab4f e33c d20c d23f eae4 0cbe fbfc 753e

fc1.bias f4 [128]
0.13470139 -0.0065391483 -0.10517223 0.124364786 0.04027119 0.06602727 0.13597013 -0.015163473
0.24829222 0.11032117 -0.027639564 -0.014626713 0.07849881 0.07466292 0.10224963 0.094089165
-0.07897415 0.0049290694 0.09828103 -0.022747843 -0.021728324 0.15212184 -0.061901685 -0.035047226
0.06521219 0.053189293 0.04545659 -0.020792587 -0.08157317 0.131275 0.13394567 -0.021638067
0.07151089 0.108723864 -0.0065002944 -0.018439624 -0.0068442235 0.00058989914 0.11853649 0.16486527
-0.028640417 0.14291818 0.051948458 0.03882566 -0.1752348 0.17499432 -0.02296288 -0.0075544585
-0.02387228 0.19898498 0.017770411 -0.02879992 -0.06070785 0.12477699 0.12090426 0.11459917
0.105116226 0.212377 0.046380147 -0.02876266 0.13821442 0.12080263 0.15423302 -0.007249253
0.06820221 0.21611369 0.1815494 -0.031461183 0.14593995 0.037587106 0.054724183 0.055080898
0.007399168 0.12108272 -0.02658713 -0.03796169 0.12802292 -0.1256655 0.068955205 -0.01978198
0.10431966 -0.031982798 0.10977872 0.10695988 0.1438539 0.08464248 0.06737491 0.051289026
0.08965943 -0.010407952 -0.013250576 -0.14900249 0.12299892 -0.05589514 0.11103824 0.03034706
0.1188229 -0.031611886 0.11465318 0.1586757 0.09212672 0.15286139 0.16723756 0.12999715
0.16462578 -0.031169312 0.16693258 0.028398607 -0.0282153 0.06250898 0.13457915 0.076717414
-0.029599821 0.011570305 -0.1203196 -0.029062042 0.12084965 0.13005397 -0.024744423 -0.07162822
-0.040417455 -0.015701545 -0.032066986 0.12627465 0.09535053 0.13096392 0.03572448 -0.11380262
00000000: 29ef 093e 5a46 d6bb 8a64 d7bd f7b2 fe3d
00000010: 67f3 243d 4e39 873d c13b 0b3e 3770 78bc
00000020: 5140 7e3e 11f0 e13d 5e6c e2bc e1a4 6fbc
00000030: fcc3 a03d dfe8 983d 4168 d13d d2b1 c03d
00000040: 33bd a1bd 0884 a13b 9147 c93d af59 babc
00000050: 99ff b1bc d4c5 1b3e 9f8c 7dbd ae8d 0fbd
00000060: f88d 853d 04dd 593d b030 3a3d 3755 aabc
00000070: d60f a7bd f46c 063e 0e29 093e 5142 b1bc
00000080: 4d74 923d 9eaa de3d 6c00 d5bb b20e 97bc
00000090: 8245 e0bb 76a3 1a3a 42c3 f23d 71d2 283e
000000a0: 4f9f eabc 2559 123e e8c7 543d a807 1f3d
000000b0: c070 33be b631 333e a61c bcbc 648b f7bb
000000c0: cd8f c3bc b8c2 4b3e 4193 913c cfed ebbc
000000d0: cba8 78bd 148b ff3d a79c f73d f8b2 ea3d
000000e0: 2d47 d73d 5b79 593e 1cf9 3d3d ac9f ebbc
000000f0: 1588 0d3e 5f67 f73d 43ef 1d3e 248b edbb
00000100: 9aad 8b3d e84c 5d3e 16e8 393e 71dd 00bd
00000110: 4871 153e f0f4 193d 7726 603d 829c 613d
00000120: b874 f23b 38fa f73d 41cd d9bc b87d 1bbd
00000130: 7118 033e 75ae 00be 6338 8d3d d20d a2bc
00000140: 8ca5 d53d 6500 03bd aad3 e03d c80d db3d
00000150: 704e 133e 0959 ad3d dbfb 893d 7114 523d
00000160: 5d9f b73d 1d86 2abc f218 59bc 1c94 18be
00000170: dce6 fb3d 4df2 64bd 0468 e33d 669a f83c
00000180: 6c59 f33d 777b 01bd 49cf ea3d e27b 223e
00000190: efac bc3d b287 1c3e 5340 2b3e f91d 053e
000001a0: a993 283e c956 ffbc 60f0 2a3e 32a4 e83c
000001b0: c623 e7bc b504 803d 1ecf 093e 051e 9d3d
000001c0: 537b f2bc 6091 3d3c 1f6a f6bd 8513 eebc
000001d0: 0580 f73d de2c 053e d1b4 cabc d1b1 92bd
000001e0: c68c 25bd 87a0 80bc ac58 03bd 244e 013e
000001f0: 2447 c33d 681b 063e d553 123d 5911 e9bd

fc2.weight f4 [128, 128]
0.0050245277 0.3488503 -0.29736847 -0.10227583 0.11262128 -0.05965444 -0.057465162 0.08464037
-0.023468738 -0.6076482 -0.13255368 -0.2190565 0.1036029 -0.545962 -0.0062983087 0.13942242
0.0029117302 0.26712024 -0.10830464 -0.25829208 -0.28561667 0.20354545 0.24151528 -0.1441476
-0.045377962 0.12540855 0.049134947 0.03430953 0.004651137 0.13463151 0.06477419 0.11185892
-0.2142841 -0.003443198 -0.11681994 0.1427818 -0.07943876 -0.6520522 0.13287367 0.0857772
-0.12864158 0.031807322 -0.027063755 0.07781234 -0.32938838 0.0797369 -0.2098978 0.002319552
0.26265982 0.27666032 -0.27838326 0.13596265 -0.43150035 -0.035287403 0.1746471 -0.07215512
0.14094584 -0.046695817 0.14239769 0.025647802 0.06616363 0.1032012 0.18024378 -0.048210688
0.14222626 -0.12447951 0.058644995 -0.28074452 0.06671281 0.12532951 0.020775098 -0.0356875
0.20800087 -0.029146776 -0.12926546 -0.054370373 0.0312247 -0.5891648 -0.028063552 -0.25717473
0.020524964 -0.25385106 0.15482743 0.078535266 -0.0031411275 -0.0026566584 -0.032808084 0.213819
0.036486443 -0.086690515 -0.6857659 -0.6539443 0.053874925 -0.6809686 -0.0553928 0.056406897
0.19045746 -0.21403983 -0.042824786 0.18680121 0.1174182 -0.033803124 0.31877246 0.17089176
0.22672905 -0.34277442 -0.23512189 0.022476261 -0.12836188 0.2079473 0.009233642 0.08724222
-0.24480942 -0.56466275 -0.54225993 -0.47596535 0.019337868 -0.020678794 -0.47377786 -0.76419497
-0.44064033 0.06373944 -0.24380103 0.18165845 0.019128283 0.109894015 -0.18366356 -0.38927224
0.13580939 0.09245997 -0.14194164 -0.04278759 0.09173914 0.10456372 0.0386932 -0.03293459
0.12492636 -0.028209668 -0.072374724 0.0037088166 0.051026434 0.07148655 -0.06795787 -0.024153357
-0.003694372 0.0084727025 -0.08973995 -0.07558437 0.12026004 -0.06348594 0.14376026 0.12883765
0.037970528 -0.11138691 0.0665233 0.14557673 0.12518755 -0.088545375 0.123305134 -0.068138145
0.055959523 0.0943281 -0.11505931 0.13390483 0.116233766 0.09062115 -0.11918116 0.12832509
-0.15345529 -0.07978864 -0.070236996 0.09116848 -0.08827551 -0.06941899 -0.09463379 -0.005251217
0.071286745 -0.15937342 0.055722937 -0.053694103 0.13629124 -0.103984095 -0.06707412 -0.02218353
0.035116713 0.10690284 0.055099178 -0.07645855 -0.060908988 -0.058752388 0.14594819 -0.056284998
0.013337736 0.09602562 -0.13377343 0.12844427 -0.015542064 -0.06058069 0.05667448 -0.021225547
-0.030595202 -0.0869625 0.029782353 0.004996855 -0.077804305 -0.091370165 -0.02168428 0.036094524
0.03457871 0.09272079 -0.047203794 0.043018993 -0.12961987 0.006337306 0.006453629 -0.025362894
-0.013266717 -0.0031330357 0.12869833 -0.13572787 -0.13819282 0.028717492 -0.1185302 -0.097633414
0.14380214 -0.066239506 0.025157947 0.084393 0.10726625 -0.11607054 0.002578197 0.07356155
-0.1533541 0.096795015 -0.095896885 -0.09132633 0.13427447 -0.12645848 0.14141375 -0.02564005
-0.050671436 0.14147055 0.04037093 -0.11167578 -0.09679275 -0.026735658 0.103772916 -0.06737191
0.07270341 0.100079745 0.076294236 -0.052354738 -0.09399986 0.0029171638 -0.12723139 -0.06973087
00000000: cba4 a43b 829c b23e ae40 98be fe75 d1bd
00000010: fca5 e63d 3758 74bd 9760 6bbd ee57 ad3d
00000020: 8341 c0bc d58e 1bbf 27bc 07be 5950 60be
00000030: c22d d43d 2ac4 0bbf 0b62 cebb c0c4 0e3e
00000040: bad2 3e3b fcc3 883e d3ce ddbd dc3e 84be
00000050: 593c 92be 386e 503e c84f 773e 6e9b 13be
00000060: 3ede 39bd 196b 003e ba41 493d 2688 0c3d
00000070: 9168 983b d8dc 093e 55a8 843d 4a16 e53d
00000080: 4b6d 5bbe 47a7 61bb 4b3f efbd 6435 123e
00000090: cab0 a2bd e5ec 26bf 0910 083e f5ab af3d
000000a0: 9eba 03be 6548 023d cfb4 ddbc 135c 9f3d
000000b0: 98a5 a8be 1a4d a33d 73ef 56be a003 183b
000000c0: 597b 863e 6ca6 8d3e 4088 8ebe cb39 0b3e
000000d0: 9ded dcbe 8689 10bd b0d6 323e 10c6 93bd
000000e0: 1b54 103e 1d44 3fbd b3d0 113e 571b d23c
000000f0: cc80 873d 275b d33d d391 383e 9278 45bd
00000100: c3a3 113e 1def febd bc35 703d bfbd 8fbe
00000110: baa0 883d 6156 003e 8a30 aa3c 0e2d 12bd
00000120: 2efe 543e 38c5 eebc 2a5e 04be 78b3 5ebd
00000130: f1ca ff3c 81d3 16bf 89e5 e5bc 68ac 83be
00000140: f823 a83c c4f8 81be 158b 1e3e 19d7 a03d
00000150: 60db 4dbb 551b 2ebb c561 06bd 5ef3 5a3e
00000160: cf72 153d cc8a b1bd 5b8e 2fbf e568 27bf
00000170: f4ab 5c3d f553 2ebf 90e3 62bd eb0a 673d
00000180: 4807 433e 422d 5bbe 0b69 2fbd d148 3f3e
00000190: f478 f03d 2575 0abd 2536 a33e 40fe 2e3e
000001a0: a92b 683e 2180 afbe cbc3 70be 2320 b83c
000001b0: 4c71 03be 23f0 543e b448 173c 0dac b23d
000001c0: 52af 7abe bd8d 10bf 8cd1 0abf bbb1 f3be
000001d0: 736a 9e3c 9366 a9bc 0393 f2be 48a2 43bf
000001e0: 9c9b e1be d389 823d faa6 79be ac04 3a3e
000001f0: ebb2 9c3c 1d10 e13d 4d12 3cbe b14e c7be
00000200: 9e11 0b3e a75b bd3d 2659 11be 0a42 2fbd
00000210: bbe1 bb3d 8125 d63d c37c 1e3d 6ce6 06bd
00000220: 64d9 ff3d f617 e7bc 3339 94bd 9e0f 733b
00000230: 1801 513d 8a67 923d 7f2d 8bbd 43dd c5bc
00000240: 471d 72bb 17d1 0a3c 94c9 b7bd facb 9abd
00000250: e54a f63d eb04 82bd e435 133e 04ee 033e
00000260: fc86 1b3d d21e e4bd 5e3d 883d 1112 153e
00000270: 2a31 003e 4757 b5bd 6787 fc3d 038c 8bbd
00000280: d035 653d 172f c13d 37a4 ebbd 591e 093e
00000290: f80b ee3d 9597 b93d 4115 f4bd a767 033e
000002a0: 6223 1dbe 3a68 a3bd 6ad8 8fbd 8ab6 ba3d
000002b0: cac9 b4bd 8b2b 8ebd 5ccf c1bd 6712 acbb
000002c0: c9fe 913d c932 23be bc3d 643d 59ee 5bbd
000002d0: ee8f 0b3e 9df5 d4bd 285e 89bd 3cba b5bc
000002e0: 8bd6 0f3d e0ef da3d adaf 613d 4d96 9cbd
000002f0: b47b 79bd 58a6 70bd 7173 153e 198b 66bd
00000300: 8586 5a3c 15a9 c43d e7fb 08be e586 033e
00000310: 24a4 7ebc 7523 78bd 8023 683d 33e1 adbc
00000320: caa2 fabc 6519 b2bd 1ffa f33c a8bc a33b
00000330: dd57 9fbd 4820 bbbd 3ba3 b1bc dad7 133d
00000340: 68a2 0d3d 66e4 bd3d c458 41bd af34 303d
00000350: 12bb 04be 2da9 cf3b f778 d33b d8c5 cfbc
00000360: a55c 59bc 9e53 4dbb 7fc9 033e 3ffc 0abe
00000370: 6b82 0dbe f240 eb3c f6bf f2bd 07f4 c7bd
00000380: de40 133e 94a8 87bd 0a18 ce3c 3dd6 ac3d
00000390: 68ae db3d 64b6 edbd f8f6 283b 70a7 963d
000003a0: db08 1dbe 773c c63d 9665 c4bd 4d09 bbbd
000003b0: 3f7f 093e 557e 01be c4ce 103e 150b d2bc
000003c0: da8c 4fbd a8dd 103e fd5b 253d 45b6 e4bd
000003d0: 473b c6bd bd04 dbbc e586 d43d 49fa 89bd
000003e0: 87e5 943d 9cf6 cc3d 2740 9c3d ec71 56bd
000003f0: 0083 c0bd e32d 3f3b f248 02be 0fcf 8ebd

fc2.bias f4 [128]
0.13834852 -0.021293418 -0.0034226086 -0.0012179771 0.10764636 0.105280414 0.039627846 -0.012340571
0.19281879 -0.015295738 0.07131551 0.112319894 -0.0022459493 0.029406453 0.046159957 0.13012294
-0.0053454023 0.077798344 0.082140766 0.105282 0.0 0.09278533 0.028957972 0.10624326
0.09404566 0.094632 -0.008233017 -0.008795191 0.0044662207 0.07328958 0.09354042 0.0
-0.0010881015 0.06753827 0.04691331 0.026820527 -0.003001268 0.13271628 0.03955512 0.0
0.061151315 0.07989843 0.1021732 0.14311293 0.11244785 0.108896166 0.0 -0.017330088
-0.039162267 0.0 0.009977453 0.061403643 0.0 0.1974002 -0.047908496 0.018676728
0.09048122 0.061058804 0.11731303 0.051989883 -0.003810907 0.03751833 0.05909934 0.13979767
0.0 0.042570774 0.06958631 0.0755005 -0.004090399 0.081529744 -0.0171408 0.0
0.13490751 -0.0062740576 0.0047363597 0.002045227 0.15174964 0.10515543 0.10260434 -0.0064914725
0.1407774 0.117933966 0.0843823 0.07678712 -0.059507757 0.10809177 -0.0043595885 -0.029715072
0.0131939035 0.07207239 0.0 0.0 0.06880554 0.02986688 -0.018354427 0.10388722
0.10885515 0.0 0.0 0.02413287 -0.0025097614 0.11264475 0.0393126 0.06823774
0.108539514 0.012725945 0.0 0.14222673 0.06603709 0.0 0.0 0.048496306
0.07509274 0.109357394 0.007905042 0.10306101 -0.021955645 0.0 0.0025056563 -0.06642086
0.0 -0.008856844 -0.0050295247 0.0 0.14834121 -0.02122062 0.13013987 0.08672
00000000: 3cab 0d3e 896f aebc d84d 60bb 88a4 9fba
00000010: b275 dc3d 429d d73d cf50 223d 1b30 4abc
00000020: 4a72 453e fa9a 7abc de0d 923d f907 e63d
00000030: c730 13bb cde5 f03c 3912 3d3d f33e 053e
00000040: 7c28 afbb bd54 9f3d 6b39 a83d 179e d73d
00000050: 0000 0000 3c06 be3d 4539 ed3c 1196 d93d
00000060: 039b c03d 6cce c13d c7e3 06bc b419 10bc
00000070: 6059 923b d918 963d 1f92 bf3d 0000 0000
00000080: a19e 8eba 8151 8a3d 2c28 403d b9b6 db3c
00000090: ecb0 44bb c7e6 073e 8d04 223d 0000 0000
000000a0: cd79 7a3d caa1 a33d 2f40 d13d 328c 123e
000000b0: 0f4b e63d f404 df3d 0000 0000 d4f7 8dbc
000000c0: 9d68 20bd 0000 0000 7978 233c 6382 7b3d
000000d0: 0000 0000 4723 4a3e b33b 44bd f0ff 983c
000000e0: 384e b93d cc18 7a3d d041 f03d 58f3 543d
000000f0: 69c0 79bb d2ac 193d 2612 723d 1f27 0f3e
00000100: 0000 0000 b15e 2e3d 4483 8e3d 02a0 9a3d
00000110: c108 86bb 11f9 a63d dd6a 8cbc 0000 0000
00000120: 3225 0a3e 9c96 cdbb 7733 9b3b 3709 063b
00000130: 4264 1b3e bb5b d73d 3922 d23d 6bb6 d4bb
00000140: f327 103e 5d87 f13d a1d0 ac3d 9142 9d3d
00000150: 68be 73bd 385f dd3d e1da 8ebb 066d f3bc
00000160: 3e2b 583c b09a 933d 0000 0000 0000 0000
00000170: ebe9 8c3d 63ab f43c 065c 96bc d3c2 d43d
00000180: 73ef de3d 0000 0000 0000 0000 4cb2 c53c
00000190: cf7a 24bb 4ab2 e63d 4006 213d 3ac0 8b3d
000001a0: f749 de3d 7b80 503c 0000 0000 e2a3 113e
000001b0: 743e 873d 0000 0000 0000 0000 10a4 463d
000001c0: 39ca 993d c5f6 df3d 2684 013c a711 d33d
000001d0: 53dc b3bc 0000 0000 f035 243b a907 88bd
000001e0: 0000 0000 4c1c 11bc b6ce a4bb 0000 0000
000001f0: c2e6 173e ded6 adbc 6343 053e 419a b13d

fc_value.weight f4 [128, 128]
0.053124014 -0.01405881 0.06461571 -0.10692629 0.104948334 0.18499574 0.073957995 -0.1478737
0.27974078 0.07086514 0.5827544 0.2877909 0.04342213 0.052698657 -0.3452604 0.18404457
-0.09470453 0.3603484 0.26567653 0.0027820475 0.11388072 0.23943105 -0.2913503 0.21317722
0.25402635 1.0501201 -0.1841445 -0.104060955 -0.123012014 -0.21574746 0.21454176 -0.09202326
0.07016303 0.009166561 0.24020728 0.22574013 1.0482827 0.22863187 0.11743024 -0.10922809
0.035864927 0.11801425 0.11339982 0.20538728 0.23923577 0.13827445 -0.14286284 0.12205396
0.1480686 -0.09422839 -0.11201037 -0.25625768 -0.12469759 0.3585115 0.121625416 0.3052006
0.08597435 0.22518155 0.14218435 0.1812779 -0.037288647 -0.28502816 -0.25029418 0.20095438
-0.031075394 0.09954888 0.22028211 0.2175882 0.040479857 0.21498442 0.11875027 -0.013770301
-0.009509873 0.117271304 -0.14653142 -0.24917719 0.5157207 0.27191758 0.06211626 -0.039558247
0.33486226 0.18212359 0.092841715 0.048872713 0.08564573 -0.48193875 -0.0849761 -0.6239851
-0.27921385 0.27421343 -0.14144447 -0.09715987 -0.57051075 -0.12666035 -0.1276869 0.27783057
0.20602812 -0.01751205 0.024596237 0.24023642 0.014730056 0.21186109 0.27642208 0.34733656
0.24379276 0.05973695 0.11608691 0.18452604 0.21258628 -0.06478184 -0.01083194 -0.026480965
0.20908768 0.23803443 -0.11390536 0.31335995 -0.069259964 -0.017631881 -0.1786988 -0.30271006
0.012735427 -0.07623349 -0.11516946 0.14916301 0.21815248 -0.22260797 0.19221331 0.08812768
0.06913887 -0.039573893 -0.06596738 -0.50483537 0.19941281 0.09735903 0.23089752 -0.11936572
0.08020617 0.112000585 0.691545 0.16040504 -0.10257942 0.044963337 -0.60309064 0.23753574
-0.104964785 0.34911755 0.090038136 0.1900707 0.11463418 0.07329203 -0.46344963 0.24197994
0.004768404 1.2216594 -0.378506 0.032837868 -0.509638 -0.57012415 0.10904267 0.13846473
0.0022893318 -0.5361081 0.14693284 0.3186669 0.97071725 0.24523512 0.24010961 0.10255508
0.2575604 -0.0059394035 0.2073281 0.27709123 0.20215893 0.2271095 0.12860751 -0.0041627334
0.040987607 0.044572216 -0.14432096 -0.7509144 -0.072928086 0.45073345 0.12915942 0.18570647
0.19109936 0.2986293 0.023852043 0.15337437 -0.05278877 -0.39522275 -0.56774104 0.110114604
-0.089726776 0.27032998 0.0070239645 0.3928664 0.04618928 0.05655397 -0.017564952 -0.07057065
-0.1435307 -0.009523895 -0.07874615 -0.43534416 0.35924417 0.2608894 0.24605486 0.028365467
0.22662935 0.312596 0.186682 0.25428182 0.22348815 -0.7592841 -0.14740638 -0.83509463
-0.45373234 0.08610806 -0.090776235 -0.09796827 -0.9460086 -0.527034 -0.4908892 0.03731834
0.18536201 -0.12788887 -0.03307172 0.22868943 -0.036656912 0.25846675 0.4018051 0.313955
0.21709609 0.0223876 -0.10838265 0.0676566 0.12013771 -0.07613518 -0.08061768 -0.38604024
0.02256377 0.17625391 -0.28497767 0.08244861 -0.11400804 -0.07595604 -0.5333879 -0.4556392
-0.041100714 -0.48341715 0.061525736 -0.015493112 0.0049916413 0.05092716 0.09309092 0.10848585
00000000: 9198 593d ec56 66bc 3e55 843d 2cfc dabd
00000010: 27ef d63d 866f 3d3e 4a77 973d 346c 17be
00000020: 2f3a 8f3e be21 913d 642f 153f 5459 933e
00000030: 67db 313d 8cda 573d f9c5 b0be 2e76 3c3e
00000040: 73f4 c1bd 967f b83e c106 883e 0353 363b
00000050: 4c3a e93d 6a2d 753e de2b 95be 214b 5a3e
00000060: be0f 823e 566a 863f 6090 3cbe e91d d5bd
00000070: b9ed fbbd e7ec 5cbe d6b0 5b3e b176 bcbd
00000080: a2b1 8f3d 582f 163c e6f8 753e 6c28 673e
00000090: 212e 863f 791e 6a3e 447f f03d fab2 dfbd
000000a0: 1ae7 123d 75b1 f13d 2a3e e83d 0b51 523e
000000b0: 39fa 743e d197 0d3e a34a 12be 6df7 f93d
000000c0: 4c9f 173e d0fa c0bd b165 e5bd 3534 83be
000000d0: 7361 ffbd d28e b73e bf16 f93d 4143 9c3e
000000e0: 5213 b03d fe95 663e c698 113e eaa0 393e
000000f0: fbbb 18bd 36ef 91be 8f26 80be fcc6 4d3e
00000100: d391 febc 48e0 cb3d a291 613e 71cf 5e3e
00000110: 35ce 253d e024 5c3e 5733 f33d d49c 61bc
00000120: 4ccf 1bbc f02b f03d 550c 16be 4e28 7fbe
00000130: 4606 043f c838 8b3e 9f6d 7e3d d407 22bd
00000140: 1173 ab3e 9b7e 3a3e cc23 be3d c12e 483d
00000150: 0767 af3d adc0 f6be f307 aebd 7dbd 1fbf
00000160: 1ef5 8ebe b465 8c3e d2d6 10be c1fb c6bd
00000170: fe0c 12bf 40b3 01be 5bc0 02be cf3f 8e3e
00000180: 09f9 523e 6e75 8fbc 0c7e c93c 8900 763e
00000190: 5556 713c 1df2 583e 3287 8d3e 19d6 b13e
000001a0: cfa4 793e bbae 743d f9be ed3d 65f4 3c3e
000001b0: 38b0 593e 57ac 84bd 7378 31bc 9cee d8bc
000001c0: 151b 563e 4cbf 733e 3747 e9bd b770 a03e
000001d0: 2bd8 8dbd bc70 90bc d1fc 36be d0fc 9abe
000001e0: 41a8 503c 4e20 9cbd f7dd ebbd 30be 183e
000001f0: 5d63 5f3e 58f3 63be 91d3 443e 497c b43d
00000200: ae98 8d3d 3c18 22bd e819 87bd e43c 01bf
00000210: df32 4c3e 2c64 c73d 6670 6c3e 0476 f4bd
00000220: 2243 a43d 9060 e53d 1809 313f 3841 243e
00000230: 2915 d2bd 7a2b 383d 2664 1abf 923c 733e
00000240: c7f7 d6bd 89bf b23e ea65 b83d e5a1 423e
00000250: 53c5 ea3d 221a 963d 4549 edbe 97c9 773e
00000260: 4640 9c3b 565f 9c3f 8acb c1be 0081 063d
00000270: a377 02bf a8f3 11bf c351 df3d b3c9 0d3e
00000280: 9d08 163b 613e 09bf 9075 163e 4f28 a33e
00000290: ed80 783f ea1e 7b3e 4bdf 753e 6608 d23d
000002a0: f5de 833e 549f c2bb d14d 543e e7de 8d3e
000002b0: c002 4f3e 658f 683e b0b1 033e 8a67 88bb
000002c0: 9fe2 273d 5b91 363d e0c8 13be ed3b 40bf
000002d0: 525b 95bd 89c6 e63e 5e42 043e d629 3e3e
000002e0: 8daf 433e f1e5 983e 5c65 c33c 2c0e 1d3e
000002f0: 0a39 58bd a35a cabe 7a57 11bf c483 e13d
00000300: acc2 b7bd b168 8a3e 4929 e63b c925 c93e
00000310: f830 3d3d 23a5 673d 60e4 8fbc 5887 90bd
00000320: b6f9 12be 1c0a 1cbc a945 a1bd 6ee5 debe
00000330: daee b73e 4c93 853e cef5 7b3e b25e e83c
00000340: 8611 683e 950c a03e 9129 3f3e 3a31 823e
00000350: 14da 643e 7160 42bf b3f1 16be c3c8 55bf
00000360: 9b4f e8be 6c59 b03d e4e8 b9bd 97a3 c8bd
00000370: 9f2d 72bf b3eb 06bf d455 fbbe 1edb 183d
00000380: 8acf 3d3e 4df5 02be 3676 07bd 902d 6a3e
00000390: 8f25 16bd c155 843e 66b9 cd3e b6be a03e
000003a0: 704e 5e3e 3366 b73c b9f7 ddbd 8b8f 8a3d
000003b0: c20a f63d c3ec 9bbd e21a a5bd 11a7 c5be
000003c0: a8d7 b83c e87b 343e 98e8 91be d1da a83d
000003d0: 0c7d e9bd d78e 9bbd 1c8c 08bf 8b49 e9be
000003e0: 3959 28bd 7482 f7be 6902 7c3d d2d6 7dbc
000003f0: ec90 a33b ff98 503d 74a6 be3d d42d de3d

fc_value.bias f4 [128]
0.12985936 0.09241164 0.087143935 0.119338356 0.025541347 0.031342562 0.0 0.061572295
0.11907922 0.17042789 0.04607464 -0.010480709 0.14007321 0.0 -0.028336493 0.17795022
0.043857634 0.0 0.0 -0.020281482 0.03628792 0.028584324 0.13666347 -0.026099239
0.0 -0.01004114 -0.0057338746 0.07513321 0.08966814 -0.0114172 0.0 0.005714943
0.0 0.10687849 0.08766198 -0.0008138707 0.0 0.16831675 0.0 -0.028799644
-0.0063160155 -0.003693688 -0.019598888 -0.0137599185 0.0 0.0075771217 -0.01596874 0.0
-0.010481452 -0.019655608 0.20689358 0.09599536 0.10482918 0.0 0.03158201 -0.0062263957
0.08860704 -0.010194372 -0.010854108 0.12755111 0.1727807 0.0 -0.00023236737 -0.012890415
0.10465825 -0.0063437447 -0.005688805 0.111568056 0.23337783 0.17671895 -0.001662603 0.1691435
0.0 0.15062496 0.12845676 0.09255583 0.11493611 -0.004574167 0.012092337 0.17603567
-0.010066018 -0.005542295 0.14372353 0.17361453 -0.0044722566 0.034153935 -0.011611874 0.07661028
-0.006132912 0.0 -0.0018008229 -0.00052339886 0.17400146 0.049403217 0.20501024 0.16343072
0.13039252 0.14321171 -0.0042677335 -0.014974538 0.0 0.12991352 -0.0075289235 0.109743364
0.0026419107 0.0 0.15165551 0.12867449 -0.01352442 0.00250155 0.038526196 0.0
0.10745614 0.1632998 0.057881802 0.14518641 0.14081456 0.1347892 -0.0024085322 -0.0707961
0.003529731 -0.0001676945 0.0 -0.042822734 0.27234456 -0.0061122044 -0.0035918106 0.144137
00000000: daf9 043e 5042 bd3d 8578 b23d ab67 f43d
00000010: 163c d13c 0f61 003d 0000 0000 3b33 7c3d
00000020: cedf f33d a684 2e3e c3b8 3c3d 48b7 2bbc
00000030: 5a6f 0f3e 0000 0000 ef21 e8bc 9538 363e
00000040: 10a4 333d 0000 0000 0000 0000 5a25 a6bc
00000050: a4a2 143d ac29 ea3c 82f1 0b3e 12ce d5bc
00000060: 0000 0000 9883 24bc 3ae3 bbbb 71df 993d
00000070: eea3 b73d 350f 3bbc 0000 0000 6b44 bb3b
00000080: 0000 0000 1ce3 da3d 2088 b33d f059 55ba
00000090: 0000 0000 3a5b 2c3e 0000 0000 3bed ebbc
000000a0: 94f6 cebb cd11 72bb d98d a0bc 4871 61bc
000000b0: 0000 0000 8149 f83b e0d0 82bc 0000 0000
000000c0: 65ba 2bbc cc04 a1bc e9db 533e 3799 c43d
000000d0: aeb0 d63d 0000 0000 235c 013d cb06 ccbb
000000e0: 9c77 b53d 4c06 27bc 6ed5 31bc c29c 023e
000000f0: 6ced 303e 0000 0000 a4a7 73b9 5232 53bc
00000100: 1157 d63d 30df cfbb 2869 babb cb7d e43d
00000110: 99fa 6e3e d0f5 343e b3eb d9ba f433 2d3e
00000120: 0000 0000 6e3d 1a3e 2b8a 033e e98d bd3d
00000130: a063 eb3d e5e2 95bb f01e 463c b242 343e
00000140: f1eb 24bc 249c b5bb 432c 133e 02c8 313e
00000150: 028c 92bb ffe4 0b3d bb3f 3ebc dae5 9c3d
00000160: 98f6 c8bb 0000 0000 9709 ecba b434 09ba
00000170: 702d 323e 075b 4a3d 34ee 513e 625a 273e
00000180: 9e85 053e 17a6 123e 58d8 8bbb c457 75bc
00000190: 0000 0000 0d08 053e 30b5 f6bb 21c1 e03d
000001a0: e823 2d3b 0000 0000 954b 1b3e 3fc3 033e
000001b0: 8795 5dbc 0bf1 233b a5cd 1d3d 0000 0000
000001c0: f711 dc3d 1038 273e 7815 6d3d bfab 143e
000001d0: b131 103e 2e06 0a3e 77d8 1dbb 8cfd 90bd
000001e0: 0f53 673b 26d7 2fb9 0000 0000 e466 2fbd
000001f0: bf70 8b3e e348 c8bb 9564 6bbb a698 133e

value.weight f4 [1, 128]
-0.2970496 -0.38770562 -0.39860892 0.6462691 -0.64636123 0.5159554 -0.15810288 -0.33240333
0.6181318 -0.992177 -0.6182959 0.10998123 -0.2727697 0.037286635 0.32884473 -0.2883854
-0.63483834 -0.08293287 0.18961996 0.12532336 -0.64411634 -0.5798622 -0.38804692 0.2787135
0.17877355 0.21589985 0.05803024 0.49293122 -0.37231475 0.12612441 -0.20536189 -0.6734607
0.17711015 -0.30000278 -0.3503904 0.43960074 0.07775905 -0.23272364 -0.02436821 0.3268898
0.48356605 0.51325303 0.43252787 0.18509537 0.1238927 -0.71061605 0.69142187 0.02421218
0.1091298 0.3724066 -0.23748007 0.68906695 -0.5231078 0.20556468 -0.6431541 0.201321
-0.4267425 0.3965152 0.17069739 0.72968084 -1.0969495 0.083539665 -0.14318776 0.1900689
0.84425884 0.15118095 0.56569076 -0.37317964 -0.2862383 -0.78304744 0.12762628 -0.91502446
0.16067742 -0.74768937 0.5770393 -0.35489428 0.6894837 0.08985555 -0.6143416 -0.986312
0.19377372 0.1679289 -0.29239443 -1.0609514 0.48289725 0.45675644 0.09657089 -0.49805397
0.17432584 0.1041239 0.09815632 0.63067365 -1.019505 -0.59059983 -0.22329633 -1.0019249
-0.2824342 -0.25605556 -0.6811581 -0.039415926 -0.030759241 -0.30657333 0.07695596 0.68372434
0.44002855 -0.15327677 -0.24040496 -0.30245697 -0.09865725 -0.739181 0.5648627 -0.058456786
-0.43123585 -0.7881546 -0.5490981 -0.78866494 -0.24612461 -0.31340814 -0.0220279 0.8993709
-0.6987309 -0.6561259 -0.106587976 0.18399271 -0.46670687 0.214177 0.2010163 -0.2729074
00000000: e316 98be 5a81 c6be 7816 ccbe e471 253f
00000010: ee77 25bf a715 043f b9e5 21be c530 aabe
00000020: e33d 1e3f 50ff 7dbf a448 1ebf d73d e13d
00000030: 78a8 8bbe dfb9 183d 565e a83e 40a7 93be
00000040: c484 22bf b5d8 a9bd bc2b 423e c454 003e
00000050: cfe4 24bf d971 14bf 16ae c6be 89b3 8e3e
00000060: 6a10 373e da14 5d3e 1eb1 6d3d 7b61 fc3e
00000070: 0aa0 bebe c226 013e 634a 52be ec67 2cbf
00000080: 5d5c 353e f799 99be 5f66 b3be 5913 e13e
00000090: 2340 9f3d 1b4f 6ebe d79f c7bc 1a5e a73e
000000a0: f895 f73e 8d64 033f 4b74 dd3e a489 3d3e
000000b0: 75bb fd3d efea 35bf 0601 313f 9f58 c63c
000000c0: 727f df3d 14ac be3e fa2d 73be b166 303f
000000d0: 65ea 05bf 8c7f 523e bfa5 24bf 1827 4e3e
000000e0: fe7d dabe 0a04 cb3e 4ccb 2e3e 5dcc 3a3f
000000f0: d768 8cbf d816 ab3d d09f 12be 6ca1 423e
00000100: 5921 583f 2ecf 1a3e 1cd1 103f 6711 bfbe
00000110: d48d 92be cc75 48bf 77b0 023e 0b3f 6abf
00000120: 9f88 243e 9268 3fbf d9b8 133f b4b4 b5be
00000130: 0182 303f 3006 b83d 7e45 1dbf f17e 7cbf
00000140: 9e6c 463e 8ef5 2b3e b9b4 95be 41cd 87bf
00000150: 4f3e f73e fbdb e93e f5c6 c53d ee00 ffbe
00000160: 7982 323e e93e d53d 2e06 c93d d473 213f
00000170: 247f 82bf 8d31 17bf cba7 64be 133f 80bf
00000180: 379b 90be b719 83be 6160 2ebf 9872 21bd
00000190: cefa fbbc 2ef7 9cbe 169b 9d3d 8f08 2f3f
000001a0: 6c4b e13e 96f4 1cbe b82c 76be a4db 9abe
000001b0: d00c cabd f73a 3dbf d89a 103f 6270 6fbd
000001c0: f2ca dcbe 80c4 49bf b191 0cbf f2e5 49bf
000001d0: 1708 7cbe 0877 a0be db73 b4bc 2c3d 663f
000001e0: 07e0 32bf def7 27bf cc4a dabd 9668 3c3e
000001f0: 34f4 eebe 3751 5b3e 38d7 4d3e 85ba 8bbe

fc_adv.weight f4 [128, 128]
0.05465633 -0.12937227 0.13290517 0.24122708 -0.055350147 -0.009885823 -0.05814611 0.030730683
0.16546209 0.10201092 0.30121112 0.1431916 0.12739079 0.1813426 -0.004524903 0.08543583
0.069842495 0.08822346 -0.044645373 0.12374767 -0.042497743 0.09603384 -0.08011951 -0.10361113
0.15831143 -0.23583119 0.2854301 0.085119024 -0.062565774 -0.011137843 0.15794784 -0.112146646
-0.057022985 0.03050517 0.17547014 -0.08769152 -0.19858749 0.14430487 0.116531506 -0.045968387
-0.1059007 0.18896753 0.16385065 -0.061128616 -0.09137457 0.11082877 0.10636563 0.0035414018
-0.14405076 -0.0016770767 -0.03970398 0.10305909 -0.13500793 0.15111472 0.23848246 -0.17930941
-0.07346102 0.024040854 -0.048108824 -0.018384015 0.05782908 0.23635378 -0.012164466 -0.030537803
0.0513617 -0.030312201 0.023457408 0.027790213 -0.13385263 -0.07227862 -0.08239076 0.031295527
0.10116221 0.13084696 0.09382498 0.095467776 0.23025313 0.12629315 -0.02702273 0.14717545
0.121948205 -0.09641735 -0.10968664 0.1020385 -0.11613086 0.032767102 0.09857534 0.03114287
0.03416419 0.06485274 0.08984329 0.11094227 0.2471891 -0.05936864 -0.000710797 -0.047686126
-0.06676658 -0.13726561 -0.09136653 -0.07725328 0.07380974 0.0073591974 0.061418325 0.22630847
0.05489661 0.048969157 -0.11151819 0.027474387 -0.06814779 0.092053354 -0.04503336 0.19597168
-0.10203711 0.009260677 -0.13172084 0.10379657 0.12092319 0.003077445 0.14299046 0.21316504
0.032067508 0.25029752 0.12663619 -0.1151139 0.081342235 -0.106765 -0.06858666 -0.008911526
0.092524774 0.011952388 -0.048622016 -0.056263987 0.13327278 0.096975274 -0.16663677 -0.14262234
-0.047569383 -0.1466819 0.22560766 0.0930564 0.07539169 0.039399955 -0.1497768 -0.078476384
-0.0671042 0.052898802 0.15932599 -0.057549518 -0.04030831 0.1338777 0.04002065 0.14624886
0.066565014 -0.067328595 -0.025473492 0.00094260136 -0.021129869 -0.060145855 0.037627023 -0.13789816
-0.15277533 -0.023811128 -0.0412566 0.0867944 0.05000507 0.051806964 -0.08978402 0.029000903
0.16741368 0.05400225 -0.063129835 0.0021034987 -0.05896766 -0.0037419156 0.0651126 -0.11663357
0.01442559 0.10420487 0.068526275 -0.08970794 0.0890134 0.007499949 -0.04587109 -0.14812937
0.18776828 0.14468953 0.088111155 0.11452502 -0.12396294 -0.058935914 -0.12599385 0.093562216
-0.12179936 0.032402687 0.11527312 -0.048894044 0.13220577 0.08428795 0.16657314 -0.123249605
-0.17861418 0.1134521 -0.11874213 0.0022155265 -0.0061717276 0.023942513 -0.037217315 0.08897183
0.017579887 0.061104428 -0.12326951 -0.030739196 -0.078996256 0.061378766 -0.13171479 -0.04526023
-0.20741765 0.004874587 -0.025622934 -0.0010444727 0.100514024 -0.095993966 0.06958399 -0.13060646
-0.017998928 -0.078514524 -0.067381874 -0.10741414 0.13299513 -0.123280294 0.21093501 -0.29425663
0.15566969 0.027232828 -0.076536484 -0.18062367 0.015465551 0.12554863 0.061396237 -0.15084822
-0.05425593 0.030738156 -0.2010485 -0.029641012 -0.098612435 -0.100559115 -0.121402055 0.036385316
0.018186959 -0.063162 0.102616765 -0.12936942 0.042417437 -0.049375474 0.10072994 0.06602684
00000000: 51df 5f3d 2a7a 04be 4b18 083e 3b04 773e
00000010: d6b6 62bd 26f8 21bc 9e2a 6ebd eabe fb3c
00000020: e56e 293e 1aeb d03d 5838 9a3e d2a0 123e
00000030: bb72 023e e0b1 393e a345 94bb fbf8 ae3d
00000040: 9509 8f3d 80ae b43d 11de 36bd 6b6f fd3d
00000050: 1d12 2ebd 64ad c43d b315 a4bd 1232 d4bd
00000060: 641c 223e bb7d 71be e523 923e e252 ae3d
00000070: 7c22 80bd 807b 36bc 14bd 213e 24ad e5bd
00000080: ef90 69bd fae5 f93c 72ae 333e 9d97 b3bd
00000090: 855a 4bbe a8c4 133e 12a8 ee3d 5949 3cbd
000000a0: 77e2 d8bd b480 413e 77c8 273e 0062 7abd
000000b0: 9722 bbbd 32fa e23d 39d6 d93d dd16 683b
000000c0: 0b82 13be 5bd1 dbba a4a0 22bd a510 d33d
000000d0: 853f 0abe d1bd 1a3e bf34 743e e39c 37be
000000e0: bb72 96bd 53f1 c43c c20d 45bd 139a 96bc
000000f0: 2fde 6c3d ba06 723e 784d 47bc 6a2a fabc
00000100: a560 523d 4b51 f8bc c029 c03c 4da8 e33c
00000110: aa10 09be d006 94bd 7dbc a8bd bd2f 003d
00000120: 222e cf3d bffc 053e 5027 c03d 9c84 c33d
00000130: 7ac7 6b3e fe52 013e c65e ddbc 29b5 163e
00000140: fbbf f93d 7676 c5bd 64a3 e0bd 90f9 d03d
00000150: 04d6 edbd cc36 063d dee1 c93d 551f ff3c
00000160: c0ef 0b3d 83d1 843d c2ff b73d b335 e33d
00000170: 241f 7d3e 882c 73bd c754 3aba 8752 43bd
00000180: ebbc 88bd 5b8f 0cbe 601e bbbd f836 9ebd
00000190: 9029 973d 6c25 f13b c891 7b3d 68bd 673e
000001a0: 45db 603d e293 483d a663 e4bd f711 e13c
000001b0: 1291 8bbd 7886 bc3d e774 38bd cdac 483e
000001c0: d5f8 d0bd 18ba 173c d4e1 06be 4c93 d43d
000001d0: 94a6 f73d f6ae 493b 176c 123e f047 5a3e
000001e0: 3859 033d ff26 803e ebac 013e d6c0 ebbd
000001f0: c296 a63d 9ca7 dabd 2a77 8cbd a601 12bc
00000200: a17d bd3d f3d3 433c e127 47bd 1175 66bd
00000210: a978 083e f99a c63d d4a2 2abe 970b 12be
00000220: 1dd8 42bd c833 16be b205 673e 5b94 be3d
00000230: f566 9a3d d961 213d 175f 19be 3ab8 a0bd
00000240: ed6d 89bd 6aac 583d 5a26 233e 0bb9 6bbd
00000250: 541a 25bd 3c17 093e b1ec 233d 43c2 153e
00000260: 3d53 883d 93e3 89bd c9ad d0bc e818 773a
00000270: 8c18 adbc 805b 76bd cb1e 1a3d 2d35 0dbe
00000280: 2371 1cbe 8e0f c3bc aefc 28bd 43c1 b13d
00000290: 1ed2 4c3d 8a33 543d afe0 b7bd 4d93 ed3c
000002a0: 7e6e 2b3e 7731 5d3d 374a 81bd dada 093b
000002b0: 1388 71bd ed3a 75bb c159 853d 95dd eebd
000002c0: 4f59 6c3c 5d69 d53d 8157 8c3d ccb8 b7bd
000002d0: a84c b63d 22c2 f53b 53e3 3bbd 3aaf 17be
000002e0: 5446 403e 7e29 143e 9f73 b43d 188c ea3d
000002f0: 48e0 fdbd c966 71bd 8804 01be 8c9d bf3d
00000300: f171 f9bd aeb8 043d 5014 ec3d 1f45 48bd
00000310: f360 073e 299f ac3d 2692 2a3e 4a6a fcbd
00000320: a3e6 36be 9359 e83d 132f f3bd 5e32 113b
00000330: 343c cabb 1723 c43c 2f71 18bd dd36 b63d
00000340: b203 903c a348 7a3d ba74 fcbd c4d0 fbbc
00000350: cac8 a1bd 4d68 7b3d 3ee0 06be ca62 39bd
00000360: 4b65 54be 00bb 9f3b 30e7 d1bc b0e6 88ba
00000370: 4cda cd3d 7c98 c4bd 0d82 8e3d b3bd 05be
00000380: 7d72 93bc 39cc a0bd 82ff 89bd f2fb dbbd
00000390: e02f 083e 617a fcbd 59ff 573e cea8 96be
000003a0: e067 1f3e 6117 df3c 29bf 9cbd 69f5 38be
000003b0: 3963 7d3c d28f 003e 9f7a 7b3d f577 1abe
000003c0: 773b 5ebd 96ce fb3c a8df 4dbe b5d1 f2bc
000003d0: 51f5 c9bd f0f1 cdbd a4a1 f8bd c508 153d
000003e0: d1fc 943c 145b 81bd bd28 d23d 6b79 04be
000003f0: e8bd 2d3d f03d 4abd 804b ce3d 1439 873d

fc_adv.bias f4 [128]
0.052492753 0.015364731 0.0 0.035565082 -0.011859239 -0.035672545 0.04465419 -0.060559064
0.04249914 0.025315667 -0.0025906016 0.024576718 0.054474607 -0.011930681 0.08670454 0.0
0.03793822 0.025149947 -0.019856561 -0.006514102 -0.0045008557 0.07071377 0.0 -0.04922182
0.03959371 0.014042784 0.0 0.04265111 0.0 -0.017825583 -0.025105529 0.021248117
0.050965875 0.0 0.039189342 -0.0054069767 0.031733785 -0.008170605 0.019699628 -0.023448167
-0.0039584986 0.00078291737 0.032489005 -0.01663288 -0.0025907669 -0.033396266 0.07372 0.07216191
0.0073904414 0.0 0.011334074 -0.01848259 -0.024967426 -0.046347626 -0.01608264 0.0003040292
-0.024154693 0.058344632 0.037587628 0.068326436 0.03837611 0.0 0.037120007 -0.004830741
0.006596733 -0.041510683 -0.009965764 0.07325544 0.05211759 0.017121693 -0.027867086 -0.008114612
-0.005399228 0.02963387 0.045232248 -0.0065368307 0.00029846403 -0.0051001366 -0.030867172 0.0370117
-0.0136777125 0.0 -0.017059386 0.01558732 -0.010538771 0.0 0.01887408 -0.037911538
0.0 -0.0051158974 0.08509525 0.055526905 -0.01641619 -0.005300242 -0.0041194335 0.010114482
-0.024089 0.067400254 0.0 -0.007992957 0.0 -0.0071581644 -0.005352714 0.042435184
0.046902914 0.041887466 -0.018011644 0.04230582 0.07299014 -0.00033296584 -0.022633063 -0.028476767
0.012256738 -0.0018990259 0.019031497 -0.008701597 -0.047688313 -0.01636883 0.034824513 0.0
0.013543518 -0.0006173159 0.0 0.0 -0.026729139 0.0 0.026100557 -0.030231623
00000000: a402 573d 5abc 7b3c 0000 0000 b1ac 113d
00000010: 414d 42bc 601d 12bd 50e7 363d c80c 78bd
00000020: 9413 2e3d cd62 cf3c 15c7 29bb 1d55 c93c
00000030: c420 5f3d e778 43bc 2692 b13d 0000 0000
00000040: 1b65 1b3d 4307 ce3c 3aaa a2bc 4074 d5bb
00000050: ea7b 93bb 62d2 903d 0000 0000 d29c 49bd
00000060: 042d 223d b513 663c 0000 0000 eeb2 2e3d
00000070: 0000 0000 f506 92bc 1caa cdbc 8810 ae3c
00000080: 98c1 503d 0000 0000 0185 203d 022d b1bb
00000090: 49fb 013d 00de 05bc 1d61 a13c 5f16 c0bc
000000a0: 4bb6 81bb b23c 4d3a 3113 053d ad41 88bc
000000b0: dbc9 29bb 86ca 08bd 83fa 963d a0c9 933d
000000c0: 842b f23b 0000 0000 8db2 393c cd68 97bc
000000d0: 7d88 ccbc 02d7 3dbd bebf 83bc 1c66 9f39
000000e0: 10e0 c5bc c8fa 6e3d 7cf5 193d bbee 8b3d
000000f0: 4530 1d3d 0000 0000 260b 183d 314b 9ebb
00000100: 6829 d83b 1b07 2abd 7247 23bc f306 963d
00000110: 4179 553d cb42 8c3c 8449 e4bc 26f3 04bc
00000120: 02ec b0bb bbc2 f23c 7345 393d e932 d6bb
00000130: 2a7b 9c39 0c1f a7bb 27dd fcbc 9599 173d
00000140: 7c18 60bc 0000 0000 20c0 8bbc f561 7f3c
00000150: cfaa 2cbc 0000 0000 d19d 9a3c 2149 1bbd
00000160: 0000 0000 42a3 a7bb 6b46 ae3d 2e70 633d
00000170: 3f7b 86bc a7ad adbb 50fc 86bb 36b7 253c
00000180: 4b56 c5bc 2509 8a3d 0000 0000 e4f4 02bc
00000190: 0000 0000 098f eabb d265 afbb 84d0 2d3d
000001a0: 451d 403d 3192 2b3d 288d 93bc de48 2d3d
000001b0: db7b 953d eb91 aeb9 f968 b9bc 1c48 e9bc
000001c0: 7cd0 483c bce8 f8ba f1e7 9b3c 2591 0ebc
000001d0: d254 43bd ed17 86bc 26a4 0e3d 0000 0000
000001e0: a2e5 5d3c 5ed3 21ba 0000 0000 0000 0000
000001f0: 11f7 dabc 0000 0000 d6d0 d53c 4fa8 f7bc

advantage.weight f4 [3, 128]
-0.25300997 -0.04107584 0.058326077 -0.35678047 -0.116613075 0.82101536 0.28064105 0.5950694
-0.017665008 -0.14398538 0.043169837 -0.10359361 -0.25291267 -0.020047989 -0.6057777 -0.0711213
0.06903818 -0.14724468 0.33365718 0.06210533 0.26285183 -0.97376394 0.13729797 0.70089316
0.019951383 0.2192895 -0.15521449 -0.18091735 0.11009194 0.3876232 0.3755896 -0.18247649
-0.22909911 -0.16719355 -0.20943153 0.21758755 0.49898878 -0.020296587 -0.14772634 0.37706068
-0.024330087 -0.18117356 0.5647796 0.27739114 0.29703686 0.38217333 0.62250406 -0.59332776
-0.21255298 0.13273278 0.082804814 -0.2008965 0.062325206 0.07736934 0.32509756 -0.07290596
0.47828516 0.6475042 -0.3429525 -0.486446 -0.39761463 0.014995865 -0.3384702 0.037903223
0.012708873 0.35574245 0.1883923 -0.5706878 0.5398736 -0.38508946 0.35857448 0.037776668
0.43910885 -0.3373137 -0.39631087 0.044318363 0.015495771 -0.3668316 -0.04413081 0.034992382
-0.34484166 0.15074514 0.21046215 0.066625364 0.37665108 0.07579756 -0.37719917 0.41041285
0.15174326 -0.17181428 -0.5681909 -0.31945917 0.2355365 0.17488882 -0.2116393 0.031359065
0.21468584 0.52336043 -0.010831845 0.12969503 0.04582274 0.108705856 0.02478888 -0.35557956
0.49032107 -0.11144301 -0.25428593 -0.28862515 0.6359506 0.04729513 0.47088137 -0.07187743
0.022238756 -0.30255255 0.7447352 0.056358345 0.04405167 -0.112645894 -0.25359252 -0.1745928
0.25385016 -0.101885706 0.10277888 -0.2024662 -0.3885524 0.13449864 -0.21039772 0.035519242
0.10582817 -0.12147835 0.16038291 -0.06356499 -0.060143624 0.14778847 -0.37297776 0.3643885
-0.068437904 -0.19284005 -0.17496699 -0.07364261 -0.1100582 0.14088544 0.2914275 0.1868101
-0.049807698 -0.043702178 0.040734112 0.17920671 0.021427155 -0.19455574 0.12560904 0.014309751
-0.1485151 -0.08249908 -0.18489169 0.033477627 0.06480358 0.019129705 0.045653373 -0.1733482
-0.17598338 -0.0049365074 0.006717722 0.12897944 -0.17772484 0.19999239 0.09376721 0.048256617
0.10763487 -0.27073076 0.19070727 0.2572888 0.043642163 0.2549463 0.2932147 0.025420787
-0.100242324 0.06880338 -0.09040524 -0.08059601 0.066528626 0.15062459 -0.09030057 0.0033854195
0.1896126 0.33760357 -0.095376775 -0.16147703 -0.059642397 0.14241363 -0.117710166 0.09429071
-0.124684036 0.14978695 -0.03516708 0.33437076 0.23660958 -0.16800521 0.21969849 -0.16251041
-0.05074664 -0.1853201 -0.18416917 -0.041247457 -0.26886654 -0.15099674 0.19761509 -0.002875024
-0.2419512 -0.1306845 -0.25621963 0.04982528 0.05346709 0.054461394 -0.16657613 0.23554185
-0.12689053 0.029105019 -0.0075744893 -0.21153031 -0.040650744 -0.006286883 0.008998623 0.045172486
0.2404963 0.3361033 0.1663396 -0.14924918 0.086650044 0.14135337 0.020983385 0.2086445
-0.21584947 -0.08185984 0.13092196 -0.08515104 0.21250093 0.13539511 0.28496167 0.10142826
-0.0804495 -0.07403085 -0.28172943 -0.1093276 0.05339617 -0.010850598 0.09948406 0.015510907
-0.3121202 -0.17238598 -0.042465575 0.078407414 -0.3609243 -0.0125279045 0.03591879 -0.104317054
00000000: 868a 81be 243f 28bd 53e7 6e3d eeab b6be
00000010: d6d2 eebd 102e 523f 2fb0 8f3e 7856 183f
00000020: 35b6 90bc e770 13be dbd2 303d e328 d4bd
00000030: c57d 81be ae3b a4bc 3f14 1bbf 0ba8 91bd
00000040: e463 8d3d 4fc7 16be 1dd5 aa3e 2962 7e3d
00000050: 8494 863e 9848 79bf d797 0c3e bc6d 333f
00000060: 1571 a33c 6d8d 603e 8cf0 1ebe 6642 39be
00000070: e277 e13d 8c76 c63e 484d c03e 1edb 3abe
00000080: f598 6abe c934 2bbe 3875 56be 45cf 5e3e
00000090: 757b ff3e 0745 a6bc 9345 17be 190e c13e
000000a0: e44f c7bc 9085 39be 6595 103f 3606 8e3e
000000b0: 3715 983e 39ac c33e 6d5c 1f3f 54e4 17bf
000000c0: 7da7 59be 1aeb 073e 9295 a93d d0b7 4dbe
000000d0: b748 7f3d d173 9e3d 3073 a63e b84f 95bd
000000e0: cbe1 f43e d6c2 253f 7897 afbe 730f f9be
000000f0: 2594 cbbe 37b1 753c f74b adbe 6940 1b3d
00000100: e038 503c e023 b63e e9e9 403e 9818 12bf
00000110: 2835 0a3f 722a c5be 1397 b73e b5bb 1a3d
00000120: e0d2 e03e 62b4 acbe 42e9 cabe 2c87 353d
00000130: f9e1 7d3c 5ad1 bbbe 82c2 34bd 2c54 0f3d
00000140: 168f b0be ef5c 1a3e 6483 573e e172 883d
00000150: 69d8 c03e c03b 9b3d 4020 c1be a221 d23e
00000160: 9662 1b3e 15f0 2fbe f574 11bf 2790 a3be
00000170: 7b30 713e 0e16 333e f9b7 58be 5d72 003d
00000180: 9bd6 5b3e f3fa 053f 0d78 31bc c6ce 043e
00000190: a0b0 3b3d 2da1 de3d 0d12 cb3c 860e b6be
000001a0: 5d0b fb3e 3c3c e4bd c431 82be adc6 93be
000001b0: a9cd 223f 8ab8 413d 5d17 f13e 7934 93bd
000001c0: 0d2e b63c 2be8 9abe f7a6 3e3f 02d8 663d
000001d0: 866f 343d e4b2 e6bd e1d6 81be 74c8 32be
000001e0: a6f8 813e 74a9 d0bd bc7d d23d 4d53 4fbe
000001f0: 57f0 c6be 03ba 093e 8072 57be a07c 113d
00000200: 71bc d83d a4c9 f8bd 6b3b 243e 5d2e 82bd
00000210: 2959 76bd dc55 173e f1f6 bebe 2191 ba3e
00000220: 2c29 8cbd dd77 45be 8c2a 33be f0d1 96bd
00000230: 3266 e1bd 4644 103e fc35 953e 264b 3f3e
00000240: 2803 4cbd 0e01 33bd d0d8 263d f781 373e
00000250: 0088 af3c 9f39 47be a89f 003e 7273 6a3c
00000260: 5814 18be 47f5 a8bd 3f54 3dbe d61f 093d
00000270: bdb7 843d e6b5 9c3c 08ff 3a3d 3182 31be
00000280: fd34 34be 6dc2 a1bb 5620 dc3b 3013 043e
00000290: 80fd 35be ceca 4c3e 0609 c03d bba8 453d
000002a0: ac6f dc3d 399d 8abe c448 433e 5cbb 833e
000002b0: 20c2 323d 5288 823e 3d20 963e 413f d03c
000002c0: d94b cdbd c9e8 8c3d 6226 b9bd 850f a5bd
000002d0: 2940 883d 553d 1a3e 81ef b8bd eadd 5d3b
000002e0: ce29 423e 60da ac3e e654 c3bd 3c5a 25be
000002f0: 964b 74bd e1d4 113e 0712 f1bd 7d1b c13d
00000300: 585a ffbd c061 193e 5b0b 10bd a532 ab3e
00000310: c849 723e 8f09 2cbe a4f8 603e 2169 26be
00000320: b5db 4fbd 8dc4 3dbe d896 3cbe 18f3 28bd
00000330: e0a8 89be e49e 1abe 9c5b 4a3e e66a 3cbb
00000340: 0ec2 77be 28d2 05be 382f 83be 9815 4c3d
00000350: 4f00 5b3d e912 5f3d ef92 2abe e231 713e
00000360: 97ef 01be a66d ee3c 6c33 f8bb 679b 58be
00000370: 6581 26bd 3202 cebb f66e 133c c906 393d
00000380: a944 763e bb15 ac3e ee54 2a3e c7d4 18be
00000390: 9475 b13d f0be 103e 59e5 ab3c e7a6 553e
000003a0: a507 5dbe 22a6 a7bd 6810 063e ab63 aebd
000003b0: d899 593e 04a5 0a3e 7fe6 913e 9fb9 cf3d
000003c0: b5c2 a4bd 7c9d 97bd d73e 90be 26e7 dfbd
000003d0: f1b5 5a3d b5c6 31bc 4dbe cb3d 7621 7e3c
000003e0: 38ce 9fbe f385 30be 62f0 2dbd 1194 a03d
000003f0: 12cb b8be d741 4dbc 951f 133d 2ea4 d5bd

advantage.bias f4 [3]
-0.04198185 -0.035293177 0.057152636
00000000: 29f5 2bbd 948f 10bd e218 6a3d
