Project/output/non_norm_latest/dqn/final_model.pth (torch, 287307 bytes, 24 tensors)

fc1.weight f4 [128, 4]
00000000: 026a 7d3d 80e0 9fbd 3937 acbf 53e4 b8be
00000010: 9df9 2ebe f1bf 47be 8ff9 3b3e 63bf bbbc
00000020: 3485 02be 6312 cabd 6751 483e 67dc b53d
00000030: 47cf 943e 3d03 253e 4804 1b3e d6fb 01be
00000040: 5928 283c d6fd 1abd 9848 493e b7e7 d5bc
00000050: 7e8e c13d b3eb 5f3e 7005 163f b056 4cba
00000060: 21f0 5e3e e198 9ebd 3be2 033f 0d9a 643e
00000070: f63b c8be b29c 593e 160e 833f 03cd 9b3e
00000080: 16c3 ec3e 3ce2 333e 55af 36be 7752 923b
00000090: b05c 643e 4749 0ebe 4d4c 97bf eb08 9bbe
000000a0: 695d 543e bb46 49be 0c1a 35be 15b9 23be
000000b0: df61 313d e21b 67be fcfa fb3d 15c7 31bc
000000c0: ce30 493f a441 b93d de48 eebe 01e7 0cbd
000000d0: a805 a2bc f325 18bd 86f1 e53b 3909 eb3c
000000e0: 11e3 463e c424 663d 40dc 363f 6da8 d23d
000000f0: 1435 bfbe 57b8 9c3d 4082 0340 16a3 be3e
00000100: 5847 ac3d 6690 88bd c28d f4bd 18da 96bd
00000110: 0569 493e 3f82 563d b2ba 51be 59c0 b8bc
00000120: 001f 5cbd 5df1 113d 0796 c9bf f702 48be
00000130: 7d2f 1d3e 7d30 5cbe 2812 4dbe b734 e6bd
00000140: cd3f c8bd 1e74 d43d 1061 213d 8add 883d
00000150: 0d2d 5f3d a52b 863c 77d2 2cbf 48b0 783d
00000160: a859 cabe f8be 00be a199 4a3d 4648 7cbd
00000170: b931 e13d 03cb 9cbd a273 98bf d759 84be
00000180: cafe fc3d d3f8 05be b23b c1be 2fdf 60be
00000190: 0bdd 5bbe 0908 26be 2b3a 513e 433b 9ebd
000001a0: 995c 3cbd a954 6e3d 3b27 ac3e 3018 8b3d
000001b0: bb89 ef3e 1a8a e7ba 77a5 81bf f4a9 13be
000001c0: 75de 45bd e81b 133e b337 323e 4da3 a4be
000001d0: 9cd3 50bd 47ef ab3d 0cfe f13e 5fea 6abc
000001e0: 228b b2be edd4 9bbe f322 47bf f79f b0be
000001f0: 025c 15bd cbb6 a6bc 8c23 6d3e 38f4 90be
00000200: 2385 e23d 1450 623d 9514 64bf 721a c53d
00000210: 6373 bcbe c0b0 ce3d da3a d13f 1d86 a93e
00000220: 72f8 073e 48f0 673c dd04 adbe fd9c e9bd
00000230: be06 c13d ee6b 80be e71b debe f213 91bd
00000240: 5266 95be fc5e 67be b536 96be 3e7c 9dbd
00000250: f40d 65be 36d2 b3be abdf 85bf be45 a0be
00000260: c8bc d6bd fdee 93bd 011a edbd b9d2 df3d
00000270: c008 82bc d63b c13d 964a 93be e43d c4bd
00000280: 5d78 e23d 7b57 1bbe a959 b5bf 80cc dcbe
00000290: ffe3 bcbd 82d2 2b3d 6dde 81bd d63e 053c
000002a0: e8ca 1b3e 30b1 073e f8b6 823e 288f 183e
000002b0: 2653 57be 9f0f 3c3e 5419 d03f 1885 b33e
000002c0: c914 b93d e4f4 07be 465a 5e3e c9ab d13d
000002d0: e851 c63e 3456 b03c ce15 76bf 77d0 d3bd
000002e0: 2a5f 1ebd daa1 553d 4dc6 9d3e 9200 9f3c
000002f0: 32f3 aa3e 27d5 f4bd 28e5 ad3e cc66 2f3c
00000300: 976d f2bd 04a4 a63c c240 333f 053e 893e
00000310: e4fb f43b 5898 883d c985 6a3e 9160 3c3a
00000320: 1a5c 34be 1867 83be 09ea 08bf a28c 4abe
00000330: 718d 05bc 6b1e 5d3d 706a 133e 5b3c 36bd
00000340: 0c34 94be ed2f 88be 5a48 35bf 2edd 4dbe
00000350: b899 c3bc 5bdc 99bd 63dd 32bd ec81 c6bd
00000360: 696d 133f e646 1b3e 4a8b a4be b81a 2e3d
00000370: 991c 72be ed62 8f3e ec03 473e 14ed 093d
00000380: 6e48 c8be 7f75 9c3d a535 383f 4d12 263e
00000390: ac3b 96bd f27f 023e e2d6 91be d13e 533e
000003a0: 3a3d 93be bbd2 8cbe f5a3 84bf b212 a9be
000003b0: cf64 acbe f160 0fbe 972c ff3e dd5b 2fbd
000003c0: 67c6 433e c44e dabd f2c9 53bf c440 053c
000003d0: 9b88 27be 03f1 8d3e 53b0 c83e e77f ec3d
000003e0: 1d7e a23d df3e a9bd be99 8bbe 3d4f 9f3d
000003f0: 3cdf b03e 8084 efbd f14a cabf 728c bcbe
0.061868675 -0.07806492 -1.3454353 -0.36111698 -0.17087407 -0.19506814 0.18356918 -0.022918409
-0.12746125 -0.09866788 0.19562303 0.08879929 0.2906439 0.16114517 0.15138352 -0.12693724
0.010263526 -0.037839733 0.19656599 -0.026111467 0.09451006 0.21867256 0.58602047 -0.00077949
0.2177129 -0.07744003 0.51517075 0.2232439 -0.39108247 0.21251181 1.0238674 0.3042985
0.4624259 0.1756677 -0.17840321 0.004465397 0.22300982 -0.1389514 -1.182016 -0.3028024
0.20738758 -0.19655888 -0.17685717 -0.15988572 0.043306228 -0.2256923 0.12303731 -0.0108506875
0.78590095 0.09045723 -0.46539968 -0.03439999 -0.019778088 -0.037145566 0.007017317 0.028690921
0.19422556 0.056187406 0.71429825 0.10286031 -0.37345183 0.076523475 2.0548248 0.372338
0.08412045 -0.06668167 -0.11941101 -0.07365817 0.19668968 0.052370306 -0.20481375 -0.022552656
-0.0537405 0.035630573 -1.574891 -0.19532381 0.15350147 -0.21502872 -0.20026457 -0.11240523
-0.09777794 0.1037371 0.039399207 0.0668288 0.054486323 0.016378233 -0.67508644 0.06071499
-0.39521527 -0.12572849 0.04946292 -0.061592363 0.10995812 -0.07655909 -1.1910288 -0.25849792
0.12353285 -0.130832 -0.37740856 -0.21960138 -0.2147104 -0.16214003 0.20432346 -0.07726147
-0.045986746 0.058186207 0.3362368 0.06791723 0.46784768 -0.0017665059 -1.0128621 -0.144203
-0.048307855 0.14366114 0.1740406 -0.3215584 -0.050983056 0.08395248 0.47264135 -0.014338105
-0.34871775 -0.30435887 -0.77787703 -0.34497043 -0.0364647 -0.020350834 0.23158091 -0.28311324
0.1106055 0.05525215 -0.89093906 0.09624185 -0.36806783 0.10092306 1.6346085 0.33110133
0.13278368 0.014156409 -0.33792773 -0.11406896 0.09425114 -0.25082344 -0.43380663 -0.070838824
-0.29179627 -0.22594827 -0.29338613 -0.07689713 -0.22368604 -0.35121316 -1.0458883 -0.3130321
-0.10485226 -0.07223318 -0.115772255 0.10928864 -0.015873313 0.09435241 -0.28767842 -0.09582117
0.11058114 -0.1517009 -1.4167987 -0.4312477 -0.09223174 0.041948803 -0.063412525 0.008132657
0.15214121 0.13251185 0.2553022 0.1489836 -0.21027812 0.18365334 1.625773 0.3506248
0.090371676 -0.13277012 0.21714124 0.102378435 0.38734365 0.02152548 -0.9612702 -0.10342496
-0.038664974 0.052156307 0.30815354 0.019409452 0.33388668 -0.11954718 0.33963895 0.010705661
-0.11837309 0.02034188 0.7002069 0.2680513 0.0074763168 0.06669682 0.22902597 0.00071860204
-0.17613259 -0.25664592 -0.5348211 -0.1978021 -0.008151398 0.053984087 0.14396071 -0.044491153
-0.2894596 -0.26599064 -0.70813525 -0.20103905 -0.02387701 -0.075127326 -0.043668162 -0.096927494
0.5758882 0.15163764 -0.3213752 0.04250595 -0.23643722 0.28005162 0.1943509 0.03367336
-0.3911776 0.07639598 0.71956855 0.16217919 -0.073356 0.1274412 -0.28484255 0.20629431
-0.2875765 -0.27504525 -1.0362536 -0.33022076 -0.3367066 -0.14001824 0.49838707 -0.042812217
0.19118653 -0.106595546 -0.8273002 0.008133117 -0.16360705 0.2772294 0.39197025 0.11547833
0.079342104 -0.08263945 -0.27265733 0.077787854 0.34545314 -0.11695194 -1.580412 -0.368259

fc1.bias f4 [128]
00000000: ea72 cdbe d3df 893e 4628 ad3e f184 26bd
00000010: 1718 ae3e 6a17 32be 2c25 5abe d8c7 acbe
00000020: 2ed1 54be 3051 afbe 851e a73e 04e0 923e
00000030: 231b 42be 8aeb 553d cf6c 0abd 563d 17bf
00000040: 6c18 b23e 6b0b 183e 0f4a b7be f29d c03d
00000050: 2fe0 b73e bee2 8c3e 5b67 95be a272 b0be
00000060: baa2 af3e 195a f43c b244 b73e c4f1 0f3e
00000070: 3b37 b5be d606 b83e 4e6d 13be 1fd5 e93d
00000080: 344f c0bc 3b82 fdbe 103d a53e 377e 153e
00000090: a82e e0bd 55e5 0ebd 4d2e a03e 9fc1 aa3e
000000a0: d15f f5be 5157 5f3e 0a53 0e3e 7e25 cfbe
000000b0: 44ff b73e 0e98 6cbe 4a59 983e ddf2 3d3e
000000c0: 197c 4c3e f8d9 a23e d173 85ba c02e ae3e
000000d0: 06a9 81be e9e8 aa3e 7be6 27bd 4f6a 393e
000000e0: 72f5 a6be 73fd 243e 91db 81be 83e8 2ebe
000000f0: 21f1 553e acc1 a9ba 4152 683e 8911 e7be
00000100: 7e96 2d3e ee4b 98be 4f81 dbbe 1e46 afbe
00000110: 7a16 a6be 9691 e4be b570 bfbe 3c02 dcbe
00000120: 8f66 023e 9a00 d93d 2951 823d 4624 a63e
00000130: dff4 98bd 1941 e93d 9f0c d9be b79c d03d
00000140: d9bc d2be 10c2 473d 8eb6 b0bd ba25 8a3e
00000150: 5e24 2b3d 45c4 be3b 4185 c2be 5c8a 46be
00000160: a042 b4be 6075 c03d 9d5d 56be 55c8 1f3e
00000170: 8b5d 993e 0307 c5be f505 9c3e 3327 a73e
00000180: cca4 163e e0d4 8a3e 16b2 b63e e6e4 8dbe
00000190: e418 bf3e 1d67 5bbe 647c a53e 494c a63e
000001a0: 1091 bdbd aa84 003e e9d3 863e 5d82 e8bd
000001b0: c249 233e c332 66be ad8c 7bbe 3062 9cbe
000001c0: 4c45 373e 1aac cdbe dba3 afbe 1ef4 543e
000001d0: 0c98 9a3e ac7d ad3e 31d1 d6be d774 7b3e
000001e0: 39c7 9a3e 5d51 9d3d d7d8 b8bd 20ee ab3e
000001f0: 7e9f 7cbe 7df6 b73e 14fa 93bd 49ba ec3d
-0.40126735 0.26928577 0.3381979 -0.040654127 0.34002754 -0.17391744 -0.21303242 -0.3374622
-0.2078292 -0.3424163 0.32640472 0.28686535 -0.18955664 0.05222658 -0.033795174 -0.59077966
0.34784257 0.14848106 -0.3579869 0.09405126 0.35913226 0.2751674 -0.29180416 -0.34462458
0.34303838 0.029828118 0.35794598 0.1405707 -0.353937 0.35942715 -0.14397165 0.11417603
-0.023475267 -0.4951342 0.3227315 0.14598928 -0.10946399 -0.034886677 0.31285325 0.33350846
-0.47924665 0.21810652 0.13898864 -0.40458292 0.3593694 -0.2310488 0.29755622 0.18549676
0.19969214 0.31806922 -0.0010181611 0.34020042 -0.25324267 0.3338082 -0.040991288 0.1810696
-0.32609135 0.16112308 -0.25362828 -0.17080884 0.20892765 -0.0012951395 0.22687627 -0.45130566
0.1695194 -0.2974543 -0.42872092 -0.34233183 -0.32439023 -0.44642323 -0.37390676 -0.42970455
0.12734435 0.10595818 0.06363136 0.3244955 -0.074685805 0.113893695 -0.42392442 0.10186141
-0.41159704 0.048769057 -0.086285695 0.26981908 0.04178273 0.005821737 -0.3799229 -0.19388717
-0.3520708 0.093973875 -0.20934148 0.15603764 0.2995418 -0.38481912 0.30473295 0.32647094
0.14711303 0.27115536 0.35682744 -0.27713698 0.37323678 -0.21426053 0.32321465 0.32480076
-0.09256184 0.12550607 0.2633355 -0.1135299 0.15946105 -0.22480302 -0.24565382 -0.3054366
0.17897528 -0.40170366 -0.343047 0.20796248 0.30194128 0.33884943 -0.41956475 0.2455629
0.3023012 0.076815344 -0.09025734 0.33580112 -0.24670216 0.35930243 -0.07225433 0.115589686

fc2.weight f4 [128, 128]
00000000: df8d c2be 8132 853d 4d2e 6e3e 393e 3bbb
00000010: e31f 8e3e 9a27 46bc 5d65 cdbe 851c bfbf
00000020: ccaf c9be d7be 53bf cbcd 8f3e a7da a83e
00000030: 6a6c 343e ba6f 9b3d 2608 043d 4661 6cbf
00000040: d1db 9c3e fe5a 833e 2c05 2fbf 7508 433e
00000050: 7cb0 ff3e ac93 973e 73a1 a0be b684 94bf
00000060: 62b2 063f d487 00be 1371 c63e e7d1 483e
00000070: ceb4 90be 5f6e c03e ff8b bbbd b4df 643e
00000080: 5b1e 9f3e 0e4a 95bf e9d7 b73d 5b02 ba3d
00000090: 1246 2fbd b5e3 acbd f167 933e afcf 813e
000000a0: 612a ebbe a9a1 ed3c 324f 39bd 5403 65bf
000000b0: f8e2 e03e d87d 4fbf 7fd8 863e b052 28bd
000000c0: 65de 61bc 756e 933e 7844 12be 8dac 263e
000000d0: 8f14 e6be c811 a73e c118 12bf d43a 943e
000000e0: 2795 b8bf fc96 b2bd a1bf 42be e831 b2be
000000f0: 4a5e 033d 2cea 273e ff95 513e eb93 92be
00000100: 11f6 203e 256a afbf f74f 92bf 15d4 21bf
00000110: bfb5 21c0 22f9 e0be f227 1ac0 ba66 e9be
00000120: 304b 7b3d 5ab8 80be 692b 053d 35b9 dd3e
00000130: 2b50 a9be f4ae f93d 4b32 63bf ef9b 3a3e
00000140: 6ea6 fdbf e661 5d3e 95d3 83be fb58 9d3e
00000150: 2a32 a43e 0f7d 8bbe 557c 05c0 b0e9 cfbe
00000160: f4b8 07c0 98ea a43e e39e e8be 22d4 c4bd
00000170: 0389 423d 925f 0ac0 4458 493e 07fb 333e
00000180: f4c4 7fbd e87e 623e 5830 ab3e 0d92 b7bf
00000190: 101b b33e ca0d 18bd a89e ab3e e428 063e
000001a0: 0a5b f9bd 9a60 0b3e da25 833e 4ccb c5be
000001b0: cf8e 1ebe 4a5c 82bf 1363 38be 41ac 18bf
000001c0: ec0b 893e 215f a1bf 533c b3bf 89c8 b53e
000001d0: d5e2 b03d c210 e93e 7a86 75bf a368 193e
000001e0: 7c3f 4c3e 3465 e33d 59ac 2bbd cd66 943e
000001f0: f7c4 efbe cb2d ca3e 6571 62bf fa8c 983e
00000200: e66d ecbe dc61 073e 8935 0b3c 6949 21bc
00000210: 1026 043f 985c 5fbe 85c6 973d 80bd bdbf
00000220: bebe 33bf c93f 23bf be27 8d3e 5389 b33e
00000230: 61ac 96be 1b1f b3bc ca9c 833e 2e03 9fbf
00000240: 8251 d63d 10ef 3abe b5b5 e5be 43c0 223d
00000250: ccad 893e 10e0 213e 6a69 a0be 1b9b 8abf
00000260: 21db 313e 4446 e1bd b455 773e 644c 13be
00000270: 17d6 aebe d8ed 2c3e b26f 94bc f782 213e
00000280: 3c3f 4a3d b1f8 a2bf c52e 9a3e d45a a33e
00000290: a25f ad3d 7654 c0bd 7b0f 033e 2fe6 7e3e
000002a0: fe21 e8be 7f80 493e dc5f 073e 6de1 9abf
000002b0: 2097 da3d 76cd 51bf 94f7 ab3e c482 f33d
000002c0: 0464 4b3e 9179 9c3e feac afbc 04c5 b03e
000002d0: b706 afbd c0fa b93e 72ef f3be a27a 183e
000002e0: a52f 72bf 3e58 73bd 01ed 4fbe b536 3bbe
000002f0: eb2e 533e 23fc 6c3d 26ee 913d 5f89 0bbe
00000300: fd91 9b3e 901f 44bf fb9b bfbf 9836 e4be
00000310: 4e93 1dc0 7a10 3abf 8d15 0ac0 f8f7 a9be
00000320: 235f 7d3d 0dab c83c 0cf5 a53d 9214 373e
00000330: ff25 75be 1179 ac3e 8850 10bf 1b1d ad3e
00000340: 270a d7bf 7fd4 723e 456c 3bbe 93e1 383e
00000350: bbde 7a3e 6371 05bf 8cc6 10c0 545b 51be
00000360: 594c 1fc0 f5a1 a83d 77c1 09bf 9729 a4bd
00000370: 5a0b 73bd 791a 00c0 690f 983d 1964 c13e
00000380: 7ad8 5c3d 69da ad3e b019 c13e 1f70 7fbf
00000390: a3e5 c93e 62e0 3d3d 33c5 313e a97b e53e
000003a0: 4aac 2dbe 0d9b 20bd e383 433e 3346 14bf
000003b0: dddd 49bd abfe 58bf 51a8 50be c46e 02bf
000003c0: 55ea d83d 4122 a8bf d303 e7bf a3b8 8f3e
000003d0: 9e79 243d fc19 aa3e dcc5 70bf 32a3 293e
000003e0: aa97 ed3c f9c2 0d3e dcbf 9e3c 1c89 e53e
000003f0: 0244 3abf 3ca3 943e 6faa 38bf dd8b 713e
-0.37998864 0.065037735 0.2325985 -0.0028571023 0.27758703 -0.012094403 -0.40116397 -1.4930578
-0.39391935 -0.82713073 0.28086695 0.32979318 0.17619482 0.075896695 0.032234333 -0.9233593
0.30636457 0.2565536 -0.68367267 0.19046195 0.49939334 0.29604852 -0.31373176 -1.1603
0.5261594 -0.12551814 0.38758144 0.19611321 -0.28262943 0.37584206 -0.091575615 0.22350961
0.31077847 -1.1663225 0.089767285 0.090824805 -0.042791434 -0.08441869 0.28790238 0.25353763
-0.4593077 0.02900775 -0.045241542 -0.89458203 0.43923163 -0.810514 0.26337048 -0.041094482
-0.013785933 0.2879521 -0.14283931 0.1627676 -0.4493756 0.32630754 -0.5706902 0.28951132
-1.4420518 -0.08720204 -0.19018413 -0.348037 0.032072343 0.16397923 0.20467375 -0.28628477
0.15718867 -1.3704268 -1.1430653 -0.63214236 -2.526718 -0.43940073 -2.408688 -0.45586187
0.061351 -0.2514065 0.032512102 0.43305364 -0.33068976 0.12191573 -0.88748616 0.18223546
-1.9816415 0.21619377 -0.25747362 0.3073195 0.32069522 -0.2724385 -2.0857136 -0.40607977
-2.1206636 0.3221023 -0.4543372 -0.096107736 0.047493946 -2.1620831 0.19662577 0.17576228
-0.06244369 0.22118723 0.3343532 -1.4341446 0.34981585 -0.037122525 0.33519483 0.13101536
-0.121755674 0.1361107 0.25614816 -0.38631666 -0.15484165 -1.0184414 -0.18006544 -0.5963784
0.26766908 -1.2607156 -1.4002784 0.3550456 0.08637015 0.45520598 -0.9590832 0.14981322
0.19946092 0.11103287 -0.04191241 0.2898468 -0.4682996 0.39488062 -0.88454276 0.29795057
-0.46177596 0.13220924 0.0084966505 -0.0098441625 0.5162058 -0.21812665 0.074109115 -1.4823456
-0.70212924 -0.63769203 0.27569383 0.35065708 -0.2942839 -0.021865418 0.25705558 -1.2422845
0.10464765 -0.18255258 -0.44865194 0.039734136 0.2689041 0.1580813 -0.31330425 -1.0828584
0.17368747 -0.1099973 0.24153787 -0.1438461 -0.34147713 0.16887605 -0.018119667 0.15772615
0.04937671 -1.2732145 0.30113807 0.31905234 0.08465506 -0.0939111 0.12798874 0.24892496
-0.45338434 0.19677924 0.13220161 -1.2100044 0.10673356 -0.81954134 0.33587325 0.11890176
0.19862372 0.30561498 -0.021444794 0.3452531 -0.08546203 0.3632412 -0.4764362 0.1489053
-0.9460395 -0.059410326 -0.20305254 -0.18282588 0.20623367 0.057857644 0.07125501 -0.13626622
0.30384818 -0.7661066 -1.4969476 -0.44572902 -2.4621158 -0.7268139 -2.1575654 -0.33196998
0.061858308 0.024495626 0.081033796 0.1787894 -0.23940276 0.33686116 -0.5637288 0.33811268
-1.6799973 0.23713873 -0.1830302 0.180548 0.24499027 -0.5212614 -2.2621183 -0.20444995
-2.489035 0.08234016 -0.5381083 -0.08015745 -0.059336998 -2.0016158 0.07424814 0.3777168
0.053917386 0.33955696 0.3771491 -0.9978046 0.3943301 0.046356566 0.17360382 0.44820908
-0.16960254 -0.039210368 0.1909328 -0.57919616 -0.04928385 -0.8476359 -0.20376708 -0.50950265
0.1059157 -1.3135453 -1.8048042 0.28070554 0.040155046 0.3322295 -0.9405191 0.1656616
0.029002983 0.13843907 0.019378595 0.4483117 -0.7276002 0.29030788 -0.7213506 0.2358851

fc2.bias f4 [128]
00000000: eaf8 c33e c0aa ab3e 426d b2bc a96f edbd
00000010: 1766 983e 9aa8 8d3e e710 39bd e329 9e3e
00000020: 634e 25bd b545 4d3e 39e0 9e3e 20c6 ad3e
00000030: 04aa b33e 082a a33e dd72 a83e b13f 983e
00000040: 1fd6 51bc 0940 a13e 9f35 6d3e 6045 953e
00000050: 9459 a1ba 0f54 50be d42f 613e f195 83be
00000060: 88e6 8b3e 6761 ba3e 564f 823e 8763 7a3e
00000070: 8560 443e 69bb 7cbc 57f5 d7bc 5a59 123e
00000080: 5527 9d3e a249 ab3e 6cbf c7bc 386e dabd
00000090: e90f 24bc 39a1 583e 2b8a 883e 74ec 3a3e
000000a0: 3fc4 21bc ff6f ad3e c7a9 9c3e 946a 683e
000000b0: 299b 47be 2aa0 ab3e 1493 bc3e ea6d 623e
000000c0: 775c a13e 8f6e 953e 8ca2 553e 8293 09be
000000d0: e7e8 b03e ba6b 39be 1fba 7c3e d172 8abd
000000e0: 9bef 953e 75be 983e acf4 69bc b57c 073b
000000f0: 1345 a3bc c5f6 453e 2a47 8f3e 0439 8c3e
00000100: 59c8 5cbd f3ec 4bbc 0000 0000 0f00 70be
00000110: 6e38 ecbd 8aec 87bc cd8f eebc fc2a 3dbc
00000120: 7180 edbc 30b8 923e b31f 873e 4612 943e
00000130: 8d44 1bbd 667c 5bbd 7071 3abe 0000 0000
00000140: c7a8 983e c575 9b3e 73ee 913e 4b87 363e
00000150: 0671 86bc 52f3 223e d13c 7f3e 49a3 923e
00000160: 2e31 983e bc78 ac3e 8dc5 c23e 3d95 6d3e
00000170: 17b4 9b3e 0aa2 a13e a7ea 583e bc03 503d
00000180: 8702 863e fb08 563e 1eba fc3d a81f 2fbd
00000190: 259b 703e 347c 923e 9ce6 8e3e e77e 0abe
000001a0: 8a56 6a3e 7493 05be 6b94 a13e 62e9 af3e
000001b0: e1ac babc 8f96 75be ef57 ab3e 8eac 16be
000001c0: 81ad b03e 50c2 833e 0f91 41bd bf29 913e
000001d0: 399a b5bd 51bd aabc 52ab a13e c55c 153e
000001e0: edad ffbd 1abc b23e 03b7 973e 7a60 563e
000001f0: 499d 9b3e b7ce 863e 0e96 233e 4ab0 8b3e
0.38275844 0.3352871 -0.021780614 -0.11593563 0.29765388 0.27667695 -0.045182135 0.30891332
-0.04035796 0.20046122 0.31030443 0.3394022 0.3509065 0.31868005 0.32900134 0.29736093
-0.012807398 0.31494167 0.23164986 0.2915449 -0.0012310022 -0.20344566 0.21990901 -0.25700334
0.2732432 0.36402437 0.25451154 0.24452029 0.19177444 -0.015425541 -0.026362104 0.14291897
0.3069407 0.33454615 -0.02438327 -0.10665554 -0.010013559 0.21155252 0.26667914 0.18254262
-0.009873449 0.3387451 0.3059828 0.22696906 -0.19492783 0.33520633 0.36830962 0.22112241
0.31515858 0.29185912 0.20862788 -0.13435176 0.3455269 -0.181075 0.24680375 -0.06760181
0.29284367 0.29832807 -0.014279526 0.0020673696 -0.019930398 0.19332416 0.2798398 0.2738725
-0.053902004 -0.01244663 0.0 -0.23437522 -0.115342006 -0.016592283 -0.029121304 -0.011545893
-0.02899191 0.2865615 0.26391372 0.28920192 -0.037907172 -0.053585432 -0.18207335 0.0
0.29816267 0.3036329 0.28502235 0.17825048 -0.016411316 0.15913132 0.24925543 0.28640202
0.2972502 0.33685863 0.38041344 0.23201461 0.30410835 0.31568938 0.21183263 0.05078481
0.26173803 0.20901863 0.123401865 -0.0427548 0.23496683 0.28610384 0.27910316 -0.13524972
0.22884575 -0.1304453 0.31558546 0.34357744 -0.022787513 -0.23983215 0.33465526 -0.14714262
0.34507373 0.25734186 -0.04725748 0.28352162 -0.08867306 -0.020842226 0.3157602 0.1458617
-0.124843456 0.34909135 0.29631814 0.2093524 0.30393437 0.26329586 0.1597521 0.27282935

fc3.weight f4 [2, 128]
00000000: 7fd8 1f3f fda6 423f 64ab 44bd 49bc fe3d
00000010: 3f7f 86bd 2431 143e c76d 0cbd b936 183f
00000020: 49ea ecbd b83e af3e e97d 113f 2b4a 463f
00000030: fc2e 4c3e 5af8 403f f0bc 3b3f bf7b fd3e
00000040: 7412 1abe 9316 eb3e 3391 a3bf 9ee5 2a3f
00000050: 9411 81bf 678d 5f3f dbc8 7e3e ab4f 8cbf
00000060: c642 b63e 2e3d 053d e55a 683e dc10 cc3e
00000070: 82f3 d73e 0225 163b 05c4 a7bd 6c7b b93e
00000080: 4f6c 813e f4ad 1e3f b0b3 03be 60fb 5e3f
00000090: 911d 20bc 7629 9c3e 6812 9e3e b347 223e
000000a0: 26f1 6abd eb44 16bf 897f 3f3f 9777 a53e
000000b0: 7dc0 743e f192 963c d281 133f 20dd 843e
000000c0: 1e67 b03e 0aa3 b9bc eae9 d63e d76a c83c
000000d0: 161a 62be 7a14 5dbf 720b 32be 2dcd a6be
000000e0: e366 043f aea1 173f 7fd9 8ebd 3c9c 20bf
000000f0: 37e8 06be 1a3d 743e 85d6 173f 3f42 0c3f
00000100: 4345 80be 3c0a 843e b003 94bc 70d2 95be
00000110: fb4c 3bbf 60bc a63c ee7b 37be eed8 753d
00000120: b202 2fbd c617 32be 36a3 1f3f a22f 113d
00000130: 7bee 87bc 4dfb 49bd ad4d 77bf abfe c33d
00000140: f465 003f 780f 6c3e b549 d93e b04f fc3b
00000150: 4dca 8bbd 5fa3 a83e 5d6d 9d3e 42ed d33e
00000160: 5dcd 4b3f 5b5f a43e adf4 373f d0b5 a93e
00000170: 33a8 d43e 4d9c 073f 760c 513e 4451 36bf
00000180: 5039 9e3e eb5f 933d 2d26 a53e 0d6d 3cbd
00000190: c246 cc3e 994b 0c3f 9cff 0d3f e1f2 90bf
000001a0: 1aec 863e e3a0 a3bf 12f8 5c3f 5b82 343f
000001b0: 3805 82bd 3182 88bf 035e 343d 2062 e5bc
000001c0: cf55 1f3f ee51 f03e ea24 5ebe e19a f53e
000001d0: a861 bc3d 509b 4dbd 7828 1f3f 621c 063e
000001e0: a3e1 6abd deae 063f 30a0 923e 687f a83e
000001f0: e095 fd3e 2fd1 ca3e f497 35bf 06d2 1d3f
00000200: 2db8 a93e f605 493e 95e1 2c3d 6abe eebf
00000210: f6e6 1b3f 4013 f33e 8190 83bd 79ca 7b3e
00000220: d710 fc3d 1868 9e3d a0c5 f43e 24b6 b03e
00000230: 3307 213f 8417 023f 5b76 0f3e ea73 e43e
00000240: 3fc0 c0bd a874 7e3e 9b26 253f 1458 913e
00000250: 52f6 ef3d f93b adbf e211 ab3e 90c1 5cbe
00000260: ed31 1d3e 8d4a 163f 6a50 c13e 0ecc 933e
00000270: 81c4 8e3e dfe1 ecba d32a 52bc d16c 77be
00000280: c83a ee3e 3daf cd3e 31c2 ca3d 6ab2 bbbf
00000290: 6796 853b 415a 533e b71c 0e3f c72a 8b3e
000002a0: 40fb dabd 47ab 583f 3929 b93e dd6e 973e
000002b0: a3ca 36c0 1336 243f 444c a53e 30f2 9f3e
000002c0: a87f 253f fdb8 373f fd10 9cbc be58 d7bf
000002d0: 5eb7 4c3f 09a8 50bf befa 2c3f 29e9 b4bf
000002e0: 0914 673e f807 093f 1726 dfbd 94c8 86be
000002f0: d6e6 23be cd99 493e 35e6 09bd 2679 d8bd
00000300: a1ea 343e d5e7 c5be c065 83be c50e 2bc0
00000310: a6f8 b3bf 1001 0ebe a0da ed3c 0bf9 99bd
00000320: e2bb b23c bd29 483f 5e7a 91bd e7dd 063f
00000330: 03a4 39be 59dd 593d 2f81 b0be 405f 3abb
00000340: 9516 043f 54ac 233f 47ac fb3e ea68 7a3e
00000350: 88d2 af3c 5ae0 7bbe df16 883d 4438 bd3e
00000360: fe4c 71be 26a3 083f 8a46 c23e 65f3 453e
00000370: f924 1e3f 1b4c 5a3e 84c7 033f a482 28be
00000380: 00dd b43d ba4f 003f a5bc dabd 445c 163c
00000390: 5ed2 513e 27db c8bc 0efc aa3e e3b7 8a3e
000003a0: a8c6 b83e f801 f23c bc5f 4a3e ab5d 86be
000003b0: 83b4 123d 92f8 a4be 2fcd 1d3f 7487 663f
000003c0: cbf2 cd3e b665 aabd 951b c7bd 196e 4a3e
000003d0: d3f7 a1bf 8011 aa3d 12fe ed3e 637c a33e
000003e0: 8c44 35be 0f09 df3e b2a2 e33e 96f6 243e
000003f0: cba6 c03e 51ca 493e 3ac4 373f 6f58 b23e
0.6243972 0.76036054 -0.048015013 0.12438256 -0.06567239 0.1447187 -0.03428438 0.594585
-0.11568124 0.34227538 0.5683275 0.7745692 0.19939798 0.75378954 0.7333517 0.49508473
-0.15046102 0.4591566 -1.2778686 0.6675662 -1.008349 0.8732514 0.24881308 -1.0961813
0.3559782 0.03252905 0.22690924 0.39856613 0.4217797 0.0022910242 -0.08191685 0.36226976
0.25277945 0.6198418 -0.12861514 0.8710232 -0.009772674 0.30500382 0.30873418 0.15847664
-0.057358883 -0.5869891 0.7480398 0.32317802 0.23901553 0.018380614 0.57619965 0.25949955
0.34453672 -0.02266075 0.41975337 0.024465008 -0.22080263 -0.8635937 -0.17387179 -0.32578412
0.5171949 0.5923108 -0.06975078 -0.62738395 -0.1317452 0.23851433 0.59311706 0.54788584
-0.25052842 0.25789058 -0.018068165 -0.29262114 -0.7316434 0.020353496 -0.17918369 0.060021333
-0.04272718 -0.17391881 0.62358415 0.035445817 -0.016593209 -0.049311925 -0.966029 0.095700584
0.5015557 0.23052776 0.42439047 0.007699929 -0.06825695 0.32937142 0.307475 0.4139195
0.79610234 0.32104 0.7185772 0.33146524 0.41534576 0.5297287 0.2041491 -0.7121775
0.309031 0.07196029 0.32255688 -0.046002436 0.39897734 0.5480285 0.55468154 -1.1324121
0.26352006 -1.2783474 0.86316025 0.70511407 -0.06348652 -1.0664731 0.04403497 -0.028000891
0.6224031 0.46937507 -0.21693769 0.47969726 0.09198314 -0.050196946 0.62171125 0.13096765
-0.05734409 0.52610576 0.28637838 0.32909703 0.49528408 0.3961272 -0.7093499 0.61648595
0.33148327 0.1963118 0.04220732 -1.865186 0.60899293 0.47475624 -0.06424046 0.24588956
0.123078994 0.07734698 0.47807026 0.34513962 0.6290161 0.5081713 0.14009993 0.44619685
-0.09411668 0.24849188 0.6451203 0.2838751 0.11716904 -1.3533927 0.3341208 -0.21558213
0.15351076 0.58707505 0.37756664 0.2886662 0.27884296 -0.0018072686 -0.012827593 -0.24162604
0.46529222 0.4017276 0.0990032 -1.4663823 0.0040767672 0.20639898 0.55512565 0.27181074
-0.106924534 0.8463635 0.36164263 0.2957677 -2.856118 0.6414501 0.3228475 0.31239462
0.6464791 0.71766645 -0.01905107 -1.6823957 0.79967296 -0.815064 0.675701 -1.4133655
0.22566237 0.53527784 -0.10895937 -0.26324904 -0.16006026 0.19687577 -0.03366681 -0.10569982
0.17667629 -0.38653436 -0.25663567 -2.6727765 -1.4060256 -0.13867593 0.029034913 -0.07518204
0.021818105 0.7818869 -0.07103418 0.52682346 -0.18128972 0.05318961 -0.3447356 -0.002843812
0.5159696 0.63934827 0.49154875 0.24454084 0.021462694 -0.24597302 0.06644987 0.3695699
-0.23564526 0.53373945 0.37944442 0.19331129 0.61775166 0.21318094 0.5147631 -0.16456085
0.08831215 0.50121653 -0.10680512 0.009177271 0.20490405 -0.024518562 0.33395427 0.2709342
0.36089063 0.029541954 0.19763082 -0.26243338 0.03581668 -0.32220894 0.6164121 0.90050435
0.402243 -0.08320181 -0.09722058 0.19768561 -1.2653755 0.08304119 0.46482903 0.31930837
-0.1770193 0.435616 0.44460064 0.1610969 0.37627253 0.19706084 0.7178379 0.34833094

fc3.bias f4 [2]
00000000: 2148 583e b04d 3b3e
0.21121265 0.18291354

fc1.weight f4 [128, 4]
00000000: 1413 6e3d 567e 9abd 38cd abbf fb28 babe
00000010: 3a3d 30be 5bb0 49be 83a5 373e 812d b4bc
00000020: 8f16 01be 0544 c7bd bacc 473e 9721 b53d
00000030: 581d 943e 46f1 233e 60ad 1a3e ca1f 02be
00000040: dc1b 283c 25ab 19bd 5353 483e c27c d4bc
00000050: ee26 bc3d a898 5e3e 92e5 153f a71c 74bb
00000060: 7b4f 613e e61a 9bbd a407 043f 01b9 653e
00000070: b3d5 ccbe 5f96 523e ba8c 823f 8af1 9a3e
00000080: d81e ec3e 397b 323e 34f7 37be 2c74 7b3b
00000090: f2ee 643e 9f65 0abe 6165 96bf 8801 9cbe
000000a0: 8066 543e 9c00 49be ecb4 35be cb1b 23be
000000b0: d074 333d 883d 66be d9cb fa3d d313 32bc
000000c0: 4cf2 483f c1a1 b93d 38e3 eebe 22a1 22bd
000000d0: 30b9 a7bc 93b6 19bd c4b5 f33b dd3a f53c
000000e0: bdcc 463e 2f20 653d c5d0 353f 6406 cc3d
000000f0: 8f94 bebe e545 9e3d 030a 0340 3e6e be3e
00000100: f79d ac3d 58dd 87bd 4ed7 f5bd b295 95bd
00000110: 221c 4a3e 417f 593d b0d5 51be 8a69 bbbc
00000120: 68bb 7fbd 7129 083d 0c54 c9bf 1060 49be
00000130: ed34 1e3e 5510 5bbe 56e5 4cbe c79e e6bd
00000140: 128a c8bd da9a d43d 1c00 1d3d cf49 893d
00000150: 3015 613d 285d 8b3c 54e3 2cbf 198a 7b3d
00000160: d8fc c8be 7670 fdbd ba90 5e3d 6270 6dbd
00000170: c179 e33d a54d 94bd 5961 97bf a4f2 84be
00000180: d21b fd3d de1f 05be 2e01 c2be a288 62be
00000190: 1001 5cbe 7174 26be 56f0 533e 23b9 9abd
000001a0: c3e3 3cbd 7a78 6e3d b793 ab3e 23f2 8b3d
000001b0: b9e6 f03e 4f25 05ba 157d 81bf 0198 11be
000001c0: 4d8b 3ebd e660 173e 0627 353e 2d76 a7be
000001d0: 3a54 51bd 0144 ac3d b471 f13e 6ea5 68bc
000001e0: 8706 b2be 0705 9cbe 6058 46bf 6299 afbe
000001f0: d20d 14bd 49c6 a9bc 144a 6b3e d01e 90be
00000200: 6256 e83d 84bd 743d 3b80 63bf df7b b73d
00000210: dc2a bbbe d7a8 d13d 3659 d03f 9637 a93e
00000220: 36bc 073e e616 693c d277 adbe 9cb7 e8bd
00000230: 14a1 c33d a86b 7fbe 6deb ddbe 0f15 92bd
00000240: bc69 95be 64de 67be b92f 94be bad1 96bd
00000250: 0639 63be 89bb b3be 994b 85bf ed33 9fbe
00000260: 0857 d7bd 7804 93bd a4f3 efbd fb2c dc3d
00000270: 5e3b 83bc 6585 c13d 01be 93be cb03 c3bd
00000280: 0c49 dc3d fede 18be 1ca4 b4bf caaa ddbe
00000290: fefd bcbd 4810 2d3d d8f0 82bd 5431 113c
000002a0: 606a 1d3e 7283 093e 652e 833e d86d 183e
000002b0: b517 56be a9e6 3f3e 443c d03f b4f1 b23e
000002c0: f5f5 b83d 0ad3 06be 2bd3 5c3e 9536 ca3d
000002d0: 3622 c53e 49b5 a23c cec7 76bf 42a0 dbbd
000002e0: ba57 23bd acb8 523d c506 9d3e 4e29 a43c
000002f0: dce5 a93e dbbb f4bd 92ed ac3e 06e9 053c
00000300: 1f1f f1bd 5f05 b63c fa18 333f 3b0e 873e
00000310: 387e ec3b ef85 883d f575 693e 15ec 9e3a
00000320: ebb3 2ebe 0103 82be 18b8 07bf d44e 48be
00000330: 1495 08bc f943 5d3d 8a63 123e 3340 34bd
00000340: 29fe 92be 9aa5 87be 9383 34bf f908 4cbe
00000350: 998d c2bc b243 99bd edbd 35bd 3a89 c5bd
00000360: 3146 133f 6306 1b3e bce3 a5be 20c0 1e3d
00000370: 5d15 72be a747 8f3e 3a82 443e f5b0 073d
00000380: 4022 c8be 66cc 9f3d 017b 383f 5b44 243e
00000390: c2f4 97bd 64f0 023e 3d0b 92be e03d 513e
000003a0: a977 92be bc3a 8cbe 47e0 83bf 9127 a8be
000003b0: cfb0 acbe 4df0 0cbe 5e2d 003f cf13 4cbd
000003c0: bebc 433e 1c66 d9bd 6adb 53bf f253 033c
000003d0: c2cf 29be ce02 8d3e 6be0 c73e 1877 f33d
000003e0: a563 a33d bb13 a7bd bbc9 8bbe d4f9 9c3d
000003f0: 98ef af3e 3038 e8bd 0ac3 c9bf 4de4 bdbe
0.058123663 -0.07543628 -1.3422003 -0.3635939 -0.17210856 -0.1969618 0.17934231 -0.021994354
-0.12606262 -0.097297706 0.1951169 0.088442974 0.28928638 0.16010007 0.151052 -0.12707439
0.010260548 -0.03751673 0.19563036 -0.025938395 0.09187113 0.21737921 0.5855342 -0.0037248523
0.22002976 -0.0757349 0.5157416 0.22433855 -0.4000679 0.20565175 1.0199196 0.30262405
0.46117282 0.17429818 -0.17965394 0.0038368804 0.22356775 -0.13515328 -1.1749688 -0.30469918
0.20742226 -0.19629139 -0.17744797 -0.15928571 0.043812573 -0.2248441 0.12245912 -0.010868984
0.78494716 0.09064055 -0.4665773 -0.03970445 -0.020474046 -0.037527632 0.0074374396 0.029935295
0.19414039 0.055938896 0.7102168 0.099621564 -0.37222716 0.07728175 2.047486 0.37193483
0.08428567 -0.06634015 -0.12003957 -0.07303943 0.19737294 0.053099874 -0.20491672 -0.022877473
-0.062434584 0.033242647 -1.5728774 -0.19665551 0.15449877 -0.21392949 -0.2000936 -0.11260753
-0.0979196 0.10381098 0.038330182 0.06703531 0.054951847 0.017012194 -0.67534375 0.061410997
-0.39255404 -0.12374966 0.05433724 -0.057968505 0.11107207 -0.07241372 -1.1826583 -0.2596637
0.12358822 -0.13000438 -0.37891525 -0.22122434 -0.2148478 -0.16255356 0.2069715 -0.07554843
-0.046115648 0.058220364 0.33511135 0.06833293 0.47051027 -0.0005079107 -1.0116297 -0.14218141
-0.046519566 0.14783058 0.17690668 -0.32707348 -0.051105715 0.08411408 0.4715706 -0.014199598
-0.34770605 -0.30472586 -0.774786 -0.3429671 -0.036145993 -0.020724433 0.22977477 -0.28148508
0.11344601 0.05975105 -0.8886754 0.089591734 -0.36556137 0.10237282 1.6277225 0.3305022
0.1325539 0.014226651 -0.33880478 -0.11363146 0.095522076 -0.24943411 -0.43343678 -0.07132923
-0.2918223 -0.22643429 -0.2894266 -0.07364221 -0.22189721 -0.35104015 -1.0413696 -0.31094304
-0.10514647 -0.07178587 -0.11716393 0.10750767 -0.01601952 0.09449271 -0.288559 -0.09522208
0.1075612 -0.14928815 -1.4112582 -0.43294364 -0.09228133 0.042251855 -0.063935935 0.008861858
0.1537261 0.13429049 0.25621334 0.14885652 -0.20907481 0.18740334 1.6268392 0.3495003
0.090312876 -0.13166443 0.21564929 0.09873692 0.38502663 0.019861834 -0.9639863 -0.10723926
-0.039878584 0.051445648 0.30669227 0.020039227 0.3318318 -0.11949893 0.33775002 0.008173233
-0.11773514 0.022219358 0.69959986 0.26378044 0.007217195 0.06666171 0.22798903 0.0012124801
-0.17060821 -0.25392917 -0.5301528 -0.1956132 -0.008336324 0.054019902 0.14295784 -0.044006538
-0.28709534 -0.2649353 -0.70513266 -0.19925298 -0.02374916 -0.07483615 -0.04437058 -0.096453145
0.5752898 0.15139155 -0.3240031 0.038757443 -0.23640962 0.27984354 0.19190302 0.033127744
-0.3908863 0.07802658 0.7206269 0.160417 -0.07419731 0.12787014 -0.285242 0.2043376
-0.28606918 -0.2738856 -1.0302819 -0.32842687 -0.33728644 -0.13763542 0.50069225 -0.04982358
0.19114968 -0.10615179 -0.82756674 0.00801562 -0.1658316 0.27541202 0.39038405 0.1188795
0.0797799 -0.0815806 -0.27302346 0.076648384 0.34362483 -0.11338842 -1.5762646 -0.37088242

fc1.bias f4 [128]
00000000: ce91 ccbe 34e8 883e 29fd ac3e 4a37 2bbd
00000010: 66c5 ad3e 1702 32be eaee 57be bfa1 a9be
00000020: e9bc 56be ec5e afbe 53c8 a63e d687 923e
00000030: b5c9 41be 4867 573d 6650 0bbd 834b 18bf
00000040: 6ec6 b13e 1d62 153e 0271 b6be 5c53 be3d
00000050: e081 b73e d198 8c3e 0c86 97be 5d3f b1be
00000060: 2c0f af3e a041 e33c a4ef b63e ee79 0f3e
00000070: 234e b2be 63ac b73e 2a21 11be 9f19 eb3d
00000080: 964d c5bc 40b8 ffbe 9ae1 a43e d059 153e
00000090: 7059 dfbd 067b 19bd fce2 9f3e 767d aa3e
000000a0: 193b f5be de16 5f3e 8a90 0c3e a17f cdbe
000000b0: 6cef b73e 547a 6fbe 7bf8 973e 7f76 3d3e
000000c0: 5a90 4c3e 1d97 a23e e820 c8bb 95d4 ad3e
000000d0: 5cc1 82be 1f95 aa3e 8532 2bbd 8047 393e
000000e0: ee7a a7be 9c6a 243e 6960 83be 12ee 2fbe
000000f0: 4c6b 553e 134d 45bb 9a2c 683e 4d49 e6be
00000100: 2510 2c3e e67e 98be 1417 dcbe 94e8 b0be
00000110: 5c23 a6be 38da e5be 87e7 c0be 28b4 dbbe
00000120: 5091 003e 49bc da3d 494d 763d b403 a63e
00000130: 9a81 99bd 9f8c e83d 1b8f d8be 5095 cf3d
00000140: 0c9d d3be 30f1 483d e67f b1bd 0df7 893e
00000150: 3942 2e3d f77b a83b 149d c3be c4af 47be
00000160: 48ad b4be 6a44 c03d b04f 58be 96a3 1e3e
00000170: 8731 993e 7564 c3be 02ce 9b3e 8cd3 a63e
00000180: 5e4a 153e 2e1a 8a3e 945f b63e 2b1f 90be
00000190: f5d9 be3e 93e2 5bbe cc2d a53e 3b0d a63e
000001a0: 9ac6 bcbd 251d 023e 2128 863e 3656 edbd
000001b0: 70df 223e 4e3b 6abe 62b7 7bbe e6ac 9dbe
000001c0: ab6f 363e 5796 cebe 4402 b0be d85f 533e
000001d0: 2d4f 9a3e 3427 ad3e 68d8 d6be e5c3 7a3e
000001e0: b17a 9a3e bc7a 973d d9f6 b9bd 229e ab3e
000001f0: fd92 7cbe b79a b73e 322b 96bd 452b ed3d
-0.3995499 0.26739657 0.33786896 -0.041800775 0.33939666 -0.1738361 -0.21087232 -0.33131215
-0.20970501 -0.34252107 0.3257471 0.2861926 -0.18924601 0.05258873 -0.03401222 -0.5949022
0.34721702 0.14588208 -0.35633093 0.09293243 0.35841274 0.2746034 -0.29594457 -0.34618655
0.34191263 0.027741253 0.35729706 0.14011356 -0.3482524 0.35873708 -0.14172807 0.11479496
-0.024084847 -0.4994526 0.3220337 0.14585042 -0.10905731 -0.03747084 0.31227863 0.33298844
-0.4789665 0.21786067 0.13727012 -0.40136436 0.35924852 -0.23386508 0.29681763 0.18502234
0.19976941 0.31755915 -0.0061074384 0.3395125 -0.25538146 0.33316895 -0.041796226 0.18093681
-0.32710975 0.16056293 -0.25659493 -0.1718066 0.20841712 -0.0030105754 0.22673264 -0.449778
0.16803034 -0.29784316 -0.42986357 -0.34552443 -0.32448852 -0.4489305 -0.3767664 -0.42910886
0.12555432 0.10680444 0.0601323 0.324247 -0.07495423 0.11354946 -0.4229668 0.10135901
-0.41330755 0.04905814 -0.08666973 0.26946297 0.042543624 0.005141731 -0.3820578 -0.19500643
-0.35288453 0.09388049 -0.21124148 0.1549209 0.299206 -0.3816258 0.3043061 0.32583272
0.1457915 0.269731 0.35619795 -0.2814878 0.37275663 -0.2147315 0.32261503 0.3243197
-0.09217568 0.1270643 0.2620249 -0.11588709 0.15905547 -0.22874185 -0.24581674 -0.30795974
0.17816035 -0.40349075 -0.3437673 0.2064203 0.3013853 0.33818972 -0.4196198 0.2448879
0.3017173 0.073964566 -0.090802856 0.33519083 -0.24665447 0.35860226 -0.073324576 0.11580519

fc2.weight f4 [128, 128]
00000000: 290f bebe 73a9 853d 97cd 6d3e aed0 0cbb
00000010: 4c07 8e3e b1ce 4abc c39d cfbe 314e c0bf
00000020: 0692 c9be 0397 50bf 4ef7 8f3e 3ab4 a83e
00000030: f1d1 343e 6f0e 9b3d f93f 033d 0a29 6dbf
00000040: c0ee 9c3e 04c6 833e 613c 2cbf de17 443e
00000050: bc99 ff3e d1b5 973e 769f 9fbe eb21 93bf
00000060: e0e9 063f 2a3a ffbd 0930 c63e f847 4b3e
00000070: e084 91be 754d c03e b45a b7bd 1be7 653e
00000080: 2468 9f3e 97c2 95bf cff2 b83d cf2b bb3d
00000090: a006 2abd 27e9 a8bd 5c47 933e 8a20 823e
000000a0: ca97 e5be d075 ef3c a30e 39bd f23a 65bf
000000b0: c363 e03e a9d0 4ebf 41ad 863e a5a0 2cbd
000000c0: b005 7cbc 6d52 933e a46f 10be 0fb6 263e
000000d0: 6d02 e5be 103a a73e 38e9 11bf 7e3a 943e
000000e0: 81ba b8bf 6e38 b4bd ec28 40be 6d2c b1be
000000f0: 7a80 053d 3286 283e 460e 513e 9026 8dbe
00000100: ed8f 213e b9cf adbf 6ff9 90bf 4c20 21bf
00000110: 47e7 21c0 edb7 debe b54d 19c0 ab75 e3be
00000120: 60d8 7f3d c270 81be 4ef1 113d 756d dd3e
00000130: 45eb a9be b80c fa3d 321b 60bf d0d1 3a3e
00000140: 5507 febf 20a7 5e3e c8a6 82be 17b4 9d3e
00000150: 7fb1 a33e 0b38 8bbe 37de 04c0 037c cebe
00000160: c9f6 07c0 24f8 a43e 5799 e7be f20d c5bd
00000170: 9c65 423d 2502 0ac0 1991 493e 9dda 333e
00000180: 73ba 79bd 4e81 633e 4f5c ab3e c345 b7bf
00000190: 54f1 b23e 125c 10bd 2fe4 ab3e 41cb 063e
000001a0: 97d6 f5bd 51b6 0b3e 3699 833e 96be c5be
000001b0: 3769 1dbe 2732 82bf 2847 36be d60a 18bf
000001c0: 373a 893e d950 a1bf a998 b3bf 4515 b63e
000001d0: b151 b13d c21c e93e 29a6 74bf 52f9 193e
000001e0: de64 4c3e 5219 e63d 6fef 1cbd c75a 943e
000001f0: ee28 efbe d0f7 c93e 5ba8 62bf 9dd3 983e
00000200: 486a ebbe 7461 063e 4c69 e93b 0439 01bc
00000210: b2fb 033f 2ba9 5dbe d3c9 903d 0002 bfbf
00000220: 191c 33bf eb3c 22bf f0e3 8c3e 0ceb b23e
00000230: cd67 95be d246 bdbc b661 843e c25f 9fbf
00000240: f970 d53d 8b87 39be afcb e4be a535 223d
00000250: ff76 893e 21c9 213e a9bf a0be a84a 8abf
00000260: 256e 313e 75db e2bd f8d9 763e 1f74 10be
00000270: 541f b2be 3ea4 2c3e 2702 96bc e32e 203e
00000280: d926 4f3d 6264 a3bf c25a 9a3e 070b a33e
00000290: ebe0 ab3d 14c5 c0bd a6c9 013e 36f6 7e3e
000002a0: 6361 e6be 0dd2 483e 4efc 083e 0f7d 9bbf
000002b0: 8d79 d83d dc26 50bf a7c4 ab3e 998c f33d
000002c0: 55b2 493e 176e 9c3e 699f b1bc 20ab b03e
000002d0: b6f5 aebd 7e8b b93e 1c65 f2be b072 183e
000002e0: c659 73bf adbb 73bd 65b4 4fbe 2c9e 3bbe
000002f0: 0d33 533e b8f2 743d 5764 903d b754 0abe
00000300: 0f18 9b3e 800f 43bf 2e43 bfbf 83e8 e3be
00000310: 40c1 1dc0 c13c 3abf 93c9 09c0 39af a7be
00000320: 545f 7b3d 0e9b c63c d0fc a63d 9d2c 363e
00000330: c448 74be 7360 ad3e b745 0fbf d5f6 ad3e
00000340: d80c d7bf e122 723e 6e1a 3bbe 328d 383e
00000350: 490b 783e 20d2 04bf 5f63 10c0 f581 50be
00000360: 767e 1fc0 9e13 ac3d edef 09bf 6d38 a6bd
00000370: dbe6 73bd 973a 00c0 5f9a 973d 2012 c13e
00000380: 1fe0 613d b4c4 ad3e a9ae c03e bb7f 7dbf
00000390: bb7b c93e b88a 3c3d 12d0 313e cf80 e53e
000003a0: 13de 2dbe fbb2 1ebd 9d5e 433e fbac 13bf
000003b0: 043a 4cbd 6a70 59bf b889 50be b571 02bf
000003c0: bdb6 d63d 98b4 a8bf e487 e7bf 2631 8f3e
000003d0: 85f8 223d 3c9b a93e 35d2 70bf 89df 293e
000003e0: 42f2 e73c 30d9 0d3e 6864 a43c c923 e53e
000003f0: fd3b 39bf 476a 943e 108b 38bf 3964 733e
-0.3712094 0.065264605 0.23222958 -0.0021486687 0.27739942 -0.012378381 -0.4055005 -1.5023862
-0.3936922 -0.81480426 0.28118366 0.32950002 0.17658211 0.07571112 0.03204343 -0.92640746
0.30650902 0.2573701 -0.6727963 0.1914973 0.49921978 0.29630902 -0.31176347 -1.1494726
0.52700615 -0.12462266 0.38708523 0.19851673 -0.28421688 0.37559095 -0.08952847 0.22451441
0.3113414 -1.1700009 0.09030687 0.09139215 -0.041510224 -0.08247595 0.2876538 0.2541545
-0.44842368 0.029230982 -0.045179974 -0.8954307 0.43826112 -0.8078714 0.26304057 -0.04214539
-0.015382215 0.28773823 -0.14105088 0.16280387 -0.44728413 0.32661486 -0.5699649 0.28950876
-1.4431916 -0.087998256 -0.1876561 -0.34604207 0.032593228 0.16457441 0.20415601 -0.27568483
0.1577756 -1.3579017 -1.1326121 -0.62939906 -2.529741 -0.434997 -2.3953679 -0.4442571
0.06246221 -0.2528134 0.035630517 0.43247572 -0.3318731 0.12209457 -0.87541497 0.182441
-1.9845988 0.2174344 -0.2551787 0.3080146 0.31971356 -0.27191195 -2.076063 -0.40328988
-2.1244376 0.32220566 -0.45234177 -0.096218005 0.047460184 -2.156381 0.19684257 0.17563863
-0.060968827 0.22217295 0.33468863 -1.4318165 0.34949744 -0.035244055 0.33572528 0.13163473
-0.120038204 0.13643767 0.25702828 -0.38621968 -0.15372168 -1.0171555 -0.17800581 -0.59391534
0.26802227 -1.2602798 -1.4030963 0.35563102 0.086581595 0.45529753 -0.9556604 0.15036514
0.19960353 0.11235298 -0.03831428 0.28975508 -0.46710914 0.39446878 -0.8853814 0.29848948
-0.45979524 0.13123113 0.007123148 -0.007887129 0.5155593 -0.21646564 0.07069745 -1.4922485
-0.6996475 -0.63374203 0.27517653 0.34944952 -0.29180756 -0.023105059 0.25855798 -1.2451098
0.104219384 -0.18118112 -0.44686648 0.03960194 0.268486 0.15799381 -0.31396225 -1.0804033
0.17327173 -0.11077014 0.24106586 -0.14106797 -0.34789526 0.16859528 -0.018311573 0.15642886
0.050574157 -1.2765009 0.30147368 0.3184435 0.08392509 -0.0941259 0.12674579 0.2489861
-0.44996175 0.19611378 0.13377497 -1.214754 0.10570059 -0.81309295 0.3354847 0.11892051
0.19696935 0.30552742 -0.021682458 0.34505558 -0.085429594 0.36239237 -0.47342765 0.148875
-0.9505886 -0.059505153 -0.20283659 -0.18322057 0.20624943 0.059801787 0.07050388 -0.13508879
0.30291793 -0.76195526 -1.4942377 -0.4451333 -2.46492 -0.72748953 -2.152928 -0.32750872
0.06137021 0.024243858 0.08153689 0.17790456 -0.23855883 0.33862647 -0.5596575 0.3397738
-1.6800795 0.23646118 -0.18271801 0.18022612 0.24223055 -0.51883125 -2.2560651 -0.20362075
-2.4920936 0.08402179 -0.5388172 -0.08116231 -0.059546333 -2.003576 0.07402491 0.3770914
0.05514538 0.33939135 0.37633255 -0.99023026 0.3935221 0.04603073 0.17364529 0.44824836
-0.16979246 -0.038744908 0.19079061 -0.5768582 -0.049860016 -0.84937155 -0.20365036 -0.50954753
0.10484073 -1.3180113 -1.8088346 0.27967185 0.039787788 0.33126247 -0.9407075 0.16589178
0.02831376 0.13852382 0.020067409 0.44753864 -0.7235716 0.28987333 -0.7208719 0.237687

fc2.bias f4 [128]
00000000: 72dd c33e b35c ab3e 426d b2bc a65f efbd
00000010: 3058 983e a8ae 8d3e e710 39bd 0bd4 9d3e
00000020: 634e 25bd d600 4c3e 2206 9f3e f156 ad3e
00000030: 5e23 b33e 703a a33e 559a a83e 4ebf 973e
00000040: 1fd6 51bc fdad a03e 84f7 6c3e c578 953e
00000050: 0506 6eba 08ad 53be f154 603e 5d83 83be
00000060: 244c 8b3e dca3 b93e c891 813e 9c56 793e
00000070: 09df 433e 69bb 7cbc 57f5 d7bc 1032 113e
00000080: 83c2 9c3e 9f18 ab3e 6cbf c7bc d621 e1bd
00000090: e90f 24bc 5c37 593e 8e7d 883e c1a9 3a3e
000000a0: 3ec4 21bc b19d ad3e 6cdb 9c3e 8079 673e
000000b0: 6d7b 45be 7ffc aa3e 4c03 bc3e f29e 613e
000000c0: 7a5d a13e be2e 953e 2870 543e 7e50 0abe
000000d0: b4fe b03e adfe 3abe 81c7 7c3e d259 89bd
000000e0: 6988 953e dfac 983e abf4 69bc 6ea0 4c3b
000000f0: 1345 a3bc 6a7b 453e b7b2 8e3e 259e 8b3e
00000100: 59c8 5cbd f3ec 4bbc 0000 0000 c7fb 70be
00000110: efbf ebbd 8aec 87bc cd8f eebc fc2a 3dbc
00000120: 7080 edbc 722d 933e ad85 863e ac08 933e
00000130: 8d44 1bbd 667c 5bbd e8b0 3abe 0000 0000
00000140: 6a05 993e 2a65 9b3e e852 923e f0c0 363e
00000150: 0671 86bc 7277 213e 10f9 7d3e c24d 923e
00000160: dd89 973e 437f ac3e dd68 c23e 9e67 6c3e
00000170: e677 9b3e f399 a13e ca63 573e 4b49 503d
00000180: bd76 853e 707c 543e 0272 fa3d a71f 2fbd
00000190: 3d65 6f3e 71e0 913e 8ab6 8e3e 398c 04be
000001a0: b612 693e 838c 03be 6234 a13e 8c7d af3e
000001b0: e0ac babc 352a 72be 2c8d ab3e 082c 16be
000001c0: 856f b03e 4a28 833e 0e91 41bd 8a89 903e
000001d0: 4bbe b3bd 50bd aabc 54ea a13e bc86 143e
000001e0: ecad ffbd d096 b23e e0e8 963e ca04 553e
000001f0: d573 9b3e 0120 863e 38f7 213e ac02 8c3e
0.38254887 0.3346916 -0.021780614 -0.11688165 0.29754782 0.27672315 -0.045182135 0.30825838
-0.04035796 0.19922194 0.31059366 0.33855394 0.3498792 0.31880522 0.32930246 0.2963814
-0.012807398 0.31382743 0.23141295 0.29193702 -0.00090798765 -0.20671475 0.21907403 -0.2568616
0.27206528 0.36257827 0.25306535 0.24349445 0.1912805 -0.015425541 -0.026362104 0.14179254
0.3061715 0.33417222 -0.02438327 -0.10992782 -0.010013559 0.21212524 0.2665829 0.18228818
-0.009873448 0.33909371 0.30636156 0.22604942 -0.19285364 0.33395764 0.36721265 0.22033289
0.3151663 0.29137224 0.20745909 -0.13507268 0.34569323 -0.18261214 0.2468548 -0.06706585
0.29205635 0.2981939 -0.014279525 0.0031223553 -0.019930398 0.1928536 0.27870724 0.27269092
-0.053902004 -0.01244663 0.0 -0.23533545 -0.11511218 -0.016592283 -0.029121304 -0.011545893
-0.028991908 0.2874561 0.26273862 0.28717554 -0.037907172 -0.053585432 -0.18231547 0.0
0.29886943 0.3035062 0.28578877 0.17847037 -0.016411316 0.15768221 0.24802041 0.2857495
0.2959737 0.33690843 0.3797063 0.23086402 0.30364913 0.31562766 0.2103416 0.050851148
0.26067153 0.20750594 0.122287765 -0.042754795 0.23378463 0.28491548 0.2787364 -0.12944116
0.22761044 -0.1284657 0.31485277 0.34275472 -0.022787511 -0.23648913 0.33506143 -0.14665234
0.34460083 0.25616676 -0.047257476 0.28229934 -0.0877653 -0.020842224 0.3162409 0.14504522
-0.12484345 0.34880686 0.29474545 0.20802608 0.3036181 0.26196292 0.15816963 0.27345788

fc3.weight f4 [2, 128]
00000000: 96af 1f3f 8e70 423f 63ab 44bd 0bc8 fa3d
00000010: 80d1 88bd 9d2b 133e c76d 0cbd 60eb 173f
00000020: 48ea ecbd 3ebf ae3e 4c4a 113f ec15 463f
00000030: 7e74 4b3e a9d2 403f e381 3b3f ec10 fd3e
00000040: 7412 1abe 34a1 ea3e 2dad a3bf f4a9 2a3f
00000050: 7068 81bf 5b1b 5f3f 50c7 7d3e 03f1 8cbf
00000060: 88f1 b53e 3485 023d 8da8 673e 1382 cb3e
00000070: d0b5 d73e 0125 163b 04c4 a7bd 7cd7 b83e
00000080: 6a34 813e 5876 1e3f b0b3 03be 4077 5e3f
00000090: 911d 20bc 2cab 9b3e 69fc 9d3e e54a 223e
000000a0: 26f1 6abd b38b 16bf c23d 3f3f 7401 a53e
000000b0: f85d 733e 660b 903c 885f 133f e875 843e
000000c0: a8eb af3e ee4a bfbc 856e d63e 1b10 b83c
000000d0: 9f0f 63be f94d 5ebf 0de4 32be 65c8 a6be
000000e0: d73f 043f 7a77 173f 7fd9 8ebd 7ce1 20bf
000000f0: 37e8 06be 53ae 733e f096 173f 2bfb 0b3f
00000100: 4345 80be 3c0a 843e b003 94bc d096 97be
00000110: 32f0 3bbf 60bc a63c ed7b 37be edd8 753d
00000120: b202 2fbd 84c2 32be 5e64 1f3f 7b04 0e3d
00000130: 7bee 87bc 4dfb 49bd 5219 77bf aafe c33d
00000140: 2b31 003f 1678 6b3e 8ee8 d83e 41fc e03b
00000150: 4dca 8bbd f4e3 a73e 83fb 9c3e 7ca2 d33e
00000160: 4f98 4b3f ec22 a43e dbc8 373f c452 a93e
00000170: 8a56 d43e 964d 073f d039 503e e484 36bf
00000180: 89cb 9d3e 73bc 913d 3d8a a43e 0c6d 3cbd
00000190: 5fe9 cb3e 3412 0c3f 50d5 0d3f 684e 91bf
000001a0: debe 863e 133b a4bf eea8 5c3f 023e 343f
000001b0: 3805 82bd 1403 89bf 4011 303d 90c2 09bd
000001c0: ff1d 1f3f b6c9 ef3e e924 5ebe fc3e f53e
000001d0: 0a1c bf3d 519b 4dbd 49ee 1e3f 194a 063e
000001e0: a3e1 6abd 5181 063f 1831 923e 2713 a83e
000001f0: 9936 fd3e dc6b ca3e d9c1 35bf be9b 1d3f
00000200: da2d a93e 7103 483e 95e1 2c3d 1c35 eebf
00000210: ae98 1b3f 3080 f23e 8190 83bd 5f0e 7b3e
00000220: d610 fc3d a5ba 9e3d 1769 f43e 7a38 b03e
00000230: 45bd 203f 5cec 013f 2b7f 0e3e 83f2 e33e
00000240: 3fc0 c0bd 3eab 7d3e 8ef6 243f 7ae8 903e
00000250: cb7c f03d 9393 acbf ea89 aa3e 2141 58be
00000260: 35ba 1c3e bbfe 153f 6cb0 c03e 26b1 933e
00000270: c15f 8e3e dfe1 ecba d22a 52bc 9886 76be
00000280: 0ec4 ed3e a358 cd3e 30c2 ca3d cd03 bbbf
00000290: 6696 853b 58f9 513e 80c4 0d3f 662e 8a3e
000002a0: 40fb dabd 4f6c 583f 4cbe b83e 4352 973e
000002b0: d80f 36c0 f3ee 233f 34c3 a43e 4bd8 9f3e
000002c0: 0135 253f 858d 373f 5291 98bc f3cd d6bf
000002d0: f46b 4c3f e204 50bf 13a0 2c3f eec0 b3bf
000002e0: ed26 663e 8ccd 083f 1726 dfbd e413 87be
000002f0: d6e6 23be f636 483e 9a7f 08bd e2b9 d7bd
00000300: a0ea 343e d5e7 c5be c065 83be 50e5 2ac0
00000310: 2eb2 b3bf 1001 0ebe a0da ed3c 0af9 99bd
00000320: e2bb b23c d2de 473f 5c3e 91bd eb93 063f
00000330: 03a4 39be 59dd 593d a098 aebe 405f 3abb
00000340: ffd4 033f b66d 233f a13e fb3e 53cf 783e
00000350: 88d2 af3c c3a4 7bbe 6e57 883d 6fab bc3e
00000360: b15d 72be 3d5f 083f 76b8 c13e 6cb2 453e
00000370: 6bea 1d3f 97a6 593e 0f7b 033f f75b 29be
00000380: c6f2 b43d 7d01 003f 4c11 d9bd 445c 163c
00000390: cda6 513e 03ea c6bc c8af aa3e db28 8f3e
000003a0: c3d7 b73e 602c fb3c 7284 493e 4192 86be
000003b0: 83b4 123d a4e6 a3be 3484 1d3f 9275 663f
000003c0: 3e56 cd3e 679d a9bd 941b c7bd d545 4a3e
000003d0: 469c a1bf 8011 aa3d 3163 ed3e 928c a23e
000003e0: 8b44 35be aca9 de3e 2c37 e33e da0b 253e
000003f0: 5460 c03e b8a4 493e 0189 373f b7fa b13e
0.623773 0.75952995 -0.04801501 0.122451864 -0.06680584 0.14372106 -0.03428438 0.5934353
-0.11568123 0.3413028 0.56753993 0.773772 0.19868657 0.7532144 0.73245066 0.49426973
-0.15046102 0.45826113 -1.2787224 0.6666558 -1.0109997 0.87151116 0.24783063 -1.1011051
0.35535836 0.031865314 0.22622891 0.39747676 0.421309 0.002291024 -0.08191684 0.36101902
0.252353 0.6189933 -0.12861514 0.8690071 -0.009772674 0.3040403 0.30856636 0.15848882
-0.057358883 -0.58806914 0.7470361 0.3222767 0.23766315 0.01758356 0.57567644 0.25871205
0.3435948 -0.023351159 0.41881195 0.022468617 -0.22173928 -0.86837727 -0.17469807 -0.32574764
0.5165991 0.5916668 -0.06975078 -0.6284406 -0.1317452 0.23796968 0.5921469 0.54680127
-0.25052842 0.25789058 -0.018068165 -0.29607248 -0.73413384 0.020353496 -0.17918368 0.06002133
-0.04272718 -0.17457014 0.62262523 0.03467224 -0.016593209 -0.049311925 -0.9652301 0.09570058
0.50075024 0.22995028 0.42364925 0.0068660085 -0.06825695 0.32791102 0.30660638 0.41334903
0.7952928 0.32057893 0.71790856 0.33070958 0.41472274 0.5285276 0.20334554 -0.71296525
0.30819348 0.07116022 0.32136717 -0.046002433 0.39826486 0.54715276 0.55403614 -1.1352053
0.26317495 -1.2830528 0.86195266 0.70407116 -0.06348652 -1.0704064 0.0429852 -0.033632815
0.62155145 0.4683358 -0.21693768 0.47899616 0.0933152 -0.05019695 0.62082344 0.13114204
-0.05734409 0.5254107 0.2855308 0.32827112 0.49455717 0.39535415 -0.70998913 0.6156577
0.33042794 0.19532563 0.04220732 -1.8609958 0.60779846 0.47363424 -0.06424046 0.24517201
0.12307899 0.07750443 0.47736427 0.34418088 0.627888 0.5075128 0.13915698 0.4452096
-0.09411668 0.24772355 0.6443871 0.28302366 0.11742552 -1.3482536 0.33308345 -0.21118595
0.15305407 0.5859181 0.376346 0.2884609 0.2780743 -0.0018072686 -0.012827592 -0.24074781
0.4643864 0.40106687 0.099003196 -1.4610535 0.004076767 0.20505273 0.5537796 0.26988524
-0.106924534 0.84540266 0.36082685 0.29554948 -2.844717 0.6403648 0.32180178 0.31219706
0.64534 0.71700317 -0.018623982 -1.6781601 0.79852223 -0.8125745 0.67431754 -1.4043252
0.22475787 0.5343864 -0.10895937 -0.26382363 -0.16006026 0.19552216 -0.033324815 -0.10533501
0.17667627 -0.38653436 -0.25663567 -2.6702461 -1.4038751 -0.13867593 0.029034913 -0.075182036
0.021818105 0.7807437 -0.07091972 0.52569455 -0.18128972 0.05318961 -0.3410082 -0.002843812
0.5149688 0.6383928 0.4907122 0.24297838 0.021462694 -0.2457457 0.06657301 0.36849543
-0.23668553 0.5327032 0.37836045 0.19306344 0.6168582 0.21254955 0.5135965 -0.16538988
0.08835368 0.5000227 -0.10599002 0.009177271 0.20473786 -0.024281507 0.33337235 0.27960858
0.359068 0.030660808 0.1967943 -0.26283458 0.03581668 -0.32011902 0.6152985 0.9002315
0.4010486 -0.08281975 -0.09722057 0.19753201 -1.2625816 0.08304119 0.4636474 0.31747872
-0.17701928 0.43488824 0.4437803 0.16117802 0.37573493 0.19691741 0.71693426 0.34761593

fc3.bias f4 [2]
00000000: c2dd 563e 1148 3b3e
0.20983031 0.1828921
