Project/output/norm/ddqn_duel_test/best_model.pth (torch, 412075 bytes, 22 tensors)

fc1.weight f4 [128, 4]
0	0xbdafe024	-0.08587673
1	0xbd4321e6	-0.04763975
2	0x3e1fb006	0.15594491
3	0x3de733eb	0.112891994
4	0xbde65989	-0.11247546
5	0xbce7ea03	-0.028309828
6	0xbd72791c	-0.05919753
7	0xbdeb753d	-0.11496971
8	0xbdea0949	-0.11427552
9	0x3cc402ed	0.023927176
10	0xbdf3a4a7	-0.11896639
11	0xbe132928	-0.14371169
12	0xbddcf737	-0.1078934
13	0xbe0ee46e	-0.13954327
14	0x3df68881	0.12037755
15	0x3e49c62c	0.19704503
16	0xbddb94b2	-0.10721721
17	0x3c89a9f1	0.016804667
18	0x3cbf7fd8	0.02337639
19	0xbd00c3d0	-0.03143674
20	0xbdfbe4d8	-0.12299508
21	0x3d968b6f	0.073508136
22	0x3e849b7a	0.2589987
23	0x3c76675c	0.015039291
24	0xb7d382ce	-2.521407e-05
25	0x3e439315	0.19099076
26	0x3e139ab5	0.14414485
27	0x3cae1378	0.021249518
28	0x3d1beb2a	0.038066067
29	0x3e654956	0.22391257
30	0xbcf90ad3	-0.03040067
31	0xbe56e8fd	-0.20987315
32	0xbcb2e7c9	-0.02183904
33	0x3d826a50	0.06367934
34	0x3e0548fb	0.13016121
35	0xbdd7a86c	-0.10530171
36	0x3c668bc4	0.014071409
37	0xbc0d842e	-0.008637471
38	0xbde866fe	-0.11347769
39	0xbdb5551e	-0.088541254
40	0x3e52c827	0.20584165
41	0x3c797309	0.01522518
42	0xbd8fe172	-0.07025422
43	0x3e3699e8	0.17832148
44	0xbe44199a	-0.19150391
45	0xbe9a1089	-0.3009074
46	0xbc3552ac	-0.011067074
47	0x3c18955d	0.009312955
48	0x3d505ebe	0.050871603
49	0x3dac0d8f	0.084010236
50	0x3dd268f7	0.10273927
51	0xbe172faf	-0.14764284
52	0x3dc21f15	0.09478585
53	0x3decd368	0.1156376
54	0x3dc7e4ba	0.09760423
55	0x3e02058c	0.12697428
56	0xbcfec291	-0.031098636
57	0x3dfe08dd	0.12404034
58	0x3d5fb706	0.054617904
59	0xbdb25b4e	-0.08708821
60	0xbe1cc2f2	-0.1530874
61	0xbe01cbe3	-0.12675433
62	0xbe50fc74	-0.20408803
63	0xbd911232	-0.070835486
64	0xbde8aa78	-0.11360639
65	0xbd91fd3e	-0.0712838
66	0xbd94d260	-0.07266688
67	0xbde7eb7b	-0.11324211
68	0xbc407e42	-0.011748852
69	0xbe30fb57	-0.17283379
70	0xbd451196	-0.048112474
71	0x3deb78d3	0.11497655
72	0xbdee564c	-0.116375536
73	0xbd8cc4f8	-0.06873506
74	0x3d4b8fb3	0.04969759
75	0x3e389a5c	0.18027633
76	0xbe2e2ce5	-0.17009313
77	0x3d5265f9	0.05136678
78	0xbddb1288	-0.10696894
79	0x3d9c8e11	0.076442845
80	0x3e535456	0.2063764
81	0x3b8e5e5c	0.0043447446
82	0xbcc40f33	-0.023933029
83	0x3e061196	0.13092646
84	0xbe103a8d	-0.14084835
85	0x3e0d48ea	0.13797346
86	0xbd3d37c6	-0.046195768
87	0x3d56b9d0	0.0524233
88	0xbdce745a	-0.10080786
89	0xbdb871a7	-0.090060525
90	0xbd56619e	-0.05233919
91	0xbd91f9b0	-0.07127702
92	0x3d62c1f4	0.05536075
93	0x3cfddcd4	0.030989088
94	0x3c981b14	0.0185676
95	0x3ddf8fcc	0.10916099
96	0xbdd43ddc	-0.10363361
97	0x3d92e2da	0.07172175
98	0xbed17f66	-0.4091751
99	0x3e0ea9e2	0.13931993
100	0xbd5a8ed1	-0.053358857
101	0xbe176e64	-0.14788204
102	0x3de61a1b	0.11235448
103	0xbcf354ee	-0.029703584
104	0xbdcc6634	-0.09980431
105	0x3e46e3ed	0.19422884
106	0xbd301e8b	-0.042997878
107	0x3d103893	0.035210203
108	0xbe2ad3c7	-0.16682349
109	0xbd969e15	-0.073543705
110	0xbe608c76	-0.21928582
111	0x3e316ea3	0.17327361
112	0x3e66f7b9	0.22555436
113	0x3d67fadb	0.05663572
114	0xbdca616a	-0.098818615
115	0x3e0369cb	0.12833326
116	0xbe3c0332	-0.18360594
117	0x3e17406f	0.14770673
118	0xbe0de7d4	-0.13857967
119	0xbda32f7a	-0.0796804
120	0x3cf94c50	0.030431896
121	0x3e1a54ae	0.15071365
122	0xbe2ab4f3	-0.16670589
123	0x3cc9452b	0.024569115
124	0xbc46da9b	-0.012137081
125	0xbe4f1b3e	-0.20225236
126	0xbe826fe8	-0.25476003
127	0xbd569142	-0.052384622
128	0x3ea2324b	0.31678995
129	0xbd822822	-0.06355311
130	0xbe9f68a7	-0.3113453
131	0x3bc061be	0.005871027
132	0x3ca91706	0.020640861
133	0xbe652fe1	-0.22381546
134	0xbd073277	-0.03300711
135	0xbc4b2f1c	-0.0124013685
136	0xbe393931	-0.18088223
137	0x3d37186b	0.04470102
138	0xbdd5cc51	-0.10439361
139	0xbd3a92a0	-0.04554999
140	0x3d3c324a	0.045946397
141	0xbd9150d2	-0.070954934
142	0xbbd6f082	-0.0065594325
143	0x3ca3af36	0.019981008
144	0x3ccfcde3	0.02536673
145	0x3e327bf4	0.17430097
146	0x3e72198f	0.23642562
147	0xb9959306	-0.00028529036
148	0x3e06783c	0.13131803
149	0x3d1ca266	0.038240813
150	0xbdfae5bc	-0.122508496
151	0xbe041d42	-0.12901786
152	0xbe3f4417	-0.18678318
153	0x3e0a96e3	0.13534121
154	0xbe190eaf	-0.14947008
155	0x3dbca981	0.09212018
156	0xbd2ed56e	-0.04268401
157	0xbd8b5e3b	-0.068050824
158	0xbe04de52	-0.12975433
159	0xbdb8bb70	-0.09020126
160	0x3dcf16b8	0.10111755
161	0xbd043928	-0.03228107
162	0xbdcbc54e	-0.09949742
163	0xbe0bff03	-0.13671498
164	0x3d22d28f	0.039751586
165	0x3c2e6c24	0.0106459
166	0x3be9a81b	0.0071306354
167	0xbe463353	-0.19355516
168	0x3e88eeea	0.26744777
169	0xbd8e076a	-0.06935008
170	0x3e2d6193	0.16931753
171	0xbd063d2a	-0.032773174
172	0xbe907f45	-0.282221
173	0x3da44f6d	0.08022962
174	0x3cf7f64a	0.030268807
175	0x3d32128b	0.043474715
176	0x3e1248c6	0.14285573
177	0xbdcb7f81	-0.09936429
178	0xbdec2a31	-0.11531485
179	0xbc66b883	-0.014082077
180	0x3e8c7121	0.2743006
181	0xbc2e2a71	-0.010630236
182	0x3b33f9aa	0.0027462044
183	0x3e6aa77a	0.2291545
184	0x3b2b2cb1	0.0026119167
185	0xbe2c503e	-0.16827485
186	0xbda6f744	-0.08152631
187	0xbd650328	-0.055911213
188	0xbdbe3d93	-0.09289088
189	0xbd0c2038	-0.034210414
190	0xbca2b5dc	-0.019862108
191	0xbe85c2e7	-0.2612526
192	0x3dc27761	0.09495426
193	0xbe21db6f	-0.15806364
194	0xbc826067	-0.015915109
195	0x3cc8ac24	0.024496146
196	0x3b6402b1	0.0034791643
197	0xbd815228	-0.06314498
198	0xbe0719d1	-0.13193442
199	0x3da9a2d4	0.0828301
200	0x3d622431	0.055210296
201	0x3e1f5857	0.15561043
202	0x3d78b05a	0.060715057
203	0xbcd35a3b	-0.025799861
204	0xbd41688a	-0.047218837
205	0x3d9b09e0	0.07570243
206	0x3d67780a	0.056510963
207	0x3e955cd0	0.29172373
208	0x3d8ef33e	0.069799885
209	0xbdee0ce9	-0.11623556
210	0xbd4bfcd7	-0.049801674
211	0x3e3a786e	0.18210003
212	0xbd35d55c	-0.04439293
213	0xbe082977	-0.13297068
214	0xbcdd2669	-0.026995854
215	0x3d26a634	0.040685847
216	0xbcc1a49d	-0.023638064
217	0xbc433c99	-0.011916303
218	0xbdf36a75	-0.118855394
219	0x3dcf9816	0.1013643
220	0xbe48adaa	-0.19597498
221	0xbd331943	-0.043725263
222	0xbd8dd433	-0.069252394
223	0x3d630b7b	0.05543087
224	0x3e302eb0	0.1720531
225	0x3e86864c	0.26274335
226	0x3d3cc26b	0.04608385
227	0xbd9a355b	-0.07529708
228	0xbd2b7073	-0.041855287
229	0x39bbb71c	0.00035803847
230	0x3cb4ba59	0.022061514
231	0xbe86ccc1	-0.2632809
232	0xbc6639cd	-0.014051867
233	0xbdd3cf2f	-0.103422515
234	0xbd47bba1	-0.04876292
235	0xbd2bb231	-0.041917983
236	0x3e254fbe	0.161437
237	0xbe2a1f55	-0.16613515
238	0x3bdb8a21	0.006699816
239	0x3e711fb7	0.23547255
240	0x3de13b56	0.109976456
241	0x3db362dc	0.0875909
242	0xbdb0aa46	-0.08626227
243	0xbd754cff	-0.059887882
244	0x3dc742e4	0.09729555
245	0xbd635eae	-0.055510215
246	0x3cda0129	0.026611881
247	0x3e0b655c	0.13612884
248	0x3e03f5af	0.1288669
249	0x3c37681f	0.011194258
250	0xbce85030	-0.028358549
251	0xbc707da5	-0.0146783935
252	0xbd57e370	-0.052707136
253	0x3dc7df2d	0.09759364
254	0xbdef50ef	-0.11685359
255	0xbdc48e38	-0.095974386

fc1.bias f4 [128]
0	0x00000000	0.0
1	0x00000000	0.0
2	0x00000000	0.0
3	0x00000000	0.0
4	0x00000000	0.0
5	0x00000000	0.0
6	0x00000000	0.0
7	0x00000000	0.0
8	0x00000000	0.0
9	0x00000000	0.0
10	0x00000000	0.0
11	0x00000000	0.0
12	0x00000000	0.0
13	0x00000000	0.0
14	0x00000000	0.0
15	0x00000000	0.0
16	0x00000000	0.0
17	0x00000000	0.0
18	0x00000000	0.0
19	0x00000000	0.0
20	0x00000000	0.0
21	0x00000000	0.0
22	0x00000000	0.0
23	0x00000000	0.0
24	0x00000000	0.0
25	0x00000000	0.0
26	0x00000000	0.0
27	0x00000000	0.0
28	0x00000000	0.0
29	0x00000000	0.0
30	0x00000000	0.0
31	0x00000000	0.0
32	0x00000000	0.0
33	0x00000000	0.0
34	0x00000000	0.0
35	0x00000000	0.0
36	0x00000000	0.0
37	0x00000000	0.0
38	0x00000000	0.0
39	0x00000000	0.0
40	0x00000000	0.0
41	0x00000000	0.0
42	0x00000000	0.0
43	0x00000000	0.0
44	0x00000000	0.0
45	0x00000000	0.0
46	0x00000000	0.0
47	0x00000000	0.0
48	0x00000000	0.0
49	0x00000000	0.0
50	0x00000000	0.0
51	0x00000000	0.0
52	0x00000000	0.0
53	0x00000000	0.0
54	0x00000000	0.0
55	0x00000000	0.0
56	0x00000000	0.0
57	0x00000000	0.0
58	0x00000000	0.0
59	0x00000000	0.0
60	0x00000000	0.0
61	0x00000000	0.0
62	0x00000000	0.0
63	0x00000000	0.0
64	0x00000000	0.0
65	0x00000000	0.0
66	0x00000000	0.0
67	0x00000000	0.0
68	0x00000000	0.0
69	0x00000000	0.0
70	0x00000000	0.0
71	0x00000000	0.0
72	0x00000000	0.0
73	0x00000000	0.0
74	0x00000000	0.0
75	0x00000000	0.0
76	0x00000000	0.0
77	0x00000000	0.0
78	0x00000000	0.0
79	0x00000000	0.0
80	0x00000000	0.0
81	0x00000000	0.0
82	0x00000000	0.0
83	0x00000000	0.0
84	0x00000000	0.0
85	0x00000000	0.0
86	0x00000000	0.0
87	0x00000000	0.0
88	0x00000000	0.0
89	0x00000000	0.0
90	0x00000000	0.0
91	0x00000000	0.0
92	0x00000000	0.0
93	0x00000000	0.0
94	0x00000000	0.0
95	0x00000000	0.0
96	0x00000000	0.0
97	0x00000000	0.0
98	0x00000000	0.0
99	0x00000000	0.0
100	0x00000000	0.0
101	0x00000000	0.0
102	0x00000000	0.0
103	0x00000000	0.0
104	0x00000000	0.0
105	0x00000000	0.0
106	0x00000000	0.0
107	0x00000000	0.0
108	0x00000000	0.0
109	0x00000000	0.0
110	0x00000000	0.0
111	0x00000000	0.0
112	0x00000000	0.0
113	0x00000000	0.0
114	0x00000000	0.0
115	0x00000000	0.0
116	0x00000000	0.0
117	0x00000000	0.0
118	0x00000000	0.0
119	0x00000000	0.0
120	0x00000000	0.0
121	0x00000000	0.0
122	0x00000000	0.0
123	0x00000000	0.0
124	0x00000000	0.0
125	0x00000000	0.0
126	0x00000000	0.0
127	0x00000000	0.0

fc2.weight f4 [128, 128]
0	0xbd8e3126	-0.06942968
1	0x3e2cf063	0.16888575
2	0xbe1242da	-0.14283314
3	0xbd9b4f95	-0.075835384
4	0x3cd41ae8	0.025891736
5	0x3df8d065	0.12149123
6	0x3e0126f3	0.12612514
7	0x3d8a1ad5	0.06743399
8	0x3d54387d	0.051811684
9	0xbe5d2255	-0.21595128
10	0x3dd50b8a	0.104025915
11	0xbd8106c8	-0.063001215
12	0xbc2fb13c	-0.010723408
13	0x3e3048de	0.17215297
14	0xbdf90e66	-0.121609494
15	0x3df39ae1	0.11894775
16	0xbe871d02	-0.2638932
17	0xbda0c3cc	-0.07849845
18	0xbdbcaf2a	-0.092130974
19	0xbe25e73e	-0.16201493
20	0xbd2112c8	-0.03932455
21	0x3cba1c34	0.022718526
22	0xbd6b7793	-0.05748708
23	0x3de3240f	0.11090862
24	0xbd27853a	-0.04089854
25	0xbec1dd02	-0.37863928
26	0xbe61f1d9	-0.22064914
27	0x3e894dc5	0.26817146
28	0xbe08ee0f	-0.13372062
29	0x3cec3d9f	0.028837977
30	0x3df028e7	0.117265515
31	0xbd9638fe	-0.07335089
32	0xbdac10b9	-0.08401627
33	0xbdb2a6b2	-0.08723201
34	0x3cabf6fe	0.020991798
35	0x3d8951e3	0.06705072
36	0x3e1c828e	0.15284178
37	0x3ca4a1b6	0.020096641
38	0xbd0c5cf9	-0.034268353
39	0xbe57b61a	-0.2106556
40	0x3d18563d	0.03719162
41	0x3e152295	0.14563973
42	0x3d9338ef	0.071885936
43	0x3dbe8e7a	0.09304519
44	0x3e2ac61d	0.16677137
45	0x3dbff3ab	0.09372648
46	0x3e150f0a	0.14556518
47	0xbd81696f	-0.06318938
48	0xbdec245c	-0.115303725
49	0x3e225617	0.15853153
50	0x3e564a56	0.20926794
51	0x3e1c0fe3	0.15240435
52	0xbc467128	-0.0121119395
53	0x3e7ca098	0.24670637
54	0x3d095f23	0.033537995
55	0x3e4c3619	0.19942512
56	0x3b5868c7	0.0033021437
57	0xbe160f17	-0.14654194
58	0x3d787975	0.060662705
59	0xbd07d13b	-0.033158522
60	0xbe41e60e	-0.18935415
61	0xbd845e46	-0.06463294
62	0xbe3fbf85	-0.18725403
63	0x3bb075df	0.005385145
64	0xbdc79fde	-0.09747289
65	0xbdd69ac0	-0.10478735
66	0xbdabe7f8	-0.08393854
67	0x3d818bb0	0.063254714
68	0xbdae42f1	-0.08508862
69	0xbdc8cb4b	-0.098044
70	0xbd8f1d6c	-0.06988034
71	0xbd1e9704	-0.03871824
72	0x3be26865	0.0069094175
73	0xbe14f565	-0.14546736
74	0x3d9d02aa	0.07666524
75	0x3dd8852f	0.10572278
76	0xbdca653d	-0.09882591
77	0xbdd8b079	-0.105805345
78	0xbd8d5321	-0.06900621
79	0x3dc0815f	0.093996756
80	0xbe4df9a3	-0.2011476
81	0xbd6f2e82	-0.058393963
82	0xbd6cb321	-0.057788018
83	0xbe6ffb1b	-0.23435633
84	0x3dc6c074	0.09704676
85	0xbe44d05a	-0.19220105
86	0xbe0ada34	-0.135598
87	0xbd7310c1	-0.05934215
88	0xbd418342	-0.047244318
89	0x3def20c9	0.11676175
90	0xbc2a6e0e	-0.010402216
91	0xbdcd4cc0	-0.100244045
92	0x3e3fe3d7	0.18739258
93	0x3e82e6ca	0.25566703
94	0xbcc48530	-0.02398929
95	0xbddc0807	-0.107437186
96	0xbd6bd35d	-0.05757462
97	0xbd27ba54	-0.04094918
98	0x3d14a710	0.036292136
99	0x3d1dd727	0.038535263
100	0x3d5a478e	0.053290896
101	0x3de8e693	0.113721035
102	0xbda41d25	-0.080133714
103	0xbdadb65a	-0.084820464
104	0xbda1f5c4	-0.07908204
105	0x3ca30e27	0.01990421
106	0x3e238bf1	0.15971352
107	0x3d9a3e11	0.075313695
108	0x3d151622	0.03639806
109	0x3dba76e4	0.09104708
110	0x3e575d59	0.21031703
111	0x3ca18def	0.019721
112	0x3ccb236d	0.024797166
113	0x3d87efce	0.06637536
114	0xbe28408f	-0.16430877
115	0x3e0a36ea	0.1349751
116	0xbc9ca6ee	-0.019122567
117	0x3e825766	0.25457305
118	0x3e6be12f	0.2303512
119	0xbd92c85c	-0.07167122
120	0x3e2770a7	0.16351567
121	0xbdbdf1f7	-0.09274667
122	0x3e32a618	0.17446172
123	0x3d5df647	0.054189947
124	0xbdf5b770	-0.119978786
125	0x3d8cebd0	0.06880915
126	0x3dfc4166	0.12317161
127	0x3dde5963	0.10856893
128	0xbe4a1710	-0.1973536
129	0xbe5d1709	-0.21590818
130	0xbe8e53d3	-0.27798328
131	0xbda3c21c	-0.07996008
132	0xbc9f8a24	-0.01947505
133	0xbcecc274	-0.028901316
134	0x3dccbd7c	0.09997079
135	0xbd62f024	-0.055404797
136	0xbd0731ca	-0.033006467
137	0x3e7197da	0.23593083
138	0x3ca78475	0.020448903
139	0xbd425d87	-0.047452476
140	0x3dd9c63e	0.10633515
141	0x3dc76ebe	0.09737919
142	0x3dc56811	0.0963899
143	0xbe12461f	-0.14284562
144	0xbd2be399	-0.0419651
145	0x3d617e79	0.055052254
146	0xbdd545bc	-0.104136914
147	0xbb023e7e	-0.0019873674
148	0x3d335718	0.04378423
149	0xbdeeb2f6	-0.11655228
150	0xbdb2b150	-0.08725226
151	0x3e6a7789	0.22897162
152	0xbe4e3f83	-0.20141415
153	0x3e1d37d9	0.15353335
154	0xbd5ca9d8	-0.053872913
155	0x3c2fd8fe	0.010732887
156	0xbd33f02f	-0.04393023
157	0xbd825105	-0.063631095
158	0xbe06cdb4	-0.13164407
159	0xbe21757b	-0.15767471
160	0x3d9c835d	0.07642243
161	0xbd3f249e	-0.04666578
162	0x3e35e844	0.17764384
163	0xbd568040	-0.052368402
164	0xbec34832	-0.38141018
165	0xbdb99eef	-0.09063517
166	0x3e75a7e9	0.23989834
167	0x3dde5716	0.10856454
168	0xbe131788	-0.14364445
169	0x3d943e48	0.07238442
170	0x3c83d799	0.016094016
171	0xbc1656fe	-0.009176014
172	0x3ddc4b5e	0.10756563
173	0xbdc73a2b	-0.097278915
174	0x3c0c61fd	0.008568284
175	0x3d242d84	0.04008247
176	0xbd7f4d78	-0.06232974
177	0x3e0643a0	0.13111734
178	0xbdaaf811	-0.08348096
179	0xbbd91895	-0.006625245
180	0x3e38b33e	0.18037125
181	0x3e99e722	0.30059153
182	0x3db9877a	0.09059043
183	0xbba9c54d	-0.005180991
184	0x3c59a237	0.013283304
185	0x3d55ffac	0.05224578
186	0x3dae7046	0.08517508
187	0x3d9ceceb	0.07662376
188	0xbc4d6deb	-0.0125384135
189	0x3d383256	0.04496988
190	0xbd03672a	-0.032080807
191	0x3c648a95	0.013949056
192	0x3d60f298	0.054918855
193	0xbc50d07b	-0.012745018
194	0x3df270d4	0.118379265
195	0xbd872a80	-0.06599903
196	0xbd30b4cf	-0.043141183
197	0xbe2ce188	-0.16882908
198	0x3c4d9140	0.012546837
199	0xbe0409fc	-0.12894434
200	0x3debd154	0.115145355
201	0x3d7e9e8d	0.062162925
202	0xbd898e88	-0.06716639
203	0x3deb3698	0.11485022
204	0x3d9ef87a	0.07762237
205	0xbd32b424	-0.043628827
206	0x3e398601	0.18117525
207	0x3d1cb37e	0.038257115
208	0xbe02ab20	-0.12760592
209	0x3a56b6f2	0.0008190713
210	0xbd974878	-0.07386869
211	0x3c9b4bcc	0.018957041
212	0xbe379cc7	-0.179309
213	0x3e11318a	0.14179054
214	0xbe2e5bef	-0.17027257
215	0x3e26e46f	0.16298078
216	0x3e76c3ba	0.24098101
217	0x3d975679	0.0738954
218	0x3c5326e2	0.012887688
219	0x3caf0585	0.021364937
220	0xbcd606df	-0.026126323
221	0x3e047e8d	0.129389
222	0x3d9ed686	0.07755761
223	0x3ddc8e40	0.107693195
224	0x3e02e1af	0.12781404
225	0xbe66aaad	-0.22526045
226	0x3e289d4b	0.16466253
227	0x3abc189d	0.0014350597
228	0xbda419e7	-0.08012753
229	0xbde3c372	-0.111212626
230	0xbe3e188f	-0.18564056
231	0x3d6e3001	0.05815125
232	0xbdfac362	-0.122442976
233	0x3cc49c6b	0.024000367
234	0x3eadb1ff	0.33924863
235	0xbe0bc205	-0.13648231
236	0xbdae315f	-0.085055105
237	0x3e3df2ac	0.18549603
238	0x3cc8d994	0.024517812
239	0x3d36e3c7	0.04465082
240	0x3dd7b1a7	0.10531931
241	0x3e314756	0.17312369
242	0xbdca5eb0	-0.098813415
243	0x3d4f34fc	0.05058764
244	0xbe16066f	-0.14650892
245	0xbddb847a	-0.10718627
246	0x3ded9591	0.11600793
247	0x3e683a62	0.22678521
248	0xbdb107d4	-0.08644071
249	0x3d32d702	0.04366208
250	0xbe48de0c	-0.19615954
251	0xbc5e5d89	-0.013572105
252	0xbe319bf1	-0.17344643
253	0xbe153279	-0.14570035
254	0xbdf681fd	-0.12036512
255	0xbe1ae81f	-0.1512761

fc2.bias f4 [128]
0	0x00000000	0.0
1	0x00000000	0.0
2	0x00000000	0.0
3	0x00000000	0.0
4	0x00000000	0.0
5	0x00000000	0.0
6	0x00000000	0.0
7	0x00000000	0.0
8	0x00000000	0.0
9	0x00000000	0.0
10	0x00000000	0.0
11	0x00000000	0.0
12	0x00000000	0.0
13	0x00000000	0.0
14	0x00000000	0.0
15	0x00000000	0.0
16	0x00000000	0.0
17	0x00000000	0.0
18	0x00000000	0.0
19	0x00000000	0.0
20	0x00000000	0.0
21	0x00000000	0.0
22	0x00000000	0.0
23	0x00000000	0.0
24	0x00000000	0.0
25	0x00000000	0.0
26	0x00000000	0.0
27	0x00000000	0.0
28	0x00000000	0.0
29	0x00000000	0.0
30	0x00000000	0.0
31	0x00000000	0.0
32	0x00000000	0.0
33	0x00000000	0.0
34	0x00000000	0.0
35	0x00000000	0.0
36	0x00000000	0.0
37	0x00000000	0.0
38	0x00000000	0.0
39	0x00000000	0.0
40	0x00000000	0.0
41	0x00000000	0.0
42	0x00000000	0.0
43	0x00000000	0.0
44	0x00000000	0.0
45	0x00000000	0.0
46	0x00000000	0.0
47	0x00000000	0.0
48	0x00000000	0.0
49	0x00000000	0.0
50	0x00000000	0.0
51	0x00000000	0.0
52	0x00000000	0.0
53	0x00000000	0.0
54	0x00000000	0.0
55	0x00000000	0.0
56	0x00000000	0.0
57	0x00000000	0.0
58	0x00000000	0.0
59	0x00000000	0.0
60	0x00000000	0.0
61	0x00000000	0.0
62	0x00000000	0.0
63	0x00000000	0.0
64	0x00000000	0.0
65	0x00000000	0.0
66	0x00000000	0.0
67	0x00000000	0.0
68	0x00000000	0.0
69	0x00000000	0.0
70	0x00000000	0.0
71	0x00000000	0.0
72	0x00000000	0.0
73	0x00000000	0.0
74	0x00000000	0.0
75	0x00000000	0.0
76	0x00000000	0.0
77	0x00000000	0.0
78	0x00000000	0.0
79	0x00000000	0.0
80	0x00000000	0.0
81	0x00000000	0.0
82	0x00000000	0.0
83	0x00000000	0.0
84	0x00000000	0.0
85	0x00000000	0.0
86	0x00000000	0.0
87	0x00000000	0.0
88	0x00000000	0.0
89	0x00000000	0.0
90	0x00000000	0.0
91	0x00000000	0.0
92	0x00000000	0.0
93	0x00000000	0.0
94	0x00000000	0.0
95	0x00000000	0.0
96	0x00000000	0.0
97	0x00000000	0.0
98	0x00000000	0.0
99	0x00000000	0.0
100	0x00000000	0.0
101	0x00000000	0.0
102	0x00000000	0.0
103	0x00000000	0.0
104	0x00000000	0.0
105	0x00000000	0.0
106	0x00000000	0.0
107	0x00000000	0.0
108	0x00000000	0.0
109	0x00000000	0.0
110	0x00000000	0.0
111	0x00000000	0.0
112	0x00000000	0.0
113	0x00000000	0.0
114	0x00000000	0.0
115	0x00000000	0.0
116	0x00000000	0.0
117	0x00000000	0.0
118	0x00000000	0.0
119	0x00000000	0.0
120	0x00000000	0.0
121	0x00000000	0.0
122	0x00000000	0.0
123	0x00000000	0.0
124	0x00000000	0.0
125	0x00000000	0.0
126	0x00000000	0.0
127	0x00000000	0.0

fc_value.weight f4 [128, 128]
0	0x3dff9371	0.12479294
1	0x3d8b09a4	0.06788948
2	0xbde763a6	-0.11298303
3	0xbd87b3f3	-0.066261195
4	0x3a6a4fa4	0.0008938259
5	0xbd2bbbec	-0.041927263
6	0xbe41cabe	-0.18924996
7	0x3e24efe6	0.16107139
8	0xbd49dc7f	-0.049282547
9	0x3e46c9d1	0.19412924
10	0xbd4559ef	-0.04818147
11	0xbd268573	-0.04065461
12	0x3e265af6	0.16245636
13	0xbd9b2ada	-0.07576533
14	0xbe88f7c3	-0.26751527
15	0xbd56efd1	-0.0524748
16	0x3dbc5409	0.09195716
17	0x3e88870c	0.26665533
18	0xbc3070d5	-0.010769089
19	0x3c4abfb1	0.012374804
20	0x3dffcad9	0.12489862
21	0xbdda80e3	-0.106691144
22	0x3cb0abc2	0.021566276
23	0xbc8b2d7d	-0.016989464
24	0x3d8ba5bd	0.068187214
25	0xbd8fee33	-0.07027855
26	0x3e88793f	0.26655003
27	0x3d559f42	0.052153833
28	0x3b8bb0a5	0.004263001
29	0xbd0dc4bd	-0.034611452
30	0x3bd9a969	0.0066425097
31	0x3db1870e	0.08668338
32	0xbcba3f3b	-0.022735229
33	0xbcb17bf1	-0.021665545
34	0x3c89d7fe	0.016826626
35	0xbd275d73	-0.040860604
36	0x3dc54810	0.096328855
37	0x3dfa915e	0.12234758
38	0xbe801331	-0.25014642
39	0xbc96f6ef	-0.018428294
40	0x3e7a15b6	0.24422345
41	0xbd51c7cc	-0.05121593
42	0x3c82c5fb	0.015963545
43	0x3be3c811	0.00695134
44	0x3e806009	0.2507327
45	0x3cc47103	0.02397967
46	0x3dae4cef	0.08510768
47	0xbcc255a5	-0.02372248
48	0x3ca876cc	0.02056446
49	0x3d9d6148	0.076845706
50	0x3dd0075c	0.10157654
51	0x3ba5b12b	0.0050565205
52	0xbd8700a9	-0.06591923
53	0xbdcf4ff1	-0.101226695
54	0xbd52b901	-0.051445965
55	0xbe52126a	-0.20514837
56	0xbe2c3966	-0.16818771
57	0x3e452a60	0.19254446
58	0xbdfacc0f	-0.12245952
59	0xbd9aeac5	-0.0756431
60	0xbda137d7	-0.07871979
61	0x3eaef748	0.34173036
62	0x3df41602	0.1191826
63	0x3caeabc1	0.021322133
64	0x3cc5e8fb	0.024158945
65	0xbe1fb18f	-0.15595077
66	0xbd2f1e60	-0.042753577
67	0xbe136616	-0.14394411
68	0x3d64eb9b	0.055888753
69	0xbdb08f64	-0.086210996
70	0x3dc43c01	0.09581757
71	0xbcb86b55	-0.022512117
72	0xbda082bd	-0.07837436
73	0x3e240562	0.16017678
74	0xbd5be28f	-0.05368286
75	0xbe2f1d3b	-0.17100994
76	0xbdab5c30	-0.08367193
77	0xbd04fd9e	-0.03246843
78	0xbe08ffd1	-0.13378836
79	0xbe32fcc4	-0.17479235
80	0xbdeb6026	-0.11492948
81	0x3e3b547a	0.18293944
82	0xbe9c602e	-0.3054213
83	0x3e30571d	0.17220731
84	0xbd7a2698	-0.061071962
85	0x3d821d17	0.06353205
86	0x3da81f9a	0.082091525
87	0xbe1242e9	-0.14283337
88	0x3d431000	0.04762268
89	0x3df87b26	0.12132864
90	0xbb11f58e	-0.0022271606
91	0x3dc95ce8	0.098321736
92	0x3dc374b0	0.09543741
93	0x3d4c2bb2	0.04984636
94	0x3d4e31a1	0.0503403
95	0x3dbc88f4	0.09205809
96	0xbd20e012	-0.03927619
97	0xbe0c3408	-0.13691723
98	0x3dc5d50c	0.09659776
99	0x3e08bb36	0.13352665
100	0x3c521c0e	0.012824072
101	0x3dccb4d2	0.09995426
102	0x3e3c4e9b	0.1838936
103	0x3e42a3ba	0.19007769
104	0x3d849512	0.064737454
105	0x3d0bb642	0.03410936
106	0xbe08d4db	-0.13362448
107	0x3c92e867	0.017933084
108	0xbd9b9320	-0.07596421
109	0xbd537810	-0.051628172
110	0x3d949338	0.07254642
111	0xbe2c1a4d	-0.16806908
112	0x3e046cf7	0.12932192
113	0xbc4c7aa6	-0.012480414
114	0x3e0eb04f	0.13934444
115	0x3d5f1523	0.054463517
116	0xbd3b78e5	-0.04576959
117	0xbcf90f33	-0.030402755
118	0xbe0f81df	-0.14014386
119	0x3c41d0ee	0.011829598
120	0xbe7ce1cd	-0.24695511
121	0x3e262a88	0.16227162
122	0xbeaef20b	-0.3416904
123	0x3a16cde9	0.0005752729
124	0x3dc9b073	0.09848108
125	0xbdf5efb7	-0.120086126
126	0xbe1d6ad2	-0.1537278
127	0x3e8d9121	0.27649787
128	0xbe85a117	-0.26099464
129	0xbca199ea	-0.019726712
130	0x3d38da0e	0.04512983
131	0x3d74aa20	0.059732556
132	0xbe5c9f4f	-0.21545146
133	0x3da7aa8d	0.08186827
134	0xbcf11c16	-0.029432338
135	0xbc145083	-0.009052399
136	0x3de5eacb	0.11226424
137	0x3e9a3500	0.3011856
138	0xbe344ec4	-0.17608172
139	0x3d8388d0	0.06422579
140	0x3d8cbe58	0.06872243
141	0x3d3792d6	0.044817768
142	0xbc804f76	-0.01566289
143	0x3dc641c8	0.096805155
144	0x3c973e25	0.01846225
145	0x3d892869	0.06697161
146	0x3dbb85f1	0.09156407
147	0x3d961043	0.073273204
148	0x3b194270	0.0023385547
149	0xbe573324	-0.21015602
150	0x3e7f4992	0.24930409
151	0xbcf3dab7	-0.029767377
152	0xbda53163	-0.080660604
153	0x3c84a55e	0.016192134
154	0xbdc248aa	-0.09486516
155	0xbd8b0644	-0.067883044
156	0x3e4388c5	0.19095142
157	0xbe1c7863	-0.15280299
158	0x3daad9bd	0.083423115
159	0x3db76328	0.089544594
160	0xbd26ce35	-0.040723998
161	0x3d2a5dea	0.04159347
162	0xbd34076e	-0.043952398
163	0xbe8c3fef	-0.27392527
164	0x3b305bf3	0.0026910275
165	0x3c5c710e	0.013454689
166	0x3e1009fe	0.14066312
167	0x3dccb9a6	0.09996347
168	0xbdeae5d4	-0.114696175
169	0xbe909a04	-0.28242505
170	0x3d585a5d	0.052820552
171	0xbeacf3bc	-0.33779705
172	0xbce6d755	-0.02817885
173	0xbcb6f1f4	-0.02233217
174	0xbe02da78	-0.12778652
175	0xbe8395f7	-0.25700352
176	0xbd206be3	-0.03916539
177	0xbd448bd0	-0.047984898
178	0x3d2ad1b8	0.04170391
179	0x3df648e3	0.12025621
180	0xbe9401f9	-0.28907755
181	0xbdd9968d	-0.106244184
182	0x3ccda937	0.025105102
183	0xbdf75a98	-0.12077826
184	0x3cd4a9e1	0.02595991
185	0xbd699edc	-0.057036266
186	0xba77a5c7	-0.0009447005
187	0xbcb6e492	-0.022325788
188	0x3e160c1d	0.14653058
189	0xbd2d78c3	-0.042351495
190	0xbd84d996	-0.06486814
191	0x3d673116	0.056443296
192	0xbd28d0da	-0.0412148
193	0xbdd0fd9b	-0.102046214
194	0x3dd045b9	0.101695485
195	0xbe4fa49c	-0.20277637
196	0xbd0129a5	-0.031533856
197	0x3e48d95d	0.19614168
198	0xbdd39938	-0.103319585
199	0xbce68138	-0.028137788
200	0xbe2395ff	-0.15975188
201	0x3d99a8a7	0.07502871
202	0x3cccb99c	0.02499085
203	0xbd0049d3	-0.031320404
204	0xbda36fe2	-0.07980324
205	0xbd9998b1	-0.07499827
206	0xbdaf7d1e	-0.08568786
207	0xbdfa83ec	-0.12232193
208	0xbdac7782	-0.08421232
209	0xbd294ee9	-0.04133502
210	0xbdd1f01a	-0.10250874
211	0x3e3930c8	0.18085015
212	0xbcf39385	-0.029733429
213	0xbd6d1eb9	-0.057890628
214	0x3db9a72e	0.0906509
215	0xbea9890c	-0.3311237
216	0xbac21acd	-0.0014809013
217	0x3c1a970b	0.0094354255
218	0xbd401a17	-0.04689988
219	0x3cd560be	0.026047107
220	0xbe987bf8	-0.2978208
221	0x3cfde1f3	0.03099153
222	0x3d641445	0.055683393
223	0x3b86cd8d	0.004113859
224	0xbbe57a93	-0.0070031374
225	0xbd5687a0	-0.052375436
226	0x3e0065bd	0.1253881
227	0xbc28dcf0	-0.010306582
228	0xbda34609	-0.079723425
229	0xbddced9a	-0.107875064
230	0xbd36dae6	-0.04464235
231	0xbeb4229f	-0.35182664
232	0x3e386159	0.18005885
233	0xbd06ea7d	-0.03293847
234	0xbd894cf8	-0.06704134
235	0xbc973bca	-0.018461127
236	0xbcb306d1	-0.021853836
237	0x3d29490e	0.041329436
238	0x3ce60b8b	0.028081676
239	0xbb561855	-0.0032668312
240	0xbe6b80e5	-0.22998388
241	0x3d7221d5	0.059114296
242	0x3d3deb30	0.04636687
243	0x3e94924b	0.29017863
244	0x3d93d52f	0.07218396
245	0xbda700dc	-0.08154461
246	0x3d13e8ce	0.03611069
247	0x3d7cf8b3	0.061760616
248	0x3df4ae8a	0.11947353
249	0x3ce004cc	0.027346037
250	0x3dd4fa9b	0.10399362
251	0x3d0b10d1	0.033951584
252	0xbdfbe7a5	-0.12300042
253	0x3e5433cb	0.20722882
254	0x3e289c4f	0.16465877
255	0xbbdb422e	-0.006691239

fc_value.bias f4 [128]
0	0x00000000	0.0
1	0x00000000	0.0
2	0x00000000	0.0
3	0x00000000	0.0
4	0x00000000	0.0
5	0x00000000	0.0
6	0x00000000	0.0
7	0x00000000	0.0
8	0x00000000	0.0
9	0x00000000	0.0
10	0x00000000	0.0
11	0x00000000	0.0
12	0x00000000	0.0
13	0x00000000	0.0
14	0x00000000	0.0
15	0x00000000	0.0
16	0x00000000	0.0
17	0x00000000	0.0
18	0x00000000	0.0
19	0x00000000	0.0
20	0x00000000	0.0
21	0x00000000	0.0
22	0x00000000	0.0
23	0x00000000	0.0
24	0x00000000	0.0
25	0x00000000	0.0
26	0x00000000	0.0
27	0x00000000	0.0
28	0x00000000	0.0
29	0x00000000	0.0
30	0x00000000	0.0
31	0x00000000	0.0
32	0x00000000	0.0
33	0x00000000	0.0
34	0x00000000	0.0
35	0x00000000	0.0
36	0x00000000	0.0
37	0x00000000	0.0
38	0x00000000	0.0
39	0x00000000	0.0
40	0x00000000	0.0
41	0x00000000	0.0
42	0x00000000	0.0
43	0x00000000	0.0
44	0x00000000	0.0
45	0x00000000	0.0
46	0x00000000	0.0
47	0x00000000	0.0
48	0x00000000	0.0
49	0x00000000	0.0
50	0x00000000	0.0
51	0x00000000	0.0
52	0x00000000	0.0
53	0x00000000	0.0
54	0x00000000	0.0
55	0x00000000	0.0
56	0x00000000	0.0
57	0x00000000	0.0
58	0x00000000	0.0
59	0x00000000	0.0
60	0x00000000	0.0
61	0x00000000	0.0
62	0x00000000	0.0
63	0x00000000	0.0
64	0x00000000	0.0
65	0x00000000	0.0
66	0x00000000	0.0
67	0x00000000	0.0
68	0x00000000	0.0
69	0x00000000	0.0
70	0x00000000	0.0
71	0x00000000	0.0
72	0x00000000	0.0
73	0x00000000	0.0
74	0x00000000	0.0
75	0x00000000	0.0
76	0x00000000	0.0
77	0x00000000	0.0
78	0x00000000	0.0
79	0x00000000	0.0
80	0x00000000	0.0
81	0x00000000	0.0
82	0x00000000	0.0
83	0x00000000	0.0
84	0x00000000	0.0
85	0x00000000	0.0
86	0x00000000	0.0
87	0x00000000	0.0
88	0x00000000	0.0
89	0x00000000	0.0
90	0x00000000	0.0
91	0x00000000	0.0
92	0x00000000	0.0
93	0x00000000	0.0
94	0x00000000	0.0
95	0x00000000	0.0
96	0x00000000	0.0
97	0x00000000	0.0
98	0x00000000	0.0
99	0x00000000	0.0
100	0x00000000	0.0
101	0x00000000	0.0
102	0x00000000	0.0
103	0x00000000	0.0
104	0x00000000	0.0
105	0x00000000	0.0
106	0x00000000	0.0
107	0x00000000	0.0
108	0x00000000	0.0
109	0x00000000	0.0
110	0x00000000	0.0
111	0x00000000	0.0
112	0x00000000	0.0
113	0x00000000	0.0
114	0x00000000	0.0
115	0x00000000	0.0
116	0x00000000	0.0
117	0x00000000	0.0
118	0x00000000	0.0
119	0x00000000	0.0
120	0x00000000	0.0
121	0x00000000	0.0
122	0x00000000	0.0
123	0x00000000	0.0
124	0x00000000	0.0
125	0x00000000	0.0
126	0x00000000	0.0
127	0x00000000	0.0

value.weight f4 [1, 128]
0	0xbe438428	-0.19093382
1	0xbd33bc9c	-0.043881044
2	0x3c681af6	0.014166584
3	0x3df4ff18	0.11962718
4	0x3d3af2a2	0.04564155
5	0xbd615ab0	-0.055018127
6	0x3d969d25	0.07354192
7	0xbe1787c1	-0.1479788
8	0x3d68b772	0.056815572
9	0xbd8c6e32	-0.068569556
10	0x3d2bb626	0.041921757
11	0xbd7e8b45	-0.062144537
12	0x3d50f3db	0.05101381
13	0xbdea2215	-0.11432282
14	0xbe5660d2	-0.20935372
15	0x3c152a26	0.009104287
16	0x3d4d72e9	0.050158415
17	0xbddbe0cb	-0.10736235
18	0x3b9fd2a7	0.0048774066
19	0xbd0d8c78	-0.03455779
20	0x3e24765e	0.16060778
21	0xbe50cfc1	-0.20391752
22	0x3e2a526a	0.16633001
23	0xbc00706e	-0.007839305
24	0x3dcc727e	0.09982775
25	0xbe3ce8a8	-0.18448126
26	0xbe02ffd8	-0.12792909
27	0xbccfcfb2	-0.025367592
28	0xbe20fa16	-0.157204
29	0xbe24f3bd	-0.16108604
30	0x3dfcdede	0.12347196
31	0xbd8ba6d1	-0.06818927
32	0xbe42ef38	-0.19036567
33	0xbd8eac70	-0.069664836
34	0xbd0d4d56	-0.03449758
35	0x3e036104	0.12829977
36	0xbd8bb37a	-0.06821342
37	0xbe5f77b2	-0.21823004
38	0x3ceac9ea	0.028660733
39	0x3d8251b4	0.0636324
40	0x3e7436ca	0.23849025
41	0x3d1f8d44	0.03895308
42	0x3bfb6d66	0.0076729534
43	0x3dcdb4ea	0.10044272
44	0x3e8237cc	0.25433195
45	0xbcd170f3	-0.025566554
46	0xbda094ef	-0.07840907
47	0x3e555e79	0.2083682
48	0xbda392a5	-0.079869546
49	0xbd93d413	-0.07218184
50	0x3e16d033	0.14727859
51	0xbdff9868	-0.12480241
52	0xbc97cc6c	-0.018530093
53	0xbe4ac158	-0.19800317
54	0xbd5d56bb	-0.05403779
55	0xbe3ce012	-0.18444851
56	0xbe47ccf9	-0.19511785
57	0xbe2a69ce	-0.16641924
58	0xbc959cbf	-0.018263219
59	0x3d136c78	0.035992116
60	0x3d5ba9fc	0.053628907
61	0xbc96ea0a	-0.018422145
62	0x3da3ca46	0.07997565
63	0xbea103b7	-0.31448147
64	0xbbf36817	-0.00742818
65	0x3da6933d	0.08133552
66	0x3d271840	0.04079461
67	0x3de6acd8	0.11263436
68	0x3ddbbf8c	0.10729894
69	0xbc9b1ee2	-0.018935625
70	0xbd766d04	-0.06016256
71	0x3e49ea0f	0.19718193
72	0xbb891a30	-0.00418403
73	0x3e219ae3	0.15781741
74	0xbe0a3cac	-0.13499707
75	0x3d849610	0.06473935
76	0xbe577e0d	-0.21044178
77	0x3d80f202	0.06296159
78	0xbdefd93b	-0.11711355
79	0xbe4841e7	-0.1955639
80	0xbe40dbfb	-0.18833916
81	0x3da8f189	0.08249194
82	0x3e5bed85	0.21477325
83	0x3c2fb9b6	0.010725429
84	0xbc194908	-0.009355791
85	0xbcaa332e	-0.020776358
86	0xbe04db0f	-0.12974189
87	0xbd7efca5	-0.06225266
88	0xbe8682b7	-0.26271603
89	0x3e36c98e	0.17850325
90	0x3bd53e38	0.006507661
91	0xbe05805c	-0.13037246
92	0x3e056924	0.13028389
93	0x3d0cd585	0.034383316
94	0xbe34be04	-0.1765061
95	0xbe3019a6	-0.17197284
96	0xbca92605	-0.020648012
97	0xbdfd73c8	-0.12375599
98	0x3e9955e5	0.29948345
99	0xbe193749	-0.14962496
100	0x3d23065f	0.039800998
101	0xbe831c05	-0.25607315
102	0xbc1c6486	-0.009545451
103	0x3e164ab2	0.14676932
104	0xbc9247f8	-0.017856583
105	0xbd24e7f7	-0.04026028
106	0xbdab78b3	-0.08372631
107	0xbdcbf5a6	-0.09958963
108	0x3da9adea	0.082851246
109	0x3e03fc43	0.12889199
110	0x3d0c4508	0.03424552
111	0xbdb06414	-0.086128384
112	0xbdca04c3	-0.098641895
113	0x3979a9f5	0.00023809804
114	0x3d986ca8	0.074425995
115	0x3cc22030	0.023696989
116	0x3dd28efa	0.10281177
117	0x3d32c853	0.043648075
118	0x3d5f903d	0.054580916
119	0xbd53aa00	-0.051675797
120	0xbe124841	-0.14285375
121	0x3d2b3a87	0.041803863
122	0xbe11154e	-0.14168283
123	0x3e21983b	0.15780728
124	0x3e0461b2	0.12927893
125	0x3e39f54e	0.18159983
126	0xbe64f63b	-0.22359554
127	0x3d0f2b66	0.034953497

fc_adv.weight f4 [128, 128]
0	0xbe80369d	-0.25041667
1	0xbd22c4cd	-0.039738465
2	0x3e3369d2	0.17520836
3	0x3d130010	0.03588873
4	0x3e083698	0.13302076
5	0xbe531462	-0.20613244
6	0xbe2004b8	-0.156268
7	0x3d5e1958	0.05422339
8	0x3dac2151	0.08404792
9	0xbd6c6c16	-0.057720266
10	0xbd71770e	-0.05895143
11	0x3ce56d6f	0.028006284
12	0xbd122b20	-0.03568566
13	0xbd8b66e3	-0.068067335
14	0xbd9850eb	-0.07437309
15	0x3d1840e1	0.03717125
16	0x3e02e788	0.12783635
17	0xbd8072cf	-0.06271898
18	0xbe102e66	-0.140802
19	0xbd2aca2d	-0.041696716
20	0xbd6c08f7	-0.057625737
21	0xbd5eec94	-0.054424837
22	0x3e89a9da	0.268874
23	0x3e16e010	0.1473391
24	0xbdbff97a	-0.09373756
25	0x3e026569	0.12733997
26	0x3da5d5a9	0.08097393
27	0x3e580ed7	0.21099411
28	0xbdd7035e	-0.10498689
29	0xbd1ea89f	-0.03873503
30	0xbe018b48	-0.12650788
31	0xbbb9e83c	-0.0056734364
32	0xbd64345e	-0.055714004
33	0x3c035ae2	0.008017274
34	0xbe6ec204	-0.23316199
35	0xbe208f98	-0.15679777
36	0x3d664222	0.056215413
37	0xbc48c781	-0.012254597
38	0x39ab5f06	0.0003268646
39	0xbc9e6d37	-0.019339187
40	0xbe21dac6	-0.15806112
41	0x3e16c5cc	0.14723891
42	0x3d103584	0.035207286
43	0xbe8bbba6	-0.27291602
44	0xbe038945	-0.12845333
45	0xbd5a7b84	-0.05334045
46	0xbd9bf560	-0.07615161
47	0xbdc0c5b2	-0.094127074
48	0x3d1451ce	0.036210828
49	0x3d4383de	0.04773318
50	0x3defd9df	0.117114775
51	0xbe15cb0f	-0.14628242
52	0xbca5f866	-0.020260047
53	0xbd8e4b82	-0.06947996
54	0x3e07e133	0.132695
55	0xbd10ed09	-0.035382304
56	0x3d7b8949	0.061410222
57	0x3d952a97	0.07283514
58	0x3e50e411	0.203995
59	0xbd12c377	-0.03583094
60	0xbe05de28	-0.13073027
61	0xbd7eccbd	-0.062206972
62	0x3e1f655e	0.15566012
63	0xbc0ee9fe	-0.00872278
64	0x3e0253ef	0.1272733
65	0xbe0fca6f	-0.14042066
66	0xbd97dd3a	-0.074152425
67	0xbdd2f53b	-0.1030068
68	0x3e0dccfc	0.13847727
69	0x3e52d922	0.20590642
70	0x3e39e66b	0.18154304
71	0xbc9bceab	-0.019019445
72	0x3ddb7e46	0.10717444
73	0xbdff2211	-0.124576695
74	0xbd82605c	-0.06366035
75	0xbccc5ec9	-0.02494754
76	0x3ca27526	0.019831251
77	0x3d1517e7	0.03639975
78	0xbe4235f8	-0.189659
79	0xbcdc6189	-0.026901977
80	0x3c7caca0	0.015422016
81	0xbe2b8263	-0.16748957
82	0x3c5ab1dd	0.01334807
83	0xbd2eae68	-0.042646796
84	0x3c787ec3	0.015166941
85	0xbda22c87	-0.07918649
86	0x3ed33c91	0.41257146
87	0xbc1ed394	-0.009693999
88	0x3e0259d6	0.12729582
89	0x3b9cee2f	0.004789136
90	0x3da9cdb1	0.08291186
91	0xbec7ba51	-0.39009336
92	0xbc3885e4	-0.011262391
93	0xbc926c2d	-0.017873848
94	0x3e6155ad	0.22005339
95	0x3dbc2e17	0.091884784
96	0x3e6197fc	0.22030634
97	0x3d820acd	0.06349716
98	0x3c425f3c	0.011863526
99	0x3dfd0ebb	0.12356325
100	0x3d9fb485	0.07798103
101	0x3dc9080c	0.09815988
102	0xbe024aa3	-0.12723784
103	0x3e1be6c5	0.1522475
104	0xbdb29307	-0.087194495
105	0xbe1b33e6	-0.15156516
106	0x3cbdc888	0.02316691
107	0xbd201684	-0.039083973
108	0xbdc0bf5a	-0.094114974
109	0x3e2f16ec	0.17098588
110	0xbde83098	-0.113373935
111	0x3e21495b	0.15750639
112	0xbd17ecbb	-0.037091
113	0x3e3e99f4	0.18613416
114	0xbe5aff00	-0.21386337
115	0xbe78a2de	-0.24280879
116	0x3e3d0dbb	0.18462269
117	0xbdb5012f	-0.088381164
118	0xbe507f5c	-0.20361084
119	0xbc885509	-0.01664211
120	0x3cd640b7	0.026153905
121	0xbddd1d58	-0.107966125
122	0x3d831e3d	0.06402252
123	0x3da37c02	0.07982637
124	0x3d0fd1bf	0.03511214
125	0xbb31dbe3	-0.002713912
126	0xbd498bde	-0.049205653
127	0xbcdec25f	-0.027192293
128	0xbdf71e9f	-0.120663874
129	0x3d37c88e	0.044869
130	0xbdb54317	-0.08850687
131	0xbe05e1de	-0.13074443
132	0xbe4541e6	-0.1926342
133	0xbdd88ecd	-0.10574112
134	0xbd9d47d5	-0.076797165
135	0xbd9a046d	-0.075203754
136	0x3e246a9c	0.16056293
137	0x3dff4365	0.12464026
138	0x3d7f3387	0.062305
139	0xbe3bd254	-0.18341953
140	0x3d134eb9	0.035963748
141	0xbd858e1d	-0.065212466
142	0x3d5a1276	0.053240262
143	0x3cb6cbf2	0.022314046
144	0xbddd9f79	-0.108214326
145	0xbb91526b	-0.004434874
146	0xbd603830	-0.054741085
147	0x3d6591b7	0.056047168
148	0x3d65292f	0.05594748
149	0x3e3a938c	0.18220347
150	0xbdedec97	-0.116173916
151	0x3e7fa5f4	0.2496565
152	0x3e34b110	0.17645669
153	0xbe08c3c2	-0.13355926
154	0xbe6b7429	-0.2299353
155	0x3de2cee5	0.11074618
156	0x3d83335b	0.0640628
157	0xbdab85b6	-0.08375113
158	0x3cdb906d	0.026802266
159	0x3d894217	0.06702059
160	0x3e63108f	0.22174285
161	0x3e14a5a5	0.14516313
162	0x3e4ac4c3	0.19801621
163	0x3e0781ab	0.13233058
164	0xbd739cb8	-0.05947563
165	0x3e879aee	0.2648539
166	0x3de93ef2	0.11388959
167	0x3e08c69a	0.1335701
168	0x3d968d6f	0.07351195
169	0xbd751891	-0.05983788
170	0x3e8e203b	0.27758965
171	0x3db192da	0.08670588
172	0xbde36a29	-0.11104233
173	0xb9ae19a6	-0.00033206976
174	0xbd810122	-0.06299044
175	0xbd1bfaac	-0.038080856
176	0xbe05ad1a	-0.13054314
177	0xbdc27d62	-0.09496571
178	0xbe16648b	-0.14686792
179	0xbe0b1c68	-0.13585055
180	0x3e40b89d	0.18820424
181	0xbe17997f	-0.14804648
182	0xbd9ed337	-0.0775513
183	0xbd31b74c	-0.043387696
184	0x3d639c40	0.055568933
185	0x3c404211	0.011734501
186	0xbd8bd09c	-0.068268985
187	0x3d93d2f6	0.07217972
188	0xbd7a44dd	-0.06110083
189	0x3e20ec3a	0.15715113
190	0x3da5c3a2	0.080939546
191	0x3cb527b2	0.022113655
192	0x3d6f77cf	0.058463868
193	0x3e2f7836	0.171357
194	0xbdf9b11c	-0.12191984
195	0x3d21072b	0.039313477
196	0xbd918466	-0.07105331
197	0x3e8d1825	0.27557483
198	0x3dbeefce	0.09323083
199	0xbc842f8a	-0.01613595
200	0x3e523630	0.20528483
201	0xbd485366	-0.04890766
202	0xbda83f89	-0.08215243
203	0xbe8831f6	-0.26600617
204	0x3e6a9ce0	0.22911406
205	0x3e38fd17	0.18065296
206	0x3c1bf53b	0.009518917
207	0x3d3fc6a3	0.046820294
208	0xbd5b8533	-0.053593826
209	0x3d933162	0.071871534
210	0x3c6a06d0	0.014283851
211	0xbdba49af	-0.09096085
212	0xbcf19694	-0.029490747
213	0x3d30c7a2	0.043159135
214	0xbe01bc5e	-0.12669513
215	0xbcb010ae	-0.021492328
216	0xbd81ea63	-0.06343534
217	0xbd257a7e	-0.04040002
218	0x3e5760de	0.21033046
219	0xbe9db4d3	-0.3080202
220	0xbe488ebb	-0.19585697
221	0xbd4c4d50	-0.04987842
222	0x3d8ee910	0.06978047
223	0xbe5561ba	-0.20838061
224	0x3d9f56bc	0.07780215
225	0x3e5fc0be	0.21850869
226	0x3e08c0c2	0.13354781
227	0xbe3c9e9a	-0.18419877
228	0xbe60ebc2	-0.21964934
229	0x3dae6ace	0.08516465
230	0x3dd7ecb8	0.105431974
231	0xbe8f053f	-0.2793369
232	0xbe231ad0	-0.15928197
233	0xbde43f21	-0.111448534
234	0xbdfc5dd9	-0.123225875
235	0xbd37fa5c	-0.044916496
236	0xbd9ace97	-0.07558935
237	0x3d41b99e	0.04729616
238	0x3d3c5494	0.045979097
239	0xbd5fd022	-0.05464185
240	0x3dac207a	0.08404632
241	0xb9dcdc9c	-0.00042126037
242	0x3d1b1e62	0.037870772
243	0xbd5e5381	-0.054278854
244	0x3da75ca7	0.08171969
245	0x3d636e58	0.055525154
246	0x3d9e9acb	0.07744368
247	0xbc401530	-0.0117238015
248	0xbdf75bfb	-0.12078091
249	0xbd4d893f	-0.050179716
250	0x3c9364da	0.017992426
251	0x3c067a05	0.008207803
252	0x3e4b259c	0.19838566
253	0x3d307444	0.04307963
254	0xbd93d526	-0.07218389
255	0x3bea9a8d	0.007159537

fc_adv.bias f4 [128]
0	0x00000000	0.0
1	0x00000000	0.0
2	0x00000000	0.0
3	0x00000000	0.0
4	0x00000000	0.0
5	0x00000000	0.0
6	0x00000000	0.0
7	0x00000000	0.0
8	0x00000000	0.0
9	0x00000000	0.0
10	0x00000000	0.0
11	0x00000000	0.0
12	0x00000000	0.0
13	0x00000000	0.0
14	0x00000000	0.0
15	0x00000000	0.0
16	0x00000000	0.0
17	0x00000000	0.0
18	0x00000000	0.0
19	0x00000000	0.0
20	0x00000000	0.0
21	0x00000000	0.0
22	0x00000000	0.0
23	0x00000000	0.0
24	0x00000000	0.0
25	0x00000000	0.0
26	0x00000000	0.0
27	0x00000000	0.0
28	0x00000000	0.0
29	0x00000000	0.0
30	0x00000000	0.0
31	0x00000000	0.0
32	0x00000000	0.0
33	0x00000000	0.0
34	0x00000000	0.0
35	0x00000000	0.0
36	0x00000000	0.0
37	0x00000000	0.0
38	0x00000000	0.0
39	0x00000000	0.0
40	0x00000000	0.0
41	0x00000000	0.0
42	0x00000000	0.0
43	0x00000000	0.0
44	0x00000000	0.0
45	0x00000000	0.0
46	0x00000000	0.0
47	0x00000000	0.0
48	0x00000000	0.0
49	0x00000000	0.0
50	0x00000000	0.0
51	0x00000000	0.0
52	0x00000000	0.0
53	0x00000000	0.0
54	0x00000000	0.0
55	0x00000000	0.0
56	0x00000000	0.0
57	0x00000000	0.0
58	0x00000000	0.0
59	0x00000000	0.0
60	0x00000000	0.0
61	0x00000000	0.0
62	0x00000000	0.0
63	0x00000000	0.0
64	0x00000000	0.0
65	0x00000000	0.0
66	0x00000000	0.0
67	0x00000000	0.0
68	0x00000000	0.0
69	0x00000000	0.0
70	0x00000000	0.0
71	0x00000000	0.0
72	0x00000000	0.0
73	0x00000000	0.0
74	0x00000000	0.0
75	0x00000000	0.0
76	0x00000000	0.0
77	0x00000000	0.0
78	0x00000000	0.0
79	0x00000000	0.0
80	0x00000000	0.0
81	0x00000000	0.0
82	0x00000000	0.0
83	0x00000000	0.0
84	0x00000000	0.0
85	0x00000000	0.0
86	0x00000000	0.0
87	0x00000000	0.0
88	0x00000000	0.0
89	0x00000000	0.0
90	0x00000000	0.0
91	0x00000000	0.0
92	0x00000000	0.0
93	0x00000000	0.0
94	0x00000000	0.0
95	0x00000000	0.0
96	0x00000000	0.0
97	0x00000000	0.0
98	0x00000000	0.0
99	0x00000000	0.0
100	0x00000000	0.0
101	0x00000000	0.0
102	0x00000000	0.0
103	0x00000000	0.0
104	0x00000000	0.0
105	0x00000000	0.0
106	0x00000000	0.0
107	0x00000000	0.0
108	0x00000000	0.0
109	0x00000000	0.0
110	0x00000000	0.0
111	0x00000000	0.0
112	0x00000000	0.0
113	0x00000000	0.0
114	0x00000000	0.0
115	0x00000000	0.0
116	0x00000000	0.0
117	0x00000000	0.0
118	0x00000000	0.0
119	0x00000000	0.0
120	0x00000000	0.0
121	0x00000000	0.0
122	0x00000000	0.0
123	0x00000000	0.0
124	0x00000000	0.0
125	0x00000000	0.0
126	0x00000000	0.0
127	0x00000000	0.0

advantage.weight f4 [2, 128]
0	0x3cf8e5bf	0.030382989
1	0xbe4b5d4b	-0.19859807
2	0xbe1a4d0c	-0.15068454
3	0xbe40daf2	-0.18833521
4	0x3e16ed1b	0.14738886
5	0x3e6923f6	0.22767624
6	0xbdc6fb90	-0.097159505
7	0xbd62aa88	-0.055338413
8	0xbd9e145d	-0.07718728
9	0xbdd639f8	-0.104602754
10	0xbddcb458	-0.10776585
11	0x3d59c07c	0.053162083
12	0x3e523e03	0.20531468
13	0x3d42d910	0.04757029
14	0x3caad418	0.020853087
15	0x3dd78790	0.10523903
16	0xbe0ecaf7	-0.13944612
17	0x3da656b1	0.08122004
18	0xbd5eb9f7	-0.05437657
19	0x3cf05187	0.02933575
20	0xbe4b41d0	-0.19849324
21	0x3dd0e7b6	0.10200445
22	0xbb6e8611	-0.0036395828
23	0xbe163013	-0.14666776
24	0x3df8692f	0.12129437
25	0xbdd16ad2	-0.102254525
26	0x3d911f6e	0.07086073
27	0x3e0134f0	0.1261785
28	0x3ddbeea4	0.107388765
29	0xbe92636b	-0.28591475
30	0x3ba0a8bb	0.0049029267
31	0xbd2c169f	-0.04201376
32	0xbd31c894	-0.043404177
33	0xbd8a4f24	-0.06753376
34	0x3cd870b4	0.026420929
35	0x3da4ff6b	0.080565296
36	0x3d8853a3	0.066565774
37	0xbcd1bcfa	-0.025602806
38	0x3e690bd0	0.22758412
39	0xbd6c0c5e	-0.05762898
40	0x3ea96593	0.33085307
41	0x3d719e03	0.058988582
42	0xbdf3619c	-0.11883852
43	0x3cca6cdc	0.024710111
44	0x3dd1fccb	0.102532946
45	0x3ddf30b1	0.10897959
46	0xbc98d390	-0.018655568
47	0xbe11f85c	-0.14254898
48	0xbdb15217	-0.086582355
49	0x3d33141c	0.04372035
50	0x3e8c93ba	0.27456456
51	0x3dbf9491	0.09354509
52	0x3e43bacc	0.19114226
53	0x3cc8aca1	0.024496378
54	0x3b679287	0.003533514
55	0xbdc65b19	-0.09685344
56	0x3d92c123	0.07165744
57	0xbdbd6658	-0.09248036
58	0x3bff6fbe	0.007795303
59	0x3ce3dd8d	0.027815605
60	0xbaaf7aa2	-0.0013387988
61	0x3c35f428	0.011105575
62	0xbda443a4	-0.08020714
63	0xbccf61d2	-0.025315199
64	0xbd4a215c	-0.04934822
65	0x3c6e9971	0.0145629505
66	0xbd33d608	-0.043905288
67	0xbdc35029	-0.09536774
68	0xbdc51c7d	-0.09624574
69	0x3e55c652	0.20876434
70	0x3dd57e60	0.10424495
71	0xbe13b8f8	-0.14426029
72	0x3dead99c	0.11467287
73	0xbe570150	-0.20996594
74	0xbd4eca7d	-0.050486077
75	0xbde7f89b	-0.113267146
76	0xbd50714e	-0.050889306
77	0xbebd3111	-0.36951497
78	0x3e3608ce	0.17776796
79	0xbdbc8a0c	-0.09206018
80	0xbe7758af	-0.24154924
81	0xbe1b933e	-0.15192887
82	0x3d4b183f	0.04958367
83	0xbd59e5c2	-0.05319763
84	0xbe02da1f	-0.12778519
85	0xbe780a28	-0.24222624
86	0xbd1b94bf	-0.037983652
87	0xbc0f9547	-0.008763618
88	0xbd0ba6a8	-0.034094483
89	0x3e2ca8b8	0.16861236
90	0xbd3b5ab8	-0.045740813
91	0x3a99de5b	0.0011739241
92	0x3e21e1c3	0.15808778
93	0xbdf2a99f	-0.11848759
94	0xbe1626d2	-0.14663246
95	0x3e0e750c	0.13911837
96	0xbdfcd9e4	-0.12346247
97	0x3d9fd02c	0.078033775
98	0xbd042519	-0.03226194
99	0x3e183ec4	0.14867693
100	0x3e053cb1	0.13011433
101	0xbd4958a1	-0.04915679
102	0x3d803c93	0.062615536
103	0x3d251565	0.040303607
104	0xbc8c498e	-0.017124917
105	0xbd99d7ce	-0.075118646
106	0xbe8c5224	-0.27406418
107	0x3d26571b	0.040610414
108	0xbdf7addf	-0.1209371
109	0x3de71dda	0.112849906
110	0xbda68b09	-0.081319876
111	0xbda1ef48	-0.079069674
112	0x3e7be7a5	0.24600084
113	0xbd407e95	-0.046995718
114	0xbcafbb4d	-0.021451617
115	0xbe8fd695	-0.280934
116	0x3e42f83f	0.19040011
117	0x3e1f4688	0.1555425
118	0xbd06993d	-0.032860983
119	0x3d897875	0.067124285
120	0xbe1a8891	-0.15091158
121	0xbc66ebb3	-0.014094281
122	0xbda7a83e	-0.081863865
123	0xbde3e37b	-0.11127373
124	0xbd18048f	-0.037113722
125	0x3d083d81	0.03326178
126	0x3db08ec7	0.086209826
127	0xbd3ebbf4	-0.046565965
128	0x3e25dbd0	0.16197133
129	0xbe02e68f	-0.12783264
130	0x3d4eb40b	0.05046467
131	0xbdd68920	-0.10475373
132	0xbc6c7206	-0.014431482
133	0x3e8a9138	0.27063918
134	0x3dcba81d	0.099441744
135	0xbde405d3	-0.111339234
136	0x3e380e4f	0.17974208
137	0x3cc52dc6	0.024069678
138	0x3dd9826c	0.10620579
139	0x3de160c1	0.110047825
140	0xbdf5871a	-0.11988659
141	0xbdca6474	-0.09882441
142	0xbe25bf47	-0.16186248
143	0x3d0d5be4	0.03451146
144	0xbdcce12d	-0.10003886
145	0xbe2469af	-0.1605594
146	0x3e16c2e5	0.14722784
147	0xbdd2ca23	-0.10292461
148	0xbd3bf016	-0.04588326
149	0xbe4ac259	-0.198007
150	0x3e15c4f8	0.14625919
151	0xbd2a0de5	-0.041517157
152	0x3d9b3b65	0.07579688
153	0x3bd46dfb	0.0064828373
154	0x3c2e56f5	0.010640849
155	0x3e5dd5ba	0.21663561
156	0xbcb37546	-0.021906506
157	0xbe03d512	-0.12874249
158	0xbc2d9cdc	-0.01059648
159	0x3e5d9a47	0.21640883
160	0x3e49647e	0.19667241
161	0xbdce46fe	-0.100721344
162	0xbce7bc78	-0.028288111
163	0x3e0b2a9c	0.13590473
164	0x3e35b599	0.17745055
165	0x3df2a64f	0.11848127
166	0xbdc1e6d1	-0.09467853
167	0xbe5448b8	-0.20730865
168	0x3e84b5b3	0.25919876
169	0xbc3f6c70	-0.011683568
170	0xbd397623	-0.04527868
171	0x3d992d59	0.074793525
172	0xbde7c54f	-0.113169305
173	0xbe0f1619	-0.13973273
174	0xbe4fc5fc	-0.20290369
175	0xbc8370ce	-0.016045
176	0x3e0c0d71	0.13677002
177	0x3de00a63	0.10939481
178	0xbdc51ac3	-0.09624245
179	0x3daf1d1c	0.08550474
180	0x3dceba09	0.10094077
181	0x3d84d4be	0.0648589
182	0x3e713fa4	0.23559433
183	0x3b35d874	0.0027747424
184	0xbddf78d4	-0.10911718
185	0xbd4f4319	-0.0506011
186	0x3e373e35	0.17894824
187	0x3dc58d10	0.09646046
188	0x3d51a162	0.051179297
189	0xbdb3c6c4	-0.08778146
190	0xbdf3db9a	-0.1190712
191	0xbe67e11f	-0.2264447
192	0xbd918966	-0.07106285
193	0x3bfc4b8f	0.007699437
194	0x3c8c83d3	0.017152702
195	0xbe2b0d0b	-0.16704194
196	0x3dfb0263	0.122563146
197	0xbe474933	-0.19461517
198	0x3e83062f	0.25590655
199	0xbd8ea442	-0.069649234
200	0xbe75ab4b	-0.23991124
201	0xbc66fdc0	-0.014098585
202	0x3d24b8e4	0.040215388
203	0x3c9566a1	0.018237414
204	0x3e5702b9	0.20997132
205	0x3e62b78e	0.22140333
206	0xbe48b396	-0.19599757
207	0xbd403623	-0.04692663
208	0x3dc8ded6	0.098081276
209	0x3daa570c	0.08317384
210	0x3e0b68cb	0.13614194
211	0x3e7cb1b8	0.2467717
212	0x39c1ac07	0.0003694
213	0xbb3aed2f	-0.002852272
214	0x3cb9e545	0.022692332
215	0x3bc1e166	0.005916762
216	0xbe2a868c	-0.16652888
217	0x3d640029	0.055664215
218	0xbd89401b	-0.0670168
219	0xbdadb26e	-0.084812984
220	0xbe226e29	-0.15862335
221	0xbe2d8ec7	-0.16948996
222	0xbdb46521	-0.08808351
223	0x3d128087	0.035767104
224	0x3de631d2	0.11239971
225	0xbbb80190	-0.0056154206
226	0x3d00deed	0.0314626
227	0xbd4eb82e	-0.050468616
228	0xbb8c42a3	-0.0042804047
229	0x3dfc574f	0.1232134
230	0x3da319f7	0.07963937
231	0xbde74e6a	-0.11294253
232	0xbe4534c1	-0.19258405
233	0x3db53188	0.08847338
234	0x3c6636c6	0.014051145
235	0xbdbf27b2	-0.09333743
236	0xbd803cac	-0.06261572
237	0xbe5e7461	-0.21724083
238	0x3e50509f	0.20343255
239	0xbdddf73a	-0.1083817
240	0x3d8d81b1	0.06909502
241	0x3e0ee2c8	0.13953698
242	0x3dd164f8	0.102243364
243	0xbe081b0a	-0.13291565
244	0x3d5e4f0f	0.054274615
245	0xba92d374	-0.0011201934
246	0x3e4b45d2	0.19850853
247	0x3d57d1d5	0.052690346
248	0x3d9fd8ca	0.07805021
249	0xbe65fb72	-0.224592
250	0x3c7f2437	0.015572599
251	0xbd41551f	-0.04720032
252	0x3d9bf265	0.076145925
253	0xbd497f75	-0.049193818
254	0xbd2ba423	-0.04190458
255	0xbd0440d9	-0.032288406

advantage.bias f4 [2]
0	0x00000000	0.0
1	0x00000000	0.0
