Project/output/norm/ddqn_duel_test/final_model.pth (torch, 826217 bytes, 44 tensors)

fc1.weight f4 [128, 4]
000000 c3 b9 27 3d 00 54 2a bc 2c 75 85 3f 4c 37 14 3e
       0.04094864 -0.010396004 1.0426383 0.14474219
000010 df 79 41 bd 8c 49 bb 3a 79 d8 ae 3d ae 3b 2c bd
       -0.047235366 0.0014288886 0.08537383 -0.042049102
000020 7f 47 c6 bc 76 d1 ab bc 65 df 9d be 7d 95 05 bd
       -0.024204014 -0.020973902 -0.308345 -0.032613266
000030 29 e4 9e bd 3a 5d e9 3c c5 0f 99 3e 8d 52 d0 bc
       -0.07758362 0.028486837 0.29894844 -0.025429988
000040 5b 39 ec bd 3c 23 c5 bc f2 c2 63 bd a7 7a 7b bd
       -0.11534377 -0.024064653 -0.055605836 -0.061396267
000050 16 69 f6 bd 74 3e 47 3d 6f e3 83 3f ca 17 fe 3d
       -0.12031762 0.048643544 1.0303782 0.12406881
000060 85 ef a6 3c f9 9d 18 3e fe c7 12 3f ef 68 7a 3e
       0.020377884 0.14904012 0.57336414 0.24454091
000070 b9 62 4b bd d8 fe 19 3c 31 43 3b be af 14 95 bc
       -0.049654696 0.009399138 -0.1828735 -0.01819834
000080 5b 0e 31 bc 6c c7 15 3c d5 ce 9f 3e 11 5f b2 39
       -0.010806645 0.009141784 0.31212488 0.00034021636
000090 39 e0 ac 3c 4e f4 69 bd e0 3b 88 bf ff c8 1e be
       0.021103011 -0.057117753 -1.0643272 -0.15506361
0000a0 6d 41 31 3e 2f 8c b8 3d 2e f4 9e 3e 57 ba 95 3d
       0.17310114 0.09011113 0.3104567 0.07310932
0000b0 96 25 05 37 52 f2 89 bd 1c b7 a6 be 6e 00 c9 bd
       7.936169e-06 -0.06735672 -0.32561576 -0.09814535
0000c0 43 9b 0b bd e2 34 c9 3c 32 b6 85 3e ac e5 31 bb
       -0.034083616 0.02456135 0.26115566 -0.0027144952
0000d0 23 3c 1a 3e f5 7d 11 3e 31 33 23 3f 78 2b 2d 3e
       0.15062003 0.14208205 0.63749987 0.16911113
0000e0 cb 4d 65 bd 71 7e 2a bc 13 9f ad bc 2c ae f8 bc
       -0.055982392 -0.010406123 -0.021194017 -0.03035649
0000f0 f6 ca 72 be 01 81 78 be 84 6e 63 bf 4e 9a 7e be
       -0.23710236 -0.24267961 -0.8884051 -0.2486355
000100 cc 0f 89 3d 11 8b bf bd 1f 4d 16 bf 60 79 d3 bd
       0.06692466 -0.09352697 -0.5871143 -0.10325885
000110 9e 2c ae 3d c0 d8 90 bd cf 48 57 bf ea c5 ef bd
       0.08504604 -0.07072592 -0.8409547 -0.11707671
000120 16 d3 77 bb e9 e5 90 bc ab 0e 5b 3f 44 f2 6e 3e
       -0.0037815026 -0.017687755 0.85569257 0.23334605
000130 de 3e 89 be 8e 59 b3 bd 79 d5 67 bf f9 8b 65 bd
       -0.26805776 -0.087573156 -0.9056011 -0.05604169
000140 5c ea 24 3e 51 f1 43 3d 6f 82 0a 3e 5c b3 21 3d
       0.16105026 0.04783756 0.13526319 0.03947769
000150 ff fb 50 be 1b 71 d3 3d da ba ce 3e 70 2c d1 3d
       -0.20408629 0.103243075 0.4037693 0.10213554
000160 96 78 90 bc b5 16 c3 bd 03 c4 7d bf d6 6d 60 be
       -0.017635625 -0.095258154 -0.99127215 -0.21916899
000170 94 b6 aa bc 4d 7d f8 3a 95 77 89 3f a4 cb 4e 3e
       -0.020839013 0.0018958241 1.0739619 0.2019487
000180 a8 44 8d be 1b 0d 59 3e 1e 54 49 be f3 64 b6 3d
       -0.27591443 0.21196406 -0.19660994 0.08905973
000190 37 13 ec 3a 91 99 2d bd 22 7d db 3d 5a 3d 81 bd
       0.0018011098 -0.04238278 0.107172266 -0.0631053
0001a0 83 7c 0f bc 6d 2e 13 3e 53 f8 d6 3e 7f 97 4b 3e
       -0.008757713 0.14373179 0.4198633 0.1988201
0001b0 35 1c 14 bd ef 8f b0 bd ef 16 b8 be 14 9e bf 3d
       -0.036159713 -0.08621203 -0.35954997 0.09356323
0001c0 48 12 4a 3b ad 51 3f 3e b7 43 7a 3e 66 b9 e7 3d
       0.003083365 0.186835 0.24439894 0.11314659
0001d0 0d be 0f bc 29 1c c7 3c 39 52 98 bf 42 2b cf bd
       -0.008773339 0.02430542 -1.1900092 -0.10115673
0001e0 54 ad 3c 3e c8 79 58 3e 29 17 de bd 6c 7e f7 bb
       0.18425494 0.21140206 -0.10844261 -0.0075529125
0001f0 c4 c0 0f bc 75 07 bf bd 4e b1 8e bf 87 63 57 be
       -0.008773986 -0.09327594 -1.1147859 -0.2103406
000200 fd b2 89 3e 84 79 61 3e ca 43 d8 3e 5e 78 42 3e
       0.2689437 0.22019011 0.4223922 0.18991229
000210 69 1f 47 3e 54 76 2f be 75 a5 55 be 36 8a 44 bd
       0.19445576 -0.17134982 -0.20863898 -0.04798337
000220 31 e1 1d be 12 c2 22 3d fa 32 1d bf 35 74 8b bb
       -0.15417935 0.03973586 -0.6140591 -0.0042557963
000230 49 11 4a 3c f6 5e 61 bd 0e d7 14 bf 63 cf 6b bc
       0.012333223 -0.055022202 -0.5814065 -0.014392707
000240 71 aa 93 bb 54 91 e9 3b 67 5d 35 3f d8 29 a5 3d
       -0.004506402 0.00712792 0.70845646 0.08064622
000250 bc 90 d0 3d d7 a7 04 3e aa 8c f2 be 28 84 9d 3c
       0.10183856 0.12954651 -0.47372943 0.019228056
000260 bc 1a b3 be 62 a0 70 3e 33 db ec 3d a4 b7 33 3e
       -0.34981334 0.23498681 0.115652464 0.17550522
000270 04 f2 ef 3c 4c 9f f8 bc dd 48 82 bf 07 8d 55 be
       0.029290207 -0.030349396 -1.0178486 -0.20854579
000280 4c c3 9a 3e b1 8d 1f bd 32 61 4d bf 6e 3e 51 be
       0.30227125 -0.038953487 -0.80226433 -0.20433971
000290 37 56 9d bb 3c 98 89 bd c3 68 fd bd 3e a6 9d bd
       -0.0048015374 -0.067184895 -0.12373497 -0.07697724
0002a0 02 dc 06 3f 54 8f e3 bc be f8 b6 3e 97 a3 b6 bc
       0.52679455 -0.027778305 0.3573665 -0.022294803
0002b0 75 94 5a be 07 c1 0c 3e eb 90 4b 3e ed 7a 4a 3d
       -0.21345694 0.13745509 0.198795 0.049433637
0002c0 a5 3a 28 3e e2 27 36 ba ad 6f 9d 3e 9b 17 4d 3c
       0.16428621 -0.0006948692 0.30749264 0.012517835
0002d0 29 b0 4a 3e 7b 5d 2b 3e f9 47 d4 3e 73 5e 06 3e
       0.19793762 0.16734879 0.4146116 0.13121967
0002e0 0b e1 cf bb 67 24 9e bd 68 a8 8c bf c6 92 7a be
       -0.006343966 -0.07721787 -1.0988894 -0.24470052
0002f0 da ce 57 3d 5a 15 be bc 55 37 7d bf b5 e7 58 be
       0.052687503 -0.02320354 -0.98912555 -0.21182139
000300 4e f5 0a 3e 4e d1 9d bd bf 5f b5 bd 5c 04 08 be
       0.13570139 -0.07705937 -0.08856153 -0.13282913
000310 8e c8 9b 3c f1 65 87 3b 70 54 b1 bd cd 30 dc 3c
       0.01901653 0.0041320254 -0.08658683 0.026878739
000320 a8 01 5b bc a8 a5 92 bd db 43 16 3f 33 da 14 3d
       -0.013367094 -0.07160503 0.5869729 0.036340903
000330 9d 26 00 3e 62 72 11 3e 8d 43 30 3f 2d 47 eb 3d
       0.1251473 0.1420379 0.68853074 0.11488185
000340 6c e5 86 3e 1f 7a ec bc 24 24 0b 3e ac 3f 5f 3d
       0.2634691 -0.028866826 0.13588005 0.05450408
000350 8a fa 2a 3e ad 81 00 3e 49 cb ad 3e 7c 19 f9 3d
       0.16697136 0.12549467 0.33944157 0.12163064
000360 6a ba d9 bd e6 54 a6 3b 6e db 06 bf e8 60 96 bc
       -0.10631259 0.0050760387 -0.52678573 -0.018356755
000370 12 5a 75 bc ed 2a d1 3c 6a a1 7b 3f 18 fd 20 3e
       -0.014975088 0.025533164 0.98293173 0.15721548
000380 aa e1 96 3b cf 85 54 3d 12 f5 db 3e d9 1d cb 3d
       0.004604538 0.051885422 0.4296041 0.09917802
000390 d0 d8 40 3d b3 de 13 bd 1a 17 7c bf 60 75 73 be
       0.04708177 -0.036101054 -0.9847275 -0.23775244
0003a0 a0 e4 8d bd 04 d3 04 be 53 57 98 bf 22 6d 28 be
       -0.069283724 -0.12971121 -1.1901649 -0.16447881
0003b0 38 21 3e 3e 48 4e 07 bd 6b 95 80 be 07 c9 a0 bb
       0.1856736 -0.03303364 -0.25113997 -0.004906777
0003c0 da af df 3d e8 c9 20 3e 5a f9 d2 3e c5 a1 7b 3d
       0.10922213 0.15702021 0.41205865 0.061433572
0003d0 8d 96 ad 3c 23 20 6e 3d f6 26 0f 3f de 85 ed 3d
       0.021189952 0.058136117 0.55918825 0.11597799
0003e0 c4 79 60 3e 8e 95 08 3e ce 74 39 3f b8 0c 5e 3e
       0.2192145 0.133383 0.72443855 0.2168454
0003f0 fc a7 55 3e 68 d3 8e 3e 36 c8 2e 3c 4d e4 db 3d
       0.20864862 0.27895665 0.010667851 0.10736904

fc1.bias f4 [128]
000000 a2 80 8c be d9 4b 54 be 5f ce 12 be c9 d4 88 be
       -0.2744189 -0.20732059 -0.14336537 -0.26724842
000010 95 c2 b7 be f4 ee 58 be 90 dd 9a be 58 f9 9a be
       -0.35890642 -0.21184903 -0.30247164 -0.3026836
000020 36 95 f6 bd e4 d7 87 be a5 d2 c6 be 39 a4 80 be
       -0.120401785 -0.265319 -0.38832584 -0.25125292
000030 d3 ad 07 be 91 1a ae be dd d9 37 be 07 9e d7 be
       -0.13249902 -0.34004644 -0.17954202 -0.42112753
000040 3f c0 29 3e 63 c1 a7 bd 49 8c a2 be a3 0f 03 bf
       0.16577242 -0.081911825 -0.31747654 -0.51195735
000050 9b f0 b3 be 80 20 75 be d0 f4 8f be 43 84 a9 be
       -0.35144505 -0.23938179 -0.28116465 -0.3310872
000060 88 99 a7 bc 81 60 17 be 5d 05 77 be 2a 26 76 3c
       -0.020458952 -0.14782907 -0.2412314 0.015023747
000070 e8 f7 94 bd 30 5d 69 be 5b d6 bf be 39 d3 98 be
       -0.07273847 -0.22789454 -0.37468228 -0.2984865
000080 76 8b 40 3d db 71 bd bd 09 67 cc be d1 a9 86 be
       0.047008 -0.09250232 -0.3992236 -0.26301435
000090 23 77 68 be f8 bc 35 bc f5 33 14 be 32 6c 94 be
       -0.22701697 -0.011092417 -0.14472945 -0.28988796
0000a0 44 bb 88 be a7 48 48 be cf 53 d0 bc e4 ba 89 be
       -0.26705372 -0.19558965 -0.025430588 -0.269004
0000b0 43 3f 1c be aa 74 6a be 7f 66 9b be 11 45 8b be
       -0.15258507 -0.22896066 -0.30351636 -0.2720113
0000c0 16 2c c8 3d 22 d5 0b be 50 80 d4 bd 4e 5c a0 be
       0.09774034 -0.13655522 -0.10376036 -0.31320423
0000d0 23 ca 89 be ac 38 2c be 8c d6 93 be 8f 66 77 be
       -0.2691203 -0.16818494 -0.28874624 -0.24160217
0000e0 da af 8d be 86 09 a7 be 6c bf 50 be d1 97 88 be
       -0.27673227 -0.32624453 -0.20385522 -0.26678327
0000f0 68 cc 0a be 9e 5c b9 be 82 07 5b be 56 3b 81 be
       -0.13554537 -0.36203474 -0.21389583 -0.25240582
000100 b7 21 1e be a2 48 54 be 33 f1 6f be 48 07 c9 bd
       -0.15442549 -0.20730832 -0.23431854 -0.09815842
000110 0e 00 8e be 30 ac d3 bb 36 9a a8 3d 71 9a 5d be
       -0.27734417 -0.0064597353 0.082325384 -0.21640946
000120 74 e2 77 be c1 68 1f be 75 71 6a be ee 53 63 be
       -0.24207479 -0.15567304 -0.22894843 -0.22199985
000130 d9 92 95 3d ff 02 c9 be 0d a6 b8 bc 0c 4c 74 be
       0.073033996 -0.39260098 -0.022540117 -0.23857135
000140 26 09 e6 be eb 58 4b be 0d 29 98 be 4e 35 3a be
       -0.44928855 -0.19858138 -0.2971882 -0.18184397
000150 06 86 e5 be 2f fe c6 bd 7a a7 06 be 3d f1 9b be
       -0.44828814 -0.097164504 -0.13149825 -0.30457488
000160 6a cf a5 be 2e df 68 be a8 b8 7e be d6 25 5b 3d
       -0.32384807 -0.22741386 -0.24875128 0.05350288
000170 25 08 56 be e5 10 c5 be 04 8f b5 be 11 99 46 be
       -0.20901544 -0.38489452 -0.35460675 -0.19394328
000180 9e da 6d be 75 31 93 be a2 11 16 bd 9f 8b b5 be
       -0.23227927 -0.2874867 -0.03663791 -0.35458085
000190 a3 a4 6b 3c 72 fa 95 be bb f2 b6 bd fb 0d 24 be
       0.014382514 -0.29292637 -0.08933016 -0.16020958
0001a0 39 2e b0 3d e9 ae 3d be 96 4b bb bd 4b 19 9e be
       0.08602566 -0.18523754 -0.09145276 -0.30878672
0001b0 8a e2 65 be 79 09 71 be 7f f3 4c be 61 d9 8b be
       -0.22449699 -0.2353877 -0.20014761 -0.27314284
0001c0 0a 10 76 be 97 9d a8 be ad 51 74 be 6f 48 bc be
       -0.24029556 -0.32932732 -0.23859282 -0.36774012
0001d0 da 90 99 bd 30 b0 53 be 00 f0 71 be 56 07 35 be
       -0.07498331 -0.20672679 -0.23626709 -0.1767858
0001e0 5a d4 c0 be bd 12 84 be ef fc 45 be 93 e8 77 be
       -0.3766201 -0.25795546 -0.19334768 -0.24209814
0001f0 38 9e d0 be fa d7 d7 be cc 9d 1e be af 11 00 3e
       -0.4074571 -0.42156965 -0.15489882 0.12506746

fc2.weight f4 [128, 128]
000000 ab ab 68 be 96 f1 67 3e dd 40 e3 bd d9 93 6d 3c
       -0.22721736 0.22650751 -0.11096356 0.014500582
000010 2d 23 35 3d 70 c1 ed 3e bb d5 5c 3e 77 93 4c bd
       0.044223 0.46436644 0.21565907 -0.04994532
000020 b7 8a b8 3c d1 4a 8a be c5 1a 1b bd f7 84 9d 3d
       0.022527082 -0.27010205 -0.037867326 0.07691377
000030 02 89 8c bd 4e 39 c4 3e ac 18 aa bd 01 9a 49 be
       -0.0686207 0.3832497 -0.08305487 -0.19687654
000040 fb 42 1f bf 91 c6 42 3e 97 af 80 be 06 32 03 be
       -0.6221158 0.1902106 -0.25133964 -0.12812051
000050 62 22 ed bd 8c 1b 66 3d 36 2d d0 ba 9f f5 1c be
       -0.115788236 0.056178614 -0.0015882615 -0.15328072
000060 3d 71 b3 be 5d 23 c3 be 2f 4d 8b 3d 8d a7 d9 3d
       -0.3504733 -0.38112918 0.06801831 0.10627661
000070 07 16 dc 3c 2e a0 51 3e 1c 4e b3 be 9f 7b 89 be
       0.026865972 0.2047126 -0.3502053 -0.26852128
000080 f0 14 5e 3d b0 d9 92 be 13 57 09 be 35 0e e0 3a
       0.054219186 -0.28681707 -0.13412122 0.0017094078
000090 30 50 66 3e 3b dd 81 be e6 b2 74 be fe 2c a8 be
       0.22491527 -0.25364098 -0.2389637 -0.32846826
0000a0 ee 69 9f be 3a 15 50 3e f9 99 6e 3e 87 89 38 3e
       -0.31135505 0.20320597 0.23300923 0.18021213
0000b0 5e 6b 84 3d 0f 37 f2 3d b3 61 55 bd fc 15 be bc
       0.06465791 0.11826908 -0.052095126 -0.023203842
0000c0 c3 10 d8 bd 74 61 f8 3d 45 6e a1 3e 17 0b d5 3e
       -0.10550072 0.12127963 0.3152944 0.41610023
0000d0 40 f4 99 be 8b 55 94 3e bf 76 8a bd 9a a5 52 bc
       -0.3006916 0.28971514 -0.0676093 -0.012856865
0000e0 6c fe 50 3e 9f 64 3f be 58 87 3f be 05 7c b9 be
       0.20409554 -0.18690728 -0.18703973 -0.36227432
0000f0 2c 57 cb bd dd de 96 3e 5f 01 b4 3d 28 ce 12 bf
       -0.09928736 0.29466906 0.08789324 -0.5734582
000100 48 60 bb bd 25 c1 af bd 45 2f 31 3d 65 be 5e bd
       -0.091492236 -0.08581761 0.04325797 -0.054380793
000110 27 35 ab bc be b2 93 3d 56 15 14 3d 3b 0c 08 3e
       -0.020899368 0.07211827 0.03615316 0.13285916
000120 dd 24 1e 3e e0 79 22 be 24 78 ee 3e 01 d7 00 3f
       0.1544375 -0.15866804 0.46576035 0.5032807
000130 bd 37 21 bd 71 1f 94 bd ac d5 ff bc f5 b0 2d 3e
       -0.039359797 -0.072325595 -0.031229816 0.16962035
000140 e8 ed 89 bc 59 a7 27 bd 6d 9a 73 3e fd 13 8d bd
       -0.016837075 -0.04093108 0.23789378 -0.06888578
000150 e3 9a 5b 3e 78 11 1c be 2e 59 eb bd c2 b2 a0 bd
       0.21445803 -0.15241039 -0.11491619 -0.07846595
000160 2b aa e3 3d 16 79 d1 3e 62 ad d2 bd 37 87 2f be
       0.11116441 0.40912694 -0.102869764 -0.17141424
000170 34 dd ab 3e 86 43 30 be 8e d1 42 bd ce f6 0a be
       0.33567202 -0.17213258 -0.04756313 -0.13570711
000180 ed 75 40 bd ff 6c c3 bd 05 f8 2c be eb 74 4c 3e
       -0.046987463 -0.09542274 -0.16891487 0.19966476
000190 d0 78 46 be 1c f0 14 bd 84 77 1f bd 29 6b b9 bd
       -0.19382024 -0.0363618 -0.03893234 -0.09053642
0001a0 6c a4 06 be f2 81 b6 3e 8d ae 11 3e a3 d9 20 bd
       -0.1314866 0.35646015 0.14226742 -0.039270055
0001b0 5b 52 d8 be b3 77 64 be 1d 02 4d 3e 8e 39 4e 3d
       -0.42250332 -0.22311287 0.20020337 0.050347857
0001c0 c5 d7 1d 3e 60 c6 b6 3d d3 b9 6f bd b5 2d 26 bc
       0.15414341 0.08924556 -0.058526825 -0.010142733
0001d0 60 70 a0 3d 7a 46 92 3e fb 62 88 3d 01 8d 28 3d
       0.07833934 0.28569394 0.06659504 0.041150097
0001e0 e5 d8 80 3e 85 f9 5a 3e e2 6c f6 3d 1b f5 1c bd
       0.25165477 0.21384247 0.120324865 -0.03831969
0001f0 08 f4 8f be 4e 91 88 3e 3c d8 d6 3e 4b a8 19 be
       -0.2811587 0.2667336 0.4196185 -0.15005605
000200 01 24 c8 be 14 66 9a be 32 f1 81 be 11 a6 67 be
       -0.3908997 -0.30156004 -0.2537933 -0.22621943
000210 a9 07 a4 bd a1 de 4e be c6 4b c1 be c7 e4 63 bd
       -0.080092736 -0.20202114 -0.37753123 -0.0556381
000220 cf 0a 8e 3d 1c 69 8b 3d 81 c3 1a bf 4d d2 ab 3d
       0.06935655 0.068071574 -0.60454565 0.08389721
000230 fe c0 a8 3d 88 14 6e bf aa ac 94 bd 47 fa 3b be
       0.08239935 -0.9300008 -0.072594956 -0.18357192
000240 e3 18 93 3d bf ae 0c 3e 9e 30 47 be c9 ee 39 be
       0.07182481 0.13738535 -0.1945214 -0.18157496
000250 e9 36 54 be 3b 29 46 3e fe c0 8b 3d a1 4b 04 bd
       -0.20724072 0.19351666 0.0682392 -0.032298688
000260 0a da b2 3e 02 36 01 3e e5 43 a2 be 1a d4 28 be
       0.34931976 0.12618259 -0.31692424 -0.1648716
000270 96 bf b7 3d 6e 10 6d 3d ac fc 0e bf 2e b5 21 3e
       0.08972089 0.057876997 -0.55854297 0.15791771
000280 49 37 a6 3e c7 5c f9 bb 1e 74 55 be 99 78 f0 bd
       0.32464054 -0.007609937 -0.20845076 -0.11741752
000290 1e 93 25 bf cf e9 ff 3d 7e 7a 86 3e 6b 05 24 bd
       -0.6467761 0.12495767 0.2626533 -0.04004423
0002a0 d9 f2 17 be 5f c1 c9 3d 14 e4 e7 3e 92 68 d7 be
       -0.14838733 0.09851336 0.45291197 -0.42071968
0002b0 3c 3c 7a 3e f6 59 7a be 33 91 eb 3d c1 9f 07 3e
       0.2443704 -0.2444838 0.11502304 0.13244535
0002c0 33 ec 2e 3e 42 8a d3 3d 9d 76 68 3d bd d9 6e bf
       0.1708229 0.10329105 0.056753743 -0.9330099
0002d0 81 fb ed 3d 6a ff 69 3e 7d 8a af bd 1a 95 88 be
       0.11620236 0.22851339 -0.085713364 -0.26676255
0002e0 58 cb 9a be 08 ae 80 bd fb e6 41 3e 64 18 3b 3e
       -0.30233264 -0.06283194 0.18935768 0.18271023
0002f0 b0 a5 1e be 4e 7f 19 bf 63 6d 34 3d 84 8d a5 be
       -0.15492892 -0.59959877 0.04404963 -0.3233453
000300 d2 21 1c bd f0 e9 0d bb eb b5 83 bd 75 d8 96 be
       -0.03811819 -0.002165433 -0.064311825 -0.2946202
000310 84 ea 88 bd eb c0 ce bd 1e 0e ed 3c c2 9e 28 be
       -0.06685355 -0.1009539 0.028937396 -0.16466811
000320 25 2f 39 3d 46 a2 af be bd ef 6c be e4 42 83 3e
       0.045210976 -0.34303492 -0.23138328 0.2563697
000330 00 08 ce be f4 ef 9a bd 63 99 01 3f da b6 72 be
       -0.4024048 -0.07565299 0.50624675 -0.23702565
000340 49 55 9c bc b2 52 20 be 56 22 2b bf 8f 8c 7c be
       -0.019083636 -0.15656546 -0.6684927 -0.24662994
000350 33 79 bc bd 47 7b 54 3e 4b 75 08 be 6b 48 0a bf
       -0.092028044 0.20750152 -0.13325994 -0.5401675
000360 2f ee 13 3d c6 d4 38 be da a5 12 be bb 3f 8b 3e
       0.03611582 -0.18049917 -0.1432108 0.2719706
000370 79 57 b0 be cb 3e 0c 3e 91 f8 2e 3e 20 6c 10 bc
       -0.34441736 0.13695829 0.17087008 -0.0088148415
000380 25 bb 6d 3e af e1 f6 be 6f 83 1f 3e 17 a2 34 bf
       0.23215921 -0.48219058 0.15577482 -0.7055983
000390 8f 57 bd be 81 e5 22 be f0 eb 72 be f3 97 25 3c
       -0.36980864 -0.15907861 -0.23722816 0.010107028
0003a0 df 67 8a bf 1c 3d ae bd ba 12 8e 3e 51 44 0c 3e
       -1.0812949 -0.085077494 0.27748662 0.13697936
0003b0 79 a6 50 be aa 21 8a be fd a8 27 bd f5 2d 89 3e
       -0.20376004 -0.2697881 -0.040932644 0.26792875
0003c0 28 41 60 3e 10 f2 4b be da 54 47 be 24 55 75 bc
       0.21899855 -0.19916558 -0.19465962 -0.014973912
0003d0 c9 3a 94 3d 83 0a 3c be 18 a4 fb bd 25 1d 25 39
       0.07237775 -0.18363385 -0.12287158 0.00015746483
0003e0 5a f6 a4 bc 57 05 e7 be 1f 18 73 3c 78 a2 78 bd
       -0.020137 -0.4512126 0.014837294 -0.060701817
0003f0 0e 83 c2 be 69 27 25 bd b3 4e 4d be cc a7 99 3d
       -0.37990612 -0.040320788 -0.20049553 0.07502708

fc2.bias f4 [128]
000000 17 c7 cc 3c 95 48 11 bc bd 59 c1 3d b7 ef a6 3b
       0.024997277 -0.008867403 0.09440944 0.005094494
000010 5a 31 04 bd 6c 39 d7 bd a0 3a 65 3e 3c 6e 96 ba
       -0.032273628 -0.10508999 0.22385645 -0.0011476944
000020 66 c3 35 bd db 0c 63 be e1 fc 2b bd 0a ca 6c be
       -0.0443758 -0.22172873 -0.04198921 -0.23123947
000030 6a 39 5b bd e3 85 c3 3d d7 f0 b6 bd 9d d3 b8 3d
       -0.05352155 0.09547021 -0.08932655 0.09024737
000040 f2 72 f0 bd 89 6e 74 bd da ca 02 3e d1 67 d1 bd
       -0.11740674 -0.059675727 0.12772694 -0.102248795
000050 40 ea 67 be 46 a3 88 bd 99 da c0 bd a2 3d 70 3d
       -0.22647953 -0.06671767 -0.09416694 0.058652528
000060 6e e4 12 bd d7 12 86 bd f1 58 90 bd b3 ef d8 bd
       -0.03586238 -0.06546562 -0.07048214 -0.10592594
000070 f3 d0 11 be 07 17 d1 bd 54 88 b8 be 80 3d 26 bd
       -0.14239864 -0.1020947 -0.3604151 -0.040585995
000080 c4 98 06 bd 11 7c 0b 3e e9 f6 cb 3c 40 1e db bd
       -0.032860532 0.13621546 0.02489801 -0.10699129
000090 05 14 d4 bd 1a 6c 03 be ff 28 56 bd 30 ca 58 bd
       -0.10355381 -0.12834206 -0.05228519 -0.052927196
0000a0 97 00 97 bd af 8e b8 bd 38 36 5f bd 79 f2 2d be
       -0.073731594 -0.0901159 -0.054495066 -0.16987027
0000b0 31 0f 48 be 3b a0 aa bd 5d b4 48 bd 32 fb cd 3d
       -0.19537045 -0.08331343 -0.049000133 0.10057677
0000c0 1a 70 5b 3d 9a 16 85 bd 26 97 12 3e 1e 95 3e 3e
       0.053573705 -0.064984515 0.14315471 0.18611571
0000d0 5c 97 22 be 43 b6 14 bd db 80 38 3c ba 84 92 bd
       -0.15878052 -0.03630663 0.01126119 -0.07154222
0000e0 62 84 b5 be 60 71 9c 3e 34 60 57 bd 09 24 b6 bd
       -0.35452563 0.30555248 -0.05258198 -0.08893592
0000f0 d2 33 97 be 54 7b 82 be 05 12 8e bd cb 11 ea bd
       -0.29531723 -0.25484717 -0.06937031 -0.11429175
000100 03 5b b7 3d 00 54 14 3e b4 0e 21 3e 66 72 31 3e
       0.08952906 0.14485168 0.15728265 0.17328796
000110 d7 29 9f be 2a 5d 86 bd 16 0a 64 be 00 44 31 3e
       -0.3108661 -0.065607384 -0.22269472 0.17311096
000120 53 82 b7 bd 31 e0 0c be c1 67 b1 bd 27 fd ad 3d
       -0.08960404 -0.13757397 -0.086623676 0.084955506
000130 39 4b e4 3d 6c 49 45 bd c2 82 64 bd 66 7f a0 bd
       0.1114716 -0.048165724 -0.055788763 -0.07836799
000140 49 38 0a bd e6 05 2e bd 4b f6 1f be 4c 94 b0 bd
       -0.033745084 -0.042486094 -0.15621297 -0.086220354
000150 a9 e7 9e bd aa 34 11 be 81 33 ca bd 47 41 ad be
       -0.077590294 -0.14180246 -0.09873105 -0.33838865
000160 fa 7d ec bd 99 ef 1a bc f9 f2 54 be 52 da c2 bd
       -0.115474656 -0.009456539 -0.20795812 -0.095142975
000170 01 dc 82 bd a7 00 0d 3c 44 77 d0 bd d5 fe 7c 3c
       -0.06389619 0.008606113 -0.10178998 0.015441616
000180 03 55 81 bd 14 50 b8 be 2f 87 b0 bd 73 f9 ab bd
       -0.06315043 -0.35998595 -0.08619534 -0.08397188
000190 20 1e ea bd 8b b0 12 3e 60 ef 46 be 2f 23 79 bd
       -0.11431527 0.14325158 -0.19427252 -0.06082457
0001a0 19 31 86 bd 03 70 c4 3d a9 b1 2b bd fb e5 1c be
       -0.065523334 0.09591677 -0.041917477 -0.15322106
0001b0 dc a1 a2 bd 7b 17 22 bd 50 44 ea bd e9 26 11 3e
       -0.079410285 -0.039573174 -0.11438811 0.14175
0001c0 db 5c b6 bd 62 a2 06 3d a4 2b 02 3e ed 94 25 be
       -0.089044295 0.032869704 0.1271196 -0.16170092
0001d0 17 69 9b bc b6 cd 9c be 75 8f 1a be 7a c4 9b bb
       -0.01897101 -0.30625695 -0.15093787 -0.0047536464
0001e0 0f 8b f8 bd 36 0e f2 bd a2 e9 bc bc 7c 71 e4 bd
       -0.12135898 -0.11819117 -0.023060624 -0.11154458
0001f0 8b ad 87 bd f9 05 15 be 76 03 c1 bd 46 d8 01 be
       -0.066248976 -0.1455306 -0.09424488 -0.12680158

fc_value.weight f4 [128, 128]
000000 ff 65 2f 3e 3c fa 5e 3e 80 79 c8 bd 75 f4 06 be
       0.17128752 0.21775144 -0.09788799 -0.1317919
000010 a4 44 03 3e 83 3c 3f bd 37 bc b0 be d3 dc a8 3d
       0.12819153 -0.046688568 -0.34518597 0.08245244
000020 0e e5 86 bd f1 aa 10 3e 75 68 d6 be 62 a1 8f bc
       -0.065866575 0.14127709 -0.4187657 -0.017533008
000030 9a ba 70 bd 93 cf 9e be 0e 57 8a be ac 85 cf 3d
       -0.058771707 -0.31017742 -0.27019542 0.10132918
000040 13 f6 98 3d 4b 4b 84 3e cc f9 49 bd fc 36 aa bc
       0.0746881 0.25838694 -0.04931049 -0.020778172
000050 42 84 db 3d 1f ce ec bd b8 75 99 3c e1 d2 34 bd
       0.107185856 -0.11562752 0.01873289 -0.044146422
000060 23 b2 62 3d 2a 88 c1 bd 5b 85 93 3e b3 bd 95 be
       0.055345666 -0.09449799 0.2881268 -0.29246292
000070 c2 ad ed 3c ab 7a ce 3c 11 5a 08 39 0a f2 e6 3d
       0.029013518 0.025204977 0.00013003523 0.11276634
000080 9d b7 97 3c b1 7f 85 bd 40 00 17 be 73 5d 27 bd
       0.01852017 -0.06518496 -0.14746189 -0.040860604
000090 ab 5a 05 3e f8 42 b3 3d 1d 61 65 be c0 2c 2c 3e
       0.13022868 0.08753008 -0.22400327 0.16813946
0000a0 e7 bb 77 3e 21 88 b4 be 00 67 fc 3b b2 72 d0 bb
       0.24192773 -0.35260108 0.0077027082 -0.006361329
0000b0 e2 65 a2 3d 3a 40 d7 bb 9a a7 8b 3e bf 4d 97 bd
       0.07929589 -0.0065689357 0.27276307 -0.07387876
0000c0 c3 13 32 bd f5 90 ae 3d ae 2a 20 3e 9c cd 42 bd
       -0.043475877 0.08523742 0.15641281 -0.047559366
0000d0 1e cd 29 be 23 6a f6 bd d4 2e d8 be 46 89 5b be
       -0.16582152 -0.12031963 -0.42223227 -0.21439084
0000e0 c5 eb 68 be 21 60 b4 3e 1a 6c 10 be e6 12 4d 3c
       -0.22746189 0.3522959 -0.14103737 0.012516713
0000f0 95 19 21 be b3 cd 9c 3e 17 3b aa 3e e2 35 64 bd
       -0.15732415 0.30625686 0.33248207 -0.05571545
000100 56 d7 d8 bd 76 ee 0f be b3 30 16 3d 66 db cb be
       -0.10587947 -0.1405581 0.036667537 -0.39815825
000110 0e e5 35 3c 39 fb ae bd 11 96 82 3d db 1c 2f be
       0.011101974 -0.08544011 0.06376279 -0.17100851
000120 18 19 a5 bd 00 23 9b be b1 27 58 bd f3 b4 17 bf
       -0.08061427 -0.3030014 -0.052772228 -0.5926048
000130 6c 62 7b 3e c5 75 43 bd 2b 87 c9 bc 63 fc 14 be
       0.24549264 -0.047719736 -0.024600586 -0.14549403
000140 f7 4f cc bd 7a 25 b0 3e a7 cf 20 bf 3c 69 c8 3e
       -0.099761896 0.34403592 -0.6281685 0.39142787
000150 3d 57 07 bf b3 e3 ea 3d fc de 9b 3d 21 fa aa be
       -0.5286749 0.114692114 0.0761089 -0.33393958
000160 7b cd 00 3d ef e9 f6 3d 56 ce 88 3d 65 9d 1e 3e
       0.03144596 0.12056338 0.066799805 0.15489729
000170 27 e9 a6 3d 89 f4 01 bd a3 d8 58 3d 6f ef ed 3c
       0.08149939 -0.031727348 0.052940976 0.029044835
000180 c2 72 6f be 28 d3 da bd 1c ba fd 3d f9 61 d6 3d
       -0.2338362 -0.10684806 0.12389013 0.104679056
000190 21 a7 d3 ba ed 8d b1 3d 17 4c 51 3e 0e c1 85 3e
       -0.0016147831 0.08669648 0.20439182 0.26123852
0001a0 af fe 60 3d f3 47 f8 3d 00 77 5c be ab ba a1 bc
       0.054930385 0.12123098 -0.2152977 -0.01974233
0001b0 b4 79 aa bd 62 2e e7 bc 80 a7 7e 3d 7e 70 d0 be
       -0.08323994 -0.02822036 0.06217146 -0.40710825
0001c0 23 66 0d 3e 17 1a 2a 3d cf 24 c6 3e 1e 0a d1 3d
       0.13808493 0.041528787 0.38699958 0.10207008
0001d0 08 8e 48 be 40 c4 a4 bd ad de 12 be 64 2d 83 3d
       -0.1958543 -0.08045244 -0.14342757 0.06405142
0001e0 8d 1b 81 be 52 28 23 3e d4 2e ab be 21 dc d5 ba
       -0.25216332 0.1593335 -0.33434165 -0.0016316214
0001f0 5e 5f 90 be cc a0 38 bc a1 21 1c bf 19 a3 66 3e
       -0.2819776 -0.011268806 -0.60988814 0.22523154
000200 93 0d b7 be a2 aa ea 3c a5 e0 32 be e4 51 a6 be
       -0.35752544 0.028645817 -0.17468508 -0.32484353
000210 00 62 19 bf fa 74 a5 3d ee 8c ec be 81 55 f5 3c
       -0.5991516 0.08078952 -0.4620127 0.029947998
000220 79 3e e6 3d cf fa 9c 3e 22 23 2d be b7 f4 7b 3d
       0.112423845 0.30660102 -0.16907933 0.061512675
000230 46 ac 80 3e af 23 2d bf 4e ae 0b bd 34 0a 66 3e
       0.25131434 -0.67632574 -0.034101777 0.2246483
000240 ec 31 c5 bc 3b 4d ec 3c d7 db 97 be 7b 40 91 3d
       -0.024071656 0.02884542 -0.29659912 0.07092377
000250 b0 fb 2d bd c1 3a 57 be fe 75 76 3e fb b9 37 3d
       -0.042476356 -0.21018507 0.24068448 0.0448551
000260 bf 16 17 be c5 fc 50 3d 26 86 27 bd ff 18 8c be
       -0.1475477 0.05102231 -0.04089942 -0.2736282
000270 9b 1a 88 3e c1 0e 8a 3e 17 d9 28 be 9e 15 31 3d
       0.26582798 0.2696438 -0.16489063 0.043233506
000280 81 f4 e2 bd 1a 71 a0 3e f5 90 5e 3e ef 3f 8c be
       -0.11081792 0.3133629 0.21734984 -0.27392527
000290 0b 9d 90 be 37 22 0d 3d 71 7c 2d 3e 12 68 c6 3d
       -0.28244814 0.034456458 0.16942002 0.096878186
0002a0 c6 38 d9 bd 42 15 4d bf 5d 5a 58 3d 15 5f 64 be
       -0.10606532 -0.8011056 0.052820552 -0.22301896
0002b0 a7 95 6f be 5d 1f b0 3c e3 29 90 bd 09 ca 0b bf
       -0.23396932 0.02149933 -0.07039239 -0.54605156
0002c0 db 71 61 be 96 f1 00 be 5f 8e 8d 3d 0b 13 96 bd
       -0.22016089 -0.12592158 0.06911921 -0.07327851
0002d0 0e 26 58 bf 2f 9c 37 bd 81 e8 17 3c 0b 7f f1 bd
       -0.84433067 -0.044826683 0.009271742 -0.1179181
0002e0 86 05 e3 be b6 2f 8c 3d 45 91 f8 3c 00 34 94 3c
       -0.44340152 0.06845038 0.030342707 0.018091202
0002f0 71 60 36 3e 53 0c c4 bd dd f1 84 bd 9c 88 37 3d
       0.17810227 -0.09572663 -0.06491444 0.044808015
000300 f3 f9 44 3e 43 68 04 be de cd 03 3e c3 40 4f bf
       0.19235973 -0.12930398 0.12871501 -0.80958194
000310 8e 88 7d be 50 8e 0e 3e ab e8 fd bd 67 e9 c4 3e
       -0.24759123 0.13921475 -0.123978935 0.38459322
000320 4f 47 2b be de be 61 3d 9c b9 cc 3c 6e 25 8f 3e
       -0.16726421 0.055113666 0.02499085 0.27958244
000330 f6 a1 f9 be b1 98 99 bd f3 b3 75 be ec 83 fa bd
       -0.4875638 -0.07499827 -0.23994426 -0.12232193
000340 3f 31 a6 3d 89 14 e4 bd 9a be 8c be b8 f3 b2 3e
       0.08114862 -0.11136729 -0.27489167 0.34951568
000350 90 a7 a9 3c bc 5a 2d be 19 73 b7 3d f5 65 77 bf
       0.020709783 -0.16929144 0.089575 -0.9663995
000360 e2 44 51 bc 61 0d 77 3e d5 d5 c3 be 6f 61 0a 3e
       -0.012772771 0.24126197 -0.38249078 0.1351373
000370 5f d7 98 be b7 24 b1 3d e5 de 77 3d c1 f0 e9 3c
       -0.29851815 0.08649581 0.060515303 0.028557183
000380 65 56 f1 be 8d a2 53 be bd 65 00 3e 71 0d dd bc
       -0.47136226 -0.20667477 0.1253881 -0.026983948
000390 56 b7 cd bd ec 1f 2a bf ce 01 98 be e3 56 b0 be
       -0.10044734 -0.6645496 -0.29688877 -0.3444129
0003a0 eb df 25 3e 8c f3 28 be 6b ae 02 be 27 b2 16 be
       0.16198699 -0.16499156 -0.12761848 -0.14716397
0003b0 27 5a 54 bd ad 2f 13 be a1 80 05 ba f4 13 12 3e
       -0.05184379 -0.14373656 -0.00050927146 0.14265424
0003c0 a5 d5 70 be 24 8d 5b 3e 6a 99 6b be 5f 47 38 bd
       -0.23518999 0.2144056 -0.23007742 -0.04498994
0003d0 cf 76 ea 3d e4 1c 70 be 7d f2 fc bc 42 45 aa 3d
       0.11448442 -0.23448521 -0.030877346 0.08313991
0003e0 68 72 08 3e 53 26 ac ba 10 09 45 3d 93 84 09 3d
       0.13324893 -0.001313398 0.048104346 0.0335737
0003f0 7f 1f 18 bf 01 cf 05 3e 18 fa af 3e b0 cf 55 bd
       -0.5942306 0.13067247 0.34370494 -0.05220002

fc_value.bias f4 [128]
000000 4b c7 96 be 2f 52 ec 3d 0f 8e 0d 3f b1 ce 90 3e
       -0.29448923 0.11539113 0.5529489 0.28282693
000010 bd 03 d9 3e c1 d4 29 3d 4b 12 d0 3e e0 3b 65 be
       0.42385665 0.041462664 0.40638956 -0.22386122
000020 5f 3b 1a be b7 88 08 be 65 d9 5c 3e 3c f7 0d be
       -0.15061711 -0.13333403 0.21567304 -0.13863844
000030 82 05 53 3e b5 b6 6c be e0 fc 4e be 81 21 85 3e
       0.2060757 -0.23116572 -0.20213652 0.26002124
000040 ce 96 f2 3e d0 b0 a5 be 75 2c 80 3e 53 ed 10 be
       0.4738068 -0.3236146 0.25033918 -0.14153032
000050 16 e5 98 3d 96 e3 df bd a0 28 ce bd 77 76 d5 3e
       0.0746557 -0.109320804 -0.10066342 0.41691944
000060 86 76 d3 3e e7 a7 d2 bd 37 26 46 be 68 f1 47 be
       0.41301364 -0.10285931 -0.19350515 -0.19525683
000070 2f a9 3a be 40 2a e9 3e 60 e5 0a 3f f5 8f 58 bd
       -0.18228601 0.45540047 0.5425625 -0.052871663
000080 eb 20 d5 3e 33 ad 83 be 55 05 62 be 88 2d ee 3e
       0.41626677 -0.25718078 -0.22072347 0.46519113
000090 c9 4e d6 bd 6f 54 91 bd 00 2f af 3e 99 c1 02 be
       -0.10464246 -0.070961826 0.34215546 -0.12769164
0000a0 05 9a 82 3c 13 4e 2c be 6c 9a d4 3e 3e 6c 19 be
       0.015942583 -0.16826658 0.41524065 -0.14982697
0000b0 7c c4 a8 bd 07 59 2f be eb 86 84 3c 15 32 4b 3e
       -0.082406014 -0.17123805 0.016177615 0.19843324
0000c0 93 87 a8 be 56 41 cc be 5e 85 e7 3e e1 60 58 be
       -0.32915935 -0.39893597 0.4521894 -0.21130706
0000d0 cd f9 ea 3d c2 89 c7 bd 8e 96 66 be 52 26 bb be
       0.11473427 -0.09743072 -0.2251837 -0.36552674
0000e0 80 21 22 be 8c 50 99 be 66 e7 e1 bd 14 9a e5 bd
       -0.15833092 -0.29944265 -0.11030464 -0.11211029
0000f0 e8 85 35 be ee 5c 4a be 63 c5 94 3e dc e3 f5 bd
       -0.17726862 -0.19762012 0.29056844 -0.12006351
000100 86 34 95 be cb a9 9d 3c 4e f5 9c 3e 20 61 d1 3e
       -0.29141635 0.019246003 0.30655903 0.40894413
000110 62 bd 5d be a8 d6 97 3e b9 17 61 be 5d 96 99 3e
       -0.21654275 0.29655957 -0.21981706 0.2999753
000120 96 5e a7 3e d9 76 e2 3b 06 1c 54 bc a4 30 ad 3e
       0.3268935 0.0069111404 -0.012946134 0.33826172
000130 ce 13 39 be ff c3 8d 3d 6f 25 25 3e 79 f7 1e be
       -0.18073961 0.06922149 0.16127561 -0.15524091
000140 01 8b 8c be e5 ae f0 3e 40 3f a1 3e 64 ca f6 3d
       -0.27449802 0.47008434 0.31493568 0.12050322
000150 50 ca 82 bd 1b ae d5 bd 23 02 b0 be fb 91 e2 bd
       -0.06386244 -0.104335986 -0.3437663 -0.11063
000160 74 2a 50 be 40 82 57 3e c0 ac e4 3e 08 c9 43 be
       -0.20328695 0.2104578 0.44663048 -0.19119656
000170 be 33 96 3e 68 fb a5 3e fa 18 ba 3e a1 55 c3 be
       0.2933635 0.3241837 0.3634718 -0.38151267
000180 7c a0 cc be 5a 6a aa be 7b ab b8 3e 3e 8d 7e 3e
       -0.3996619 -0.33284265 0.3606833 0.24858567
000190 5e c0 96 3e d0 09 23 be 5e a4 62 be b6 18 f9 3e
       0.2944364 -0.15921712 -0.22133014 0.48651665
0001a0 29 ab 42 be 8f c3 87 be 86 51 7e be ea 94 65 be
       -0.19010605 -0.26516387 -0.24835786 -0.22420087
0001b0 30 fc e8 3e e1 cc 00 3f c1 91 9c 3e ec 79 b2 be
       0.45504904 0.5031262 0.3057995 -0.34858644
0001c0 82 bd 68 3e 01 2c 2a be 81 6f 77 3e 36 b2 43 bd
       0.22728541 -0.16618349 0.24163629 -0.047777377
0001d0 5b 46 19 3d e2 c3 86 bd 86 e9 cc 3e cb b7 cb be
       0.03742061 -0.065803304 0.40021914 -0.3978866
0001e0 d7 da ac be 18 03 92 3e a5 2f ca be d0 7f 3b 3e
       -0.33760712 0.28517985 -0.39489475 0.18310475
0001f0 c8 8e f4 3e bc 10 a0 3e ce ef 0d be 55 ff e6 3e
       0.47765183 0.31262767 -0.1386101 0.45116678

value.weight f4 [1, 128]
000000 5b 43 5a be 13 f6 d3 be ac 18 9c 3e ff 07 17 3e
       -0.21314757 -0.41398677 0.30487573 0.14749144
000010 4e a0 85 3e 36 d9 1a be 04 44 e1 3d 15 5f af 3b
       0.26098865 -0.15121922 0.10999301 0.005351911
000020 3e fa 9e 3c 0f 1e 9f bc d8 fb 08 3d b1 c2 12 bc
       0.019406434 -0.019423513 0.033443302 -0.008957551
000030 76 7c 81 3d 74 68 bb bd c9 36 22 bb 62 2a 1e 3e
       0.06322567 -0.09150782 -0.0024751893 0.15445855
000040 2d 34 37 3e 77 84 4d 3b e8 34 92 3d 2c d5 cd bc
       0.17890997 0.0031359473 0.07138997 -0.025126062
000050 86 2d dc 3c 7d ab 16 be db ac c5 3c 6c 69 56 3e
       0.026877176 -0.14713855 0.024130275 0.20938653
000060 c5 1a 81 3e 3d 3f b4 bd d0 d1 03 3d 31 ef f7 3b
       0.25215736 -0.08801124 0.032182515 0.0075663556
000070 a4 6c 2d be 3b e7 04 bf 9d 98 98 3e c8 80 dd be
       -0.16935974 -0.5191533 0.29803935 -0.43262315
000080 be 65 19 bf 1f af 7b bd 35 a9 9b bd 71 cb 6d 3e
       -0.5992087 -0.061446305 -0.07600633 0.23222138
000090 87 bf 93 3b 11 cd 41 be ae fe da 3d ca c0 c8 bb
       0.004508916 -0.18925883 0.106931075 -0.006126498
0000a0 a6 d9 00 be b1 fe 96 ba e4 91 3e 3e 7c a7 27 3d
       -0.12583026 -0.0011519996 0.1861034 0.04093121
0000b0 f8 86 60 3e a2 8a 92 bb 3c 68 83 be 42 b4 57 3e
       0.21926486 -0.0044720927 -0.25665462 0.21064857
0000c0 c3 a9 64 be 7b 1c 8c bd 5a ec 38 3e d5 c8 23 be
       -0.22330384 -0.0684137 0.18058911 -0.1599458
0000d0 c3 08 19 be bd a7 a4 be 2e 85 21 bc 98 0d 5e be
       -0.14944749 -0.32159224 -0.009858413 -0.21684873
0000e0 28 f3 f9 bd 06 74 0f be 64 43 44 3b fc 23 94 3c
       -0.122045815 -0.14009103 0.0029947395 0.018083565
0000f0 b8 ed 2d 3c e0 6a 19 bc 2b a9 25 3e 7c b4 6e be
       0.010615759 -0.00936386 0.16177814 -0.23311037
000100 c2 4b 4e 3e a3 d5 6c bd dd 0d 27 3e 7f 20 2d 3e
       0.20146087 -0.057820927 0.16313882 0.16906928
000110 51 35 69 3d 05 92 7c be 2b 70 90 be 69 94 6c 3e
       0.056935612 -0.24665077 -0.28210577 0.23103489
000120 7b d0 a4 be 99 76 2e be d1 fa 56 be 84 ca 62 3e
       -0.32190308 -0.17037429 -0.20994116 0.22147566
000130 87 5a 9d bc ea a1 64 bc d1 81 a8 be c6 cf 80 be
       -0.019208206 -0.013954619 -0.32911542 -0.2515852
000140 c6 32 91 be a1 ce 65 3e 2f c1 a0 3e 34 f0 3d 3c
       -0.2835905 0.22442104 0.31397387 0.011592913
000150 63 fb 0d bc 48 3c 1c be a1 7d ef bd 6f c8 b5 bd
       -0.008665892 -0.1525737 -0.11693884 -0.0887612
000160 f1 cf f2 be 1f 48 10 3e 5e e2 46 3e 6b 31 18 3b
       -0.47424272 0.14090012 0.1942229 0.0023222815
000170 c3 cb 81 3e b1 35 81 3d ad e1 fb be f9 39 ac bd
       0.2535077 0.06309069 -0.49195614 -0.08409495
000180 71 60 54 3e 94 4b 5d be cd cb ce 3e 5e 72 80 be
       0.20739914 -0.21610862 0.40389863 -0.25087255
000190 7e 5c 19 3e 9f f4 fa bd be 02 b5 bc 22 b2 88 3e
       0.14976689 -0.12253689 -0.022096034 0.26698405
0001a0 0f 20 a7 bc db 30 83 be 63 79 3a be 65 df 34 bb
       -0.020401029 -0.2562321 -0.18210368 -0.0027598974
0001b0 7b 85 3b 3e 0b 38 99 3e 7d 87 10 3e d8 7c 89 bd
       0.18312638 0.2992557 0.14114185 -0.06713265
0001c0 1e 76 88 be cf 3e 93 3c 14 ef 21 3e af 50 a4 bb
       -0.26652616 0.017974285 0.15813857 -0.005014501
0001d0 28 f5 0b 3e 22 5b 2a 3c 19 6c d5 3d a6 0b df be
       0.13667738 0.010397704 0.104210086 -0.43563575
0001e0 b4 bd 48 be 13 c1 f5 3d bf 4f bd be 9f 22 52 3e
       -0.19603616 0.119997166 -0.36974904 0.2052102
0001f0 c1 5b 80 3e 29 c8 73 3e be 28 0d be 6e 1f 4d 3e
       0.25070003 0.23806824 -0.13785073 0.2003152

fc_adv.weight f4 [128, 128]
000000 a1 d5 28 be 9c 08 06 bf 8d ba dd 3d f7 71 72 3c
       -0.16487743 -0.52356887 0.10826597 0.014797679
000010 fa 33 09 3e 3a 33 60 be 14 c6 28 be 8c c4 e6 bc
       0.13398734 -0.21894541 -0.16481811 -0.028169893
000020 7c 95 57 3c b1 2c 45 be 23 01 79 bc 46 4e fe 3d
       0.013158198 -0.1925533 -0.015198025 0.12417273
000030 31 31 6c 3e 18 58 c6 3c a4 62 06 bd ba 9e 50 3d
       0.2306564 0.024211928 -0.032808915 0.050932623
000040 46 f0 05 3e 23 73 f3 bd 36 4c 95 be aa d9 f0 bc
       0.13079938 -0.11887195 -0.29159707 -0.029400665
000050 3d ca e9 bd 32 41 5a bd f0 ce 97 3e 06 7c c8 3d
       -0.11415527 -0.05328483 0.29650068 0.097892806
000060 8c 40 8a be 7e 50 17 3e 18 99 ed 3e c8 8f 1b 3e
       -0.2700237 0.14776799 0.46405864 0.15191567
000070 4f 4b c2 3d 80 a8 3b be 9f f6 3b be ba 99 aa 3c
       0.0948702 -0.18325996 -0.18355797 0.020825256
000080 82 c5 31 3e 5a 14 c4 bd 62 33 54 be 64 96 1b be
       0.173605 -0.09574194 -0.20722726 -0.15194088
000090 02 2f f7 3e 3c a4 6d bd cd 9f 80 3e de 6c 3b bd
       0.48278052 -0.058017954 0.25121918 -0.04575812
0000a0 4e a1 24 be fc 35 75 3e 33 67 25 3d 46 e4 fc be
       -0.16077158 0.23946375 0.04038162 -0.4939291
0000b0 c5 cc e8 bd 0b 1e 4a 3e b3 72 13 3d bd e0 2f be
       -0.11367182 0.19738023 0.035998058 -0.17175575
0000c0 7d e0 83 be b6 d1 45 3e 71 f9 dd bb 5f 91 7c bd
       -0.25757208 0.1931828 -0.0067741205 -0.061662074
0000d0 d1 3a 39 be 43 e4 ed 3c 18 16 52 3b 57 0b 42 bd
       -0.18088843 0.029039508 0.0032056626 -0.047374096
0000e0 39 1f b9 bc 50 89 bd 3d 2e 37 76 3e cf 5f 50 bc
       -0.022597896 0.09254706 0.24044487 -0.012718155
0000f0 59 f9 65 be 4a d4 9c be 0d fd cf 3e a2 fe 86 bd
       -0.224584 -0.30630714 0.4062275 -0.06591536
000100 c1 e5 70 3e 3d fb 1a bf bf b5 1e ba e4 c7 fa be
       0.23525144 -0.6053961 -0.0006054304 -0.4898063
000110 99 01 8d 3b ef 32 16 3e bd 4a 3a 3e 31 88 4b 3d
       0.004303169 0.14667867 0.18192573 0.04969043
000120 f8 3a d1 3d 72 ea 18 bf da cd 81 bd ed 0c 31 be
       0.102163255 -0.59732735 -0.06338091 -0.17290087
000130 4c f7 a1 be e0 b5 16 3d c6 2e df 3b a3 58 5f bc
       -0.31633985 0.036794543 0.0068109958 -0.0136319725
000140 f6 9e b4 bc 23 68 49 be 71 4f 8d be 89 3c b5 3d
       -0.022048455 -0.19668631 -0.2759967 0.08849437
000150 5e 5e b2 bb e4 8c 8f be 01 f5 ce 3e a6 57 e8 bd
       -0.0054433784 -0.2803718 0.40421298 -0.113448426
000160 80 20 30 3e 86 64 82 3d d0 b8 3a be 48 af b2 be
       0.17199898 0.063668296 -0.18234563 -0.34899354
000170 9c 67 27 bc df 10 8a 3e 5d 53 6b 3e 5b 69 1a 3f
       -0.0102175735 0.26965997 0.2298102 0.6031701
000180 b5 2a b8 3e 46 44 4e 3d f5 9b 42 3c 92 f1 0f 3e
       0.35970083 0.05035808 0.011878003 0.14056996
000190 c9 33 bf 3d bd 40 5a 3e 33 bc 7e be 55 98 a1 bc
       0.09336049 0.21313758 -0.2487648 -0.019725958
0001a0 d5 41 ac 3e e0 26 4c be a9 ee d6 3d b6 34 d0 be
       0.33643976 -0.19936705 0.104947396 -0.40665215
0001b0 d9 a9 ad bd 46 07 f7 3d 9e 13 35 be 81 a9 8a bd
       -0.084796615 0.12061934 -0.17683265 -0.067706116
0001c0 d2 13 f2 3d c9 62 58 3e 72 31 b1 be 13 b8 5a be
       0.11820187 0.21131434 -0.34608036 -0.21359281
0001d0 6a b9 29 bd 33 f5 f2 bd ee eb 9d be 07 0e 70 3c
       -0.04143659 -0.11863174 -0.30844063 0.014651782
0001e0 62 ce 20 3d 6d 21 5a bd a3 1b 99 3e a4 ba bc 3d
       0.039259322 -0.053254534 0.29903898 0.092152864
0001f0 11 6d 37 3d 1c 20 61 bd 9a 0b 3c bd 93 ab 1b be
       0.04478175 -0.054962263 -0.0459095 -0.15202169
000200 5f f2 7b bd 5d 8b 5d 3d b3 35 3d be 7f 62 0c be
       -0.06151044 0.054087985 -0.18477516 -0.13709448
000210 a9 e3 88 be 95 e0 da bd ad 5a 10 be dc 89 e3 bd
       -0.2673619 -0.10687367 -0.1409709 -0.11110279
000220 3d a7 23 3e b1 83 38 3d f1 26 1d 3d 21 f7 60 be
       0.15981765 0.045047466 0.038367216 -0.21969272
000230 37 87 34 3d 88 90 4c bd ed 11 5f 3d d9 5e c9 bc
       0.044074263 -0.049942523 0.054460455 -0.02458136
000240 b6 60 d1 bd 6e 40 76 3b 74 7d 47 be a2 fa 7f 3d
       -0.10223524 0.0037575024 -0.1948145 0.06249488
000250 e9 5b bd 3d 55 9f 3b 3e e0 bc f8 bd d4 92 51 3e
       0.09246046 0.18322499 -0.121454 0.20466167
000260 99 f6 bb 3d 4c a3 f3 bd b3 2c 77 be 86 f3 d4 bd
       0.09177894 -0.11896381 -0.24138145 -0.10398011
000270 b1 8d 76 3c 08 8f 1f 3e 90 ad 34 be 5c 85 99 3d
       0.01504843 0.15581906 -0.17644334 0.074961394
000280 5d cb ed 3d 69 ab 18 3e a8 84 1a 3e 84 75 04 3e
       0.11611054 0.14909138 0.15089667 0.12935454
000290 a6 58 54 be 28 46 8b 3e 7a d0 03 3e e7 e8 3a 3e
       -0.20736942 0.27201962 0.12872496 0.18252908
0002a0 8b ed 9e 3d bc 4e 7d bd 0e 2f 8a 3e f3 57 79 3c
       0.077601515 -0.061842665 0.26989025 0.015218723
0002b0 13 45 43 be 53 4f 38 3c 2b 77 93 bd 26 e3 3f bd
       -0.19069318 0.011249381 -0.07200464 -0.046847485
0002c0 cb 56 9b bd a2 bc ea bd 01 e1 50 be 54 15 cb be
       -0.07584914 -0.1146176 -0.20398332 -0.3966471
0002d0 cf 02 12 3d e9 9a 84 3c a2 19 a3 be 98 c1 2a bd
       0.03564721 0.016187148 -0.31855494 -0.04168853
0002e0 5a 23 9a bd 6e 4d 46 be ab 71 a0 bd a1 db e8 3c
       -0.07526274 -0.19365475 -0.078341804 0.02842504
0002f0 99 b9 44 be de 36 20 3e 7a 05 ac 3d 72 26 c3 3c
       -0.19211425 0.1564593 0.08399482 0.023822043
000300 0b 88 b5 bd a3 aa bc 3c a8 60 86 be 76 63 a1 3b
       -0.08863839 0.023030585 -0.26245618 0.0049251867
000310 3b 47 79 bd 0f d5 89 3e 24 6a c9 3d dd 9f 86 bd
       -0.060858946 0.26920363 0.09834698 -0.0657346
000320 e1 8e 4f 3e 4b 07 c7 bd 89 3f a8 bd 9d 76 c3 be
       0.20269348 -0.09718188 -0.08215243 -0.38176432
000330 e8 e6 62 3e 9d ae 43 3e 16 3a f9 bc ab 95 0e 3d
       0.22158396 0.19109578 -0.030423205 0.034810703
000340 4a 00 f8 bd 23 9c 0c 3d ff 36 d2 bc 6d 41 84 bd
       -0.1210943 0.03432859 -0.02566099 -0.064577915
000350 96 2c e4 bd 2e 2e 95 bc e2 a9 f8 bd af a5 ec bd
       -0.111413166 -0.018210497 -0.121417776 -0.11555039
000360 41 52 91 bd 50 80 f2 bd fc 59 69 bc 54 40 79 be
       -0.07095767 -0.1184088 -0.014242645 -0.24340945
000370 de ae 40 be 31 93 5d bd 24 a8 8c 3d b9 b2 4f be
       -0.18816707 -0.05409545 0.06868008 -0.20283021
000380 2f 01 f9 bb 03 9b 88 3d c2 c0 08 3e e1 51 3d be
       -0.007599018 0.06670191 0.13354781 -0.18488266
000390 6f 04 61 be 43 4f 61 3d 9c 96 d5 bd fa ce 8e be
       -0.21974348 0.05500723 -0.10429117 -0.27892286
0003a0 e9 e0 12 be 3a 46 52 be 79 77 f4 bc 59 83 8a bd
       -0.14343609 -0.20534602 -0.029842125 -0.06763334
0003b0 8b ca 96 bd 6d e6 fb 3d d4 9e 51 3d 83 20 c7 bd
       -0.07362851 0.122998096 0.05117686 -0.09722998
0003c0 28 11 9c 3d 04 ab 9b bb 4e db 7e be 9e 3a 17 be
       0.0762046 -0.0047506113 -0.24888346 -0.14768454
0003d0 70 cc b8 3d bf be b5 bd 87 17 23 3d 5e 42 b1 bc
       0.09023368 -0.088742726 0.03981736 -0.021638092
0003e0 3b fe f7 bd 3f 89 4d bd ed a1 0f 3d 9a 06 fe 3b
       -0.121090375 -0.050179716 0.035066534 0.007752252
0003f0 d1 04 e2 3d 92 61 76 3d 8c 10 f6 bd 51 a2 08 3e
       0.11036075 0.060151644 -0.12014875 0.13343169

fc_adv.bias f4 [128]
000000 6a fe db bc 5a 68 59 be 9c e1 82 3d c9 76 26 3e
       -0.026854713 -0.21231213 0.06390688 0.1625625
000010 ef 27 05 be 32 ba 8e 3e 68 de 22 3e f1 3a 14 be
       -0.13003515 0.2787643 0.15905154 -0.1447561
000020 09 f9 9e 3e 20 7e aa bd fb 2a 17 be 48 da b2 bd
       0.31049374 -0.08324838 -0.1476249 -0.0873304
000030 78 9a e5 bd 4d c1 f6 bd 5e 0c 96 3d c7 d4 28 3d
       -0.11211103 -0.12048588 0.073265776 0.041218545
000040 c3 f1 6f be 0a 77 f2 bd 25 ee 94 3d b7 3b bd ba
       -0.23432069 -0.11839111 0.07271985 -0.0014437352
000050 d1 b5 ef bd 52 a0 2e bd 12 bb 37 be 29 e9 a3 3d
       -0.117046006 -0.042633362 -0.17942455 0.08003456
000060 00 89 b2 bd c2 45 6e be c0 e6 2e be 7f b5 18 be
       -0.08717537 -0.23268798 -0.17080212 -0.14912985
000070 8a ff 83 bc 61 27 5c be 5c be ab be c8 0f 89 be
       -0.016113061 -0.21499397 -0.3354367 -0.26769853
000080 9b 68 34 bd 5c d5 07 be 77 fe 94 3a 8c da 98 3d
       -0.044045072 -0.13264984 0.001136734 0.074635595
000090 63 23 25 be 27 90 d8 bd f3 d0 f0 bd dc 3e 54 bd
       -0.1612678 -0.1057437 -0.11758604 -0.05181776
0000a0 98 e7 bc bd 43 81 1c 3d 07 d9 24 be 1e b2 dc bd
       -0.092238605 0.03820921 -0.16098414 -0.10776161
0000b0 4b 3b 3f be a3 97 89 3e ff ba d0 bd 52 0c 26 3e
       -0.18674962 0.26873502 -0.10191917 0.16215637
0000c0 4a ac 34 be c2 a1 62 be 90 3d af bd 17 ba 56 be
       -0.17643848 -0.22132018 -0.08556664 -0.20969425
0000d0 21 ab fe bd e7 74 17 bc fc 39 a9 3e 74 33 49 be
       -0.12434984 -0.00924418 0.3305205 -0.19648534
0000e0 1b cd 1d be 9b 6e 8f be b7 b5 d2 3d ef 86 a2 bd
       -0.15410273 -0.28014073 0.102885656 -0.07935893
0000f0 b8 81 77 bd 32 22 52 be 27 68 9a bd 08 9e 89 bd
       -0.060426444 -0.20520857 -0.07539397 -0.06719595
000100 ba 81 56 be 5f 70 07 be 46 6c 43 be 18 21 01 be
       -0.20947924 -0.1322646 -0.19084272 -0.1261028
000110 cf d8 0b 3e 61 d6 16 be cf 14 24 be c8 7a 7c be
       0.13656925 -0.14730217 -0.16023563 -0.24656212
000120 72 5f 15 be 47 88 14 be 5c 2f 24 be 71 e1 1a be
       -0.14587191 -0.1450511 -0.16033691 -0.15125062
000130 fc a8 dc bd 7d 4b 92 3e 2e 66 50 3e 72 5e 41 bc
       -0.10774419 0.28573218 0.20351478 -0.011802303
000140 e9 45 25 be 95 ae 0e be 00 70 39 be 7a 59 32 3e
       -0.1613995 -0.13933785 -0.18109131 0.17416945
000150 4c 36 92 bd ed f5 6a be 0f 53 36 3e 29 e0 07 be
       -0.071392626 -0.22945376 0.17805122 -0.13269104
000160 1d 2c c9 bd 31 45 33 be 68 51 c7 bd be 59 ab bd
       -0.09822867 -0.17506863 -0.09732324 -0.08366726
000170 d6 26 09 be f2 49 56 bc be 51 e9 bd a3 31 12 be
       -0.13393721 -0.013079153 -0.11392544 -0.14276747
000180 6c ec f4 bc 91 ba b1 bd 80 36 5a be 03 69 b8 bd
       -0.029897891 -0.08678163 -0.21309853 -0.090044044
000190 e7 d2 d0 bd c8 09 65 bd 00 13 9a be 64 a4 12 be
       -0.101964764 -0.05591753 -0.3009262 -0.14320523
0001a0 94 b6 3d 3d 92 73 94 3e c9 3d 80 3e 5c c9 09 be
       0.0463167 0.28994423 0.25047138 -0.13455719
0001b0 00 51 a6 3e 55 3e ce bd 28 65 31 be 69 b2 a1 be
       0.32483673 -0.10070483 -0.17323744 -0.3158143
0001c0 ce e1 dc bd b5 b2 a2 bd 0c 98 96 bd 04 1e 3d be
       -0.10785256 -0.07944242 -0.073532194 -0.18468481
0001d0 9b 18 78 bd 47 75 37 3d 35 d4 fa bd 6a b2 88 bd
       -0.06057034 0.04478958 -0.122475065 -0.06674655
0001e0 72 b7 15 be e5 db 9b bd ee 6a 18 be 59 c9 96 bd
       -0.1462076 -0.07610301 -0.1488454 -0.07362623
0001f0 e7 0b 10 be a1 dc 3c 3d e0 61 61 3d c0 93 e4 bd
       -0.1406704 0.046108846 0.05502498 -0.111609936
