Project/output/cartpole_ddqn_duel_per/best_model.pth (torch, 826658 bytes, 44 tensors)

fc1.weight f4 [128, 4]
000000 1d f9 52 3d 8e ed 53 be a7 20 82 bd 80 6e 03 be
       0.051507104 -0.20696089 -0.06353884 -0.12835121
000010 ec 50 a7 bd 12 4b 4c 3d 6a 7c 36 3e 78 81 cf 3d
       -0.081697315 0.04987628 0.17820898 0.10132116
000020 92 2d 95 3b e8 fd 80 bb 4f c8 9b 3f 3f 61 0c 3e
       0.0045525515 -0.003936518 1.2170504 0.13708971
000030 cd 62 81 3d c3 ac 1a 3e e1 30 36 bf 97 8f 72 bc
       0.06317673 0.15104966 -0.71168333 -0.014804742
000040 f4 37 ba be e8 bd 6c 3c 53 52 17 bf ac 89 aa be
       -0.36370814 0.014449574 -0.5910999 -0.3330816
000050 a9 0b 10 3c b9 32 35 3d 57 1c 60 3f a8 d2 2e 3e
       0.0087918425 0.044237826 0.87543243 0.17072546
000060 7a cc bc 3c e6 97 06 be 16 7e 91 be a8 96 6d bb
       0.02304672 -0.13143882 -0.28416508 -0.0036253128
000070 4b 72 a0 bd 01 30 e6 bd ce 43 71 3f a2 34 60 3c
       -0.078343 -0.11239625 0.94244087 0.013684424
000080 b2 72 e6 3d 18 04 5c be 9b 47 b3 3e da a6 d5 3d
       0.11252345 -0.21485937 0.35015568 0.10432215
000090 77 f5 a1 3d 9e 82 23 3e 46 86 3f bf 7d 10 c0 bd
       0.07908147 0.15967795 -0.7481426 -0.09378145
0000a0 20 eb 3f be 48 ee 8c be 68 6a 4a 3f c8 9b 0d be
       -0.18742037 -0.27525544 0.79068613 -0.13828957
0000b0 8c 78 f9 3c ec 8b 14 3d bb aa ed 3e 38 b3 25 3e
       0.030452989 0.036266252 0.4641932 0.16181648
0000c0 1c 6b 0f be c4 5f 67 bd 2b 6f a7 bc 0b a6 aa bb
       -0.14005703 -0.056487814 -0.020438751 -0.005207782
0000d0 75 6a 82 3d b0 69 ab 3d dd c3 23 3f a9 e3 10 be
       0.06367961 0.08369768 0.6397074 -0.14149345
0000e0 db 85 56 3e f6 47 44 be 3f 7c fa bd f2 7d d9 3d
       0.209495 -0.19168076 -0.12230729 0.10619725
0000f0 38 e7 17 3e 19 2c 38 3e 8c 89 56 3f 78 52 8b 3e
       0.14834297 0.17985572 0.8380363 0.27211356
000100 10 12 c1 bc 8c 0d ac bd 83 63 9b be 43 36 40 3e
       -0.023568183 -0.08401021 -0.3034936 0.18770699
000110 c2 6b 9b bb 4a 83 a3 ba bc ce 55 bf 4a c6 b2 bd
       -0.0047430703 -0.001247504 -0.83518577 -0.08729227
000120 f5 3d 80 3c ed fd c9 3d c4 82 f4 be 07 d9 49 bd
       0.015654543 0.098628856 -0.47756016 -0.04927924
000130 9a 50 83 3e d8 2f fe bb c6 1b 52 bf 43 e8 ce bd
       0.25647432 -0.0077571683 -0.8207363 -0.10102894
000140 49 4a cd 3d 37 eb ee bd eb a0 bf be dc e4 2f 3e
       0.100239344 -0.116659574 -0.37427458 0.17177147
000150 20 f7 ed 39 5e 21 7c 39 31 8a 7c bf 5c 05 d0 bd
       0.00045388285 0.00024045023 -0.98648363 -0.10157272
000160 7e 8a 98 3e b0 0b c0 3c 56 c8 3e 3f 3f 78 43 3e
       0.2979316 0.023443073 0.7452444 0.19088839
000170 af 73 00 bc 3f 1f 84 be 6e 25 f1 be 7f e4 77 be
       -0.007840081 -0.2580509 -0.4709887 -0.24208258
000180 28 ab 8c 3c df 90 c5 3d 76 c4 37 3f ad d5 e0 3d
       0.017171457 0.096467726 0.7178415 0.109782554
000190 38 c4 13 3d aa 07 32 3d 3b 83 1c 3f f1 2d 6e 3d
       0.0360758 0.04346434 0.6113774 0.058149282
0001a0 21 18 18 3e fe 31 5d bd 21 c4 67 bf 3b 1c 2e be
       0.14852954 -0.054002754 -0.90533644 -0.17002957
0001b0 b8 de c0 39 77 6c 1b bc 76 c1 2b 3f 4f 26 77 be
       0.00036787032 -0.009486309 0.6709207 -0.24135707
0001c0 2d 91 0b 3e 3e 44 a0 3d bd db 84 3e 06 6f 1a 3d
       0.13629599 0.07825516 0.25948897 0.037703536
0001d0 c5 2b f3 bd 64 e4 78 3e f6 6e 94 3d cf 55 b6 be
       -0.11873583 0.24305874 0.072477266 -0.35612342
0001e0 68 98 03 be 43 bc 8d be c5 27 1e bf b3 45 6f be
       -0.12851107 -0.27682695 -0.61779433 -0.23366432
0001f0 26 68 70 3d 2e 6e 32 3e 7e 24 2b 3f 01 f1 af bc
       0.058693074 0.17424843 0.6685256 -0.021477224
000200 00 a0 b2 3e e0 57 13 bd 2a 31 52 be b5 25 b8 bd
       0.34887695 -0.035972476 -0.20526567 -0.08991567
000210 3a 9d 9e be e4 d0 a3 3a b0 ae 2c bf ee 8f 8a be
       -0.3097933 0.0012498167 -0.6745405 -0.27062935
000220 db 3e 34 3e 80 3b d8 bc 3a 17 8f be ce a1 9e 3e
       0.17602102 -0.02639556 -0.27947408 0.30982822
000230 af 83 88 be 23 62 b9 3c 19 16 52 3f 7d 13 12 be
       -0.26662967 0.022629803 0.8206497 -0.14265247
000240 1b 25 19 3d 06 30 94 3d d3 c5 c6 3e 76 87 86 be
       0.037388902 0.07235722 0.38822803 -0.26275223
000250 4f 6b 21 3d cf a4 0a be 86 07 00 3c 3e 3c 20 be
       0.039408978 -0.13539432 0.007814294 -0.1564798
000260 6e 13 e5 3d 25 e6 62 be 33 f6 95 3e 45 46 1a be
       0.111853465 -0.22158106 0.29289398 -0.15065868
000270 96 ba 12 3e 86 a7 be 3d 14 7e 6f 3e 2d 2c 3c 3d
       0.1432899 0.09309296 0.23387939 0.045940567
000280 4c 96 0c 3e c9 05 d5 bd 30 f3 5d 3c 8d bf 03 be
       0.13729209 -0.10401494 0.01354675 -0.1286604
000290 86 81 ff 3d 0e 3b 9d bc 70 90 0c bf 08 45 24 3d
       0.124758765 -0.019193199 -0.54907894 0.040104896
0002a0 e8 ee ef bd 0d a1 85 bd 7e a7 2c bf bd 3c f4 bd
       -0.117154896 -0.065248586 -0.6744307 -0.119256474
0002b0 c5 0d 92 3d cc 2c ba bd 2a 6c c7 be 41 11 8c bd
       0.071315326 -0.090905756 -0.3894971 -0.068392284
0002c0 d2 ec 04 be 0c f7 fe 3d 9b 4c 11 bf bd ec 8e be
       -0.12980965 0.12449464 -0.56757516 -0.27914992
0002d0 e8 b3 36 3e a7 c8 2b be e1 f6 42 bf 4e 28 3d 3e
       0.17842066 -0.16775762 -0.7615796 0.18472406
0002e0 6a 9c a1 be e4 62 01 bd 0b 34 0d 3f df f6 a5 3c
       -0.31564647 -0.03158845 0.55157536 0.020259319
0002f0 c9 d3 c0 3e 83 9c 2d 3e a4 bb 22 3f 93 60 17 3e
       0.3766158 0.16954236 0.63567567 0.14782934
000300 cf 6e 6b be 87 fa 49 3e c5 44 ed be 6e cf 8a be
       -0.22991489 0.19724475 -0.4634153 -0.2711138
000310 ce 68 66 be 33 8a 52 bc 10 57 d3 3c 67 8b 78 3d
       -0.22500917 -0.012850332 0.02579835 0.06067982
000320 83 47 40 be 45 4b af bd 00 db 6b 3f 1c c5 34 3e
       -0.1877728 -0.085592784 0.9213104 0.17653316
000330 b7 9c 3d 3c 67 c5 64 bb f3 15 6c bf 0f e7 de bd
       0.011573008 -0.00349077 -0.9222099 -0.10883915
000340 9a 07 5c be a2 7f f3 bd 47 b7 07 3f 40 0b 4a 3b
       -0.21487275 -0.118895784 0.53014034 0.003082946
000350 e9 40 a5 3c 58 00 08 3d d3 28 ae bf b8 80 db bd
       0.020172553 0.033203453 -1.3606209 -0.107179105
000360 d8 dc 2a 3e c3 1b 1b 3d 36 1a 6a 3c 2d c3 08 be
       0.16685808 0.037868273 0.014288476 -0.13355704
000370 a7 33 0c bd 27 bb 11 3d 55 17 3a 3d 98 26 64 be
       -0.034228947 0.035578873 0.045432407 -0.22280347
000380 2a ee de 3d da bd 5f 3e 86 65 f7 be 4e dd 04 be
       0.1088527 0.21849766 -0.48319644 -0.12975046
000390 73 90 ab bd 07 ab c8 3d 05 ea 15 bf a9 3b 66 3e
       -0.08377161 0.09798246 -0.5856021 0.22483696
0003a0 ef 95 66 3e 31 ed 3b 3e 3a ea b9 3e bd 3a 03 3e
       0.22518133 0.183522 0.36311513 0.12815376
0003b0 eb eb 6d bc 7f 56 ba 3d 15 28 43 3f 81 6d 74 bd
       -0.014521579 0.09098529 0.76233035 -0.059674744
0003c0 54 c9 1c 3e 04 80 0e bd 50 e3 53 bf 51 6a 13 be
       0.15311176 -0.034790054 -0.82768726 -0.14396025
0003d0 54 bc 80 be 90 ba f5 bd 18 d0 27 bd d9 e0 b6 bc
       -0.25143683 -0.119984746 -0.040969938 -0.022324013
0003e0 43 5c d7 bd 6e d7 58 be 2f 4c 05 be dc df f8 bd
       -0.105156444 -0.2117593 -0.13017343 -0.12152073
0003f0 fb e4 6b 3e e2 8b 83 bd 17 33 4f 3f c2 eb fc 3d
       0.23036568 -0.06423165 0.8093733 0.12349655

fc1.bias f4 [128]
000000 1b f4 75 bd 87 f5 c5 3d 14 37 75 be 01 33 d3 bd
       -0.06004725 0.09665971 -0.23946792 -0.103124626
000010 6d d4 d4 3d aa 82 89 3e 88 37 03 3e 9b 43 48 3c
       0.103920795 0.268575 0.12814152 0.01222315
000020 5c bd 24 3d 48 db 7c bd b7 9e de 3d ad 60 78 3e
       0.04021965 -0.06173256 0.10870116 0.24255629
000030 c1 93 55 3e e0 17 00 3e d3 86 ad bd d6 0a 36 be
       0.20857145 0.12509108 -0.08472981 -0.17777571
000040 63 8a 82 3d af c3 28 be a5 f4 35 3e 06 2e 03 3e
       0.063740514 -0.16480897 0.17769106 0.12810525
000050 a1 40 c4 3d b3 37 4b be 83 fe 66 3d 21 3c df bd
       0.095826395 -0.19845466 0.056395065 -0.109001406
000060 33 b1 68 3e dd 53 6d 3e 1c 12 50 be 8f 4c d9 3d
       0.22723846 0.23176523 -0.20319408 0.106103055
000070 9f 5e ec 3d 9c e2 16 bd 09 9f 2c be ad 21 af 3d
       0.11541485 -0.036837205 -0.16857542 0.08551345
000080 04 29 f5 bd bc aa 3d be 74 00 35 3d 70 9a 56 3d
       -0.11970714 -0.18522161 0.044189885 0.052393377
000090 5d fe b9 3c dd 1e 38 3e 05 0a 37 3e 27 48 f8 3d
       0.022704298 0.17980523 0.17874916 0.12123137
0000a0 cc eb 64 3e a4 dd 4c 3e f8 9a 99 bd 0b 77 30 3e
       0.22355574 0.20006424 -0.07500261 0.17232911
0000b0 f9 58 18 3e 08 c4 43 3e e8 52 94 bd 70 91 20 be
       0.1487769 0.19117749 -0.072423756 -0.1568048
0000c0 fb 3e 85 bd c0 d6 59 3d 35 9e 4f 3d 93 fc 46 be
       -0.06506153 0.053183317 0.050687987 -0.19432287
0000d0 f3 c2 66 3c 36 7d 61 be c7 cb 5a 3d 13 cb e1 bd
       0.014084565 -0.2202042 0.053416993 -0.110250615
0000e0 41 05 b9 3d b2 35 8b 3d 66 c9 ad bc d5 af 5e 3d
       0.09034205 0.06797351 -0.021214198 0.054366905
0000f0 47 1c 52 be a2 eb cf bd 0b 98 ca 3a ef f9 97 bd
       -0.205186 -0.10152365 0.0015456689 -0.07420718
000100 88 8a 24 3c f8 d4 63 3e af ac 7e bd 4b 9b 22 bd
       0.010042794 0.2224921 -0.062176403 -0.03969888
000110 ce 99 2b be 0b 29 ca 3d 7c 39 f8 3d 81 a0 55 3d
       -0.1675789 0.098711096 0.12120339 0.05215502
000120 16 43 2f be 73 88 de bd 79 4b 4d 3e 2d ed 6e 3e
       -0.17115435 -0.108658694 0.20048322 0.23332663
000130 29 48 1e 3e 1d ea b5 3d 2e 7f 5d be 14 40 ac bd
       0.15457214 0.08882544 -0.21630546 -0.084106594
000140 cc 40 76 3d 51 eb 29 be 8d fe d2 3d 99 d1 52 3e
       0.06012039 -0.16593672 0.10302458 0.20587768
000150 23 b7 10 be b5 f5 31 3d e0 03 10 be 34 29 31 3e
       -0.14132361 0.043447215 -0.14063978 0.17300874
000160 51 d4 46 3e f5 87 96 bd cf 6a c0 bd a6 2c 8d be
       0.1941693 -0.073501505 -0.09395372 -0.27573127
000170 01 4a 12 bd 8c d8 7e 3d 63 0a 71 3e 0b b3 22 be
       -0.035715107 0.062218234 0.23539118 -0.15888612
000180 df 26 cf bd a2 7e cd 3d 15 a5 52 3e 70 a5 2d 3e
       -0.10114836 0.10033919 0.20570786 0.1695764
000190 45 ac 97 bc 92 de 43 3e 57 ed 33 be 81 89 0a 3e
       -0.018514762 0.19127873 -0.17571007 0.13529016
0001a0 5c 42 20 bc 6d 31 61 bd ed 1e 01 3e 18 70 36 be
       -0.009781446 -0.054978777 0.12609453 -0.17816198
0001b0 99 e7 c8 3c 0b 73 33 be 5e 17 79 bd 0b 4e 2e 3e
       0.024524497 -0.17524354 -0.0608133 0.17021959
0001c0 36 ac af bd 26 28 b3 3d ab 3b 53 3e 04 bf 50 be
       -0.085777685 0.08747892 0.2062823 -0.20385367
0001d0 5e 6f c0 3d 7b 97 dc bd 66 0e 2b 3d 52 1b 6f bc
       0.093962416 -0.1077108 0.04176178 -0.014593916
0001e0 96 f0 ac bc bb 45 3d be 01 bd 94 bd db ee 47 3e
       -0.021110814 -0.18483631 -0.07262612 0.1952471
0001f0 57 8b f1 bd 46 15 81 3d 90 0f 47 3e 4e 16 01 3d
       -0.11794155 0.06302886 0.1943953 0.031515412

fc2.weight f4 [128, 128]
000000 8b 35 83 be 85 2c e2 3d 6e cf 22 bf 7e 44 62 be
       -0.25626788 0.11043648 -0.6359776 -0.2209644
000010 18 dc 5f bd ed 8c 81 3d 49 b3 22 3e 13 4a 40 be
       -0.054653257 0.063257076 0.15888704 -0.18778257
000020 83 ad 7c bd 67 16 81 3d cc 4d c8 bd c9 7c 86 3c
       -0.06168891 0.06303101 -0.097804636 0.016416924
000030 1e 06 80 3e 4f 2e 1b be b6 c7 bb 3d c4 fc 23 bf
       0.25004667 -0.15154384 0.09168951 -0.64057565
000040 ab d9 75 3c 1c 6f 01 bf 7b b2 64 3e 61 fd 0a 3e
       0.015005509 -0.50560164 0.2233371 0.13573219
000050 10 24 04 3e fa 60 81 bf 8d 70 20 be c4 a6 05 be
       0.12904382 -1.010772 -0.15667935 -0.13051897
000060 ff 56 ba 3c a6 4d e3 3d 9d 41 0a be 3c 44 4f 3c
       0.022746561 0.11098795 -0.13501592 0.012650546
000070 60 c6 d0 3d 0d 8b 40 3e 78 35 4b bf 76 f4 9e bc
       0.10194087 0.18803044 -0.7937846 -0.019403677
000080 dd 1c 8a bd ce 27 22 bd 3b 94 a0 3d de 00 55 be
       -0.067437865 -0.039588742 0.07840773 -0.20801112
000090 f6 df 90 bd ad d8 2b bd f6 43 0b 3e 4a c2 69 3d
       -0.07073967 -0.041954685 0.13600144 0.057070054
0000a0 ac 91 8c 3d bf 69 37 3d 6f 34 0d bf 89 67 f4 bb
       0.06863722 0.04477858 -0.5515813 -0.0074586314
0000b0 d4 b2 a7 3d e5 59 f0 3d 14 4c b5 be 12 64 c2 bd
       0.08188406 0.11735896 -0.35409606 -0.09491743
0000c0 f8 b5 0c 3d 14 f9 3c bb e2 e6 20 be 95 73 fb be
       0.034353226 -0.0028834986 -0.15713075 -0.4911162
0000d0 3e ba 93 3c c7 f0 64 be 8a 8e 11 3e 2f 0f 86 bd
       0.018033143 -0.22357474 0.1421453 -0.06545865
0000e0 dd d1 05 bd dd e8 92 3d b4 8c b2 3d 65 74 05 3d
       -0.032670844 0.071733214 0.08718243 0.032581706
0000f0 bb d6 40 be 2c f0 03 bf 75 98 38 bd 46 10 1a be
       -0.18831913 -0.5153835 -0.04506727 -0.1504527
000100 de 2b 93 3c f4 06 61 3d 70 e0 11 be 18 ce 41 bd
       0.017965253 0.05493827 -0.14245772 -0.047315687
000110 7a 01 17 bf af 78 75 bd 53 56 e7 3c 08 3a 22 3e
       -0.5898663 -0.059929546 0.028239405 0.1584245
000120 9e 47 bc 3d 7a df 8b ba 16 d3 98 bd 57 6b cc bc
       0.091933474 -0.001067146 -0.074621364 -0.024953527
000130 f0 b2 3d 3e 66 99 f4 3c 43 f1 61 bf 30 1f 03 be
       0.1852529 0.029858302 -0.8825876 -0.12804866
000140 61 89 f0 3d ea c7 cd bc 62 8c b6 3d ea 0d 7e 3e
       0.11744953 -0.02511974 0.08913495 0.24809995
000150 1a f5 e6 bd d8 81 ed 3c 0a 5d ba 3d c6 f1 86 3d
       -0.11277218 0.028992578 0.09099777 0.065890834
000160 ee 11 65 3d 2d 15 51 be 1d b2 4f be d1 3b b3 be
       0.055925302 -0.20418234 -0.20282789 -0.35006574
000170 30 f2 3f be 2d 3c 65 bd a3 10 e4 3d b2 9f 82 be
       -0.18744731 -0.05596559 0.11135986 -0.25512463
000180 63 17 09 be 1b c5 5a be b5 12 f6 bc 0e 7f 00 3e
       -0.13387828 -0.21364252 -0.030038217 0.12548468
000190 63 47 d4 3d 31 7b 2d 3b c3 3f bc bd 4f ad 33 bd
       0.103651784 0.0026471133 -0.09191849 -0.04386645
0001a0 82 5a ba be ad 26 c3 bd 4e 2c 3f bd 43 19 2c be
       -0.36397177 -0.09528861 -0.04667311 -0.16806512
0001b0 65 ad 07 be 9f 91 33 be 93 ba 9b bd d6 5b 2f 3d
       -0.13249739 -0.17536019 -0.076039456 0.04281219
0001c0 f2 f8 19 bd 2b 03 5a 3d cf 92 46 bc 4a ab 8d bf
       -0.03759093 0.053225677 -0.012119963 -1.1067898
0001d0 55 56 f4 3d 6e 8e c6 3d de c5 b5 bd 4c 7b ae be
       0.11930529 0.09695135 -0.08875631 -0.34078443
0001e0 f4 0b e2 bd ae 65 4e bf 0f 6c 99 be 07 b6 dd bd
       -0.11037436 -0.806239 -0.29965255 -0.108257346
0001f0 75 b1 01 bf cc f2 32 ba 8e ef 78 3e 49 2d 90 3d
       -0.506614 -0.00068263407 0.24310133 0.070398875
000200 eb 67 26 3d 30 df 60 3d af 22 05 3e 3b 92 35 3c
       0.040626448 0.05490035 0.13001512 0.011082227
000210 b6 ef a0 3d eb d6 94 bd f7 f0 0f be b1 25 29 be
       0.07858221 -0.07267555 -0.14056765 -0.16518284
000220 03 15 a4 bc 0c bf 97 bd 65 76 a1 bc 2e 51 df 3c
       -0.02002955 -0.07409486 -0.019709775 0.02726039
000230 82 f4 cf bd ea 55 26 be e2 1d 20 be 7d 41 a6 3d
       -0.10154058 -0.16243711 -0.156364 0.0811796
000240 1f 68 2d bd 51 82 1c 3d 99 31 c7 bd 89 d7 c7 bd
       -0.042335626 0.038210217 -0.09726257 -0.09757907
000250 b9 ad 85 bd bf 9c 12 3e cd 0b 2e 3d 97 d5 51 3d
       -0.065272756 0.14317606 0.042491723 0.051229086
000260 8e a9 7a 3d d8 39 e7 bd af 96 b5 3d 29 2a 6d 3d
       0.061196856 -0.1129033 0.08866631 0.057901535
000270 fc b0 9b 3d d4 a7 5a bd 1c 76 8b 3d b0 52 ee 3d
       0.076021165 -0.05338271 0.06809637 0.11636865
000280 4c 28 09 bd 2d ad a7 bd e3 ca 90 3d 29 29 e1 bd
       -0.033485696 -0.081873275 0.070699476 -0.10994179
000290 4a 85 a4 3c c5 fd 9b 3d 74 4c 03 3d 20 af bb bd
       0.020083088 0.07616762 0.032055333 -0.09164262
0002a0 30 d2 66 3d 56 2f cd ba 16 db 5e 3e 47 e6 c8 bc
       0.056352794 -0.0015654366 0.21763262 -0.024523867
0002b0 8d fc 0e bc d1 9b e2 bc 02 4e 22 be 3e 3d 0d be
       -0.008727205 -0.02766219 -0.1585007 -0.13792893
0002c0 27 b5 15 bd 09 c2 10 bb 36 3d 8f be 17 8f 21 3e
       -0.036549713 -0.002208831 -0.27976388 0.1577724
0002d0 7c d6 53 bd 1b f4 49 3e 33 83 fd bd 90 e8 b9 bc
       -0.05171822 0.19722025 -0.1237854 -0.022693902
0002e0 9e 82 5d bc fc 79 e2 bd 76 67 57 bd c5 42 27 be
       -0.013519911 -0.11058423 -0.052588902 -0.16334064
0002f0 12 bd 48 3e 73 f6 0f 3e dd 59 0b be 45 97 cb bd
       0.19603375 0.14058857 -0.13608499 -0.09940962
000300 0d 1c d8 bd eb 18 80 be 38 fd 8a 3b 37 8c 9b bd
       -0.10552225 -0.2501901 0.004241612 -0.07595103
000310 f4 d6 15 3e 8c 66 f0 3c 14 d0 12 be 18 8b 03 be
       0.1463278 0.029345773 -0.14337188 -0.12846029
000320 c3 92 01 3e a1 68 ba bd 3d d8 80 3d fb 36 20 bd
       0.12653641 -0.09101988 0.06291244 -0.039114933
000330 c8 65 1c be 94 09 2a 3c 92 34 66 bc dd 14 36 bd
       -0.15273201 0.01037826 -0.01405062 -0.04445349
000340 72 0b 72 3c 15 ba e9 bd 38 e8 a3 bc e7 bd 13 be
       0.014773237 -0.114124455 -0.020008191 -0.14427911
000350 b1 7c 3f 3c 44 69 43 bd c5 fb 68 bd 39 bc 01 3d
       0.011687444 -0.04770781 -0.05688073 0.031673644
000360 06 34 b0 bd 54 a4 09 3e 23 7f a7 bd a6 8c f1 3c
       -0.08603673 0.13441592 -0.08178546 0.029486012
000370 82 59 55 bd 71 0e 9f 3d 06 f9 59 be 17 7c 12 3e
       -0.052087314 0.07766426 -0.21286401 0.14305149
000380 9c 4a c8 bd a3 e9 8c 3d 3e aa 61 3d 0e 81 c3 bd
       -0.097798556 0.068805 0.055093996 -0.095460996
000390 85 fd 51 bd 23 09 13 be 31 64 3e 3d b4 00 b5 bd
       -0.051267166 -0.14358954 0.04648227 -0.08838025
0003a0 e0 53 e2 3d fc d5 21 bc 3c 9c ef bd 26 2e d4 39
       0.11051154 -0.009877678 -0.11699721 0.00040470174
0003b0 d2 41 3a 3c c3 32 fe bd 5f 71 2f bd 04 05 53 be
       0.011368232 -0.12412026 -0.04283273 -0.20607382
0003c0 90 5a a2 3d 68 01 4a be 7f a6 81 be 97 81 06 3e
       0.0792743 -0.19727099 -0.2532234 0.13135372
0003d0 5f a2 08 be 77 bd 5c bd 23 82 bc 3d f3 f9 82 bd
       -0.1334319 -0.053891625 0.09204509 -0.0639533
0003e0 4a 90 5e bd eb 28 cc bd 7c e0 d5 3d 78 a2 ac 3d
       -0.054336824 -0.09968742 0.104432076 0.08429426
0003f0 86 43 62 bd 53 d4 45 bc 9c 37 fa bd 27 3c 92 bc
       -0.055240177 -0.012074548 -0.12217638 -0.017850948

fc2.bias f4 [128]
000000 dd ab 19 3e a7 de 5f bd 47 7c 39 3e a6 a6 07 3d
       0.15006967 -0.054655697 0.18113814 0.033117913
000010 1d d3 b6 3d 60 5b 18 3e 65 b9 0c 3e 51 e2 75 bd
       0.089269854 0.14878607 0.13742597 -0.060030285
000020 d9 46 c7 3d 91 f7 f4 3d 31 93 c5 3d 89 55 29 3e
       0.0973031 0.11961282 0.09647215 0.16536535
000030 1d 3c 41 3d e8 b2 d6 3d 1b c8 2f 3e c5 ec 2b 3e
       0.04717647 0.104833424 0.17166178 0.16789539
000040 01 51 72 bd fb 0c 2d bd 38 50 e2 3d 37 91 09 3e
       -0.059159283 -0.042248707 0.11050457 0.13434301
000050 79 84 2b 3e be a7 f3 bd 82 e7 53 bd 2b 4b 2e 3d
       0.16749753 -0.11897229 -0.051734455 0.042552155
000060 29 08 9a 3d a5 36 f2 bd 33 8d 4a 3e db 63 58 3e
       0.07521088 -0.11826829 0.19780426 0.21131842
000070 15 78 06 be 97 2e 77 3d 19 5c 06 3e 7e c9 38 3e
       -0.13131745 0.060347166 0.1312107 0.18045613
000080 0f 75 75 3e 74 98 17 be 1c 30 23 3e 0a 01 ac bd
       0.23970436 -0.1480425 0.15936321 -0.08398636
000090 56 98 28 3e 46 2d 00 3e 96 3f d7 3d 72 e3 99 bd
       0.16464362 0.1251727 0.10510175 -0.07514085
0000a0 aa c9 fb 3d 77 30 d6 3d 30 3c 0c 3e 9f 09 00 3e
       0.12294324 0.10458463 0.13694835 0.1250367
0000b0 f3 d7 28 3e 3d 81 2e bd bc 1b e8 bd 01 ae 1c 3e
       0.16488628 -0.04260372 -0.11333415 0.15300752
0000c0 1c 96 be 3d 96 a5 4b 3d 14 cd cc 3d 4e 1f 24 3e
       0.09305975 0.049718462 0.10000053 0.16027567
0000d0 31 0e 01 3e 25 d6 26 3e 6f 93 56 3e 19 45 c5 bd
       0.1260307 0.16292627 0.20954679 -0.0963232
0000e0 30 0d 40 be bc cb 28 3e d6 5e 3e be a4 0e 09 3e
       -0.1875503 0.16483968 -0.18590865 0.13384491
0000f0 5e 0d b0 3d 0f 67 50 3d 3f 60 09 3e 10 e2 2a 3e
       0.085962996 0.050879534 0.13415621 0.16687799
000100 2f ce a0 3d 74 b5 fb 3d a0 71 a7 3d 71 f7 5c bb
       0.078518264 0.12290469 0.08175969 -0.0033716823
000110 14 76 c0 3d a4 0f 02 3e 2a ef 17 3e 93 44 99 bd
       0.093975216 0.12701279 0.14837328 -0.074837826
000120 16 b7 59 3e 00 00 00 00 d9 a0 3e 3e 72 38 6c bd
       0.21261248 0.0 0.18616046 -0.057671018
000130 d3 54 50 3d ab 94 17 3e 54 03 87 3d ab a8 1e 3e
       0.050862145 0.14802806 0.06592432 0.15494029
000140 86 55 e3 3d a1 fb 22 3e 6d 91 38 be a1 57 4c 3e
       0.11100297 0.15916301 -0.18024226 0.19955303
000150 62 98 e6 bd 45 b3 14 be bb 65 db bc 3e d6 bf 3d
       -0.112595335 -0.14521511 -0.026781907 0.09367035
000160 ee 5b 26 bd 1a 4e 0a b9 73 e8 42 3e e7 9c 30 3e
       -0.040615015 -0.000131898 0.19033985 0.17247353
000170 4a 23 af 3c f6 3b 51 3e 85 f0 85 3d 00 00 00 00
       0.021379132 0.2043303 0.06540016 0.0
000180 6d fe 14 3e 75 41 21 3c 92 dd 05 3e d4 f7 18 3e
       0.1455018 0.009842266 0.13072804 0.14938289
000190 c8 ec 2d 3e 87 44 15 be 7c 81 6c 3e 2f c7 02 bd
       0.16984856 -0.14576922 0.2309627 -0.031928238
0001a0 47 c0 0a 3e 2a 4a 75 be 26 a2 2b 3e 4d 3b 2d 3e
       0.1354991 -0.23954073 0.16761073 0.16917153
0001b0 5c 4e f1 bd f8 27 64 3d 01 0d 11 be 46 7d 50 3e
       -0.11782524 0.05570218 -0.14165117 0.20360288
0001c0 f6 24 20 3c f8 c5 81 3d f4 8d 33 3e ab f0 1b 3e
       0.009774437 0.06336588 0.1753462 0.15228526
0001d0 21 c8 2c 3e bd 90 84 bb ac 1e 22 3e 89 5d 07 bd
       0.16873218 -0.0040455745 0.15832013 -0.033048186
0001e0 03 de 49 3e a0 5c bf 3d 35 19 97 3d 1c ee 10 3e
       0.19713597 0.09343839 0.07377855 0.14153332
0001f0 4d ee dc bd b1 25 2f 3e 99 ac 25 3e 2b 6b 38 3e
       -0.1078764 0.17104222 0.16179122 0.18009631

fc_value.weight f4 [128, 128]
000000 ca e9 36 3e ff ba 92 ba 52 96 93 3c c6 ae 9f bd
       0.17862621 -0.0011194645 0.018016014 -0.07797007
000010 8d 7b fc 3d 9c eb 8c bd f4 6c 7b 3e 04 b2 30 3c
       0.12328253 -0.068808764 0.24553281 0.01078463
000020 47 ca 7e 3e 4b 25 54 bd bc 28 f1 3d 88 4a ed 3d
       0.2488185 -0.051793378 0.117753476 0.11586481
000030 4a 11 b4 bc 00 97 1b 3c 91 fb 16 3e de ff 4a 3e
       -0.0219809 0.00949645 0.14744402 0.19824168
000040 cb f4 32 bd 4c 20 0c 3c 0d 43 55 3e fe 5a 09 3c
       -0.043690484 0.008552622 0.20826359 0.008383511
000050 89 4f 8a 3b 08 ed da 3d d5 a1 d8 bc 40 79 a9 bd
       0.004220907 0.106897414 -0.026444355 -0.0827508
000060 10 af 8d bb a0 c6 74 3e 19 f2 4e 3b e2 84 48 3e
       -0.0043238476 0.23903894 0.0031577407 0.19581941
000070 66 ec bc be d3 e4 22 3d 2b 9e 53 bd 9d 59 00 bd
       -0.36899108 0.039769005 -0.051664513 -0.031335462
000080 49 5b 52 3e 0b 90 85 be 27 c0 8b bd 23 03 a6 bf
       0.20542635 -0.2608646 -0.068237595 -1.2969707
000090 7a 0d 51 3e d5 bb ca 3c 7c ff 55 3e e9 60 11 bd
       0.20415297 0.024747768 0.20898241 -0.03549281
0000a0 77 05 6d bc ef 38 89 3e 5b aa f7 bc ee 3a 1a 3e
       -0.014466635 0.2680125 -0.030232599 0.15061542
0000b0 48 f9 3d 3d 8c 54 9b be 6d 51 0c bf bf 0e 7f 3e
       0.04638031 -0.30337942 -0.54811746 0.24907969
0000c0 fc 2c 34 3e 32 ed f5 3d d7 fb af 3d 40 96 1f bc
       0.17595285 0.12008132 0.085929565 -0.009740412
0000d0 da 3e e4 3c 39 c3 a0 3e db 3b 32 3e 42 0e e9 bd
       0.027862001 0.31398943 0.17405646 -0.113796726
0000e0 e3 bf 77 3f 7b 6a e9 bc c5 a3 7f be ff 34 46 3e
       0.9677717 -0.028493157 -0.24964817 0.19356154
0000f0 a4 0f c1 3b f7 26 b2 be 77 ad 73 3d 2a 25 bb bb
       0.005891757 -0.34795353 0.0594916 -0.0057112174
000100 dd 53 e0 3c b3 3b b0 3c ea f9 72 3e fd 2a fc bd
       0.02738374 0.021512842 0.23728147 -0.12312887
000110 fe 12 52 3e e1 25 31 3e 9a 47 4e 3e e9 2c 49 be
       0.20515057 0.17299606 0.20144501 -0.19646038
000120 8b 78 9f 3b 7c a8 65 bd 43 7f 43 3e 0b 91 07 bd
       0.0048666648 -0.056068882 0.19091515 -0.033097308
000130 4b 58 c7 3d 77 93 9b 3d 86 9b 58 3e 5d b4 68 3e
       0.097336374 0.07596486 0.21153077 0.22725053
000140 9a c0 fc 3d 32 b1 a2 3e e0 11 32 be f9 2f e8 3d
       0.12341423 0.31775814 -0.17389631 0.11337275
000150 56 43 2e 3e 4a b2 db 3e ce f3 41 3c 7a 31 c7 3d
       0.17017874 0.4290946 0.011837913 0.09726234
000160 8a 72 57 3e b5 49 6c 3d 09 98 0c 3e ac 59 44 3d
       0.21039787 0.05768748 0.13729872 0.04793708
000170 ae e1 a3 3d 8f 7b 8d 3e 38 3b 15 be e6 9b 3f bd
       0.08002029 0.2763333 -0.14573371 -0.046779536
000180 b9 1c 5b bc 53 d2 0d 3e 41 9a 22 3e 75 7c d1 3d
       -0.013373547 0.13849764 0.15879156 0.102288164
000190 6d 1d 4e 3e 6b a1 3e bd 80 ca 66 3e c8 69 a8 bd
       0.20128413 -0.04654066 0.22538185 -0.08223301
0001a0 34 1b 7a bd c0 24 2c be 71 ed 6c 3e 42 63 7e 3e
       -0.0610611 -0.16810894 0.23137452 0.24842551
0001b0 bc 1a 17 bf 07 72 5b 3e 72 44 bf be 36 87 7d 3e
       -0.5902517 0.21430217 -0.37356907 0.2475861
0001c0 88 8b 07 3e 21 de 40 3d 5c 78 d4 3d 35 4c 00 3e
       0.1323682 0.04708684 0.10374519 0.1252907
0001d0 98 33 ac bc d1 ed b5 3d 5e 3e 72 3c 50 05 57 bd
       -0.021020696 0.088832505 0.014785377 -0.0524953
0001e0 32 98 94 3e 6b 1a 3b 3e 9f 59 4d 3e 4c 30 24 bd
       0.29022366 0.18271796 0.20053719 -0.040085122
0001f0 5d c6 8f bd b7 62 01 3e d5 e1 4b 3e c1 e2 09 3e
       -0.07020257 0.12635313 0.19910367 0.13465406
000200 bf d9 f4 be 0b f2 fc 3d 30 5c 73 3d fb 0c 81 3d
       -0.47822377 0.123508535 0.05941409 0.06301304
000210 be 33 32 bb 33 6d d4 3c 3d 4a 59 be 4e e8 52 be
       -0.0027191485 0.025930976 -0.21219726 -0.2059643
000220 1e 33 8d 3b 1b a0 33 be 70 aa 15 3e b9 11 0b be
       0.004309072 -0.17541544 0.14615798 -0.1358098
000230 d8 b8 b8 be 6f 25 29 bd d1 47 58 be 0e c3 88 be
       -0.36078525 -0.041295465 -0.21121146 -0.26711315
000240 ae dc 14 3e e7 d6 be 3d 36 27 e4 3c 56 33 92 3d
       0.14537308 0.09318333 0.027850728 0.07138698
000250 26 c9 21 3e 0d 27 f5 3c 27 b6 25 3f 74 67 58 bc
       0.15799388 0.029925847 0.6473107 -0.013208259
000260 f3 9c b4 3e 89 6b 0b be ba 9e 45 3e c6 5c 6b 3e
       0.35275993 -0.1361524 0.1929883 0.22984609
000270 4c d1 88 3e 27 fd 1c be 59 d0 fd bd 43 0b 55 bd
       0.2672218 -0.15330945 -0.12393255 -0.052012693
000280 3a 49 58 be 25 49 8e 3e af d4 a4 bc 72 0a 21 3e
       -0.21121684 0.2779018 -0.020120947 0.15726641
000290 6d 9e 08 bd 82 13 ab bd f4 de 06 3e fb 46 db 3c
       -0.03335421 -0.0835333 0.13170987 0.026767245
0002a0 8e f2 12 3e 3a 0f 0c 3e 7a 91 2c bf c7 00 82 3d
       0.1435034 0.13677683 -0.6740948 0.063478045
0002b0 8d 55 ee be 0e ff c9 bd cc f8 0f 3f 4c 37 6f 3c
       -0.46549645 -0.09863101 0.5623901 0.014600586
0002c0 80 29 4a bd b5 8f d3 be 4e 4e 84 bd e2 1f 16 3e
       -0.049355984 -0.41320577 -0.06460248 0.146606
0002d0 5e 88 12 be 30 ee 2b bf d1 f7 bf be 42 3e e7 3d
       -0.14309832 -0.6716032 -0.37493756 0.112911716
0002e0 62 1f 01 bf d5 2c 6a be c6 1a 35 be f4 02 77 3e
       -0.5043851 -0.22868665 -0.17685995 0.2412222
0002f0 86 60 80 39 74 c3 9e 3d 39 fd c0 bd e2 20 a5 be
       0.00024485978 0.077521235 -0.094232984 -0.3225165
000300 60 0b 3d 3e b4 66 aa 3e 36 3c 15 bd e7 a8 d7 3d
       0.1846137 0.3328148 -0.036434375 0.105302624
000310 c5 c2 3d be 48 fb 4c 3e 31 16 d5 be e4 55 23 be
       -0.1853133 0.20017731 -0.41618493 -0.15950733
000320 21 a3 20 3c 74 1d ad bd 1c a9 22 3e 9a e2 e5 3c
       0.009804518 -0.08452883 0.15884823 0.028062154
000330 65 34 c8 be 54 25 46 3e 89 a5 de 3d dc f3 ed 3c
       -0.39102474 0.19350177 0.10871417 0.029046945
000340 c1 f0 92 bd b8 dd 9b be 9e 9d ea bd ab d3 e2 3c
       -0.071748264 -0.30442595 -0.11455844 0.027688822
000350 14 ab 3c be eb 55 a8 bd 8d 4c 78 be 35 fe 86 bf
       -0.18424636 -0.082195126 -0.24247952 -1.0546328
000360 9b 66 19 be aa 09 6b bd f3 81 71 be 5b 23 bf bf
       -0.14980547 -0.057382263 -0.23584728 -1.4932665
000370 01 c0 25 3e 43 79 46 be 19 8b e1 3e f0 2d 76 3c
       0.16186525 -0.19382195 0.44051436 0.015025601
000380 73 75 da bd 1c cd 11 3d fb 30 4b 3e 3e 37 0c 3e
       -0.10666933 0.035596 0.19842903 0.13692948
000390 43 03 23 bd d1 47 bd be 60 41 df be 3e 0f 88 3e
       -0.039798032 -0.36968854 -0.43604565 0.2657413
0003a0 f0 73 02 3c 8b 1d 1b 3e 90 c3 e0 bd 3d b3 d4 be
       0.007962212 0.15147988 -0.109748006 -0.41542998
0003b0 26 60 18 3f 44 37 97 3c 0f 3c 91 3e 0c 01 d5 be
       0.5952171 0.01845897 0.28366134 -0.4160236
0003c0 94 72 84 3d f8 47 61 be 3a b3 35 be cf 94 73 3d
       0.064671665 -0.2200011 -0.17744151 0.059468087
0003d0 4c 0e a5 3c 5b a8 09 be 9e 78 86 3e ca ae d7 3e
       0.020148419 -0.13443129 0.262639 0.4212554
0003e0 21 13 a4 be 28 2b b3 3d 88 dd 59 3d 1c 38 68 3e
       -0.32045844 0.08748466 0.053189784 0.22677654
0003f0 15 ee 88 3e 07 ba ec 3d 8b 01 ef be ac c3 30 3c
       0.26744142 0.115589194 -0.46680865 0.010788839

fc_value.bias f4 [128]
000000 1e 8b eb 3d 1f d1 52 3d 1d 7a 05 3c 17 bb 1f 3d
       0.11501144 0.051468965 0.00814679 0.038996782
000010 bd c2 e7 bb 48 ee a0 bb 39 be 16 3e b9 a5 3f 3d
       -0.007072775 -0.004911218 0.14721002 0.046788905
000020 e3 8d 74 3d 2a 74 00 3e 46 ec 7e 3d ec e3 ee 3d
       0.059705626 0.12544313 0.062237047 0.116645664
000030 c4 63 08 bc 3b 1f fc 3d 00 00 00 00 00 00 00 00
       -0.008324567 0.12310644 0.0 0.0
000040 4c f6 20 bc ab 29 da 3d f9 41 00 bc a2 98 36 3d
       -0.009824347 0.10652479 -0.007828229 0.044579156
000050 b7 4f d6 3d a5 cf d6 3d 80 23 db 3d 59 99 f2 3d
       0.10464423 0.10488824 0.107001305 0.11845655
000060 02 4b 0c 3d 7d 31 03 3e e0 17 1b bc 69 04 8f 3b
       0.03425122 0.12811847 -0.009466141 0.0043645394
000070 82 a0 d5 3d 14 66 10 3e a2 0b 5c 3d d2 f6 e7 3d
       0.10431005 0.1410144 0.05372203 0.11326374
000080 03 56 d5 3d 71 98 b9 bb ff 8a 16 3d 0f d6 e8 3d
       0.10416796 -0.0056639244 0.03675365 0.113689534
000090 d9 f0 fc 3d e9 8b d9 3d 6d ef ab bc a5 d5 d6 3d
       0.123506255 0.10622389 -0.02098819 0.10489968
0000a0 d9 71 35 bd 45 e2 c3 bd 77 bc fc 3d d3 bc 0f 3d
       -0.044298027 -0.09564642 0.12340634 0.035092186
0000b0 96 1a ec 3d 43 9b f8 3d 66 63 d8 3d 6c bc 83 3d
       0.11528508 0.12138989 0.10565834 0.06432423
0000c0 1e 3d 26 3e 63 a3 ed 3d b4 b0 84 3a 9b eb 5d bd
       0.16234252 0.11603429 0.0010123462 -0.05417977
0000d0 37 6b a4 3d 8f e3 dc 3d b0 5e 28 3d 87 ed 0b 3e
       0.08028262 0.10785591 0.041105926 0.13664828
0000e0 17 55 b6 3b ce e9 0b 3e 00 00 00 00 17 08 1d 3d
       0.0055643427 0.13663408 0.0 0.038337793
0000f0 0e cb 0a 3d e5 e0 ed 3d 54 90 2a bc 3d 43 dc 3d
       0.033885054 0.11615161 -0.010410387 0.10755012
000100 51 27 5d bd be d6 dc 3d 5e c2 dd bb b4 91 ae bd
       -0.053992573 0.10783146 -0.006767555 -0.085238844
000110 bb cb ee 3d 8e 5e 00 3e 89 6a 15 bb 45 d1 dd 3d
       0.11659952 0.1253607 -0.0022799096 0.108309306
000120 9e 9c 10 3e e2 9c 2f 3d 5b 2b 07 3e 00 00 00 00
       0.14122245 0.042874224 0.13200133 0.0
000130 6e 0b f8 3d 6c 42 6f 3d 95 3e ff 3d 53 5e d7 3d
       0.12111555 0.058412954 0.124631085 0.10516038
000140 85 d6 e9 3d 7e 6e e5 3d be d7 16 3e 1e 50 ce bc
       0.114178695 0.11202715 0.14730737 -0.025184687
000150 72 be 58 bb 64 4d 7d bb 3d b1 ee 3d 2f 6e 1f 3e
       -0.0033072499 -0.0038650865 0.11654899 0.15569375
000160 04 90 df 3d 3e ca be 39 bd f6 12 3c 85 66 d9 3d
       0.10916141 0.00036390306 0.00896996 0.10615257
000170 9e ff 69 bd b6 3f fc 3d f8 4b e4 3d 3d 0d d9 3d
       -0.05712854 0.123168394 0.111473024 0.10598228
000180 6f c7 15 3d 7d 73 18 3e 5a c5 e8 3d b1 b0 dc 3d
       0.036567148 0.14887805 0.11365767 0.10775889
000190 0c 41 2c 3d 5b 04 ef 3d 5e 05 4e 3d 01 48 ef 3d
       0.04205422 0.116707526 0.050298087 0.116836555
0001a0 fb e2 e0 3d 7a c0 f0 3d 15 da d8 3d 21 7f 07 3e
       0.10980793 0.11755462 0.10588471 0.1323209
0001b0 fd ff c0 bb 34 d9 20 3d d7 3a 23 bc 87 25 d8 3d
       -0.005889891 0.03926964 -0.009962759 0.10554033
0001c0 d3 f7 21 3e a7 96 d6 3c a5 7b 0b 3e d9 70 01 3e
       0.15817194 0.026194884 0.13621385 0.12640704
0001d0 37 bc 10 3e 1e 49 e7 3d 14 3a 00 3e 1f 90 db 39
       0.14134298 0.11293243 0.12522155 0.00041878314
0001e0 ca 04 dc 3d 62 b3 0e 3e 74 e6 0f 3e 7b cb bf 3c
       0.10743101 0.13935617 0.14052755 0.023412457
0001f0 e3 7a b5 bd 79 26 fc 3d 0f f4 d8 3d 0c 3c a0 bb
       -0.088613294 0.123120256 0.105934255 -0.0048899706

value.weight f4 [1, 128]
000000 bc 4c 75 3e e2 7f 20 bf c9 49 7c bf 0b fc 74 bf
       0.23955053 -0.62695134 -0.9855009 -0.9569709
000010 3c d7 48 bf c9 34 9e be 9c 4f c2 3e 40 46 b5 bf
       -0.7845342 -0.30899647 0.37951362 -1.4162064
000020 86 c7 e4 be bc 4a a2 3e c2 52 0b c0 72 d7 ec 3e
       -0.44683474 0.31697643 -2.1769261 0.46258122
000030 ee dc 1c be 34 64 ad 3e f8 2a 06 3e 20 39 8a bb
       -0.15318653 0.3386551 0.13102329 -0.0042182356
000040 e7 46 f3 be c6 17 63 3e 8c f1 52 bd 66 bc 54 bf
       -0.47515032 0.22177038 -0.05149989 -0.83099973
000050 7b 62 66 3e ba 1a 8d 3e d5 b9 61 3e 25 97 44 c0
       0.22498505 0.27559453 0.22043546 -3.0717251
000060 58 56 28 c0 5f d8 92 3e 12 d0 b8 3f 9a d7 33 3d
       -2.63027 0.28680703 1.4438498 0.043906786
000070 58 c0 8c 3e 3d e3 98 3e 65 f2 f6 bf ce 90 a5 3e
       0.27490497 0.2986087 -1.9292723 0.3233704
000080 da 0c 97 3e 86 f8 0f be b9 82 04 bf 49 7a 03 3e
       0.29501992 -0.14059648 -0.51761967 0.12839617
000090 6a cb bf 3e b3 04 6c 3e c6 82 7d bf 6a 0d 5e 3e
       0.3745988 0.23048668 -0.9902767 0.21684805
0000a0 2b b2 61 bf f8 85 fa be f3 45 8d bf 48 04 4b bf
       -0.8816249 -0.48930335 -1.1036972 -0.7930341
0000b0 63 43 60 bf 66 3d 0f 3e 43 33 86 3e ca 0a 79 bf
       -0.87602824 0.13988265 0.26210985 -0.9728209
0000c0 43 1d 7f 3f e1 ba 4b 3e b6 7a 6b bf bd 87 3e bf
       0.99654025 0.19895507 -0.9198412 -0.7442587
0000d0 85 fe 90 bf 5a df 5f 3e 47 de 84 bf 88 eb e4 3e
       -1.1327673 0.21862546 -1.0380334 0.44710946
0000e0 ff c0 98 3e 5c 56 a1 3e 34 2b 54 3e 56 80 13 bf
       0.29834744 0.315112 0.20719606 -0.576177
0000f0 fa 84 7c bf 74 a2 ee 3d d2 6e 76 bd b9 43 52 3e
       -0.98640406 0.11652079 -0.06016428 0.20533647
000100 93 84 73 bf 07 a7 1d 3e 66 41 dd bc 23 e4 5f bf
       -0.9512417 0.15395747 -0.027008723 -0.87457484
000110 96 93 90 3e bf ec 81 bf e2 9a 4a bd aa a6 a2 3e
       0.282376 -1.0150374 -0.049464114 0.3176778
000120 91 16 e4 3e f3 69 36 bf 31 fa 0a 3f aa 2b 38 be
       0.44548467 -0.71255416 0.5428801 -0.17985407
000130 46 0b cb 3e 6b cd f8 bf da 8e 80 3e 0a 84 94 3e
       0.39657038 -1.9437689 0.25108987 0.29006988
000140 66 02 b7 3e 91 dd 58 3e fa 8f ca 3e a5 d0 6a bf
       0.35744017 0.21178271 0.3956297 -0.91724616
000150 b6 0d 54 bd 6d 1b 48 be bf f7 86 3e 93 8e bb 3e
       -0.05177089 -0.19541712 0.2636089 0.36632213
000160 33 d4 48 3e c5 84 7e c0 45 7e 26 bf 8f 31 82 3e
       0.19612198 -3.9768536 -0.6503642 0.25428435
000170 26 e0 06 bf 3b 3a 82 bf 87 00 55 3e e7 a6 59 3e
       -0.52685773 -1.017402 0.20800982 0.21255074
000180 50 44 6d bf 19 68 8e bf b5 d5 b2 3e 2b 5a 23 3e
       -0.9268236 -1.1125518 0.3492867 0.15952365
000190 c4 fc 2a bf 4e 7b c6 3e 33 1c 7d bf 43 e3 25 3e
       -0.6679194 0.3876595 -0.98871154 0.16199975
0001a0 bd 27 40 3e b8 1c 2b 3e c6 83 b3 3e 50 bb 94 3e
       0.18765159 0.16710174 0.35061473 0.29049158
0001b0 c2 b0 08 be ae e7 2d bf a0 10 20 bf e5 30 a1 3e
       -0.13348678 -0.6793164 -0.6252537 0.31482616
0001c0 20 3f b7 3e 69 fa 18 bf fb 7c 44 3e ea ef 10 3e
       0.35790348 -0.59757096 0.19188301 0.1415402
0001d0 0a aa cc 3e c8 6a 60 3e 77 90 99 3e 7a 2c 32 bf
       0.3997348 0.21915734 0.2999303 -0.69599116
0001e0 ad 08 4a 3e fc 94 8b bf c4 01 10 3f f1 77 76 bf
       0.19729872 -1.0904841 0.56252694 -0.96276766
0001f0 99 da 23 bf 19 75 8f bf 5b 6a 80 3e c0 f8 1b bd
       -0.6400543 -1.120761 0.25081143 -0.038079023

fc_adv.weight f4 [128, 128]
000000 b5 bb 1c bf 0f 2b 0b be 2b ca 06 3d 3e 85 da 3c
       -0.6122392 -0.13590644 0.032907646 0.026674863
000010 37 b0 1b 3e 08 0a fb bd 1b 0c ba be c3 42 05 be
       0.1520394 -0.12257773 -0.3633736 -0.13013749
000020 28 8e 58 3d 35 36 47 bd 40 d1 b3 bd 42 71 a6 bd
       0.052869946 -0.04863568 -0.08780146 -0.08127071
000030 50 c7 1c be 6f 23 cf be 82 3a b2 be 62 e4 df be
       -0.15310407 -0.4045672 -0.34810263 -0.4372893
000040 ca fd 2a 3f 26 be f2 3d 3b 2f 23 3d 2d 5b 23 3e
       0.667935 0.11852674 0.039839964 0.1595275
000050 85 b3 19 be 55 c4 14 3d 29 d2 ab 3f a6 39 52 bf
       -0.15009888 0.03632005 1.3423511 -0.82119215
000060 bc cc 8f 3d 4f 25 ff 3e 7e 5f 45 3c 78 cb 27 bd
       0.07021472 0.49833152 0.012046693 -0.040965527
000070 92 87 31 bd 76 7f cc bd c3 fd 24 bf 37 09 6b bf
       -0.04334218 -0.09985249 -0.6444971 -0.91810936
000080 39 5a 00 bf 82 22 28 3c 74 17 ed be e7 1b f3 3d
       -0.5013767 0.010262134 -0.46306956 0.11870556
000090 01 93 81 be 3d 5a 69 be a1 5f 56 3d 41 ca 64 3e
       -0.25307468 -0.2278833 0.052337293 0.22342779
0000a0 cc 0f 53 bd 0d bd 65 be f7 a9 97 3c 69 94 98 3d
       -0.051528737 -0.22435398 0.018513663 0.07450182
0000b0 9e 34 63 be 54 67 96 bd d1 51 e9 3d ff 7a 10 bf
       -0.2218804 -0.07343927 0.11392558 -0.5643768
0000c0 ed b8 d0 be d4 7d 24 bd 79 9f 10 be be b4 9a be
       -0.40766087 -0.04015906 -0.14123334 -0.3021602
0000d0 47 e4 50 bf 53 c1 24 bf 3b 72 b8 be 09 1c ad be
       -0.81598324 -0.6435749 -0.3602465 -0.33810452
0000e0 78 2b 88 bd 71 e0 32 bf 93 dc da bd 5e 7d ff be
       -0.06648916 -0.6987372 -0.106866024 -0.49900335
0000f0 ca 91 ce 3d 49 b1 54 be 39 08 16 be c1 b9 f2 be
       0.10086401 -0.20770754 -0.14651574 -0.47407344
000100 3e ed 7b 3d 8e 91 ac be 09 62 2a be d2 64 d0 bd
       0.06150555 -0.337048 -0.1663896 -0.1017548
000110 37 8c 34 bf c2 39 6c bf b1 7e 09 bf 4e a8 93 3d
       -0.7052645 -0.9227563 -0.5370894 0.07209836
000120 cf d2 39 be 10 97 05 3d 39 ea e0 bd 41 03 15 3e
       -0.18146823 0.032614768 -0.109821744 0.14552023
000130 c8 65 f7 3d f2 08 23 3e ff 5d 32 3e b2 1f 6a be
       0.1207996 0.15921381 0.17418669 -0.22863653
000140 0c db 12 be 41 1b 18 bf 28 4d d4 bc 85 57 da 3d
       -0.14341372 -0.59416586 -0.025915697 0.10661224
000150 ba ee 3f 3e 58 a8 49 bc 33 df 52 3e 98 6a 51 bc
       0.1874341 -0.012308203 0.20592956 -0.012781762
000160 10 ea 4c 3d e8 51 0b 3e 00 59 13 be d2 6c 15 3d
       0.050027907 0.13605464 -0.1438942 0.036480732
000170 e2 dc 92 3d d6 1e 85 3d 56 64 8a bf b0 f0 d2 bd
       0.07171036 0.06500022 -1.081187 -0.10299814
000180 42 a7 86 3d 7e 9f d5 3d 16 d0 e9 3d 18 2b d5 bd
       0.06574871 0.10430811 0.11416642 -0.1040861
000190 d8 61 ce be 57 8d 3b 3f dd 72 ea bd e1 90 fe 3d
       -0.40309024 0.7326254 -0.1144769 0.12429977
0001a0 31 dc 0b 3e c6 45 c5 3e fa 2a d5 be 3d cd 41 bf
       0.13658215 0.38529795 -0.4163435 -0.75703794
0001b0 3a 63 89 3f d4 24 88 bd 25 52 35 3f 95 3e 28 bf
       1.0733407 -0.066476494 0.7082847 -0.6572049
0001c0 b7 d2 33 3e 6d 1f 2b bd a1 a1 13 bf 37 80 fa 3c
       0.1756085 -0.041778017 -0.576685 0.030578716
0001d0 7e 6b 5a be df c0 ff bc fc bf 51 be 1d a7 bc 3d
       -0.21330068 -0.031219898 -0.20483392 0.09211562
0001e0 1c 1e 62 3d 4a 20 5e 3e 87 76 d0 bb b7 2b 4d be
       0.055204496 0.21692005 -0.006361786 -0.20036207
0001f0 b6 38 28 3f 2c fb e4 be a9 68 2d bf 3b e9 02 be
       0.65711534 -0.4472288 -0.67737824 -0.12784283
000200 03 3d 10 be 41 15 8c bd 61 ed 8b bd 74 29 9d bc
       -0.14085774 -0.06839991 -0.06832386 -0.019184805
000210 9b fd a1 3e ba 59 d9 3c 36 3f fa bd 14 6e 22 3b
       0.31638798 0.026532043 -0.12219088 0.002478485
000220 ff cf f9 39 97 d0 cd bb 07 75 60 bb 2d fa 8f 3d
       0.0004764795 -0.0062809694 -0.0034249441 0.07030139
000230 24 f1 0e 3d fb 9c 3b 3e 27 d7 72 be c9 cf 02 bd
       0.03489794 0.18321602 -0.23714887 -0.03193644
000240 51 fa 91 3d da 06 a0 3d 72 d0 a4 3d 12 08 cc bc
       0.07127822 0.07813807 0.0804757 -0.024906192
000250 48 6a 57 bd 29 07 47 3e bb cd 82 3c a8 d5 c2 3d
       -0.052591592 0.19436325 0.01596724 0.09513408
000260 1b ad 2b bf 2c 60 82 3e 50 ef e3 3d 6e 0e e9 bd
       -0.67061013 0.25463998 0.111296296 -0.11379705
000270 07 56 87 3c f1 3a 4e be 3b 60 55 be 36 3c 71 be
       0.016520513 -0.20139672 -0.2083749 -0.23558125
000280 bd 46 10 3e 5d df 95 3e c4 62 2f 3e 22 c5 33 c0
       0.14089485 0.29271975 0.1712752 -2.808907
000290 3b 45 c0 bb ed 9b 61 3e 0d 7e fa bb c3 d3 04 be
       -0.005867628 0.22032137 -0.007644421 -0.12971406
0002a0 4b d3 04 be a3 ff 31 3e 08 2d 87 bd c5 99 3b be
       -0.12971227 0.17382674 -0.06600386 -0.18320377
0002b0 91 44 4d be 1f c1 24 be 72 e8 96 3f 67 8c 67 3d
       -0.20045687 -0.16089295 1.1789687 0.056530382
0002c0 57 5c cd 3d 0e 99 94 bd 3d c4 89 3d 1c 87 2c be
       0.10027378 -0.07255755 0.067268826 -0.16848415
0002d0 77 11 08 3e 3a 00 ee bc 0c 1d 18 3d a4 41 9d 3d
       0.13287912 -0.029052842 0.037137076 0.076785356
0002e0 28 23 1f bf 01 82 3c 3d d4 aa 2d 3f a1 c9 49 bc
       -0.6216302 0.04602242 0.6783879 -0.0123161385
0002f0 fa 37 38 3e 7c c7 4a bf 09 29 20 3d d8 25 a2 bd
       0.17990103 -0.7921064 0.039101634 -0.07917374
000300 2a d4 92 3d 8d 93 95 bd f6 0c 13 bf 3d a9 29 bd
       0.07169373 -0.07303534 -0.5744165 -0.041421164
000310 39 d1 fb 3c 29 1f 44 3e ba de 88 be 32 a5 7f be
       0.030739414 0.19152512 -0.26732427 -0.24965361
000320 6a 1e 5a be b2 25 f7 3d eb ea 24 3d 99 e4 12 3e
       -0.21300665 0.12067737 0.040263098 0.14345016
000330 6c 88 a5 3d e3 b6 bc bd 09 e1 01 bd a8 9b 9b bd
       0.08082661 -0.092145704 -0.03170875 -0.075980484
000340 56 06 84 3e ea dd 13 3c 6b 07 d3 3e b1 db 3c 3e
       0.25786084 0.009025076 0.41216597 0.1844318
000350 c5 3e ef be 68 8b 41 bf f3 68 40 3e 57 a6 37 3e
       -0.46727577 -0.7560334 0.18790035 0.17934547
000360 82 dc 0a bf 5a 2c ba 3d 62 49 93 3d bf 8e 84 3e
       -0.5424272 0.09090491 0.07191731 0.25890157
000370 05 6a 35 bd 14 7c dd 3d 56 93 96 3d 60 b0 77 3d
       -0.04429056 0.10814682 0.07352321 0.06047094
000380 80 0f 1d 3e e2 42 1e be 40 e8 b1 bc 93 73 90 bd
       0.15337944 -0.15455201 -0.02171719 -0.07053294
000390 97 6f e6 3d 48 5d 27 3e 72 e5 8e 3d 1c bb 77 bc
       0.11251753 0.16344178 0.06977357 -0.015120294
0003a0 d1 7b b4 bd d6 e1 2b bf da cf fb 3d 3b 8e 7d be
       -0.088126786 -0.67141473 0.12295504 -0.24761288
0003b0 8e 63 c4 bf de eb fa bd df 04 5c be 5f 42 8d bd
       -1.5342882 -0.12252019 -0.21486233 -0.06897425
0003c0 c7 99 80 3e c4 e0 eb bd 9e 84 3c be 13 cc 40 3d
       0.25117323 -0.1151748 -0.18409964 0.04706962
0003d0 dc e1 b3 bd da 9b b7 3d 9d 1a bd 3d bb 37 fa bd
       -0.08783314 0.08965273 0.09233592 -0.12217661
0003e0 33 43 86 bd d6 d0 36 3e 07 ca 3a bf d3 b6 c0 3d
       -0.06555786 0.17853102 -0.7296452 0.09409871
0003f0 33 16 c0 bd c5 46 50 bd a3 ad 81 bd c9 ff 69 3d
       -0.09379234 -0.05084874 -0.06331947 0.0571287

fc_adv.bias f4 [128]
000000 e1 35 f6 bd ad e8 28 3d f1 96 98 3d 8e 36 d2 3c
       -0.12021995 0.041237522 0.07450665 0.02566078
000010 00 00 00 00 9f b6 35 3d 0c 7e fa 3c 66 41 2f 3d
       0.0 0.044363614 0.030577682 0.04278698
000020 e8 eb c6 3c c9 65 5e be a7 e6 78 3a 3b 25 ab bc
       0.02428241 -0.21718515 0.0009494819 -0.020891776
000030 c9 e2 eb bd 72 4f 26 3d 78 a2 b3 3a 54 80 9a 3c
       -0.11517865 0.04060311 0.0013705036 0.01886002
000040 cb 18 cd 3d 45 2d 0c 3d e7 a5 c0 3d b4 17 c4 ba
       0.100144945 0.03422286 0.09406643 -0.0014960677
000050 14 c4 c4 3c 0f 99 b1 3c 57 fc f6 3b 62 8c e4 bb
       0.024019279 0.02167943 0.0075374055 -0.0069747427
000060 e8 7e 16 bc bf 32 f8 3d ea 52 8b 3b b5 8a 00 3c
       -0.00918553 0.12119054 0.0042518275 0.00784557
000070 10 35 b2 3c 8b 32 4e bc bb 98 e6 bd 35 11 43 3d
       0.021753818 -0.012585293 -0.112596 0.04762383
000080 e0 d8 94 3c 88 8e bb ba 83 6f 23 3d 4e 21 50 3b
       0.01816982 -0.0014309445 0.039901268 0.0031758132
000090 ed e1 ee 3a 4a 75 44 b9 b2 4c f5 3c bb b7 0e bd
       0.001822529 -0.0001873571 0.029943798 -0.034843188
0000a0 24 8e 3b 3d 77 3f 8b 3a 82 9c 95 3c 92 13 55 3d
       0.045789853 0.0010623772 0.018263105 0.052020617
0000b0 00 00 00 00 27 87 25 3d e7 32 36 3d b6 47 13 3d
       0.0 0.040412094 0.044482138 0.03595706
0000c0 e7 50 30 3d b3 94 b8 3d 7f 39 d1 3c 2d cd 93 3d
       0.043045904 0.09012737 0.025540112 0.072168685
0000d0 dd e3 92 3d 4f cc d1 ba 11 7b 45 3d ce d9 88 3c
       0.07172368 -0.0016006323 0.04821307 0.01670542
0000e0 18 b6 5d 3c a3 51 89 bc 33 ac 1d 3b e8 48 47 3d
       0.013532184 -0.01676256 0.0024058938 0.048653513
0000f0 40 fb 10 be 57 b8 1d 3c 20 d0 40 3d 3d cf ac bc
       -0.14158344 0.00962647 0.047073483 -0.021094913
000100 39 5f fe ba a4 e6 35 3d 86 6a 4f 3d 32 84 d6 3d
       -0.0019407041 0.04440941 0.050638698 0.10474433
000110 99 70 d2 bb ec 2d 03 3d 1c 6f 8b 3c 38 2f ea 3c
       -0.006422114 0.032026216 0.017020755 0.028586969
000120 f3 dd de bc 46 50 fb ba 91 0c 3b 3d c8 71 55 3d
       -0.027205443 -0.0019173704 0.04566628 0.052110463
000130 75 8a a6 3c f4 41 83 3d f8 a4 8e 3b 71 d7 96 3d
       0.020329693 0.06409064 0.004353162 0.07365311
000140 5b 11 5b ba 52 06 c0 3c 8d c3 1a 3d 9c 4f 47 3d
       -0.0008356773 0.023440514 0.037784148 0.048659906
000150 31 6e fd 3c 1a 13 90 bd f7 6b 91 bc 9b b4 1b bb
       0.030936332 -0.07034893 -0.017751677 -0.0023758772
000160 89 3d 0a 3d 22 bc ff 3c 2a 0a db 3d 30 69 fc 3d
       0.03375009 0.031217638 0.10695298 0.123247504
000170 de 90 33 3d 50 e9 90 3c eb 71 17 3e 6e c6 23 3d
       0.043839328 0.017689377 0.1478955 0.03998416
000180 1e cf 53 bd 72 6f d9 ba 3f 66 3a 3d b5 09 8f ba
       -0.051711194 -0.0016589 0.045507666 -0.0010912927
000190 9d a5 67 3d 36 49 1c bc 7f 7a 18 3c 2d 87 cd 3c
       0.056554426 -0.009538939 0.009306549 0.02508887
0001a0 a2 00 38 3d 81 8b 18 3d 00 00 00 00 4f 32 05 bc
       0.04492248 0.037242416 0.0 -0.00812967
0001b0 da 88 fd bc 22 ff 2c bb 00 00 00 00 b8 6f c8 3d
       -0.030949045 -0.0026397188 0.0 0.09786934
0001c0 bf 61 59 3d 77 ae 02 3d 57 93 38 3b e8 eb 3c 3d
       0.053071734 0.031904664 0.0028163993 0.046123415
0001d0 96 82 58 3d b1 59 50 3d 9e f5 16 3d 68 c6 1b 3c
       0.05285891 0.050866786 0.036855333 0.009507753
0001e0 df a7 cf 3b 11 4b 1f 3a 00 00 00 00 5b 9a 11 3d
       0.0063371505 0.00060765544 0.0 0.035547595
0001f0 1f b2 d2 3c 36 d2 ce 3c e7 d8 85 3d 5d 68 d7 3d
       0.0257197 0.02524672 0.065355115 0.105179526
