Project/output/cartpole_ddqn_duel_per/final_model.pth (torch, 826722 bytes, 44 tensors)

fc1.weight f4 [128, 4]
000000 81 a7 4a 3e 83 69 f3 bd 66 ab 86 be bc 76 08 be
       0.1979046 -0.11885359 -0.26302642 -0.13326544
000010 ae b1 d3 3b e7 17 e0 3d a3 f2 38 3e 4d 50 c5 3d
       0.00646039 0.10942059 0.18061309 0.09634457
000020 81 35 92 3a 53 e1 43 3a 4e ec aa 3f e5 b1 1b 3e
       0.0011154861 0.00074722356 1.3353364 0.1520458
000030 9c a4 88 3d ad ec 23 3e bd df 4f bf 72 b0 ec 3c
       0.06672022 0.16008253 -0.8120077 0.02889273
000040 c9 70 db be 3e 9c d7 bd 69 16 17 bf 23 e0 5b be
       -0.42859486 -0.10527848 -0.5901857 -0.2147222
000050 d9 47 19 3c 07 03 25 3d bf ee 49 3f 1d 4d 20 3e
       0.009355509 0.04028609 0.7887992 0.15654416
000060 08 c2 0a 3c 11 35 ea bd ec 85 92 be 69 88 e3 bb
       0.008469112 -0.11435903 -0.286178 -0.0069437516
000070 a8 3b 1b 3d c3 82 a3 bc 64 12 79 3f 67 16 24 3d
       0.03789869 -0.019959813 0.97293687 0.040060427
000080 7d c1 c8 3d 1a 97 63 be 7b 97 2f 3e 65 a2 e9 3d
       0.0980253 -0.2222561 0.17147629 0.114079274
000090 0d d2 ac 3d 08 b4 0b 3e 47 44 60 bf 1b 9c 8c bc
       0.084385015 0.13642895 -0.8760418 -0.01716428
0000a0 a2 d8 ae bd 1b 15 8e be 02 33 25 3f f7 00 10 be
       -0.08537413 -0.27750477 0.64530957 -0.14062868
0000b0 9f ab 5e bb 57 04 ac 3c 51 4f bf 3e 29 e7 0e 3e
       -0.0033976806 0.020998163 0.373652 0.13955368
0000c0 09 ff ec bd 5e 73 93 bd 7c 62 9a bd 2a 8f 9f bc
       -0.115720816 -0.07199739 -0.07538316 -0.019477446
0000d0 f0 22 f7 3d 16 9e b2 3d 2a ac 2b 3f ce cc 24 be
       0.12067211 0.08721559 0.67059577 -0.16093752
0000e0 47 70 74 3e a4 ac 0a be 48 37 c9 bc 38 6b b0 3d
       0.23870955 -0.1354242 -0.024562493 0.086142
0000f0 4e 60 05 3e 8e f8 3b 3e a1 eb 79 3f 23 ff 90 3e
       0.13025019 0.18356535 0.97625166 0.28319654
000100 61 d4 9f 3c 46 b7 02 bd 23 a3 26 be e9 00 e1 3d
       0.01951045 -0.031913064 -0.16273169 0.10986502
000110 dd 47 8b 3b 3a 01 4b bb 85 86 70 bf e3 82 d4 bd
       0.00425051 -0.0030976073 -0.9395526 -0.10376527
000120 99 dd 9d bc 90 b5 52 3d d6 58 ff be 5e 6d 90 bd
       -0.019270705 0.051442683 -0.49872464 -0.0705211
000130 4f 99 74 3e 2e f9 01 3d bd 7e 21 bf 7f 44 9a bd
       0.23886608 0.031731777 -0.6308401 -0.07532596
000140 eb bb 9b 3d da f0 d4 bd f0 43 b1 be 1e c2 d5 3d
       0.07604202 -0.10397501 -0.34622145 0.104374155
000150 1a 5d 59 3b 67 68 16 bb 2c 66 8c bf ed 2d fd bd
       0.0033167065 -0.0022950412 -1.096868 -0.12362275
000160 f5 cb 85 3e 46 b4 bc 3d be 7f 67 3f e4 22 42 3e
       0.2613217 0.09214072 0.90429294 0.18958622
000170 c4 8b 1f 3d 9a 74 9b be c0 63 2d bf b0 3a 6a be
       0.03895165 -0.30362397 -0.6773033 -0.2287395
000180 70 5c b3 3c e3 0d cb 3d ee ed 26 3f 9a de e1 3d
       0.021894664 0.09914758 0.652068 0.11028786
000190 6a 6b 03 3c 2b 5a e1 3c 1c ec 08 3f e3 cc 92 3d
       0.008021215 0.027508816 0.53485274 0.07167985
0001a0 66 7e 11 3e 86 cc f0 bc 0f f4 83 bf 3a 14 1c be
       0.14208373 -0.0293944 -1.0308856 -0.15242091
0001b0 77 69 d3 3c d2 05 8e 3c 11 10 44 3f 6d 76 7c be
       0.025807125 0.01733676 0.76587015 -0.24654551
0001c0 ab 9a 01 3e 7a 5f 3d 3d 58 1c 65 3e 4f af ba 3c
       0.12656657 0.04623363 0.22374094 0.022788672
0001d0 3b d6 e5 bd ee a1 50 3e 42 fc a2 bb f1 48 b3 be
       -0.11222502 0.20374271 -0.004973919 -0.35016587
0001e0 5e 9b 4f be ee 28 9e be 33 01 64 bf 18 36 80 be
       -0.20274112 -0.30890602 -0.8906433 -0.2504127
0001f0 94 26 62 3d 71 89 22 3e 0f 84 44 3f c1 03 0a 3b
       0.055212572 0.15872742 0.76764005 0.0021059366
000200 33 1e b9 3e 10 11 9a 3c 31 4a e8 bd 12 80 8a bd
       0.36155853 0.018806964 -0.11342276 -0.06762709
000210 b5 b7 e9 be 12 e7 2e be a8 7c ed be bb d5 32 be
       -0.4564797 -0.17080334 -0.46384168 -0.17464344
000220 f6 d7 8d 3d 87 5c b8 bc 50 ba a4 be b4 da 94 3e
       0.06925957 -0.022505058 -0.32173395 0.29073107
000230 a1 11 95 be 3e c8 40 bc ae 0e 64 3f 79 b6 2a be
       -0.29115012 -0.011766491 0.890849 -0.1667117
000240 8e 09 62 3d 6a 22 a2 3c 25 1c 04 3f b0 4b 6c be
       0.055184893 0.0197918 0.51605445 -0.23075747
000250 ed d1 5f 3d 85 8a c6 bd 58 e6 b8 bc ec a7 1d be
       0.05464356 -0.09694389 -0.022570774 -0.15396088
000260 90 68 d7 3d dc 07 68 be f5 d7 6c 3e 1c a4 17 be
       0.105179906 -0.22659248 0.23129256 -0.14808697
000270 e2 78 0a 3e 9d c3 bc 3d 9f 4c 77 3e 39 d1 8d 3d
       0.13522676 0.09216998 0.24150322 0.06924672
000280 62 db 03 3e a8 45 bf bd 17 12 89 bc f3 60 03 be
       0.12876657 -0.09339458 -0.016732259 -0.12829952
000290 1a 2b d7 3d fe 42 85 bc 12 d4 0f bf 02 93 07 3d
       0.10506268 -0.016267296 -0.5618297 0.033099182
0002a0 8e a0 0f be e3 a6 30 be 03 32 44 bf 30 19 12 be
       -0.1402609 -0.17251162 -0.7663881 -0.14267421
0002b0 b0 2c 34 3d 8a cc b5 bd 26 e8 ce be 0e 01 a8 bd
       0.04398793 -0.08876903 -0.4041149 -0.08203326
0002c0 c6 92 22 be e5 0a 88 3d 1d 46 1c bf a2 7f 79 be
       -0.15876302 0.06642703 -0.61044484 -0.24365094
0002d0 21 6b 27 3e 5e ed 0b be 16 8d 35 bf 7e 2c 13 3e
       0.1634946 -0.13664767 -0.70918405 0.14372441
0002e0 52 87 79 be 97 3c 2c bd 38 51 e2 3e 58 8c f4 3c
       -0.24368027 -0.04204997 0.4420259 0.029852077
0002f0 b7 f0 8a 3e b4 ea e9 3d 62 5b 61 3f 97 cc 66 3e
       0.27136776 0.11421719 0.88030064 0.22538982
000300 fb b9 60 be bc 73 35 3e 4e 9c 51 be 13 28 98 be
       -0.21945946 0.1771993 -0.20469782 -0.29718074
000310 0a fb 88 be 8b 8b 2f bd a6 31 10 3e 0d 5f b6 3c
       -0.26754028 -0.042857688 0.1408144 0.02226212
000320 3a d8 87 bc 0a 0f 36 3d dc 5c 82 3f b4 a7 4b 3e
       -0.016582597 0.044447936 1.0184588 0.19888192
000330 85 02 6e 3b b0 96 09 ba b1 cd 85 bf fe f4 e9 bd
       0.003631742 -0.00052485894 -1.0453397 -0.11423682
000340 b9 8f 43 be 09 cc 2f be 27 61 a9 3e 13 a7 2c bd
       -0.19097795 -0.17167677 0.33081934 -0.042151522
000350 3e bb ff bb de 95 29 3d 72 92 b6 bf 3c 6c f5 bd
       -0.0078043034 0.04140269 -1.4263442 -0.11983535
000360 84 1f 13 3e 3c 84 2b 3c 73 27 59 3d 5e 96 bd ba
       0.14367491 0.010468539 0.053016137 -0.0014464369
000370 f5 17 87 bd 30 89 58 bc 9f 05 c3 3e a7 c2 68 be
       -0.06596366 -0.013216302 0.38090226 -0.22730504
000380 c2 ed 3c 3e 2f dd e0 3d ca 8f fc be d6 a4 c1 bd
       0.18450072 0.109796874 -0.49328452 -0.09455268
000390 cf b0 e8 bd 0c ea cd 3d 64 ac 1e bf ae 54 67 3e
       -0.113618486 0.100544065 -0.619818 0.22590896
0003a0 27 21 80 3e f3 0e 3b 3e 3f 92 c4 3e 86 45 1b 3e
       0.25025293 0.18267421 0.38392827 0.1516324
0003b0 35 12 93 3d 2d 22 95 3d 65 f6 5d 3f 39 a1 e4 bc
       0.07181207 0.07281909 0.86704093 -0.027908908
0003c0 d8 98 14 3e 51 53 40 3c 71 ab 63 bf 2f 6a 03 be
       0.1451143 0.011738614 -0.88933474 -0.12833475
0003d0 ed eb 87 be bc e6 54 be 3a 1f 03 bf 94 6d 0e be
       -0.26547185 -0.20791143 -0.5121952 -0.13908988
0003e0 e8 bd a3 bd 7b e4 43 be e6 9f 72 be 2d b6 34 be
       -0.07995206 -0.19130127 -0.23693809 -0.1764762
0003f0 f3 59 49 3e b9 20 30 bd c5 25 5c 3f a9 c5 dc 3d
       0.19663219 -0.042999957 0.8599513 0.10779888

fc1.bias f4 [128]
000000 b4 4e 65 bc d8 6f af bd fd 3c 85 be 20 16 fe bd
       -0.013995815 -0.085662544 -0.26023093 -0.12406564
000010 53 10 12 3e dd 17 93 3e c8 7b 02 3e 58 e1 b9 bd
       0.1426404 0.28729144 0.12742531 -0.09076184
000020 5e 87 6a 3c 2e 9c 28 bd 1b 1c d8 3d d4 89 85 3e
       0.014314501 -0.04116457 0.10552236 0.26081717
000030 26 06 60 3e c3 03 db 3d 57 6f c5 bd 3a ca 1c be
       0.21877345 0.10694077 -0.09640377 -0.15311518
000040 b5 97 ef 3c c4 02 45 be 7b eb 48 3e c3 2a 30 3e
       0.029247144 -0.19239336 0.19621079 0.17203812
000050 eb 77 ce 3d d7 29 67 be 7b 07 0f bd 3b e3 be 3d
       0.10081466 -0.22574554 -0.034919243 0.093206845
000060 ee 5c 69 3e 99 c1 81 3e 37 2b 66 be 5d 0e 93 3d
       0.22789356 0.25343016 -0.22477423 0.07180474
000070 41 6b ca 3d dc 59 ce bc e4 00 cc bd 1c 8a da 3c
       0.09883738 -0.025189333 -0.099611074 0.026677184
000080 07 1a cb bd ff 54 12 be 42 f1 37 3d 1c e5 b8 3d
       -0.09917074 -0.14290236 0.044907816 0.09028074
000090 e6 9d a2 bc 07 90 50 3e bd df 2d 3e 26 84 48 3d
       -0.019850682 0.20367442 0.1697988 0.04895415
0000a0 5b fa 74 3e 7f b1 54 3e fb 6d d6 bc 64 cb 39 3e
       0.23923628 0.20770834 -0.02617549 0.18143994
0000b0 ce 2c 20 3e 3a e3 2c 3e 05 b1 26 bd 2e b8 0b be
       0.15642092 0.16883555 -0.040696163 -0.13644478
0000c0 d7 33 ba bd fc 79 bc 3d be 02 a2 bd 33 6f 5b be
       -0.09091919 0.09202954 -0.07910679 -0.21429138
0000d0 f1 0d d6 3d 9f 38 88 be fc cc cf ba de 5d 64 bd
       0.10451878 -0.26605698 -0.0015853937 -0.05575358
0000e0 29 68 1f 3e f4 07 83 3d f0 60 62 bd 4f 90 f6 ba
       0.15567078 0.06398001 -0.055268228 -0.0018811318
0000f0 ea ad 6b be f0 0a 42 bd e9 f1 ab 3d a8 8c ed bd
       -0.23015562 -0.047373712 0.0839575 -0.11599094
000100 79 41 7c bc 07 c2 7c 3e 0b 3a 87 bd da 84 26 bd
       -0.015396469 0.2468339 -0.06602868 -0.04065404
000110 88 e0 4d be 73 06 05 3e 28 12 00 3e 49 59 57 3c
       -0.20105183 0.12990741 0.12506926 0.013143846
000120 be 73 4b be c9 0b cb bd c7 c7 70 3e cf 1f 7a 3e
       -0.19868371 -0.09914357 0.23513709 0.24426197
000130 85 15 32 3e 42 1b 02 3d 2c 1d 7d be 24 86 b5 bd
       0.17391022 0.031764276 -0.2471816 -0.08863476
000140 9d f1 75 3d 32 cc 22 be 77 df e4 3d e1 c3 66 3e
       0.060044874 -0.15898207 0.11175435 0.2253566
000150 f3 c5 2b be df ef 2c 3d f9 11 3e be 52 83 2f 3e
       -0.1677473 0.042220946 -0.18561544 0.17139938
000160 8a 3b 3c 3e 5c dc 6e bd 8a bb c9 bd 8e 69 9d be
       0.18382087 -0.05831562 -0.09850223 -0.30744594
000170 ad e4 54 bd 42 e2 a8 bc 42 22 83 3e 78 f9 20 3d
       -0.051975895 -0.0206157 0.25612074 0.039300412
000180 f5 98 1b be 9e bf c4 3d 49 d1 66 3e 2e ef 36 3e
       -0.15195067 0.096068606 0.22540773 0.17864677
000190 ac 82 c9 bc 7d e0 2c 3e 93 52 45 be 2d 7e 17 3e
       -0.024598442 0.1688251 -0.19269781 0.14794226
0001a0 da 0d 84 3a c3 ef 47 bd 9b 38 00 3e 94 6f 5c be
       0.0010074929 -0.04881264 0.12521593 -0.21526939
0001b0 c4 28 8c 3d 14 f4 50 be 06 c5 bc bd 76 41 49 3e
       0.06843713 -0.20405608 -0.09217267 0.19653878
0001c0 e0 b2 16 3c 9a cb c3 3d 44 ee 64 3e 2f af 6b be
       0.009197921 0.09560318 0.22356516 -0.23016046
0001d0 ba 65 79 3d 23 bd a5 bd b1 d5 25 3e 90 7b f3 3d
       0.06088803 -0.080927156 0.16194798 0.11888802
0001e0 80 0e 37 bd 68 e6 55 be db ef a1 39 89 4f 4f 3e
       -0.044691563 -0.20888674 0.0003088702 0.20245184
0001f0 dd 92 9d 3d 41 40 8c 3d d5 3d 5f 3e b7 12 81 3d
       0.076940276 0.06848193 0.21800931 0.06302398

fc2.weight f4 [128, 128]
000000 4a 2c 68 be 5a 39 fe 3d 56 96 1a bf 6a f5 73 be
       -0.22673145 0.12413283 -0.60385644 -0.23824087
000010 cf 4a 0b be 9d b4 3c 3d 30 95 35 3d 95 c8 ee bd
       -0.13602756 0.046070684 0.04433173 -0.11659352
000020 34 32 23 bd 2d 48 60 3d 6e 51 24 be 17 a7 1c bc
       -0.0398428 0.054756332 -0.16046688 -0.009561322
000030 3d 21 3d 3e b1 97 44 be 9c 2c f4 3d 25 8a 2f bf
       0.1846971 -0.1919849 0.11922571 -0.68570167
000040 f3 15 c4 bc 80 9c eb be ec cc 17 3e 0e 41 61 3d
       -0.023936247 -0.46017838 0.14824265 0.05499368
000050 4c 52 56 3d e2 27 77 bf 6b 06 eb bd 19 76 50 be
       0.05232458 -0.9654523 -0.114758335 -0.2035755
000060 c7 e2 47 3b 9f ec a7 3d 18 b8 ed bd 31 cb 17 bd
       0.003050016 0.08199429 -0.11607379 -0.037059013
000070 8f c7 77 3d 73 23 1f 3e d1 da 8a bf c1 11 da bc
       0.06049305 0.15540867 -1.0848027 -0.026619794
000080 bd 6c 4e bd d0 4c d7 3d 27 96 97 3d 85 62 36 be
       -0.05039667 0.10512698 0.07401686 -0.1781102
000090 84 82 f1 bd ca d6 01 be aa 94 54 3d 15 a9 0f 3d
       -0.11792472 -0.12679592 0.05189959 0.03507336
0000a0 d6 ce b6 bb 91 d2 cb bc 6e 2b 2b bf 96 9b c9 bd
       -0.005578856 -0.02488068 -0.66863143 -0.09844129
0000b0 1b 77 92 3b c3 88 41 3d 20 7e 06 be 18 b5 9b bd
       0.004469765 0.047249567 -0.1313405 -0.076029
0000c0 21 07 c5 3c 82 2b c2 3c d2 84 a7 bd 38 89 dc be
       0.02405125 0.023702387 -0.0817963 -0.4307344
0000d0 86 ea 50 bc bc b8 6c be 00 b9 dc 3d 4c 40 b1 bd
       -0.012751227 -0.23117346 0.107774734 -0.08654842
0000e0 66 a8 e1 bd 0f e8 ce 3c aa ee be 3d 58 bd b2 3c
       -0.110184476 0.025257139 0.09322865 0.021818802
0000f0 75 88 19 be 5a a1 eb be 48 24 86 be 8f 1c ad bd
       -0.1499346 -0.4602154 -0.26199555 -0.08452713
000100 3c 8b 2a bc 50 3c 2a 3d e6 7b f0 bd 3f b1 07 be
       -0.010409173 0.041561425 -0.11742382 -0.13251208
000110 2a 61 11 bf 46 2d 45 bd 64 02 b2 bc 15 b0 12 3e
       -0.56788886 -0.04813888 -0.021729656 0.14324982
000120 39 cf f2 3d c2 87 d4 bc 38 22 2b be 6d 36 ef bd
       0.11855931 -0.02594364 -0.16712272 -0.11680303
000130 e7 0f 0a 3e f3 27 69 3d e8 15 53 bf 2a 44 df bc
       0.13482629 0.056922864 -0.824553 -0.027254183
000140 90 d4 a3 3d 38 4d d5 bc 0d 77 0d 3c 1d 35 28 3e
       0.079995275 -0.026037797 0.008634341 0.16426511
000150 45 52 3d be 80 41 f4 bd 90 a0 25 3e 30 d1 a8 bd
       -0.18488415 -0.11926556 0.16174531 -0.08243024
000160 fe e2 62 3d 9e 72 5a be bb 8b 00 be 19 68 9b be
       0.055392258 -0.21332785 -0.12553303 -0.30352858
000170 29 71 09 be c9 96 fe 3c 79 af ae 3d 52 1e ab be
       -0.13422073 0.03107776 0.085295625 -0.3342157
000180 8c b6 58 bd 0b 47 ab be cf 40 9c bd be e3 e5 3d
       -0.052908465 -0.3345264 -0.07629549 0.11225079
000190 90 b6 de 3d fd 31 52 bc 86 49 f7 bd 36 e1 ef bd
       0.10874665 -0.012829301 -0.1207457 -0.117128775
0001a0 0a 24 07 bf c0 ad b3 bd d2 5c 18 be a9 e5 70 be
       -0.52789366 -0.087733746 -0.14879158 -0.23525108
0001b0 6f 0c 2e be d0 af 43 be c3 29 15 bd 0f d2 3b 3d
       -0.1699693 -0.19110036 -0.03641678 0.045854624
0001c0 78 cb 2f 3e 41 05 19 bd da 54 58 bd e8 b5 86 bf
       0.17167461 -0.037358526 -0.052815296 -1.0524263
0001d0 71 f6 a4 3d 36 59 c3 3d 1c ce 24 be e0 38 24 bf
       0.080548175 0.095385 -0.1609425 -0.64149284
0001e0 6b 21 6a bd 05 cd 44 bf 52 cb 5a be 08 aa 42 be
       -0.057160776 -0.76875335 -0.21366623 -0.19010174
0001f0 fb 53 81 bf 7b 5e 9e bc a8 0c 1f 3e 15 bc 29 3d
       -1.0103754 -0.019332161 0.15532172 0.041439135
000200 8d ca 0d 3d 30 df 60 3d af 22 05 3e 3b 92 35 3c
       0.034616996 0.05490035 0.13001512 0.011082227
000210 59 a9 8f 3d eb d6 94 bd c8 85 16 be 86 59 2a be
       0.070147224 -0.07267555 -0.14699471 -0.16635713
000220 03 15 a4 bc 0c bf 97 bd dc af df bc 2e 51 df 3c
       -0.02002955 -0.07409486 -0.027305536 0.02726039
000230 d0 df de bd 26 c6 27 be e2 1d 20 be 7d 41 a6 3d
       -0.108825326 -0.16384181 -0.156364 0.0811796
000240 1f 68 2d bd 1a 58 0b 3d 9a 0a d4 bd 77 31 d1 bd
       -0.042335626 0.034019567 -0.103535846 -0.10214513
000250 b9 ad 85 bd c8 d4 0d 3e cd 0b 2e 3d bd b9 32 3d
       -0.065272756 0.13850701 0.042491723 0.043634165
000260 8e a9 7a 3d d8 39 e7 bd db 1c b0 3d eb a1 53 3d
       0.061196856 -0.1129033 0.08599254 0.05166809
000270 fc b0 9b 3d 7f 0a 75 bd 7d bb 76 3d b0 52 ee 3d
       0.076021165 -0.059824463 0.060237397 0.11636865
000280 4c 28 09 bd a1 bf b7 bd e3 ca 90 3d de fe ee bd
       -0.033485696 -0.08972097 0.070699476 -0.11669706
000290 96 5c 81 3c b1 0c 8d 3d 94 4c cd 3c 20 af bb bd
       0.015791219 0.06887186 0.02506093 -0.09164262
0002a0 61 3e 4b 3d e1 bf db bb 5e 74 57 3e a8 a9 00 bd
       0.049620036 -0.0067062234 0.21040484 -0.031411797
0002b0 c1 58 88 bc d0 3f 00 bd 7b c3 27 be 3e 3d 0d be
       -0.016643884 -0.031310856 -0.16383164 -0.13792893
0002c0 1d ce 33 bd 88 2f 09 bc 36 3d 8f be ac 15 1d 3e
       -0.043897737 -0.008373149 -0.27976388 0.15340298
0002d0 b9 09 6d bd ca 5f 45 3e 33 83 fd bd dd 7f e3 bc
       -0.0578706 0.19274822 -0.1237854 -0.02777093
0002e0 8b 24 6d bc fc 79 e2 bd 76 67 57 bd c5 42 27 be
       -0.014474045 -0.11058423 -0.052588902 -0.16334064
0002f0 12 bd 48 3e 53 04 09 3e 4b f0 12 be 45 97 cb bd
       0.19603375 0.13380556 -0.14349477 -0.09940962
000300 0d 1c d8 bd 76 2d 80 be 38 fd 8a 3b 37 8c 9b bd
       -0.10552225 -0.25034684 0.004241612 -0.07595103
000310 f9 6f 11 3e d5 0c b4 3c 14 d0 12 be 18 8b 03 be
       0.1420287 0.021978775 -0.14337188 -0.12846029
000320 02 b7 fa 3d a1 68 ba bd ec 9f 62 3d f4 dd 3e bd
       0.12241937 -0.09101988 0.055328295 -0.04659839
000330 ae 92 1f be 1c fc 20 3c 92 34 66 bc dd 14 36 bd
       -0.15583298 0.009825733 -0.01405062 -0.04445349
000340 da 42 09 3c 15 ba e9 bd 54 17 aa bc b8 9a 1b be
       0.008377755 -0.114124455 -0.020763077 -0.1519574
000350 b1 7c 3f 3c b9 e5 5c bd c5 fb 68 bd 82 44 c3 3c
       0.011687444 -0.053930018 -0.05688073 0.023836378
000360 a0 d3 bb bd 54 a4 09 3e 90 2b b0 bd a6 8c f1 3c
       -0.09171224 0.13441592 -0.08602059 0.029486012
000370 82 59 55 bd 2f 00 90 3d 4f c9 5a be 52 ee 09 3e
       -0.052087314 0.07031285 -0.21365856 0.13469818
000380 4e da cc bd 6c e8 7a 3d 54 5f 4a 3d 15 0a cb bd
       -0.10002576 0.06125681 0.04940732 -0.09914032
000390 85 fd 51 bd 23 09 13 be 31 64 3e 3d 77 c9 c1 bd
       -0.051267166 -0.14358954 0.04648227 -0.094622545
0003a0 c2 bf d2 3d 91 6b 87 bc d0 74 fe bd 26 2e d4 39
       0.10290481 -0.016530784 -0.12424624 0.00040470174
0003b0 d2 41 3a 3c c3 32 fe bd 20 8c 42 bd d2 91 58 be
       0.011368232 -0.12412026 -0.047496915 -0.21149376
0003c0 01 76 95 3d 42 ab 4f be 93 19 83 be 53 cc 01 3e
       0.07297898 -0.20280173 -0.2560545 0.126756
0003d0 5f a2 08 be 77 bd 5c bd 2d 66 b7 3d 40 76 92 bd
       -0.1334319 -0.053891625 0.08955035 -0.07151461
0003e0 4a 90 5e bd 3a 6c d5 bd 78 f5 cd 3d d2 61 9f 3d
       -0.054336824 -0.10421033 0.10056585 0.077823296
0003f0 59 89 80 bd 75 c6 4e bc f3 6a 04 be c2 91 c8 bc
       -0.06276197 -0.012620558 -0.12931423 -0.024483565

fc2.bias f4 [128]
000000 31 d4 d5 3d 4f 3c 81 bd 4f 60 4d 3e 6e 16 26 3d
       0.10440863 -0.06310331 0.2005627 0.040548734
000010 93 86 f1 3d 6d 45 2a 3e de b0 29 3e 9e 89 37 bd
       0.11793246 0.16628046 0.16571376 -0.044808976
000020 5e 18 f1 3d 4f e6 fc 3d f6 9e dc 3d 2e e7 46 3e
       0.11772226 0.123486154 0.10772507 0.19424126
000030 a8 28 bc 3d f6 c6 b2 3d 42 ef 2e 3e d0 d6 40 3e
       0.09187442 0.08729355 0.17083457 0.18831944
000040 97 a6 aa bd 81 c6 45 bd 2f f9 09 3e e6 41 90 3d
       -0.08332556 -0.04828501 0.13473962 0.07043819
000050 0d a4 42 3e a0 3e 49 bd ff 7c 32 bd 26 2f 4e 3d
       0.19007893 -0.04913199 -0.043576237 0.050337933
000060 5c 77 a5 3d 2b fb f2 bd 95 31 66 3e b7 48 2f 3e
       0.080794066 -0.11864313 0.22479852 0.17117582
000070 87 78 21 be 00 03 7a 3d 1c f6 09 3e 84 28 39 3e
       -0.15768634 0.061038017 0.1347279 0.18081862
000080 9a f3 84 3e d2 5f 13 be 51 e6 30 3e 64 47 b9 bd
       0.25967103 -0.14392021 0.17275359 -0.0904682
000090 0b ad 42 3e 82 37 0e 3e f1 bc 02 3e 7a e9 92 bd
       0.19011323 0.13888362 0.12767388 -0.07173438
0000a0 c2 09 0e 3e 36 af 1a 3e b0 e1 ff 3d 83 28 e1 3d
       0.1387091 0.151059 0.12494218 0.10994055
0000b0 a1 c9 3a 3e 3d 81 2e bd bf 2a ea bd b1 e0 32 3e
       0.18240978 -0.04260372 -0.114339344 0.17468525
0000c0 b5 51 ca 3d 15 4f 3c 3d 9a 6f eb 3d 9e 9c 52 3e
       0.09878866 0.045973856 0.11495896 0.20567557
0000d0 a3 4a f1 3d 0c 6c 1e 3e 9a db 47 3e 0b 40 21 be
       0.11781814 0.15470904 0.19517365 -0.15747087
0000e0 b3 be 29 be 33 aa 38 3e 87 a9 53 be b3 98 15 3e
       -0.16576652 0.18033676 -0.20670138 0.14609031
0000f0 bf 24 dd 3d d6 5b 35 3d 28 73 24 3e 5c 41 3b 3e
       0.107980244 0.044277035 0.16059554 0.18286651
000100 90 38 f1 3d 81 b2 24 3e 75 a5 d0 3d 20 b3 6a 3c
       0.117783666 0.16083719 0.101878084 0.014324933
000110 62 94 e1 3d a7 12 08 3e e9 c5 20 3e 93 44 99 bd
       0.1101463 0.13288365 0.15700497 -0.074837826
000120 fe a7 6d 3e 00 00 00 00 1d 66 03 3e db 94 05 bd
       0.23208615 0.0 0.12831922 -0.032612663
000130 98 4f 82 3d c3 67 2e 3e 4f a0 b3 3d 24 b9 49 3e
       0.063628376 0.1703177 0.08770811 0.19699532
000140 e7 0f 0b 3e 7a 96 1d 3e 12 10 4f be 48 62 50 3e
       0.13580285 0.15389434 -0.20220974 0.20349991
000150 d4 06 df bd b8 c5 26 be 70 20 c8 bc fd 26 86 3d
       -0.10889974 -0.16286361 -0.02442953 0.06550405
000160 45 09 6b bd 4f a8 15 bc 4f 91 60 3e 79 08 38 3e
       -0.057381887 -0.009134366 0.21930431 0.17971982
000170 f3 46 65 3d 7d c3 5c 3e 50 2e a1 3d 11 a1 0f bb
       0.055975866 0.21558948 0.078701615 -0.0021916071
000180 05 b0 2a 3e 6a 84 41 3b bd 61 1a 3e 5a e1 37 3e
       0.16668709 0.0029528388 0.15076347 0.17957059
000190 00 af 55 3e 14 d1 29 be fb e3 5e 3e 0a 46 f0 bd
       0.20867538 -0.16583663 0.21766655 -0.11732109
0001a0 95 2f 29 3e 25 41 63 be 6d e5 4b 3e d9 6d 4f 3e
       0.16522057 -0.2219282 0.19911738 0.20256747
0001b0 cf 0c 18 be a4 3f 9b 3d 65 9b 1b be d3 75 55 3e
       -0.14848636 0.07580498 -0.15195997 0.20845728
0001c0 75 09 2e bb 73 ce 7c 3d 7b 36 47 3e 42 da 21 3e
       -0.002655593 0.061720323 0.19454376 0.15805915
0001d0 2d db 36 3e bd 90 84 bb c1 13 32 3e b4 49 2a bd
       0.17857046 -0.0040455745 0.17390348 -0.041574195
0001e0 3f 86 4f 3e 4e 67 e2 3d 62 6d b8 3d 1d e6 24 3e
       0.20266055 0.1105486 0.09005238 0.16103406
0001f0 73 ae 26 be b4 6f 3b 3e 30 2e 29 3e 3d 93 6c 3e
       -0.16277485 0.1830433 0.16521525 0.23103042

fc_value.weight f4 [128, 128]
000000 9d 70 1f 3e 92 c2 91 ba a5 47 92 3c a2 41 52 bd
       0.15570302 -0.0011120609 0.017856428 -0.051332124
000010 5d b4 12 3e 2e d3 2d bd 06 7d 80 3e d1 e1 ff 3c
       0.14326616 -0.042437725 0.25095385 0.031235607
000020 c6 6f 8e 3e 78 89 12 bd 17 ca 17 3e e6 56 12 3e
       0.2781965 -0.03577563 0.14823185 0.14290962
000030 2f 5f c6 bc 82 48 0b 3b d2 14 0b 3e 48 56 55 3e
       -0.024215309 0.0021252935 0.13582161 0.20833695
000040 7e 5a f4 bc 46 cb 18 3d 1a ea 6c 3e 07 8f b8 3b
       -0.029828306 0.03730323 0.23136178 0.0056322846
000050 04 55 88 3c 3f 29 f4 3d 55 13 a0 bb 43 77 4f bd
       0.016642101 0.119219296 -0.004885117 -0.050650846
000060 3b e1 3a 3d 14 90 58 3e 19 18 7b 3c bd 5d 34 3e
       0.045624953 0.21148711 0.01532557 0.17613883
000070 f3 ab ab be c5 ff 35 3d fe 13 e0 bd 04 7f 0e bd
       -0.33529624 0.044433374 -0.10941313 -0.0347891
000080 4d fd 65 3e 45 77 90 be ce ff 92 bd f8 b8 b3 bf
       0.22459908 -0.28215995 -0.07177697 -1.4040823
000090 8c c0 65 3e 73 40 68 3d dc bf 6c 3e 7b bf 0d bc
       0.22436732 0.05670209 0.23120064 -0.0086516095
0000a0 15 6d 3d 3b b9 2f 9b 3e cf 9d 9b bd 51 13 08 3e
       0.002890413 0.30309847 -0.07598459 0.13288619
0000b0 6b 28 b6 3c 8c 54 9b be ed f9 07 bf 7f 8a 6d 3e
       0.02223607 -0.30337942 -0.5311573 0.23197363
0000c0 a3 cc 4a 3e 1c 9e 11 3e 66 d3 ff 3d 02 de 87 3b
       0.19804625 0.1422047 0.12491493 0.0041463384
0000d0 75 e1 8c bc cc 10 8a 3e 05 17 12 3e 65 62 cf bd
       -0.01719735 0.2696594 0.14266594 -0.10126189
0000e0 6c 82 7a 3f 95 aa 01 3b 67 33 8f be a7 5f 60 3e
       0.9785526 0.0019785513 -0.27968904 0.21911488
0000f0 85 86 d6 3c 52 3c b5 be ad ac a5 3d b4 ec eb bc
       0.02618719 -0.35397583 0.08089576 -0.028799392
000100 98 33 5b 3d d2 94 10 3d d9 ef 7b 3e d0 6d 53 be
       0.053516 0.035298176 0.24603213 -0.20647359
000110 29 19 17 3e ef a5 0c 3e ad 3d 1d 3e e9 2c 49 be
       0.14755692 0.13735174 0.15355559 -0.19646038
000120 15 6c 37 bb 7c a8 65 bd ef 05 37 3e c2 96 7d bd
       -0.0027988006 -0.056068882 0.17873357 -0.061911352
000130 57 ce 09 3e fd 1c d4 3d 41 e7 74 3e f5 de 7b 3e
       0.13457619 0.103570916 0.23916341 0.2459677
000140 1d b0 21 3e 4e 59 9d 3e 93 fa 6d be 65 40 da 3d
       0.15789838 0.30732197 -0.23240118 0.106568135
000150 c7 05 0b 3e 2b 30 0e 3f b4 8c c6 bc f3 b3 5d 3d
       0.13576423 0.5554225 -0.024237014 0.05412669
000160 41 1e 9c 3e 9a 7e 2b bd 7e f1 28 3e 82 f3 8b 3c
       0.30491832 -0.041868784 0.16498372 0.017083887
000170 15 95 14 3e 04 b6 8c 3e b2 28 16 be 40 2d 41 bd
       0.14509995 0.27482617 -0.14663962 -0.047162294
000180 d7 06 10 3c b2 1b e6 3d c5 e5 3c 3e cd c0 02 3e
       0.008790693 0.11235751 0.18447025 0.1276886
000190 d6 5e 6a 3e 92 ba 62 bd eb a2 59 3e 2c 05 90 bd
       0.2288774 -0.05535371 0.21253555 -0.070322365
0001a0 17 9a 4e bd 79 2d 72 be 26 98 60 3e 06 19 87 3e
       -0.05043992 -0.23650159 0.2193304 0.2638628
0001b0 90 41 0c bf 2b e2 7c 3e 74 c4 bf be 03 98 54 3e
       -0.5478754 0.24695651 -0.3745457 0.20761113
0001c0 ca ca 09 3e b8 04 a1 3d b4 2b ef 3d e2 ae 16 3e
       0.13456264 0.07862228 0.116782576 0.1471515
0001d0 ba 5d eb bc d1 ed b5 3d 8b 97 16 3d c7 d8 67 bd
       -0.028731216 0.088832505 0.036765616 -0.05660322
0001e0 7b 52 8f 3e b9 9c 52 3e 2f 3c 5a 3e 37 1b ed bc
       0.27992615 0.20567597 0.2131202 -0.028943641
0001f0 bc 8f 01 bd 58 6a 16 3e d7 47 13 3e cd f4 1c 3e
       -0.031631216 0.14689004 0.14382873 0.15327759
000200 4d 02 99 be 0b f2 fc 3d 56 49 b3 3c 69 bd af 3c
       -0.29884568 0.123508535 0.021885555 0.021452622
000210 9a f9 2b bd 3a b0 2d bd 00 5d 54 be e0 a6 a2 be
       -0.041986085 -0.04240439 -0.20738602 -0.3176794
000220 ce d3 9c bc 43 50 81 be d6 a6 ae 3d 4b 54 81 be
       -0.019143965 -0.25256547 0.08527915 -0.25259623
000230 a4 06 de be 7c 3d 0e bd e1 00 13 be 33 c2 8a be
       -0.4336444 -0.034726605 -0.14355804 -0.27101287
000240 e4 80 7e 3e 9d 6f b7 3d af dd 35 bd 83 23 cc 3d
       0.24853855 0.089568354 -0.044400867 0.09967711
000250 c7 69 22 3e f7 b2 a7 bd b5 fe 4c 3f 7b 0d 1e bd
       0.15860663 -0.08188432 0.8007615 -0.038587075
000260 99 34 a8 3e 12 1b 8d be 97 e8 3f 3e 87 10 79 3e
       0.3285263 -0.27559716 0.1874107 0.24322711
000270 b7 85 1f be f1 5b 6a be 04 e3 bd bd 9e 60 a8 3d
       -0.15578352 -0.22886635 -0.092718154 0.08221553
000280 64 e1 6c be 72 5c 59 3e 3f b0 20 bd 4b 4c 20 3e
       -0.23132855 0.21226671 -0.03923058 0.15654103
000290 2f 7a 95 bd b2 a1 fa bd 05 71 03 3e 5c 46 0f bd
       -0.07298695 -0.12237872 0.12836082 -0.03497921
0002a0 7f b4 87 3d 6b 06 8c 3d 0f 09 12 bf f0 8c fd 3d
       0.06626224 0.06837162 -0.5704507 0.12380397
0002b0 23 c5 c4 be 0e ff c9 bd 66 54 25 3f 16 39 65 3d
       -0.38431653 -0.09863101 0.64581907 0.055962645
0002c0 39 d8 db bd 41 fa 03 bf 5f a4 0d be 98 fb db 3d
       -0.107346006 -0.5155373 -0.13832234 0.10741347
0002d0 94 f5 92 bd 6e e2 16 bf 76 a3 ab be a7 5e e9 3b
       -0.071757466 -0.58939254 -0.33523148 0.007121879
0002e0 cd 87 58 bf 6a 71 6a be 1c 51 26 be cb 5b 1d 3e
       -0.84582216 -0.22894827 -0.16241878 0.15367047
0002f0 44 2d 8c bc 44 25 32 3e 2e 44 15 be 90 3f 7d be
       -0.017111428 0.17397028 -0.1457679 -0.24731278
000300 03 8e 39 3e 8b 06 bd 3e 22 f7 60 3c 5a 53 8e 3c
       0.1812058 0.36919054 0.013730796 0.01737373
000310 2c d4 0f be e5 ab 8d 3e f8 8b 5d be e4 55 23 be
       -0.14045781 0.27670208 -0.21635425 -0.15950733
000320 81 48 6d 3d 74 1d ad bd bf 0d 35 3e a8 e1 8f bd
       0.057930473 -0.08452883 0.17681025 -0.070254624
000330 e0 0b 0d bf 23 70 34 3e 0f 21 9c 3d 41 35 14 bc
       -0.55096245 0.17620902 0.07623493 -0.0090459
000340 bf b3 63 be 4a c0 51 be 95 b3 b6 be 9d 24 a4 3d
       -0.22236536 -0.20483509 -0.35683885 0.08014796
000350 a0 93 40 be 25 9d ee bd 2d 9a 2e be 9a bb 80 bf
       -0.18806314 -0.11651067 -0.17051001 -1.0057251
000360 a1 bf 1e be 1d cc 3d bd 65 f1 b0 be ca 25 a3 bf
       -0.15502788 -0.046337236 -0.3455917 -1.2745907
000370 25 bd b9 3d d2 44 20 be f5 db 08 3f f0 2d 76 3c
       0.090692796 -0.15651253 0.5346063 0.015025601
000380 1a 1a 1b be 23 4a cf bc 9a 4e 14 3e a3 3a d6 3d
       -0.15146676 -0.025303906 0.14483109 0.10460403
000390 e2 a9 a0 bd 0a b4 b4 be 99 b4 c8 be 0e 2b 73 3e
       -0.078449026 -0.3529361 -0.39200285 0.23746893
0003a0 d7 61 27 bc 5f 8f 55 3e ba ab 63 bd 67 43 d6 be
       -0.010216198 0.20855473 -0.055583693 -0.418483
0003b0 e2 3b 00 3f b0 62 81 bd 97 5d 91 3e 19 1a 6a be
       0.50091374 -0.06317651 0.28391716 -0.22861518
0003c0 e0 ea 99 3d ba 66 27 be df 52 50 be 69 4a 9f bc
       0.07515502 -0.16347781 -0.20344113 -0.019444661
0003d0 72 57 83 3d 5b a8 09 be 47 60 39 3e 11 0d bc 3e
       0.06413163 -0.13443129 0.18103133 0.3672872
0003e0 d3 87 d4 be 43 76 47 3d ec 7c df b9 1c 8c 4c 3e
       -0.41509876 0.048696768 -0.0004262695 0.19975322
0003f0 5e f8 8a 3e 2f a3 70 3d 89 f0 a4 be 93 85 12 bc
       0.27142614 0.058749374 -0.32214764 -0.008942979

fc_value.bias f4 [128]
000000 22 29 20 3e 29 fd 8b 3c 5a cf 63 bd c3 54 05 bd
       0.15640691 0.01708849 -0.055617668 -0.03255154
000010 18 af 77 bc 39 9b 91 bb 2e 0d 47 3e 99 16 ab 3c
       -0.015117429 -0.004443553 0.19438621 0.020884799
000020 22 af 9c 3c 1a 17 30 3e 53 9d 3b 3d 25 3c 23 3e
       0.019126479 0.17196313 0.045804333 0.15940912
000030 a6 e2 1e bc ad e1 28 3e 00 00 00 00 00 00 00 00
       -0.009697592 0.16492338 0.0 0.0
000040 89 22 76 bd d1 5b 17 3e b0 b4 2c bc 4f c9 90 3c
       -0.06009153 0.14781119 -0.010541126 0.017674116
000050 fa 6c 15 3e 91 14 16 3e c5 cc 17 3e 91 d2 1b 3e
       0.14592353 0.14656283 0.14824207 0.15217043
000060 59 4e 57 3d 69 e2 2d 3e cd 0d 42 3c 69 04 8f 3b
       0.052564953 0.169809 0.011844111 0.0043645394
000070 bd 6c 15 3e 7d 09 3e 3e 0e 9d 05 3c 8e 37 21 3e
       0.14592262 0.18558307 0.008155121 0.15743849
000080 4b 68 15 3e 71 98 b9 bb b7 2c aa bc 91 55 1d 3e
       0.14590566 -0.0056639244 -0.020773275 0.15364672
000090 8c 9c 2e 3e dc 1a 17 3e 87 4a 34 bd a7 aa 15 3e
       0.17051905 0.1475634 -0.044016387 0.1461588
0000a0 38 0d 9d bd 27 a9 dc bd 61 f1 0e 3e 64 14 14 3c
       -0.07668537 -0.10774451 0.13959266 0.009038065
0000b0 b1 1b b4 3d 07 6b 25 3e 10 c4 16 3e 33 5a 27 3d
       0.08794344 0.16154109 0.1472323 0.040857505
0000c0 f1 c3 50 3e bc df 20 3e 45 9c 9d bc ab 21 84 bd
       0.20387246 0.15710348 -0.019239554 -0.06451734
0000d0 35 3b 3c 3d f8 a5 18 3e d7 62 c8 bc 4a e2 3b 3e
       0.0459549 0.14907062 -0.024461193 0.18348041
0000e0 14 3e a1 bc 2e bc 36 3e 2b f0 01 bb eb 12 42 3c
       -0.019682921 0.17845222 -0.001982699 0.011845331
0000f0 0f 4b 28 bd a3 86 1f 3e 92 b5 94 bc ef 34 18 3e
       -0.041087206 0.15578704 -0.018152986 0.14863943
000100 4e c5 81 bd 93 e5 17 3e ce 79 33 bc 37 c8 bf bd
       -0.06336461 0.1483367 -0.0109543335 -0.0936436
000110 3e 12 22 3e 76 2a 8d 3d 23 88 0d bc b4 be 19 3e
       0.15827271 0.068928644 -0.008638415 0.15014154
000120 5a 44 3e 3e 5f d9 80 3c f3 31 36 3e f6 9f 03 bb
       0.18580762 0.01572865 0.17792492 -0.0020084358
000130 7f 0a 27 3e e6 01 f7 3c 78 18 2a 3e 2f 64 16 3e
       0.16312598 0.030152272 0.16610897 0.14686655
000140 34 ec 1f 3e 36 d4 1c 3e b3 d6 46 3e ae dc 46 bd
       0.15617448 0.15315327 0.19417839 -0.0485503
000150 72 be 58 bb 64 4d 7d bb 8d e8 21 3e 08 89 4e 3e
       -0.0033072499 -0.0038650865 0.15811367 0.20169461
000160 02 c2 19 3e 9e 85 04 bb e0 7f 06 3c ca 2f 17 3e
       0.15015414 -0.0020221244 0.008209199 0.14764324
000170 70 66 a9 bd 38 28 10 3e 68 3d 1c 3e d9 bd 16 3e
       -0.082714915 0.14077842 0.152578 0.14720859
000180 20 59 14 bc 65 8e 2c 3e 01 57 1f 3e 11 dd 17 3e
       -0.009054452 0.16851194 0.15560533 0.14830424
000190 a2 7c d2 3c c3 33 23 3e d5 1b ba bb 57 3e 21 3e
       0.025694195 0.15937714 -0.0056795874 0.15746437
0001a0 95 58 1a 3e c4 fd 21 3e 8e 6c 17 3e 08 1e 37 3e
       0.15072854 0.1581946 0.14787504 0.1788255
0001b0 fd ff c0 bb 3b f3 e6 bb c4 3a 1f bd 49 e2 16 3e
       -0.005889891 -0.0070480383 -0.038874403 0.14734758
0001c0 8b d4 51 3e 94 77 dd 3b 81 73 35 3e 70 a4 2a 3e
       0.20491235 0.0067586396 0.17719842 0.1666429
0001d0 37 a9 3f 3e 9c e1 1d 3e d3 f8 2a 3e 64 81 84 bc
       0.18716894 0.15418094 0.16696481 -0.01617498
0001e0 15 0b 18 3e 12 94 23 3e f2 ee 3d 3e 68 5b 40 bc
       0.14847977 0.15974453 0.18548182 -0.011740543
0001f0 a2 49 dd bd 83 0c 0f 3e 89 f8 16 3e 2c 92 a2 bb
       -0.1080506 0.13969617 0.14743246 -0.0049612727

value.weight f4 [1, 128]
000000 28 75 7c 3e aa 2f 19 bf 9a 58 88 bf 0b 94 70 bf
       0.24654067 -0.59838355 -1.0652039 -0.93975896
000010 59 ec 5a bf 8d 14 ad be fa d2 c7 3e 8d 70 c1 bf
       -0.8551689 -0.33804742 0.3902815 -1.5112473
000020 db 84 b8 be 66 d9 a9 3e c0 c2 1e c0 0d 2e f3 3e
       -0.3603886 0.33173674 -2.4806366 0.4749607
000030 b6 9a 1c be 7c de b2 3e f8 2a 06 3e 20 39 8a bb
       -0.15293393 0.34935367 0.13102329 -0.0042182356
000040 31 e0 06 bf 83 16 6e 3e 59 d7 87 bd 11 e5 4e bf
       -0.5268584 0.23250775 -0.06632871 -0.8081828
000050 76 32 6d 3e 12 a3 93 3e 9f dc 68 3e 89 a5 65 c0
       0.2316378 0.2883535 0.2274041 -3.5882285
000060 9c e3 3f c0 0a e9 96 3e 66 7f d3 3f 9a d7 33 3d
       -2.9982672 0.2947467 1.6523254 0.043906786
000070 64 3d 90 3e a2 73 a1 3e 49 42 0a c0 d6 0e a9 3e
       0.28171837 0.31533533 -2.1602957 0.3301913
000080 2c 00 9b 3e 86 f8 0f be ee f7 fa be 3b 8d 0b 3e
       0.3027357 -0.14059648 -0.4901728 0.13628094
000090 a9 8a c6 3e f7 62 75 3e ea 4b 82 bf d6 7d 6a 3e
       0.38777664 0.23963533 -1.0179417 0.22899565
0000a0 d3 08 64 bf b5 da f7 be 4c 11 98 bf 64 bf 75 bf
       -0.89075965 -0.48409048 -1.1880279 -0.95995164
0000b0 e1 72 53 bf 09 00 16 3e 9f f6 8b 3e 8f 21 83 bf
       -0.82597166 0.14648451 0.27336594 -1.0244616
0000c0 7c 6a 84 3f d0 e2 54 3e 94 8f 69 bf b4 b9 46 bf
       1.0344996 0.20789647 -0.9123471 -0.7762711
0000d0 64 8a 9a bf b2 8e 65 3e fd 41 86 bf d6 da eb 3e
       -1.2073483 0.22417715 -1.0488888 0.46065396
0000e0 e3 09 10 3f 95 6c a5 3e c6 19 54 3e 2b a5 29 bf
       0.56265086 0.32309404 0.20712957 -0.6626765
0000f0 b5 d3 82 bf b4 66 ff 3d 04 87 b6 bd 1d 99 58 3e
       -1.0220858 0.12470761 -0.08912471 0.21152158
000100 0d b9 77 bf 90 6f 28 3e 9b 9b 62 bd 6f ef 54 bf
       -0.9676674 0.16448808 -0.05532418 -0.83177847
000110 19 68 95 3e 71 89 85 bf b9 89 07 be c5 82 a6 3e
       0.29180983 -1.0432569 -0.13236131 0.32521644
000120 5c 93 ec 3e f3 79 3b bf 2b ad 0f 3f ff 9b 8e be
       0.46206176 -0.73232955 0.5612361 -0.2785339
000130 37 91 cf 3e bc 12 0f c0 bb a7 84 3e 6e eb 98 3e
       0.40540478 -2.2355185 0.25909218 0.2986712
000140 3e 84 bc 3e ee 83 5c 3e a1 b0 d2 3e ce e9 41 bf
       0.36819643 0.21534702 0.41150382 -0.7574738
000150 b6 0d 54 bd 6d 1b 48 be f3 4d 8b 3e 1a 76 c3 3e
       -0.05177089 -0.19541712 0.27207908 0.38176042
000160 70 ac 4e 3e 31 a3 7f c0 cb 44 32 bf 6e ee 85 3e
       0.20182967 -3.9943354 -0.6963622 0.2615847
000170 07 34 0b bf 55 66 8e bf a7 14 5a 3e 7a 62 64 3e
       -0.5437626 -1.1124979 0.2129694 0.22303191
000180 a3 c7 81 bf 8b f9 99 bf 51 ad b6 3e 4a 84 2c 3e
       -1.0139049 -1.202928 0.35679105 0.1684734
000190 a7 f5 2d bf 9b 2a cc 3e b2 d0 82 bf 14 de 30 3e
       -0.6795296 0.39876255 -1.0219939 0.17272216
0001a0 04 29 48 3e 83 c4 32 3e f5 70 b9 3e 9f 51 9a 3e
       0.19546896 0.17457776 0.36218992 0.30140397
0001b0 c2 b0 08 be 98 d3 38 bf 82 20 23 bf 01 65 a4 3e
       -0.13348678 -0.72197866 -0.6372148 0.3210831
0001c0 fe 06 c0 3e d9 df 13 bf ba cf 4d 3e 09 0b 1a 3e
       0.37505335 -0.5776344 0.20098773 0.15043272
0001d0 45 fc d5 3e 1a da 69 3e be 02 9d 3e 92 f5 2a bf
       0.4179403 0.22837105 0.30666155 -0.6678096
0001e0 d4 a8 54 3e aa 13 95 bf 59 56 14 3f 64 b8 6c bf
       0.20767528 -1.1646626 0.57944256 -0.9246886
0001f0 97 11 1e bf 00 6e 9c bf cd 86 85 3e 5e 56 1c bd
       -0.6174559 -1.2221069 0.26079407 -0.038168304

fc_adv.weight f4 [128, 128]
000000 f4 96 37 bf 0f 2b 0b be 06 aa 49 3d 81 ef 36 3d
       -0.7171471 -0.13590644 0.049234413 0.044662002
000010 1d 1c 32 3e 20 6e 03 be 73 d5 dd be 2f f2 af bd
       0.17393537 -0.12834978 -0.4332691 -0.08591115
000020 c4 be 93 3d 6a 35 95 bc 10 c7 99 bd 04 69 e7 bd
       0.0721412 -0.018213946 -0.07508671 -0.11299327
000030 70 81 f4 bd 6a 82 02 bf 48 d6 d1 be a5 74 ef be
       -0.11938751 -0.50980246 -0.40983796 -0.4676868
000040 31 21 29 3f 69 75 f9 3d 09 76 60 3d 23 24 21 3e
       0.6606627 0.12180597 0.054800067 0.15736441
000050 e0 60 1f be 21 eb bc 3d 72 3c e5 3f 52 38 86 bf
       -0.15564299 0.09224535 1.7909071 -1.0485938
000060 33 65 8a 3d 65 d7 12 3f c2 54 cc 3c 4b 5a 1b bd
       0.067575835 0.57359916 0.02494276 -0.037927907
000070 08 e3 6d be 4a ab 01 bd 3c 63 3e bf 70 6c 81 bf
       -0.23231137 -0.031657495 -0.7437017 -1.0111217
000080 fa 8a 08 bf 82 22 28 3c 50 c9 13 bf e7 1b f3 3d
       -0.5333706 0.010262134 -0.57729053 0.11870556
000090 9c 3d 83 be b7 33 68 be 17 3b 80 3d ab 7e 88 3e
       -0.25632942 -0.22675978 0.062612705 0.2665914
0000a0 e5 cd 3d bd 16 95 86 bd f7 a9 97 3c af db 89 3d
       -0.046338934 -0.06571405 0.018513663 0.067313544
0000b0 c0 db a9 be 54 67 96 bd d1 51 e9 3d 51 33 12 bf
       -0.33175468 -0.07343927 0.11392558 -0.5710955
0000c0 ae 79 e7 be 23 87 0a be d9 a4 cd bd 0b a5 9f be
       -0.45210022 -0.13528113 -0.10041208 -0.31180605
0000d0 22 f9 88 bf 40 50 3d bf f3 10 ab be 60 0e ef be
       -1.0701029 -0.73950577 -0.3341137 -0.46690655
0000e0 78 2b 88 bd 82 83 45 bf 93 dc da bd ff 64 21 bf
       -0.06648916 -0.7715379 -0.106866024 -0.6304473
0000f0 fe f4 eb 3d af 30 a8 be c9 1b 02 be f5 8b 06 bf
       0.11521338 -0.32849643 -0.12705912 -0.5255731
000100 5d f2 9c 3d 2e 99 bb be a3 be 48 be 80 05 66 be
       0.076634146 -0.36640304 -0.19603972 -0.22463036
000110 e7 98 3f bf 68 0c 8c bf 9f 05 25 bf 4e a8 93 3d
       -0.74842685 -1.0941286 -0.644617 0.07209836
000120 3b e7 30 be 10 97 05 3d 0a 7b b6 bd a1 c4 9b 3e
       -0.17275707 0.032614768 -0.089101866 0.30423453
000130 c8 65 f7 3d 92 3a 28 3e ee 18 49 3e 1d 26 65 be
       0.1207996 0.16428593 0.19638416 -0.2237782
000140 15 20 27 be 89 c7 2f bf 28 4d d4 bc ae d7 c8 3d
       -0.16320832 -0.6866384 -0.025915697 0.09806763
000150 57 fa 5c 3e 58 a8 49 bc 32 d7 56 3e da a8 48 bc
       0.21579872 -0.012308203 0.20980528 -0.012247289
000160 10 ea 4c 3d 26 9e 07 3e 00 59 13 be d2 6c 15 3d
       0.050027907 0.13243923 -0.1438942 0.036480732
000170 8c 85 2b 3e 6c 07 77 3d 2d 92 94 bf b0 f0 d2 bd
       0.16750163 0.060309812 -1.1607109 -0.10299814
000180 f6 43 98 3d 1c ae b1 bc 7e 5d 08 3e d5 86 d0 bd
       0.074348375 -0.021689467 0.13316914 -0.10181967
000190 9a 10 d0 be 44 bb 4f 3f 12 9c d4 bd 0f b5 11 3e
       -0.40637666 0.8114512 -0.103813305 0.14229225
0001a0 c2 4d 0c 3e 74 58 d6 3e 54 80 de be b3 dc 6e bf
       0.13701537 0.4186436 -0.43457282 -0.9330551
0001b0 b0 25 ad 3f 1c 77 d9 bc f2 29 55 3f 0a b9 3c bf
       1.3527126 -0.026546054 0.8326713 -0.7371985
0001c0 68 c2 2e 3e 12 f1 cc 3c c8 18 37 bf b7 04 5e 3d
       0.17066348 0.025017295 -0.7152219 0.054203715
0001d0 5e 40 50 be df c0 ff bc e8 3b 5e be 04 a6 50 3e
       -0.20337054 -0.031219898 -0.2170254 0.2037583
0001e0 a1 b0 2b 3d 0e 18 6f 3e 2b cc 15 bd 2b 16 4f be
       0.041916493 0.2334902 -0.036571663 -0.202233
0001f0 2e 28 31 3f fa 38 ef be be aa 48 bf fc 7b f4 bd
       0.69201934 -0.46723157 -0.7838553 -0.11937711
000200 c9 dd 1b be b2 04 8c bd 3e 12 22 be a8 6e b7 bc
       -0.15221323 -0.06836833 -0.15827271 -0.022391632
000210 08 29 a7 3e be cc 4a 3c 00 a6 f4 bd d1 f2 e7 3a
       0.32648492 0.012377916 -0.119457245 0.0017696266
000220 25 7c 95 3a 2d 4c 56 bd a5 8b 8c bb 20 c3 67 3d
       0.0011404796 -0.05231874 -0.004289108 0.05658257
000230 27 9b 46 3d be 9f 33 3e 3e 75 5c be e4 ee ab bc
       0.04848781 0.17541406 -0.215291 -0.020987935
000240 45 97 44 3e 80 12 ba bc 7f 9e 99 3d 46 69 8e 3b
       0.1919833 -0.0227139 0.07500934 0.0043460457
000250 44 91 2d bd d9 57 2b 3e a4 85 a1 3b 6c 45 bc 3d
       -0.042374864 0.1673273 0.0049292613 0.09192929
000260 2b 72 38 bf 0b e0 6e 3e be 52 cc 3d 9e e3 b6 bd
       -0.72049206 0.23327653 0.09976719 -0.08930133
000270 90 10 70 be 65 46 98 be 2a 57 70 be 9e 80 2d be
       -0.23443818 -0.29741207 -0.2347075 -0.16943595
000280 7b a2 1d 3e 9b 6d 93 3e aa 6d 54 3e 1a 3f 47 c0
       0.15394013 0.2879456 0.20744959 -3.1132264
000290 4d fb df ba da e5 5d 3e 18 38 08 3c 24 d2 0c be
       -0.0017088443 0.21669713 0.008314155 -0.13752037
0002a0 da ed 00 be 2e 6a 0f 3e bc 54 24 3e b8 51 ff bd
       -0.12590733 0.14005348 0.16047949 -0.124667585
0002b0 7f 67 4a be 1f c1 24 be 86 f1 9b 3f 71 f9 40 3d
       -0.19766043 -0.16089295 1.2183082 0.047112886
0002c0 d0 39 cc 3d b7 c4 be bd 80 77 8d bb 83 fb 42 be
       0.09971964 -0.09314864 -0.004317224 -0.19041257
0002d0 c4 9d 23 3e f9 e6 92 3c 61 94 a3 3c c8 bf 8b 3d
       0.15978152 0.017932402 0.019968214 0.06823689
0002e0 c8 12 2f bf 1e 0c fc 3c fa b2 35 3f 39 a7 af bc
       -0.6838803 0.030767497 0.7097622 -0.021442043
0002f0 dd 1c 44 3e 5c 7c 4a bf b1 94 2f 3d cd 2a 8c bc
       0.19151635 -0.7909601 0.042866413 -0.017110253
000300 dd 2c 19 3d 9d 87 c3 bd e9 b8 44 bf 65 42 99 bd
       0.0373963 -0.095473506 -0.7684465 -0.07483367
000310 f9 5c 97 3c 6a 03 8c 3e 2a fa 1f be 32 a5 7f be
       0.01847695 0.27346355 -0.15622774 -0.24965361
000320 88 cd 6e be b2 25 f7 3d 71 70 0c 3d 49 cb 03 3e
       -0.23320591 0.12067737 0.03428692 0.12870516
000330 5d 9d 58 3d eb 55 b7 bd e5 99 f0 bc 9d e1 d5 bd
       0.05288445 -0.089519344 -0.029370258 -0.10443423
000340 c9 2a 85 3e 05 2b 4d 3d 64 0d d3 3e b3 84 4e 3e
       0.26009205 0.050089855 0.41221154 0.20167808
000350 42 c3 d7 be 7f bb 45 bf bb 9a 75 3e a6 3b 95 3e
       -0.42141157 -0.7723922 0.23984806 0.2914707
000360 e6 0d 10 bf 79 0b e4 3d 8e e5 a9 3d 04 17 c9 3e
       -0.5627121 0.11135001 0.08295737 0.39275372
000370 43 e4 db bd a6 fe df 3d ff bc b6 3d 73 8b 76 3d
       -0.10736897 0.10937242 0.08922767 0.060191583
000380 05 34 1c 3e 84 ab 1a be 9f cc d1 bc db b8 8f bd
       0.15254219 -0.1510449 -0.025610266 -0.0701768
000390 c3 15 aa 3d 16 1a 4d 3e 4c 36 9d 3d 1e 0a a0 3c
       0.08304932 0.20029482 0.07676372 0.019536074
0003a0 30 cd 81 bd 15 12 2a bf 7a d4 c2 3d 6b fd 72 be
       -0.063379645 -0.6643384 0.09513183 -0.23729484
0003b0 43 80 bb bf 79 b5 20 be 4d e9 88 be b1 44 43 3d
       -1.4648517 -0.15694226 -0.26740494 0.04767293
0003c0 64 18 7c 3e 48 68 bf bd ff 87 2b be 5f 70 22 3d
       0.2461868 -0.09346062 -0.16751097 0.039657947
0003d0 cf 94 d3 bd da 9b b7 3d 5f d4 af 3d c0 7b 24 be
       -0.10331117 0.08965273 0.085854284 -0.16062832
0003e0 92 a2 a7 bd 54 b8 3a 3e 26 ec 54 bf ca 14 a7 3d
       -0.08185305 0.18234378 -0.83172834 0.08158262
0003f0 11 38 cc bd b8 f9 33 bd 39 78 3a 3d 7e 03 4a 3d
       -0.09971631 -0.043939322 0.04552481 0.049319737

fc_adv.bias f4 [128]
000000 94 67 01 be 7c 0d 41 3d 39 97 ad 3d 2c ee 18 3d
       -0.12637168 0.047132 0.08476109 0.037336513
000010 00 00 00 00 58 d6 2c 3d 92 c6 04 3d 91 71 52 3d
       0.0 0.0421966 0.032415934 0.051377837
000020 ad 82 cf 3c 88 1f 79 be 7a 55 16 bc 3b 25 ab bc
       0.025330866 -0.24328434 -0.009175653 -0.020891776
000030 7d 90 03 be 2a 1e 2a 3d bd 8d ca 3b 16 a9 b0 3c
       -0.12848087 0.041532673 0.0061814473 0.021565001
000040 a8 66 cc 3d 0e fb fe 3c 4b 72 cf 3d 59 94 c0 bb
       0.099805176 0.031125572 0.101292215 -0.0058770594
000050 fa c5 c6 3c 22 c0 b5 3c 43 59 61 3b 9e 8b fa bb
       0.024264324 0.022186343 0.003438548 -0.007646038
000060 29 ef 94 3b 9b d7 01 3e c3 8d d5 3b 5a b7 d0 3c
       0.0045451117 0.12679903 0.0065171435 0.025478054
000070 68 1a ac 3c e9 30 59 bc 73 61 01 be d5 bc 97 3d
       0.021008685 -0.01325629 -0.1263483 0.07409064
000080 c4 81 f1 3c ff 5f d1 bb cc 59 50 3d 86 00 0f 3a
       0.029480822 -0.0063896175 0.050866887 0.0005455095
000090 f1 ed 53 39 4a 75 44 b9 ee 6c fd 3c 74 02 c3 bc
       0.00020211168 -0.0001873571 0.03093573 -0.02380488
0000a0 d9 61 3e 3d 14 bb 68 bb 43 24 33 3c 49 43 5a 3d
       0.046480034 -0.0035511898 0.010933938 0.053286824
0000b0 11 0e 1c bb 54 e4 1f 3d 0b ed 3b 3d b5 c9 15 3d
       -0.0023812095 0.03903611 0.04588036 0.036569316
0000c0 a0 71 48 3d 3b e7 ba 3d 1f 22 d4 3c 6c db 85 3d
       0.048936486 0.09126135 0.025895176 0.06535992
0000d0 e4 5f 9e 3d 25 a6 35 bb 70 c3 2e 3d 8e 25 11 3d
       0.077331334 -0.0027717438 0.042666852 0.035436206
0000e0 ef 4f 9f 3c dc f8 63 bc 75 14 14 3c 99 5b 05 3d
       0.019447295 -0.013914313 0.00903808 0.032558057
0000f0 65 ac 28 be e3 53 ec 3b e3 cc 3d 3d 9d 44 da bc
       -0.16472013 0.0072121485 0.046337973 -0.026644045
000100 47 4e e4 3b a9 6d 53 3d b2 9b 5d 3d f4 ee e7 3d
       0.006967339 0.051618252 0.05410356 0.113248736
000110 99 70 d2 bb 4f 1f 03 3d 1b 87 b2 3c ae 50 e9 3c
       -0.006422114 0.03201228 0.021792939 0.028480854
000120 55 3d 18 bd 46 50 fb ba d0 13 46 3d 5c ac 5a 3d
       -0.037167866 -0.0019173704 0.04835874 0.05338703
000130 09 bb ad 3c e7 7b 86 3d f8 a4 8e 3b 13 2a 92 3d
       0.02120735 0.06566601 0.004353162 0.07136931
000140 5b 11 5b ba 70 b4 c9 3c 21 25 4c 3d e2 52 58 3d
       -0.0008356773 0.024622172 0.049840096 0.05281342
000150 e1 d8 03 3d 35 4d d2 bd f7 6b 91 bc 12 a8 7c 3b
       0.032189254 -0.10268632 -0.017751677 0.0038552326
000160 5d 20 f6 3c ed 33 07 3d 36 15 24 3e aa 76 f1 3d
       0.030044729 0.033008505 0.16023716 0.117902115
000170 f9 9c 1e 3d f0 e7 8d 3c 72 25 14 3e e7 d9 2d 3d
       0.03872392 0.01732251 0.14467409 0.042444136
000180 6d 34 9b bd 72 6f d9 ba f1 e0 6d 3d 15 f1 8f ba
       -0.07578359 -0.0016589 0.05807585 -0.0010981882
000190 0f ce 6c 3d 36 49 1c bc 35 e1 89 3c 10 7f b7 3c
       0.0578137 -0.009538939 0.01683102 0.022399455
0001a0 1b 07 4e 3d 3d e8 2c 3d 00 00 00 00 b0 9f cc bc
       0.050299745 0.042213667 0.0 -0.024978489
0001b0 7e 52 98 bc 22 ff 2c bb 00 00 00 00 59 8b 16 3e
       -0.018594023 -0.0026397188 0.0 0.14701594
0001c0 de c8 73 3d 44 03 fb 3c 30 f8 2e 3b 13 09 40 3d
       0.059517734 0.030641206 0.0026698224 0.046883654
0001d0 3e 0d 79 3d 96 b4 6b 3d 4a 62 15 3d 68 c6 1b 3c
       0.060803644 0.057545267 0.03647069 0.009507753
0001e0 df a7 cf 3b 23 ec 0f 3c 00 00 00 00 c5 95 6e 3d
       0.0063371505 0.008784327 0.0 0.0582483
0001f0 75 60 e1 3c 3b 9f 00 3d 01 e0 65 3d 93 f9 dc 3d
       0.027511815 0.031401854 0.05612183 0.1078979
