Project/output/old2/norm/ddqn_duel_per_test/final_model.pth (torch, 826217 bytes, 44 tensors)

fc1.weight f4 [128, 4]
-1.004065 -0.29064 -0.2637199 -0.08356069 -1.5423524 -0.23468234 -1.9591756 -0.16092852
-0.67723066 -0.18577723 -1.0684263 -0.25066555 -0.1774737 -0.41388395 0.46028093 0.018083885
-0.30327412 -0.29441723 -0.022248011 0.077273205 0.22203898 -0.013534966 1.7691737 0.060272913
0.41271555 0.20463817 1.3957982 0.22540638 -0.061388988 0.4436925 0.6828908 -0.33894825
-0.24927156 -0.24412763 -0.39407384 -0.1359881 -0.50312155 -0.088658065 -0.65763974 -0.16842723
0.45299792 -0.16709937 0.3241212 0.14465499 -0.4577236 -0.74747413 0.9374958 -0.43220806
0.011853161 -0.0036022402 0.080649815 0.005638233 -0.036278732 0.3437816 1.0992736 0.39497504
-0.1725986 -0.0328363 1.2012824 0.04895553 -0.34550524 -0.3443441 -0.87607765 -0.18094265
-0.021460837 -0.54482764 -1.0411419 -0.33942524 0.026597908 -0.46194574 -0.489405 -0.07025653
-0.59456545 -0.036720622 0.92419267 0.27446744 -0.58622503 0.123833455 1.1734375 0.18557242
0.2468567 -0.01691232 -0.15852503 0.42499447 0.2179283 0.5645997 0.29105642 0.2998936
-1.0253584 -0.41758564 -1.2880363 -0.41296464 0.22221176 -0.055984586 -0.6891722 0.24870934
0.002134864 0.028870216 -1.8108624 -0.20484045 0.25826603 -0.6804849 1.5004479 -0.41334325
-0.4870185 -0.06946284 0.41123047 0.23513694 -0.81629306 -0.066282384 -2.5015483 0.005924328
0.14747721 0.2261645 -0.1460624 0.1653353 -0.5336852 0.6932452 -0.37149057 -0.083716184
0.22936143 0.29653215 0.17836909 0.25320527 -0.4387153 -0.53937393 -1.8533424 -0.52354205
0.7458222 0.28233165 -1.4246618 0.079851665 0.58667094 -0.6483824 -0.09807658 -0.46087018
-0.16102527 0.023706174 -0.40930617 0.047138046 -0.015455185 0.028570062 -0.031278715 0.018565344
0.17216879 0.24843076 1.8952432 0.053491745 0.1351539 0.024989715 -0.18757798 0.08842872
-0.4408522 0.21674387 1.0073212 0.25619298 -1.0214618 -0.2894356 -1.3187797 -0.39495006
0.2084424 -0.022693248 -2.3193388 -0.27368224 -0.13974857 -0.1839369 0.42674932 -0.6633414
0.98658115 -0.4769375 0.23992425 -0.2937704 -0.77756673 -0.06294887 -0.5293772 0.22121155
0.6498187 -0.25858933 -1.747536 -0.35466796 0.5665313 0.30302837 0.21862863 0.285862
-0.059710886 -0.31684378 -1.0527937 -0.3243008 -0.30845577 -0.35800847 0.23001434 -0.6812045
0.70505214 -0.7616289 0.124910675 -0.54137915 -0.08638814 0.05701041 -0.99814093 0.03291974
0.27132964 -0.047799855 0.28683424 0.03400767 -0.11698243 0.04359627 0.7258781 0.39420208
0.09743486 -0.13354301 -1.2876587 0.043906767 -0.16295888 -0.15861638 -0.10525478 -0.08784364
0.089939944 0.059201878 -0.080040544 0.41388622 -0.53873265 -0.3370235 0.06685883 -0.15078282
0.14390196 0.15628444 0.6190368 0.2304052 -0.18433698 -0.037924808 -1.7757314 -0.5265288
-0.105065994 -0.2893493 -0.7267417 -0.36838058 -0.005944953 -0.08859837 -0.12293826 0.04296994
0.6061151 0.3710431 1.2305031 0.29018432 -0.3308731 0.30379513 -0.91071707 0.28236616
0.78480273 0.14912719 0.6207839 0.16511871 0.0019998527 0.5660613 -1.2915018 -0.27560917
00000000: 3485 80bf c4ce 94be 4b06 87be de21 abbd
00000010: ce6b c5bf 9150 70be 44c6 fabf 72ca 24be
00000020: fd5e 2dbf 633c 3ebe 31c2 88bf 3c57 80be
00000030: aabb 35be 99e8 d3be f1a9 eb3e a824 943c
00000040: bf46 9bbe dbbd 96be 7641 b6bc 6a41 9e3d
00000050: 305e 633e c3c1 5dbc 4974 e23f bbe0 763d
00000060: 744f d33e ab8c 513e 84a9 b23f eed0 663e
00000070: 0573 7bbd aa2b e33e eed1 2e3f a08a adbe
00000080: 0b41 7fbe 98fc 79be 0cc4 c9be 7740 0bbe
00000090: 93cc 00bf 5c92 b5bd 145b 28bf 3078 2cbe
000000a0: 58ef e73e 191c 2bbe 37f3 a53e 7020 143e
000000b0: bf5a eabe 775a 3fbf baff 6f3f 604a ddbe
000000c0: c333 423c 9013 6cbb bb2b a53d edc0 b83b
000000d0: 0299 14bd 2404 b03e ffb4 8c3f 2b3a ca3e
000000e0: b0bd 30be 5b7f 06bd 9fc3 993f 9885 483d
000000f0: 10e6 b0be df4d b0be a046 60bf 0849 39be
00000100: a3ce afbc d379 0bbf 2344 85bf 25c9 adbe
00000110: dbe3 d93c 2784 ecbe 4b93 fabe a8e2 8fbd
00000120: 7135 18bf 5d68 16bd e497 6c3f ff86 8c3e
00000130: d812 16bf 659c fd3d 3333 963f b206 3e3e
00000140: 01c8 7c3e b58b 8abc 6354 22be e098 d93e
00000150: 9928 5f3e 9b89 103f 5905 953e a78b 993e
00000160: f23e 83bf c9cd d5be 60de a4bf 1a70 d3be
00000170: 7b8b 633e 1850 65bd 976d 30bf a9ad 7e3e
00000180: 13e9 0b3b 3b81 ec3c 57ca e7bf b2c1 51be
00000190: 723b 843e 4234 2ebf ad0e c03f baa1 d3be
000001a0: 7d5a f9be 8942 8ebd cd8c d23e bdc7 703e
000001b0: 95f8 50bf 0fbf 87bd 5e19 20c0 de20 c23b
000001c0: 4404 173e ab97 673e 6291 15be a84d 293e
000001d0: 989f 08bf 8478 313f 0334 bebe 6473 abbd
000001e0: b9dd 6a3e 10d3 973e 63a6 363e 1fa4 813e
000001f0: 4b9f e0be 6914 0abf 533a edbf da06 06bf
00000200: 34ee 3e3f c68d 903e 515b b6bf 4589 a33d
00000210: 1130 163f 64fc 25bf 60dc c8bd 2df7 ebbe
00000220: cfe3 24be 7333 c23c 9490 d1be d313 413d
00000230: bf37 7dbc c30b ea3c 1c1e 00bd 5916 983c
00000240: 044d 303e a264 7e3e 5497 f23f 291a 5b3d
00000250: c965 0a3e 3bb7 cc3c 7114 40be 1e1a b53d
00000260: 61b7 e1be 1bf2 5d3e e7ef 803f ba2b 833e
00000270: 43bf 82bf e730 94be c6cd a8bf e536 cabe
00000280: ed71 553e 31e7 b9bc 0c70 14c0 1420 8cbe
00000290: 401a 0fbe f459 3cbe e37e da3e bed0 29bf
000002a0: 9590 7c3f 2731 f4be b4ae 753e 1369 96be
000002b0: 9d0e 47bf 56eb 80bd 4485 07bf 4885 623e
000002c0: 855a 263f d265 84be 42af dfbf 0a97 b5be
000002d0: 3208 113f 8926 9b3e 2fe0 5f3e 815c 923e
000002e0: 6793 74bd 5939 a2be f2c1 86bf c10a a6be
000002f0: eaed 9dbe e34c b7be e188 6b3e 6b63 2ebf
00000300: 4c7e 343f 1dfa 42bf 2bd1 ff3d d397 0abf
00000310: 44ec b0bd bf83 693d 2a86 7fbf d9d6 063d
00000320: b8eb 8a3e c8c9 43bd f0db 923e a04b 0b3d
00000330: 7c94 efbd 0192 323d 26d3 393f dbd4 c93e
00000340: ee8b c73d 80bf 08be 00d2 a4bf 95d7 333d
00000350: b1de 26be 556c 22be d18f d7bd 5ee7 b3bd
00000360: 6f32 b83d ab7d 723d 4cec a3bd e5e8 d33e
00000370: 62ea 09bf 588e acbe 48ed 883d d066 1abe
00000380: 095b 133e 0709 203e 3279 1e3f 57ef 6b3e
00000390: d5c2 3cbe 0b57 1bbd 2b4b e3bf 97ca 06bf
000003a0: d72c d7bd 9725 94be be0b 3abf 619c bcbe
000003b0: e1cd c2bb 1073 b5bd 0ec7 fbbd 3f01 303d
000003c0: 5c2a 1b3f 5cf9 bd3e 2081 9d3f 0a93 943e
000003d0: 3368 a9be 098b 9b3e c124 69bf 4c92 903e
000003e0: d5e8 483f ccb4 183e b2eb 1e3f e114 293e
000003f0: f60f 033b 65e9 103f ee4f a5bf a51c 8dbe

fc1.bias f4 [128]
-0.1969668 0.0129985465 -0.7965142 -0.026904091 -0.67359746 -0.25695303 0.034410015 -0.04509877
-0.128667 -0.30396143 -0.0632999 0.043110643 -0.049923606 -0.22933456 -0.15048328 0.028889928
-0.41420218 -0.03457236 -0.010418491 -0.07646262 -0.15863043 -0.4720527 -0.12739213 0.07815602
-0.35371003 0.0065093604 -0.14323492 0.053993516 -0.0712395 -0.0069464454 0.039796595 -0.21689536
-0.14138542 0.01789152 0.2551072 -0.0756522 -0.13060375 0.0022584551 -0.21408522 -0.17743643
-0.0145942485 -0.102832876 -0.005200851 -0.05548973 0.037111837 -0.1958969 -0.09833862 0.007641334
0.008095253 0.26927584 -0.44728512 -0.011005314 -0.1892806 0.19143182 -0.091009624 0.021077404
-0.032513816 -0.17883717 -0.08629419 -0.023432452 -0.072214454 -0.16535483 -0.13777342 -0.3988951
-0.012176941 0.0071699503 -0.3280224 0.05966047 -0.080376096 0.038394175 -0.0974072 -0.17392649
-0.02900899 -0.48150125 -0.009782523 -0.05817378 0.017744934 -0.04587986 0.09807229 -0.2260387
-0.027153077 -0.10858447 -0.29295883 -0.257216 -0.031433534 -0.39815724 -0.19584517 -0.0858149
-0.38266873 0.044974126 -0.12591663 0.3164277 -0.10555169 -0.00414072 -0.44164497 -0.22996238
-0.1418753 -0.26802555 -0.0927419 0.010186387 -0.041464075 -0.164105 0.17289998 0.31336465
0.033261284 -0.32016286 -0.39673615 -0.05476919 -0.021401199 -0.084717706 -0.07890693 0.06300142
0.05601844 0.09853032 0.029854817 -0.20872454 -0.10401747 -0.5735425 -0.22721022 -0.4345623
0.10748956 -0.18714267 -0.06132106 -0.081464745 -0.08058893 0.009857895 -0.13852377 -0.5541659
00000000: aab1 49be dbf7 543c 5be8 4bbf f865 dcbc
00000010: e270 2cbf 598f 83be 84f1 0c3d 7db9 38bd
00000020: 48c1 03be d5a0 9bbe 61a3 81bd c994 303d
00000030: b27c 4cbd aed6 6abe 4a18 1abe 92aa ec3c
00000040: 4f12 d4be bf9b 0dbd 52b2 2abc 6f98 9cbd
00000050: 0470 22be e4b0 f1be 1573 02be 4310 a03d
00000060: 7b19 b5be 794c d53b 2dac 12be 4e28 5d3d
00000070: 04e6 91bd 029f e3bb c101 233d d119 5ebe
00000080: 57c7 10be 3d91 923c 699d 823e 8aef 9abd
00000090: fdbc 05be 9702 143b 2839 5bbe e5b1 35be
000000a0: b71c 6fbc 0b9a d2bd e66b aabb 3349 63bd
000000b0: 9502 183d 3299 48be c265 c9bd 2864 fa3b
000000c0: f4a1 043c 86de 893e 8e02 e5be a24f 34bc
000000d0: c6d2 41be b406 443e 4163 babd 85aa ac3c
000000e0: 352d 05bd 1721 37be 02bb b0bd 6af5 bfbc
000000f0: 2ce5 93bd c752 29be 7a14 0dbe fb3b ccbe
00000100: cb81 47bc e7f1 ea3b 8df2 a7be 895e 743d
00000110: 399c a4bd 3643 1d3d 6d7d c7bd c919 32be
00000120: 43a4 edbc 5587 f6be e046 20bc a147 6ebd
00000130: d35d 913c 85ec 3bbd 20da c83d b076 67be
00000140: 2170 debc 8961 debd b3fe 95be d1b1 83be
00000150: 73c0 00bd 44db cbbe a38b 48be b9bf afbd
00000160: 28ed c3be ca36 383d 4af0 00be d002 a23e
00000170: 7c2b d8bd e0ae 87bb 4a1f e2be 427b 6bbe
00000180: c247 11be a53a 89be 77ef bdbd cee4 263c
00000190: 3cd6 29bd 240b 28be b10c 313e 5571 a03e
000001a0: fc3c 083d 63ec a3be 0021 cbbe a855 60bd
000001b0: 9151 afbc 7a80 adbd f599 a1bd e306 813d
000001c0: 9773 653d 44ca c93d 1792 f43c e3bb 55be
000001d0: 1c07 d5bd aed3 12bf cca9 68be f37e debe
000001e0: 7d23 dc3d 54a2 3fbe cb2b 7bbd fdd6 a6bd
000001f0: cf0b a5bd 0283 213c 2dd9 0dbe d1dd 0dbf

fc2.weight f4 [128, 128]
-0.1260686 0.13038677 -0.17035298 -0.1274153 0.019945243 0.07084418 0.09885462 0.016850984
0.005100356 -0.22859807 0.054103527 -0.120016046 -0.064112656 0.14429171 -0.15916376 0.04553499
-0.2739691 -0.13142318 -0.15719248 -0.237123 -0.09049725 0.007925952 -0.08995223 0.058597714
-0.06669103 -0.424311 -0.2578422 0.20158766 -0.17993379 -0.024125176 0.065089785 -0.105929054
-0.10198987 -0.13456349 -0.049100336 0.0027320082 0.104538545 -0.018068846 -0.08239972 -0.25546053
0.010857431 0.11699734 0.04826238 0.027095497 0.14593425 0.042247713 0.08064343 -0.09338392
-0.15987137 0.09464943 0.17953053 0.1054279 -0.06460051 0.16971703 -0.020461252 0.12702525
-0.031443086 -0.17855988 -0.010573098 -0.08636757 -0.21308331 -0.12174204 -0.18154702 -0.032849982
-0.14164245 -0.16122656 -0.13678268 0.010858753 -0.14655733 -0.14148942 -0.115020975 -0.059460893
-0.025610326 -0.16947314 0.022614522 0.052408054 -0.12723844 -0.16377573 -0.12921388 0.0686531
-0.24359748 -0.0871119 -0.07369979 -0.27275854 0.032067575 -0.23045856 -0.17113209 -0.116317146
-0.075955965 0.0975875 -0.05857312 -0.14820057 0.12879007 0.20724556 -0.051694836 -0.15741059
-0.092622966 -0.050417807 0.013041251 -0.022911193 0.03340924 0.049600873 -0.1489647 -0.15678525
-0.1395388 -0.019108845 0.121094264 0.025938088 -0.0069098733 0.02815687 0.17895629 -0.011736792
-0.010581521 0.031710953 -0.22908367 0.08069315 -0.03715954 0.20522374 0.16791096 -0.12085214
0.12360542 -0.15538085 0.13859682 -0.016247928 -0.13807495 0.016235676 0.06507432 0.049649887
-0.51958853 -3.7094874 -1.3679343 -1.5178375 -0.050700925 -0.71526176 -0.75956124 -1.0267141
-0.0642882 0.21121706 -1.0032848 -1.4137764 0.08544303 0.107544005 0.069058575 0.11404104
-0.026036438 -1.5944644 -2.2813034 -0.8423626 -0.2652384 -0.12276963 -2.8424726 0.1875194
-0.21043183 -3.5369327 -0.17247508 -4.145863 -0.12280491 -1.4976088 -0.17597164 -1.7859405
-2.5961685 -2.7680073 0.37310612 -0.023351971 -2.750927 -0.0410216 0.20380151 -3.021453
-1.8731263 -0.6422667 -4.705369 -3.3751962 -3.0855796 -0.16996703 0.23906992 -1.1259624
-3.942323 0.3011144 -0.091716945 -1.6948602 -0.73262435 0.50810635 -0.020002756 -1.2424318
-0.21119991 -0.57969075 0.34526432 -0.12987252 -1.9104568 -0.056708485 -2.4863665 -0.775012
-0.5388263 -2.4231327 -1.3483806 -2.0052164 0.05125234 -0.69406945 -1.5652503 -0.77269316
-0.073001936 0.009429548 -1.6872349 0.095640175 -0.84002954 -0.67061037 0.48694763 -0.089084424
-2.6868582 -1.1118776 -0.096678674 -0.273263 -1.46775 0.03893782 -0.14018413 0.031772085
0.09307799 -0.20336334 -1.2465235 0.14931262 -0.06348105 -1.4824353 -0.86699647 0.04887237
-1.5090739 -0.73831743 -0.17342436 0.03991798 -0.027396949 -0.97379684 0.04576338 0.22694348
-4.0859947 -0.30321416 0.25966766 -1.6118032 -2.6654692 -0.31242177 -0.10811835 -2.5702627
-3.2703273 -1.7780921 0.019068737 -0.9167985 -2.5740292 -0.15435326 0.06930077 0.16657482
-1.0869488 0.02730879 -0.6176538 0.10964674 -0.9329937 -3.370172 -0.24657378 -0.1590991
00000000: 2118 01be 1c84 053e 0371 2ebe 2879 02be
00000010: 3564 a33c c116 913d 4a74 ca3d 130b 8a3c
00000020: e320 a73b 9d15 6abe a99b 5d3d f9ca f5bd
00000030: 7f4d 83bd 35c1 133e d3fb 22be e682 3a3d
00000040: ae45 8cbe cc93 06be 11f7 20be 5fd0 72be
00000050: 9f56 b9bd dadb 013c e038 b8bd 2804 703d
00000060: 4f95 88bd 4b3f d9be e503 84be ff6c 4e3e
00000070: 9040 38be 29a2 c5bc cb4d 853d 55f1 d8bd
00000080: 11e0 d0bd 03cb 09be 6f1d 49bd 7e0b 333b
00000090: 4e18 d63d 1e05 94bc 2fc1 a8bd b9cb 82be
000000a0: 5ee3 313c 4d9c ef3d c6ae 453d 60f7 dd3c
000000b0: ca6f 153e f00b 2d3d 6228 a53d 1240 bfbd
000000c0: 52b5 23be 8fd7 c13d dad6 373e 95ea d73d
000000d0: 464d 84bd 4dca 2d3e 5b9e a7bc e812 023e
000000e0: 77ca 00bd 67d8 36be ca3a 2dbc 7be1 b0bd
000000f0: 8332 5abe e453 f9bd 76e7 39be b48d 06bd
00000100: b80a 11be 9318 25be c210 0cbe e9e8 313c
00000110: 2013 16be 9ae2 10be 1e90 ebbd 448d 73bd
00000120: bfcc d1bc 5e8a 2dbe 1742 b93c d4a9 563d
00000130: cb4a 02be d3b4 27be a550 04be ff99 8c3d
00000140: 9e71 79be b967 b2bd eaef 96bd 02a7 8bbe
00000150: 4a59 033d 54fd 6bbe 403d 2fbe af37 eebd
00000160: cd8e 9bbd f5db c73d 5eea 6fbd e4c1 17be
00000170: 8be1 033e 2e38 543e f7bd 53bd 3e30 21be
00000180: 1cb1 bdbd e782 4ebd f9aa 553c 41b0 bbbc
00000190: 21d8 083d 492a 4b3d 348a 18be 508c 20be
000001a0: 42e3 0ebe 278a 9cbc 4500 f83d 1d7c d43c
000001b0: 386c e2bb 3ca9 e63c 5140 373e ac4b 40bc
000001c0: 1e5e 2dbc 58e3 013d e994 6abe 7342 a53d
000001d0: 9a34 18bd 2c26 523e daf0 2b3e 5481 f7bd
000001e0: d724 fd3d 281c 1fbe 53ec 0d3e 601a 85bc
000001f0: 8563 0dbe ae00 853c af45 853d ae5d 4b3d
00000200: c103 05bf 3e68 6dc0 7918 afbf 8048 c2bf
00000210: c6ab 4fbd 651b 37bf 9b72 42bf 5e6b 83bf
00000220: 88a9 83bd 4949 583e a36b 80bf a0f6 b4bf
00000230: c1fc ae3d 0840 dc3d 956e 8d3d 598e e93d
00000240: 5e4a d5bc 6917 ccbf e000 12c0 13a5 57bf
00000250: 54cd 87be a56e fbbd 12eb 35c0 1605 403e
00000260: 717b 57be 1b5d 62c0 4f9d 30be e9aa 84c0
00000270: 2481 fbbd a5b1 bfbf e931 34be b399 e4bf
00000280: a027 26c0 0827 31c0 c407 bf3e a24c bfbc
00000290: 300f 30c0 4406 28bd 58b1 503e 7c5f 41c0
000002a0: 9ac2 efbf 976b 24bf 6292 96c0 3703 58c0
000002b0: 237a 45c0 d60b 2ebe bfce 743e 891f 90bf
000002c0: 054f 7cc0 ab2b 9a3e 18d6 bbbd 2ef1 d8bf
000002d0: 458d 3bbf 4213 023f d2dc a3bc 0108 9fbf
000002e0: ca44 58be 9d66 14bf 7cc6 b03e 4dfd 04be
000002f0: d989 f4bf 2847 68bd a120 1fc0 3067 46bf
00000300: 85f0 09bf 9b14 1bc0 bc97 acbf 7755 00c0
00000310: f9ed 513d 89ae 31bf 1f5a c8bf 38cf 45bf
00000320: 0a82 95bd 647e 1a3c 50f7 d7bf ffde c33d
00000330: 2d0c 57bf 1fad 2bbf 3351 f93e e571 b6bd
00000340: 7cf5 2bc0 0152 8ebf 78ff c5bd 21e9 8bbe
00000350: 3bdf bbbf 437d 1f3d 6e8c 0fbe 7223 023d
00000360: ac9f be3d 7b3e 50be 158e 9fbf 68e5 183e
00000370: 5a02 82bd 71c0 bdbf 7bf3 5dbf 652e 483d
00000380: 5529 c1bf 5f02 3dbf 2896 31be 0981 233d
00000390: 916f e0bc c04a 79bf 6272 3b3d df63 683e
000003a0: 78c0 82c0 e33e 9bbe 29f3 843e 914f cebf
000003b0: 0c97 2ac0 bff5 9fbe 276d ddbd 2f7f 24c0
000003c0: 0b4d 51c0 8698 e3bf 0a36 9c3c 4eb3 6abf
000003d0: e5bc 24c0 c80e 1ebe 90ed 8d3d 9792 2a3e
000003e0: 2321 8bbf afb6 df3c 8f1e 1ebf 788e e03d
000003f0: add8 6ebf e6b0 57c0 d67d 7cbe e0ea 22be

fc2.bias f4 [128]
-0.04190936 0.14257276 0.18173265 -0.009492759 0.14329503 0.22858548 0.16416752 0.13159445
0.38132945 0.08222761 -0.076825835 -0.015724648 -0.0055547003 0.16038539 -0.012900104 -0.0032227957
0.17694578 0.2037805 0.15145826 -0.044064604 0.15667942 -0.027776495 0.08199415 -0.86010975
-0.098590836 -0.7148633 -0.05458906 -0.4609838 -0.1688013 0.03801754 -0.15907063 -0.0044514704
0.021876723 0.18768105 0.01391138 0.1977616 -0.01935115 -0.04659773 -0.03806883 -0.039263867
-0.054824978 0.2005645 0.13381654 -0.2260918 -0.011903214 -0.5589644 0.07331261 0.041239366
-0.9453772 0.2605308 0.0077622 0.030133398 -0.22265027 0.20848829 0.08601964 -0.8226318
-0.032578927 0.14107518 -0.085063756 0.0032316837 -0.45218688 0.04069139 0.046578337 -0.07172709
0.26778328 0.05669762 0.493292 0.22971737 -0.034138348 0.055885226 -0.1153146 0.043486316
-0.09068317 0.029208926 -0.038960043 0.14644065 0.129936 -0.27450213 0.17890163 -0.07193705
0.095786184 0.14317667 -0.44594702 -0.06448497 0.00044177694 -0.19301715 0.03120939 0.2730612
-0.07432993 0.3770823 0.01254099 0.0067985705 0.623916 -0.07137341 -0.06550124 0.079390995
0.33765998 0.1574501 -0.06659756 -0.39420876 -0.05216907 0.1013639 0.14551967 -0.07197919
-0.05541996 0.00558889 0.0981347 0.15710326 -0.09013776 0.17980829 -0.07620561 -0.13909554
0.053440645 0.14257385 0.069883354 -0.031663824 -0.038250897 0.092885956 0.21072915 0.14513026
0.056872424 -0.15092719 -0.010406859 -0.029855086 0.19328645 -0.050231587 0.03190361 -0.07458543
00000000: 26a9 2bbd 98fe 113e 2018 3a3e 8487 1bbc
00000010: efbb 123e 5012 6a3e 881b 283e b2c0 063e
00000020: 9d3d c33e f366 a83d dd56 9dbd fad0 80bc
00000030: 3404 b6bb 113c 243e f55a 53bc 8a35 53bb
00000040: 4631 353e d6ab 503e e017 1b3e 167d 34bd
00000050: 9270 203e 888b e3bc 8dec a73d 2730 5cbf
00000060: fee9 c9bd 4801 37bf c798 5fbd 1206 ecbe
00000070: 3fda 2cbe 48b8 1b3d 69e3 22be a4dd 91bb
00000080: d036 b33c 762f 403e 8fec 633c 0482 4a3e
00000090: 4e86 9ebc 43dd 3ebd 10ee 1bbd 26d3 20bd
000000a0: 2890 60bd c860 4d3e 3407 093e 9c84 67be
000000b0: b305 43bc 4a18 0fbf ec24 963d 9cea 283d
000000c0: 3d04 72bf 4b64 853e 0e5a fe3b 51da f63c
000000d0: 6ffe 63be f47d 553e 112b b03d ff97 52bf
000000e0: 7b71 05bd 0376 103e e835 aebd a8ca 533b
000000f0: 0a85 e7be 04ac 263d edc8 3e3d a7e5 92bd
00000100: e41a 893e c33b 683d c590 fc3e 083b 6b3e
00000110: a7d4 0bbd e8e7 643d 102a ecbd b51e 323d
00000120: 19b8 b9bd 8f47 ef3c 9194 1fbd 8af4 153e
00000130: f10d 053e 8b8b 8cbe fd31 373e bb53 93bd
00000140: 8c2b c43d e89c 123e 2b53 e4be b210 84bd
00000150: 4c9e e739 4aa6 45be d6aa ff3c adce 8b3e
00000160: 4a3a 98bd ee10 c13e b978 4d3c 8bc6 de3b
00000170: f5b8 1f3f 392c 92bd 8425 86bd bf97 a23d
00000180: c5e1 ac3e 993a 213e 4d64 88bd bbd5 c9be
00000190: 3caf 55bd e097 cf3d 1c03 153e d369 93bd
000001a0: 0a00 63bd 0223 b73b d8fa c83d addf 203e
000001b0: 259a b8bd aa1f 383e b011 9cbd 106f 0ebe
000001c0: 94e4 5a3d e1fe 113e 011f 8f3d edb1 01bd
000001d0: f9ac 1cbd fe3a be3d 62c9 573e 079d 143e
000001e0: 0ff3 683d a88c 1abe 8881 2abc a792 f4bc
000001f0: e2ec 453e a3bf 4dbd 5cad 023d 3fc0 98bd

fc_value.weight f4 [128, 128]
0.116277 0.06976929 -0.09715329 -0.06995085 -0.060645767 0.015850589 -0.41428742 0.07761189
0.03986045 0.16431707 -0.05663415 -0.06069289 0.15835948 -0.14609443 -0.29125923 -0.17338069
-0.15399516 0.17387362 -0.01852519 0.011554374 -0.10521088 -0.115332425 -0.02002825 0.09831408
0.08204552 -0.20958626 0.23238303 0.008433585 -0.10980198 -0.16009235 -0.0048675947 0.08450587
-0.041324347 0.0476549 -0.16260944 -0.08049283 0.08807057 0.11392189 -0.27069592 -0.02630967
0.23500605 -0.043788444 0.0073078265 -0.11836544 0.21388789 0.010326801 0.051612597 -0.023769462
-0.011931763 -0.11754954 0.09296361 -0.10253564 -0.12121453 -0.09117334 -0.13208678 -0.35061905
-0.17850448 0.2571058 -0.12838294 -0.10137939 -0.23903114 0.31941548 0.079851285 0.018041102
0.039923128 -0.18619673 -0.18846223 -0.1998008 -0.06592245 -0.2725796 -0.24489741 -0.045304924
-0.083858386 0.12762578 -0.05368286 -0.21481766 -0.18226536 -0.07738999 -0.159046 -0.17569473
-0.20270246 0.083096385 -0.2799347 0.1429649 -0.090492286 0.022453014 -0.06376706 -0.21898289
0.0429923 0.060972005 -0.014561397 0.14158002 -0.07286683 0.037475113 0.044150725 0.15314166
-0.11155426 -0.14349832 0.09659776 0.12672588 0.01268613 0.26027292 0.097548544 0.19007769
0.046113964 0.025448779 -0.20678507 -0.028664248 -0.08459674 0.08584406 0.06422291 -0.18694432
0.12533253 0.041384004 0.11791048 0.049545154 -0.06781427 -0.044536963 -0.31761038 -0.034651972
-0.32326585 0.08815793 -0.35423592 -0.0010366074 0.076393224 -0.12303366 -0.19716014 0.26918036
-0.2604598 -0.43688202 0.33730116 0.059192292 -0.29390272 0.14751786 -0.5680816 0.03115235
0.032240372 0.5691455 -0.1699216 0.07165407 0.07367987 0.47792158 -0.014381133 0.38812536
-0.38856757 0.42075476 0.06973312 0.071712054 0.16055104 -0.21015602 0.56891817 -0.27010423
-0.080660604 -0.38063398 -0.09968348 -1.016524 0.13934195 -0.11243834 0.19555226 0.08559548
-0.05938776 -0.41724956 -1.7427672 -0.6328637 0.0012790603 0.013132692 0.116740525 0.09973984
-0.11492839 -0.13935329 -0.24217346 -0.08879489 -0.029340066 -0.48369348 -0.25374994 -0.98657745
0.4772402 0.042754244 0.037535075 0.26113006 -0.08580426 -0.5663421 -0.0029378135 -0.13833359
-0.16959232 -0.010419446 -0.00123561 0.371768 0.07441633 0.29515067 -0.19086966 0.057346515
-0.0443806 -0.27535886 -0.5092327 -0.07050507 0.39385238 0.3844469 0.14095406 0.5183959
-0.15975188 -0.27363706 0.02499085 -0.56875366 0.19212206 -0.14674225 -0.30102423 -0.08763861
-0.35213336 0.31704628 -0.20517787 0.17605576 -0.02653664 0.1285858 -0.16772492 0.15528843
-0.0017933053 0.3099036 -0.08262322 0.21181336 -0.91840833 0.028982434 0.052750032 0.44777521
-0.2943109 -0.35661262 0.1253881 -0.011867785 -0.08174559 0.06374038 -0.00861369 -0.35182664
0.19392823 -0.40051353 -0.38525194 -0.56105477 0.058036443 -0.22455706 0.027834697 -0.41006494
-0.37547138 0.5645949 0.28088847 0.29516917 0.071745895 0.11252485 -0.03493562 -0.10528416
-0.17426708 -0.41044772 0.10045091 0.033951584 0.16423666 0.20689933 -0.30533502 -0.009718979
00000000: a322 ee3d 34e3 8e3d 4ef8 c6bd 6442 8fbd
00000010: b267 78bd 18d9 813c 7b1d d4be fcf2 9e3d
00000020: b644 233d bc42 283e 36f9 67bd 1c99 78bd
00000030: fd28 223e c799 15be ee1f 95be b58a 31be
00000040: e8b0 1dbe ed0b 323e 24c2 97bc 8f4e 3d3c
00000050: cd78 d7bd 6833 ecbd 4912 a4bc e458 c93d
00000060: 7b07 a83d c89d 56be d1f5 6d3e 052d 0a3c
00000070: dcdf e0bd 40ef 23be 5880 9fbb 6a11 ad3d
00000080: b843 29bd c931 433d 1783 26be 6dd9 a4bd
00000090: 585e b43d e14f e93d a898 8abe 6187 d7bc
000000a0: 6da5 703e 835b 33bd 7e76 ef3b 9469 f2bd
000000b0: 6d05 5b3e be31 293c bb67 533d 2db8 c2bc
000000c0: 717d 43bc d0bd f0bd b563 be3d 35fe d1bd
000000d0: 533f f8bd 17b9 babd c241 07be 5784 b3be
000000e0: e1c9 36be 5fa3 833e d176 03be ff9f cfbd
000000f0: 94c4 74be 6d8a a33e 1289 a33d efca 933c
00000100: 6f86 233d 5baa 3ebe 3efc 40be 9598 4cbe
00000110: 5902 87bd 8e8f 8bbe 63c6 7abe a891 39bd
00000120: f2bd abbd 55b0 023e 8fe2 5bbd 29f9 5bbe
00000130: c5a3 3abe a57e 9ebd f4dc 22be 52e9 33be
00000140: 3c91 4fbe 702e aa3d 9a53 8fbe 6465 123e
00000150: 0554 b9bd 62ef b73c 4e98 82bd 0d3d 60be
00000160: b218 303d c8bd 793d ed92 6ebc 5afa 103e
00000170: 343b 95bd 817f 193d 64d7 343d 2bd1 1c3e
00000180: 8f76 e4bd 39f1 12be 0cd5 c53d 6ec4 013e
00000190: 7cd9 4f3c 7e42 853e 88c7 c73d baa3 423e
000001a0: ffe1 3c3d f579 d03c 77bf 53be 49d1 eabc
000001b0: 0e41 adbd 03cf af3d 4d87 833d 556e 3fbe
000001c0: 2c57 003e 4682 293d 0d7b f13d dcef 4a3d
000001d0: 35e2 8abd 646c 36bd d49d a2be 3aef 0dbd
000001e0: 1a83 a5be 258c b43d 695e b5be c6de 87ba
000001f0: 0d74 9c3d 12f9 fbbd 59e4 49be 02d2 893e
00000200: fd5a 85be 00af dfbe bdb2 ac3e 9e73 723d
00000210: 6b7a 96be ec0e 173e cc6d 11bf 3733 ff3c
00000220: 7b0e 043d 85b3 113f eeff 2dbe 5ebf 923d
00000230: 79e5 963d 23b2 f43e d89e 6bbc 5eb8 c63e
00000240: 54f2 c6be 2b6d d73e 3dd0 8e3d c5dd 923d
00000250: 7e67 243e 2433 57be 9fa4 113f 1a4b 8abe
00000260: 6331 a5bd 75e2 c2be da26 ccbd 751d 82bf
00000270: a8af 0e3e 1346 e6bd da3e 483e af4c af3d
00000280: 9440 73bd bca1 d5be ff12 dfbf 5b03 22bf
00000290: 24a6 a73a 812a 573c a815 ef3d 6744 cc3d
000002a0: 935f ebbd a1b2 0ebe 52fc 77be 18da b5bd
000002b0: 945a f0bc aca6 f7be 83eb 81be 5790 7cbf
000002c0: d458 f43e 131f 2f3d 61be 193d d7b2 853e
000002d0: 25ba afbd ccfb 10bf 5588 40bb 52a7 0dbe
000002e0: 9ca9 2dbe 53b6 2abc 31f4 a1ba 6058 be3e
000002f0: 9767 983d fd1d 973e 5673 43be 2ee4 6a3d
00000300: 6fc8 35bd d6fb 8cbe 135d 02bf f664 90bd
00000310: 05a7 c93e 39d6 c43e 4356 103e 98b5 043f
00000320: ff95 23be 281a 8cbe 9cb9 cc3c d799 11bf
00000330: a5bb 443e 9a43 16be d91f 9abe df7b b3bd
00000340: d34a b4be e453 a23e 261a 52be f647 343e
00000350: 5e63 d9bc ffab 033e 15c0 2bbe ee03 1f3e
00000360: 570d ebba afab 9e3e 5d36 a9bd 9ae5 583e
00000370: cf1c 6bbf 926c ed3c 6b10 583d cb42 e53e
00000380: ebaf 96be ee95 b6be bd65 003e 1971 42bc
00000390: 3b6a a7bd 518a 823d 6f20 0dbc 9f22 b4be
000003a0: 1f95 463e 1c10 cdbe be3f c5be 49a1 0fbf
000003b0: 9fb7 6d3d 49f2 65be 9705 e43c 08f4 d1be
000003c0: c93d c0be 4b89 103f 9dd0 8f3e 6a20 973e
000003d0: 83ef 923d 6e73 e63d a718 0fbd 399f d7bd
000003e0: 1273 32be 3426 d2be 35b9 cd3d d110 0b3d
000003f0: a82d 283e 6bdd 533e df54 9cbe 5a3c 1fbc

fc_value.bias f4 [128]
-0.08451212 -0.345109 0.40291798 0.27736297 -0.14345837 -0.527078 0.5819698 -0.32561317
-0.47256738 -0.5101751 0.61377823 -0.32505372 0.16986588 -0.29753295 -0.24936417 0.078776665
-0.109522216 -0.15727533 -0.2553913 0.16024196 0.25013646 -0.18931353 -0.1670039 -0.109912194
-0.14184579 -0.12162378 -0.32054624 -0.3709549 -0.30216634 0.07188364 -0.119532034 0.031247135
-0.40018997 -0.3928622 -0.1353535 0.65376115 -0.3798382 -0.1674227 -0.14982723 -0.2059344
0.1769716 0.7611478 -0.04413439 0.70591795 -0.1362565 -0.07121311 -0.296743 -0.23702528
-0.009248428 -0.2421029 0.50492465 -0.25641096 -0.2422978 -0.021063205 -0.511759 -0.33277813
-0.12120627 -0.13792367 -0.49023288 0.62515473 0.69066626 0.022472957 0.6725078 -0.24559845
-0.3305366 0.0005353229 0.6147843 0.63489324 -0.15066518 -0.3167772 -0.013396375 0.14211577
0.78538597 0.34700668 -0.27105817 0.34366375 -0.521102 -0.09903988 -0.50409204 -0.33637214
-0.44416684 -0.10533733 -0.0746854 -0.19871996 0.7815642 -0.18749487 -0.19924861 -0.27360466
-0.13094082 0.72576576 0.7826859 -0.1482439 0.26053542 0.71315646 -0.4141425 0.13573848
-0.44421816 -0.27760863 0.5306265 -0.2199203 -0.029728994 -0.12664232 -0.47328913 0.6517758
-0.22284216 -0.52589387 -0.3864009 -0.40211287 0.7698742 -0.0841643 -0.21014954 -0.27343002
-0.31790978 -0.03041452 0.68081486 -0.19311121 -0.15448745 0.04177384 0.62359005 -0.23684233
-0.24772106 0.73493975 -0.13151555 0.26005998 0.30581528 0.34955084 -0.3797454 0.01603172
00000000: b114 adbd 20b2 b0be 444b ce3e 8502 8e3e
00000010: c0e6 12be 95ee 06bf f9fb 143f c5b6 a6be
00000020: 5af4 f1be d69a 02bf 9220 1d3f 716d a6be
00000030: 52f1 2d3e 3d56 98be 5259 7fbe a955 a13d
00000040: 2f4d e0bd c90c 21be a6c2 82be 7816 243e
00000050: e311 803e 68db 41be 1203 2bbe a519 e1bd
00000060: 0640 11be e315 f9bd a31e a4be cded bdbe
00000070: 8cb5 9abe bb37 933d 36cd f4bd fef9 ff3c
00000080: b3e5 ccbe 3c25 c9be 1c9a 0abe e45c 273f
00000090: 277a c2be db70 2bbe 4f6c 19be 78e0 52be
000000a0: 0b38 353e 95da 423f 43c6 34bd 0ab7 343f
000000b0: d386 0bbe 2ed8 91bd b3ee 97be c1b6 72be
000000c0: b886 17bc d3e9 77be be42 013f 4c48 83be
000000d0: ea1c 78be be8c acbc a302 03bf e561 aabe
000000e0: fe3a f8bd dd3b 0dbe ceff fabe 240a 203f
000000f0: 81cf 303f 3519 b83c 7929 2c3f 297e 7bbe
00000100: 183c a9be e954 0c3a 8162 1d3f 5d88 223f
00000110: f947 1abe 9f30 a2be 787c 5bbc cc86 113e
00000120: 0e0f 493f dcaa b13e 23c8 8abe b2f4 af3e
00000130: f166 05bf 6cd5 cabd 2d0c 01bf f838 acbe
00000140: d669 e3be 19bb d7bd a9f4 98bd 3f7d 4bbe
00000150: 9714 483f a8fe 3fbe d407 4cbe e915 8cbe
00000160: 5a15 06be c9cb 393f 1a5e 483f 40cd 17be
00000170: e664 853e 6c91 363f 7c0a d4be 07ff 0a3e
00000180: 9070 e3be b822 8ebe 23d7 073f ca32 61be
00000190: 388a f3bc 86ae 01be f452 f2be c7da 263f
000001a0: bc30 64be fba0 06bf 57d6 c5be bde1 cdbe
000001b0: 7a16 453f 555e acbd 7131 57be 05ff 8bbe
000001c0: 12c5 a2be df27 f9bc e249 2e3f f2be 45be
000001d0: f531 1ebe 0c1b 2b3d 99a3 1f3f cc86 72be
000001e0: 97aa 7dbe 0325 3c3f 03ac 06be 9526 853e
000001f0: d293 9c3e 54f8 b23e fd6d c2be f454 833c

value.weight f4 [1, 128]
-0.21485865 -0.86424464 0.4184414 0.97345746 0.014669573 -0.7432258 0.50240946 -0.26292557
0.8925384 -0.36114985 0.62532276 -0.25323373 0.5670947 -0.17243953 -0.56825536 0.27205786
0.087340616 -0.47471187 0.006460498 0.38172838 0.81156975 -0.002928592 0.000864352 0.3302295
0.020273652 -0.024192378 -0.11767751 0.14468 -2.3936741 -0.9196774 0.2144478 -0.6790603
-0.05562012 -0.076679535 0.0023752912 0.45870367 -1.453505 -0.16551073 0.061989035 0.28330836
0.53630584 0.21910575 0.5172632 0.22102778 0.4181878 -1.0484182 -1.0600089 0.25163412
-0.35585055 -0.45387223 0.46238476 -0.67724675 0.62764835 -0.5276435 -0.42570487 -0.18746547
-0.5655779 -0.34513208 -0.6374646 0.2791586 0.23767264 -0.5409423 0.2918615 -0.19733858
0.11636686 0.47923923 0.33779475 0.41566962 0.12849194 -0.4268246 -1.1200709 0.774929
0.27664682 0.8536579 -0.34533185 0.48884174 -0.50231147 0.16377962 -1.2150954 -0.5171515
-1.1730615 0.18869083 0.23848096 0.16224547 0.501905 -0.0049435943 -0.9518121 -2.8391924
-0.2768678 0.3459999 0.45384693 -1.0569811 0.29382053 0.29650548 -0.5351459 -3.1509001
-0.6258725 -0.28214148 0.3903841 -0.7664341 0.4351887 -0.52069384 -1.3187903 0.5005455
-0.22647661 -0.40888983 -0.34987864 -1.3597 0.45098653 0.22583985 0.11329705 -0.6672254
-4.262382 0.67627823 0.2301886 0.74970967 0.021328447 0.43995565 0.35981485 1.250799
-1.5173802 0.2991091 -0.061940562 0.22150962 1.2392946 0.3255146 -0.27165508 0.3384831
00000000: e803 5cbe 233f 5dbf f43d d63e 8234 793f
00000010: a658 703c 0c44 3ebf e89d 003f 2e9e 86be
00000020: 667d 643f a2e8 b8be 2715 203f daa7 81be
00000030: 1e2d 113f fd93 30be 2f79 11bf 2b4b 8b3e
00000040: a3df b23d 6f0d f3be 96b2 d33b e771 c33e
00000050: 09c3 4f3f 9fed 3fbb ae95 623a d713 a93e
00000060: ee14 a63c 182f c6bc e800 f1bd fe26 143e
00000070: f531 19c0 fa6f 6bbf 3498 5b3e e5d6 2dbf
00000080: ecd1 63bd 290a 9dbd c6aa 1b3b 35db ea3e
00000090: 740c babf a57b 29be 37e8 7d3d cb0d 913e
000000a0: 574b 093f 425d 603e 5c6b 043f 1b55 623e
000000b0: b61c d63e 9132 86bf 5fae 87bf 30d6 803e
000000c0: 0b32 b6be f161 e8be b2bd ec3e 0b60 2dbf
000000d0: 90ad 203f a513 07bf fdf5 d9be f3f6 3fbe
000000e0: b7c9 10bf 27b5 b0be e130 23bf e0ed 8e3e
000000f0: 7560 733e 327b 0abf df6e 953e 2013 4abe
00000100: c051 ee3d d85e f53e 6ff3 ac3e a6d2 d43e
00000110: 6493 033e c188 dabe 7c5e 8fbf bf61 463f
00000120: a7a4 8d3e 5389 5a3f 56cf b0be 7749 fa3e
00000130: 7c97 00bf d8b5 273e 3f88 9bbf 0a64 04bf
00000140: e126 96bf 2b38 413e 5a34 743e ad23 263e
00000150: d97c 003f e0fd a1bb f5a9 73bf 54b5 35c0
00000160: 9ec1 8dbe e626 b13e a05e e83e 284b 87bf
00000170: a56f 963e 91cf 973e 52ff 08bf 59a8 49c0
00000180: 2e39 20bf d974 90be 6de0 c73e 0635 44bf
00000190: 0ed1 de3e 314c 05bf 1fce a8bf c023 003f
000001a0: 7ce9 67be 025a d1be 4b23 b3be a60a aebf
000001b0: b5e7 e63e 9042 673e 4908 e83d 49cf 2abf
000001c0: 6f65 88c0 9220 2d3f 8fb6 6b3e f9ec 3f3f
000001d0: ffb8 ae3c de41 e13e a739 b83e 2e1a a03f
000001e0: 8439 c2bf d424 993e 63b5 7dbd 6bd3 623e
000001f0: 35a1 9e3f daa9 a63e 6016 8bbe a84d ad3e

fc_adv.weight f4 [128, 128]
-0.2511193 -0.047632266 -0.09081163 0.022947092 -0.07986802 -0.33848408 -0.24060859 -0.0039373282
-0.17034973 -0.084842965 -0.05895143 0.025557298 -0.042644262 -0.19719696 -0.07813163 -1.4229425
-0.18859589 -0.07121224 -2.556557 -0.041696716 -1.2184162 -0.054424837 0.25539967 0.035950374
-0.09997993 0.038707886 0.073020056 0.5928715 0.08430227 -0.11627344 -0.7559415 -0.0184019
-0.06793223 -0.28072533 -0.3632933 -0.18989319 0.043802496 -0.012254597 -0.03714846 -0.019025855
-0.15833332 0.09331992 0.035207286 -0.04502256 -0.20634806 -0.15050177 -0.097136326 -0.2037092
0.48788226 -0.17797455 0.106892854 -0.043907143 -0.564168 -0.06947996 -0.054517787 0.30315307
0.047042593 -0.24068834 0.203995 -0.091916636 0.16247983 -0.19039159 0.12501614 -0.02091081
-0.00026048126 -0.15166229 -0.8281236 -0.2383216 0.44961032 0.20535521 0.34728056 -0.122727014
0.10398031 -0.14646451 -0.06366035 -0.030423112 0.024040172 -0.013751843 -0.3879884 0.004079887
0.045365613 -0.22299708 0.6736038 -0.04347979 -0.013656025 0.02959398 -0.29079685 -0.6211612
0.11303178 -0.26459506 -0.09702631 -0.6802641 -0.6132727 -0.04562938 0.22005339 -0.61675537
-0.17513324 0.049839377 0.011863526 0.12358104 0.07740247 0.33472845 -0.82638955 0.1522475
-0.087194495 -0.1497334 0.21726242 -0.3736042 -0.19867842 -0.24961658 -0.12620287 -0.15747133
-0.050571304 -0.19358237 -0.23046269 -0.2547909 0.18480533 -0.105155155 -0.7137509 -1.6256813
-0.104333654 0.015211089 0.052525185 0.07968182 -0.010478993 0.0018825213 -0.09301457 -0.027192293
-0.12624866 -0.032863908 -0.08460989 -0.051212564 -0.2950588 -0.15695353 -0.019563492 -0.18328132
0.060683176 0.057651263 0.057411566 -0.08279656 0.10571064 0.049388684 0.230452 0.064102516
-0.32586765 -0.10601838 -0.20058616 0.056127563 -0.06246065 0.17314625 -0.04679067 0.120879956
0.16929497 -0.15350285 -0.014443284 -0.063814014 -0.06747698 -0.19618797 -0.16374798 0.13205801
0.3388404 -0.051948562 -0.0052312687 0.011875769 0.018901097 0.25745395 0.03570543 0.1282795
0.07156981 -0.07217818 0.23510383 -0.021779621 -0.20932747 0.028270748 -0.06975282 -0.037655856
-0.22043641 -0.048679102 -0.025003841 -0.06329438 0.068893716 -0.14473584 -0.23352551 -0.20218347
0.015047321 0.05495007 -0.07127182 0.081899114 -0.1806549 0.059651054 0.08465946 0.18292934
-0.04002705 0.23288634 -0.40034425 -0.042391893 -0.17660156 0.12506725 -0.077026755 -0.021719828
0.20495105 -0.14682414 -0.082230985 -0.17342442 0.20734273 0.08890386 0.00030111236 0.04662329
-0.15148185 0.1416307 0.0035369198 0.12808257 -0.06840136 0.036422 -0.08236756 -0.061194684
-0.06799084 -0.15851212 0.10253918 -0.43112445 -0.32945436 -0.04951098 0.07866053 -0.19060181
-0.13067253 0.21210353 0.13354781 -0.18530726 -0.21965922 0.018669741 -0.012958119 -0.2793369
0.0103722075 -0.122592226 -0.22907281 -0.20240033 -0.0813788 -0.07402956 0.16327588 -0.1261893
0.14470647 -0.00549607 0.121485054 0.014588046 0.29434147 -0.02781517 -0.006315457 -0.14309421
-0.27990028 -0.24221912 0.14844331 0.007822525 0.2708173 0.041381657 -0.14598021 0.0010564422
00000000: b592 80be 0d1a 43bd 73fb b9bd 8afb bb3c
00000010: d891 a3bd c94d adbe 1962 76be b404 81bb
00000020: 2970 2ebe 26c2 adbd 0e77 71bd 8a5d d13c
00000030: c0ab 2ebd 00ee 49be 7a03 a0bd fb22 b6bf
00000040: 481f 41be b9d7 91bd a19e 23c0 2dca 2abd
00000050: 10f5 9bbf 94ec 5ebd bfc3 823e b340 133d
00000060: 47c2 ccbd 298c 1e3d 8a8b 953d 6dc6 173f
00000070: aba6 ac3d c520 eebd 6285 41bf 95bf 96bc
00000080: 0e20 8bbd 3bbb 8fbe 9401 babe 5c73 42be
00000090: 3f6a 333d 81c7 48bc fc28 18bd 1cdc 9bbc
000000a0: 2122 22be 841e bf3d 8435 103d 9369 38bd
000000b0: e84c 53be 231d 1abe 69ef c6bd 2599 50be
000000c0: b4cb f93e f63e 36be a4ea da3d fad7 33bd
000000d0: 506d 10bf 824b 8ebd 0b4e 5fbd e136 9b3e
000000e0: bcaf 403d 0177 76be 11e4 503e ca3e bcbd
000000f0: 1d61 263e 03f6 42be 3b04 003e 264d abbc
00000100: 3491 88b9 5c4d 1bbe e9ff 53bf 940a 74be
00000110: 5333 e63e a348 523e c2ce b13e 4d58 fbbd
00000120: a1f3 d43d cbfa 15be 5c60 82bd e439 f9bc
00000130: e5ef c43c 694f 61bc 6aa6 c6be 93b0 853b
00000140: 4bd1 393d 5959 64be 4c71 2c3f dd17 32bd
00000150: 85bd 5fbc 136f f23c 53e3 94be 6c04 1fbf
00000160: 357d e73d 0179 87be bbb5 c6bd ca25 2ebf
00000170: 71ff 1cbf dfe5 3abd ad55 613e aee3 1dbf
00000180: 2156 33be 6024 4c3d 3c5f 423c 0e18 fd3d
00000190: 3085 9e3d 8761 ab3e 448e 53bf c5e6 1b3e
000001a0: 0793 b2bd b653 19be 0a7a 5e3e 0d49 bfbe
000001b0: 5b72 4bbe 7d9b 7fbe 533b 01be 2a40 21be
000001c0: db23 4fbd 753a 46be 69fe 6bbe f473 82be
000001d0: 9c3d 3d3e 965b d7bd 61b8 36bf 5316 d0bf
000001e0: e2ac d5bd ee37 793c a624 573d 3930 a33d
000001f0: 15b0 2bbc efbe f63a 6c7e bebd 5fc2 debc
00000200: 5447 01be 4e9c 06bd f347 adbd 44c4 51bd
00000210: f211 97be 6db8 20be 9e43 a0bc 19ae 3bbe
00000220: ec8e 783d bb23 6c3d 6428 6b3d 3e91 a9bd
00000230: d27e d83d ca4b 4a3d 9cfb 6b3e 2e48 833d
00000240: 20d8 a6be 2a20 d9bd 7566 4dbe 04e6 653d
00000250: bdd6 7fbd 404d 313e 93a7 3fbd e98f f73d
00000260: a95b 2d3e da2f 1dbe 86a3 6cbc ecb0 82bd
00000270: 5f31 8abd 80e5 48be 8dad 27be 373a 073e
00000280: 7d7c ad3e 04c8 54bd 106b abbb 9692 423c
00000290: 79d6 9a3c 01d1 833e db3f 123d b45b 033e
000002a0: 3193 923d 27d2 93bd 0fbf 703e 2d6b b2bc
000002b0: f159 56be 0e98 e73c 91da 8ebd 073d 1abd
000002c0: 15ba 61be bd63 47bd dbd4 ccbc 7ca0 81bd
000002d0: 2618 8d3d a235 14be 5021 6fbe 2f09 4fbe
000002e0: 0a89 763c 5313 613d f6f6 91bd b9ba a73d
000002f0: 99fd 38be aa54 743d f061 ad3d d451 3b3e
00000300: 67f3 23bd c279 6e3e ecf9 ccbe 1fa3 2dbd
00000310: 0ad7 34be a111 003e 34c0 9dbd c8ed b1bc
00000320: b0de 513e 1159 16be b868 a8bd 2c96 31be
00000330: a751 543e 3a13 b63d 9ede 9d39 10f8 3e3d
00000340: 0f1e 1bbe a307 113e abcb 673b 1428 033e
00000350: 0316 8cbd 3c2f 153d 53b0 a8bd 47a7 7abd
00000360: c83e 8bbd 0051 22be 1000 d23d 58bc dcbe
00000370: 3eae a8be 06cc 4abd c618 a13d 1f2d 43be
00000380: 05cf 05be ab31 593e c2c0 083e 30c1 3dbe
00000390: 59ee 60be 49f1 983c 4a4e 54bc 3f05 8fbe
000003a0: 31f0 293c a211 fbbd 1092 6abe 0842 4fbe
000003b0: eea9 a6bd cf9c 97bd cb31 273e c537 01be
000003c0: ef2d 143e 6018 b4bb 28cd f83d b302 6f3c
000003d0: edb3 963e a4dc e3bc e5f1 cebb 4a87 12be
000003e0: 174f 8fbe 4a08 78be 8601 183e 0c2a 003c
000003f0: 91a8 8a3e d07f 293d d67b 15be 5178 8a3a

fc_adv.bias f4 [128]
-0.16042398 -0.16277042 -0.15659955 0.049441434 -0.008769859 -0.101590306 -0.031094996 0.13529748
-0.13081521 -0.06294108 -0.116399825 -0.14168824 0.013840252 0.011516717 0.17275234 -0.17960154
-0.037875537 -0.11087026 -0.25345507 0.16001607 -0.27309152 0.19173014 -0.22315753 -0.10155333
-0.089397386 0.11128081 -0.2978297 -0.08955233 0.20967327 0.07910035 -0.17222065 -0.2506045
0.05737227 -0.07385137 -0.10672399 -0.23117413 0.18808323 -0.13926587 -0.25940338 -0.0648011
-0.12828597 -0.04959601 -0.24050534 -0.099196345 -0.07291372 -0.016015569 -0.03002558 0.15051655
0.07194641 -0.2690234 -0.2595512 -0.24019574 0.31297272 -0.02051821 -0.044133864 -0.18745852
0.03832059 0.109256886 0.09695069 -0.059186943 -0.019508593 -0.05979438 -0.19894466 0.3148451
-0.05812982 0.07251716 -0.1710218 0.05841161 0.066616915 0.117155954 0.061435554 0.18170042
-0.32449332 -0.04114215 -0.16365935 -0.11997991 -0.08404311 -0.09798332 0.048853025 -0.0070816088
-0.14370157 -0.09885094 -0.07718432 -0.16360295 0.21742761 -0.22628345 0.15552586 0.056424268
-0.11258517 0.061406806 0.17833461 0.008372236 -0.061853882 -0.10716272 -0.1310532 -0.08200048
-0.23428138 0.1017487 -0.29343292 -0.28430516 -0.09726556 -0.11059712 -0.18908936 0.12126565
0.3104396 -0.18925782 -0.19006827 -0.008678207 -0.15306382 -0.047696523 -0.17091238 -0.0735357
0.32289824 -0.1374902 0.018596314 -0.20700002 -0.0025849629 0.09972601 0.3251748 0.0144032175
-0.22756283 0.08872787 0.26910004 -0.050810024 0.06846989 0.04396429 -0.013491623 -0.23819333
00000000: 2f46 24be 4aad 26be a25b 20be 1a83 4a3d
00000010: 74af 0fbc 940e d0bd efba febc 6c8b 0a3e
00000020: 6cf4 05be 41e7 80bd 0863 eebd b916 11be
00000030: 39c2 623c 9db0 3c3c fde5 303e 77e9 37be
00000040: 6123 1bbd f20f e3bd ddc4 81be 41db 233e
00000050: a7d2 8bbe e854 443e 6883 64be 31fb cfbd
00000060: fa15 b7bd 31e7 e33d 227d 98be 3667 b7bd
00000070: 97b4 563e 5dff a13d 9c5a 30be 3c4f 80be
00000080: 2fff 6a3d 633f 97bd 1b92 dabd e9b8 6cbe
00000090: e498 403e b69b 0ebe 85d0 84be 70b6 84bd
000000a0: 665d 03be 3025 4bbd 0847 76be 7427 cbbd
000000b0: ca53 95bd 1533 83bc 35f8 f5bc 0321 1a3e
000000c0: a458 933d 6fbd 89be e5e3 84be dff5 75be
000000d0: f63d a03e ce15 a8bc b6c5 34bd 20f5 3fbe
000000e0: 0df6 1c3d 13c2 df3d 158e c63d 026e 72bd
000000f0: 7cd0 9fbc f4ea 74bd 26b8 4bbe 6033 a13e
00000100: 8919 6ebd e083 943d 5720 2fbe 0341 6f3d
00000110: 736e 883d 76ef ef3d d9a3 7b3d ad0f 3a3e
00000120: fd23 a6be ac84 28bd 5196 27be 07b8 f5bd
00000130: cb1e acbd 7bab c8bd 1c1a 483d d70c e8bb
00000140: 8126 13be 5d72 cabd d012 9ebd 8887 27be
00000150: 58a5 5e3e d9b6 67be 2c42 1f3e 221d 673d
00000160: 0e93 e6bd b485 7b3d 599d 363e b42b 093c
00000170: 7f5a 7dbd 2178 dbbd cf32 06be deef a7bd
00000180: 75e7 6fbe 9f61 d03d d73c 96be 7290 91be
00000190: 2a33 c7bd be80 e2bd a4a0 41be 205a f83d
000001a0: f0f1 9e3e cdcc 41be 42a1 42be 0a2f 0ebc
000001b0: c3bc 1cbe 6e5d 43bd a803 2fbe e399 96bd
000001c0: eb52 a53e 3bca 0cbe 4c57 983c d0f7 53be
000001d0: 7b68 29bb 263d cc3d 507d a63e 79fb 6b3c
000001e0: 3b06 69be f5b6 b53d 7bc7 893e 2c1e 50bd
000001f0: f139 8c3d e613 343d f80b 5dbc f4e8 73be

advantage.weight f4 [2, 128]
-1.2562046 -0.22064947 -0.221505 -0.63287866 0.2876468 0.23947948 -0.36658418 0.5755912
-0.10992583 -0.2309984 -0.10308136 -0.86461276 0.97149783 -0.054636363 0.022603754 1.3647807
-0.3401488 -0.03412746 -0.17225753 0.24652618 -0.95200163 0.08832658 0.014775123 -0.6696696
-0.19459915 -0.13505289 0.1430404 -0.08831659 0.17355254 -0.29993498 0.042668648 -0.11733687
-0.21813858 0.22631575 0.27553418 0.0026563914 -0.2808903 -0.20016186 0.7151238 0.011974238
1.0195935 0.22780153 -0.07740142 -0.09525335 0.04914188 0.82002664 0.011275547 -0.2696835
-0.69831204 0.06171257 0.35583183 -1.969451 0.42231786 -0.084299214 -0.340922 -2.188148
0.25948682 -0.3769958 -0.8247453 -4.7234516 -0.9564721 -0.9016664 -2.238317 0.18389748
0.15193798 0.14403346 -0.24257861 0.4678954 -1.4351968 0.16147758 -0.3560125 -0.33855495
0.21445593 -0.12662788 -0.16847207 -0.4383075 -0.14460239 -0.92632097 0.027171632 -0.17536595
-1.5384232 -0.39499035 -0.08576897 -0.00604755 -0.42335802 -0.2282921 -0.304737 -0.27660808
0.17909348 0.5124153 -0.2283675 0.54060775 0.3625437 -0.14101529 -2.0291796 0.44163075
-0.01877782 0.12322834 0.084641434 0.56552833 0.3213818 -0.34606367 -0.047791306 0.43455556
0.2619013 0.116372205 -0.26799208 0.26624358 -0.08711651 0.54719007 -0.27446535 -0.18546025
0.87572235 -0.06733414 -0.059289724 -0.72366256 0.31762564 0.20766307 -0.7195953 0.40375152
-0.18350543 0.16579726 -0.48399296 -0.16940251 -0.15755402 -0.29195762 0.08401846 -0.1557357
1.4485626 -0.10578139 0.1212874 0.33979142 -0.15468702 0.25883412 0.36886656 -0.74227107
0.21248093 0.15046474 0.10152139 1.027819 -0.8860695 0.0033828877 -0.16361484 -1.2250292
0.10066773 -0.045211647 0.26510966 -0.32011503 0.70761824 -0.1843317 0.12784629 0.48148146
0.391691 0.03927972 -0.06153858 0.43113118 -0.0880709 -0.114725776 -0.04836225 0.29173097
0.3714068 -0.39457202 -0.2774014 0.21381477 0.52490795 0.29303998 -0.5822195 -0.27691048
-0.4295421 -0.18049762 -0.086716644 0.19475706 -0.05977822 -0.85078084 -0.23283061 0.111086756
0.7485 0.09140334 -0.1775096 2.1485069 -0.13024113 0.17365275 0.5800498 2.0940745
-0.29694661 0.23391421 1.0114897 4.84773 1.0063137 0.8249917 2.03903 -0.43565783
-0.27235043 -0.12177106 0.21582647 -0.730305 1.4615134 -0.14732815 0.7161672 0.124644734
-0.3396881 -0.09744095 0.15820219 0.34327635 0.30368686 0.7782101 -0.04540093 0.036379285
1.3949572 0.32622686 0.27149302 0.19962275 0.295942 -0.016788825 0.28944537 0.273761
-0.37971583 -0.28814888 0.11561377 -0.6242512 -0.36307943 -0.14696309 1.7944627 -0.2667465
0.007715049 -0.050811555 -0.08544088 -0.4673187 -0.1955494 0.4201237 0.19004598 -0.5071941
-0.4716111 -0.10301725 0.007978413 -0.3189702 -0.09643711 -0.651582 0.3965793 -0.0019913611
-0.5606262 0.15987574 0.14008102 0.30980787 -0.07295174 -0.05324085 0.88524306 -0.2839369
0.11064256 -0.40448865 0.41770223 0.010926101 0.19658493 0.2760241 -0.039714005 0.07688109
00000000: 50cb a0bf eff1 61be 35d2 62be 5604 22bf
00000010: 7146 933e 1c3a 753e ecb0 bbbe f259 133f
00000020: cb20 e1bd d88a 6cbe 521c d3bd 4357 5dbf
00000030: 15b4 783f 61ca 5fbd 822b b93c 22b1 ae3f
00000040: fc27 aebe 3cc9 0bbd 4764 30be 5c71 7c3e
00000050: 61b6 73bf 91e4 b43d 5c13 723c 786f 2bbf
00000060: 0045 47be 4e4b 0abe 2f79 123e 54df b4bd
00000070: c2b7 313e 1491 99be 52c5 2e3d 504e f0bd
00000080: b85f 5fbe 51bf 673e d112 8d3e da16 2e3b
00000090: dad0 8fbe 3bf7 4cbe 5a12 373f 982f 443c
000000a0: 0a82 823f ce44 693e a384 9ebd 3014 c3bd
000000b0: ff48 493d 44ed 513f 12bd 383c f513 8abe
000000c0: 94c4 32bf 52c6 7c3d 972f b63e f816 fcbf
000000d0: 0c3a d83e 11a5 acbd 548d aebe 9e0a 0cc0
000000e0: 75db 843e 9805 c1be 8222 53bf 8426 97c0
000000f0: 5bdb 74bf 9cd3 66bf 9640 0fc0 9f4f 3c3e
00000100: a195 1b3e 827d 133e 8766 78be fc8f ef3e
00000110: 87b4 b7bf 615a 253e 4547 b6be 1357 adbe
00000120: 569a 5b3e bdaa 01be f183 2cbe d769 e0be
00000130: a612 14be 5f23 6dbf 0b97 de3c 2293 33be
00000140: 0deb c4bf 2d3c cabe a4a7 afbd 872a c6bb
00000150: 62c2 d8be 67c5 69be 7d06 9cbe 939f 8dbe
00000160: 4864 373e a62d 033f 2bd9 69be 4565 0a3f
00000170: 549f b93e 5066 10be 14de 01c0 6d1d e23e
00000180: f1d3 99bc 245f fc3d 7d58 ad3d 77c6 103f
00000190: 288c a43e 422f b1be d1c0 43bd 117e de3e
000001a0: ed17 863e 8d54 ee3d 4236 89be 1451 883e
000001b0: 246a b2bd a614 0c3f b986 8cbe 4be9 3dbe
000001c0: 572f 603f 7be6 89bd c8d9 72bd f341 39bf
000001d0: d49f a23e a1a5 543e 6637 38bf 85b8 ce3e
000001e0: d9e8 3bbe c2c6 293e edcd f7be da77 2dbe
000001f0: d755 21be 787b 95be df11 ac3d 2e79 1fbe
00000200: 806a b93f eaa3 d8bd 8765 f83d 24f9 ad3e
00000210: 4666 1ebe e885 843e 14dc bc3e 7a05 3ebf
00000220: 9a94 593e 6e13 1a3e 72ea cf3d 938f 833f
00000230: 73d5 62bf 70b3 5d3b a68a 27be c2cd 9cbf
00000240: e22a ce3d d92f 39bd 74bc 873e 1ee6 a3be
00000250: 7826 353f 73c1 3cbe 23ea 023e bd84 f63e
00000260: b98b c83e c6e3 203d e10f 7cbd 3abd dc3e
00000270: 845e b4bd 59f5 eabd 7f17 46bd c35d 953e
00000280: 0829 be3e 5805 cabe 8e07 8ebe 42f2 5a3e
00000290: 5e60 063f 5609 963e 560c 15bf 36c7 8dbe
000002a0: f1ec dbbe 5ed4 38be 7f98 b1bd 656e 473e
000002b0: 02da 74bd c6cc 59bf 266b 6ebe 7481 e33d
000002c0: b29d 3f3f ad31 bb3d 14c5 35be 2381 0940
000002d0: ee5d 05be 07d2 313e 257e 143f 5105 0640
000002e0: 6309 98be 3587 6f3e 7f78 813f 9b20 9b40
000002f0: e3ce 803f a832 533f 787f 0240 8b0e dfbe
00000300: 8471 8bbe 1b63 f9bd 9d01 5d3e 45f5 3abf
00000310: df12 bb3f 31dd 16be bc56 373f bd45 ff3d
00000320: 99eb adbe 1f8f c7bd c1ff 213e ebc1 af3e
00000330: d87c 9b3e c738 473f 53f6 39bd 7202 153d
00000340: f58d b23f 3507 a73e 2201 8b3e e869 4c3e
00000350: b685 973e b888 89bc 2f32 943e 672a 8c3e
00000360: 1d6a c2be 4088 93be eac6 ec3d edce 1fbf
00000370: 8ce5 b9be 7e7d 16be f4b0 e53f ff92 88be
00000380: 86ce fc3b c71f 50bd a1fb aebd 6644 efbe
00000390: 1a3e 48be 741a d73e 6a9b 423e 79d7 01bf
000003a0: 0377 f1be b5fa d2bd e4b7 023c 1050 a3be
000003b0: d280 c5bd 14ce 26bf 710c cb3e 7f81 02bb
000003c0: 3385 0fbf 77b6 233e 6671 0f3e 239f 9e3e
000003d0: b967 95bd 1413 5abd 4a9f 623f 2d60 91be
000003e0: 9198 e23d 2319 cfbe 11dd d53e 6403 333c
000003f0: 8f4d 493e 0853 8d3e 27ab 22bd d573 9d3d

advantage.bias f4 [2]
-0.027423782 0.027423782
00000000: d7a7 e0bc d7a7 e03c
