Project/output/cartpole/ddqn/best_model.pth (torch, 287778 bytes, 24 tensors)

fc1.weight f4 [128, 4]
0.09924404 0.051982176 -0.051666208 0.066157475 0.01503471 0.17397206 0.3090045 0.041255046
0.10919913 0.08973708 -0.78196293 -0.0811113 0.02557203 -0.031414136 0.36733836 0.16167738
-0.24839978 0.027301036 -0.09016715 0.113424785 0.026177227 0.01851257 -0.10934859 0.12632376
-0.074028656 0.06489723 -0.29536173 -0.14088216 0.10563035 -0.1190583 -0.3333235 -0.14524923
0.21882245 0.12292741 -0.531939 -0.086796746 -0.32702634 0.059481114 0.23120263 0.035054613
-0.09364257 0.1292557 -0.24745883 0.10070767 0.049531665 0.07044642 -0.798556 -0.089839295
0.20571154 0.105716124 -0.4503384 -0.0744224 0.14445166 -0.0911255 -0.2455728 0.1242688
-0.1567581 -0.23281345 -0.56454015 -0.03844113 -0.22287011 0.046069317 0.26077807 -0.05969872
-0.19001117 0.13877334 0.6384198 -0.13812274 0.06468891 0.086155586 -0.7173129 -0.18628547
0.25095296 -0.12788053 0.027038448 0.020524917 -0.41190115 0.12600088 0.5805966 -0.04026621
0.056278102 -0.078484215 -0.40229195 -0.124270774 -0.24427514 -0.21763267 -0.21328485 -0.16609184
0.21060142 0.13080125 -0.5310263 -0.24590999 -0.38362426 0.12144878 0.56371015 -0.09290596
-0.29928485 0.082221866 0.6760161 0.20721577 0.08086518 -0.09922377 -0.257835 -0.24495588
0.25668672 -0.003367613 -0.30104333 -0.0762665 -0.095240854 0.05736949 0.4094898 0.080115855
0.029031256 -0.06428128 0.601782 0.29350263 -0.35284048 -0.17067887 0.6073289 0.25353047
0.103000395 0.15627478 -0.4915629 0.012441699 0.20578462 0.19692487 -0.37110963 0.07320416
-0.16562079 -0.045005217 0.6101717 0.16199449 -0.13278463 0.13837057 0.37239257 0.12187949
-0.008586911 0.23417877 -0.24580415 -0.29342175 -0.12840998 0.115366615 0.24640182 0.21404514
0.09598797 0.07564378 -0.04513467 0.029560627 -0.10524472 0.057857875 0.25531435 0.086934656
-0.03741746 0.038957704 0.50248915 -0.09630899 -0.14178784 -0.08843932 0.093555525 0.037570838
-0.3582393 -0.11471835 0.3934868 0.25536826 0.39942113 -0.19816418 -0.58205676 0.008424718
-0.0003736546 -0.058564536 -0.3295069 -0.042802863 -0.02427303 0.19557223 0.4967572 0.009345211
-0.021702014 -0.005967121 0.40965307 -0.108451426 0.2028621 -0.032794468 -0.170103 -0.067286015
-0.4765476 -0.07648717 0.31369027 0.14449263 -0.35183972 -0.19728965 0.37218377 0.15061443
-0.19676805 -0.25153857 0.2246334 0.32876572 -0.022188045 0.06753857 0.33738235 -0.049256224
-0.11055618 0.18212421 0.398244 0.24600156 -0.2121491 -0.23692304 -0.6036195 0.01794645
0.12972699 0.01646645 -0.7568219 -0.20784812 0.15827093 0.12324117 -0.63923955 -0.039873675
0.03585678 -0.0874559 -0.40345803 -0.22173694 0.19523138 -0.100670405 -0.5092887 -0.16848233
0.33738586 -0.16100006 -0.5422706 0.15095876 -0.08102022 -0.010528338 0.42972893 0.23723951
0.18752262 -0.21026073 -0.56523263 0.066020794 0.0014099648 0.13829614 0.13442318 -0.18489096
-0.019205052 0.039304238 -0.35818568 -0.18212701 -0.1891611 0.23085065 0.42008212 0.18720672
0.015010744 0.024534648 0.3663517 -0.121357985 0.071527265 -0.2109764 -0.20781142 0.060544066
00000000: 7640 cb3d 43eb 543d f29f 53bd 927d 873d
00000010: 2554 763c bb25 323e d635 9e3e 0dfb 283d
00000020: cba3 df3d 13c8 b73d b92e 48bf ae1d a6bd
00000030: 6f7c d13c 1cac 00bd c613 bc3e c18e 253e
00000040: 835c 7ebe 6ca6 df3c 8ea9 b8bd 414b e83d
00000050: a071 d63c aca7 973c 27f2 dfbd 045b 013e
00000060: 569c 97bd d7e8 843d a739 97be 6a43 10be
00000070: ba54 d83d d7d4 f3bd 61a9 aabe 37bc 14be
00000080: fe12 603e 5ec1 fb3d 282d 08bf 7ec2 b1bd
00000090: ff6f a7be 78a2 733d 62c0 6c3e 6d95 0f3d
000000a0: adc7 bfbd 9b5b 043e d965 7dbe d33f ce3d
000000b0: b7e1 4a3d 3646 903d 2b6e 4cbf aafd b7bd
000000c0: 0ca6 523e b281 d83d c192 e6be c56a 98bd
000000d0: 23eb 133e 02a0 babd 7077 7bbe a480 fe3d
000000e0: 3285 20be a666 6ebe b485 10bf 7274 1dbd
000000f0: 1038 64be 2eb3 3c3d b484 853e a586 74bd
00000100: 4a92 42be 991a 0e3e 7b6f 233f 0c70 0dbe
00000110: 9f7b 843d 5772 b03d d1a1 37bf 9ec1 3ebe
00000120: e87c 803e 1df3 02be bc7f dd3c df23 a83c
00000130: b5e4 d2be 6006 013e fba1 143f 2eee 24bd
00000140: de83 663d 55bc a0bd 36f9 cdbe ad81 febd
00000150: 4323 7abe 19db 5ebe 5867 5abe fb13 2abe
00000160: e6a7 573e c3f0 053e 57f1 07bf d4cf 7bbe
00000170: 666a c4be 23ba f83d 4f4f 103f 7b45 bebd
00000180: dd3b 99be f063 a83d 640f 2d3f 5f30 543e
00000190: a59c a53d d535 cbbd f302 84be b7d5 7abe
000001a0: 716c 833e 2cb3 5cbb 5a22 9abe 9c31 9cbd
000001b0: a30d c3bd 45fc 6a3d a6a8 d13e c813 a43d
000001c0: f5d2 ed3c e7a5 83bd 630e 1a3f fa45 963e
000001d0: 82a7 b4be 71c6 2ebe e879 1b3f bfce 813e
000001e0: dff1 d23d 7f06 203e 22ae fbbe 45d8 4b3c
000001f0: 34b9 523e aca6 493e 1502 bebe 10ec 953d
00000200: 7f98 29be 6457 38bd 3634 1c3f e2e1 253e
00000210: b2f8 07be 04b1 0d3e 3daa be3e f49b f93d
00000220: 1db0 0cbc 8fcc 6f3e 15b4 7bbe 603b 96be
00000230: e87d 03be 5545 ec3d c250 7c3e a62e 5b3e
00000240: 5795 c43d 20eb 9a3d 22df 38bd 2129 f23c
00000250: 8b8a d7bd 61fc 6c3d 90b8 823e cc0a b23d
00000260: 0d43 19bd 1d92 1f3d 21a3 003f a63d c5bd
00000270: d530 11be ad1f b5bd 0a9a bf3d e1e3 193d
00000280: 246b b7be 74f1 eabd 1a77 c93e a1bf 823e
00000290: ed80 cc3e 8deb 4abe ac01 15bf d407 0a3c
000002a0: 12e7 c3b9 5ee1 6fbd 21b5 a8be 0e52 2fbd
000002b0: 3cd8 c6bc 1644 483e f656 fe3e a81c 193c
000002c0: 6cc8 b1bc d787 c3bb 0cbe d13e c81b debd
000002d0: 15bb 4f3e 7e53 06bd 7b2f 2ebe 40cd 89bd
000002e0: 0cfe f3be 4ea5 9cbd 039c a03e e0f5 133e
000002f0: 5624 b4be 4c06 4abe df8e be3e ab3a 1a3e
00000300: 907d 49be aac9 80be 4c06 663e fb53 a83e
00000310: b4c3 b5bc a951 8a3d 61bd ac3e e5c0 49bd
00000320: 476b e2bd c57e 3a3e a3e6 cb3e d5e7 7b3e
00000330: 9d3d 59be f49b 72be cf86 1abf 6f04 933c
00000340: 27d7 043e a6e4 863c 14bf 41bf 23d6 54be
00000350: c611 223e de65 fc3d 34a5 23bf 9452 23bd
00000360: 8fde 123d 141c b3bd 0d92 cebe 020f 63be
00000370: bcea 473e 492c cebd bf60 02bf a286 2cbe
00000380: d7bd ac3e 33dd 24be 3fd2 0abf ef94 1a3e
00000390: eeed a5bd 0d7f 2cbc 6e05 dc3e eaee 723e
000003a0: ee05 403e 974e 57be 16b3 10bf e935 873d
000003b0: 91ce b83a 819d 0d3e 3ba6 093e 0e54 3dbe
000003c0: ea53 9dbc 7bfd 203d 1d64 b7be 817f 3abe
000003d0: 73b3 41be 1d64 6c3e 0115 d73e 1eb3 3f3e
000003e0: a0ef 753c e3fc c83c 7392 bb3e 898a f8bd
000003f0: e37c 923d 330a 58be 84cc 54be 0efd 773d

fc1.bias f4 [128]
0.20061088 0.06644797 -0.13879973 0.012273847 0.20337595 0.18945898 -0.08118019 0.21988744
-0.089081496 0.20204562 0.21230613 -0.124390185 0.02701983 0.16724212 0.1526754 0.13623416
0.09134828 -0.14569482 0.16890907 0.16603489 0.2367411 0.19684154 -0.0571998 0.1337487
-0.21700807 0.049067553 0.24123085 0.19966236 -0.039773416 -0.009173221 -0.07423451 0.2116194
-0.22140843 0.18703432 0.029992048 0.060206935 0.23091248 0.18944778 0.12800345 0.19768418
-0.082888216 0.14086244 0.21868008 0.068830304 0.15024851 0.21659714 -0.23947951 -0.16458008
0.16189268 0.1586979 -0.16534525 0.12255691 -0.18127944 -0.056196015 -0.08385602 -0.10260132
0.11539075 0.115179114 0.15139192 0.06715383 -0.08030471 0.20017563 0.13100474 0.04807607
0.16495828 -0.004624522 0.19351904 0.24082457 0.22249903 0.092115745 0.10902674 -0.22239475
0.17069486 0.13880259 0.22068864 0.185144 0.15433128 0.20109592 -0.23058057 0.21238478
0.23597737 -0.04606485 0.18869576 0.20020941 -0.21774222 0.09587438 -0.15857486 0.039235786
-0.077957824 0.20220791 0.026393944 -0.014306864 0.17798454 -0.09048022 0.14815785 0.16543815
-0.27934533 0.21776316 0.17785355 -0.12428095 -0.14759937 0.11494502 -0.04842022 -0.15315437
0.048056018 0.17337823 0.13927941 0.03520193 0.23429093 0.24314803 0.16263779 0.09150883
-0.25663674 0.1945994 0.26098922 -0.041710507 0.07862043 -0.17860687 0.15329564 0.21347643
-0.28147253 0.049045846 -0.25304642 -0.084636524 0.23799907 0.26314223 -0.07142538 0.20577092
00000000: f06c 4d3e e015 883d 8421 0ebe 3f18 493c
00000010: c941 503e 8901 423e cd41 a6bd 2c2a 613e
00000020: 5c70 b6bd 0ce5 4e3e c766 593e 48c0 febd
00000030: b158 dd3c 8541 2b3e f156 1c3e f880 0b3e
00000040: cf14 bb3d 0631 15be 80f6 2c3e 0d05 2a3e
00000050: 426c 723e d490 493e 564a 6abd 6bf5 083e
00000060: 5d37 5ebe 0ffb 483d 3805 773e 4a74 4c3e
00000070: 73e9 22bd 474b 16bc 4308 98bd c2b2 583e
00000080: e4b8 62be ed85 3f3e e2b1 f53c 8c9b 763d
00000090: 5274 6c3e 99fe 413e 5613 033e b96d 4a3e
000000a0: 4cc1 a9bd 3e3e 103e aced 5f3e e7f6 8c3d
000000b0: bfda 193e a4cb 5d3e 1e3a 75be ae87 28be
000000c0: 32c7 253e b481 223e 4450 29be 1eff fa3d
000000d0: 51a1 39be cb2d 66bd b4bc abbd a420 d2bd
000000e0: fc51 ec3d 07e3 eb3d 7c06 1b3e f287 893d
000000f0: cc76 a4bd d7fa 4c3e 1b26 063e 6aeb 443d
00000100: d3ea 283e 4d89 97bb db29 463e b79a 763e
00000110: c9d6 633e 2ea7 bc3d 6949 df3d 73bb 63be
00000120: a2ca 2e3e 4422 0e3e 34fc 613e 6496 3d3e
00000130: 0509 1e3e 17ec 4d3e 501d 6cbe 657b 593e
00000140: 0da4 713e 7fae 3cbd 7639 413e b203 4d3e
00000150: d1f7 5ebe c959 c43d 7361 22be b4b5 203d
00000160: 5aa8 9fbd 970f 4f3e 1d38 d83c 5667 6abc
00000170: 9441 363e b24d b9bd b1b6 173e 9e68 293e
00000180: 5a06 8fbe 4efd 5e3e 3e1f 363e 0387 febd
00000190: 4a24 17be 4b68 eb3d 4854 46bd 80d4 1cbe
000001a0: 63d6 443d 108a 313e 439f 0e3e e62f 103d
000001b0: f6e9 6f3e ccfb 783e 858a 263e fb68 bb3d
000001c0: e465 83be 1145 473e 61a0 853e a3d8 2abd
000001d0: bf03 a13d b8e4 36be 88f9 1c3e 9199 5a3e
000001e0: 2b1d 90be 4ce4 483d 4d8f 81be ea55 adbd
000001f0: 07b6 733e 94ba 863e 7847 92bd 9db5 523e

fc2.weight f4 [128, 128]
-0.16496387 -0.12212628 0.0617542 0.079653695 0.022686377 -0.16968739 0.14978999 -0.009482207
0.116697736 -0.103814974 -0.19021374 0.15526868 -0.028883787 -0.115811825 0.25651407 -0.15543859
0.091393 0.10772181 -0.3386846 -0.15209615 0.22932298 0.115440674 0.13452682 0.06658558
-0.096703574 0.2107234 -0.049447756 -0.72624964 0.19701807 0.04040213 -0.0016919106 -0.11870003
0.051759023 -0.51719475 0.14488891 0.03339283 -0.054755755 -0.3955074 -0.072111405 -0.10130414
0.10738704 0.1419482 0.1711307 -0.10128932 -0.0882571 0.12134797 0.10713444 0.2868524
0.2244672 -0.13834809 0.04237294 0.1461983 0.15683378 0.03508547 0.08477208 0.3436093
0.04994602 -0.088701054 0.059713215 0.04400507 0.1039239 -0.7587555 -0.07972494 0.19202894
0.003273214 0.21871892 -0.61558926 -0.042871404 0.06441172 -0.06497022 -0.43832543 -0.1400067
-0.15805317 0.15916462 -0.2868014 0.118303835 0.123834826 0.0049060094 0.14095557 0.1520013
-0.004743096 0.014569242 -0.72616976 0.07854098 0.34859312 0.1575764 -0.1342032 -0.13528654
0.09991355 -0.39030382 -0.06344836 -0.17459208 -0.6627505 -0.030474544 -0.10477612 0.08203725
0.19078693 -0.16010462 -0.006296534 0.24190341 0.23685955 -0.27628395 0.04788925 0.110238284
-0.023132004 -0.32084152 -0.021089459 -0.09197494 0.029134637 0.026579425 -0.2811294 -0.19086744
0.03743244 -0.110215634 0.09841298 0.069047496 0.2124566 0.22447784 -0.02838825 0.005005344
0.13001339 -0.13968399 0.12555179 0.19263093 0.06922241 0.20134161 0.20019713 0.17671765
0.22277182 -0.11085414 -0.1044519 0.15898706 0.15925385 -0.034267765 0.16095029 0.045998745
-0.038334098 0.027826214 0.14240313 -0.2034426 0.12537052 0.16478688 -0.022448266 -0.18312618
0.11002383 0.11329583 0.12300976 0.04900633 0.044079434 -0.045002162 0.03318093 -0.031133503
-0.7814407 -0.055380225 0.22386959 0.13595553 0.1099741 -0.05472202 -0.12136467 0.022035444
-0.6715966 -0.048334993 -0.085307345 0.06851553 0.20518625 -0.075736724 0.064484864 -0.07616457
-0.24437478 0.09767449 -0.022300754 0.17785187 0.07100291 0.22981317 -0.64330786 -0.36607462
-0.028448924 0.12962297 -0.27979898 -0.0705544 -0.087134026 -0.006919075 0.19815736 -0.20563343
0.2525169 0.16839048 0.026775273 -0.110564604 -0.065773465 0.20332563 -0.14809598 0.13523036
0.32674992 -0.15991007 0.071925245 0.24888703 -0.011107779 0.065148234 0.11100657 -0.7493989
0.25109303 -0.0010010476 0.07358974 0.0575911 -0.086372994 0.11227205 -0.59107125 -0.044275496
0.015185705 -0.040120028 0.00055627583 0.08907245 -0.53356457 -0.030577376 -0.21508539 -0.10400276
0.02656494 0.150463 0.13190612 -0.014625975 0.09966047 -0.0084226485 0.10635491 0.005349774
-0.45665324 0.18411475 0.05112105 -0.3312862 -0.13171096 0.21721289 -0.10358338 0.100941524
0.061259903 0.25026888 0.14878774 -0.00038191036 0.041068606 -0.064728566 0.14945395 -0.06932521
-0.7528192 -0.12791266 0.006403587 0.046264008 0.17067069 0.041338146 0.12975508 0.008116813
-0.16384716 0.04025244 -0.3821066 0.07471566 0.024052687 0.18531379 0.078343056 0.03621116
00000000: 4aec 28be 581d fabd f9f1 7c3d 7a21 a33d
00000010: c8d8 b93c 88c2 2dbe 8c62 193e 425b 1bbc
00000020: 39ff ee3d f29c d4bd 64c7 42be c1fe 1e3e
00000030: b19d ecbc c02e edbd d055 833e 4b2b 1fbe
00000040: 412c bb3d 419d dc3d 1168 adbe 18bf 1bbe
00000050: a5d3 6a3e 296c ec3d 66c1 093e 055e 883d
00000060: 860c c6bd e0c7 573e bb89 4abd 7feb 39bf
00000070: 1bbf 493e b47c 253d 19c3 ddba 0019 f3bd
00000080: 4501 543d e066 04bf c25d 143e ecc6 083d
00000090: 9247 60bd f27f cabe 25af 93bd 8c78 cfbd
000000a0: bded db3d de5a 113e e33c 2f3e c670 cfbd
000000b0: 23c0 b4bd 4985 f83d 4d69 db3d 51de 923e
000000c0: bbda 653e 1fab 0dbe 3f8f 2d3d 02b5 153e
000000d0: 0999 203e c8b5 0f3d fc9c ad3d 8fed af3e
000000e0: 3394 4c3d e6a8 b5bd d895 743d a93e 343d
000000f0: 0ed6 d43d cd3d 42bf d446 a3bd 3ca3 443e
00000100: 6b83 563b daf7 5f3e 4297 1dbf ed99 2fbd
00000110: 4bea 833d 1b0f 85bd 316c e0be eb5d 0fbe
00000120: b1d8 21be 0dfc 223e a2d7 92be 4849 f23d
00000130: 1d9d fd3d 97c2 a03b a856 103e 3ba6 1b3e
00000140: f96b 9bbb d4b3 6e3c 43e6 39bf 18da a03d
00000150: cc7a b23e b55b 213e 906c 09be 8e88 0abe
00000160: 7a9f cc3d e7d5 c7be 37f1 81bd 44c8 32be
00000170: 04aa 29bf c0a5 f9bc dd94 d6bd 2503 a83d
00000180: a65d 433e 77f2 23be 2853 cebb 87b5 773e
00000190: 4f8b 723e 1775 8dbe 8527 443d 9cc4 e13d
000001a0: 547f bdbc 5745 a4be cdc3 acbc 5b5d bcbd
000001b0: c3ab ee3c 18bd d93c 31f0 8fbe c172 43be
000001c0: c252 193d bcb8 e1bd bf8c c93d c668 8d3d
000001d0: 398e 593e 85dd 653e 7a8e e8bc de03 a43b
000001e0: 3b22 053e 5209 0fbe a690 003e 0b41 453e
000001f0: 7bc4 8d3d 7f2c 4e3e 7a00 4d3e 79f5 343e
00000200: 4c1e 643e 7f07 e3bd e1ea d5bd 81cd 223e
00000210: 7113 233e 5b5c 0cbd 27d0 243e 2e69 3c3d
00000220: 3704 1dbd cdf3 e33c 20d2 113e 4253 50be
00000230: 2161 003e e4bd 283e 6de5 b7bc 6e85 3bbe
00000240: 2c54 e13d a507 e83d 8bec fb3d ddba 483d
00000250: a38c 343d 3054 38bd bae8 073d b00b ffbc
00000260: 7f0c 48bf 60d6 62bd 123e 653e ed37 0b3e
00000270: 1a3a e13d 3224 60bd 0a8e f8bd ad83 b43c
00000280: c1ed 2bbf eafa 45bd 9eb5 aebd df51 8c3d
00000290: 581c 523e db1b 9bbd a410 843d 2cfc 9bbd
000002a0: 623d 7abe 9009 c83d 12b0 b6bc cd1e 363e
000002b0: f969 913d 2554 6b3e d3af 24bf 226e bbbe
000002c0: b80d e9bc e2bb 043e d041 8fbe d37e 90bd
000002d0: 5373 b2bd 68b9 e2bb c3e9 4a3e 9291 52be
000002e0: e549 813e 8e6e 2c3e d157 db3c b26f e2bd
000002f0: 3db4 86bd 9834 503e 79a6 17be d479 0a3e
00000300: c44b a73e 77bf 23be 8b4d 933d 3edc 7e3e
00000310: 67fd 35bc 706c 853d 6a57 e33d 9bd8 3fbf
00000320: 448f 803e 9535 83ba 38b6 963d a5e4 6b3d
00000330: 53e4 b0bd e3ee e53d 7250 17bf 395a 35bd
00000340: 77cd 783c e654 24bd 0ad3 113a 9e6b b63d
00000350: b097 08bf 687d fabc 583f 5cbe 66ff d4bd
00000360: b89e d93c f912 1a3e 6612 073e c9a1 6fbc
00000370: ca1a cc3d 26ff 09bc 9ad0 d93d 284d af3b
00000380: 74ce e9be 9488 3c3e 4e64 513d 589e a9be
00000390: 3ddf 06be 0e6d 5e3e 8623 d4bd 6eba ce3d
000003a0: aaeb 7a3d 3e23 803e d05b 183e 243b c8b9
000003b0: 8e37 283d 6990 84bd 750a 193e 60fa 8dbd
000003c0: c2b8 40bf 89fb 02be 2ed5 d13b 547f 3d3d
000003d0: 4cc4 2e3e 3052 293d 84de 043e 62fc 043c
000003e0: 8dc7 27be bedf 243d 7aa3 c3be 8604 993d
000003f0: 240a c53c e6c2 3d3e 5372 a03d 2752 143d

fc2.bias f4 [128]
-0.06742612 0.053076897 -0.041877963 0.109650254 0.01434769 0.16060907 -0.019556772 0.16693869
0.13972755 -0.007628246 -0.008601691 -0.027512906 -0.046408582 -0.0063878414 0.015384168 0.017790286
0.071771555 0.0023862226 0.12367303 0.10611716 0.12520821 -0.019241726 -0.0077522644 0.1268264
0.1611497 0.04626669 0.0040336093 -0.007911763 -0.00543554 0.09105477 0.12603897 -0.0035655517
-0.027291982 0.116081074 0.15972094 0.11460013 -0.0001941623 -0.037352674 0.046677954 -0.010253133
0.1001226 0.15145254 -0.04733995 -0.019403405 0.14647639 0.090403326 -0.059643447 -0.021670446
0.114565834 0.14086866 0.08894427 0.10017882 0.1261591 0.015196675 0.15072271 -0.00782559
-0.006106072 -0.0060693147 0.08921535 0.10877987 0.12026263 -0.09162735 0.12454081 0.14258683
0.11779925 0.12756743 0.09678119 0.10465533 0.0025376806 -0.015545829 -0.113626435 -0.015778108
0.047796838 0.11885719 -0.027170245 0.15577713 0.14401993 0.08668508 0.11564767 -0.017019996
0.18503025 0.0010430841 0.18255962 -0.056176394 0.19126867 -0.07974331 0.19378752 -0.0012999831
0.17698099 -0.065391764 -0.012316832 -0.06577305 -0.049468737 -0.012551979 -0.0032690566 0.12763265
-0.008974313 0.11550505 0.12905411 -0.019191042 -0.10053405 0.010845427 -0.028327934 -0.05853075
0.08206629 0.104363605 -0.034056876 0.18283601 -0.08150382 -0.011560883 0.11908367 0.1761893
0.031496827 -0.091375045 -0.005208909 0.031772323 0.15071929 -0.050150607 -0.010188687 -0.0035366595
0.09867944 -0.009198969 -0.045408018 -0.0023569476 -0.08121682 -0.009445986 -0.10696005 -0.012087908
00000000: b516 8abd 2967 593d 3a88 2bbd 5090 e03d
00000010: 9312 6b3c b476 243e 8635 a0bc faf1 2a3e
00000020: bd14 0f3e 5ef6 f9bb 1bee 0cbc bf62 e1bc
00000030: ed16 3ebd 1951 d1bb e10d 7c3c efbc 913c
00000040: f7fc 923d 2c62 1c3b 4948 fd3d f453 d93d
00000050: 9536 003e d3a0 9dbc b506 febb c8de 013e
00000060: 6d04 253e 2482 3d3d 5e2c 843b 57a0 01bc
00000070: 9d1c b2bb ec7a ba3d 5c10 013e 08ac 69bb
00000080: 6f93 dfbc eabb ed3d e38d 233e 79b3 ea3d
00000090: 0c98 4bb9 1eff 18bd 6231 3f3d c2fc 27bc
000000a0: 140d cd3d 6016 1b3e 89e7 41bd e4f3 9ebc
000000b0: e8fd 153e 6125 b93d b04c 74bd 3886 b1bc
000000c0: 7ea1 ea3d e03f 103e 6a28 b63d 8e2a cd3d
000000d0: da2f 013e 7afb 783c 0e57 1a3e e736 00bc
000000e0: 7215 c8bb 1ae1 c6bb 8ab6 b63d fbc7 de3d
000000f0: 414c f63d 1fa7 bbbd 410f ff3d 4802 123e
00000100: bc40 f13d 09a1 023e 3735 c63d 8955 d63d
00000110: 374f 263b efb3 7ebc fab4 e8bd 1741 81bc
00000120: 9ec6 433d 666b f33d 2294 debc 0a84 1f3e
00000130: f679 133e f287 b13d b0d8 ec3d 856d 8bbc
00000140: 9278 3d3e 18b8 883a e9f0 3a3e 3819 66bd
00000150: efdb 433e 7650 a3bd 3c70 463e 3264 aaba
00000160: 813a 353e 1eec 85bd 8acc 49bc 05b4 86bd
00000170: bb9f 4abd d1a6 4dbc ab3d 56bb 22b2 023e
00000180: ff08 13bc e98d ec3d c326 043e 8836 9dbc
00000190: cce4 cdbd 05b1 313c fc0f e8bc f1bd 6fbd
000001a0: 5f12 a83d 96bc d53d 397f 0bbd 5d39 3b3e
000001b0: 7aeb a6bd dc69 3dbc 24e2 f33d f86a 343e
000001c0: d102 013d d722 bbbd 7faf aabb b223 023d
000001d0: 2856 1a3e b96a 4dbd 73ee 26bc 4dc7 67bb
000001e0: 7218 ca3d 46b7 16bc c2fd 39bd 0577 1abb
000001f0: 0155 a6bd 56c3 1abc df0d dbbd 5c0c 46bc

fc3.weight f4 [2, 128]
-0.5303028 0.5106271 -0.52135754 0.2687811 -0.44096446 0.23007332 -0.24506651 0.53307563
0.35144687 -0.3165424 -0.047192536 -0.44281274 -0.23987302 -0.097545385 -0.30383185 -0.3563245
0.27177817 -0.2867491 0.19438443 0.29764017 0.5349308 -0.3635197 -0.538895 0.37173057
0.30510625 0.31909853 0.5334758 -0.1270907 -0.02826381 0.36167702 0.36375204 -0.10669688
-0.40675366 0.2653102 0.26681668 0.3890527 -0.2955876 -0.49195912 -0.10741497 -0.5499037
0.22778496 0.5532048 -0.30014178 -0.5437929 0.16128449 0.43127245 -0.5219384 -0.06359644
0.14020455 -0.061404333 0.27476162 0.3519885 0.22633603 -0.35207582 0.058881786 0.1489481
-0.13202262 -0.039086297 0.27425703 0.22431277 0.22638397 -0.4428952 0.040665515 -0.012410621
0.28772417 0.38236776 0.2132478 0.17298865 0.18913989 -0.47747332 0.3934882 0.093033396
0.43551952 0.5178539 -0.48837087 0.20776047 0.2366417 0.20659657 0.09799728 -0.46651915
0.46738017 -0.5481669 0.14340128 -0.48171496 0.16057144 -0.046787307 0.07187264 -0.442008
0.011156365 -0.101677544 -0.14195435 -0.30814087 -0.45287248 -0.5020147 -0.19195549 0.42951083
-0.14879444 0.2863329 0.49272078 -0.16083778 -0.17325214 0.32298937 -0.36300522 -0.6210892
0.3430762 0.20865105 -0.46214944 0.21255347 -0.18186493 -0.18952492 0.39292243 0.42993426
-0.3770722 -0.02185702 -0.052472387 0.18089253 0.026841046 -0.32585207 -0.0018471744 -0.12547125
0.37977508 -0.20729913 -0.29741812 -0.14318003 -0.5559615 -0.047917858 0.33308154 0.09483965
-0.5388789 -0.2772166 -0.43302464 0.31631458 0.15070212 0.5211514 -0.4443329 0.3276078
0.20113418 -0.38201344 -0.115318164 -0.31452867 -0.71122456 -0.1559963 -0.23875201 -0.3548302
-0.13158797 -0.54200643 0.2475425 0.2871638 0.2887826 -0.14544138 -0.41366884 0.29549384
0.23925072 -0.025610335 -0.55968195 -0.12458944 -0.10237269 0.19667861 0.5537973 0.08073213
-0.19454716 0.24324773 0.28213775 0.3187596 -0.043387115 -0.06539267 0.17244402 -0.15610123
0.2991031 0.12360149 -0.63075906 -0.40652537 0.3239272 -0.22614463 -0.60559154 -0.22410317
0.2706155 0.28290161 0.11921039 0.109420076 0.3358439 -0.076652996 0.30220994 -0.18599969
-0.1995526 -0.15088414 0.21339165 0.29629543 0.3999342 -0.5109572 0.3573218 0.2122533
0.29802552 0.50921774 0.28228787 0.34297663 0.12035162 -0.23141363 -0.5178038 -0.4861364
-0.5032206 0.13734607 -0.38477513 0.2503347 0.33619618 0.0968158 0.24640939 -0.21179354
0.31958577 -0.09315221 0.2780023 -0.50382286 0.36806503 -0.68926007 0.574328 -0.11485846
0.48369107 -0.6565044 -0.16750287 -0.7464545 -0.69389504 -0.20832868 -0.099940136 0.38802844
-0.016493518 0.45861983 0.075303875 -0.19269995 -0.72238195 -0.3081666 -0.45960742 -0.6855836
0.05709594 0.3619474 -0.28842038 0.31737006 -0.660045 0.09789565 -0.18081397 0.23090822
0.27045298 -0.6861898 -0.068595685 -0.06525751 0.1935662 -0.5209521 -0.05713125 0.10723144
0.37048683 -0.073469654 -0.4732679 -0.15612808 -0.29203066 -0.14816107 -0.58792764 -0.19779488
00000000: edc1 07bf 75b8 023f b077 05bf ad9d 893e
00000010: 18c6 e1be 5798 6b3e b7f2 7abe a577 083f
00000020: d8f0 b33e d811 a2be f64c 41bd 5ab8 e2be
00000030: 46a1 75be e0c5 c7bd d98f 9bbe 2a70 b6be
00000040: 8226 8b3e c7d0 92be b60c 473e 4b64 983e
00000050: 3af1 083f 411f babe 06f5 09bf 7853 be3e
00000060: e336 9c3e e260 a33e df91 083f 1124 02be
00000070: 8189 e7bc bb2d b93e b53d ba3e e583 dabd
00000080: 0442 d0be bdd6 873e 329c 883e ea31 c73e
00000090: 4257 97be 11e2 fbbe 61fc dbbd 7dc6 0cbf
000000a0: 7640 693e d49e 0d3f 2fac 99be 0336 0bbf
000000b0: c327 253e becf dc3e c19d 05bf da3e 82bd
000000c0: c891 0f3e 1c83 7bbd 8ead 8c3e d637 b43e
000000d0: a2c4 673e 4843 b4be 072e 713d da85 183e
000000e0: f030 07be f418 20bd 6b6b 8c3e 3fb2 653e
000000f0: 33d1 673e 29c3 e2be e290 263d eb55 4bbc
00000100: 9550 933e b5c5 c33e a25d 5a3e f023 313e
00000110: e3ad 413e 6277 f4be 4977 c93e 4b88 be3d
00000120: 6afc de3e 1392 043f bf0b fabe 29bf 543e
00000130: 3452 723e 0d8e 533e ccb2 c83d 99db eebe
00000140: 744c ef3e aa54 0cbf c9d7 123e 58a3 f6be
00000150: d76c 243e 0ca4 3fbd f631 933d df4e e2be
00000160: 30c9 363c 513c d0bd 7b5c 11be a4c4 9dbe
00000170: e7de e7be 0984 00bf fb8f 44be d8e8 db3e
00000180: 925d 18be 3a9a 923e e645 fc3e a9b2 24be
00000190: 0269 31be dd5e a53e d2db b9be b4ff 1ebf
000001a0: afa7 af3e 9fa8 553e da9e ecbe 9ea7 593e
000001b0: cd3a 3abe d212 42be 212d c93e 5820 dc3e
000001c0: 9b0f c1be 7e0d b3bc 49ed 56bd e43b 393e
000001d0: c1e1 db3c 15d6 a6be e31c f2ba 897b 00be
000001e0: e171 c23e 3946 54be 3047 98be c99d 12be
000001f0: 7e53 0ebf 8445 44bd aa89 aa3e 4a3b c23d
00000200: f8f3 09bf 56ef 8dbe 68b5 ddbe fcf3 a13e
00000210: a851 1a3e 2e6a 053f 9a7f e3be 36bc a73e
00000220: 1ef6 4d3e 4497 c3be ee2b ecbd e709 a1be
00000230: d012 36bf 7ebd 1fbe 687b 74be 4eac b5be
00000240: ffbe 06be efc0 0abf c87b 7d3e 2207 933e
00000250: 50db 933e 96ee 14be 67cc d3be f84a 973e
00000260: 24fe 743e c4cc d1bc 5147 0fbf c028 ffbd
00000270: c6a8 d1bd 1e66 493e a9c5 0d3f e356 a53d
00000280: 5f37 47be ef15 793e 5c74 903e 7534 a33e
00000290: b0b6 31bd 98ec 85bd 2a95 303e 00d9 1fbe
000002a0: 0b24 993e c722 fd3d 6d79 21bf 1824 d0be
000002b0: c9d9 a53e 7592 67be 0c08 1bbf 4d7b 65be
000002c0: 1d8e 8a3e 7bd8 903e 9424 f43d a217 e03d
000002d0: bbf3 ab3e 3ffc 9cbd 43bb 9a3e b476 3ebe
000002e0: 8457 4cbe 5f81 1abe 5783 5a3e 09b4 973e
000002f0: 2dc4 cc3e 17ce 02bf e2f2 b63e ee58 593e
00000300: cd96 983e 185c 023f 0988 903e a29a af3e
00000310: e97a f63d b2f7 6cbe ca8e 04bf dfe6 f8be
00000320: 11d3 00bf 73a4 0c3e 3f01 c5be df2b 803e
00000330: e821 ac3e 5d47 c63d be52 7c3e 68e0 58be
00000340: bfa0 a33e 96c6 bebd 5156 8e3e 89fa 00bf
00000350: 0573 bc3e 5973 30bf 2907 133f ea3a ebbd
00000360: 5ba6 f73e ac10 28bf df85 2bbe a417 3fbf
00000370: 1ba3 31bf 1d54 55be 6aad ccbd aaab c63e
00000380: 6a1d 87bc 38d0 ea3e eb38 9a3d 2353 45be
00000390: 06ee 38bf 03c8 9dbe aa51 ebbe 6882 2fbf
000003a0: 6fdd 693d 2b51 b93e d6ab 93be 547e a23e
000003b0: b6f8 28bf 847d c83d 4c27 39be 3473 6c3e
000003c0: d078 8a3e 22aa 2fbf e57b 8cbd bba5 85bd
000003d0: 3836 463e 1e5d 05bf 7502 6abd 289c db3d
000003e0: 73b0 bd3e 4277 96bd 2c50 f2be 0ae0 1fbe
000003f0: 0b85 95be 89b7 17be 6d82 16bf be8a 4abe

fc3.bias f4 [2]
0.058810376 0.09847103
00000000: 26e3 703d 2eab c93d

fc1.weight f4 [128, 4]
0.098978825 0.05221582 -0.052330494 0.06621399 0.015440372 0.17358266 0.30552182 0.04139735
0.1083585 0.08981208 -0.77797383 -0.080266036 0.02311655 -0.0318651 0.35835043 0.15977785
-0.25064614 0.02946516 -0.09166023 0.11111619 0.025711277 0.019598292 -0.11078301 0.12530565
-0.07415331 0.06518557 -0.29089573 -0.1403843 0.1065296 -0.11947827 -0.3293567 -0.14322354
0.2176859 0.123169445 -0.5276542 -0.08632141 -0.32658342 0.0604245 0.22961432 0.035076413
-0.09402431 0.12941073 -0.24756739 0.10087808 0.05034335 0.07053077 -0.79506564 -0.08901048
0.20245731 0.10461044 -0.44685695 -0.073226206 0.14451231 -0.09083058 -0.2440181 0.12524603
-0.15429209 -0.23075008 -0.5600317 -0.037724316 -0.222289 0.047206502 0.26322713 -0.059028745
-0.19185385 0.13832352 0.6353448 -0.14015025 0.061535656 0.08620035 -0.7129117 -0.18604468
0.25102726 -0.12626173 0.026966855 0.019302055 -0.41309813 0.12645921 0.5786345 -0.040614963
0.05722623 -0.07870843 -0.39774582 -0.122311555 -0.24203306 -0.21597752 -0.20847397 -0.16517527
0.2079258 0.12993827 -0.5297938 -0.24578342 -0.38410756 0.122864865 0.5623358 -0.09390905
-0.29898396 0.08145871 0.668305 0.2063225 0.082369864 -0.10010232 -0.25818968 -0.24397956
0.25716668 -0.0040321047 -0.29683104 -0.07391094 -0.09728638 0.05610928 0.40631214 0.08064774
0.026849495 -0.06464561 0.5961403 0.29219818 -0.35025263 -0.16978173 0.5956927 0.2514759
0.10259667 0.15683731 -0.4880755 0.01315617 0.20681345 0.19776526 -0.3673897 0.07401669
-0.16510163 -0.04633401 0.5986177 0.16071758 -0.13368466 0.13900071 0.36757094 0.12046499
-0.011778633 0.23272943 -0.2378982 -0.29103023 -0.12988265 0.114096634 0.23956043 0.21302214
0.09619849 0.07600615 -0.044665527 0.02994855 -0.10683681 0.056621823 0.2519537 0.08747301
-0.03811179 0.03877527 0.5012708 -0.09579904 -0.1433471 -0.08609265 0.092599675 0.035530973
-0.35246548 -0.11310907 0.39091238 0.25423518 0.39931965 -0.1970117 -0.5794272 0.008157405
-0.0014053478 -0.05883654 -0.32770714 -0.042085733 -0.024058063 0.19503672 0.49191204 0.009321192
-0.022795249 -0.006612782 0.41054216 -0.10737644 0.20298852 -0.032662842 -0.16789241 -0.06647292
-0.47149548 -0.0768555 0.31084907 0.14600125 -0.34575352 -0.19666848 0.370515 0.15105467
-0.19714598 -0.24729685 0.2110032 0.32217306 -0.022913938 0.0670954 0.3376648 -0.048299003
-0.110078484 0.18369173 0.39301395 0.24425708 -0.21085417 -0.23598778 -0.59780324 0.019707065
0.12988172 0.016665205 -0.7527774 -0.2071687 0.15681593 0.123042725 -0.6360027 -0.0392582
0.038280927 -0.08628994 -0.39775229 -0.22143337 0.1951786 -0.10071376 -0.5054495 -0.16736867
0.3383544 -0.1600494 -0.5384272 0.15214121 -0.07991766 -0.009780035 0.41888255 0.23533276
0.18694414 -0.21057922 -0.5622662 0.06704695 -0.0014714006 0.13766071 0.13858816 -0.18474899
-0.018531537 0.04028407 -0.35283336 -0.18203294 -0.18298456 0.23238446 0.42044532 0.18785958
0.015400012 0.025024349 0.36392578 -0.12159936 0.07043105 -0.20902182 -0.20309003 0.060347535
00000000: 69b5 ca3d 41e0 553d 8058 56bd 339b 873d
00000010: 9df9 7c3c a7bf 313e 5b6d 9c3e 4590 293d
00000020: 10eb dd3d 65ef b73d 4b29 47bf 8562 a4bd
00000030: eb5e bd3c fb84 02bd b579 b73e ce9c 233e
00000040: b154 80be eb60 f13c 5cb8 bbbd e390 e33d
00000050: 75a0 d23c 998c a03c 34e2 e2bd 2050 003e
00000060: b1dd 97bd 0380 853d 49f0 94be e7c0 0fbe
00000070: 312c da3d 06b1 f4bd 71a1 a8be 31a9 12be
00000080: 0de9 5e3e 4340 fc3d 5814 07bf 48c9 b0bd
00000090: f135 a7be ae7f 773d 0420 6b3e 49ac 0f3d
000000a0: d18f c0bd 3f84 043e 4e82 7dbe 2b99 ce3d
000000b0: d434 4e3d 7072 903d 6c89 4bbf 204b b6bd
000000c0: f850 4f3e 003e d63d 6fca e4be 9ff7 95bd
000000d0: 09fb 133e 6205 babd e1df 79be 7f40 003e
000000e0: bffe 1dbe c049 6cbe 3d5e 0fbf d084 1abd
000000f0: ba9f 63be 9b5b 413d b5c5 863e 20c8 71bd
00000100: 5675 44be aea4 0d3e f5a5 223f 8c83 0fbe
00000110: d00c 7c3d cf89 b03d 6281 36bf 7f82 3ebe
00000120: a586 803e c14a 01be 98e9 dc3c 581f 9e3c
00000130: 9981 d3be 867e 013e 6421 143f e05b 26bd
00000140: 0d66 6a3d e331 a1bd 57a5 cbbe 7b7e fabd
00000150: 84d7 77be 3629 5dbe 337a 55be b523 29be
00000160: 80ea 543e 8a0e 053e 91a0 07bf a6ae 7bbe
00000170: bfa9 c4be 93a0 fb3d 3df5 0f3f 6353 c0bd
00000180: 6d14 99be d3d3 a63d 0916 2b3f 3546 533e
00000190: 88b1 a83d 7202 cdbd 7031 84be c7d5 79be
000001a0: 5aab 833e bf1f 84bb 3dfa 97be 9e5e 97bd
000001b0: 153e c7bd d8d2 653d 2508 d03e a42a a53d
000001c0: 79f3 db3c eb64 84bd a79c 183f 009b 953e
000001d0: 5054 b3be 43db 2dbe 517f 183f 73c1 803e
000001e0: 341e d23d f699 203e 08e5 f9be fa8c 573c
000001f0: e8c6 533e fa82 4a3e 811a bcbe 1096 973d
00000200: 6710 29be bbc8 3dbd 023f 193f 2693 243e
00000210: a2e4 08be 3456 0e3e 4232 bc3e 59b6 f63d
00000220: 2bfb 40bc a050 6e3e 969b 73be ea01 95be
00000230: f5ff 04be 7fab e93d 544f 753e 7a22 5a3e
00000240: b703 c53d 1da9 9b3d 33f3 36bd a956 f53c
00000250: 42cd dabd 49ec 673d 1300 813e 0d25 b33d
00000260: 1c1b 1cbd d1d2 1e3d 4853 003f 4932 c4bd
00000270: 95c9 12be 5851 b0bd e6a4 bd3d ed88 113d
00000280: 5b76 b4be baa5 e7bd ab25 c83e 1d2b 823e
00000290: a073 cc3e 6fbd 49be 5755 14bf a3a6 053c
000002a0: a633 b8ba 95fe 70bd 3bc9 a7be 1762 2cbd
000002b0: 6a15 c5bc b5b7 473e e5db fb3e eab7 183c
000002c0: 1abd babc 09b0 d8bb 9532 d23e 2ee8 dbbd
000002d0: 39dc 4f3e 79c9 05bd fdeb 2bbe f422 88bd
000002e0: db67 f1be 6b66 9dbd 9c27 9f3e 5a81 153e
000002f0: 9b06 b1be 7663 49be 24b4 bd3e 13ae 1a3e
00000300: a3e0 49be 633b 7dbe 3911 583e def3 a43e
00000310: 03b6 bbbc 5069 893d 67e2 ac3e 2dd5 45bd
00000320: d470 e1bd af19 3c3e 2039 c93e 871e 7a3e
00000330: 28ea 57be c8a6 71be a209 19bf b670 a13c
00000340: b7ff 043e 7885 883c 05b6 40bf 0824 54be
00000350: 5b94 203e d3fd fb3d 13d1 22bf 35cd 20bd
00000360: 76cc 1c3d c8b8 b0bd 30a6 cbbe 6ebf 62be
00000370: e6dc 473e 0443 cebd 2365 01bf b162 2bbe
00000380: ca3c ad3e fde3 23be 5dd6 09bf e8ca 1b3e
00000390: dfab a3bd 713c 20bc c677 d63e 12fb 703e
000003a0: 496e 3f3e 14a2 57be adf0 0fbf e94f 893d
000003b0: 03dc c0ba eef6 0c3e 0eea 0d3e d72e 3dbe
000003c0: 73cf 97bc e900 253d 93a6 b4be d866 3abe
000003d0: 4e60 3bbe 31f6 6d3e 9c44 d73e 435e 403e
000003e0: 5550 7c3c ddff cc3c 7b54 ba3e 1609 f9bd
000003f0: 283e 903d d109 56be d5f6 4fbe fa2e 773d

fc1.bias f4 [128]
0.19845018 0.066953376 -0.13887593 0.013968782 0.20206687 0.18578295 -0.07995461 0.21609405
-0.08812268 0.20119898 0.20969532 -0.12447918 0.02739563 0.16346878 0.15146916 0.1345617
0.088715725 -0.14558338 0.16667667 0.1645076 0.23270227 0.19679917 -0.05547329 0.13215917
-0.21320075 0.048227675 0.23804687 0.19747409 -0.03604435 -0.004477598 -0.07199379 0.2080997
-0.21733367 0.186464 0.032765012 0.059938934 0.2282936 0.18755156 0.12625389 0.1964497
-0.08257561 0.13885967 0.21559699 0.07002517 0.1475177 0.2137783 -0.23465957 -0.16147551
0.16146308 0.15669057 -0.16009016 0.12091623 -0.18107249 -0.054713644 -0.08183801 -0.10364403
0.11171939 0.114016116 0.14625436 0.06579533 -0.07777101 0.1965639 0.12882951 0.04943105
0.16134292 -0.0030719016 0.19134745 0.23833936 0.21909544 0.09231584 0.10892545 -0.21860008
0.16991895 0.13772827 0.21865594 0.18481119 0.15246214 0.19884573 -0.22532922 0.20918825
0.23243286 -0.045861438 0.18674245 0.19770837 -0.21308644 0.095080376 -0.15134165 0.0390381
-0.076367505 0.20042697 0.027047297 -0.013863616 0.1773677 -0.0911614 0.14600925 0.16223976
-0.274439 0.2143172 0.17655182 -0.12363139 -0.14621654 0.113890134 -0.046637323 -0.15126754
0.050183643 0.17087138 0.13646665 0.039891824 0.23174198 0.2399243 0.16104981 0.091859914
-0.25203687 0.19375272 0.25723618 -0.036614012 0.07926178 -0.17728834 0.14916193 0.21153732
-0.27577284 0.048527297 -0.2481954 -0.08361461 0.23567982 0.2600081 -0.07123605 0.20533292
00000000: 8636 4b3e da1e 893d 7e35 0ebe 51dd 643c
00000010: 9eea 4e3e e33d 3e3e 3ebf a3bd c247 5d3e
00000020: aa79 b4bd 1b07 4e3e 5fba 563e f1ee febd
00000030: cd6c e03c 5c64 273e bb1a 1b3e 8bca 093e
00000040: 97b0 b53d cf13 15be 4aad 2a3e ae74 283e
00000050: 8149 6e3e b985 493e f637 63bd bc54 073e
00000060: 4c51 5abe 628a 453d 8fc2 733e a636 4a3e
00000070: 3ea3 13bd d0b8 92bb 7b71 93bd 1618 553e
00000080: b88c 5ebe 6bf0 3e3e 9b34 063d 8782 753d
00000090: ccc5 693e 840d 403e b348 013e 1c2a 493e
000000a0: 671d a9bd 3b31 0e3e 75c5 5c3e 5b69 8f3d
000000b0: e10e 173e b3e8 5a3e 994a 70be d659 25be
000000c0: 9456 253e 7e73 203e adee 23be eea2 f73d
000000d0: 116b 39be 6a1b 60bd b09a a7bd 5243 d4bd
000000e0: 23cd e43d 4881 e93d b4c3 153e b4bf 863d
000000f0: 6846 9fbd 0c48 493e e2eb 033e 3678 4a3d
00000100: 1437 253e f551 49bb 96f0 433e 3c0f 743e
00000110: 8e5a 603e 1610 bd3d 4e14 df3d b3d8 5fbe
00000120: 3cff 2d3e a408 0d3e 58e7 5f3e 253f 3d3e
00000130: 091f 1c3e 379e 4b3e b4bc 66be 7235 563e
00000140: e102 6e3e 34d9 3bbd 6a39 3f3e 1074 4a3e
00000150: 5533 5abe 80b9 c23d 4ef9 1abe 6ae6 1f3d
00000160: 9166 9cbd ba3c 4d3e 4b92 dd3c 3824 63bc
00000170: e19f 353e d4b2 babd 7383 153e 2e22 263e
00000180: 4583 8cbe f875 5b3e 00ca 343e 7432 fdbd
00000190: cab9 15be 3b3f e93d c706 3fbd e1e5 1abe
000001a0: 5d8d 4d3d e8f8 2e3e eabd 0b3e 9c65 233d
000001b0: c54d 6d3e b7ae 753e 3eea 243e 0d21 bc3d
000001c0: fa0a 81be 1d67 463e 76b4 833e 93f8 15bd
000001d0: 0054 a23d 138b 35be e8bd 183e 3d9d 583e
000001e0: 1932 8dbe 8fc4 463d ef26 7ebe 233e abbd
000001f0: 0d56 713e c81f 853e 35e4 91bd cb42 523e

fc2.weight f4 [128, 128]
-0.16398378 -0.1227918 0.059925824 0.080773875 0.02320134 -0.1642922 0.14803207 -0.01113399
0.11512301 -0.10463858 -0.19063029 0.1533411 -0.030602269 -0.11215785 0.25607243 -0.15657033
0.09076591 0.1061103 -0.33197683 -0.15297024 0.22770551 0.11325417 0.13294458 0.06557812
-0.09496957 0.209099 -0.05017835 -0.721738 0.19831729 0.03709485 -0.0031305095 -0.1205534
0.05350788 -0.51216596 0.14353058 0.0341986 -0.054727074 -0.39241785 -0.07244297 -0.100571424
0.102325976 0.14607549 0.16955522 -0.1019481 -0.088833936 0.12061841 0.09939389 0.2808982
0.22291388 -0.13853957 0.044028264 0.14545521 0.15508206 0.033401616 0.082618654 0.34122443
0.05400573 -0.08822124 0.060907055 0.042766113 0.10217697 -0.7536595 -0.08027433 0.19090268
0.009014383 0.21718544 -0.60832256 -0.042183522 0.06283195 -0.065581836 -0.4355953 -0.13827708
-0.15880755 0.15771101 -0.2866375 0.11613547 0.12366551 0.005232111 0.14268441 0.15028486
-0.0054508713 0.013001621 -0.71800447 0.07807162 0.34350452 0.15591821 -0.13250159 -0.13659291
0.095327914 -0.3864941 -0.06459064 -0.17512779 -0.66228706 -0.03220845 -0.09881795 0.08453036
0.19300084 -0.16183177 -0.0075046294 0.24000101 0.23525706 -0.2771356 0.044138428 0.10791785
-0.023462035 -0.31436992 -0.01660415 -0.09364387 0.029152125 0.024949314 -0.277826 -0.19166087
0.039189972 -0.110248044 0.09690573 0.071143426 0.21172228 0.2211796 -0.024169162 0.005288057
0.12807052 -0.14107296 0.12770553 0.19040893 0.067807555 0.1997891 0.19861361 0.17448461
0.21978065 -0.110594064 -0.10572485 0.1579204 0.15898733 -0.036046285 0.16123311 0.044966195
-0.03868972 0.027967209 0.14077501 -0.2041176 0.124202564 0.1626997 -0.020621791 -0.18188715
0.11216675 0.112190306 0.11992986 0.05133615 0.043241195 -0.04283739 0.03368336 -0.028391749
-0.7598073 -0.052869365 0.2212003 0.13511036 0.110876344 -0.052914187 -0.121180505 0.019238818
-0.6551756 -0.049523585 -0.08391481 0.064893015 0.20275757 -0.07658301 0.06550214 -0.07588166
-0.24298285 0.09284593 -0.023343632 0.17814527 0.07150577 0.2272686 -0.6315107 -0.36286813
-0.027606035 0.12921885 -0.26448455 -0.067469135 -0.08724529 -0.008383917 0.19690993 -0.2064535
0.25005025 0.16575773 0.025843741 -0.10964898 -0.06594882 0.20255935 -0.14771257 0.1359422
0.32312107 -0.15853211 0.06972622 0.24625532 -0.011875617 0.06576474 0.10977372 -0.73118454
0.24870446 1.4936885e-05 0.0723256 0.059232645 -0.084023625 0.11063645 -0.57742673 -0.046306074
0.012599451 -0.03975955 -0.0008732927 0.08610211 -0.5228888 -0.03204598 -0.20466143 -0.10404439
0.028356511 0.14954284 0.13267638 -0.014081209 0.10038245 -0.009580086 0.10252091 0.003694123
-0.444554 0.18151164 0.048801906 -0.33053833 -0.13194759 0.21492256 -0.10263498 0.10090022
0.06156621 0.24753767 0.1451511 -0.0005179547 0.038256273 -0.06561191 0.14874187 -0.06944631
-0.7331375 -0.12781075 0.005721481 0.046579547 0.16865423 0.042794377 0.12758832 0.007022122
-0.15955617 0.04181761 -0.3704268 0.07256125 0.023471799 0.18456106 0.078389905 0.037430786
00000000: 5deb 27be 447a fbbd c874 753d c66c a53d
00000010: bd10 be3c 373c 28be b895 173e 576b 36bc
00000020: 9dc5 eb3d c04c d6bd 9634 43be 7305 1d3e
00000030: 9cb1 fabc 04b3 e5bd ed1b 833e f953 20be
00000040: 7ae3 b93d 5b50 d93d def8 a9be 3ba4 1cbe
00000050: a22b 693e cdf1 e73d a022 083e d24d 863d
00000060: 687f c2bd 0c1e 563e d087 4dbd d2c3 38bf
00000070: b013 4b3e c5f0 173d 3c29 4dbb b3e4 f6bd
00000080: 142b 5b3d 4f1d 03bf aef9 123e d513 0c3d
00000090: 7f29 60bd feea c8be fb5c 94bd 64f8 cdbd
000000a0: 4890 d13d d094 153e e29f 2d3e 2aca d0bd
000000b0: 91ee b5bd c906 f73d 068f cb3d e4d1 8f3e
000000c0: 8943 643e 51dd 0dbe fb56 343d 36f2 143e
000000d0: d5cd 1e3e 22d0 083d f833 a93d f8b4 ae3e
000000e0: 1d35 5d3d 56ad b4bd ad79 793d 852b 2f3d
000000f0: 2942 d13d d4ef 40bf de66 a4bd fe7b 433e
00000100: 10b1 133c dc65 5e3e 07bb 1bbf a1c8 2cbd
00000110: 0aae 803d c54f 86bd 5906 dfbe 8298 0dbe
00000120: 729e 22be ff7e 213e 27c2 92be 6fd8 ed3d
00000130: 5844 fd3d 2172 ab3b dd1b 123e 46e4 193e
00000140: 399d b2bb c004 553c 24cf 37bf 03e4 9f3d
00000150: d3df af3e 06a9 1f3e 7fae 07be 03df 0bbe
00000160: 483b c33d 8ee2 c5be 1948 84bd b354 33be
00000170: a58b 29bf 02ed 03bd 1161 cabd 411e ad3d
00000180: 03a2 453e 3ab7 25be 65e9 f5bb d3c2 753e
00000190: 3ae7 703e b8e4 8dbe 7fca 343d 0904 dd3d
000001a0: 7433 c0bc 18f5 a0be 6d05 88bc 5bc8 bfbd
000001b0: 70d0 ee3c 8162 cc3c 363f 8ebe bf42 44be
000001c0: aa85 203d bac9 e1bd 8376 c63d a5b3 913d
000001d0: bacd 583e e87c 623e 68fe c5bc 7047 ad3b
000001e0: eb24 033e 6e75 10be 3dc5 023e 8ffa 423e
000001f0: b0de 8a3d 8495 4c3e 5e61 4b3e 18ac 323e
00000200: 2e0e 613e 247f e2bd 4586 d8bd e3b5 213e
00000210: 93cd 223e 45a5 13bd 4b1a 253e 792e 383d
00000220: 1d79 1ebd 7d1b e53c 5327 103e 3404 51be
00000230: ea5d fe3d c09a 263e 08ef a8bc a040 3abe
00000240: aeb7 e53d 08c4 e53d c99d f53d db45 523d
00000250: ae1d 313d 4276 2fbd 90f7 093d d095 e8bc
00000260: bb82 42bf 8c8d 58bd 5582 623e 5f5a 0a3e
00000270: 2313 e33d 8cbc 58bd 7c2d f8bd ba9a 9d3c
00000280: 97b9 27bf 3ed9 4abd 87db abbd a1e6 843d
00000290: ae9f 4f3e 8ed7 9cbd fc25 863d d867 9bbd
000002a0: 7fd0 78be 0226 be3d 253b bfbc b76b 363e
000002b0: 9e71 923d 1ab9 683e afaa 21bf dac9 b9be
000002c0: 0d26 e2bc f251 043e 856a 87be 422d 8abd
000002d0: a9ad b2bd b25c 09bc c2a2 493e 8c68 53be
000002e0: 9606 803e 65bc 293e 41b6 d33c a58f e0bd
000002f0: 2d10 87bd b86b 4f3e f741 17be 6f34 0b3e
00000300: 2070 a53e 3e56 22be 9fcc 8e3d 5b2a 7c3e
00000310: f391 42bc aaaf 863d 0bd1 e03d e92e 3bbf
00000320: 62ac 7e3e 6f99 7a37 721f 943d ee9d 723d
00000330: 9414 acbd 5d95 e23d 3dd2 13bf 70ab 3dbd
00000340: ed6d 4e3c e9da 22bd aeed 64ba 4e56 b03d
00000350: 0adc 05bf a542 03bd c492 51be 3a15 d5bd
00000360: ea4b e83c c221 193e 51dc 073e dfb4 66bc
00000370: 5095 cd3d cbf5 1cbc 7cf6 d13d 1919 723b
00000380: 959c e3be 30de 393e 82e4 473d 523c a9be
00000390: 451d 07be a914 5c3e 4a32 d2bd c6a4 ce3d
000003a0: da2c 7c3d 847a 7d3e 7da2 143e 5ac7 07ba
000003b0: 9cb2 1c3d 895f 86bd ca4f 183e de39 8ebd
000003c0: e6ae 3bbf d2e0 02be 437b bb3b 32ca 3e3d
000003d0: b2b3 2c3e 2849 2f3d 83a6 023e d419 e63b
000003e0: b162 23be f148 2b3d 95a8 bdbe fe9a 943d
000003f0: ee47 c03c 93fd 3c3e e38a a03d 0651 193d

fc2.bias f4 [128]
-0.06794001 0.05168089 -0.04960328 0.10787912 0.013506927 0.15822832 -0.022293804 0.16485685
0.13837656 -0.0068963817 -0.008601611 -0.0274026 -0.04434172 -0.0063878084 0.014737795 0.0170489
0.069434546 0.0029882544 0.12182786 0.10445811 0.12297502 -0.019053448 -0.006084719 0.12499102
0.15926403 0.044030998 0.0023298124 -0.007911687 -0.0054256804 0.08975666 0.124088645 -0.0035655487
-0.026476076 0.1144386 0.15797259 0.11287674 -0.0010238206 -0.03695989 0.044824272 -0.009671336
0.09831548 0.14899161 -0.045673303 -0.022592355 0.14445753 0.08801873 -0.059550457 -0.018744573
0.112551495 0.13818863 0.08776943 0.09918223 0.124259226 0.01548281 0.14824471 -0.007467709
-0.0061059897 -0.006049849 0.08771212 0.106950425 0.117977664 -0.091221794 0.12234821 0.14031543
0.11609207 0.12574875 0.09497794 0.10268037 0.002537647 -0.016335955 -0.110320345 -0.016101277
0.046206433 0.1165004 -0.02529088 0.15397698 0.14213637 0.08547291 0.113560885 -0.017111681
0.18286778 0.0007400373 0.18053219 -0.05583979 0.18920825 -0.0788485 0.1912477 -0.00035855325
0.17421702 -0.063693516 -0.01231666 -0.0623029 -0.046313047 -0.011817863 -0.0032690153 0.1258394
-0.0089741405 0.11339328 0.12662774 -0.017370155 -0.09899994 0.0106059965 -0.027323188 -0.059632838
0.08132358 0.10243131 -0.034452993 0.18092589 -0.0806038 -0.011560798 0.11656089 0.17409411
0.030662445 -0.0901031 -0.0052088457 0.032202967 0.14844087 -0.047148783 -0.010188586 -0.0035366311
0.09703599 -0.009198962 -0.043816168 -0.0023569237 -0.080596894 -0.0094459485 -0.10396748 -0.012087741
00000000: 2224 8bbd 57af 533d cf2c 4bbd baef dc3d
00000010: 284c 5d3c 9b06 223e 7fa1 b6bc 3cd0 283e
00000020: 96b2 0d3e 0bfb e1bb c5ed 0cbc 6b7b e0bc
00000030: aa9f 35bd d250 d1bb cb76 713c 22aa 8b3c
00000040: b333 8e3d 97d6 433b e380 f93d 22ee d53d
00000050: 54da fb3d fa15 9cbc 5362 c7bb 4bfb ff3d
00000060: 1c16 233e d959 343d c4af 183b 05a0 01bc
00000070: e8c9 b1bb 57d2 b73d 3022 fe3d fbab 69bb
00000080: 5be4 d8bc c95e ea3d 91c3 213e ec2b e73d
00000090: b831 86ba 4163 17bd a899 373d 8674 1ebc
000000a0: a059 c93d 4291 183e ee13 3bbd 9a13 b9bc
000000b0: adec 133e 2a43 b43d 2eeb 73bd 388e 99bc
000000c0: 6681 e63d 5281 0d3e 75c0 b33d 0e20 cb3d
000000d0: 9f7b fe3d 9dab 7d3c 76cd 173e afb3 f4bb
000000e0: c114 c8bb d03d c6bb 69a2 b33d d308 db3d
000000f0: 469e f13d 7ed2 babd b391 fa3d d9ae 0f3e
00000100: aec1 ed3d 48c4 003e cb83 c23d 164a d23d
00000110: a74e 263b fbd2 85bc a2ef e1bd d3e6 83bc
00000120: f542 3d3d c397 ee3d d22e cfbc 24ac 1d3e
00000130: 328c 113e 6c0c af3d 9c92 e83d cc2d 8cbc
00000140: b141 3b3e 10ff 413a 6edd 383e 43b8 64bd
00000150: cfbf 413e 537b a1bd 70d6 433e 34fc bbb9
00000160: f265 323e bf71 82bd d1cb 49bc 5331 7fbd
00000170: c0b2 3dbd b69f 41bc fa3c 56bb 0bdc 003e
00000180: 4608 13bc bc3a e83d b4aa 013e db4b 8ebc
00000190: 7bc0 cabd c6c4 2d3c e1d4 dfbc 9041 74bd
000001a0: fa8c a63d 82c7 d13d 951e 0dbd a344 393e
000001b0: 9b13 a5bd 8069 3dbc 7ab7 ee3d ba45 323e
000001c0: cf2f fb3c f987 b8bd f7ae aabb 42e7 033d
000001d0: e200 183e 151f 41bd 07ee 26bc d3c6 67bb
000001e0: ceba c63d 3eb7 16bc 9578 33bd 9e76 1abb
000001f0: fc0f a5bd 2ec3 1abc e7ec d4bd a90b 46bc

fc3.weight f4 [2, 128]
-0.5170408 0.50356615 -0.50316256 0.26771876 -0.43480295 0.22911935 -0.24774683 0.5291275
0.35015455 -0.31259668 -0.04719314 -0.43225423 -0.23775387 -0.097546816 -0.30296603 -0.3562139
0.2650584 -0.28797838 0.19335225 0.29656005 0.5306812 -0.35996613 -0.5328354 0.3678958
0.30120444 0.31433216 0.51667523 -0.12709361 -0.02827151 0.3604944 0.36269855 -0.10669763
-0.3986118 0.2643042 0.26549366 0.3853023 -0.28191653 -0.48574677 -0.10747716 -0.5437236
0.22701982 0.5487545 -0.29690826 -0.5315226 0.16035293 0.42508906 -0.50931275 -0.06743364
0.13951619 -0.061268993 0.27356914 0.3505113 0.22523229 -0.34860244 0.058549073 0.14906524
-0.13202292 -0.039096475 0.27366218 0.223515 0.22541371 -0.43002784 0.040220536 -0.012856514
0.28675318 0.3812741 0.21258272 0.172341 0.18913914 -0.4708886 0.38495374 0.08520507
0.42678377 0.5135701 -0.48270336 0.20668167 0.23543075 0.20577177 0.09743467 -0.45975658
0.46334997 -0.5433739 0.1424579 -0.47352773 0.15968119 -0.046533797 0.07101121 -0.4356513
0.010693189 -0.1011193 -0.14195605 -0.30567273 -0.448174 -0.49557307 -0.19195843 0.42585474
-0.14879568 0.2853542 0.48835617 -0.15672944 -0.1716312 0.3140608 -0.3517456 -0.604504
0.34172767 0.20772032 -0.4509997 0.21153986 -0.17381865 -0.18952656 0.38840234 0.42560825
-0.37271863 -0.02179282 -0.052472625 0.17980963 0.026564905 -0.3218328 -0.0018471986 -0.12547311
0.3788772 -0.20729771 -0.2935551 -0.14318092 -0.54130095 -0.04791808 0.32578927 0.09483928
-0.53846586 -0.27657378 -0.43561438 0.3139028 0.14764145 0.5180972 -0.44128144 0.32578346
0.19857289 -0.37932396 -0.11531796 -0.313674 -0.7022215 -0.1559989 -0.2369645 -0.3534862
-0.12991694 -0.5400252 0.24488944 0.28459916 0.28709897 -0.14971362 -0.40962705 0.29370332
0.23726358 -0.026821617 -0.5472577 -0.124590956 -0.10237331 0.19447277 0.5507551 0.08073085
-0.19484985 0.2406192 0.27948353 0.3168926 -0.037709754 -0.0680582 0.16974941 -0.15647057
0.29653773 0.12263141 -0.62355584 -0.40654925 0.32147408 -0.22590995 -0.6064633 -0.20850939
0.2677436 0.2802241 0.1168102 0.107116334 0.33308113 -0.07738933 0.29928398 -0.18574524
-0.1995526 -0.15088482 0.21081209 0.2937424 0.39677447 -0.51183563 0.35479996 0.20990655
0.29541335 0.50674707 0.2797409 0.34041604 0.12035162 -0.23176678 -0.5051593 -0.48075348
-0.497882 0.13628523 -0.3805407 0.24716999 0.33374062 0.094402134 0.24381362 -0.21213894
0.31778875 -0.0993422 0.2754501 -0.5020335 0.36549816 -0.67878103 0.5712229 -0.11521951
0.48092863 -0.6467592 -0.16750559 -0.73570144 -0.68642807 -0.20681113 -0.099940136 0.38600188
-0.016493551 0.45564827 0.07454371 -0.1879804 -0.71340793 -0.30265582 -0.4583632 -0.6860135
0.05484577 0.35933244 -0.28794625 0.3148813 -0.6585135 0.09789551 -0.18048401 0.22930188
0.2587927 -0.6756878 -0.06859681 -0.06658264 0.19090404 -0.5133182 -0.057131477 0.107231095
0.36787233 -0.07347099 -0.4670329 -0.15612808 -0.29281053 -0.14816387 -0.5756281 -0.1977967
00000000: c95c 04bf b6e9 003f 43cf 00bf 6f12 893e
00000010: 7e9e debe 439e 6a3e 58b1 7dbe e674 073f
00000020: 7547 b33e ac0c a0be 984d 41bd 6d50 ddbe
00000030: c075 73be a0c6 c7bd 5d1e 9bbe ab61 b6be
00000040: bcb5 873e e771 93be 22fe 453e b8d6 973e
00000050: b9da 073f 7b4d b8be e767 08bf d75c bc3e
00000060: 7837 9a3e 25f0 a03e d444 043f d424 02be
00000070: a799 e7bc b992 b83e a0b3 b93e 4984 dabd
00000080: d916 ccbe e152 873e c9ee 873e 5846 c53e
00000090: 5d57 90be cdb3 f8be fc1c dcbd 7831 0bbf
000000a0: e277 683e 2d7b 0c3f 5c04 98be dd11 08bf
000000b0: 8f33 243e 46a5 d93e 5262 02bf a61a 8abd
000000c0: 55dd 0e3e 32f5 7abd 4111 8c3e 3876 b33e
000000d0: 4ba3 663e 057c b2be 27d1 6f3d 8fa4 183e
000000e0: 0431 07be a023 20bd 731d 8c3e 1ee1 643e
000000f0: dad2 663e 9c2c dcbe 4abe 243d 21a4 52bc
00000100: 50d1 923e 5c36 c33e 49af 593e 297a 303e
00000110: b1ad 413e 5018 f1be a818 c53e ff7f ae3d
00000120: 6783 da3e 5479 033f e524 f7be 5ca4 533e
00000130: c214 713e d6b5 523e d48b c73d 3765 ebbe
00000140: 353c ed3e 8d1a 0bbf 7ce0 113e 3a72 f2be
00000150: 7783 233e 399a 3ebd 536e 913d b00d dfbe
00000160: 7c32 2f3c a317 cfbd ed5c 11be 2381 9cbe
00000170: 1077 e5be c1bb fdbe c090 44be a209 da3e
00000180: e55d 18be f219 923e d209 fa3e af7d 20be
00000190: 17c0 2fbe 94cc a03e 0018 b4be c6c0 1abf
000001a0: eef6 ae3e a3b4 543e 6fe9 e6be e89d 583e
000001b0: 84fd 31be 4013 42be acdc c63e 53e9 d93e
000001c0: fad4 bebe db86 b2bc 89ed 56bd 0420 383e
000001d0: a59e d93c 45c7 a4be b31d f2ba 067c 00be
000001e0: 31fc c13e da45 54be db4c 96be 059e 12be
000001f0: b392 0abf c045 44bd dacd a63e 193b c23d
00000200: e6d8 09bf 149b 8dbe d908 dfbe deb7 a03e
00000210: 522f 173e 05a2 043f a4ef e1be 17cd a63e
00000220: b156 4b3e c036 c2be d32b ecbd e199 a0be
00000230: cac4 33bf 2dbe 1fbe d2a6 72be 25fc b4be
00000240: f208 05be 173f 0abf 4cc4 7a3e fbb6 913e
00000250: a3fe 923e 874e 19be a3ba d1be 4860 963e
00000260: 39f5 723e 02b9 dbbc 1519 0cbf 8b29 ffbd
00000270: 19a9 d1bd df23 473e 49fe 0c3f 3756 a53d
00000280: b886 47be e164 763e 7718 8f3e bf3f a23e
00000290: 8b75 1abd 1962 8bbd cad2 2d3e d239 20be
000002a0: cbd3 973e 2d26 fb3d 5ba1 1fbf 3927 d0be
000002b0: 4098 a43e f054 67be 2e41 1bbf 7c83 55be
000002c0: b015 893e 8979 8f3e 303a ef3d cf5f db3d
000002d0: 9c89 aa3e 4c7e 9ebd c03b 993e 0034 3ebe
000002e0: 8457 4cbe 8d81 1abe 20df 573e 6765 963e
000002f0: 0626 cb3e a907 03bf 57a8 b53e bef1 563e
00000300: 6b40 973e 2dba 013f 333a 8f3e 034b ae3e
00000310: e97a f63d 4554 6dbe 1f52 01bf 5225 f6be
00000320: 64ea febe 5b8e 0b3e 3bd6 c2be 211a 7d3e
00000330: 0de0 aa3e e855 c13d 47aa 793e f33a 59be
00000340: 35b5 a23e ec73 cbbd cc07 8d3e 4485 00bf
00000350: 9322 bb3e 98c4 2dbf aa3b 123f 35f8 ebbd
00000360: 473c f63e 0392 25bf 9686 2bbe ee56 3cbf
00000370: c0b9 2fbf 4cc6 53be 6aad ccbd 0aa2 c53e
00000380: 7c1d 87bc bb4a e93e 5faa 983d ef7d 40be
00000390: e7a1 36bf b4f5 9abe 95ae eabe 959e 2fbf
000003a0: f5a5 603d 6cfa b73e b16d 93be 1f38 a13e
000003b0: 5794 28bf 717d c83d cdd0 38be 1dce 6a3e
000003c0: 7a80 843e e0f9 2cbf 7c7c 8cbd 7b5c 88bd
000003d0: 597c 433e d268 03bf b202 6abd fa9b db3d
000003e0: c359 bc3e f577 96bd f01e efbe 0ae0 1fbe
000003f0: 43eb 95be 45b8 17be 5d5c 13bf 388b 4abe

fc3.bias f4 [2]
0.058403812 0.09639238
00000000: d638 6f3d 5e69 c53d
