Project/output/cartpole/ddqn_duel/final_model.pth (torch, 826722 bytes, 44 tensors)

fc1.weight f4 [128, 4]
0	0x3d4ef5dd	0.050527442
1	0xbe0d0bdc	-0.13774055
2	0x3cd5a72f	0.026080696
3	0x3d10c31a	0.035342313
4	0x3c95256d	0.018206323
5	0xbc916b26	-0.017751288
6	0xbe0fee54	-0.14055759
7	0x3d67b297	0.0565668
8	0x3da2388c	0.07920942
9	0xbd126448	-0.035740167
10	0x3f03e909	0.5152746
11	0x3dfad85c	0.122482985
12	0x3e3e06ae	0.18557236
13	0x3deb972e	0.115034446
14	0xbd3cf4d9	-0.046131942
15	0x3d924498	0.071419895
16	0xbda1a138	-0.07892078
17	0x3d757a0d	0.05993085
18	0xbe4516f6	-0.1924704
19	0xbe32fc95	-0.17479165
20	0x3c502b5e	0.012705652
21	0x3e1406ac	0.1445567
22	0x3ee5c456	0.44876355
23	0x3df94110	0.12170613
24	0x3c98c188	0.01864697
25	0xbd85b3b4	-0.06528416
26	0xbeaf0e97	-0.3419082
27	0xbd7f6db7	-0.06236049
28	0xbe1ebd3f	-0.15501879
29	0xbda5842e	-0.08081852
30	0x3f39812b	0.7246272
31	0x3c1b35ef	0.009473308
32	0x3e0fd05f	0.14044331
33	0xbe20223a	-0.15638056
34	0x3e9bb21a	0.30409318
35	0x3e059418	0.13044775
36	0x3e84c085	0.2592813
37	0x3e5bf012	0.21478298
38	0xbdb0f054	-0.08639589
39	0xbce30434	-0.027711965
40	0xbe3e49b6	-0.18582806
41	0xbe54f939	-0.20798196
42	0x3de059e9	0.10954649
43	0xbe1d72b1	-0.15375783
44	0x3da3cb83	0.07997801
45	0x3d9caa4d	0.0764967
46	0x3e182522	0.14857915
47	0x3d9fec35	0.07808725
48	0xbe37a952	-0.17935684
49	0x3c90aa08	0.017659202
50	0x3d90684b	0.07051142
51	0x3d003879	0.031303857
52	0xbc8005ff	-0.01562786
53	0x3c41ef94	0.011836905
54	0x3e639784	0.22225767
55	0xbcfb1124	-0.030647822
56	0x3dd549fa	0.104145005
57	0xbe3fb813	-0.18722562
58	0xbefc41ed	-0.49269047
59	0xbd3942ee	-0.045229845
60	0x3e205480	0.15657234
61	0x3e53ca67	0.20682679
62	0x3f071e7a	0.5278088
63	0x3e3ce77f	0.18447684
64	0x3db94471	0.09046257
65	0xbd8ea19e	-0.0696442
66	0xbe8bc995	-0.27302232
67	0x3c8b7725	0.017024586
68	0x3e4d75af	0.20064424
69	0x3dbcee9a	0.09225197
70	0xbe02dae5	-0.12778814
71	0x3d2491da	0.040178157
72	0xbbf4d557	-0.007471721
73	0x3cddaf47	0.027061118
74	0xbca74ab3	-0.020421362
75	0xbd2e7f8b	-0.042602103
76	0x3d892bfd	0.06697843
77	0xbdbc52df	-0.09195494
78	0xbe20b47b	-0.15693848
79	0xbe0a14b7	-0.13484465
80	0x3de914e2	0.11380936
81	0xbdfc5765	-0.12321357
82	0xbe76ae01	-0.24089815
83	0x3d0f239b	0.034946065
84	0x3c979f76	0.018508654
85	0xbcbe0a7e	-0.023198362
86	0xbf229a61	-0.63516814
87	0xbda92bd6	-0.08260314
88	0x3e798ce2	0.24370149
89	0x3e169379	0.14704694
90	0x3e8c37ce	0.27386326
91	0x3e5ae05e	0.21374652
92	0x3c6269e9	0.013819196
93	0xbe1fe024	-0.15612847
94	0xbf045c2b	-0.5170314
95	0xbe180e56	-0.14849219
96	0xbb0cf3f7	-0.002150772
97	0x3de83dfd	0.11339948
98	0x3ecee2a1	0.4040728
99	0x3da081e3	0.07837274
100	0x3da02539	0.078196
101	0x3d605ce3	0.054776084
102	0x3e9d89b1	0.30769113
103	0x3d95c4f0	0.073129535
104	0xbd35760d	-0.044302035
105	0xbe66b460	-0.22529745
106	0xbeec7642	-0.46183974
107	0xbe467259	-0.19379558
108	0xbc0ca5bc	-0.008584436
109	0x3b521875	0.0032058035
110	0x3e851571	0.2599292
111	0xbd8ec559	-0.06971235
112	0x3e177f50	0.1479466
113	0x3d2878f8	0.04113099
114	0x3dd0727b	0.101780854
115	0x3d388117	0.045044985
116	0x3e38db33	0.18052368
117	0x3e100610	0.14064813
118	0x3ef408d2	0.4766298
119	0x3e088108	0.13330472
120	0xbe7ccae4	-0.24686772
121	0xbe465392	-0.19367817
122	0xbeb54956	-0.35407513
123	0xbe24e791	-0.1610396
124	0xbdf47744	-0.119368106
125	0x3dd04d8c	0.10171041
126	0x3e44badd	0.19211908
127	0x3daf1b11	0.085500844
128	0x3e9ba962	0.30402666
129	0xbda03ae3	-0.07823732
130	0xbb1b6cc5	-0.0023715955
131	0xbd78a8d9	-0.0607079
132	0xbe6cf4ed	-0.23140307
133	0x3d4d3eb6	0.050108634
134	0xbf006a02	-0.50161755
135	0xbe5a4d07	-0.21318446
136	0x3d81bdd7	0.06335037
137	0xbd8205f7	-0.06348794
138	0x3e41757a	0.1889247
139	0x3e1cb2d9	0.153026
140	0xbe7a0d2f	-0.24419092
141	0xbd38948f	-0.04506355
142	0x3e3af264	0.18256527
143	0x3c04ed4d	0.008113218
144	0x3e02fb86	0.12791261
145	0x3dc83e27	0.097774796
146	0x3dc1102b	0.09426912
147	0x3ca19bda	0.019727636
148	0xbd029755	-0.031882603
149	0xbdfc468a	-0.12318142
150	0x3db95106	0.09048657
151	0xbd7fb152	-0.062424965
152	0x3df7167f	0.12064838
153	0xbe230f6f	-0.15923856
154	0x3dd99a22	0.106251016
155	0xbdfcac2b	-0.12337526
156	0x3e18a85b	0.14907973
157	0x3e0794cf	0.1324036
158	0x3e8479cb	0.2587417
159	0x3dad6963	0.084673665
160	0x3e2ad9ea	0.1668469
161	0xbdf960a7	-0.12176638
162	0x3c027927	0.007963455
163	0xbdb5c4df	-0.08875441
164	0x3e5a3707	0.21310054
165	0xbd91ba59	-0.07115621
166	0xbed9ae72	-0.42515904
167	0xbd203781	-0.039115433
168	0xbe338792	-0.17532185
169	0xbd3cc26a	-0.046083845
170	0xbed41fea	-0.41430598
171	0xbd46c5e8	-0.04852858
172	0x3e040818	0.12893713
173	0xbddd7b0e	-0.108144864
174	0xbe9b22cb	-0.30299982
175	0xbd39afa2	-0.045333512
176	0x3df5443f	0.119759075
177	0x3d9cd998	0.0765869
178	0xbe340fab	-0.17584102
179	0xbe206601	-0.15663911
180	0x3e7199d7	0.23593841
181	0xbe0fc7da	-0.14041081
182	0xbeaf98d1	-0.34296277
183	0x3e0efcbf	0.13963602
184	0xbeae5d5a	-0.34055597
185	0x3d4f0f51	0.050551716
186	0x3eadd34d	0.33950272
187	0x3d5d4caf	0.05402821
188	0x3e95e6c9	0.29277638
189	0x3e0bf47f	0.13667487
190	0x3e9129ae	0.28352112
191	0x3e299126	0.16559276
192	0x3c2dd0ae	0.010608835
193	0x3de27a00	0.11058426
194	0xbea90044	-0.33008015
195	0xbdb57d5c	-0.08861801
196	0xbe169312	-0.1470454
197	0xbdc947ae	-0.09828125
198	0x3d541aff	0.051783558
199	0x3e1a434b	0.15064733
200	0xbef61241	-0.48060802
201	0xbdc29051	-0.095001824
202	0x3dc4edf5	0.09615699
203	0x3e0cfe8f	0.13768981
204	0x3da7aae2	0.0818689
205	0xbdb3810c	-0.08764848
206	0xbedf60cb	-0.43628535
207	0xbe11928e	-0.14216062
208	0xbe698804	-0.22805792
209	0xbd32a4f9	-0.04361436
210	0x3e7b62df	0.24549435
211	0x3d3d05d1	0.046148125
212	0x3db83141	0.089937694
213	0xbd87f822	-0.066391245
214	0xbf1bb9f3	-0.6083061
215	0xbe2adab3	-0.1668499
216	0x3e16e9ec	0.14737672
217	0xbcef3998	-0.029202268
218	0xbd8c9a4c	-0.06865367
219	0xbe3b6c4a	-0.18303028
220	0x3e0fa5ac	0.14028043
221	0x3be1aeb9	0.0068872836
222	0x3e622121	0.2208295
223	0xbd951f23	-0.072813295
224	0x3d397cc8	0.045285016
225	0x3e0a182c	0.13485783
226	0xbecac263	-0.3960143
227	0xbe046524	-0.12929207
228	0x3d8cb19f	0.06869816
229	0x3dcde1fe	0.1005287
230	0xbea4a832	-0.32159573
231	0x3de5e879	0.11225981
232	0x3e861ccb	0.26193842
233	0x3e550b16	0.2080501
234	0x3f199cb5	0.6000474
235	0x3e082a6c	0.13297433
236	0xbde9f51b	-0.11423703
237	0x3de60d68	0.11233026
238	0x3e9b99c3	0.30390748
239	0xbc148014	-0.009063739
240	0xb9eafeb6	-0.00044821732
241	0xbe2fb593	-0.17159109
242	0xbedea6b7	-0.43486568
243	0xbe157fcd	-0.14599533
244	0xbe3632fc	-0.17792886
245	0xbda10e58	-0.07864064
246	0x3dca65b6	0.09882681
247	0xbce98019	-0.028503465
248	0xbe8abc4a	-0.27096778
249	0xbe705046	-0.23468122
250	0xbe91c25c	-0.28468597
251	0xbe2f6e28	-0.17131865
252	0x3e68ac44	0.22721964
253	0xbcb4bde6	-0.022063207
254	0x3eae8cc0	0.3409176
255	0x3e215585	0.1575528

fc1.bias f4 [128]
0	0x3d3d62e4	0.046236888
1	0x3e14eee4	0.14544255
2	0xbe50d4fb	-0.20393746
3	0xbdc69e61	-0.09698177
4	0x3dd890cc	0.10574493
5	0x3e1f563c	0.1556024
6	0x3dd0cb41	0.101950176
7	0x3e09e6ee	0.13466999
8	0xbe0addbe	-0.1356115
9	0xbbc18970	-0.0059062764
10	0x3e0139ed	0.12619753
11	0x3e0d426a	0.13794866
12	0x3dc98202	0.0983925
13	0x3e11671a	0.14199486
14	0xbdb76306	-0.08954434
15	0xbe15e36a	-0.14637533
16	0x3df1708f	0.11789047
17	0xbdcb937b	-0.09940239
18	0x3e0c2971	0.13687684
19	0x3cf798df	0.030224262
20	0x3d9609d2	0.07326092
21	0xbe278adc	-0.16361564
22	0xbd1027e4	-0.035194293
23	0x3e4cc13e	0.19995591
24	0x3dfb7dd9	0.12279863
25	0x3df02c9e	0.1172726
26	0xbd34afe8	-0.04411307
27	0x3e11249d	0.14174123
28	0x3df4b08d	0.11947737
29	0xbdb60c7a	-0.088890985
30	0xbdbea281	-0.09308339
31	0x3cea9e91	0.028640063
32	0xbdc13674	-0.09434214
33	0x3ba365b0	0.0049864873
34	0x3e140834	0.14456254
35	0x3d71522d	0.05891626
36	0x3a8d3f2a	0.0010776271
37	0x3dbff58a	0.09373005
38	0x3e1c2dc9	0.1525184
39	0x3e0a6ebd	0.13518806
40	0x3e20aa35	0.15689929
41	0x3d10285b	0.035194736
42	0xbd57b1e2	-0.052659877
43	0x3e22ea1f	0.15909623
44	0xbd959e2e	-0.07305561
45	0x3d68fd56	0.056882225
46	0xbe244834	-0.16043168
47	0x3d56436c	0.052310392
48	0x3dc8e86e	0.098099574
49	0x3de2b436	0.11069529
50	0x3d3808dc	0.044930324
51	0xbe271fdc	-0.16320747
52	0xbe297df9	-0.16551961
53	0xbe6933f1	-0.2277372
54	0x3dc72c99	0.09725303
55	0x3d984356	0.07434718
56	0x3d601a6e	0.054712705
57	0x3e0a9334	0.13532716
58	0x3dfccfb6	0.12344305
59	0x3dd1890e	0.10231219
60	0xbe14a235	-0.14515002
61	0xbd97a77c	-0.07404992
62	0x3c115b8a	0.008871922
63	0xbd96502b	-0.073395096
64	0x3cc359b3	0.023846483
65	0x3da91dfe	0.08257674
66	0x3d9346f3	0.07191267
67	0xbe2cbdfa	-0.16869345
68	0xbe1e5a96	-0.15464243
69	0x3dc8eea7	0.09811144
70	0x3db75afd	0.089529015
71	0x3c00b57a	0.007855767
72	0xbd8dc42d	-0.06922183
73	0xbd99a57d	-0.075022675
74	0x3db1569c	0.086590976
75	0x3e1e8de8	0.1548382
76	0x3df534cd	0.119729616
77	0x3d101412	0.03517539
78	0xbdea73a4	-0.11447838
79	0xbe17082e	-0.14749214
80	0x3debc353	0.115118645
81	0xbe2eb906	-0.17062768
82	0x3dfb8b1e	0.12282394
83	0x3dfc9428	0.12332946
84	0xbd7ee80c	-0.062233016
85	0x3dcf3252	0.1011702
86	0xbe8edc50	-0.2790246
87	0x3d3b98ea	0.045800127
88	0x3db24d88	0.08706194
89	0xbd89758c	-0.067118734
90	0xbc26418c	-0.0101474635
91	0xbe87decf	-0.26537177
92	0x3dd2001e	0.102539286
93	0x3da4cd9c	0.080470294
94	0x3e2fff31	0.17187192
95	0x3e0f359c	0.13985294
96	0xbe0450b2	-0.12921408
97	0x3d3da1d3	0.046296906
98	0xbd302032	-0.042999454
99	0x3def1824	0.11674526
100	0x3de2809e	0.11059688
101	0xbc2b69e4	-0.010462258
102	0xbdf5260e	-0.11970149
103	0xbcc086e4	-0.02350182
104	0xbd66acea	-0.056317247
105	0x3d961929	0.07329018
106	0x3de82f0b	0.11337098
107	0xbd83ad7b	-0.06429573
108	0x3da8dbc1	0.0824504
109	0xbd4edfb7	-0.05050632
110	0xbdaad7f1	-0.08341969
111	0x3e1b351e	0.15156981
112	0xbd864c20	-0.065574884
113	0x3e1b90c3	0.15191941
114	0x3e1070bc	0.14105505
115	0xbddbbddb	-0.107295714
116	0x3cf182a1	0.029481234
117	0xbd9641b1	-0.073367484
118	0xbc6abaa5	-0.014326726
119	0x3ce4ac18	0.027914092
120	0xbd99f6fe	-0.07517813
121	0xbe1587b3	-0.14602546
122	0xbdb7d5de	-0.08976339
123	0x3e1821f4	0.14856702
124	0xbc85594e	-0.016277935
125	0x3db64285	0.08899406
126	0x3e10391f	0.1408429
127	0x3e1d8f58	0.15386713

fc2.weight f4 [128, 128]
0	0xbdf605c1	-0.12012816
1	0x3e57aafc	0.21061319
2	0xbde6f514	-0.11277214
3	0xbe0c041e	-0.13673446
4	0xbe321fe4	-0.17394978
5	0x3e0aee5c	0.1356749
6	0x3e1ba853	0.1520093
7	0xbda628fb	-0.08113285
8	0xbd4ecdca	-0.050489224
9	0x3dbaa814	0.091140896
10	0xbd730b8e	-0.05933719
11	0x3ded8074	0.11596766
12	0x3e11ed6b	0.14250724
13	0xbcba0f18	-0.022712275
14	0x3dd9b56c	0.106303066
15	0xbe8c735e	-0.27431768
16	0x3dab96d3	0.08378377
17	0x3c44d59e	0.012013821
18	0x3e360bcb	0.17777936
19	0x3dbb60c3	0.09149315
20	0x3df70a07	0.120624594
21	0xbf1d8cec	-0.61543155
22	0xbdef3490	-0.116799474
23	0x3e140797	0.1445602
24	0x3db239e5	0.08702449
25	0x3e0df115	0.13861497
26	0xbe5c084f	-0.21487544
27	0x3c90889e	0.01764327
28	0x3e1a349a	0.15059128
29	0x3db2102b	0.0869449
30	0xbe6ea887	-0.23306476
31	0x3e196151	0.1497853
32	0xbdd35ddd	-0.103206374
33	0xbe32bf01	-0.17455675
34	0x3daec73a	0.08534093
35	0xbdfac672	-0.12244882
36	0xbd9a45e8	-0.07532865
37	0xbdf53946	-0.11973815
38	0x3e16f3db	0.14741461
39	0x3e07e290	0.1327002
40	0x3db1ef75	0.08688251
41	0x3d1c57ee	0.038169794
42	0xbf1c4833	-0.6104767
43	0x3ce3aa1d	0.027791077
44	0xbd97c21f	-0.074100725
45	0x3e14f955	0.14548238
46	0xbec729bf	-0.38899037
47	0x3b3eb18d	0.0029097528
48	0x3c7ac86c	0.015306573
49	0xbd000774	-0.031257108
50	0xbe1824d9	-0.14857806
51	0xbe97855e	-0.2959394
52	0xbd71893e	-0.058968775
53	0xbe16082e	-0.14651558
54	0x3de996b9	0.11405701
55	0xbdc8ab9c	-0.09798357
56	0xbd2e1167	-0.042497065
57	0x3e3257e9	0.17416348
58	0x3e07088f	0.13186859
59	0x3e31c6c0	0.17360973
60	0xbe25c175	-0.16187079
61	0xbece056e	-0.40238518
62	0x3d1eb8d9	0.038750503
63	0xbe05e828	-0.13076842
64	0x3c90054f	0.017580656
65	0x3dacd311	0.08438695
66	0xbd7d81e3	-0.061891448
67	0xbe10b655	-0.14132054
68	0xbeb0fa53	-0.34565982
69	0x3c082216	0.008308908
70	0x3cd56fd2	0.026054297
71	0x3e4559e1	0.19272567
72	0xbd235836	-0.039879046
73	0xbc433d95	-0.011916538
74	0xbdf6c1ba	-0.12048669
75	0xbcf8f08a	-0.030388135
76	0x3e5413b9	0.20710649
77	0xbc34dcd7	-0.01103898
78	0xbebcdf8b	-0.368893
79	0xbe337f4a	-0.17529026
80	0xbbb8d40b	-0.005640512
81	0xbdc86047	-0.097839884
82	0x3e6341b2	0.2219303
83	0x3e33a4e9	0.17543377
84	0xbe0a6083	-0.13513379
85	0x3df620c3	0.120179676
86	0xbd7ab5fa	-0.061208703
87	0x3d56911b	0.052384477
88	0x3db6fbb7	0.089347295
89	0xbe038c59	-0.12846507
90	0xbe0b3ab1	-0.13596608
91	0xbf091de9	-0.53561264
92	0xbdd69529	-0.10477669
93	0xbdeed821	-0.11662317
94	0x3e2e3b17	0.17014728
95	0x3da944bc	0.08265063
96	0xbe6492d8	-0.22321641
97	0xbe07d043	-0.1326304
98	0xbe3a9b9d	-0.18223424
99	0x3e1b1d52	0.15147904
100	0x3d675c43	0.056484472
101	0x3d315799	0.04329643
102	0xbd788a5e	-0.060678832
103	0xbd8cd9fc	-0.06877515
104	0xbdd6b9c9	-0.104846545
105	0xbdc928a1	-0.098222025
106	0xbdace829	-0.084427185
107	0xbe1e3b4f	-0.15452312
108	0xbdd6b67b	-0.10484024
109	0xbe039287	-0.12848864
110	0xbe87ec6d	-0.26547566
111	0x3dcb6f5d	0.0993335
112	0xbe43019f	-0.19043587
113	0x3e01c9c6	0.12674627
114	0xbca31f68	-0.019912437
115	0xbeba1d84	-0.36350644
116	0x3e16a3cb	0.1471092
117	0x3bf7d15b	0.007562799
118	0x3cb1be6f	0.021697251
119	0xbc5c1313	-0.013432282
120	0xbdb0759d	-0.08616183
121	0xbe649778	-0.22323406
122	0xbedae14b	-0.4275001
123	0xbd90c76c	-0.07069287
124	0xbdaec052	-0.08532776
125	0x3e0ac9bb	0.13553517
126	0x3e6e4d17	0.23271595
127	0x3d0bfb5a	0.034175254
128	0x3dd6d4dc	0.104898185
129	0x3e0daae2	0.13834718
130	0x3d22e83b	0.039772253
131	0x3c253645	0.01008374
132	0x3e217668	0.15767825
133	0xbeae81c1	-0.3408337
134	0xbd1a8073	-0.037720155
135	0xbd524fb9	-0.05134556
136	0xbe47b016	-0.19500765
137	0xbe37ff0e	-0.1796839
138	0x3d36b65a	0.044607498
139	0xbe3b35b8	-0.18282211
140	0xbcf2ef1d	-0.029655034
141	0xbe1135d7	-0.14180695
142	0xbda75d74	-0.08172122
143	0x3da61416	0.081093
144	0x3d90ed0b	0.07076462
145	0x3afb6aa7	0.0019181565
146	0xbdadfd71	-0.08495606
147	0xbcd5bf98	-0.026092336
148	0x3d7fbaab	0.06243388
149	0x3ead2ad1	0.3382173
150	0x3bc0deba	0.005885926
151	0x3e05f842	0.13082984
152	0xbe423784	-0.1896649
153	0xbec83225	-0.39100757
154	0x3e3ce0a6	0.18445072
155	0x3cc865ea	0.024462659
156	0xbe52f10c	-0.20599765
157	0xbc899dbb	-0.016798845
158	0x3e06a2f0	0.13148093
159	0xbde6e703	-0.11274531
160	0xbe252e5d	-0.16130967
161	0xbb97da99	-0.004634213
162	0x3bd1bdd2	0.006400802
163	0xbd686512	-0.056737013
164	0xbdf65a5e	-0.12028955
165	0x3e10e0cd	0.14148255
166	0x3da10f4b	0.07864245
167	0xbe946966	-0.28986663
168	0x3dca2aba	0.09871431
169	0x3dbd51ba	0.09244104
170	0x3ea00e15	0.31260744
171	0x3d8918f4	0.066942126
172	0x3d86c2b1	0.06580103
173	0x3cfbf04e	0.030754235
174	0xbe446f8a	-0.19183174
175	0xbe912aa8	-0.28352857
176	0x3e1354ed	0.14387865
177	0x3db15dc9	0.08660466
178	0xbe072870	-0.1319902
179	0x3d0caab8	0.034342498
180	0x3cf24204	0.029572494
181	0x3e54ee60	0.20794058
182	0xbcf81f49	-0.030288355
183	0xbe26deac	-0.1629588
184	0x3e7f6c6a	0.249437
185	0xbd20234e	-0.03909617
186	0xbe847704	-0.25872052
187	0xbe42fb51	-0.19041182
188	0x3e8af618	0.2714088
189	0x3e1eaac3	0.15494828
190	0xbd87475f	-0.0660541
191	0xbdb856e4	-0.09000948
192	0x3ba2ee00	0.0049722195
193	0xbed2abd0	-0.41146708
194	0x3e12ead4	0.14347392
195	0xbdb95ba7	-0.090506844
196	0x3e2f28b5	0.17105372
197	0xbd4ddf52	-0.050261803
198	0xbf02397f	-0.5086898
199	0xbe1a2e5e	-0.1505675
200	0x3e564638	0.20925224
201	0xbe0910e3	-0.13385348
202	0x3e31fcbc	0.17381567
203	0x3d352f97	0.04423484
204	0x3c86fe98	0.016478822
205	0x3e55164e	0.2080929
206	0xbc67df0b	-0.014152299
207	0xbd0daff2	-0.034591623
208	0x3d8739e5	0.066028394
209	0xbe034b44	-0.1282168
210	0x3da5122b	0.08060106
211	0xbd33c4fe	-0.04388904
212	0x3b9dde82	0.0048177848
213	0x3cb2b3e5	0.021814296
214	0xbdcc186a	-0.09965594
215	0x3dc973bd	0.098365285
216	0x3d54d418	0.05196008
217	0x3df90a77	0.12160199
218	0xbd170229	-0.036867294
219	0x3af596cd	0.0018736959
220	0xbdb754b1	-0.089517005
221	0x3e162610	0.14662957
222	0xbda3fe57	-0.08007496
223	0x3e5219d7	0.2051767
224	0x3d7d2139	0.06179926
225	0x3e2b94f4	0.1675604
226	0x3d4b61c7	0.049653795
227	0xbd589554	-0.052876785
228	0xbeefef8a	-0.4686244
229	0xbe674ffd	-0.22589107
230	0x3d092516	0.033482634
231	0x3cd2fdc4	0.02575577
232	0xbe6d57bc	-0.23178
233	0xbd1a03b2	-0.03760118
234	0xbd2898f6	-0.0411615
235	0xbc6e8c6e	-0.014559848
236	0xbf05ccd7	-0.52265686
237	0xbe1ba46a	-0.15199438
238	0x3cb1d5a5	0.021708319
239	0xbe1c0c63	-0.152391
240	0x3daef5ff	0.08543014
241	0xbe013197	-0.12616573
242	0xbe499fef	-0.19689916
243	0x3d0aad55	0.03385671
244	0xbe18ec2b	-0.14933841
245	0x3d9103b3	0.07080784
246	0xbea9130c	-0.33022344
247	0x3d6510cd	0.055924226
248	0xbeaf7a1b	-0.34272847
249	0xbe25d14c	-0.16193122
250	0x3e0da00a	0.13830581
251	0x3e53a0bd	0.20666786
252	0x3d3c41ed	0.04596131
253	0xbe21abfa	-0.1578826
254	0xbd2cc14f	-0.04217654
255	0x3bc74b0c	0.0060819443

fc2.bias f4 [128]
0	0x3e0b4ce0	0.13603544
1	0xbae8beb6	-0.0017757032
2	0x3de3c7ab	0.11122068
3	0xbdadb0ca	-0.084809855
4	0x3dfe34d0	0.12412417
5	0x3df952a5	0.12173966
6	0x3dcf0af9	0.10109515
7	0xbd9bd5de	-0.07609151
8	0x3e03575e	0.12826297
9	0x3df4772b	0.11936792
10	0xbd862c52	-0.06551422
11	0x3de9675a	0.11396666
12	0x3dbb89fa	0.09157176
13	0x3dc73b0c	0.09728059
14	0x3e059a75	0.13047202
15	0x3df68cad	0.120385505
16	0xbd6fa1c5	-0.058503885
17	0x3da2e10d	0.07953081
18	0x3de59446	0.112099215
19	0x3e082cd4	0.1329835
20	0x3e0995e8	0.13436091
21	0xbde66010	-0.11248791
22	0x3c856b71	0.016286584
23	0x3dfeaa54	0.12434831
24	0x3b9f90ef	0.0048695724
25	0x3ce3ada7	0.027792765
26	0x3e0dca2e	0.13846657
27	0x3e02c951	0.12772109
28	0xbb0bdefb	-0.0021342624
29	0xbe02f4bb	-0.1278867
30	0x3e13eb2d	0.14445181
31	0x3e137803	0.1440125
32	0x3e03cd58	0.12871301
33	0xbd695814	-0.056968763
34	0x3de33b73	0.110953234
35	0xbd9c0ff8	-0.07620233
36	0x3e1bc036	0.15210041
37	0x3dcf3b85	0.10118774
38	0x3dd2f463	0.10300519
39	0xbe003bd5	-0.12522824
40	0x3de303a5	0.110846795
41	0x3dae546b	0.08512195
42	0x3e105ba6	0.14097461
43	0x3dfd5859	0.123703666
44	0x3dddb5eb	0.10825714
45	0xbd5ed385	-0.05440094
46	0xbd76386b	-0.060112398
47	0x3df2f3a1	0.11862875
48	0x3e15d5fa	0.14632407
49	0x3c9bdbfa	0.019025791
50	0x3dd881d4	0.10571638
51	0x3e00b95e	0.12570712
52	0x3dfc6a64	0.1232498
53	0x3df56f21	0.11984087
54	0x3e00a4ed	0.12562914
55	0xbd328072	-0.043579526
56	0xbdc388bb	-0.09547564
57	0x3dd66897	0.10469168
58	0x3ca4d74b	0.020122191
59	0x3dff81ff	0.12475967
60	0x3de45a17	0.11149996
61	0x3ce43c62	0.027860824
62	0x3e001ddb	0.12511389
63	0x3deac22c	0.114628166
64	0x3c49dd50	0.012320831
65	0x3df73933	0.12071457
66	0x3dc188fd	0.094499566
67	0x3bf985f0	0.0076148435
68	0x3dfc15db	0.12308856
69	0x3e014907	0.12625514
70	0x3dd7db15	0.105398335
71	0xbd59194c	-0.05300264
72	0x3e0d60e1	0.13806488
73	0x00000000	0.0
74	0x3e108b8e	0.14115736
75	0x3dbc366b	0.09190067
76	0x3dcccb49	0.09999711
77	0x3dfa8808	0.12232977
78	0x3dcc6b41	0.099813946
79	0x3e0989cf	0.13431476
80	0xbe00a8bf	-0.12564372
81	0x3e1a380b	0.15060441
82	0xbe2eb364	-0.1706062
83	0x3dd58fd1	0.104278214
84	0xbd9faa7b	-0.077961884
85	0xbd0faff7	-0.035079923
86	0x3c98fb28	0.018674448
87	0x3de53835	0.11192361
88	0xbdb73369	-0.089453526
89	0xbd115a71	-0.035486642
90	0x3e04582e	0.12924263
91	0x3df24104	0.11828807
92	0xbc6d39a0	-0.014479071
93	0x3dee6205	0.116397895
94	0xbc8a5f76	-0.016891222
95	0x3dd023a4	0.10163048
96	0x3e002d35	0.12517245
97	0xbc6b1e46	-0.0143504795
98	0x3dd431ad	0.103610374
99	0x3e0b07ad	0.13577147
100	0x3e063af3	0.13108425
101	0xbe010f02	-0.12603381
102	0x3e19bc4d	0.15013237
103	0xbcac01fa	-0.020997036
104	0x3ddf002d	0.108887054
105	0xbd6e4d1a	-0.058179
106	0x3dd04719	0.10169811
107	0x3e01a6de	0.12661311
108	0xbd9b3689	-0.07578761
109	0x3e0c0e48	0.13677323
110	0xbd0152fb	-0.031573277
111	0x3e0daeb3	0.13836174
112	0x3dd6c4d6	0.10486762
113	0xbdf13e34	-0.117794424
114	0x3e1458eb	0.14487045
115	0x3de8102b	0.11331209
116	0x3df10234	0.11767998
117	0xbb9ec595	-0.004845331
118	0x3dd340b2	0.10315074
119	0x3ca29f06	0.019851219
120	0x3e0fb153	0.14032488
121	0x3dfc9722	0.12333514
122	0xbb9d2d77	-0.0047966796
123	0x3e00a06f	0.125612
124	0x3d1cdbae	0.03829544
125	0x3e033bfc	0.12815851
126	0x3e13c1ef	0.14429449
127	0x3df93ff9	0.12170405

fc_value.weight f4 [128, 128]
0	0x3e2c7717	0.16842304
1	0xbe0c2224	-0.13684899
2	0x3cec719b	0.028862765
3	0xbf29a85e	-0.6627253
4	0x3da19869	0.07890398
5	0xbd2b0157	-0.041749325
6	0x3ea4dea3	0.32201108
7	0xbdb11b9b	-0.086478435
8	0x3e470c57	0.19438301
9	0x3d34ea44	0.044168726
10	0xbe122bab	-0.1427447
11	0x3d9f3da8	0.07775432
12	0x3ac1be4a	0.0014781442
13	0x3d493c3b	0.049129706
14	0x3e2fb9f8	0.17160785
15	0x3e65735c	0.22407287
16	0xbe68c69a	-0.2273201
17	0x3d894531	0.0670265
18	0x3e4d180e	0.20028707
19	0x3c03f3d2	0.008053737
20	0x3cc62d5e	0.024191555
21	0xbe1343f1	-0.14381386
22	0xbdf86d3a	-0.12130208
23	0x3d0e22a8	0.03470102
24	0xbe290953	-0.16507463
25	0x3e5093ac	0.20368832
26	0xbce8c590	-0.028414518
27	0x3e4fcb00	0.20292282
28	0xbe0b3e8a	-0.13598076
29	0xbf11a6c8	-0.56895113
30	0x3c8d3ea8	0.01724179
31	0xbc016671	-0.007897959
32	0x3e7862c9	0.24256434
33	0xbe8236b8	-0.25432372
34	0xbda26073	-0.079285525
35	0xbe80c876	-0.2515294
36	0x3e88d38b	0.26723894
37	0x3d6a9b0b	0.057276767
38	0x3e3d0cb9	0.18461885
39	0xbeb48426	-0.3525707
40	0xbca9e8e4	-0.020740934
41	0x3e506580	0.20351219
42	0x3d0aa996	0.033853136
43	0x3e39c4f1	0.18141533
44	0x3dd0bd10	0.10192311
45	0xbdfa252a	-0.1221412
46	0xbd3b4bbc	-0.045726523
47	0x3ea5ce06	0.32383746
48	0x3e3b198e	0.18271467
49	0x3d43e2fb	0.047823887
50	0x3df37546	0.118876025
51	0x3d007a98	0.031366915
52	0x3d9ffae6	0.07811527
53	0x3ebc5aa4	0.36787903
54	0x3e775a49	0.24155535
55	0xbe3211c6	-0.17389593
56	0x3da4d72a	0.08048852
57	0xbcd8949f	-0.026438056
58	0x3e262c22	0.16227773
59	0x3e46621b	0.19373362
60	0xbc25d912	-0.010122554
61	0xbea18840	-0.31549263
62	0x3d45c285	0.04828121
63	0x3c569c89	0.013098844
64	0xbdf0a155	-0.11749522
65	0x3d77f98c	0.06054072
66	0x3e305401	0.17219545
67	0xbe592a3f	-0.21207522
68	0x3e7f820c	0.24951953
69	0x3e4bd126	0.19904003
70	0x3e86e6ea	0.26348048
71	0xbe75c039	-0.23999108
72	0xba51f4d3	-0.0008009199
73	0xbd65a87c	-0.056068882
74	0x3e495a38	0.19663322
75	0x3c75b37e	0.014996408
76	0x3e22a949	0.1588489
77	0x3caa7c86	0.02081133
78	0x3e1a6242	0.15076545
79	0x3e8c0082	0.27344137
80	0xbd61d836	-0.055137835
81	0x3e990bbd	0.29891768
82	0x3de96463	0.113961
83	0x3dcc1646	0.09965186
84	0xbe399ca7	-0.18126164
85	0xbe2b96c2	-0.16756728
86	0xbda683b0	-0.08130586
87	0x3e148c40	0.14506626
88	0xbe48e2dc	-0.1961779
89	0xbe202d32	-0.1564224
90	0x3dc3353f	0.0953164
91	0x3cb064a5	0.021532366
92	0xbe0c60e9	-0.13708843
93	0x3e8a1d74	0.26975596
94	0xbe8483b0	-0.2588172
95	0xb9c232fa	-0.00037040544
96	0x3b526ead	0.0032109425
97	0x3e023718	0.12716329
98	0x3de27790	0.11057961
99	0x3e19adba	0.15007678
100	0x3e2608e9	0.16214336
101	0xbf219f0e	-0.63133323
102	0x3e20fcee	0.15721485
103	0xbd70571e	-0.05867683
104	0xbd6a3aac	-0.05718486
105	0xbf05adb3	-0.5221817
106	0x3e832bc6	0.25619334
107	0x3e7f065f	0.24904774
108	0xbf0d8013	-0.5527355
109	0x3e54af57	0.20770012
110	0xbefefe40	-0.49803352
111	0x3e94457d	0.28959265
112	0x3dba4790	0.09095681
113	0xbdfa3baf	-0.12218415
114	0x3e09da42	0.13462165
115	0x3ddaa096	0.106751606
116	0x3c727943	0.014799419
117	0x3db40289	0.08789546
118	0xba8e2467	-0.0010844589
119	0x3e75bbaa	0.2399737
120	0x3e86fa50	0.26362848
121	0x3e1504c5	0.145526
122	0xbb853fa2	-0.0040664235
123	0xbc9084ad	-0.01764139
124	0xbd986282	-0.07440664
125	0x3de4f5e3	0.11179712
126	0x3e717358	0.23579156
127	0x3deb8b1e	0.11501144
128	0xbe526abc	-0.20548528
129	0x3e2d01bc	0.16895193
130	0xbd4be17c	-0.049775586
131	0x3d8ea930	0.06965864
132	0x3e2c9da1	0.16857006
133	0xbda0dd71	-0.078547366
134	0xbdb1d86d	-0.08683858
135	0xbdfa7011	-0.12228406
136	0x3d3567f9	0.04428861
137	0xbecb7d55	-0.39744058
138	0x3dd7f0a9	0.10543949
139	0xbe0054b0	-0.12532306
140	0x3c615e15	0.013755341
141	0xbdf11574	-0.1177167
142	0xbe73a383	-0.23792844
143	0xbee2c95e	-0.44294256
144	0x3c9663bb	0.018358102
145	0xbdc19742	-0.09452678
146	0xbda6bb61	-0.081412084
147	0x3bfd13ef	0.0077233235
148	0x3e081ee6	0.13293037
149	0x3de87ca7	0.113519005
150	0x3dcd7d1b	0.100336276
151	0xbe41af06	-0.18914422
152	0x3db54f7d	0.08853052
153	0xbe134f0b	-0.14385621
154	0x3e5b6086	0.2142354
155	0x3e432724	0.190579
156	0xbda5726f	-0.08078467
157	0x3e48b585	0.19600494
158	0xbeaaf86e	-0.33392662
159	0xbe16bf05	-0.14721306
160	0xbe80a1da	-0.25123483
161	0x3e12fcb4	0.14354211
162	0xbdd6b68c	-0.10484037
163	0x3e4a2a43	0.19742684
164	0xbe8bf0c7	-0.27332136
165	0xbe033a1c	-0.12815136
166	0x3e13a304	0.14417654
167	0x3e3b2c74	0.18278676
168	0xbd249a5e	-0.04018628
169	0x3e1066aa	0.14101663
170	0xbe989662	-0.29802233
171	0x3d5bea18	0.053690046
172	0xbefddc51	-0.4958215
173	0xbcdad5b2	-0.026713226
174	0x3e5a3c60	0.21312094
175	0xbeb81b0c	-0.35958135
176	0xbe9334f8	-0.2875135
177	0xbe066440	-0.1312418
178	0xbdd08024	-0.10180691
179	0x3e118b4d	0.14213295
180	0xbd3f0a36	-0.046640597
181	0xbf5f71f6	-0.87283266
182	0xbf1498db	-0.5804574
183	0xbd04a46c	-0.032383367
184	0xbddc3a28	-0.1075328
185	0xbda84749	-0.082167216
186	0x3da8d40f	0.08243572
187	0x3d4fc3d3	0.050723862
188	0x3c84b06d	0.016197408
189	0xbe19038b	-0.14942758
190	0xbdf276a6	-0.11839037
191	0xbe898219	-0.2685707
192	0x3e573483	0.21016125
193	0x3df40a2e	0.11916004
194	0xbe6995aa	-0.22810999
195	0x3e02ec03	0.12785344
196	0xbddfc777	-0.10926717
197	0x3dea17b4	0.11430302
198	0xbefd1319	-0.49428633
199	0xbda8a6e3	-0.08234956
200	0x3d8cf334	0.06882325
201	0xbdad1d74	-0.08452883
202	0x3e2d8717	0.16946064
203	0xbea685b9	-0.32523897
204	0xbe255459	-0.16145457
205	0x3e2641dd	0.16236062
206	0x3e0cd34e	0.13752481
207	0x3cadf855	0.021236578
208	0x3d52c078	0.051453084
209	0xbe9e856a	-0.30961162
210	0xbe4fcadd	-0.2029223
211	0x3dc01a40	0.09380007
212	0x3e2cdba9	0.16880669
213	0x3e00c4cb	0.1257507
214	0xbdddee94	-0.10836521
215	0xbedb65f4	-0.42851222
216	0xbd335a4c	-0.043787286
217	0x3d8ff89a	0.07029839
218	0xbe0ab292	-0.13544682
219	0xbe93ef1b	-0.2889336
220	0x3c8128c5	0.01576651
221	0xbdc6f8e6	-0.09715442
222	0x3dae1be5	0.08501414
223	0x3dbd4f95	0.09243695
224	0xbec0318f	-0.3753781
225	0xbd9a9b9a	-0.0754921
226	0x3e383d49	0.17992128
227	0xbe0f8151	-0.14014174
228	0xbe8593aa	-0.2608922
229	0x3e2c7bb6	0.16844067
230	0xbe304aa9	-0.1721598
231	0x3e96fd2b	0.29490027
232	0xbcd771fd	-0.026299471
233	0x3e924b2f	0.28572986
234	0xbdb0429f	-0.08606457
235	0xbe4a2134	-0.19739228
236	0x3db98527	0.090586
237	0x3c8624c4	0.016374953
238	0x3da687c4	0.08131364
239	0xbf12d4ac	-0.5735576
240	0x3e364385	0.17799194
241	0x3de97a30	0.114002585
242	0xbea859e3	-0.32881078
243	0x3c475df0	0.012168393
244	0xbd1419e9	-0.036157522
245	0xbe09fbbd	-0.13474937
246	0x3e4b1dbe	0.19835564
247	0xbdaa1f81	-0.0830679
248	0xbe897fbd	-0.2685527
249	0x3e0d2551	0.13783766
250	0xbb442fc2	-0.0029935692
251	0x3e28cd17	0.16484486
252	0x3e4ed5ae	0.201987
253	0x3e39fdea	0.18163267
254	0xbeed0916	-0.46295995
255	0x3caa37d5	0.020778576

fc_value.bias f4 [128]
0	0x3dd7d358	0.105383575
1	0xbb60e34c	-0.0034315167
2	0x3cdd6078	0.027023539
3	0xbbab9b4c	-0.0052370187
4	0xbc6ecac1	-0.0145747075
5	0xbbfc1dd4	-0.0076939855
6	0x3df192ea	0.117956
7	0x3d642add	0.05570494
8	0x3d519bc3	0.051173937
9	0x3ddf75c2	0.109111324
10	0xbc13f024	-0.009029422
11	0x3dd4974b	0.10380419
12	0xbcb2772d	-0.021785343
13	0x3df9e7da	0.12202425
14	0x00000000	0.0
15	0x00000000	0.0
16	0xbc145721	-0.009053976
17	0x3dcc67f2	0.099807635
18	0x3d70061d	0.05859958
19	0xbc8490d3	-0.016182339
20	0x3dc7a651	0.09748519
21	0x3dc7ff73	0.0976552
22	0x3dcdd357	0.100500755
23	0xbb961030	-0.0045795664
24	0xbd139564	-0.036031142
25	0x3dbe2621	0.09284616
26	0x3e011bc5	0.1260825
27	0x3e1509be	0.14554498
28	0x3dc613cb	0.09671744
29	0x3deefe69	0.11669619
30	0xbb80f1ec	-0.0039350893
31	0x3de26e88	0.110562384
32	0x3dc5d4f6	0.0965976
33	0xbbf7a29d	-0.007557227
34	0x3d43d549	0.047810826
35	0x3de6a15a	0.11261244
36	0x3dd4ee92	0.10397066
37	0x3dcb09c5	0.09913973
38	0xbd393a25	-0.045221467
39	0x3dc86f26	0.09786825
40	0xbc1fe339	-0.009758764
41	0xbc0a9a64	-0.008459661
42	0xbd8e7849	-0.06956536
43	0xbbf9598a	-0.007609551
44	0xbc9a0d08	-0.018805042
45	0x3dee1763	0.116255544
46	0x3dc9615b	0.09833022
47	0xbb511125	-0.0031901088
48	0x3c8d3363	0.017236417
49	0x3deadf15	0.11468331
50	0xbbb7a0b9	-0.0056038764
51	0xbd527b47	-0.051387098
52	0x3c8fd567	0.017557813
53	0x3dceec50	0.10103667
54	0x3c8cfa32	0.017209146
55	0x3ddca0ed	0.10772882
56	0x3e0c2839	0.13687219
57	0x3df206ac	0.11817679
58	0xbc768696	-0.015046736
59	0x3d6a8456	0.05725511
60	0xbcc28ace	-0.023747828
61	0x3de7a52f	0.11310803
62	0x3cdc7141	0.026909472
63	0x3dd00b0b	0.10158356
64	0x3c8c735c	0.017144851
65	0x3dd5bfc4	0.10436967
66	0xbbdac625	-0.0066764527
67	0xbbfb0675	-0.007660682
68	0x3dd5e199	0.1044342
69	0xbbc1a94b	-0.005910074
70	0x3d913238	0.070896566
71	0x3dce8bff	0.10085296
72	0x3dbc8cc5	0.09206537
73	0x3c3f672a	0.011682311
74	0x3df406fe	0.11915396
75	0xba686bda	-0.0008866169
76	0x3df3ec2a	0.11910279
77	0x3d9db30a	0.077001646
78	0x3df01e98	0.11724585
79	0x3dc7ddf9	0.09759135
80	0x3de38bd4	0.111106545
81	0x3dd7effe	0.10543822
82	0x3defd9a9	0.11711437
83	0xbc5b3bcc	-0.013380956
84	0x3c9d8698	0.019229218
85	0xbb8532ac	-0.0040648784
86	0x3d9d1553	0.07670083
87	0x3dc623d4	0.096748024
88	0x3dd1e4fe	0.10248755
89	0xbd11831e	-0.035525434
90	0xbcf9689e	-0.030445393
91	0x3dcae3c7	0.09906726
92	0xbd2b28f5	-0.041787107
93	0x3dac9fad	0.08428893
94	0x3dd8a363	0.105780385
95	0x3dcb3e4b	0.09923991
96	0x3d607581	0.05479956
97	0x3c52d161	0.012867303
98	0x3dd25d41	0.10271693
99	0x3dd17b8c	0.10228643
100	0xbc07a359	-0.008278691
101	0x3de190d9	0.110139556
102	0xbb9817ef	-0.004641525
103	0x3dc0783a	0.093979314
104	0x3dd3c9ab	0.103411995
105	0x3de74e93	0.11294284
106	0x3dc91d9b	0.098201
107	0x3ddce472	0.1078576
108	0xbc0a0cd8	-0.008425914
109	0x3d4126ef	0.04715627
110	0x3b0a14ba	0.0021069483
111	0x3dc764e0	0.09736037
112	0x3e022099	0.12707748
113	0xbd161c0c	-0.03664784
114	0x3de50c71	0.11184014
115	0x3df9eed1	0.12203754
116	0x3df48eea	0.11941321
117	0x3ddc166d	0.10746465
118	0x3de9e15c	0.11419937
119	0xbca5d68d	-0.020243907
120	0x3dced4d8	0.100991905
121	0x3d40a8c0	0.047035933
122	0x3e04926b	0.12946479
123	0x3d4fbbf2	0.050716348
124	0xbcbca764	-0.023029037
125	0xbc228fee	-0.009922011
126	0x3dca3755	0.09873835
127	0xbbf1788f	-0.007369108

value.weight f4 [1, 128]
0	0x3e87503d	0.26428404
1	0xbf09c1b9	-0.5381122
2	0xbef1e9fe	-0.47248834
3	0xbd2cf6f5	-0.042227704
4	0xbe9c88f8	-0.3057325
5	0xbda5e74b	-0.08100756
6	0x3e94f62f	0.29094073
7	0xbee4b73b	-0.44671044
8	0xbeac3b7c	-0.33639133
9	0x3e84d45f	0.25943276
10	0xbdfb859a	-0.12281342
11	0x3ebb8824	0.36627305
12	0xbe3ac5b5	-0.18239482
13	0x3e7e4bc4	0.2483359
14	0x3e062af8	0.13102329
15	0xbb8a391c	-0.0042182337
16	0xbdab945f	-0.08377909
17	0x3e6182bd	0.22022529
18	0xbef33fdc	-0.47509658
19	0xbe3df5b9	-0.18550767
20	0x3e5f6116	0.21814379
21	0x3e8aa45f	0.2707853
22	0x3e58be48	0.21166337
23	0xbe230e83	-0.15923505
24	0xbe87da32	-0.26533657
25	0x3ea3484e	0.31891102
26	0x3eb549a8	0.35407758
27	0x3ea5e63d	0.3240222
28	0x3e8af288	0.27138162
29	0x3e685bc7	0.2269126
30	0xbe2c9427	-0.1685339
31	0x3e88fc6e	0.2675509
32	0x3e95f6da	0.29289895
33	0xbe0ee936	-0.1395615
34	0xbef70338	-0.48244643
35	0x3e0d8138	0.13818824
36	0x3ea80071	0.32812837
37	0x3e6458cf	0.22299503
38	0xbe567cc7	-0.20946036
39	0x3e532d33	0.20622711
40	0xbd5c758d	-0.053823043
41	0xbe811e2e	-0.25218338
42	0xbf01c2aa	-0.5068766
43	0xbee6509a	-0.4498337
44	0xbe767e70	-0.2407167
45	0x3e0e0b23	0.13871436
46	0x3e833552	0.25626618
47	0xbe008367	-0.12550126
48	0x3f76511f	0.9621753
49	0x3e6de512	0.23231915
50	0xbc5f309a	-0.013622427
51	0xbea42c0b	-0.32064852
52	0xbf09a89b	-0.53772897
53	0x3e52c622	0.20583394
54	0xbef0a9bb	-0.47004494
55	0x3ebd945f	0.3702726
56	0x3e8c94b5	0.27457204
57	0x3eb63dc6	0.35594004
58	0x3e53ae8b	0.20672052
59	0xbee9c957	-0.45661423
60	0xbe9ce651	-0.30644467
61	0x3def566e	0.11686407
62	0xbea2f79e	-0.31829542
63	0x3e56aef4	0.20965177
64	0xbf13fec4	-0.57810616
65	0x3e29bffe	0.16577145
66	0xbce167bd	-0.027515287
67	0xbd48c31b	-0.049014192
68	0x3e93209c	0.28735816
69	0xbe25c83b	-0.16189663
70	0xbf127abe	-0.5721854
71	0x3ea04000	0.31298828
72	0x3ea08937	0.31354687
73	0xbe7d3e88	-0.24730885
74	0x3ecbb62d	0.39787427
75	0xbe7a4082	-0.2443867
76	0x3ea31351	0.31850675
77	0xbef36dee	-0.47544807
78	0x3e73cee9	0.23809399
79	0x3e92541b	0.28579792
80	0x3ec3214d	0.38111344
81	0x3e5629d1	0.20914389
82	0x3ea4b0cd	0.32166138
83	0xbd2f4fad	-0.042800594
84	0xbeb132b3	-0.34608993
85	0xbe481c7d	-0.19542117
86	0x3ea8f7f2	0.33001667
87	0x3e908046	0.28222865
88	0x3e447ede	0.19189021
89	0xbf204ce4	-0.62617326
90	0xbed400c8	-0.41406846
91	0x3e7cdc63	0.24693446
92	0xbe200241	-0.1562586
93	0xbf053e75	-0.52048427
94	0x3e51d3b5	0.20490916
95	0x3e54658e	0.20741865
96	0xbf01c306	-0.5068821
97	0xbe4b48ab	-0.1985194
98	0x3eb969f0	0.36213636
99	0x3e1eeb43	0.15519433
100	0xbe8bd956	-0.27314252
101	0x3eab111b	0.33411488
102	0xbe4a5244	-0.19757944
103	0x3e490a76	0.19632897
104	0x3e3d9163	0.18512492
105	0x3e2bc82e	0.16775581
106	0x3eae26e9	0.3401406
107	0x3e6505c4	0.2236548
108	0xbe08f34b	-0.13374059
109	0xbe8b0b4c	-0.27157056
110	0xbeb1987a	-0.34686643
111	0x3e98002e	0.29687637
112	0x3e9913de	0.2989797
113	0xbf14a480	-0.5806351
114	0x3e525b06	0.20542535
115	0x3e0fa38f	0.14027236
116	0x3e87dfe6	0.26538008
117	0x3e510157	0.20410667
118	0x3e941c67	0.2892792
119	0xbf21d490	-0.6321497
120	0x3e44c528	0.19215834
121	0xbeb54a87	-0.35408422
122	0x3ed2064a	0.41020423
123	0xbeeaf42c	-0.45889413
124	0xbe8968a3	-0.26837644
125	0xbe0f4010	-0.13989282
126	0x3e76071d	0.24026151
127	0xbc479d04	-0.012183432

fc_adv.weight f4 [128, 128]
0	0x3dd07d1b	0.10180112
1	0xbe07febb	-0.13280766
2	0x3d2f8ff4	0.042861894
3	0xbd658625	-0.056036133
4	0x3c9b5b9b	0.01896458
5	0x3daab66a	0.08335574
6	0x3d966238	0.073429525
7	0xbe1246ba	-0.14284793
8	0xbcdb4b07	-0.026769174
9	0x3d6a2e47	0.05717304
10	0xbe1ee50d	-0.15517063
11	0xbdf295b9	-0.118449636
12	0xbe1e933c	-0.15485853
13	0x3c5e2b59	0.01356014
14	0x3c747606	0.014920717
15	0xbd924644	-0.07142308
16	0x3d71b932	0.059014507
17	0x3c8eb15b	0.017418554
18	0x3d7266d9	0.059180114
19	0x3e03fd70	0.12889647
20	0xbde094f6	-0.10965912
21	0xbdf6ea78	-0.1205644
22	0x3e18a8fb	0.14908211
23	0xbdadd698	-0.08488196
24	0x3ddd0c3a	0.10793348
25	0xbd4fb0d2	-0.05070574
26	0xbd169e07	-0.0367718
27	0xbd8c3f03	-0.06847956
28	0x3d3fc15f	0.046815272
29	0xbc2dd04b	-0.010608743
30	0x3dc94369	0.098273106
31	0xbe29a250	-0.16565824
32	0xbd1b5183	-0.037919533
33	0x3cb3ff7a	0.021972407
34	0x3d32752c	0.043568775
35	0x3df46292	0.11932863
36	0x3cf7f925	0.030270169
37	0xbe0cc4e6	-0.13746986
38	0x3c897261	0.016778173
39	0xbd87b4dd	-0.06626294
40	0x3db7aa8a	0.089680746
41	0xbd9062e5	-0.07050113
42	0xbd3843bf	-0.044986483
43	0x3d0f6413	0.035007548
44	0x3db06adf	0.08614134
45	0xbd966754	-0.07343927
46	0x3de8c3d0	0.11365473
47	0xbe0ca823	-0.13736014
48	0xbd765736	-0.060141765
49	0xbdc5e296	-0.096623585
50	0x3ce57282	0.028008703
51	0xbdff89fd	-0.12477491
52	0xbd1a61b4	-0.037690833
53	0xbdfdac95	-0.12386433
54	0x3da7c94c	0.08192691
55	0xbe0cbfce	-0.13745043
56	0xbd7eb6ff	-0.062186237
57	0xbe0aa420	-0.13539171
58	0xbdcf68b6	-0.10127394
59	0x3a9b7f43	0.0011863488
60	0x3d85b2ea	0.06528266
61	0x3d99e17e	0.07513712
62	0xbdfde986	-0.12398057
63	0xbd5f1739	-0.054465506
64	0xbd071da8	-0.032987267
65	0x3d730203	0.05932809
66	0xbc68bdc5	-0.014205401
67	0xbc8b4fdf	-0.017005859
68	0xbdd3e6a9	-0.10346729
69	0xbdf32c80	-0.11873722
70	0xbd168fbc	-0.03675817
71	0x3d93aa3b	0.07210203
72	0xbdae67d8	-0.085159004
73	0x3d059712	0.032614775
74	0x3d918c45	0.071068324
75	0xbd600238	-0.054689616
76	0x3e0e2b79	0.13883771
77	0x3e08492b	0.13309161
78	0x3db55d1f	0.08855652
79	0x3d528eee	0.05140584
80	0xbdf67855	-0.1203467
81	0x3d51146c	0.051044866
82	0xbc95e1be	-0.018296119
83	0x3de020ae	0.10943733
84	0xbdf88ee5	-0.1213663
85	0xbc063830	-0.008192107
86	0x3e0dd0a1	0.13849117
87	0xbb985b6d	-0.0046495707
88	0x3d4cef63	0.050032984
89	0xbb503387	-0.0031768994
90	0xbdb4a90a	-0.08821304
91	0x3d726c62	0.059185393
92	0x3decc952	0.11561836
93	0x3da0c3fe	0.078498825
94	0xbdca855f	-0.0988872
95	0xbdd2f84b	-0.103012644
96	0x3e107e8f	0.14110778
97	0xbc9d6d09	-0.019217031
98	0x3d7cdb3f	0.061732527
99	0x3cef89d0	0.029240519
100	0xbdca0dfc	-0.098659486
101	0x3e0bbdd3	0.13646631
102	0x3c3db1dc	0.0115780495
103	0xbd8c47b2	-0.06849612
104	0x3e0ee24c	0.13953513
105	0x3d8a22e3	0.06744935
106	0x3cfe0250	0.031006962
107	0xbe050329	-0.12989487
108	0x3e0eb308	0.13935483
109	0xbdaf1186	-0.08548264
110	0xbd404bd1	-0.046947304
111	0xbe399847	-0.18124495
112	0x3d16a1b8	0.03677532
113	0xbdb1ec18	-0.086876094
114	0xbe1cb8a3	-0.15304808
115	0x3dd0817c	0.10180947
116	0xbe16d907	-0.14731227
117	0xbd083bdf	-0.033260223
118	0xbd7cd0ae	-0.06172245
119	0x3c283e2e	0.010268731
120	0x3bc2735d	0.0059341625
121	0x3e0538de	0.13009974
122	0x3d43e70f	0.047827777
123	0xbd6685d3	-0.05627997
124	0xbdbdec0e	-0.092735395
125	0xbd2a1ab9	-0.04152939
126	0x3d6c4552	0.057683297
127	0xbe198639	-0.14992608
128	0xbf541cc0	-0.8285637
129	0xbbf85a02	-0.007579089
130	0xbdbf9782	-0.0935507
131	0x3efc18bc	0.4923762
132	0x3e4468b9	0.19180574
133	0xbe2a7c2f	-0.16648935
134	0xbe6e09e3	-0.23245959
135	0xbdc0354e	-0.09385167
136	0x3d99be26	0.07506971
137	0xbf22951c	-0.6350877
138	0x3e47412b	0.19458453
139	0x3ccc5d85	0.024946937
140	0x3aefc073	0.0018291607
141	0x3d51b87f	0.05120134
142	0xbf509f16	-0.81492746
143	0xbf5fe9e2	-0.8746625
144	0x3ec0430e	0.3755116
145	0x3aa5b8f4	0.0012643621
146	0xbebd6e8e	-0.3699841
147	0xbd08548f	-0.033283766
148	0xbd1f9c00	-0.038967133
149	0x3eb2842d	0.34866467
150	0x3b32405e	0.002719901
151	0xbf2ac300	-0.66703796
152	0xbd706f34	-0.0586998
153	0x3d780240	0.06054902
154	0x3e3ba83c	0.18325895
155	0xbd83d581	-0.06437207
156	0xbdb16c73	-0.08663263
157	0x3ef8492d	0.4849333
158	0xbf72203d	-0.9458044
159	0xbe5595b6	-0.20857891
160	0xbf352965	-0.7076629
161	0x3e16efab	0.14739864
162	0x3e1beb00	0.15226364
163	0x3dc1061e	0.09424995
164	0xbf5e3b2a	-0.8680903
165	0x3e199765	0.14999159
166	0x3c94aba5	0.018148253
167	0x3ea201b6	0.3164193
168	0xbeb4bb84	-0.35299313
169	0x3e0ba1c0	0.13635921
170	0xbee05713	-0.43816432
171	0xbdaec363	-0.08533361
172	0xbf640954	-0.89076734
173	0x3e07860e	0.13234732
174	0xbdf9d251	-0.12198318
175	0xbf3804c0	-0.7188225
176	0xbf48cc0b	-0.78436345
177	0x3d9cea26	0.07661848
178	0x3d8fbc8b	0.070183836
179	0xbe64508c	-0.22296351
180	0xbdcea572	-0.1009015
181	0xbf3e4fd2	-0.74340546
182	0xbf423eee	-0.75877273
183	0x3e452876	0.19253716
184	0x3d6a42e8	0.057192713
185	0xbd61fb82	-0.055171497
186	0x3d79054e	0.060796075
187	0xbf18b8b6	-0.59656847
188	0x3e5de53c	0.21669477
189	0xbdeb6685	-0.114941634
190	0xbbf448d4	-0.007454971
191	0xbf033365	-0.51250297
192	0x3ea06bc7	0.31332228
193	0xbce891bc	-0.028389804
194	0xbd836b5e	-0.06416963
195	0xbe1181bd	-0.14209647
196	0x3e181c5b	0.14854567
197	0x3d37c466	0.044865035
198	0xbf63013d	-0.88673764
199	0xbdfbe9d3	-0.12300458
200	0xbdbeca45	-0.093159236
201	0x3df725b1	0.12067736
202	0x3d1b4095	0.037903387
203	0xbe958383	-0.29201898
204	0xbeccda23	-0.40010175
205	0xbd19dc6c	-0.037563726
206	0x3b85a6a2	0.004078702
207	0xbe81abe7	-0.25326464
208	0x3dd63bed	0.10460649
209	0xbf361c5a	-0.7113701
210	0xbdf4e735	-0.11958162
211	0x3e607c7d	0.21922489
212	0x3e8465b0	0.2585883
213	0xbe3f73da	-0.18696538
214	0x3d0dfaef	0.034663137
215	0xbf545dc4	-0.82955575
216	0xbc654084	-0.0139924325
217	0x3e56a566	0.20961532
218	0xbf55ed82	-0.83565533
219	0xbf17f813	-0.59362906
220	0x3dd333c9	0.103126116
221	0x3e227136	0.15863499
222	0xbe77df28	-0.24206221
223	0x3cce829c	0.025208764
224	0xbf423179	-0.7585674
225	0x3b962267	0.004581738
226	0x3cb539fe	0.02212238
227	0xbf60632f	-0.8765134
228	0xbca6a43b	-0.020341983
229	0x3eed8754	0.4639231
230	0xbf13665d	-0.5757807
231	0x3d9678c4	0.07347253
232	0xbd64397a	-0.055718876
233	0x3ec9ee48	0.39439607
234	0x3e0c1cef	0.13682912
235	0xbea05e36	-0.31321877
236	0x3ee09ab0	0.43868017
237	0xbd9b581f	-0.07585167
238	0x3e467ad7	0.19382797
239	0xbf8214fb	-1.0162653
240	0x3cb53be5	0.022123287
241	0xbdbc2e30	-0.09188497
242	0xbf635158	-0.88795996
243	0x3da9efe7	0.08297711
244	0xbe29d545	-0.16585262
245	0x3dbc0ced	0.09182153
246	0x3e1d840a	0.153824
247	0xbd688b2d	-0.056773353
248	0xbf7dfce5	-0.9921401
249	0x3e6b45c3	0.2297583
250	0xbc1da227	-0.00962118
251	0x3d38e8f6	0.045144044
252	0x3e98eaac	0.2986654
253	0xbdb17b58	-0.08666104
254	0xbf80f66e	-1.0075204
255	0x3dfe9b8c	0.12432012

fc_adv.bias f4 [128]
0	0xbc0def3b	-0.008662994
1	0x3d5268f6	0.05136963
2	0x3d6ec107	0.058289554
3	0x3d69b7b9	0.057059977
4	0x3b34e94a	0.0027604871
5	0x3d1000c0	0.035156965
6	0x3d44c6a6	0.04804101
7	0x3c62532c	0.013813775
8	0x3bef5232	0.0073034996
9	0xbd5e8b54	-0.054332092
10	0xbba034ff	-0.00488913
11	0xbd042b16	-0.032267652
12	0xbcb6b922	-0.022305075
13	0x3d23c9ec	0.03998749
14	0xbb69ce94	-0.0035676109
15	0x3b6a7d46	0.0035780235
16	0xbc937466	-0.017999839
17	0xbb0fe3f8	-0.0021955948
18	0x3bcb7c80	0.00620991
19	0xbc2f7c71	-0.0107108215
20	0xbb63b4e9	-0.0034745282
21	0xbc8a4792	-0.01687983
22	0x3c4b7725	0.012418543
23	0x3b8e091a	0.004334581
24	0xbcb4ecd0	-0.022085577
25	0x3d006207	0.031343486
26	0x3d5177df	0.05113971
27	0x3ca50ce6	0.020147752
28	0x3cf5c869	0.03000279
29	0x3d7f6220	0.06234944
30	0xbc022807	-0.007944114
31	0x3d601ec7	0.05471685
32	0x3d06525c	0.032793388
33	0xbc090f1e	-0.008365421
34	0x3c3e96db	0.011632646
35	0x3d3601a9	0.044435177
36	0x3d557b22	0.05211938
37	0xbb05d259	-0.0020419566
38	0x3bc7ca35	0.006097103
39	0x3d5053df	0.050861236
40	0x3c649a23	0.013952765
41	0x3bfa40de	0.0076371273
42	0xbd060d93	-0.03272779
43	0x3d60e895	0.054909308
44	0x3cfd3371	0.030908318
45	0x3ca36974	0.019947745
46	0x3d4b6184	0.049653545
47	0x3cb4fa57	0.022092028
48	0x3c645005	0.013935094
49	0x3ce563cc	0.028001688
50	0xbb844d95	-0.004037569
51	0x3c97391f	0.018459855
52	0x3c533f57	0.012893519
53	0xbbbc78d8	-0.0057517104
54	0x3d737e75	0.05944677
55	0x3d068efb	0.0328512
56	0x3ca349ec	0.01993271
57	0x3cbdc629	0.02316578
58	0xbaf20131	-0.001846349
59	0x3d4d8dce	0.050184064
60	0xbc9053dd	-0.017618114
61	0x3c52e147	0.012871093
62	0x3ccee1cf	0.025254158
63	0xbc96a1c4	-0.018387683
64	0xbca4777b	-0.020076504
65	0x3d0d66c5	0.034521837
66	0xbd3918a2	-0.045189507
67	0x3d60543f	0.054767843
68	0xbb20041e	-0.0024416517
69	0x3d0ddc5d	0.034633983
70	0x3c7bb3ce	0.015362693
71	0x3a5497de	0.0008109788
72	0x3d856b0a	0.06514557
73	0xbba396f0	-0.0049923584
74	0x3ca822f2	0.020524476
75	0x3cb9e8d2	0.022694025
76	0x3ac0d38c	0.0014711483
77	0x3d715ad8	0.058924526
78	0x3b853878	0.0040655695
79	0xbd31c726	-0.043402813
80	0x00000000	0.0
81	0x3bd17b01	0.006392837
82	0x3d7820da	0.060578205
83	0x3d7343f3	0.059390973
84	0x3cfc6ca2	0.030813519
85	0x3d2e75eb	0.042592924
86	0xbc4e1d6d	-0.012580258
87	0x3c0653e5	0.008198713
88	0x3d4dd363	0.050250422
89	0x3cec9f5c	0.028884582
90	0x3c8abb9d	0.016935164
91	0xbc80f1ca	-0.015740294
92	0xbc8b64a0	-0.017015755
93	0xbcccd34a	-0.025003094
94	0xbb3f359f	-0.0029176248
95	0x3d55f1b4	0.05223246
96	0x3d3284f3	0.04358382
97	0xbb309f86	-0.0026950552
98	0x3acf639c	0.0015822533
99	0x00000000	0.0
100	0xbc418eab	-0.0118138
101	0xbbdfe7a1	-0.0068330322
102	0x3ba53710	0.0050419644
103	0x3c8793ae	0.016549911
104	0x3c861a85	0.016370067
105	0x3c0d0c38	0.00860887
106	0xbbfc68be	-0.007702916
107	0x3b5056cd	0.0031790019
108	0x3d26f660	0.040762305
109	0xbbafc10d	-0.0053635896
110	0x00000000	0.0
111	0x3c03eadf	0.008051603
112	0xbca4a0f6	-0.020096283
113	0xbcd7da0e	-0.026349094
114	0xbc99af56	-0.018760365
115	0x3cb2c47d	0.021822209
116	0x3d549374	0.051898435
117	0x3d0fcaf4	0.03510566
118	0x3d82a533	0.063791655
119	0x3da1db2d	0.079031326
120	0x3c97e684	0.018542536
121	0xbae5ce22	-0.0017532746
122	0x00000000	0.0
123	0x3d683612	0.05669219
124	0xbc0b20ea	-0.008491734
125	0xbca13aae	-0.019681301
126	0x3d808d07	0.06276899
127	0x3d88f3f4	0.06687155
