Project/output/old/ddqn_duel/best_model.pth (torch, 292523 bytes, 36 tensors)

feature.0.weight f4 [128, 4]
000000 26 40 c9 bd c0 c2 9b 3e 14 08 a9 3e fe 3f 4a bd
       -0.098266885 0.3042202 0.33013976 -0.049377434
000010 17 c3 f9 3d 83 02 fc bd 36 db b0 be 86 dd 81 3d
       0.121954136 -0.123051666 -0.34542245 0.0634108
000020 86 29 4d 3e aa 45 1b 3e 26 6e 7e be 18 0e 72 3e
       0.20035371 0.15163293 -0.24846706 0.23638189
000030 63 63 ea bd e6 00 44 bd d7 cc 00 3f 7d 42 04 3c
       -0.11444738 -0.04785242 0.5031256 0.008072493
000040 26 40 89 be 9f 66 0e be 40 cf b7 3e b4 e3 3d be
       -0.26806754 -0.13906334 0.35900307 -0.18543893
000050 c9 69 bd bc 7b 65 90 3b f1 f4 71 bd 63 32 a7 bd
       -0.023121731 0.0044066287 -0.059071485 -0.081639074
000060 7e fb 49 3e a9 a6 66 be c9 0a 75 be 59 7d 5c bd
       0.19724843 -0.22524513 -0.23929895 -0.05383048
000070 08 95 18 3e 3d 1e 23 3e 91 b3 0b 3d 6f e0 6c 3d
       0.14900601 0.15929504 0.034106795 0.057831224
000080 e8 d4 96 3e 3e 61 81 3d f0 1b 09 bd a4 80 c5 3c
       0.2945931 0.063173756 -0.03347391 0.024109192
000090 7a a3 57 3e 0b 12 61 3e 37 43 1c 3c 5e 51 5b 3d
       0.21058455 0.21979539 0.00953751 0.053544395
0000a0 a8 2e 98 3b b9 6e 6e 3d ad 53 fd 3d c2 f2 8b 3d
       0.0046442337 0.058211062 0.123694755 0.06833412
0000b0 76 c3 d8 bc 35 d4 c3 bd d3 b4 a5 bd 46 0c 64 3e
       -0.02646039 -0.0956196 -0.0809113 0.22270307
0000c0 fa 4c ff bd 20 a0 da 3d 45 a1 b6 be a7 05 6b bd
       -0.12465854 0.10675073 -0.35669914 -0.057378437
0000d0 f2 a6 b0 bd fb ce 66 be f4 d0 d9 bc 26 b1 07 be
       -0.08625592 -0.22539894 -0.026588894 -0.1325117
0000e0 31 ec c9 3d d1 8c af bd 70 f7 56 3e 96 2e 2b be
       0.09859503 -0.085717805 0.20992827 -0.1671699
0000f0 a1 2c b2 3e b1 9a 8f bd d8 25 85 bb 44 67 e6 bd
       0.34799674 -0.07011927 -0.004063349 -0.11250165
000100 fe b4 06 3e 6d ae 98 3d 5b bc 00 bf f7 ce 44 be
       0.1315498 0.07455144 -0.5028741 -0.19219576
000110 b7 62 85 be 62 12 1e 3c 03 b0 12 be bf 3e 4c 3e
       -0.26051876 0.0096479375 -0.14324956 0.1994581
000120 87 25 7c bd b9 92 9b 3d 90 49 d8 be fd fe 57 3c
       -0.061559226 0.075963445 -0.42243624 0.013183353
000130 d8 a0 4b 3e 9e 1f 09 bd b5 36 f9 be 4a 16 1c 3d
       0.19885576 -0.033477418 -0.4867455 0.038107194
000140 49 f6 8c bd 91 32 36 3d 33 33 01 bf 2a 6a c1 bd
       -0.06882913 0.044481818 -0.5046875 -0.09444077
000150 d6 ab b8 bc a0 e4 99 bb cf 55 07 3d b6 b8 4d b9
       -0.022542875 -0.0046964437 0.033040818 -0.00019619134
000160 f8 eb 85 bd 5b 6b 54 3c da 89 fb 3d e1 1e 01 be
       -0.06539148 0.012965049 0.122821525 -0.12609436
000170 78 24 b1 3d 27 9b 11 3e 98 8a 00 3f b2 d9 35 bd
       0.08649534 0.14219342 0.5021148 -0.044397064
000180 6b a6 70 3c 82 bf 7f 3d a5 da 02 3c a5 bb 4f 3d
       0.014688115 0.062438495 0.007986699 0.05071606
000190 bb 08 c6 bd 51 b9 fc 3d 00 42 06 be 11 31 b7 3d
       -0.09669634 0.12340034 -0.13111115 0.089449055
0001a0 fb 36 a8 be 45 29 42 3d cf b9 be 3d df 43 54 3d
       -0.32854447 0.04740264 0.09312784 0.05182254
0001b0 5d f3 44 be b4 61 5d 3e 35 00 63 3e ad 91 00 bd
       -0.1923346 0.21619302 0.22168048 -0.031388927
0001c0 9b 0b 72 3e e6 34 fc bc c2 06 19 bf 88 ef ee bd
       0.2363724 -0.030786943 -0.59775937 -0.11666781
0001d0 40 12 16 be 0a b6 2a 3d 5a 79 83 3e 3d 71 03 bd
       -0.146554 0.041677512 0.2567852 -0.032090414
0001e0 e8 98 2a 3e f5 c1 50 3d a0 bd d2 3d aa 52 de 3d
       0.16659892 0.05096622 0.10290074 0.10855611
0001f0 91 d1 a1 bd 73 ae 29 3e 75 d6 14 3f 32 d3 ec 3b
       -0.079013 0.16570453 0.58139735 0.007227325
000200 6d 21 b2 bd d4 08 a0 3d 69 2b 47 3d 4f 92 4e 3e
       -0.08697782 0.07814184 0.048625384 0.20173
000210 c2 df cd bd 81 22 26 bd 4b ab 1b 3d fb 78 8a be
       -0.10052444 -0.04056025 0.038005155 -0.27045426
000220 12 99 72 3e 65 70 c8 be 01 db f8 3e fc 5a 39 3e
       0.23691204 -0.3914825 0.48604587 0.18101114
000230 77 66 83 be ad 9b 99 bb 53 b8 af 3e ab ef 28 be
       -0.25664112 -0.0046877475 0.34320316 -0.16497676
000240 cf e1 ed 3d af 3a 99 bd 77 81 7a be 15 85 e0 bb
       0.11615335 -0.07481896 -0.2446345 -0.006851802
000250 23 3c 8b 3d 15 61 18 be d1 93 9e bd 3d ee b5 bd
       0.067985795 -0.14880784 -0.077430375 -0.08883331
000260 b8 c9 97 bd 1a 2d 5b 3d a5 17 15 bd 49 96 37 bd
       -0.07411522 0.05350981 -0.036399502 -0.044821057
000270 c3 ce 50 3d 00 10 e9 3c ae 32 00 3f 55 2d 1a 3e
       0.050978433 0.028450012 0.5007733 0.15056355
000280 5c a9 66 be 73 2e b8 bd 60 27 b3 be 2f 91 ba bd
       -0.22525543 -0.089932345 -0.34990978 -0.09109723
000290 72 83 31 be 8d 82 99 3d e5 b5 11 be 6c 72 6a be
       -0.17335299 0.07495604 -0.14229544 -0.22895211
0002a0 27 e1 59 bd 9a 0d 32 3e 95 e2 25 3f 2d af 8e 3e
       -0.053193238 0.17388001 0.6479886 0.27868024
0002b0 db bd b3 3b 4f 72 b5 bd 06 eb 9a be a1 49 55 be
       0.005485279 -0.08859693 -0.30257434 -0.20828868
0002c0 e6 27 7d 3e 69 5b 68 be 5b fb 1c bf 51 fc 88 3d
       0.24722251 -0.2269112 -0.6132104 0.066887505
0002d0 6d 30 4a 3e e7 9f 93 3e 15 8f e0 bd 3a 42 2b bd
       0.19745035 0.28832933 -0.10964791 -0.041811205
0002e0 81 dc 80 3d 6c ba a1 bc 02 91 06 bf 94 9d a5 3b
       0.06292058 -0.019742213 -0.52565014 0.005054185
0002f0 6e 7f fd 3c 8a f7 89 3e b6 4a e7 be 7c 2b 07 be
       0.030944552 0.2694667 -0.45174187 -0.13200182
000300 10 5c eb 3d e1 ce 15 bd 51 aa b2 3e 17 6c 4c 3d
       0.11492169 -0.03657425 0.34895566 0.04990777
000310 92 88 b8 bc 28 77 a6 3b 8c a6 5e 3f 56 0d a0 3d
       -0.02252606 0.0050801225 0.8697288 0.07815044
000320 6b 4d c6 3d b3 fe e8 bd 02 dc 86 be 73 86 1a bb
       0.09682735 -0.11376705 -0.26339728 -0.0023578673
000330 9d 65 e3 bd a2 97 85 be 6a df 85 be 5e ac 4c bd
       -0.111033656 -0.2609225 -0.26147014 -0.04996907
000340 d7 5f 30 be e3 dc 27 be 29 6a 24 3e 4e 9a f1 bc
       -0.1722406 -0.16392855 0.16056122 -0.029492524
000350 b2 ec a2 bd 45 40 18 be 7f 7f 07 bf 47 8f d8 3c
       -0.07955302 -0.14868267 -0.5292892 0.026435507
000360 23 a9 24 be 85 85 70 bc 0a a8 b2 3e 64 3d 1a 3d
       -0.16080146 -0.014680271 0.3489383 0.037656203
000370 6f 87 59 3e e6 8c c9 bd af 95 18 be 64 48 e9 3d
       0.2124307 -0.09841327 -0.1490085 0.113907605
000380 10 44 a0 3d 1d 5d 8c 3d b2 0d 30 bf 66 a8 93 bd
       0.07825482 0.068536974 -0.687709 -0.07209854
000390 7c 44 bd 3d 4a fe 80 bd 12 fb 42 be 40 3d d2 bd
       0.09241578 -0.06298502 -0.19041088 -0.10265589
0003a0 5a 45 8f 3d 32 33 5b 3d aa 32 2e bd e0 4f 44 be
       0.0699565 0.05351562 -0.042528786 -0.19171095
0003b0 15 e5 f3 bc 34 5d e5 3b d4 39 89 3e 4d 4a b9 ba
       -0.02977232 0.006999636 0.26801932 -0.0014136523
0003c0 b6 7b eb 3c 79 18 2a 3e 60 0e 04 be ac 3d fd 3c
       0.028745513 0.16610898 -0.12896109 0.030913197
0003d0 59 b1 8f 3e 44 f8 d7 3c f1 fe a9 be 9e 8d 87 bc
       0.28064993 0.0263635 -0.33202317 -0.01654702
0003e0 d8 05 15 3e 0a 3b 3c 3d 3e cb 5a 3e 7c 5a 8d 3e
       0.1455301 0.04595474 0.21366593 0.27608097
0003f0 10 2e b9 3d 19 ae 05 3e 9f 27 54 be 96 75 79 3d
       0.09041989 0.13054694 -0.20718239 0.060903154

feature.0.bias f4 [128]
000000 71 ed b5 3d e0 23 f2 bc 90 ab f6 3d 57 f0 71 bd
       0.08883179 -0.029558122 0.12044442 -0.059067097
000010 80 dd 6b 3c 51 25 11 3e ec 43 00 3e cd 0e fd bd
       0.014396071 0.14174391 0.1252591 -0.12356339
000020 44 01 52 bd 62 72 f4 bd 4a 86 19 3e 14 7b 9a 3d
       -0.05127074 -0.11935879 0.14992633 0.075430065
000030 dc 7c 14 3e 45 07 2f bd 2e 60 02 3e f3 57 24 3e
       0.14500755 -0.042731542 0.12732002 0.16049175
000040 13 3f 1c be 50 a0 c8 3d 65 5f 44 bd ac 22 9c 3d
       -0.15258436 0.09796202 -0.047942538 0.07623801
000050 35 9d cc bd 43 27 2f 3e 5b 11 91 bd 0e 26 54 3d
       -0.09990922 0.17104821 -0.070833884 0.051794104
000060 66 1b 09 3e 23 c6 29 3e e6 3d c7 3d 77 8e 16 3e
       0.13389358 0.1657949 0.09728603 0.14702784
000070 45 c0 f2 3c 5a ff 4e 3b cf 77 09 3e 5e a2 1f 3e
       0.029632697 0.0031585307 0.1342461 0.15589282
000080 64 b8 4a 3e 2d c5 c8 3c b7 cf 9b 3d 19 0d ce 3d
       0.19796902 0.024508083 0.07607978 0.10061092
000090 17 91 c7 3d 80 66 08 3e 22 cd 16 3e bd 61 3b be
       0.097444706 0.1332035 0.1472669 -0.18299003
0000a0 f7 01 ad 3d fe ff 1d 3d f9 ae 4c bc 31 e4 c1 bd
       0.084476404 0.03857421 -0.012492889 -0.09467352
0000b0 4c 1d 74 3d 34 93 2c bd c2 f9 d9 3d b7 d7 60 bd
       0.059598252 -0.04213257 0.10643341 -0.05489322
0000c0 23 53 9b 3b 8c 93 dc bd 3a 22 e1 3d 0e 1b 22 3d
       0.0047401353 -0.1077033 0.10992856 0.039576583
0000d0 92 70 d5 3d c0 48 92 3c 93 c1 06 3e 90 23 07 be
       0.10421862 0.017856956 0.1315978 -0.1319716
0000e0 2e a6 39 be 5e e1 14 3e 7f e6 ef bd 6c 23 21 3e
       -0.18129799 0.14539096 -0.117138855 0.15736169
0000f0 55 a2 14 bd b6 94 9f bd 09 f5 39 be 37 b5 fa 3d
       -0.036287624 -0.07792036 -0.1815988 0.12241595
000100 33 9a 4d be 72 bb 97 3c cb 59 0d 3e ef 46 12 3e
       -0.20078354 0.018521998 0.13803785 0.14284872
000110 e5 c6 8c 3d 8b fd fa 3d 34 5c 06 3d d5 7d 37 3e
       0.068738736 0.12255391 0.032802776 0.17919095
000120 4e 7c 32 be 68 7d c5 bd 0e 1e ba bd 33 98 d6 3d
       -0.17430231 -0.0964306 -0.09087764 0.104782484
000130 55 c4 1c 3d 36 68 0e 3e 77 a0 20 3e 0c 8a a0 3d
       0.038273174 0.13906941 0.15686212 0.0783883
000140 cf 10 bc bd 7b fe b2 3d 79 b9 36 3d 1d c0 3e bd
       -0.091828935 0.087399445 0.044610474 -0.046569932
000150 9a 75 1a 3e d8 96 11 3d 00 16 9e bd d2 7f 10 3e
       0.15083924 0.035544246 -0.0771904 0.1411126
000160 47 42 89 3d bb 0f e0 bd af 2f b5 3d cd 07 6c bd
       0.067020945 -0.109405 0.088469855 -0.057624627
000170 d3 3c 14 3e 41 1d 14 be 74 d3 cf 3d 83 b4 cb 3d
       0.14476328 -0.14464284 0.10147753 0.09946539
000180 05 87 c0 3d 46 22 99 3d 40 ad dd bd b2 5e 8b 3d
       0.09400753 0.0747724 -0.108240604 0.06805171
000190 3f 76 25 be 75 0d 14 be fb 16 e5 bc bb 3f d5 3d
       -0.16158389 -0.14458258 -0.02796506 0.10412546
0001a0 70 d7 17 be c5 10 69 bd eb 70 da 3d 6d 61 a7 bd
       -0.14828277 -0.05690076 0.10666069 -0.08172879
0001b0 b7 01 44 3c c1 41 61 bb ea e3 e6 3d ce e2 0d be
       0.0119632995 -0.0034371468 0.1127394 -0.1385605
0001c0 98 bb 04 3e d7 2f 9b bd ed 68 df 3d b9 d4 83 bd
       0.12962186 -0.07577484 0.10908685 -0.06437058
0001d0 0a 52 df bd d3 88 7b bc da ec c8 bd 16 ed 97 3d
       -0.109043196 -0.015352446 -0.09810801 0.074182674
0001e0 3a 7a f5 bd 51 77 c4 3d 2d c6 12 3e f2 28 0d be
       -0.119862035 0.0959307 0.1433341 -0.1378515
0001f0 98 98 fe bd 16 a5 20 be 69 8f 8d bc f0 3e 46 3d
       -0.12431449 -0.15687975 -0.017280297 0.048399866

value_stream.0.weight f4 [64, 128]
000000 f8 1a 96 bc 6e 76 c1 3e e7 d3 4d bd 2c e1 a0 be
       -0.018323407 0.37785667 -0.050250914 -0.31421793
000010 d1 5b 9f 3c 3d b1 a6 3e 54 06 59 3e 51 61 38 bd
       0.019452961 0.32557097 0.2119382 -0.045014683
000020 0c c4 e6 bd 6e 72 86 3d e8 9f 6b 3e c7 63 38 bd
       -0.11267862 0.065647945 0.23010218 -0.04501703
000030 61 23 c8 bd f6 96 c0 3c 0f cb 1c bd 78 9d 4f bd
       -0.09772373 0.023509484 -0.03827959 -0.050687283
000040 bd dc 1f bd 02 9a a8 3e e5 06 ae be b5 b4 67 bd
       -0.03902887 0.3293 -0.33989635 -0.05656882
000050 78 1c 09 be bc cb 31 3e 12 0e 78 bd bf a4 6d 3e
       -0.13389766 0.17362875 -0.060560293 0.23207377
000060 ba af 5c 3e e9 de 86 3d e0 67 2b bd 1b e0 0d 3e
       0.2155141 0.065854855 -0.04184711 0.1385502
000070 2b 33 98 bd 6e e4 c9 3c 59 8f f0 3d 61 a6 82 3e
       -0.074316345 0.024645057 0.117460914 0.25517562
000080 dc 22 b8 3d ea 24 94 bd c6 72 de bd f7 ea cc 3d
       0.08991024 -0.07233603 -0.10861735 0.100057535
000090 ef 94 86 be 93 4f b1 bd ac 3d 39 3e 9a fc af 3d
       -0.26285502 -0.08657756 0.18089932 0.08593102
0000a0 3d 54 80 3d b8 d6 a9 be 22 1c 82 be 9b 24 01 be
       0.06266067 -0.3317163 -0.2541209 -0.1261162
0000b0 ad 1a a9 3d 91 89 c6 bd 15 e8 25 3e f8 ea 92 3d
       0.08257041 -0.096942075 0.16201814 0.07173723
0000c0 ef 44 02 3e 76 7d 44 bd 2b cf 4e bd 73 db 47 3d
       0.12721609 -0.04797121 -0.05049054 0.048793267
0000d0 5d 9c 83 3d 0e 4e 28 3e 7c c8 f9 3d 95 6f c0 bd
       0.06426308 0.16436026 0.121964425 -0.093962826
0000e0 14 cd 8e be ed 51 8f 3e cd f1 28 3d b5 13 92 3e
       -0.27890837 0.27992192 0.041246224 0.2853066
0000f0 5b 23 80 3d 84 79 9b be 8f 04 82 3d 4b a0 62 3e
       0.062567435 -0.30366147 0.06348526 0.2213146
000100 00 b8 98 be f5 0b a8 3d db bb 1e 3e 19 60 fe 3d
       -0.2982788 0.082054056 0.15501349 0.12420673
000110 e3 af 02 3e 41 35 f3 bd b7 9a 92 3d c4 ff 9c 3e
       0.12762408 -0.11875392 0.07158416 0.30663884
000120 3c 30 bb be 27 34 80 bc fc 6e 44 bd 4c 88 da 3e
       -0.36560237 -0.015649868 -0.047957405 0.4268211
000130 0d 51 ad 3d 7c 60 3f 3c 1e e3 fd 3d 0b 58 75 bd
       0.08462725 0.0116807185 0.12396835 -0.059898417
000140 ad c9 af 3c 75 23 1f 3d c7 75 ee 3d 6e d1 ad 3d
       0.021458471 0.038852174 0.11643558 0.08487211
000150 1f be 25 3e c4 49 09 3e f5 11 4f 3e e3 db c1 3c
       0.16185807 0.13407046 0.20221694 0.02366442
000160 84 02 b4 bc 6e ff 0c 3d c4 b8 fc 3d 47 92 8c be
       -0.021973856 0.034423284 0.12339929 -0.2745535
000170 d4 1a 62 3e 05 e3 15 3e 4c a0 81 3e 32 89 d3 bc
       0.22080547 0.14637382 0.2531761 -0.025822256
000180 db 24 c2 3d 6a 7b 89 3c bd 05 95 be 59 f0 8d bc
       0.09479686 0.016782481 -0.2910594 -0.01732652
000190 bc 0b 90 bd 56 68 e4 be 81 3e 57 bc e9 37 0f 3e
       -0.07033488 -0.44610852 -0.013137461 0.13986172
0001a0 dc c5 f7 bd 86 3d 83 be 2e 39 6d 3e 2c 0b 31 3e
       -0.120982856 -0.25632876 0.23166344 0.17289418
0001b0 c9 37 03 bf e6 96 bf 3d 77 30 db bd 54 35 f1 bd
       -0.51256996 0.093549535 -0.10702603 -0.1177775
0001c0 52 13 31 3e 28 9f ff be c0 ac 9d bc 79 54 07 be
       0.17292526 -0.49926114 -0.019247413 -0.13215818
0001d0 11 43 f6 3a 17 4d c0 3d 41 d7 f7 be 89 a4 06 be
       0.0018788298 0.09389704 -0.48406413 -0.13148703
0001e0 a8 0b 21 3d 34 3c a0 3d 6e 31 5e 3c b6 ae 83 be
       0.039317757 0.07823983 0.01356159 -0.2571923
0001f0 d5 35 b0 3d ef 47 5d 3d c4 c0 7f bd 00 4a ae bd
       0.08604018 0.05402368 -0.062439695 -0.08510208
000200 0c 06 65 be a0 bb 4f 3e 77 18 3e be 76 24 df be
       -0.22365588 0.20286417 -0.1856402 -0.43582505
000210 f5 3b 16 3e 3c 9c 95 3e 39 4d 93 3d 60 e8 52 be
       0.1467131 0.2922076 0.071924634 -0.20596457
000220 1a 70 b4 be c3 88 1f 3d 1c 0c f4 3d ef eb 91 bd
       -0.35241777 0.038948786 0.11916372 -0.07125079
000230 d8 0c c6 bd 8f 0a 0f 3d 84 81 76 3d 84 4b 1c 3e
       -0.096704185 0.03492218 0.06018211 0.15263182
000240 eb e9 18 be bb 50 80 bc 70 5d 53 3b 5b 28 bf 3e
       -0.14932983 -0.015663495 0.0032251738 0.37335476
000250 12 b6 00 3e 7c d7 fe 3d 78 57 2d bd e4 b4 06 3e
       0.12569454 0.12443444 -0.042319745 0.13154942
000260 1f 9a 2f 3e ea 68 44 3e f1 09 a8 3d 88 ed 66 3e
       0.17148636 0.19180647 0.08205021 0.22551548
000270 8e db 20 3e ef 8c c1 3d 07 32 85 3d af 66 c6 3d
       0.15708753 0.09450709 0.065036826 0.09687554
000280 05 83 85 3d 1a 31 3e be 79 64 a6 3d 0e 3e 1a 3e
       0.065191306 -0.18573418 0.081246324 0.15062734
000290 20 02 93 3c e4 95 e2 3d 2d a0 83 3e 43 d8 8c be
       0.01794535 0.110637456 0.25708142 -0.27508745
0002a0 9c 11 b6 3d 9f 56 b1 3d a5 45 ec 3c 80 00 d1 be
       0.088900775 0.086591 0.028841803 -0.40820694
0002b0 fb 6f ed 3d 95 52 a2 3c 17 52 23 3e 85 1e 18 be
       0.11593624 0.019814769 0.15949284 -0.14855392
0002c0 29 93 8e 3e bd 92 35 be 95 2a 09 3d bd 68 1d bd
       0.2784665 -0.17731757 0.033487875 -0.038429964
0002d0 b4 fb 00 3e d1 28 71 3e 4b 2d 50 be 20 6f e1 bc
       0.12596017 0.23550726 -0.20329778 -0.027518809
0002e0 2d 82 37 be cb f2 70 3d 06 a4 46 be 9b fb d6 bd
       -0.17920752 0.058825295 -0.19398507 -0.10497209
0002f0 36 8e d6 bd 8e f6 9e be 8a 82 b0 bd 5f af 8b bc
       -0.10476343 -0.3104748 -0.08618648 -0.017051397
000300 69 a2 e8 be 71 14 0e be fb a1 3b 3e 09 6f 9e 3e
       -0.4543641 -0.13874985 0.1832351 0.30944088
000310 71 cd 92 3d d1 36 78 3e 19 81 e1 3d 50 5f 05 3e
       0.07168091 0.24239661 0.110109515 0.1302464
000320 9a 7d c0 be c2 69 94 bd cb 40 fe 3a 3c b7 dc 3c
       -0.37595826 -0.07246734 0.0019397972 0.026942842
000330 4f 0e 91 3d 64 bf 7d 3e a2 43 2e 3e ee 10 2f be
       0.07082807 0.24780041 0.17017987 -0.17096302
000340 f4 e1 ac be 3d de fd 3d b1 10 dd bb 2c b2 3c 3c
       -0.3376614 0.12395904 -0.0067463745 0.011517089
000350 92 f4 4c bd f8 e1 c1 bd 66 da a6 3d 21 90 64 bd
       -0.050037928 -0.09466928 0.08147125 -0.055801515
000360 21 4e 65 3c c1 de 4c be 14 4a 49 be 91 20 40 be
       0.013995678 -0.20006849 -0.19657165 -0.18762423
000370 82 7c 70 3d 36 a3 a8 3d 3c 63 74 3e 1d b5 a9 3d
       0.05871249 0.08234255 0.2386598 0.08286498
000380 eb e2 31 3d 28 3d c6 3d 73 d9 ab bd 54 b7 2b 3e
       0.043429296 0.096796334 -0.083910845 0.16769153
000390 52 fe e6 be 4b 77 73 bf 9a 22 ac 3d b9 ce 4f 3d
       -0.45115906 -0.951039 0.08405037 0.050734255
0003a0 6a d3 d1 bd 48 43 33 3d 6a f5 06 3e e5 d9 37 be
       -0.10245402 0.043765336 0.13179556 -0.17954214
0003b0 b7 ed f9 bd 71 01 67 3e 73 bb d1 3c 75 78 70 be
       -0.12203544 0.22559144 0.025602078 -0.2348345
0003c0 a1 33 e4 3d 5b ef 81 be 88 04 ea 3d e8 6b 8d bc
       0.1114266 -0.25377926 0.114266455 -0.017263368
0003d0 e8 e2 31 3d 63 a7 db 3e 78 73 69 bf b8 de 80 3e
       0.043429285 0.42901143 -0.91191816 0.2516992
0003e0 48 46 84 be 84 ec 7d 3e e0 87 0e 3e 30 7b b1 bc
       -0.2583487 0.24797255 0.1391902 -0.021665186
0003f0 a9 de 77 be fe 43 18 bd a3 85 c4 bc d6 8e 44 3c
       -0.24206032 -0.037174217 -0.023989504 0.011996945

value_stream.0.bias f4 [64]
000000 ac 8d fb 3d b7 e3 d8 3d aa a8 ed 3d 3a 6a d1 3d
       0.12282881 0.10590308 0.11604436 0.10225339
000010 e1 a2 8c bd 21 9d 14 bc 98 5f 1b 3e 21 9a 02 3e
       -0.06867004 -0.009070666 0.15173185 0.12754108
000020 31 2a f4 3d a5 59 e0 3d 63 e0 f1 3d 57 81 18 3e
       0.1192211 0.10954598 0.118103765 0.14893089
000030 61 92 03 3e 6c 66 bf 3d 0b 0b e4 3d de 57 d7 3d
       0.12848808 0.09345707 0.11134919 0.10514806
000040 04 85 52 bd 8a 69 b4 3d 83 d5 b9 3c d1 77 e6 3d
       -0.051396385 0.088091925 0.022684818 0.11253322
000050 07 c5 ca 3d b2 89 d4 bd 16 53 37 bd 99 89 3f bd
       0.09900861 -0.10377826 -0.04475697 -0.046762083
000060 eb cf 16 be 4d cd dc 3d 32 f9 d7 3d fd be e8 3d
       -0.14727752 0.107813455 0.10545577 0.11364553
000070 1f ec 5b bd 4d 6f 26 bc 9d 2c ac 3c dc fd 3d 3e
       -0.05369198 -0.010158372 0.021017367 0.18553871
000080 b8 d5 e5 3d 3f 5c d0 3d a7 54 ff 3d 5c 3a ea 3d
       0.11222404 0.101738445 0.12467318 0.114369124
000090 c8 96 39 bc 06 20 21 bc 99 76 a4 bb 10 d3 3b 3c
       -0.011327453 -0.009834295 -0.0050190208 0.011463895
0000a0 12 3b f1 3d 6b 60 ca 3d 9d fb fa 3d c4 53 c8 3d
       0.11778845 0.098816715 0.12255023 0.09781602
0000b0 d0 ef a8 3c fe ed 0c bc b6 3c a1 bd 9a f2 00 3d
       0.020622164 -0.008601664 -0.07872908 0.031481363
0000c0 7c db 35 3c 03 d1 9f 3c 52 b0 e9 3d f7 c2 9d 3d
       0.011099692 0.019508844 0.114105836 0.07703202
0000d0 6f 8b b9 bc f4 4e 03 3e c8 92 67 3c 1e 80 ca 3d
       -0.022649495 0.12823087 0.0141341165 0.09887718
0000e0 ff b3 dc bb 82 56 e3 3d b0 c2 cd 3d c6 e1 f4 3d
       -0.0067353244 0.111004844 0.10046899 0.11957125
0000f0 96 85 01 3e 75 f6 ef 3d 3b 61 cf 3d 67 d2 1a bc
       0.12648615 0.1171693 0.10125967 -0.009449578

value_stream.2.weight f4 [1, 64]
000000 48 4f b9 3e e6 0c 8e 3e 70 ea 4a 3e e8 1d b4 3d
       0.361933 0.27744216 0.19815993 0.08794767
000010 ad ae a2 be 80 92 07 bf 78 b1 98 3e ae aa 08 3f
       -0.31773892 -0.52957916 0.29822898 0.53385437
000020 54 06 69 3e ab 3f 28 3e c9 38 b0 3e 8b 27 89 3e
       0.2275632 0.16430537 0.34418324 0.2678798
000030 83 34 a3 3e 98 b7 d1 3e 67 da 55 3e 46 b2 a9 3e
       0.31876 0.40960383 0.20884095 0.33143824
000040 f7 e6 b3 be 47 7e 51 3e b3 1f 3f be 07 37 91 3e
       -0.3513715 0.20458327 -0.18664436 0.28362295
000050 b5 4c 91 3e f8 b4 0d bf 68 51 69 bf 75 23 30 bf
       0.28378835 -0.5535426 -0.9113984 -0.68804103
000060 8a 08 5a bf 03 c8 ad 3e da df ce 3d 47 64 72 3e
       -0.8516928 0.3394166 0.1010129 0.23671065
000070 fb cc df be 30 83 50 bc 44 72 ab be 5d df 66 3e
       -0.43711075 -0.01272659 -0.33485615 0.22546144
000080 4d f4 2f 3e 7b ee a6 3e e0 71 84 3e 99 52 e4 3e
       0.17183037 0.3260382 0.2586813 0.44594267
000090 ff c0 4e bd 8f 35 38 be 3a fe 7f be c9 be bf be
       -0.050477024 -0.17989181 -0.24999323 -0.37450245
0000a0 a5 0f 60 3e 92 8e f7 3e 22 f3 3b 3f 54 47 59 3e
       0.21880968 0.4835096 0.73417866 0.21218616
0000b0 cf 5c 14 bf be bb 2a be ff 0d d3 be 69 72 6a bf
       -0.57954115 -0.1667318 -0.41221616 -0.91580826
0000c0 f9 f2 df be 12 e1 b7 be aa 7a 0a 3f ad 28 59 3e
       -0.4374006 -0.35913903 0.5409342 0.21206923
0000d0 bf 79 84 3e e4 f6 3e 3e 5e 3d 5b bf e2 b5 82 3e
       0.25874135 0.18648869 -0.85640514 0.2552939
0000e0 a7 c6 38 be bd 97 e6 3e e0 25 c1 3e 29 e8 0c 3f
       -0.1804453 0.45037642 0.3772421 0.5504175
0000f0 1a 33 df 3e d6 28 7a 3e 67 26 48 3e 97 63 99 bf
       0.43593675 0.2442964 0.195459 -1.1983517

advantage_stream.0.weight f4 [64, 128]
000000 93 32 81 3d d1 67 54 bd b7 72 80 bd 37 da 66 3e
       0.063084744 -0.05185682 -0.0627188 0.2254418
000010 86 00 24 be e0 b5 e7 3d d0 32 0c be d9 8f ca 3d
       -0.16015825 0.11313987 -0.13691258 0.09890718
000020 18 6f 21 bd 83 18 6a bc 1a cc 50 3e 4a e8 22 3e
       -0.039412588 -0.014288071 0.20390359 0.15908924
000030 41 19 ba 3d 0e ec f0 3c 96 62 7b be 73 d1 9d bd
       0.09086848 0.029409435 -0.24549326 -0.07705965
000040 3c 29 d2 3b 74 b9 78 3d 26 eb 56 bd 5d 27 cc 3d
       0.006413607 0.060723737 -0.05247035 0.099684455
000050 44 b5 07 3e 14 44 23 3d 51 59 06 be 43 52 55 bd
       0.13252741 0.039859846 -0.13120009 -0.052080404
000060 5f 97 13 bd 22 3a 41 be fb c7 11 be 78 5c a6 3b
       -0.03603303 -0.18869832 -0.14236443 0.005076941
000070 a1 8f 6a bd d3 fa fc 3a cd 8f c5 bd 79 e1 77 be
       -0.05726588 0.0019300826 -0.096465684 -0.24207105
000080 52 b8 c4 bd 3b ee 77 3d c2 85 30 bd 39 94 7e be
       -0.09605469 0.06052993 -0.04309631 -0.2486123
000090 97 43 26 3d db c8 37 be d7 8b cf 3d f0 1f 63 be
       0.040591802 -0.17947714 0.10134094 -0.22180152
0000a0 21 36 39 3e 1a d1 01 be e9 b8 f1 bc 1f db 8b 3d
       0.18087055 -0.12677422 -0.029507117 0.068289034
0000b0 61 3c 91 3d af c5 4b 3e f9 c1 a9 bd 1f 04 21 3c
       0.070915945 0.19899629 -0.082889505 0.009827643
0000c0 b4 a6 0c be fc b3 d2 3d cc 4c f7 3d 6f cb 25 be
       -0.13735467 0.102882355 0.12075195 -0.16190885
0000d0 fd f7 22 3e b4 de 6c 3e 57 e1 ac 3e a0 17 00 be
       0.15914913 0.2313183 0.3376567 -0.12509012
0000e0 a3 30 53 3b b3 a3 fd 3d d8 f3 32 3d 2d 87 e2 bd
       0.0032225035 0.12384739 0.04368958 -0.11060939
0000f0 9b a1 89 be 72 11 50 bd d1 c9 42 bd a8 6a 59 be
       -0.26881108 -0.050797887 -0.04755575 -0.21232092
000100 bc fb 4e 3d 30 b1 7f bd 2a cd 89 bd d0 7c 0c be
       0.05053304 -0.06242484 -0.06728585 -0.13719487
000110 ad 61 39 be d4 e0 bf 3d 13 17 19 bd ce d9 1a bc
       -0.18103667 0.093690544 -0.03737552 -0.009451343
000120 e4 7d 92 bd 6d a4 43 3d 5a 56 2f 3e 6a 23 6b bd
       -0.07152918 0.04776423 0.17122784 -0.05740682
000130 9e c0 71 bc 6f 15 f5 3d 5f 32 18 be 85 ca 04 3e
       -0.014755396 0.11966979 -0.14862965 0.1296788
000140 76 11 85 3d c2 e5 ec bc 03 f8 44 3e 9f 82 43 be
       0.06497471 -0.02891815 0.19235234 -0.19092797
000150 bb 3a 40 bd 3f 4e 27 be 53 ef 73 bd 9d 33 bf 3d
       -0.04693101 -0.16338442 -0.05955441 0.09336016
000160 6b 84 a6 bd 89 f3 d5 3a b7 a1 86 bd 2e d1 58 be
       -0.081307255 0.001632319 -0.065738134 -0.21173546
000170 7d ee ba bd ff 9f 31 bd be 96 2b be 05 68 21 be
       -0.09127519 -0.043365475 -0.16756722 -0.15762337
000180 53 e3 ca bc eb 67 17 bd 21 55 12 bd 9d b8 b2 3d
       -0.0247666 -0.03696434 -0.035725717 0.087266184
000190 cd 3b 21 be 68 34 36 be b7 f3 34 be c5 76 1c 3e
       -0.15745468 -0.17793429 -0.17671095 0.15279682
0001a0 fc 05 97 bd 32 a6 65 be 28 fc 4e 3b be 4e fc bb
       -0.07374188 -0.2242668 0.0031583402 -0.0076998165
0001b0 0a e1 7b 3d b2 c3 9d 3c ca 47 11 be 82 12 bd 3d
       0.06149391 0.019258354 -0.14187542 0.09232046
0001c0 0e 43 0a 3d d4 4d 41 be 88 db fc bc 84 4d 1a 3e
       0.033755355 -0.18877345 -0.0308664 0.15068632
0001d0 22 51 61 3d 09 b5 28 3a f3 4b bd bd 5a 88 47 be
       0.055009015 0.0006435668 -0.09243002 -0.19485608
0001e0 3a 55 d0 bd 60 92 1f 3e b6 f8 42 3e 6f 3f 71 3d
       -0.10172506 0.15583181 0.19040188 0.058898386
0001f0 9c ba a4 3d b0 b6 c4 3b 4d c3 46 be 16 a6 30 3d
       0.080434054 0.0060032234 -0.19410439 0.043127142
000200 a5 6c 91 bd 8e fc ee be 89 53 c0 3c 8d 88 4c be
       -0.071008004 -0.4667706 0.023477333 -0.19973965
000210 18 a2 90 bb e4 b0 a3 bd 62 5d 62 be 0c 27 1b bf
       -0.0044138543 -0.079927236 -0.22105935 -0.60606456
000220 5e 2d ca be f2 5d 67 be 5c 36 0b 3e 27 0d 7d bd
       -0.39487737 -0.22594431 0.13594955 -0.06178012
000230 60 a3 b2 bd bf 82 99 be a3 52 be bd 5e 01 cc bd
       -0.087225676 -0.29982564 -0.092931055 -0.09961198
000240 46 75 d1 bd 87 c9 aa 3b c3 08 b4 be e3 0b 54 be
       -0.10227446 0.005212012 -0.35162935 -0.2070766
000250 4f 3b 9a bf f7 3d 94 3d e5 5a 2f be bb 20 3b be
       -1.204935 0.07238381 -0.17124517 -0.18274204
000260 9c 2e af bd f1 95 e4 3d 51 fc 8e 3d b9 6e c1 3d
       -0.08553812 0.111614116 0.06981719 0.09444947
000270 7d 97 68 3e ae 3f 11 bd e8 44 d3 3d a5 e9 17 3e
       0.22714038 -0.03546112 0.10315877 0.14835222
000280 62 7d 05 3e 9e 5b 39 3d 78 e1 28 be 90 79 c4 3d
       0.13036111 0.04525339 -0.1649226 0.09593499
000290 7d b9 36 bd ce 69 72 bd 6f cf 99 3d 15 d6 15 bd
       -0.04461049 -0.059182934 0.07510268 -0.036581118
0002a0 2f 63 02 3b 20 df f6 3d 27 89 2f 3d ee 90 6c be
       0.0019895544 0.120542765 0.042855408 -0.23102161
0002b0 76 68 9b be f4 40 00 be 51 5b 9d bc f0 fa 98 3d
       -0.30353135 -0.12524778 -0.019208582 0.074697375
0002c0 ba 3a 25 bd df 23 e3 3d e3 0d 3a 3e d6 0d 3b be
       -0.04033921 0.11090826 0.1816936 -0.18266997
0002d0 ef f1 52 3e e9 66 c1 be 54 44 e7 3d 6b a8 14 be
       0.20600103 -0.37773827 0.112923294 -0.14517371
0002e0 14 62 5f bf 89 3c 13 bd 3d e4 c8 3e 8f e8 ab 3c
       -0.8725903 -0.035946403 0.39236632 0.020984916
0002f0 14 c0 c7 be 25 01 7f bf 64 a8 58 3e bb a1 4a 3e
       -0.3901373 -0.9961112 0.21157986 0.19788258
000300 ec 92 a4 3e 0c 89 8d be 62 80 3e 3e 69 6f 3f bd
       0.32143342 -0.2764362 0.18603662 -0.04673711
000310 75 2c 1b 3c 8f dc b3 bd ae 20 cc 3e 35 13 4c 3e
       0.009471049 -0.087823026 0.39868683 0.19929202
000320 91 23 6d 3d c3 a0 85 bf 16 4c 97 bf d3 29 3d 3d
       0.057895247 -1.0439686 -1.1820095 0.046182465
000330 a2 39 c2 bd aa 45 4d be 31 ac 45 bc 5f 0a 07 3d
       -0.09483649 -0.20046106 -0.012064979 0.032968875
000340 d9 57 87 bf 5b ac 90 3e c4 1c 8e 3d db e9 6a 3e
       -1.0573684 0.28256497 0.0693908 0.22940771
000350 4d f4 5b 3d 2a 70 79 3e 18 d3 c4 bd 3b 84 40 be
       0.05369978 0.24359193 -0.096105754 -0.18800442
000360 26 df f4 bd 6f 4b 54 bd 43 17 17 3e 24 6c b1 bd
       -0.11956625 -0.05182975 0.14754967 -0.08663204
000370 20 e2 3e be bb 7c 9a bd 12 42 1b be 01 dc 13 be
       -0.18640947 -0.07543322 -0.15161923 -0.14439394
000380 d7 b4 cc bd 42 c8 30 be 3d 77 8d bf 25 2f d6 bd
       -0.0999543 -0.17263892 -1.1052014 -0.10458211
000390 4a 0e e7 3d d8 d7 00 3e 22 59 35 be 49 80 3e 3e
       0.11282022 0.12582338 -0.17709783 0.18603624
0003a0 f9 12 63 3e 74 bf 70 3d 3b f6 04 3e ca ce 02 3d
       0.22175206 0.058776334 0.12984554 0.03193549
0003b0 3f b5 60 be 80 61 24 3d 4a 5a 0d 3e b5 cf 91 3e
       -0.2194414 0.040132046 0.13803974 0.2847878
0003c0 51 b5 1a be 08 e3 c2 bf de 7b f2 3d 35 66 2c 3d
       -0.15108229 -1.5225534 0.11840032 0.04208966
0003d0 3b 42 25 3e 96 09 0a be 65 7c cd 3d d4 b3 85 bd
       0.16138546 -0.13480219 0.10033492 -0.0652844
0003e0 f3 d8 be 3d 0d 12 2d be 8b 73 22 3e de e4 8e bf
       0.093187235 -0.16901417 0.15864389 -1.1163595
0003f0 e2 97 34 3c bd c2 e4 3c 5e c3 8e 3e 82 49 04 be
       0.01102254 0.02792489 0.27883428 -0.12918666

advantage_stream.0.bias f4 [64]
000000 a5 5d aa bb 96 37 42 3d e3 24 74 3d 06 c2 e0 bb
       -0.0051991516 0.047416292 0.05960549 -0.006859067
000010 23 7f 3f bd f7 93 41 bc 26 43 7a bd ab 19 13 bd
       -0.046752106 -0.011815063 -0.061099194 -0.03591315
000020 62 e5 29 3d 81 a2 94 3d 72 17 0e bc 35 43 2b bd
       0.041478522 0.07257558 -0.008672582 -0.04181214
000030 03 88 29 3d 17 a9 81 3c 39 7e 61 bd 00 00 00 00
       0.041389477 0.015827699 -0.055052016 0.0
000040 e2 71 2f 3d 13 d3 8c bb b4 28 ed 3c cc 0e 03 3e
       0.042833216 -0.004297623 0.028950073 0.12798613
000050 28 5e 25 bc f6 92 a5 bc 17 d8 6e 3d 37 ef 50 bd
       -0.010093249 -0.020211678 0.058311548 -0.051009383
000060 74 5f 51 3c 9d 51 90 3d 33 61 41 bd fd 3b a3 bb
       0.012779105 0.070468165 -0.047211837 -0.0049815164
000070 05 a8 1f bd eb 7a 1a 3d ef ef 08 bc c2 23 0b 3e
       -0.038978595 0.03771488 -0.008357986 0.1358786
000080 1e cf 07 bb ac 71 38 ba ee 91 5d bc d7 f5 46 bd
       -0.0020722817 -0.00070359814 -0.013523562 -0.048574295
000090 08 fa f0 3c aa 0f d1 3c 48 0f 2f bc b7 2a 78 bb
       0.0294161 0.025520165 -0.010684796 -0.0037867257
0000a0 b0 d1 69 3a 30 c6 83 bd ed 6e 13 bc a8 ba b3 3c
       0.00089194905 -0.06434286 -0.008998615 0.02193959
0000b0 90 c9 a0 3d b8 f2 4a bd 78 c7 5c bd 4e f5 41 3d
       0.07850945 -0.04954788 -0.053901166 0.04735308
0000c0 1c 66 81 3d b8 ec 92 bd 20 0f b1 bd 58 26 8e bc
       0.06318304 -0.07174057 -0.08645463 -0.017352268
0000d0 27 3b c8 ba 31 d7 ed 3d 88 50 39 bb f6 8c 5b bd
       -0.0015276418 0.1161331 -0.002827676 -0.053601228
0000e0 7c 71 e0 bc ad dc 9b 3c 01 3a 01 3d d5 80 8a 3d
       -0.027397864 0.019026125 0.031549457 0.06762854
0000f0 fe ac 08 3e 6d 61 3e bd 1c fe 94 3d 3a e5 c3 bd
       0.13347241 -0.04647963 0.0727503 -0.09565206

advantage_stream.2.weight f4 [2, 64]
000000 7e 91 60 3e 9f 71 c9 be 84 ad 3a 3f 4e 15 92 bd
       0.21930501 -0.393445 0.72921014 -0.0713297
000010 ec 2d 80 be df e2 a2 bd 4f e1 a5 3e eb 26 9c be
       -0.25035036 -0.079534285 0.3239846 -0.30498442
000020 e6 92 7c 3e 07 dc 85 3d 37 b9 72 3e 02 57 a7 3e
       0.24665412 0.065361075 0.23703466 0.3268357
000030 87 15 6b 3e 22 94 25 3e be b6 57 3e 0d 33 81 bd
       0.22957431 0.1616979 0.21065804 -0.06308565
000040 c4 7a fa 3e ef 0b 81 be 6d fb ea 3d b7 8b 20 bf
       0.48921788 -0.25204417 0.11473737 -0.6271319
000050 ed d7 be 3d 51 de 61 3d 5c 48 77 bd 7c 60 34 3f
       0.09318528 0.055143658 -0.06037174 0.70459723
000060 ae 9e f6 be 8f 52 b6 bd f8 68 24 3f d3 ba 75 3e
       -0.48167938 -0.089024656 0.6422267 0.23997049
000070 c8 be a7 be 82 8a 43 bf cc d3 71 3e 88 32 13 3f
       -0.32762742 -0.7638322 0.2361595 0.5749898
000080 1d 3e 50 3e fe 5b 66 be 9e 40 44 3e c8 db 22 be
       0.20336194 -0.2249603 0.19165275 -0.15904152
000090 4e 02 b0 bd 14 e7 d2 be 4c 96 d0 3e bb f5 a5 be
       -0.085941896 -0.41191924 0.40739667 -0.3241404
0000a0 98 ca 5e be 14 db 9b 3d 65 8d 80 3e df 22 9a 3d
       -0.21756971 0.07610145 0.25107875 0.075261824
0000b0 d1 3c 0d be 56 9f 54 3d 3b 91 5b 3e 3e 77 f3 bd
       -0.13792731 0.051909767 0.2144212 -0.11887978
0000c0 a2 45 1f be bf 40 b4 3e 2b b7 28 be 86 c8 cb bd
       -0.15553907 0.35205647 -0.16476123 -0.09950356
0000d0 8d a6 a6 bd 64 0d 6c be be 48 e0 be 96 2e 27 3e
       -0.08137236 -0.23051983 -0.43805498 0.16326365
0000e0 6f 49 01 3e 49 53 fc bd f8 90 bf be 30 e6 81 be
       0.12625669 -0.12320573 -0.3741529 -0.25370932
0000f0 a4 b9 3c be 31 e9 88 3e e4 03 2a 3f 7e 64 91 be
       -0.18430191 0.2674041 0.66412187 -0.28396982
000100 83 1e af 3e 3b 1d 8b 3e ec 10 69 bf 0e d7 d0 be
       0.34202966 0.2717074 -0.91041446 -0.40789074
000110 cd 26 6c 3e 60 5e 8a be 0c 15 c7 3d 67 57 34 bd
       0.23061676 -0.27025127 0.09720811 -0.044028666
000120 dc 32 f4 3c 66 fd ac 3e a9 ba b7 bd 84 eb bb be
       0.029809408 0.33787078 -0.089711495 -0.36703122
000130 0b b0 c0 bd 3d 23 5b bd b8 22 0d 3e c2 26 59 be
       -0.094085775 -0.053500403 0.13782775 -0.21206191
000140 48 2e d8 be fb d1 b3 3d 95 ae 6e bd e8 58 14 bd
       -0.4222281 0.08780285 -0.058271963 -0.0362176
000150 04 9d 12 3e 39 bf 05 3e a1 e4 ba 3d 2c 20 ea be
       0.14317709 0.13061227 0.09125639 -0.4572767
000160 02 e9 d3 3e 93 17 94 3e ed d6 3c be 6b ba 23 3e
       0.41388708 0.28924236 -0.18441363 0.15989082
000170 b3 54 05 3f b5 c0 22 3f c4 bb ce bc 6e e6 a2 be
       0.52082366 0.635753 -0.025236018 -0.3181643
000180 f5 87 9f bd 7a 56 5b 3e fb 75 c6 bd b5 78 b7 3e
       -0.077896036 0.21419707 -0.09690472 0.3583428
000190 80 fa a5 3e e2 0f 28 3f 96 12 ea be b9 29 98 3e
       0.3241768 0.65649235 -0.45717305 0.29719332
0001a0 03 83 9b be 5e 78 d4 3e a1 7f 1b 3c 15 a0 33 be
       -0.30373392 0.41498083 0.009490878 -0.17541535
0001b0 db ef dd 3d 48 ca 60 bd 07 ec 4f be aa 69 81 3e
       0.108367644 -0.05488041 -0.20304881 0.25275928
0001c0 e8 ed 8e 3e f5 cb 20 be 4c 0c 79 3e 07 a9 e4 3d
       0.27915883 -0.15702803 0.24321097 0.11165052
0001d0 4e d4 05 be c2 da f2 3d e3 92 54 3e be f1 9e bd
       -0.13069269 0.11858131 0.20759158 -0.077609524
0001e0 31 7e be bc 05 c0 a7 3d 0b 17 75 3e d1 70 20 3e
       -0.023253532 0.08190922 0.23934571 0.15668036
0001f0 46 fc 9e 3e a9 5a 94 be c6 30 eb be 28 f0 40 3f
       0.31051844 -0.28975418 -0.4593565 0.7536645

advantage_stream.2.bias f4 [2]
000000 32 14 4d bd 32 14 4d 3d
       -0.050068088 0.050068088

feature.0.weight f4 [128, 4]
000000 e9 8b c6 bd 16 bd 9b 3e bb 7f a4 3e 78 29 52 bd
       -0.096946545 0.304177 0.321287 -0.05130908
000010 d0 fb ee 3d d9 6f f7 bd 23 af b0 be b1 fc 6e 3d
       0.11669123 -0.1208188 -0.3450862 0.058346454
000020 77 2e 4e 3e 32 68 1c 3e 65 24 82 be 6c 26 6f 3e
       0.20134912 0.15274122 -0.25418392 0.233545
000030 49 52 00 be ab 70 47 bd 13 ed f9 3e 19 c4 41 3b
       -0.1253139 -0.048691433 0.48813686 0.0029566346
000040 09 25 87 be 7b 2e 12 be 2f 0f b1 3e ac a7 3c be
       -0.26395443 -0.14275543 0.34581897 -0.18423337
000050 68 8d b3 bc 54 db 73 3b 3e 2e 6b bd 66 ba a6 bd
       -0.021918014 0.0037209587 -0.057417147 -0.081410214
000060 45 68 4c 3e 4a 09 65 be ed fe 70 be ff 78 53 bd
       0.1996165 -0.22366825 -0.23534746 -0.051629063
000070 c2 5a 17 3e c0 dc 21 3e 2d e3 cb 3c 02 2f 55 3d
       0.14780715 0.15806866 0.0248886 0.052046783
000080 13 6a 96 3e 13 70 81 3d ca eb e7 bc 91 91 a4 3c
       0.29377803 0.063202046 -0.028310675 0.020088943
000090 92 b8 59 3e 47 b7 61 3e 83 a7 02 3c 6f 47 74 3d
       0.21261814 0.22042571 0.007974508 0.059638437
0000a0 44 86 cb 3b e8 7d 70 3d 08 92 ec 3d 67 e6 85 3d
       0.006211074 0.058713824 0.11551291 0.065380864
0000b0 f3 04 d5 bc 81 52 b9 bd f6 dc b3 bd 0d de 62 3e
       -0.026003337 -0.090489395 -0.08782379 0.22155018
0000c0 6d e0 fd bd 65 5e da 3d 84 29 aa be be 6d 3f bd
       -0.123963214 0.106625356 -0.332348 -0.046735518
0000d0 68 33 ab bd 5c 51 5b be 7a 60 86 bc 7b b8 09 be
       -0.08359414 -0.21417755 -0.016403425 -0.1344928
0000e0 81 b9 c6 3d e6 f8 ae bd 9a 16 61 3e 2c 36 28 be
       0.09703351 -0.08543567 0.21981278 -0.16426915
0000f0 90 90 b2 3e f8 91 92 bd bb 2c de ba 1e 83 d8 bd
       0.34875917 -0.071567476 -0.0016950587 -0.105718836
000100 97 e7 03 3e f1 78 9f 3d 60 44 fb be bd c6 46 be
       0.12881313 0.077867396 -0.49075603 -0.1941175
000110 13 21 82 be e8 a2 f9 3b fa 15 15 be e4 e8 49 3e
       -0.2541586 0.007618297 -0.14559165 0.19717747
000120 81 72 81 bd 29 76 a7 3d 7b 51 c8 be c8 be 3e 3c
       -0.06320668 0.08176834 -0.39124665 0.0116421655
000130 3a bd 4c 3e 61 12 07 bd e6 f9 f2 be c7 01 22 3d
       0.19994059 -0.032976512 -0.47456282 0.039552476
000140 2e f7 83 bd 90 60 40 3d 7f 91 f4 be ea 9c c1 bd
       -0.0644363 0.04696709 -0.47767255 -0.09453757
000150 d1 2a ab bc 53 24 9a bb 00 18 e1 3c 37 1d 20 bb
       -0.02089444 -0.004704037 0.027477264 -0.0024431476
000160 f6 e2 8d bd 86 7e 99 3c 95 4a 07 3e e4 e3 f9 bd
       -0.06928055 0.018737089 0.13212045 -0.1220167
000170 8f 8c b1 3d 12 3e 11 3e 5b ba f9 3e cc 97 38 bd
       0.086693875 0.14183834 0.4877499 -0.04506664
000180 2b 02 86 3c 88 07 80 3d 98 0c d9 3b 8d bf 4b 3d
       0.016358456 0.062514365 0.0066238157 0.049743224
000190 9a b8 c3 bd 14 ed fb 3d 8a 55 09 be d7 53 b3 3d
       -0.09556694 0.123010784 -0.13411537 0.087562256
0001a0 bb 4e a2 be db 91 5d 3d 0e ad b7 3d d3 d8 4e 3d
       -0.31700692 0.054094177 0.089685544 0.05049975
0001b0 c5 8c 42 be cb 70 5c 3e 5d 34 61 3e 43 4e eb bc
       -0.18999012 0.21527402 0.21992631 -0.028723842
0001c0 fd 1b 73 3e c7 bb ca bc 9b 7b 0c bf 20 3e ec bd
       0.23741145 -0.024747742 -0.54876107 -0.11535287
0001d0 a2 cd 11 be 0d 47 2e 3d 47 f8 7a 3e 4b 02 08 bd
       -0.14238599 0.042548228 0.24508773 -0.03320531
0001e0 d6 12 2b 3e 0c ad 58 3d f4 9d b5 3d a2 4c c6 3d
       0.16706404 0.052899405 0.08868018 0.09682585
0001f0 7d 5e 9f bd 0c 70 29 3e 6d e2 10 3f d0 f4 0a 3c
       -0.07781694 0.16546649 0.565955 0.008481219
000200 10 3e b1 bd f4 28 9a 3d 5d 2a 3d 3d 31 1f 55 3e
       -0.086544156 0.075273424 0.04618298 0.2081268
000210 07 2c b3 bd 8b 51 28 bd 32 27 1c 3d e4 8e 85 be
       -0.08748632 -0.04109339 0.038123317 -0.2608558
000220 a9 07 6d 3e 00 1a c5 be 75 47 ed 3e 7a fa 2c 3e
       0.23147453 -0.384964 0.4634358 0.16892424
000230 fe fa 83 be ee 07 bc bb 42 dd b0 3e 01 2d 26 be
       -0.2577743 -0.00573825 0.34543806 -0.16228105
000240 88 36 f0 3d d0 8f 99 bd fb d4 73 be f7 90 aa bb
       0.11729151 -0.07498133 -0.23811714 -0.0052052694
000250 db 63 8d 3d 61 1e 17 be 82 7e 9c bd 6c f6 b0 bd
       0.069038115 -0.14757682 -0.07641317 -0.08640751
000260 f7 0e 95 bd dd f4 4f 3d e9 bd 02 bd ea 59 18 bd
       -0.07278245 0.05077063 -0.031919394 -0.037195124
000270 4d cd 43 3d 48 1b e0 3c 81 87 f2 3e 6d 05 1b 3e
       0.047803212 0.027356759 0.47369006 0.15138789
000280 b9 5d 5c be 45 f1 af bd 2f cb aa be 2b 0f b6 bd
       -0.21520127 -0.085909404 -0.33358142 -0.08889612
000290 da d4 28 be 40 aa 94 3d 6a 7b 17 be 4e af 67 be
       -0.16487446 0.07259035 -0.14793172 -0.22625467
0002a0 4a 18 48 bd 01 c3 34 3e 54 fe 19 3f c3 1c 8c 3e
       -0.04885129 0.17652513 0.601537 0.27365693
0002b0 aa 39 de 3b 60 6a ae bd fb 58 8a be e3 51 53 be
       0.0067817764 -0.08516383 -0.27021012 -0.20636706
0002c0 aa 6b 80 3e e1 bd 64 be 97 19 1b bf c3 c1 81 3d
       0.2508214 -0.22338058 -0.6058592 0.06335785
0002d0 c0 69 4a 3e 57 11 92 3e 62 d5 e9 bd 3c cd 1b bd
       0.19766903 0.28528854 -0.11417653 -0.038037524
0002e0 f8 e9 7c 3d e8 e1 ad bc 80 13 05 bf ba 38 59 3b
       0.061746567 -0.021225885 -0.5198288 0.0033145384
0002f0 a1 f7 ea 3c 59 83 88 3e 6e a4 e2 be 3b f7 05 be
       0.028682532 0.2666271 -0.44266075 -0.13082592
000300 bb 23 ec 3d 20 0d 0f bd 41 3e a9 3e 4d cc 45 3d
       0.115302525 -0.034924626 0.33055308 0.04829054
000310 85 fc d1 bc e2 20 f7 3b 03 cd 54 3f 4e 35 9a 3d
       -0.025633106 0.0075417617 0.83125323 0.07529698
000320 7c f6 c7 3d fb 05 e8 bd 10 8a 84 be cc 0e 9d ba
       0.0976381 -0.11329266 -0.25886583 -0.0011982559
000330 ca bb ef bd f8 ff 85 be e9 12 81 be 81 80 56 bd
       -0.1170574 -0.2617185 -0.2520974 -0.052368645
000340 a6 87 28 be 6c c9 1f be b5 9f 28 3e 66 e4 d2 bc
       -0.16457996 -0.1560418 0.16467173 -0.025743674
000350 c9 58 a2 bd 38 b0 13 be 31 01 03 bf 79 1b d1 3c
       -0.07927091 -0.14422691 -0.5117369 0.025525795
000360 eb 89 2b be 14 07 00 bc c2 98 ac 3e f3 8b 00 3d
       -0.1675183 -0.007814188 0.33710295 0.031383466
000370 7a 88 54 3e 03 d9 ca bd ff ad 1f be 93 6b e1 3d
       0.20755187 -0.09904673 -0.15593718 0.11006846
000380 74 fd 98 3d 27 39 8f 3d d4 b0 2c bf aa f6 87 bd
       0.07470217 0.06993323 -0.6745732 -0.06638844
000390 cd e1 b8 3d 46 61 85 bd 2e f3 3c be e7 c0 c6 bd
       0.09027443 -0.06512694 -0.1845214 -0.09704762
0003a0 40 8b 83 3d f5 76 58 3d 9c 5b 1c bd ef 85 43 be
       0.06423044 0.05284782 -0.038173303 -0.1909406
0003b0 73 46 ea bc db ce ed 3b 88 f0 82 3e 3c 2b b4 bb
       -0.028598046 0.007257325 0.25574136 -0.005498318
0003c0 db e2 eb 3c 87 00 29 3e 94 dd 05 be 15 98 02 3d
       0.028794697 0.16504107 -0.13072807 0.031883318
0003d0 67 c5 8e 3e e8 e3 d1 3c 5e 01 a6 be 80 1c 89 bc
       0.2788498 0.02562137 -0.32422918 -0.016737223
0003e0 02 e2 12 3e b8 09 3d 3d 10 02 58 3e 8a e6 8c 3e
       0.14344028 0.046151847 0.21094537 0.27519637
0003f0 fa 3a b4 3d 52 35 03 3e 6e c7 50 be 1f c0 80 3d
       0.088003114 0.12813309 -0.20388576 0.06286644

feature.0.bias f4 [128]
000000 33 fa a7 3d bc af ba bc a4 58 eb 3d 2d 5e 68 bd
       0.082020186 -0.022788875 0.11491516 -0.056730438
000010 76 cd 4a 3c 72 c0 07 3e f4 48 f6 3d 1e 39 ef bd
       0.012378087 0.13257006 0.120256335 -0.11680816
000020 cc 24 45 bd 44 dd d8 bd a5 75 12 3e eb 2e 94 3d
       -0.048130795 -0.10589078 0.1430269 0.072355114
000030 77 7e 02 3e 93 4e 37 bd 1e fb f3 3d f4 55 1a 3e
       0.12743555 -0.04475267 0.11913131 0.15071851
000040 97 a4 0c be 10 0c c0 3d 3d ef 4b bd 5d 81 91 3d
       -0.13734661 0.09377301 -0.049788702 0.07104752
000050 a6 26 d1 bd fb f3 27 3e 13 13 84 bd 0f 67 4c 3d
       -0.1021245 0.16401665 -0.064489506 0.04990297
000060 cd 8e 03 3e 98 95 22 3e 98 6f be 3d 8c 5a 0e 3e
       0.12847443 0.15877378 0.092986286 0.13901728
000070 1b 53 c6 3c 76 37 90 3b 6f 1c 05 3e 08 33 18 3e
       0.02420955 0.0044011427 0.12999128 0.14863217
000080 bb f9 37 3e f2 c4 c1 3c dd bc 9d 3d e9 04 c0 3d
       0.17966358 0.023653481 0.077020384 0.093759365
000090 c0 22 be 3d de 1e 03 3e f6 99 0f 3e 3e 96 31 be
       0.09283972 0.12804744 0.14023575 -0.17342469
0000a0 ac 85 a9 3d cf 98 06 3d 9d 7c 0e bc a4 29 d0 bd
       0.08277449 0.032860573 -0.008696702 -0.10164192
0000b0 bd a3 71 3d 54 06 2a bd b9 c4 d2 3d d7 1b 55 bd
       0.058994044 -0.04150994 0.10291428 -0.052028503
0000c0 be dd c1 3b 3b fd b4 bd 8c da d6 3d ff d1 1f 3d
       0.0059163263 -0.088373624 0.10490903 0.039018627
0000d0 ee e4 cb 3d f0 45 91 3c be 6f f9 3d 1b 3b f3 bd
       0.09955774 0.017733544 0.12179516 -0.11876508
0000e0 a0 97 2e be 8f 61 0c 3e f3 e5 d7 bd 54 33 19 3e
       -0.17050028 0.1370909 -0.10541906 0.14960986
0000f0 78 99 0e bd ac fe 98 bd e0 bc 31 be 07 8a f6 3d
       -0.034814328 -0.0747045 -0.17357206 0.120380454
000100 36 0d 48 be fb 9b 8a 3c e0 72 05 3e 7b 01 09 3e
       -0.1953629 0.01692008 0.13032103 0.13379471
000110 78 cb 8c 3d 77 c0 ee 3d 92 ee 1d 3d a5 62 2f 3e
       0.06874746 0.116578035 0.038557597 0.17127474
000120 e5 f9 1c be fb 73 c0 bd 85 85 bb bd 5e c3 cb 3d
       -0.15329702 -0.093971215 -0.09156326 0.09949373
000130 4d 16 14 3d bd 82 07 3e 57 d5 14 3e 0a 6d a7 3d
       0.03615408 0.13233466 0.14534508 0.081750944
000140 99 ab ad bd 96 e5 a3 3d ab 0d 3a 3d 42 c6 3c bd
       -0.08479995 0.080027744 0.04542319 -0.04608751
000150 d7 15 0f 3e ac e5 0b 3d bb bf 95 bd a0 07 0c 3e
       0.13973175 0.03415458 -0.0731196 0.13674784
000160 e8 1c 89 3d 0f 4b d0 bd cb c5 ae 3d 67 ac 67 bd
       0.066949666 -0.10170566 0.0853382 -0.0565609
000170 c6 53 0e 3e 72 dd 0a be e9 13 c6 3d cd e4 bc 3d
       0.13899145 -0.13561037 0.09671766 0.09223328
000180 6f c3 b1 3d 23 12 91 3d 38 97 d3 bd 78 e3 83 3d
       0.08679854 0.070835374 -0.10331577 0.064398706
000190 5f b7 21 be 6d cb 11 be 3b e9 d7 bc 60 db cb 3d
       -0.15792607 -0.14237757 -0.02635633 0.09953952
0001a0 e2 cb 05 be bc 9c 43 bd 4f cb cf 3d 10 e5 9f bd
       -0.13066056 -0.047756895 0.101462 -0.07807362
0001b0 87 a0 19 3c b9 c3 1e bb 79 87 dc 3d db a3 04 be
       0.009376652 -0.0024225547 0.10768027 -0.12953131
0001c0 8b c4 fd 3d 30 15 95 bd 4e 91 d8 3d 6a b2 84 bd
       0.12391003 -0.07279432 0.1057459 -0.06479342
0001d0 c5 e6 c9 bd 9f 35 5c bc 3d 81 c5 bd d9 cf 92 3d
       -0.09858469 -0.013440519 -0.09643791 0.0716855
0001e0 a9 d3 ec bd a8 0c c1 3d c2 37 09 3e 7a f8 07 be
       -0.115638085 0.09426242 0.13400176 -0.1327838
0001f0 02 87 ee bd ec 99 12 be ee cc 9c bc 17 a7 3f 3d
       -0.116468444 -0.14316529 -0.019140687 0.04679021
