Project/output/old/dqn/best_model.pth (torch, 287275 bytes, 24 tensors)

fc1.weight f4 [128, 4]
000000 e2 13 c7 bc c9 10 1a 3d 52 97 3c 3d f6 06 34 be
       -0.024301473 0.037613664 0.046042748 -0.1758078
000010 d3 08 66 be 29 69 5e be 08 dc 46 be cc 9d 7d bd
       -0.22464304 -0.21719803 -0.19419873 -0.061918065
000020 77 53 2d be de 7e e9 bd 11 b7 4b 3d 98 57 b5 bc
       -0.1692637 -0.11401151 0.049735133 -0.022136495
000030 78 64 c3 3d 26 9e c2 3d cf fe 30 3d 1f 9b 08 be
       0.09540647 0.09502821 0.043211754 -0.13340424
000040 37 b7 ed 3c 1c 70 53 bd c7 2b 83 3e 3d 16 56 bd
       0.029018028 -0.051620588 0.25619337 -0.0522673
000050 23 38 1a bb 6e 9d 2e 3d 59 8f b4 3e b5 5e 80 3c
       -0.0023531995 0.042630605 0.35265616 0.01567016
000060 06 f6 ae 3b 8f fa 20 be e5 6d a9 bd 69 37 20 3e
       0.005339387 -0.1572058 -0.08272914 0.15646137
000070 45 d7 a0 bc 18 7d 52 3e 83 ad 91 3e 4f 74 3d 3e
       -0.019633899 0.20555532 0.2845269 0.185014
000080 9c f1 c2 3c 54 32 0a 3d 0b c0 ee 3e c8 5b 99 3d
       0.023796849 0.033739403 0.46630892 0.07488209
000090 91 1e 81 3d 16 e0 ee bd f5 de 4f be 5d 23 e8 bd
       0.06304658 -0.11663835 -0.20299895 -0.1133487
0000a0 65 d6 5b 3e b2 09 81 be 92 14 e6 bd 9e 9e a6 bd
       0.21468504 -0.2520271 -0.11234392 -0.081357226
0000b0 ac 89 96 3c 4b 05 47 be 20 b8 e4 bc 18 b3 7d bd
       0.018376194 -0.19435613 -0.027919829 -0.061938375
0000c0 7a 06 97 3e 56 dd d0 3d bd 62 d8 be 91 e5 be bd
       0.2949713 0.101984665 -0.4226283 -0.0932113
0000d0 3e c0 72 be 6e 2a dc bc 1e 1d 77 3d 0f 15 78 bc
       -0.23706147 -0.0268757 0.060330503 -0.0151417395
0000e0 92 9e 27 3e 9d ae 05 3e 6e e2 a5 3e f2 2a d4 3c
       0.16369084 0.13054891 0.32399315 0.025899384
0000f0 cc 28 32 3d 07 86 73 bd 67 3a f1 3e 23 40 78 3e
       0.04349594 -0.05945399 0.4711487 0.24243216
000100 06 61 9d 3d 30 4e 96 bd 27 6a 79 3e 27 82 16 bd
       0.076845214 -0.07339132 0.243569 -0.036745217
000110 3e 05 8f 3e 2f b3 d0 3c 59 a0 fa bd f1 db 03 3d
       0.27933687 0.025476066 -0.12237615 0.032192174
000120 85 7b b4 bc 9b 3f 0e 3e c7 94 3f bf a8 de f3 bb
       -0.022031555 0.13891451 -0.7483639 -0.007442314
000130 ce fa 45 3e 17 e9 53 be f7 3d ad be ad d5 56 3d
       0.19333956 -0.20694385 -0.33836338 0.05244987
000140 3f 17 90 bd fb be 96 3d fe 7f 61 3d de 84 89 3d
       -0.07035684 0.073606454 0.055053703 0.067147955
000150 57 c3 85 3d 0e cb e7 39 64 5d 04 bf a8 78 a1 3d
       0.06531399 0.0004421104 -0.51705 0.078843415
000160 b4 5b dd bd 2f 3e 83 bd 97 36 2b 3e aa 0d cf 3c
       -0.108085066 -0.06408345 0.16720043 0.02527507
000170 9f b7 86 bd 28 a8 90 bc fe 4c e6 be 3a 50 6b 3c
       -0.06577992 -0.017658308 -0.44980615 0.014362389
000180 24 b0 9a 3d 17 ec 48 be 4c 61 9a bd 4b 64 f6 bd
       0.075531274 -0.19621311 -0.07538089 -0.12030848
000190 7a 56 8f bd 03 a1 1d bd 89 1b ec 3e cd 00 80 3b
       -0.06998916 -0.03848363 0.46114758 0.0039063455
0001a0 7c 91 69 bd b9 72 37 3d bb 8f f3 3e 1d 96 51 3d
       -0.05702351 0.044787142 0.47570595 0.05116855
0001b0 6d 91 c4 3e d7 0f 9a bd 8a 08 ac be 56 40 2f 3d
       0.383922 -0.075225525 -0.33600265 0.042785965
0001c0 29 68 07 be a6 f2 9c 3d a6 65 0a bf f6 77 97 be
       -0.13223328 0.07663469 -0.54061353 -0.2958371
0001d0 1a 5a b1 bc f6 f2 b9 3d 17 0b 0a 3f a7 58 7f bd
       -0.02164941 0.09079544 0.5392317 -0.062340405
0001e0 c2 ef 8a 3d c8 dd b1 bd 17 55 aa be 65 ef 8e be
       0.067840114 -0.086848795 -0.33268043 -0.2791702
0001f0 80 b2 94 bd 63 04 48 bd 2e 6e 16 3f db 6a 5e be
       -0.07260609 -0.04883231 0.5876187 -0.2172045
000200 24 c9 7c bd 49 7c 1b 3e 3c e6 d4 3e 7e 13 f9 3d
       -0.06171526 0.1518413 0.41581905 0.12161921
000210 d6 50 71 3d 67 2a d8 bd e1 ea 09 3e 7c 31 58 3e
       0.05891498 -0.105549626 0.13468505 0.21112627
000220 f2 c0 55 3e 44 37 74 bc 9e 18 99 be 0d 8b f4 3b
       0.20874384 -0.0149057545 -0.29901594 0.007462865
000230 ae 4f 38 3c 14 57 5b be 57 ce 15 bf f0 78 8f bd
       0.011249466 -0.21419936 -0.58517975 -0.07005489
000240 fd 21 69 be 99 5b 2c be 26 b2 43 bc 28 af 03 3e
       -0.22766872 -0.16831817 -0.011944329 0.12859786
000250 0b b2 88 bd 37 76 f5 bd 1c 3b 12 3d 92 d6 13 be
       -0.06674584 -0.11985438 0.035700902 -0.14437321
000260 59 5c f5 bd 01 9b 91 bd e7 06 77 bd f8 3b 99 3d
       -0.119805045 -0.07109643 -0.060309317 0.07482141
000270 91 ac 0e 3e f6 24 ad 3d 4b cd 89 bc ee 5e a8 3a
       0.13933016 0.08454315 -0.016821524 0.0012845674
000280 cc fd 1e bd cb d7 77 bd b3 5a 5a be 38 44 87 be
       -0.03881626 -0.06050853 -0.21323662 -0.26419234
000290 cd 38 13 be 98 9a 3d 3d 85 37 65 3e 4f e7 73 bd
       -0.14377137 0.04629001 0.2238446 -0.059546765
0002a0 ec 50 37 3d 1e c7 91 3d e4 11 56 3e 5f e4 b2 3d
       0.044754907 0.07118057 0.20905262 0.087349646
0002b0 e5 02 2c be 10 4e 26 3d e7 3f bc 3e 39 59 03 3e
       -0.16797979 0.04060179 0.36767504 0.12827004
0002c0 33 e8 30 3e f4 8a df bd ef 6f d2 bd b6 7e 43 3b
       0.17276077 -0.10915175 -0.10275256 0.0029830164
0002d0 82 9b 84 3d df d1 e1 3d 56 81 bc be 25 89 4d bd
       0.06474973 0.11026358 -0.36817425 -0.05017962
0002e0 31 bb fd bc 7a d6 dc 3d fe 6c 8d 3e fd 94 e2 bc
       -0.030973049 0.10783096 0.27622217 -0.027658934
0002f0 17 15 47 3e 86 9d 2c 3c e6 7a cc 3e 2c 1a 7d bd
       0.19441639 0.010535603 0.39937514 -0.061792538
000300 87 46 ea bd b8 82 e6 3d 4a 1c 2b 3f 34 62 2d 3e
       -0.11439233 0.112554014 0.6684004 0.16931993
000310 77 b1 76 3e f9 77 10 3e 6d 8c b3 3e b3 0f 0e bd
       0.24091135 0.14108266 0.35068074 -0.03468294
000320 5d 92 80 bd 11 dd 97 bd 61 79 85 3e c6 ef 2a be
       -0.062779166 -0.07415212 0.26069167 -0.16693029
000330 f0 d5 b9 3c 90 e0 06 3d f4 4a 61 3e 54 11 81 bd
       0.022685021 0.032929003 0.22001249 -0.06302133
000340 a6 20 24 be 60 f3 f8 bd 50 6a fc bd 52 68 28 3d
       -0.1602808 -0.12155795 -0.12324965 0.041115113
000350 75 01 82 bc 85 42 d5 bd ce d1 8e 3d b3 c4 af bd
       -0.015869835 -0.10413078 0.06973611 -0.08582439
000360 92 1c f3 bc d5 65 b5 3d da 32 07 bf 5b 31 7a 3c
       -0.02967671 0.088573135 -0.5281197 0.015270556
000370 3b c3 86 be 39 bb 71 3e 3f 6d 23 3e ce 9a 55 3d
       -0.26320824 0.23606576 0.15959643 0.052149586
000380 fd 1b 71 be 34 35 00 3e 13 80 db 3e 8c 69 07 3e
       -0.23545833 0.12520295 0.4287115 0.13223857
000390 14 9a 89 bd 52 f7 82 3c 17 71 da be 0e 33 65 3e
       -0.06718841 0.015987072 -0.42664406 0.22382757
0003a0 4a 7b f4 bd ce d2 d1 3b bb ca 93 be 16 24 b2 be
       -0.11937578 0.0064033037 -0.2886561 -0.34793156
0003b0 a4 41 d6 bd 78 41 b4 bd f2 0b 1b 3f 65 23 80 3d
       -0.10461739 -0.0880155 0.605651 0.06256751
0003c0 17 4d 2a 3e 31 28 00 be de 4f 0b bf 7a a3 25 3d
       0.1663097 -0.12515332 -0.5441874 0.040439107
0003d0 11 0e 21 bb aa 31 96 3e 61 f1 b6 3e 4e a1 9a 3d
       -0.0024575035 0.29334766 0.35731032 0.07550298
0003e0 a5 1f 94 bd 57 8a f1 bd a2 8e 50 be 3e 46 0f 3d
       -0.07232598 -0.11793964 -0.2036691 0.034979098
0003f0 75 18 c7 3d 36 be fb bc de fd 2e bf a5 8a 89 be
       0.09721462 -0.030730348 -0.6835612 -0.2686359

fc1.bias f4 [128]
000000 15 e7 1c bd 66 28 3d 3d 8e cf c5 3d 57 92 08 bd
       -0.038306314 0.046181105 0.096587285 -0.033342686
000010 a8 a4 aa 3d 27 60 0b 3c 59 3e ef 3d 82 be 77 3d
       0.08332187 0.008506811 0.11681814 0.060484417
000020 1f 6c 7c bd 33 09 1e be 2b 2a 06 bd 39 45 5c 3d
       -0.06162655 -0.15433197 -0.03275506 0.053776953
000030 b4 36 3e bd 32 9b 4d bd 42 5e 6b 3d 8d 09 8c bc
       -0.046438888 -0.050196834 0.057462938 -0.017094398
000040 0b 8f db 3d a3 bd a8 3d 7b a3 10 be a8 b5 f4 3c
       0.10720643 0.08239295 -0.14124863 0.029871777
000050 b2 6a df 3d 7c 25 b8 3d 94 e0 7b bd 6f 0c 58 3d
       0.109090224 0.089915246 -0.06149347 0.052746233
000060 fe eb b0 3d 89 29 bb bd f8 85 0e 3e e4 44 9f 3b
       0.08638762 -0.091387816 0.13918293 0.0048605073
000070 89 2d 70 bd 1b a7 b1 3d 71 4a 23 be 5d d0 a5 3d
       -0.058637176 0.08674451 -0.15946366 0.08096383
000080 d8 8e 06 3e c0 08 9c bc 59 68 c5 3d 09 dc 79 3d
       0.13140428 -0.019047141 0.09639043 0.061000858
000090 67 86 55 bc 28 a7 6f 3d 43 04 d9 3c 33 62 3e 3d
       -0.013032532 0.058509022 0.02649129 0.04648037
0000a0 f7 56 a4 bd b2 63 71 3d bb c2 c6 3d 63 14 0c 3d
       -0.080244 0.058932967 0.09705111 0.03419913
0000b0 01 81 6c 3c e6 0c f2 bd 27 e4 6b 3d 1f b8 9d 3d
       0.014435054 -0.118188664 0.05759063 0.07701134
0000c0 b7 37 51 3d 79 f2 9b 3d 65 b7 c5 3d 0e d7 c2 3d
       0.051078524 0.07614607 0.0965412 0.09513675
0000d0 5b bf ab bd 89 23 b2 3d 66 9b 37 be 74 3e 2d 3d
       -0.083861075 0.08698184 -0.17930374 0.042295888
0000e0 fc 1a de bd 1a ed 8b 3d 4a e7 e1 bd ce b5 08 be
       -0.108449906 0.06832333 -0.11030443 -0.13350603
0000f0 f3 9d 10 3d c9 ac 66 3c c2 94 8e 3d f4 f1 86 bd
       0.035306882 0.014079281 0.06961967 -0.06589118
000100 ec 22 b3 3d 33 82 07 3e eb 30 16 be a5 cf ac bd
       0.08746895 0.13233261 -0.14667098 -0.084380426
000110 dc dc c4 bd 7f 11 c4 bd b4 56 3c 3d d3 ac 46 bd
       -0.09612438 -0.095736496 0.045981124 -0.04850466
000120 d4 25 b4 3d 02 df 88 3d 58 52 d6 bc 14 c5 95 3d
       0.08796278 0.0668316 -0.026162311 0.0731298
000130 6d 8a 55 3d 3c 27 93 3d b0 fe 5c bd 8f 4a ed 3d
       0.052133966 0.07185218 -0.053953826 0.115864865
000140 e3 e9 d2 bd 0f 63 84 b9 40 0e b2 bb 07 68 b6 3d
       -0.102985166 -0.00025250806 -0.0054338276 0.089065604
000150 0d d9 fa 3c f2 b0 b3 bd 5a 8c 88 bc 2d 07 56 bd
       0.030621076 -0.08773984 -0.016668487 -0.052252937
000160 e4 63 8b bd 7c 46 82 3d 75 3c 8b bd 34 26 45 3d
       -0.06806162 0.063611 -0.06798641 0.048132136
000170 a7 b6 39 3d e9 af 00 bd f8 85 96 3d 28 36 d0 3d
       0.045340206 -0.03141776 0.07349771 0.101665795
000180 81 a3 b8 3d 06 75 fd bd 83 ac b7 3d c6 2f b6 bb
       0.09015561 -0.12375836 0.08968451 -0.0055598943
000190 18 53 65 3d c2 68 dc 3c 7b c2 be 3d f9 ea af 3d
       0.055987448 0.026905421 0.09314438 0.08589739
0001a0 b9 69 10 bd 9a be a4 3d 43 57 3c bd 5a 2c 33 3d
       -0.035257075 0.08044167 -0.045981657 0.04374347
0001b0 b2 5a 45 3d f9 1d dc bd 8d 77 1e bd 98 33 b1 3d
       0.048182197 -0.10747904 -0.03868823 0.08652419
0001c0 7b d0 ba 3d bd 25 45 bd 06 64 8d bd 21 30 cf bd
       0.09121796 -0.048131693 -0.069038436 -0.10116602
0001d0 42 03 81 3d 0a b9 bb 3d cb 5a f3 bd 79 12 4c 3d
       0.062994495 0.09166153 -0.11882552 0.049822304
0001e0 74 73 9d 3d 71 d5 09 3d 74 2e 8f 3c e4 bc bc 3d
       0.076880366 0.03365082 0.017478205 0.092157155
0001f0 85 95 0a be ec 86 f1 3d 9d 49 cd 3d f9 0b db 3d
       -0.135336 0.117933124 0.10023806 0.10695643

fc2.weight f4 [128, 128]
000000 79 4a 01 be f8 c0 5b bc 6b e7 0b 3e 88 2b 12 3c
       -0.12626065 -0.013412707 0.13662498 0.0089215115
000010 c0 2e cf 3d b0 50 7c bc 98 b0 61 be 13 3d 71 3c
       0.10116339 -0.015400097 -0.22040021 0.014724034
000020 25 f7 a7 be 13 f6 df be cc 70 7d 3d ff 7f 4a 3e
       -0.32805744 -0.43742427 0.06187515 0.19775389
000030 ce 3c 89 3e 4c 0e 76 bc f4 47 9a 3c dd ff db 3c
       0.26804203 -0.015018057 0.018833138 0.026855404
000040 11 a0 0d 3e fb 40 70 3e 64 a2 71 be 33 57 1b 3e
       0.13830592 0.23462288 -0.23597103 0.15169983
000050 91 b5 b0 3e f5 62 f0 3d e9 3f 49 bb fe e2 13 3e
       0.34513524 0.117376246 -0.003070826 0.1444206
000060 5b 86 9e 3e 27 5a fb be d3 7f 83 3e 8b 61 f5 3d
       0.3096188 -0.49092218 0.2568346 0.119814955
000070 d1 34 85 be b3 98 6d 3e e3 08 86 3c 39 54 5c 3e
       -0.26016858 0.23202781 0.01636166 0.21516503
000080 b4 e1 2e 3e 3a a1 e9 bd 31 1a 38 bd af 70 3c bd
       0.17078286 -0.11407705 -0.044946853 -0.0460059
000090 f1 a8 04 3c 71 fc c7 3d fc c2 00 3e 26 45 c4 3c
       0.008096919 0.09764946 0.1257438 0.023958754
0000a0 fe a2 1a 3d 3e e5 ac bd c9 83 8d bd b1 fe 47 3e
       0.037753098 -0.08442162 -0.06909902 0.19530751
0000b0 01 79 3d 3e ae cb 89 be a7 e5 3b 3e 85 0b 1a bd
       0.1850319 -0.26913208 0.18349324 -0.037608642
0000c0 7f 0e 2a bc 28 b6 19 3e c0 23 dd bd b5 23 90 bc
       -0.010379433 0.15010893 -0.107978344 -0.017595151
0000d0 ce 08 3a be 9a 5b fa 3d c1 a9 85 be e2 62 10 3e
       -0.18167421 0.12224503 -0.26106074 0.14100221
0000e0 04 37 3e bf eb ce 8f bd ab a2 d3 3d 6b 15 29 be
       -0.743027 -0.07021888 0.10333761 -0.16512077
0000f0 17 47 cb bd 08 30 1c 3e 7c f4 a6 3d a5 b8 6b bd
       -0.09925669 0.15252697 0.081521004 -0.057549138
000100 15 3c 58 3d 56 3e bd be ad ec 34 bc 00 0e c4 be
       0.052791674 -0.3696162 -0.011042756 -0.3829193
000110 c4 b7 d4 be 3e 39 2c bb c9 b8 8e be 06 f3 71 bd
       -0.41546452 -0.0026279236 -0.27875355 -0.059069656
000120 2d 5f 3e bd 11 97 5e be 89 b1 80 bd 2d 35 81 3e
       -0.046477485 -0.21737315 -0.06283862 0.25235882
000130 85 c0 18 be bf 82 29 3c 07 4a 0d be 60 13 e6 3d
       -0.1491719 0.010346114 -0.1379777 0.11234164
000140 76 6c a2 bf 0a 6e 07 3e 21 78 a1 3d 09 b3 07 3e
       -1.268935 0.1322557 0.07884241 0.1325189
000150 3c 4d 8d 3e a8 5c 1f be 98 d9 8a 3d da 9c a1 bd
       0.27597988 -0.1556269 0.06779784 -0.07891245
000160 76 aa a1 be 89 7d 5e 3e 35 c7 81 bd d9 a3 10 be
       -0.31575364 0.21727575 -0.06336824 -0.14125003
000170 2a 54 ff bd 45 de 90 bd 2c c0 11 bb df 53 8a 3c
       -0.12467225 -0.070736445 -0.0022239788 0.016885696
000180 c7 8f cb bd 91 de 50 bf 7e 94 04 3e 7a 50 37 be
       -0.09939533 -0.8158961 0.1294727 -0.17901793
000190 a8 37 2b 3e 55 09 bb 3d 63 7d 27 3e 8a c2 ca bd
       0.1672045 0.09132639 0.16356425 -0.09900387
0001a0 3a 46 60 bd 19 ef b0 3d ab ef e3 3d d2 9f ec bd
       -0.054754473 0.08639354 0.111296974 -0.11553921
0001b0 60 67 73 be 9e f4 0a bf 31 c3 2b bd d1 ce b7 bc
       -0.23769903 -0.54279506 -0.041934196 -0.022437485
0001c0 3b 9f 0e 3e de 00 c7 bc 8c 8f b6 3a 95 f8 b2 be
       0.13927929 -0.024292406 0.0013928278 -0.34955278
0001d0 d0 94 6f bd 74 4d 91 3e f9 95 20 be 8d 48 73 3a
       -0.058491528 0.28379405 -0.1568221 0.0009280525
0001e0 43 e5 3f 3d 4d db 36 3d df 80 1d 3d c3 09 d9 3d
       0.0468495 0.044642735 0.03845298 0.10597565
0001f0 a2 48 9e bd 5c 0d 79 3e 30 c7 80 be 95 af 82 3e
       -0.07728697 0.24321502 -0.25151968 0.25524583
000200 96 93 6e be 51 0b a0 3c 4c 30 f0 bd 62 8a 9d 3d
       -0.23298487 0.019536646 -0.11727962 0.0769241
000210 d5 48 a6 3e 80 6e f0 bd ce b5 5f 3e ea 4a a6 ba
       0.3247744 -0.11739826 0.21846697 -0.0012687121
000220 5f 2a 64 be 40 da bd be 7b c5 ab 3d 4d 7d 5d 3e
       -0.22281788 -0.37080574 0.08387276 0.2162983
000230 15 36 e8 bd 2b 7c 8e bd 48 2c 89 3e 21 36 86 bd
       -0.1133844 -0.06957277 0.26791596 -0.06553293
000240 b8 5f a4 bd 94 bb 26 be 38 20 23 be d3 d8 13 bc
       -0.080260694 -0.16282493 -0.15930259 -0.009023863
000250 bd d9 dd 3d 48 19 f2 3c b1 2f d2 bd b0 1d d5 3d
       0.10832546 0.02955307 -0.10263003 0.10406053
000260 60 d7 ed bb 4e 13 9a be 71 58 96 3d 41 54 1a be
       -0.0072583407 -0.30092853 0.073410876 -0.15071203
000270 0d 59 81 be 8c cd 15 3d ae 29 8b 3d b3 d6 1d 3e
       -0.25263253 0.036572978 0.06795059 0.15413933
000280 9b 9f 10 bc 9d c5 99 3a ba cb 49 3e c5 92 50 3e
       -0.008827115 0.0011731867 0.19706622 0.20368488
000290 a4 c3 01 3e 18 02 4c 3d 97 43 c8 bc 75 b8 8a 3d
       0.12672287 0.049806684 -0.024446292 0.06773464
0002a0 91 64 0b 3c 54 9f ac 3d bc 4e d3 3d 70 2f 9e bd
       0.008507864 0.08428827 0.10317752 -0.07723892
0002b0 e6 d7 01 be 1e fa 10 be 7a 5f 83 3e 24 d2 d7 3d
       -0.12680015 -0.14157912 0.2565878 0.10538128
0002c0 77 dc 0c 3e 03 1f 3a 3e d9 fc 5d 3c d1 b3 4c 3e
       0.13755976 0.18175893 0.013549053 0.1999047
0002d0 e3 20 0a 3e 2f c0 25 3e 5f 3e ca bd 21 ca 9b 3c
       0.13489108 0.16186593 -0.098751776 0.019017281
0002e0 8e 61 d6 be e6 05 20 bd 4b 72 b4 3d fe df a2 3b
       -0.41871303 -0.039068125 0.08810862 0.0049705496
0002f0 98 55 dd 3d af 91 7e 3d 34 c7 ff bc 0c 82 36 3c
       0.10807341 0.062150653 -0.031222917 0.011139404
000300 e3 9d 2e 3e d5 4d f1 3d 7c 0e 91 be ac eb 04 be
       0.17052417 0.117824234 -0.28331363 -0.12980527
000310 34 cc b6 be 29 71 2c be ea af 1f 3e bb 0c e8 bc
       -0.3570267 -0.16840042 0.1559445 -0.028326383
000320 4b 8f a4 bd 3f eb 2f 3d a0 97 21 3d 35 7f c1 bc
       -0.080351435 0.042948958 0.03945124 -0.023620227
000330 cf c8 3d bd 55 db 86 3e 84 a2 32 3d 65 4c 8c 3e
       -0.046334084 0.26339212 0.04361202 0.27402034
000340 39 2d 64 bf 4c 1c 14 3e 30 44 df 3d 24 db 25 3d
       -0.89131504 0.1446392 0.109016776 0.040492192
000350 51 02 2f 3d 29 51 a1 be b6 61 08 bd af 86 9e 3d
       0.04272682 -0.31507233 -0.03329631 0.077405326
000360 02 31 13 bf 77 c5 16 3c 0f ba 3b be b1 7f 02 be
       -0.57496655 0.009202353 -0.18332694 -0.12744023
000370 39 1f 5e be 13 9d ba bd 6e 51 b4 bd c7 5c 3c 3e
       -0.21691598 -0.09111991 -0.08804594 0.18394767
000380 56 55 63 3d 6b 5b 99 be 71 cc 34 3e 2c ad bf 3e
       0.055501305 -0.2995256 0.17656113 0.37436807
000390 43 4f 6d 3e 07 8a 0a 3e 5f f6 ca 3c ec bd 8d 3e
       0.23174767 0.13529216 0.024775682 0.2768396
0003a0 29 a0 d2 bd 16 17 9b bd 88 56 83 3d e7 88 93 be
       -0.102844544 -0.07572763 0.06412989 -0.28815386
0003b0 86 cc fb bd 8e cf 14 bf a0 d2 99 bd 8d b1 7d 3d
       -0.12294869 -0.58129203 -0.07510877 0.061936904
0003c0 e0 1b 37 bd f5 9a 07 be 7c 29 93 be 7c 6c 46 be
       -0.044704318 -0.13242705 -0.28742588 -0.19377321
0003d0 64 2c bb bd 8a 2c 1a 3e 9f 46 d6 bd 4e 3e 29 3d
       -0.09139326 0.15056053 -0.10462689 0.041319184
0003e0 2e 84 f5 bd 22 95 8a 3d fc d8 cf 3d 60 60 83 3e
       -0.11988102 0.06766726 0.10148808 0.25659466
0003f0 2c 74 92 be 71 72 f2 3d d5 42 27 be 35 a7 74 3e
       -0.28604257 0.11838234 -0.16334088 0.2389191

fc2.bias f4 [128]
000000 fd 62 ce 3d 3e 18 a5 3d 66 5d 89 bc 67 be 81 bc
       0.10077474 0.080612645 -0.016768169 -0.015837861
000010 53 49 89 3d e9 2f 74 3d f5 7f 15 bd 53 b7 9d 3d
       0.067034386 0.059616003 -0.036498982 0.07700982
000020 dd c9 72 bd 08 8d 68 3d bf 2c ad 3d 5c 97 9c 3d
       -0.059274543 0.056775123 0.084558 0.07646057
000030 e0 a0 a4 3d 14 45 b4 3d 62 11 9b 3d cb 05 7d 3d
       0.08038497 0.08802238 0.07571675 0.061773103
000040 5f db 31 bc 91 48 86 3d a9 df 90 b9 6a 95 9e 3d
       -0.010855525 0.0655681 -0.0002763246 0.07743342
000050 e0 27 1f bd a5 53 39 bd 7b f0 71 3d cc 4f 1c bd
       -0.038856387 -0.045245785 0.05906723 -0.038162038
000060 c5 c8 9b 3d 3b 25 a3 3d f4 8f 71 3d cc 4a 8b 3d
       0.07606653 0.079660855 0.058975175 0.06801376
000070 bb 37 7e 3d 95 a7 90 3b b4 dc 0f bd 75 80 ee 3c
       0.062064867 0.0044145086 -0.03512259 0.029113987
000080 6a 5d a1 3d 4d 14 ca 3d 82 9b 74 bc bb 80 bb 3c
       0.078791454 0.09867153 -0.014929654 0.022888532
000090 98 a9 5e 3b 94 ce 8c 3d 42 21 86 3d 48 dd 72 3d
       0.0033975597 0.06875339 0.06549312 0.05929306
0000a0 3d 55 b2 bb 2b da 93 3d aa 17 8d 3d 35 6d 72 3d
       -0.00544229 0.072193466 0.06889279 0.05918618
0000b0 b3 51 15 bd 11 ef 75 3d 5d 84 88 3d 65 5b 70 3d
       -0.036454868 0.060042445 0.06665871 0.05868091
0000c0 b4 7e 8c 3d 86 07 a3 3d 0b 14 34 3d 75 83 07 3d
       0.06860104 0.07960419 0.043964427 0.03308435
0000d0 83 41 ad 3d 3d 4f 5d bd 42 5d 70 3d e2 91 28 bc
       0.08459761 -0.054030646 0.058682688 -0.010288687
0000e0 cf 41 8e 3d 30 b6 bd 3d fa 5e 8a 3c fd af 5b bd
       0.06946146 0.09263265 0.016890991 -0.053634632
0000f0 ba 57 0c bd 3e c1 78 3d c9 8e 05 3e 97 11 84 3d
       -0.03426335 0.060731165 0.1304275 0.064486675
000100 ef 71 e9 bc 54 a6 94 bb 91 14 a3 bb 1c ca 34 bd
       -0.02849671 -0.0045364294 -0.004976817 -0.04413806
000110 cc b8 cd bc da 40 63 bd 88 56 10 3d 86 77 31 bc
       -0.025112532 -0.05548177 0.035238773 -0.010831719
000120 4d 35 a2 3d e9 7a a5 3d 5b 71 6b 3d cf 5f 63 3d
       0.079203226 0.08080084 0.05748115 0.055511292
000130 97 84 ff bb b5 67 64 bc 8c 62 6a bd 00 00 00 00
       -0.0077977884 -0.013940741 -0.057222888 0.0
000140 eb 12 a3 3d 88 b4 b4 3d 07 11 c1 3d 23 34 63 3d
       0.07962593 0.08823496 0.09427076 0.055469643
000150 70 00 2e 3d fc a3 9f 3b b2 25 9a 3d a7 60 bf 3d
       0.042480886 0.0048718434 0.07526721 0.09344607
000160 f9 63 75 3d 87 42 f8 3d 3f 98 af 3d d5 da 89 3d
       0.059909794 0.12122064 0.085739605 0.06731192
000170 4e cb a1 3d c9 d5 a7 3d 5b 10 6a 3d 5d e2 6d bd
       0.079001054 0.08195073 0.057144504 -0.058077205
000180 4f 51 9b 3d 03 dd 43 3d 36 1b ce 3c f8 ba 1c bc
       0.07583868 0.047818195 0.02515946 -0.009566061
000190 a2 e3 7d 3d d4 50 82 3d f6 a8 c2 3d f1 b6 2b bd
       0.061984666 0.06363073 0.09504883 -0.041922513
0001a0 e4 eb 92 3d b0 87 33 bd 3d 21 b1 3d 00 3a 00 bd
       0.07173899 -0.043830574 0.08648918 -0.031305313
0001b0 4e d1 c4 bc 32 7c 40 bd 7e f5 8b 3d 87 1d 42 bd
       -0.024025586 -0.046993442 0.06833933 -0.04739144
0001c0 48 e4 93 3d 51 72 49 3d 10 fe 97 3d 33 95 7d 3d
       0.072212756 0.049181286 0.074215055 0.061909866
0001d0 f7 56 9d bd 00 00 00 00 96 81 b7 3d 3a 3f 69 3d
       -0.07682603 0.0 0.089602634 0.056945063
0001e0 c0 cb 06 bd ec 64 00 3e 47 2d 3b 3d 00 ad 6c 3d
       -0.032909155 0.12538499 0.045697477 0.057782173
0001f0 d5 98 a8 3d 1c 89 87 3d ef 62 b0 3c ec 20 50 bd
       0.082322754 0.066179484 0.02153155 -0.050812647

fc3.weight f4 [2, 128]
000000 9f 88 aa 3e b2 ae b7 3e ce a7 63 bd 72 e9 5e be
       0.3330736 0.3587547 -0.055579953 -0.2176874
000010 05 bc 6d 3c e1 f1 e9 3c 75 dc 2e be 76 fa e1 3e
       0.014510159 0.02855772 -0.17076285 0.441364
000020 df 1b c6 be e1 77 68 3e b0 fc a0 3e c2 dc c1 3e
       -0.3869314 0.2270198 0.31442785 0.37863737
000030 0d 8d 62 3e b7 18 0a 3f b7 b5 93 3e 63 1c 9c 3e
       0.22124119 0.5394396 0.28849575 0.30490407
000040 71 15 c4 be e8 e7 64 3e 5d 94 d1 be 5e 87 36 3e
       -0.38297608 0.2235409 -0.40933505 0.17825076
000050 a2 cd dc be ab f6 4d 3d 8c 3f c8 3d 3f f4 93 bd
       -0.43125635 0.05028407 0.097777456 -0.072243206
000060 86 f6 1c 3d e7 32 2e 3e 86 20 a3 3d 48 9e 85 3e
       0.03832104 0.17011605 0.07965188 0.26097322
000070 27 ac 81 3e d7 fd 09 be 5e 82 f3 bd eb e9 71 3e
       0.25326654 -0.13475738 -0.118901 0.23624389
000080 fa a9 13 3e a4 d9 07 3f 93 eb 0c be 50 7f dd 3d
       0.1442031 0.5306647 -0.1376174 0.108152986
000090 61 90 05 bf 08 06 1d 3d 9a d8 0f 3e 2e 49 43 3d
       -0.5217343 0.03833583 0.1404747 0.04767721
0000a0 97 49 7b bd d8 8d eb 3d 16 d1 b7 3e ae d7 64 3e
       -0.061349478 0.11501664 0.35901707 0.223479
0000b0 a7 7c 95 bd 5c 3d e3 3c 80 34 85 3e 9c 15 f2 3d
       -0.07299166 0.02773922 0.26016617 0.11820528
0000c0 45 89 84 3e 9e a9 0a 3e 62 d9 87 3e ea 0c 24 be
       0.25885978 0.13541266 0.26533037 -0.16020551
0000d0 f5 c5 5a 3e be 30 02 be 7d 2e c9 3a b0 74 f9 bd
       0.21364577 -0.12713906 0.0015348938 -0.121804595
0000e0 92 3b 8f 3e 9e 19 fc 3e 1c 32 03 bf 7f 03 33 bf
       0.27975136 0.49238294 -0.51248336 -0.6992721
0000f0 b5 ee ae be 14 4c 9a 3d c9 c9 02 3f e6 ca 8b 3e
       -0.34166494 0.07534042 0.5108915 0.27303237
000100 c4 aa 8a be 00 81 14 3e e3 70 84 bc 55 b2 bc be
       -0.2708341 0.14502335 -0.01616711 -0.36854807
000110 41 35 f6 be 81 6e fe be a1 c4 af be 0d a2 5f 3d
       -0.48087505 -0.49693683 -0.34329703 0.054597903
000120 e3 14 af 3e f6 21 34 3e cf cb a7 3e 12 47 9e bd
       0.34195623 0.1759108 0.3277268 -0.07728399
000130 86 ac c4 bd 1d e3 5c bd 61 3b 7e bd ab fe c3 3d
       -0.09603219 -0.05392753 -0.062068347 0.095700584
000140 71 51 b1 3e 47 4e a7 3e f2 52 ad 3e d4 73 9f bc
       0.34632447 0.32676908 0.33852345 -0.01946441
000150 ce 1b 53 be e5 da b1 3d b4 74 42 3e 6a 89 3a 3e
       -0.20616075 0.08684329 0.18989831 0.18216482
000160 b6 25 a2 3e 84 03 d9 3e 01 d5 08 3f 12 5a 63 3e
       0.31669396 0.42385495 0.5345002 0.22202328
000170 9d 46 b1 3e e6 a8 7f 3e c9 40 7f 3d b8 5c 13 bf
       0.34624186 0.24966773 0.062317643 -0.5756335
000180 c9 0d 44 3e 9c 28 cf bc 47 6a 34 3e 9c 9f a0 bd
       0.19145884 -0.025287919 0.17618667 -0.07842943
000190 4a a5 5b 3e be da 93 3e a1 17 e3 3e 0d 34 29 be
       0.21449772 0.28877825 0.44353965 -0.16523762
0001a0 ff 51 1d 3d 76 9c 2f bf e1 7b e7 3e d6 af 0b bd
       0.038408276 -0.68598115 0.452117 -0.034103237
0001b0 ad 7a 9e be c0 21 ce 3c d9 43 23 3d 8b 45 d2 be
       -0.3095297 0.025162578 0.039859626 -0.41068682
0001c0 13 18 67 3e 5e 77 62 3e 64 ec 82 bf d0 76 6a 3e
       0.22567777 0.22115847 -1.0228391 0.22896886
0001d0 51 13 c6 bd 82 86 97 bd 44 c7 c3 3e 3b 24 e6 3c
       -0.09671653 -0.07398702 0.38237965 0.028093448
0001e0 4f cf ff bd c6 0f dc 3e 00 86 fc 3d fa 49 62 3e
       -0.12490713 0.42980784 0.12330246 0.22098532
0001f0 85 31 10 3e 0c 1b 24 3e 2f 9f 2e be a0 f0 d7 be
       0.1408139 0.16025943 -0.17052911 -0.4217577
000200 d9 06 47 3e df 5c 25 3e d1 6c 0d 3d 6e d8 17 bf
       0.19436206 0.16148709 0.034527604 -0.5931462
000210 e4 71 85 3e a9 ae 58 3e 0b fb cc be d0 64 48 3e
       0.26063454 0.21160378 -0.4003528 0.19569707
000220 f0 97 14 3f 59 46 5e 3d ff db 81 3e 57 cb 65 3e
       0.5804434 0.054266308 0.25363156 0.22440849
000230 60 b2 ab 3e 83 05 d1 3e 8c b9 eb 3d fa d0 77 3e
       0.33534527 0.40824518 0.1151 0.24200812
000240 c8 16 0d be bc 4d 29 3e e1 a8 95 3d 4c 64 03 3e
       -0.13778222 0.1653356 0.07307602 0.12831229
000250 67 b6 c0 bc c3 cf fb bd 11 ae 3c 3e 88 9c 8a be
       -0.023524476 -0.12295487 0.18425776 -0.2707255
000260 75 3f ec 3d a1 79 39 3e dc 66 54 3e 62 a5 50 3e
       0.11535541 0.18112804 0.20742363 0.20375589
000270 45 26 5c 3e c4 5a fb bd d3 6a 31 bd 09 c7 1c be
       0.21498974 -0.122731715 -0.043314766 -0.15310301
000280 61 5e 5f 3e 78 26 96 3e b1 47 bb 3d f4 86 94 be
       0.21813346 0.29326224 0.091445334 -0.2900921
000290 af 84 a7 be 48 e7 ce 3d 4c 6c 8c 3e 78 a0 e8 3d
       -0.32718417 0.10102707 0.27426374 0.11358732
0002a0 22 ee e2 bd a3 a1 aa 3e 4a 72 7b 3e 45 c3 5d 3e
       -0.110805765 0.33326444 0.24555317 0.2165652
0002b0 f1 34 7f be 82 d3 ae 3e 55 03 0f 3e b4 07 6c 3e
       -0.2492254 0.34145743 0.13966115 0.23049814
0002c0 5a e1 b2 3e 7c 2e a4 3e 8f 2e 1f bd 43 d9 b9 bd
       0.34937555 0.32066715 -0.03886276 -0.090746425
0002d0 ea d9 af 3e 96 5d 97 be 49 30 97 3e 00 1b 05 bc
       0.34345943 -0.29563588 0.29529026 -0.008124113
0002e0 46 b8 1e 3e ba 65 e2 3e 54 30 f9 be dc c0 03 bf
       0.15499982 0.44218236 -0.48669684 -0.51466155
0002f0 ed 5a 06 bf 3b b2 bc 3d 22 49 37 3e 55 d8 28 bd
       -0.5248249 0.09213682 0.17898992 -0.041221935
000300 dd 37 6f 3e 23 7e 1c bf c0 27 81 be b3 f3 24 bf
       0.23361154 -0.6112997 -0.2522564 -0.64434355
000310 5a b2 ae be 35 1b 2c bf 54 db 45 3d 60 0d 90 bd
       -0.34120446 -0.67229015 0.04830487 -0.07033801
000320 1d 12 86 3e 41 05 af 3e 3c ec 64 3a 8f 73 56 3e
       0.26185694 0.34183696 0.00087327114 0.2094252
000330 38 fb 4c be 48 e3 78 3d 9c c6 9b be 40 5f 3a bb
       -0.20017707 0.060763627 -0.30424964 -0.002843812
000340 52 4b 9f 3e d5 76 b6 3e 40 ae b5 3e 85 82 ec 3d
       0.31112152 0.35637537 0.35484505 0.11548332
000350 2f ce c7 3d 13 5f e6 bd a8 0f 88 3d cd 2b 72 3e
       0.09756123 -0.11248603 0.06643611 0.23649521
000360 54 04 4d 3d fb e1 ab 3e 1c ee 87 3e e0 c8 4c 3e
       0.050052956 0.33570847 0.2654885 0.19998503
000370 eb 18 ce 3e e6 57 06 3e f4 73 be 3e 48 c0 24 bf
       0.40253386 0.13119468 0.3719784 -0.643559
000380 71 4a e6 3d 03 8a b3 3e 10 c7 c9 bd bf d2 9e bc
       0.11244667 0.35066232 -0.09852421 -0.019387601
000390 ca aa 03 3e 80 84 56 3c dc 31 8e 3e c3 3a 17 be
       0.1285812 0.013093114 0.27772415 -0.1476851
0003a0 09 02 50 3e f7 6e bd be f3 ab 38 3e 7e 44 6d be
       0.20313276 -0.36998722 0.18034343 -0.23170659
0003b0 ff f9 04 be e0 ec 14 be d8 6e 48 3e 86 c3 ff 3a
       -0.12985991 -0.14543486 0.19573534 0.0019513227
0003c0 20 6c 7c 3e 54 83 de bc 94 51 e5 bd 04 0f 0b 3e
       0.24650621 -0.027162232 -0.111972004 0.13579947
0003d0 3b b7 1b bf 17 1f 91 3d bc b0 a9 3e fe 71 77 3e
       -0.6082646 0.07086008 0.3314265 0.24164578
0003e0 d2 e3 35 be 7a 9c ae 3e e8 8b 27 3e 12 c4 a8 3d
       -0.17762688 0.34103757 0.16361964 0.082405224
0003f0 90 9f 34 3e e1 11 0a 3e 6c 76 63 3d b7 f6 4b be
       0.17638993 0.13483383 0.055532858 -0.19918333

fc3.bias f4 [2]
000000 01 1c 51 3d 2a 83 62 3d
       0.051052097 0.05530087

fc1.weight f4 [128, 4]
000000 fc 2e 30 3c 44 bd 46 3d 50 37 6a 3d fb e6 31 be
       0.010753389 0.04852034 0.057181656 -0.17373268
000010 d6 08 6d be e9 43 5b be 6d fd 45 be 6e b4 8b bd
       -0.23147902 -0.21412624 -0.19334956 -0.068215236
000020 f6 7a 30 be bf 18 e4 bd 49 b7 31 3d 29 b7 f7 bc
       -0.17234406 -0.111375324 0.043387685 -0.030238705
000030 ba 04 bc 3d bc ef c1 3d df 86 6f 3d 54 39 01 be
       0.09180589 0.09469554 0.058478232 -0.12619525
000040 48 59 c8 3c 30 b0 58 bd ef 7a 78 3e 13 d9 56 bd
       0.024456635 -0.0529024 0.24265645 -0.05245311
000050 8d ca 3f bc 23 28 22 3d c8 52 a2 3e 05 8d 8f 3c
       -0.011706007 0.03958906 0.31703782 0.017523298
000060 18 01 44 3c 63 7c 1b be 83 4b b8 bd 4b 6b 1a 3e
       0.011963151 -0.15184169 -0.08998778 0.15079992
000070 66 20 16 bd 43 4d 4e 3e 89 35 76 3e 21 85 3a 3e
       -0.03665199 0.2014666 0.2404386 0.18214847
000080 74 96 a6 3c 98 de 07 3d 06 ae de 3e cd 8d 8b 3d
       0.020335414 0.033171266 0.43492144 0.06814156
000090 43 43 87 3d a2 70 e7 bd b1 72 32 be 3b 65 d5 bd
       0.06604626 -0.1130078 -0.17426564 -0.10419699
0000a0 5f 7b 59 3e 35 ec 7e be a5 44 b3 bd b0 20 ae bd
       0.21238469 -0.24894793 -0.08753327 -0.085023284
0000b0 9e 94 a3 3c 09 a1 47 be ef d8 0b bd ff 7d 72 bd
       0.019968327 -0.19495024 -0.03414243 -0.05920219
0000c0 2c ff 69 3e 0c bc ef 3d 51 ca 8d be 78 6b c3 bd
       0.22851247 0.11705789 -0.27693418 -0.095419824
0000d0 bc 03 6c be f6 32 04 bd 4d 06 9f 3d 3b 7b 6f bc
       -0.230483 -0.032275163 0.07764874 -0.014616783
0000e0 e9 7f 3b 3e f7 81 06 3e a3 cc 9b 3e ed f7 cf 3c
       0.18310513 0.13135515 0.30429563 0.025386775
0000f0 fe 80 26 3d 86 12 6a bd 46 03 df 3e d8 0a 73 3e
       0.04065036 -0.05714657 0.43557185 0.23734605
000100 59 84 92 3d 68 6f 98 bd ba 28 67 3e 0e b0 15 bd
       0.071541496 -0.07443124 0.2257413 -0.036544852
000110 06 5f 8c 3e c3 69 af 3c 64 f2 f1 bd e2 a7 0c 3d
       0.27416247 0.021412736 -0.118138105 0.034339793
000120 93 90 f6 bc 4b 18 10 3e 88 59 34 bf f6 5c c6 bb
       -0.030098235 0.14071767 -0.70449114 -0.0060535623
000130 4f 66 41 3e 4a f4 58 be 88 e3 9d be f3 78 65 3d
       0.18886684 -0.21186939 -0.30837655 0.05602355
000140 b6 79 99 bd e3 9e 95 3d 90 61 2c 3d 84 1d 88 3d
       -0.07493918 0.07305696 0.04208523 0.06646255
000150 9f 9e 79 3d dc 54 00 3a d1 47 f0 be 21 5c 96 3d
       0.06094229 0.00048954575 -0.46929792 0.07341791
000160 52 58 d9 bd b9 fa 87 bd 61 60 33 3e f4 41 1c 3d
       -0.10612549 -0.066396184 0.17517234 0.038148835
000170 2e fb 60 bd f2 e1 81 bc 1a 1a ce be 50 e6 5b 3c
       -0.054927044 -0.01585481 -0.4025429 0.01342161
000180 d5 00 92 3d 48 82 4a be a5 ac 97 bd d2 df f9 bd
       0.07129065 -0.19776261 -0.07405976 -0.122008935
000190 85 20 94 bd 66 3c 11 bd 60 6b e3 3e d3 7b bb ba
       -0.07232765 -0.03545799 0.44417858 -0.001430387
0001a0 53 39 7e bd b4 15 36 3d 6d 21 df 3e e6 a9 48 3d
       -0.062066387 0.04445429 0.4358019 0.048990153
0001b0 73 a2 ba 3e 88 26 93 bd 3e 78 93 be df ea 30 3d
       0.36452064 -0.07185084 -0.28802675 0.04319274
0001c0 77 38 0d be 74 43 8a 3d 37 75 02 bf 73 00 97 be
       -0.13791071 0.06751147 -0.50960106 -0.2949253
0001d0 96 2e c9 bc bd 41 b2 3d 41 53 02 3f 84 ca 6e bd
       -0.024558347 0.08703945 0.50908285 -0.058298603
0001e0 83 c0 78 3d 0a eb a2 bd 78 f7 6d be 62 4c 88 be
       0.06073047 -0.079549864 -0.23238933 -0.26620775
0001f0 7e 92 97 bd c9 57 32 bd f2 68 0e 3f 4d 5a 65 be
       -0.07400988 -0.04354075 0.55628884 -0.22397728
000200 71 c7 57 bd 67 99 1f 3e a6 ba c6 3e 5c c5 f7 3d
       -0.052680437 0.15585862 0.38814276 0.1209819
000210 13 98 8f 3d ec 8c cd bd 75 06 f7 3d 97 bd 50 3e
       0.07011428 -0.10036644 0.120617785 0.20384823
000220 a8 89 54 3e 29 3e 98 bc be 11 8a be e3 e8 30 3c
       0.20755637 -0.018584328 -0.2696666 0.010797712
000230 88 39 a4 3c bd f5 56 be 9f f2 08 bf 68 75 8c bd
       0.020046964 -0.20992179 -0.5349521 -0.06858331
000240 5a 54 67 be 0e 6e 2d be a9 ab c5 bb 38 9b ff 3d
       -0.22590771 -0.16936514 -0.0060324264 0.124807775
000250 15 46 95 bd fa ee ff bd 08 88 d5 3c 3f 5a 17 be
       -0.07288758 -0.12496753 0.026065841 -0.1478052
000260 28 73 05 be 76 f3 97 bd 7e 51 89 bd 8c 14 79 3d
       -0.1303221 -0.07419483 -0.067049965 0.06081061
000270 c6 32 02 3e 3b 15 ab 3d 85 1a 8b bc 1f dc 90 b9
       0.12714681 0.08353659 -0.016980419 -0.00027629823
000280 2f 28 2d bd b8 3d 89 bd 08 05 36 be 11 b9 85 be
       -0.04227465 -0.06701225 -0.17775357 -0.26117757
000290 ca 65 16 be 83 68 2d 3d 04 36 4b 3e ce 13 65 bd
       -0.14687267 0.042336 0.19844824 -0.05592709
0002a0 35 38 a3 3d 0c f7 98 3d cc 65 48 3e 85 b9 a7 3d
       0.07969705 0.074689955 0.19570082 0.08189682
0002b0 c7 43 35 be ba 85 08 3d 78 28 a0 3e ea 3c 01 3e
       -0.17701636 0.033330657 0.31280875 0.12620893
0002c0 8e 6b 2d 3e 82 16 e4 bd a2 cf a5 bd 1c 8a a0 3b
       0.1693556 -0.111371055 -0.080962434 0.0048992764
0002d0 54 5c 85 3d 17 b7 ef 3d ae 33 a4 be 96 b4 53 bd
       0.06511751 0.117048435 -0.32070678 -0.051685892
0002e0 e5 f2 90 bc 04 22 d6 3d 76 3e 81 3e 0e 73 aa bc
       -0.017693946 0.10455707 0.25242966 -0.020806815
0002f0 ea 47 4d 3e c4 ab 7c 3b e5 78 c3 3e 1b c7 63 bd
       0.20046964 0.0038554529 0.38178173 -0.055609804
000300 c1 7c d7 bd ae 9b c5 3d bf ae fa 3e 7e 0f 3a 3e
       -0.10521842 0.09648834 0.48961446 0.18169972
000310 10 72 72 3e 3b e3 0d 3e 27 12 ac 3e eb 75 03 bd
       0.23676324 0.13856213 0.336076 -0.032094877
000320 31 6c 8a bd 94 23 99 bd b8 4a 7c 3e 60 53 2f be
       -0.06758917 -0.07477489 0.24637878 -0.17121649
000330 e7 90 58 3c a0 f8 05 3d 47 db 4b 3e 26 79 87 bd
       0.013218141 0.03270781 0.19907866 -0.06614904
000340 19 58 20 be cb c2 f3 bd ad e5 c6 bd 92 7f 3b 3d
       -0.15658607 -0.11902388 -0.09711776 0.045775957
000350 3a 95 99 bc 97 30 d8 bd 9c 33 77 3d ab 4e b0 bd
       -0.018747915 -0.10556143 0.060351953 -0.08608755
000360 c0 df ac bb 2b 00 bd 3d 53 1b fb be 34 db 8a 3c
       -0.0052756965 0.09228548 -0.49044284 0.016950227
000370 02 6c 86 be 2c 3c 70 3e 7f f2 0c 3e 4e 3b 5b 3d
       -0.26254278 0.23460454 0.1376438 0.053523354
000380 00 b6 74 be ab 97 00 3e 6e a0 cf 3e 0f f7 ff 3d
       -0.23897552 0.12557857 0.40552086 0.124982946
000390 5e 39 69 bd 46 04 a1 3c f5 36 ca be e3 31 66 3e
       -0.056939475 0.019655358 -0.39495054 0.22479968
0003a0 20 59 fb bd 67 0e 9f 3a 1b ab 85 be 96 36 b0 be
       -0.122728586 0.001213503 -0.26107106 -0.34416646
0003b0 8c 65 d2 bd e4 96 b7 bd 3b 76 14 3f 88 b6 85 3d
       -0.10273275 -0.08964327 0.57992905 0.06528956
0003c0 3a 0c 28 3e c5 57 03 be 6a 0d 03 bf 81 67 35 3d
       0.16410914 -0.1282645 -0.51192343 0.044288162
0003d0 da 84 a8 bc 2b d4 93 3e 2d 51 af 3e 85 8f a0 3d
       -0.020571161 0.2887281 0.3424162 0.07839874
0003e0 de 5f a3 bd 10 4e fa bd 87 34 54 be d1 75 fd 3c
       -0.079772696 -0.122219205 -0.20723163 0.030939968
0003f0 02 68 bf 3d d4 3c 23 bd 9f 00 23 bf a6 e2 88 be
       0.0934601 -0.039852932 -0.6367282 -0.2673542

fc1.bias f4 [128]
000000 7d b7 12 bd 55 96 22 3d 00 42 ad 3d 77 56 65 bc
       -0.03581952 0.03969415 0.08459854 -0.013997666
000010 13 0f 9c 3d ef 2e 27 3c ff be ba 3d a9 90 67 3d
       0.07620063 0.010204061 0.09118461 0.056534443
000020 33 fd 6f bd 1d bf 07 be b8 61 ab bc 58 9a 2e 3d
       -0.05859108 -0.13256498 -0.02092062 0.042627662
000030 f5 1f 16 bd e6 ae 15 bd 0c c2 85 3d a9 fc 92 bc
       -0.03665157 -0.03654375 0.06531152 -0.017942743
000040 17 ed cd 3d 50 ba 9e 3d 39 7d 0d be cc 8f 06 3d
       0.10054987 0.0775038 -0.138173 0.03285198
000050 f2 b7 ce 3d 99 7f a6 3d 36 63 6d bd 1a fc 41 3d
       0.100936785 0.08129806 -0.057955943 0.047359563
000060 a0 0d a6 3d a1 4d b0 bd c3 6e 03 3e 88 df 2f bb
       0.081080675 -0.086085565 0.12835221 -0.0026836116
000070 ef a4 0d bd c9 2d a5 3d e1 21 ff bd d9 ba 8e 3d
       -0.03458112 0.080653735 -0.12457634 0.06969232
000080 01 1b f2 3d 8c 28 9c bc d4 9d bc 3d ea 70 71 3d
       0.11821557 -0.019062303 0.09209791 0.058945574
000090 35 6c 3f bc fd bb 42 3d 05 95 b4 3c 26 2f 44 3d
       -0.011683513 0.04754256 0.022043714 0.047896527
0000a0 60 34 6c bd 90 cf 67 3d d0 72 ba 3d 06 b1 8e 3c
       -0.057667136 0.05659443 0.0910393 0.017418396
0000b0 fd 5f 93 3c fe ae e6 bd ec 7d 55 3d 42 83 9d 3d
       0.017990107 -0.11263846 0.05212204 0.07691051
0000c0 d8 b6 e2 3c dd f9 9a 3d d6 1f ae 3d d0 f6 ab 3d
       0.027675077 0.07567189 0.08502166 0.08396685
0000d0 4d 3b 91 bd 60 b7 a3 3d d1 dd 33 be 46 46 34 3d
       -0.07091389 0.079939604 -0.17565085 0.04401233
0000e0 6c d3 d9 bd 5b ba 6e 3d 5b 11 da bd a6 f4 ff bd
       -0.10636029 0.05828319 -0.106478415 -0.12497835
0000f0 9f d3 27 3d 24 e3 a2 3c f0 4b 5c 3d 9b d9 16 bd
       0.040973302 0.0198837 0.053783357 -0.03682862
000100 9f 1a a1 3d 74 4c fd 3d f2 b9 00 be 15 9e 9f bd
       0.07866406 0.12368098 -0.12570933 -0.07793824
000110 06 21 c1 bd 9a d3 a4 bd 17 a1 16 3d 94 3e 22 bd
       -0.09430127 -0.08048172 0.03677472 -0.03961046
000120 6e 8f a7 3d 69 c0 65 3d ce ff 67 bc f6 44 85 3d
       0.08181654 0.0560917 -0.01416011 0.06507294
000130 a3 cf 32 3d 6c 65 97 3d e8 4b 44 bd 68 cf e7 3d
       0.04365505 0.073923916 -0.047923952 0.113188565
000140 9b 17 c4 bd 4e 9a 47 3b c5 aa 04 bc 49 5c 92 3d
       -0.09574815 0.0030456963 -0.008097355 0.07146508
000150 b5 54 f0 3c 16 49 b3 bd 89 88 58 bc c0 2b 02 bd
       0.029337266 -0.087541744 -0.013216146 -0.031780005
000160 ed 4f 93 bd c2 d0 89 3d 04 7c 88 bd cd 88 10 3d
       -0.07192979 0.067292705 -0.06664279 0.035286713
000170 7f c5 2f 3d 10 dc 04 bd 52 48 88 3d 7e 2c c0 3d
       0.042912956 -0.03243643 0.06654419 0.09383486
000180 d5 76 97 3d 49 87 f2 bd 52 b0 a8 3d c5 00 44 bb
       0.07395712 -0.1184221 0.082367554 -0.0029907685
000190 35 f4 55 3d 13 a9 d4 3c 52 cb ba 3d 1e 5d a4 3d
       0.052234847 0.025959527 0.091208115 0.08025573
0001a0 84 dc e5 bc fa 9b 91 3d 95 d3 db bc e5 8d 0d 3d
       -0.028059252 0.07109828 -0.026834289 0.03455915
0001b0 76 f6 35 3d 53 af d2 bd cc 2a 02 bd d2 32 9e 3d
       0.044424497 -0.10287347 -0.031779096 0.07724537
0001c0 b2 18 a5 3d 46 c8 3e bd 1f aa 85 bd 52 ff b8 bd
       0.08061351 -0.046577714 -0.06526589 -0.090330735
0001d0 c9 9e 6c 3d 6b d6 ac 3d 98 13 cd bd ae 62 32 3d
       0.057768617 0.084393345 -0.10013503 0.04355114
0001e0 18 87 92 3d 4c 1b de 3c fb af e3 3c f1 26 ad 3d
       0.07154673 0.027112626 0.027793875 0.08454693
0001f0 76 a5 ec bd af fe df 3d 66 f8 b2 3d 53 83 d9 3d
       -0.11554997 0.10937249 0.087387845 0.10620751

fc2.weight f4 [128, 128]
000000 28 81 fd bd 03 17 8e bc eb ab 05 3e e8 79 9f 3b
       -0.1237815 -0.017344957 0.13053863 0.0048668273
000010 b9 f4 bc 3d 33 85 ff bb 52 8e 64 be d1 c9 c1 3c
       0.09226365 -0.007797861 -0.22319916 0.023655804
000020 a6 eb 92 be 48 58 99 be 09 ea 81 3d 83 65 47 3e
       -0.2869541 -0.29950166 0.06343467 0.19472317
000030 38 e0 89 3e 67 52 75 bc 56 df 84 3c ae 5b 13 3d
       0.26928878 -0.0149732595 0.016219776 0.035976104
000040 42 0f 04 3e 1e 44 74 3e c3 16 4d be 9f 63 1c 3e
       0.12896445 0.2385411 -0.20028214 0.15272377
000050 d7 42 ac 3e c5 06 fb 3d 24 1b 8d bb d3 a6 17 3e
       0.33644745 0.122571506 -0.004306214 0.14809732
000060 98 f9 9d 3e 20 14 ef be 6e ab 76 3e ab c7 00 3e
       0.30854487 -0.46695042 0.24088833 0.12576167
000070 09 49 83 be 31 fb 5d 3e d4 b3 f6 3c 8a d3 58 3e
       -0.2564166 0.21677853 0.030115046 0.21174446
000080 dd 0b 2a 3e e9 10 d5 bd 5e 2b 24 bd 47 fe 32 bd
       0.16606088 -0.10403616 -0.04008042 -0.04369953
000090 46 2b 06 3c bd 5c c4 3d b4 42 02 3e 30 16 c0 3c
       0.008189028 0.09588001 0.12720758 0.02344808
0000a0 9b fc 2c 3d de 31 b7 bd 1e 08 9b bd a3 62 3f 3e
       0.04223309 -0.08945058 -0.075699076 0.1868997
0000b0 ad 90 44 3e 3a 80 84 be 78 09 31 3e 03 5c 1f bd
       0.19195814 -0.2587908 0.17288768 -0.03890611
0000c0 fc 56 97 bc 98 01 16 3e d2 f7 e6 bd d3 87 d0 bc
       -0.018474095 0.14649045 -0.11277737 -0.025455391
0000d0 ae 73 36 be 8d 1b f3 3d f8 4c a0 be fb 5c 0c 3e
       -0.17817566 0.11870489 -0.31308722 0.13707344
0000e0 f5 85 36 bf b7 9c 94 bd 9e 0a df 3d 61 4d 21 be
       -0.7129815 -0.072564535 0.10890697 -0.15752174
0000f0 3c 6b cd bd 96 75 0f 3e ee a2 a5 3d b0 bb 53 bd
       -0.10030219 0.14009699 0.08087717 -0.051692665
000100 e6 3d 45 3d ac 58 c2 be c3 a6 03 3b 18 fc c0 be
       0.048154734 -0.37958276 0.0020088411 -0.37692332
000110 a2 3e c0 be 5d c3 9d 3b e8 6e 8d be 92 a4 6e bd
       -0.37547785 0.004814549 -0.27623677 -0.058262415
000120 e2 01 4e bd cf 01 59 be 94 9d 75 bd 44 31 7f 3e
       -0.050294764 -0.21192096 -0.05996473 0.24921137
000130 dd 46 14 be de 77 99 ba 30 6d 09 be 9a a8 d8 3d
       -0.14480157 -0.0011708697 -0.13420558 0.10579033
000140 13 5e 89 bf 83 56 14 3e 71 9d a6 3d ff e1 05 3e
       -1.0731834 0.14486127 0.08135498 0.13074492
000150 01 85 8a 3e 21 cc 10 be fa 96 71 3d d2 be a1 bd
       0.270546 -0.14140369 0.058981873 -0.07897724
000160 f3 af 87 be c1 e9 56 3e fd 69 6e bd 5c cf 14 be
       -0.26501426 0.20987608 -0.058206547 -0.14532226
000170 15 3b 04 be 8f 69 8a bd 33 53 85 bb 7f 03 ce 3b
       -0.12913163 -0.06758415 -0.004068756 0.006287038
000180 56 4a da bd 6f 4b 39 bf bb fd 00 3e 02 14 3b be
       -0.1065871 -0.7238073 0.1259679 -0.18269351
000190 bf 36 1f 3e c1 25 bb 3d 9d 73 27 3e 9c e5 c6 bd
       0.15548228 0.0913806 0.16352697 -0.09711763
0001a0 be 4c 5e bd 87 23 b7 3d e8 10 ea 3d d6 c9 f3 bd
       -0.054272406 0.08942323 0.11429006 -0.119037315
0001b0 cb d3 72 be 04 67 f9 be 23 98 2f bd 02 5e e3 bc
       -0.23713605 -0.48711407 -0.0428697 -0.027754787
0001c0 59 83 05 3e d9 19 85 bc 0a be 54 3c d4 eb a1 be
       0.13038386 -0.016247677 0.012984762 -0.31625235
0001d0 56 12 81 bd a9 ae 8e 3e 06 33 1a be 34 b3 90 b8
       -0.063023254 0.2786763 -0.15058526 -6.899834e-05
0001e0 ac 37 2c 3d de ff 36 3d 25 61 27 3d e2 9e cc 3d
       0.04204528 0.044677608 0.04086413 0.09991242
0001f0 e0 ad 63 bd 08 52 6b 3e c5 3f 60 be 13 43 83 3e
       -0.055585742 0.22980511 -0.21899326 0.2563711
000200 c2 31 65 be c9 e4 85 3c dc 24 f8 bd 43 6b 9f 3d
       -0.22382262 0.016344445 -0.12116405 0.077841304
000210 4a 9b a2 3e f3 a7 b4 bd 53 33 5d 3e 9b 1e 79 3c
       0.317591 -0.08821096 0.2160161 0.015205051
000220 9d cc 3c be 69 55 78 be 1b 6b 9d 3d 0e 54 5a 3e
       -0.18437429 -0.24251331 0.07686444 0.21321127
000230 44 86 db bd fd 5f 8f bd fe ba 89 3e f0 f5 72 bd
       -0.107189685 -0.0700073 0.26900476 -0.059316576
000240 d3 61 b7 bd 17 ea 27 be 43 66 c9 bd fb 25 4d bc
       -0.08954205 -0.16397892 -0.09833958 -0.012521262
000250 d5 09 cc 3d 80 4b c9 3c f3 14 d6 bd 96 75 cf 3d
       0.09962813 0.024572134 -0.104532145 0.101298496
000260 2c 47 37 bc d6 8b 8c be 48 4c 80 3d 21 ec 1c be
       -0.011186402 -0.27450436 0.062645495 -0.15324451
000270 1f fc 7b be d7 d1 ab 3c 5c 28 bc 3d 64 73 1c 3e
       -0.24607895 0.020974083 0.091873854 0.15278393
000280 7f 6c 93 bb 01 ef cb 3b 1c f5 45 3e 0c db 4d 3e
       -0.0044990177 0.00622356 0.19331783 0.20103091
000290 c5 43 01 3e d5 84 45 3d 41 91 be bc 4e 8f 87 3d
       0.12623508 0.04822238 -0.023262622 0.0661913
0002a0 62 24 8c 3c 70 9d a4 3d d7 f5 db 3d 62 1c a4 bd
       0.017107192 0.08037841 0.107402496 -0.08013226
0002b0 fd 0b 00 be 1a 6a e4 bd 82 88 7b 3e 5f 23 de 3d
       -0.12504573 -0.1115305 0.24563792 0.1084659
0002c0 11 d7 0d 3e 79 ca 37 3e 7b 0f 16 3c 21 62 42 3e
       0.13851573 0.17948331 0.009158964 0.18982746
0002d0 5a 1e 0b 3e bb a1 21 3e 22 6d be bd 9a 7d 91 3c
       0.13585797 0.15784352 -0.09298159 0.017760087
0002e0 f9 0d c5 be c3 f7 2e bd bb 42 ca 3d fd c7 2a 3c
       -0.38487223 -0.042716753 0.09876009 0.0104236575
0002f0 eb 70 cf 3d 1f 00 63 3d 3f 75 03 bd 8a 59 9e 3c
       0.10128959 0.055420037 -0.032094236 0.019329805
000300 3c fc 2a 3e 43 e5 e1 3d 27 63 85 be c6 13 02 be
       0.16697782 0.11030056 -0.2605221 -0.12702855
000310 11 a5 a8 be 78 f0 1c be a5 b4 1c 3e b9 e8 cb bc
       -0.32938436 -0.15326107 0.15303285 -0.024891244
000320 f0 ea ab bd d7 e9 3b 3d d0 af 2f 3d cd 26 dd bc
       -0.0839442 0.045877304 0.042892277 -0.02699604
000330 84 77 35 bd 23 2d 85 3e ac c3 4b 3d fa 84 8d 3e
       -0.044303432 0.26011 0.049747154 0.27640516
000340 0d 6d 35 bf 78 8e 14 3e 51 da cd 3d ee 30 1d 3d
       -0.70869523 0.14507473 0.10051406 0.03837674
000350 3b 6b 18 3d 5e 88 8d be b5 d8 4c bd f6 ef 9c 3d
       0.037211638 -0.27643102 -0.050011355 0.076629564
000360 51 e5 07 bf 3c e5 fd 3b f8 eb 39 be 7a e1 06 be
       -0.53084284 0.007748274 -0.18156421 -0.1317195
000370 60 38 61 be 39 d6 b7 bd c9 c0 b8 bd e4 83 32 3e
       -0.21994162 -0.089764066 -0.09021146 0.17433125
000380 7c 5a 42 3d 1b 30 70 be 25 c9 30 3e f0 61 bd 3e
       0.047449574 -0.23455851 0.1726423 0.36988783
000390 d6 e9 61 3e 05 dc 0a 3e 52 37 c5 3c 55 ec 8b 3e
       0.22061858 0.13560493 0.02407423 0.27328745
0003a0 a3 6f d4 bd 30 9a 9d bd 66 52 8b 3d 55 fa 95 be
       -0.103728555 -0.076954246 0.06802826 -0.2929255
0003b0 f2 cd f7 bd 82 59 fa be 2a bf 9d bd 33 89 6c 3d
       -0.12099828 -0.48896414 -0.07702477 0.05774803
0003c0 aa 1d 4a bd 01 14 03 be 55 41 90 be 02 c9 24 be
       -0.049344696 -0.128006 -0.28174844 -0.16092303
0003d0 44 cd bf bd 8d e9 15 3e 04 66 bf bd 30 fb 1e 3d
       -0.09365323 0.14639874 -0.0934563 0.03881377
0003e0 0e 67 ff bd 4c c8 87 3d 75 1c d6 3d e5 65 80 3e
       -0.12470828 0.066300005 0.104546465 0.2507774
0003f0 b0 07 80 be 86 91 dc 3d 12 8f 04 be b8 48 75 3e
       -0.25005865 0.10769944 -0.12945202 0.23953521

fc2.bias f4 [128]
000000 55 ed bf 3d 98 aa 93 3d fe 2c 81 bc fa da 88 bc
       0.09371439 0.072102726 -0.015768524 -0.016705979
000010 7d b1 5f 3d 86 b4 5d 3d fe 28 ec bc 46 2f 8f 3d
       0.054612625 0.05412724 -0.02882814 0.069914386
000020 b7 9e 3c bd 90 0f 4c 3d d6 91 a1 3d 98 bb 85 3d
       -0.0460498 0.04981953 0.07889144 0.06529921
000030 1c b3 94 3d 67 24 aa 3d 3f 07 88 3d 33 dd 60 3d
       0.07260725 0.083077244 0.06642007 0.054898452
000040 ed 28 2f bc 2d b1 70 3d 9d c3 7e 3b ee bd 8e 3d
       -0.01069091 0.058762718 0.0038873919 0.0696982
000050 a6 b3 16 bd 2a 41 29 bd 66 0a 58 3d a8 7c 1e bd
       -0.03679242 -0.04132191 0.05274429 -0.0386931
000060 5d 9c 8f 3d 1a 1c 94 3d 4e 85 58 3d 71 44 7b 3d
       0.07012246 0.072319224 0.052861504 0.061344568
000070 6f cd 60 3d a7 3f 71 3b 64 ba e6 bc 58 9c d1 3c
       0.054883417 0.0036811621 -0.02816505 0.025587246
000080 3a 12 91 3d 37 f6 bc 3d 52 70 73 bc ce a1 ca 3c
       0.070835546 0.09226649 -0.014858322 0.024735358
000090 07 ca dd 39 32 bd 80 3d 77 d6 6f 3d b6 b3 5a 3d
       0.00042302927 0.06286086 0.05855414 0.053394042
0000a0 57 7c b1 bb c1 48 95 3d cf cb 82 3d 68 bd 55 3d
       -0.005416434 0.07289267 0.0638653 0.052182585
0000b0 31 bd 04 bd 2a 71 67 3d d3 0b 78 3d 6e 2f 56 3d
       -0.03240699 0.056504406 0.06055815 0.052291326
0000c0 f2 90 7b 3d 58 f8 97 3d 2a 08 1e 3d 6a 00 b7 3c
       0.061417527 0.07420415 0.038582005 0.022339065
0000d0 76 86 9d 3d dd 46 38 bd 3f b3 5d 3d cf c1 26 bc
       0.07691662 -0.044989455 0.05412602 -0.0101780435
0000e0 f1 1b 7e 3d 39 a9 ad 3d 9b 9e a9 3c 69 a0 38 bd
       0.062038366 0.08479542 0.020705512 -0.045074854
0000f0 da cb f5 bc 91 c3 5d 3d 58 a5 fa 3d 6f 6e 58 3d
       -0.03000443 0.054141585 0.12238568 0.052839693
000100 11 e8 df bc 4b 04 28 ba 4b 4e a2 bb 64 d0 23 bd
       -0.027332338 -0.0006409331 -0.004953181 -0.03999366
000110 d4 1e b6 bc 3d 04 56 bd 81 38 ab 3c 50 3f 2a bc
       -0.022231497 -0.052250136 0.020900967 -0.010391071
000120 eb 5e 97 3d 98 81 95 3d 9f 88 4d 3d 75 b4 52 3d
       0.07391151 0.07300109 0.05017912 0.05144163
000130 94 95 28 bc b4 4f 63 bc 08 92 6d bd 00 00 00 00
       -0.010289568 -0.013873983 -0.058000594 0.0
000140 e0 45 93 3d 16 ad a8 3d ae 26 aa 3d eb bb 52 3d
       0.07191062 0.082361385 0.08308159 0.051448744
000150 06 d3 40 3d f5 36 37 3c 57 9e 8b 3d 81 de ad 3d
       0.047076248 0.011182536 0.0681731 0.08489705
000160 3d ee 4e 3d cd 71 e8 3d a6 13 9b 3d 54 f1 6b 3d
       0.05052017 0.11349831 0.07572107 0.057603195
000170 f0 7f 93 3d 1a eb 8d 3d b3 cb 52 3d 46 bf 54 bd
       0.072021365 0.06929608 0.051463794 -0.051940225
000180 84 20 8b 3d 71 a0 35 3d 11 3a bf 3c bf 2e 1b bc
       0.06793311 0.044342462 0.023343118 -0.009471594
000190 e5 0e 60 3d 4d c0 64 3d f6 ef af 3d 0c a6 27 bd
       0.054701705 0.055847455 0.08590691 -0.04092984
0001a0 24 f5 84 3d f7 f6 24 bd 4b 67 9b 3d a8 be d4 bc
       0.06492069 -0.040274587 0.07588061 -0.025969818
0001b0 ce 0d c7 bc db 7a 3a bd 2a 21 79 3d 81 cd 41 bd
       -0.024298575 -0.04552732 0.060822643 -0.047315124
0001c0 d8 f1 75 3d c1 79 32 3d 70 fe 8f 3d 91 94 60 3d
       0.060045093 0.043573145 0.07030952 0.054829184
0001d0 12 7a 8c bd 00 00 00 00 29 48 a7 3d 2a 24 53 3d
       -0.068592206 0.0 0.0816806 0.05154816
0001e0 67 0b 30 bd 98 f5 ed 3d 3a 24 2d 3d 3b 67 4f 3d
       -0.042979624 0.11619109 0.042270876 0.050635558
0001f0 dc 8e 98 3d de 98 71 3d d5 fe ea 3b 99 64 52 bd
       0.07449123 0.058983676 0.0071714916 -0.05136547
