Project/output/mountaincar/ddqn/final_model.pth (torch, 285764 bytes, 24 tensors)

fc1.weight f4 [128, 2]
-0.11114391 -0.3946484 -0.23259532 0.04166809 -0.39474806 2.491113 -0.11887673 0.034234136
0.0063466267 0.12965637 -0.06630681 -0.03563864 -0.013696202 -0.047031693 -0.17818534 -0.5160896
-0.10483649 -0.16175675 -0.21503997 -0.16342689 0.28508848 4.381097 -0.14202742 -0.36804056
-0.022404453 -0.35941687 -0.10351178 0.048588518 -0.08841496 -0.2599494 -0.37088513 1.18998
-0.35031283 -2.685146 -0.16178778 -0.07072291 -0.0021680184 -0.07717654 0.033055115 0.034342356
-0.21782555 -0.36688885 0.011414575 -0.16529515 0.28127876 0.092546895 -0.03876776 -0.3155002
0.06856619 0.15863289 0.46770966 2.2108302 0.027977375 3.1486015 0.21233624 3.9055035
0.19397785 4.199554 -0.19381298 0.26535884 -0.029865202 -0.4969359 0.6515073 3.8036752
0.040093146 0.18376862 -0.07960123 0.13999131 -0.3728662 2.5094612 0.7380364 2.2641928
0.011745976 -0.20269063 0.9694715 1.9865328 0.030750971 3.3984125 -0.8123319 0.32156566
0.0754749 3.7674909 -0.039912242 0.08781691 -0.25364453 -0.50603354 0.13797183 -0.018186778
-0.021213228 -0.1345226 0.572908 2.4292142 -0.23743924 -3.2473793 -0.12110559 -0.16142242
-0.11410366 -0.23658621 0.85804987 1.5356921 -0.026060734 0.25369883 -0.19413683 0.00089261547
-0.19959716 -0.66940993 0.7922823 2.5607162 0.17251703 4.171164 -0.37017033 2.425343
0.044804662 0.036855698 0.03306708 0.024342543 0.3308924 4.082446 0.26340806 3.7637725
-0.047052383 0.09493999 -0.023473281 0.18325938 -0.119579814 -0.3495137 -0.19732063 -0.22287041
0.02421997 -0.02040701 0.06342898 3.7090688 0.5474237 3.699818 0.005672648 0.18930316
0.43827432 3.7442207 0.042500824 -0.10206553 -0.03823961 -0.00057510094 0.22737268 3.5387685
-0.6309639 1.2379402 0.13850057 3.861985 -0.5507969 1.9503278 0.90851605 0.7140145
0.10412689 4.0178175 -0.056212243 -0.12920019 -0.06499882 -0.26428103 -0.17978093 0.4297626
0.5348116 2.7150576 -0.0168329 -0.16974495 0.12027132 3.8616512 0.021260658 -0.3638321
0.63549757 2.2390652 0.36155277 3.7485995 0.62039346 2.5466475 -0.4402155 0.62765265
0.9508957 1.3101794 -0.047500733 -0.071622156 -0.23587926 -4.0350466 0.8410863 2.1542218
-0.12265421 -0.6775252 0.01603649 -0.1593719 0.50490147 2.3147442 -0.02885407 -0.15971977
-0.07978398 3.855433 -0.1957228 -0.14701676 0.32858184 -0.365152 -0.13654025 0.2383558
-0.07059233 -0.06916243 0.017780894 -0.19110163 0.018985996 3.463642 -0.009554708 0.21254882
-0.087039724 -0.21138528 0.06407413 -0.34680578 -0.47131124 -2.9120538 -0.20482601 -4.39247
0.6417005 2.365453 -0.21095504 -0.79387754 -0.271738 2.631533 -0.19180268 -0.4248441
-0.26759204 3.2873697 -0.22192201 3.7683234 -0.33433935 -3.271358 -0.357561 0.59111243
0.013177047 -0.11163924 -0.0036449945 -0.23024775 -0.24582596 2.6425552 -0.017472396 3.7579856
-0.11296321 0.13726415 0.79513615 3.5286188 -0.11668433 0.1419765 0.21599312 3.9648063
0.84376395 2.2378168 0.036311846 0.09693361 0.8729076 1.2642951 -0.04548344 3.7851377
00000000: 6b9f e3bd 5b0f cabe 782d 6ebe 29ac 2a3d
00000010: 6b1c cabe 656e 1f40 a575 f3bd 1839 0c3d
00000020: 5df7 cf3b a4c4 043e ddcb 87bd d3f9 11bd
00000030: 0966 60bc 4ea4 40bd 3876 36be 731e 04bf
00000040: 83b4 d6bd 90a3 25be 7033 5cbe 6159 27be
00000050: 1ef7 913e f231 8c40 a36f 11be d06f bcbe
00000060: 8b89 b7bc 7d05 b8be fcfd d3bd c104 473d
00000070: e712 b5bd 1618 85be a8e4 bdbe 4451 983f
00000080: 345c b3be 6fd9 2bc0 b2ab 25be 2cd7 90bd
00000090: 5015 0ebb bc0e 9ebd cd64 073d 92aa 0c3d
000000a0: a90d 5fbe dbd8 bbbe 3304 3b3c 2243 29be
000000b0: c503 903e 3a89 bd3d f1ca 1ebd 3e89 a1be
000000c0: 6e6c 8c3d a970 223e a477 ef3e 3e7e 0d40
000000d0: cf30 e53c b082 4940 ac6e 593e c5f3 7940
000000e0: 21a2 463e bf62 8640 e976 46be 1ddd 873e
000000f0: dea7 f4bc 626e febe 2fc9 263f 6a6f 7340
00000100: b638 243d d72d 3c3e f805 a3bd e259 0f3e
00000110: 52e8 bebe 039b 2040 f4ef 3c3f 89e8 1040
00000120: 3272 403c 228e 4fbe 492f 783f b546 fe3f
00000130: 76e9 fb3c 977f 5940 fcf4 4fbf 41a4 a43e
00000140: 9692 9a3d 921e 7140 057b 23bd 5ad9 b33d
00000150: b2dd 81be 6a8b 01bf 7d48 0d3e 70fc 94bc
00000160: 5dc7 adbc 4bc0 09be 19aa 123f 3f78 1b40
00000170: 4623 73be 10d5 4fc0 3506 f8bd eb4b 25be
00000180: 2eaf e9bd a843 72be 28a9 5b3f 8f91 c43f
00000190: 527d d5bc d0e4 813e cecb 46be 69fe 693a
000001a0: 3363 4cbe 735e 2bbf 03d3 4a3f c6e2 2340
000001b0: 4ea8 303e 2d7a 8540 f786 bdbe d238 1b40
000001c0: 1885 373d 00f6 163d 5971 073d 036a c73c
000001d0: bb6a a93e 66a3 8240 6cdd 863e a6e1 7040
000001e0: 00ba 40bd e66f c23d 0a4b c0bc 59a8 3b3e
000001f0: 43e6 f4bd 76f3 b2be 6b0e 4abe 2438 64be
00000200: f568 c63c 9a2c a7bc 0ee7 813d 6261 6d40
00000210: f623 0c3f d1c9 6c40 9fe1 b93b b0d8 413e
00000220: 7e65 e03e 50a1 6f40 5815 2e3d bc07 d1bd
00000230: 23a1 1cbd 5fc2 16ba 62d4 683e 2f7b 6240
00000240: da86 21bf d374 9e3f 18d3 0d3e c32a 7740
00000250: 0701 0dbf 57a4 f93f 8294 683f a7c9 363f
00000260: 7b40 d53d f691 8040 cf3e 66bd 0e4d 04be
00000270: 1a1e 85bd d84f 87be 7e18 38be d809 dc3e
00000280: 6ae9 083f 81c3 2d40 26e5 89bc 9fd1 2dbe
00000290: cf50 f63d 4b25 7740 d52a ae3c 3348 babe
000002a0: f8af 223f d84c 0f40 721d b93e 0ee9 6f40
000002b0: 1bd2 1e3f 46fc 2240 ed63 e1be d8ad 203f
000002c0: e76d 733f f5b3 a73f 2190 42bd a3ae 92bd
000002d0: 558a 71be 1a1f 81c0 6f51 573f c5de 0940
000002e0: 2132 fbbd 4b72 2dbf f55e 833c 6332 23be
000002f0: 3941 013f c524 1440 5f5f ecbc 948d 23be
00000300: c965 a3bd 6abf 7640 8f6b 48be 908b 16be
00000310: e13b a83e 34f5 babe 35d1 0bbe 8b13 743e
00000320: b692 90bd 08a5 8dbd 3da9 913c 25b0 43be
00000330: 8588 9b3c 4fac 5d40 5a8b 1cbc 66a6 593e
00000340: e241 b2bd 6275 58be 4c39 833d 8790 b1be
00000350: b54f f1be 175f 3ac0 e9bd 51be 1d8f 8cc0
00000360: 7c46 243f 9563 1740 9904 58be 8f3b 4bbf
00000370: 3e21 8bbe 096b 2840 ec67 44be 2a85 d9be
00000380: d301 89be 4464 5240 863f 63be 362c 7140
00000390: 872e abbe ee5d 51c0 3c12 b7be 2553 173f
000003a0: 8ae4 573c 1da3 e4bd dce0 6ebb 11c6 6bbe
000003b0: cdb9 7bbe a01f 2940 4522 8fbc d682 7040
000003c0: 4159 e7bd f98e 0c3e 0b8e 4b3f e4d4 6140
000003d0: 32f8 eebd 4a62 113e 4d2d 5d3e 63bf 7d40
000003e0: ea00 583f 6438 0f40 bbbb 143d 2185 c63d
000003f0: df76 5f3f 6cd4 a13f d84c 3abd b23f 7240

fc1.bias f4 [128]
0.31119737 0.2532984 0.071067385 0.3042783 -0.015291105 0.2613514 0.371691 0.31327203
0.32873347 0.25592238 -0.09928122 0.33541214 0.3360931 0.32828912 0.32350603 -0.2627313
0.07708411 0.29825744 0.30898693 -0.020740896 0.24317458 0.35052425 0.33311623 0.35949653
-0.044775777 0.10326072 0.022842325 -0.08169622 -0.08509331 0.21070509 0.364444 -0.14695948
-0.032753494 0.29831627 0.06171253 0.13531637 0.34503913 0.08675028 0.025919933 -0.16398533
-0.06429554 0.32737893 0.28404412 0.32885098 0.2992477 0.11171507 0.08031159 0.2792486
0.297392 0.12551813 0.3440408 0.31936502 0.30493325 0.13244882 -0.08221144 0.06317778
-0.03150839 -0.02333576 -0.10497476 -0.08962812 0.37332052 0.35086408 0.27219215 0.26090953
-0.014726325 -0.051316302 -0.117908575 0.38680038 -0.10889477 0.37597016 0.3512197 -0.08036658
-0.03512797 -0.073333755 -0.021426842 0.0069700074 -0.07068067 0.3331679 0.30860573 0.21598732
0.114254914 0.32570383 -0.07124234 0.3155109 0.11460809 -0.104473755 0.128211 -0.2607722
0.032761514 0.32370394 0.08753736 0.1382669 0.3112588 0.31134674 0.1127122 0.36434302
-0.13039331 0.2659873 0.32758474 0.32386693 0.2974267 -0.010581424 0.009161297 0.26283416
0.30126268 0.3592634 0.062308002 0.08884776 0.13260317 0.28059298 0.079305254 0.27415198
-0.23262018 -0.19804195 0.089786924 0.20888345 0.4394517 0.32896903 -0.20976818 -0.10342224
0.3193271 -0.18885817 0.2907438 -0.08292949 0.12163454 -0.03148669 0.08036714 -0.11392478
00000000: 4355 9f3e 54b0 813e c78b 913d 5eca 9b3e
00000010: 8b87 7abc dacf 853e 484e be3e 3165 a03e
00000020: c14f a83e 4208 833e f453 cbbd 24bb ab3e
00000030: 6514 ac3e 8315 a83e 95a2 a53e b884 86be
00000040: 46de 9d3d 33b5 983e 8933 9e3e d0e8 a9bc
00000050: c202 793e ea77 b33e 368e aa3e ee0f b83e
00000060: ce66 37bd 5b7a d33d d41f bb3c 5950 a7bd
00000070: 6745 aebd 13c3 573e 6798 ba3e 8c7c 16be
00000080: 8728 06bd e9bc 983e 47c6 7c3d 6090 0a3e
00000090: f8a8 b03e 21aa b13d 0a56 d43c c5eb 27be
000000a0: 61ad 83bd 369e a73e 3b6e 913e 285f a83e
000000b0: ff36 993e dfca e43d 677a a43d acf9 8e3e
000000c0: c443 983e d387 003e 1e26 b03e d083 a33e
000000d0: 3620 9c3e aaa0 073e 795e a8bd 5a63 813d
000000e0: f10e 01bd a32a bfbc 02fd d6bd f38e b7bd
000000f0: de23 bf3e 75a4 b33e c55c 8b3e ef95 853e
00000100: af46 71bc 0b31 52bd 0d7a f1bd b30a c63e
00000110: 3904 dfbd 297f c03e 12d3 b33e 3c97 a4bd
00000120: 59e2 0fbd 0230 96bd 5887 afbc a964 e43b
00000130: 07c1 90bd fc94 aa3e 9201 9e3e c82b 5d3e
00000140: 7bfe e93d a7c2 a63e 81e7 91bd a58a a13e
00000150: a5b7 ea3d 56f6 d5bd bf49 033e ef83 85be
00000160: f030 063d 86bc a53e ca46 b33d d795 0d3e
00000170: 505d 9f3e d768 9f3e a7d5 e63d 2b8b ba3e
00000180: d385 05be 7d2f 883e 30b9 a73e e3d1 a53e
00000190: 5048 983e b65d 2dbc 4419 163c 3392 863e
000001a0: 1a3f 9a3e 5ff1 b73e ad36 7f3d d0f5 b53d
000001b0: 20c9 073e e2a9 8f3e cb6a a23d a65d 8c3e
000001c0: fc33 6ebe 82cb 4abe 35e2 b73d 8be5 553e
000001d0: d0ff e03e a16e a83e 78cd 56be 0acf d3bd
000001e0: d77e a33e 0964 41be 5fdc 943e f0d6 a9bd
000001f0: 881b f93d 30f8 00bd 8797 a43d 6551 e9bd

fc2.weight f4 [128, 128]
-0.06579801 -0.066451915 0.058411576 -0.092959546 0.08258291 0.098763034 0.07278891 -0.08567604
0.1421882 0.05709275 -0.15027785 -0.14960545 0.05215229 0.06870622 0.13090523 0.118495956
0.09506291 -0.047654536 -0.01244821 -0.095886596 0.0039581624 0.030023543 0.067519344 0.02931514
0.027781704 -0.001562296 -0.12000037 -0.06672451 -0.035522856 0.03989367 0.0036388203 -0.08703158
-0.07120225 -0.039584737 0.13055186 0.09954164 -0.13380004 -0.08598047 0.056989707 -0.05275221
-0.047742117 -0.12680294 -0.01694557 0.050346218 0.13393566 -0.043566585 -0.06056896 0.026727807
0.010438524 0.015679792 -0.14425221 0.11785904 -0.003352397 -0.015838115 -0.049517963 -0.14108051
-0.050622422 -0.14054526 0.0628497 -0.08038826 -0.14116946 -0.07982277 0.058346357 -0.086456105
-0.11831567 -0.060208317 0.1430787 0.08209349 0.036151223 -0.041944478 -0.06469778 0.031394918
0.11009269 -0.11810997 0.11914842 -0.14971715 -0.13839068 -0.14806224 0.04770734 0.0052099167
0.03625258 -0.114422865 -0.0924642 0.062432937 0.107017115 -0.12862344 0.0063048806 -0.010163711
-0.040025253 0.050916355 -0.116792716 0.07233635 -0.061324637 0.10122196 -0.039789274 0.105102316
-0.10225944 -0.14026925 0.14798123 -0.05383392 -0.0005144902 0.11209181 0.1367284 0.030487647
-0.14463288 -0.097355895 0.09528898 0.04837386 0.08086745 -0.058836047 -0.1420209 -0.025929973
0.06121857 0.10688259 -0.101670586 -0.075783715 0.1248998 0.12348121 0.14850733 0.10924399
0.039175343 -0.0013911224 -0.11547368 -0.055040304 -0.15282379 0.09995891 0.091719694 0.069027066
0.1282862 0.0026682443 0.28900373 0.20998801 0.032241866 0.09081614 0.11581603 0.15679106
0.13618624 0.28853586 -2.351406 0.219341 0.29412416 0.092591554 0.27200046 -1.5167999
-0.76566553 0.2515389 0.13460644 0.091034584 0.25487345 0.2325881 -0.12515165 0.21286027
0.10988892 0.19015646 -0.46677193 -2.5390902 -2.7309735 0.21389948 0.19706704 -1.5850339
0.13982369 0.119972266 0.3061485 -0.09617221 0.07461243 0.09296414 -0.4863327 0.13329682
-2.781877 0.25833574 0.18657224 0.22966808 0.037681136 0.13884921 -0.7422576 0.041909218
0.03972256 0.027793823 0.3319675 0.076894164 0.28785664 -0.090017356 -2.6173704 0.22153108
-0.033819564 0.12232831 -1.8800187 -2.0376117 0.06943346 0.20571077 0.048626445 0.25943953
0.033682533 -2.7970262 -1.6000836 0.3543225 -1.6211692 0.2767467 0.098602355 -2.2646625
0.27745402 -2.633445 0.3020795 0.23899324 -2.955724 0.2725092 0.1389955 0.08515772
0.046946365 0.25290912 -2.7485635 0.3204036 0.18995842 -2.0196037 0.019608395 -1.50012
0.09534566 0.28857553 -0.6851982 0.07118667 0.23609215 0.12152242 0.008562054 0.04097145
-3.2583992 0.053723656 0.118677005 0.09954855 0.31289342 0.12920463 -0.33636752 0.20084928
0.28212717 0.22482191 -0.43800187 -0.65877897 0.15897502 0.24036461 0.013456656 0.112644404
-2.8436706 -3.081169 -0.61952126 0.07136138 0.38403746 0.2837915 -2.5447588 -2.883197
0.079887144 -1.5181326 0.14346915 -2.5298538 0.023600971 -0.13385703 0.13393745 -3.1125848
00000000: 1bc1 86bd f117 88bd fa40 6f3d 9361 bebd
00000010: 3b21 a93d 4644 ca3d 5a12 953d eb76 afbd
00000020: c999 113e 16da 693d 70e2 19be 2c32 19be
00000030: a49d 553d d9b5 8c3d 050c 063e 02ae f23d
00000040: 58b0 c23d 6731 43bd 94f3 4bbc 3160 c4bd
00000050: 79b3 813b eff3 f53c 9547 8a3d 4e26 f03c
00000060: 7596 e33c f4c5 ccba c1c2 f5bd dca6 88bd
00000070: 6a80 11bd 8b67 233d 4679 6e3b 9d3d b2bd
00000080: 7cd2 91bd 9b23 22bd 63af 053e 7ddc cb3d
00000090: e102 09be 8716 b0bd 0a6e 693d b412 58bd
000000a0: 3d8d 43bd a1d8 01be 70d1 8abc d637 4e3d
000000b0: 6e26 093e e072 32bd 2817 78bd 46f4 da3c
000000c0: 5806 2b3c e872 803c dab6 13be 1560 f13d
000000d0: e3b3 5bbb efbe 81bc 59d3 4abd 6977 10be
000000e0: 7559 4fbd 19eb 0fbe 58b7 803d 9aa2 a4bd
000000f0: ba8e 10be 1f7a a3bd 97fc 6e3d e60f b1bd
00000100: 7c4f f2bd ff9c 76bd 3983 123e a220 a83d
00000110: 4e13 143d f9cd 2bbd 4580 84bd f597 003d
00000120: 4778 e13d a4e3 f1bd 1604 f43d 744f 19be
00000130: 49b6 0dbe a19d 17be c668 433d f3b7 aa3b
00000140: 967d 143d 8956 eabd df5d bdbd aeb9 7f3d
00000150: ca2b db3d ddb5 03be 2c99 ce3b b285 26bc
00000160: 85f1 23bd ab8d 503d 0531 efbd 1525 943d
00000170: 8b2f 7bbd 754d cf3d 14fa 22bd e23f d73d
00000180: 666d d1bd bea2 0fbe 6488 173e f580 5cbd
00000190: dade 06ba 6490 e53d 8802 0c3e 3bc1 f93c
000001a0: a41a 14be 8762 c7bd de26 c33d ab23 463d
000001b0: d59d a53d 11fe 70bd ed6d 11be 186b d4bc
000001c0: 53c0 7a3d 42e5 da3d ab38 d0bd 7e34 9bbd
000001d0: 77cb ff3d b7e3 fc3d 4e12 183e 50bb df3d
000001e0: 5376 203d 5256 b6ba 777d ecbd f171 61bd
000001f0: d77d 1cbe 42b7 cc3d 89d7 bb3d 105e 8d3d
00000200: 755d 033e b6dd 2e3b 4cf8 933e 1907 573e
00000210: 0c10 043d d0fd b93d f430 ed3d d68d 203e
00000220: 6874 0b3e f9ba 933e 707d 16c0 ed9a 603e
00000230: 7197 963e a4a0 bd3d a543 8b3e 8026 c2bf
00000240: a802 44bf b5c9 803e 45d6 093e 5770 ba3d
00000250: c67e 823e 932b 6e3e c127 00be 0bf8 593e
00000260: 710d e13d 60b8 423e bbfc eebe 7480 22c0
00000270: 45c8 2ec0 7708 5b3e f1cb 493e 64e2 cabf
00000280: f12d 0f3e 05b4 f53d 7fbf 9c3e f0f5 c4bd
00000290: 67ce 983d fc63 be3d 9a00 f9be f67e 083e
000002a0: 460a 32c0 9544 843e cb0c 3f3e 1c2e 6b3e
000002b0: 8957 1a3d 7d2e 0e3e 9804 3ebf 00a9 2b3d
000002c0: 20b4 223d dfaf e33c a5f7 a93e b07a 9d3d
000002d0: f261 933e 055b b8bd ff82 27c0 0bd9 623e
000002e0: 6286 0abd 4487 fa3d 74a4 f0bf 3b68 02c0
000002f0: 2133 8e3d d8a5 523e 862c 473d 42d5 843e
00000300: b2f6 093d 7a02 33c0 8acf ccbf c269 b53e
00000310: 7982 cfbf beb1 8d3e 08f0 c93d 3bf0 10c0
00000320: 740e 8e3e 5d8a 28c0 2aaa 9a3e a5ba 743e
00000330: 952a 3dc0 5386 8b3e d654 0e3e 2c67 ae3d
00000340: d54a 403d 4e7d 813e 77e8 2fc0 f10b a43e
00000350: 7684 423e 3041 01c0 c9a1 a03c ef03 c0bf
00000360: 9644 c33d 2cc0 933e 2669 2fbf 51ca 913d
00000370: 24c2 713e bfe0 f83d db47 0c3c aed1 273d
00000380: 9d89 50c0 560d 5c3d ee0c f33d 1ce0 cb3d
00000390: 9133 a03e 384e 043e 5d38 acbe 6fab 4d3e
000003a0: f972 903e b737 663e c841 e0be bda5 28bf
000003b0: 59ca 223e 2422 763e 4e79 5c3c 1cb2 e63d
000003c0: b3fe 35c0 df31 45c0 f298 1ebf ea25 923d
000003d0: 8fa0 c43e 1f4d 913e 54dd 22c0 4d86 38c0
000003e0: df9b a33d 2b52 c2bf 94e9 123e 20e9 21c0
000003f0: d356 c13c d111 09be e626 093e 9734 47c0

fc2.bias f4 [128]
-0.005326815 0.1458931 0.14547701 0.0 0.1427666 -0.010138954 -0.0109305335 -0.005521412
0.15514868 0.22036561 0.0 -0.007929836 -0.015901178 0.1667805 0.14257996 -0.08489703
0.0 -0.007070969 0.0 0.12772542 -0.0030835331 -0.01572675 0.14021012 0.0
-0.063839175 0.0 -0.027393404 -0.024270508 0.258487 -0.019543085 0.22285943 -0.0044253315
-0.013836812 -0.012599367 0.26108783 0.19299391 0.10647128 -0.29258347 0.27456412 0.0
0.14602356 -0.010659317 0.3861259 0.1343943 -0.008326591 -0.036445074 -0.056221135 0.16061316
-0.02192518 0.33535093 0.0 0.0 -0.03026572 -0.027597977 -0.018414956 0.1497284
0.09161179 0.27789977 -0.0016528664 0.146849 0.16538182 0.1350282 -0.030092513 -0.018728191
0.163517 -0.19611414 -0.0011589499 -0.006146465 0.20896718 0.24118142 -0.030824065 -0.008155633
-0.2052451 0.13480149 0.17119904 -0.003510567 -0.014004181 -0.012639107 -0.017374957 -0.15512809
-0.020380199 -0.019686779 0.20121743 0.0 -0.0073189395 -0.013024809 -0.013529569 -0.17295712
0.29551694 0.0 0.13924412 -0.0137351975 -0.16550407 0.0 0.0 -0.0068123722
-0.03774957 0.0 0.25113848 0.14070816 -0.0067106076 0.0 -0.007985744 0.0
-0.010984384 0.0 -0.0034881236 -0.14950392 -0.0065103294 -0.020124825 -0.015094995 0.0
0.0 -0.0099755535 -0.010164722 0.16516533 0.33093613 -0.0016812856 0.25385392 -0.19930288
-0.025327789 -0.010847449 0.0 -0.012476954 0.16166002 0.0 -0.0031328113 0.15863489
00000000: 908c aebb 0065 153e edf7 143e 0000 0000
00000010: 6831 123e db1d 26bc fb15 33bc f6ec b4bb
00000020: 4cdf 1e3e 86a7 613e 0000 0000 25ec 01bc
00000030: 3043 82bc 82c8 2a3e 7b00 123e 7ede adbd
00000040: 0000 0000 96b3 e7bb 0000 0000 74ca 023e
00000050: 1a15 4abb 63d5 80bc 3e93 0f3e 0000 0000
00000060: 1dbe 82bd 0000 0000 2268 e0bc f2d2 c6bc
00000070: 6858 843e d218 a0bc 4335 643e 5f02 91bb
00000080: ccb3 62bc 936d 4ebc 4ead 853e 32a0 453e
00000090: 9d0d da3d 80cd 95be ab93 8c3e 0000 0000
000000a0: 3387 153e 6aa4 2ebc 4bb2 c53e a99e 093e
000000b0: 416c 08bc 6e47 15bd 2248 66bd c777 243e
000000c0: 6f9c b3bc 1eb3 ab3e 0000 0000 0000 0000
000000d0: d1ef f7bc 2715 e2bc f6da 96bc 6752 193e
000000e0: f69e bb3d e148 8e3e fea4 d8ba 965f 163e
000000f0: da59 293e d544 0a3e 9384 f6bc dd6b 99bc
00000100: 0071 273e 25d2 48be e8e7 97ba 4968 c9bb
00000110: 7efb 553e 43f8 763e c082 fcbc 349f 05bc
00000120: c62b 52be 6709 0a3e cd4e 2f3e 8a11 66bb
00000130: cb71 65bc 4214 4fbc ed55 8ebc e6d9 1ebe
00000140: 60f4 a6bc 2b46 a1bc f10b 4e3e 0000 0000
00000150: b7d3 efbb 0266 55bc 20ab 5dbc ac1b 31be
00000160: ff4d 973e 0000 0000 0396 0e3e 9809 61bc
00000170: e679 29be 0000 0000 0000 0000 523a dfbb
00000180: 4b9f 1abd 0000 0000 3995 803e cd15 103e
00000190: a8e4 dbbb 0000 0000 a3d6 02bc 0000 0000
000001a0: d9f7 33bc 0000 0000 0199 64bb 8e17 19be
000001b0: 9a54 d5bb d1dc a4bc ff50 77bc 0000 0000
000001c0: 0000 0000 8170 23bc ef89 26bc 1a21 293e
000001d0: 7670 a93e 955e dcba 24f9 813e 0e16 4cbe
000001e0: 397c cfbc 80b9 31bc 0000 0000 236c 4cbc
000001f0: 348a 253e 0000 0000 da4f 4dbb 2f71 223e

fc3.weight f4 [3, 128]
0.17758958 -0.5259168 -0.7320209 0.06226018 -0.43872666 -0.13022612 -0.008201453 0.16211855
-0.6734177 -0.515087 0.14680773 -0.08121103 0.13821456 -0.34441915 -0.466741 1.0206234
-0.11317062 0.08740862 -0.18193582 -0.4918157 -0.1609966 0.071512885 -0.42971924 0.15752089
0.50053746 -0.20813818 0.20764536 0.11009009 0.13099135 0.20893312 -0.7157874 0.14871758
0.10794132 -0.1685186 -0.6343575 -0.6403475 -0.65594244 2.5691843 -0.6831817 -0.11896916
1.0018042 -0.065675884 -0.6340989 -0.66058433 -0.10582491 0.7981634 0.5130296 -0.6969314
0.026358588 -0.61223245 -0.06649841 -0.105644986 0.17133094 0.18487887 0.04928671 -0.40895092
-0.004846964 -0.7635203 0.2111641 -0.6906145 -0.59472376 -0.67190886 -0.15022905 0.065823205
-0.74162513 2.472419 -0.028653298 -0.18266633 -0.6666642 -0.70603347 0.16074927 0.20216244
2.3913352 -0.571516 -0.5397666 -0.10328668 0.16490789 0.10073253 0.38462976 2.1708248
0.20702823 -0.14572455 -0.6052399 -0.10600017 -0.10425562 0.03581516 0.19938414 2.2872467
-0.68048567 -0.20918727 -0.49108696 0.13914886 2.282132 -0.14533454 0.13661063 -0.18098232
0.0033373672 -0.19989602 -0.6454643 -0.6309631 -0.17287004 -0.10791303 0.12359759 -0.10539481
0.022615964 -0.20078433 0.044768624 2.1293747 0.042096358 0.11304874 -0.046537813 0.07738008
-0.056877308 0.4190699 -0.108535916 -0.50243765 0.37257785 0.07115855 -0.5439311 1.7053844
0.087806486 0.11373371 0.051985398 0.06261002 -0.65551007 0.1114582 0.042345997 -0.6098455
0.01596597 -0.592709 -0.41180435 0.12490256 -0.7440557 0.19748619 -0.032896478 0.14701623
-0.7299674 -0.7650862 -0.025486942 0.16356306 -0.105684794 -0.81554765 -0.7622996 1.5193752
0.17599057 -0.020884693 0.09438538 -0.65151936 -0.1114195 -0.18561698 -0.6294738 0.12110995
0.21477342 0.19693825 -0.18636648 -0.20148522 0.63072705 0.034246065 -0.525084 -0.1895118
0.1904397 0.1761909 -0.67651796 -0.40743098 -0.51611346 1.606145 -0.68435675 -0.020022023
0.6731705 -0.078241944 -0.80506897 -0.8341726 0.18671064 1.1848729 0.39949548 -0.60335374
0.13169606 -0.82669175 0.1598121 0.02891886 -0.115183584 -0.15800275 -0.11664531 -0.8023309
0.22156237 -0.69846123 0.14356442 -0.790807 -0.7522 -0.6195347 0.16817662 -0.0793401
-0.32035694 2.5399964 0.10823513 0.18486223 -0.70670056 -0.36936012 -0.19308285 -0.21040961
2.4328365 -0.5619149 -0.6628865 0.1496462 0.108257376 -0.112999834 0.37475243 2.5198698
-0.19122975 -0.07054786 -0.6754152 0.12938635 0.044391874 -0.042137556 0.03643012 2.057082
-0.6440029 0.10271671 -0.6370688 0.022837138 2.4115689 0.11509217 -0.012063223 0.15948974
-0.030512834 -0.15129425 -0.45909125 -0.6767829 -0.17934145 -0.018655352 -0.16872421 0.10369508
0.14181812 0.10683468 0.117772885 2.493535 0.06967689 0.096666455 0.1703221 -0.092111185
-0.106806666 -0.10495649 0.09415474 -0.49546078 1.058561 -0.21054491 -0.73404604 0.987995
-0.16482235 0.09767368 0.050892014 0.20018195 -0.64798677 0.16476174 0.071629 -0.6818213
00000000: 0bda 353e 7ca2 06bf b965 3bbf 8804 7f3d
00000010: c8a0 e0be ff59 05be 635f 06bc 6802 263e
00000020: 1a65 2cbf bedc 03bf c454 163e f851 a6bd
00000030: 1e88 0d3e b557 b0be adf8 eebe caa3 823f
00000040: ffc5 e7bd 4a03 b33d 624d 3abe 44cf fbbe
00000050: 4bdc 24be 5975 923d 2904 dcbe 284d 213e
00000060: 3923 003f 2d22 55be fca0 543e ea76 e13d
00000070: 9922 063e 90f2 553e d83d 37bf 6c49 183e
00000080: 5710 dd3d 2490 2cbe 4165 22bf d0ed 23bf
00000090: d8eb 27bf 846d 2440 ffe4 2ebf 1aa6 f3bd
000000a0: 1f3b 803f 1481 86bd 4e54 22bf 0e1c 29bf
000000b0: bbba d8bd 7054 4c3f e855 033f 196a 32bf
000000c0: f7ed d73c 44bb 1cbf 5230 88bd 665c d8bd
000000d0: 6171 2f3e e350 3d3e dce0 493d 0462 d1be
000000e0: 48d3 9ebb 1176 43bf 673b 583e 1dcc 30bf
000000f0: d13f 18bf 3802 2cbf a5d5 19be 51ce 863d
00000100: 25db 3dbf 1d3c 1e40 52ba eabc e20c 3bbe
00000110: 81aa 2abf 9cbe 34bf 759b 243e ac03 4f3e
00000120: a30b 1940 df4e 12bf 252e 0abf f887 d3bd
00000130: 9ddd 283e db4c ce3d 31ee c43e cbee 0a40
00000140: 35ff 533e d138 15be 01f1 1abf 9e16 d9bd
00000150: f883 d5bd ebb2 123d 5b2b 4c3e 4062 1240
00000160: 4f34 2ebf 3035 56be c06f fbbe 0a7d 0e3e
00000170: 730e 1240 94d2 14be a8e3 0b3e 6e53 39be
00000180: bbb7 5a3b 8bb1 4cbe 263d 25bf cc86 21bf
00000190: d804 31be 8201 ddbd bc20 fd3d 3cd9 d7bd
000001a0: 1d45 b93c 689a 4dbe 4e5f 373d ad47 0840
000001b0: 3b6d 2c3d 1986 e73d 6f9e 3ebd 7379 9e3d
000001c0: 2ef8 68bd 5490 d63e 1448 debd c19f 00bf
000001d0: 86c2 be3e 93bb 913d 123f 0bbf 094a da3f
000001e0: e3d3 b33d 38ed e83d a4ee 543d af39 803d
000001f0: 82cf 27bf 3244 e43d ff72 2d3d d61e 1cbf
00000200: 11cb 823c c7bb 17bf 05d8 d2be eacc ff3d
00000210: 6f7a 3ebf d239 4a3e 75be 06bd 6c8b 163e
00000220: 25df 3abf b0dc 43bf fec9 d0bc 137d 273e
00000230: 4571 d8bd bbc7 50bf 1126 43bf e37a c23f
00000240: df36 343e 6016 abbc 1f4d c13d f9c9 26bf
00000250: e82f e4bd 6112 3ebe 3225 21bf 7e08 f83d
00000260: 90ed 5b3e 2eaa 493e dbd6 3ebe 2452 4ebe
00000270: 5477 213f 9a45 0c3d e86b 06bf 620f 42be
00000280: a002 433e 636b 343e 4830 2dbf cb9a d0be
00000290: 0320 04bf 2996 cd3f 0132 2fbf 3a05 a4bc
000002a0: e754 2c3f 503d a0bd 0019 4ebf 568c 55bf
000002b0: 1331 3f3e eaa9 973f ac8a cc3e 6475 1abf
000002c0: 55db 063e 12a2 53bf c8a5 233e 3fe7 ec3c
000002d0: 5fe5 ebbd 79cb 21be bce3 eebd 8f65 4dbf
000002e0: 3fe1 623e 5bce 32bf 8d02 133e 5472 4abf
000002f0: 2e90 40bf d399 1ebf 7e36 2c3e 107d a2bd
00000300: d305 a4be 4d8f 2240 61aa dd3d 864c 3d3e
00000310: 54ea 34bf c51c bdbe 83b7 45be 9e75 57be
00000320: 98b3 1b40 a8d9 0fbf eeb2 29bf da3c 193e
00000330: 0bb6 dd3d 756c e7bd 8ddf bf3e 8c45 2140
00000340: bbd1 43be 657b 90bd 03e8 2cbf db7d 043e
00000350: 41d4 353d 6e98 2cbd c037 153d 3ba7 0340
00000360: 60dd 24bf 235d d23d f116 23bf f314 bb3c
00000370: 2557 1a40 72b5 eb3d d3a4 45bc 4751 233e
00000380: 0df6 f9bc e1ec 1abe 020e ebbe a541 2dbf
00000390: 49a5 37be 1cd3 98bc 0ac6 2cbe 165e d43d
000003a0: c538 113e 24cc da3d e932 f13d 1496 1f40
000003b0: c2b2 8e3d 10f9 c53d eb68 2e3e caa4 bcbd
000003c0: 74bd dabd 6ef3 d6bd 33d4 c03d 09ad fdbe
000003d0: ed7e 873f 1699 57be 71ea 3bbf 3eed 7c3f
000003e0: 31c7 28be 2309 c83d 2574 503d 7ffc 4c3e
000003f0: 76e2 25bf 4db7 283e 3ab2 923d d78b 2ebf

fc3.bias f4 [3]
-0.23036203 -0.09133239 0.16008966
00000000: 06e4 6bbe 7a0c bbbd 8bee 233e

fc1.weight f4 [128, 2]
-0.111373335 -0.4038252 -0.23153129 0.023744171 -0.39066875 2.4809194 -0.11816336 0.015425334
0.006346643 0.12965661 -0.06695824 -0.051321797 -0.014277614 -0.06678146 -0.17788118 -0.521192
-0.10500138 -0.18016982 -0.21402963 -0.17231265 0.2871907 4.349414 -0.14186732 -0.38018376
-0.02320786 -0.37314674 -0.103304334 0.027744878 -0.08888378 -0.27629223 -0.36909327 1.1943687
-0.35001767 -2.6500108 -0.16127385 -0.083675556 -0.0024087096 -0.09187635 0.03305565 0.03434311
-0.21695086 -0.3722024 0.011060504 -0.18382016 0.2768321 0.06218627 -0.039296314 -0.33254078
0.06856701 0.15863344 0.46340963 2.172431 0.026401618 3.1185858 0.21089701 3.8786423
0.19314216 4.1735244 -0.19192798 0.24982767 -0.030613232 -0.5098923 0.65013504 3.7634048
0.040093474 0.18377171 -0.080088176 0.119874045 -0.36873674 2.493229 0.73225933 2.231409
0.010681494 -0.2222165 0.96156985 1.9510235 0.029109195 3.3688796 -0.7989849 0.3648893
0.07466131 3.7438827 -0.039620955 0.06780894 -0.25250587 -0.50796235 0.13706513 -0.042461116
-0.021728244 -0.15240611 0.56935966 2.3909433 -0.23671092 -3.2119749 -0.121166 -0.1776628
-0.11410699 -0.2509034 0.8522201 1.5003225 -0.025841832 0.23137517 -0.19341356 -0.013349933
-0.19930862 -0.6702631 0.78605497 2.527089 0.17098379 4.1462126 -0.36616734 2.411702
0.044805225 0.036856193 0.03306757 0.024342746 0.32499257 4.0525084 0.26232296 3.7330518
-0.047537524 0.07418465 -0.02331642 0.1605357 -0.11925094 -0.35493913 -0.19695115 -0.23361443
0.024220183 -0.020406974 0.06440007 3.6855342 0.5487888 3.6580942 0.005347605 0.16663949
0.4374167 3.7052605 0.042005554 -0.12116823 -0.03818615 -0.018901112 0.22705658 3.5088115
-0.61819 1.2591085 0.13963054 3.8367307 -0.5401538 1.9619495 0.89751524 0.6753736
0.10482182 3.9932244 -0.056714617 -0.14518699 -0.065454304 -0.27734926 -0.17839864 0.40458778
0.53315413 2.6744661 -0.0170581 -0.18948269 0.121351235 3.8368711 0.020637287 -0.37962937
0.6294235 2.204848 0.35663188 3.7154493 0.61722016 2.509933 -0.43709078 0.6581014
0.94129 1.2759181 -0.047486864 -0.08824306 -0.23510681 -3.998991 0.8350288 2.1221325
-0.12349765 -0.68181765 0.015662111 -0.17539236 0.50069386 2.2773926 -0.029999226 -0.18055142
-0.08163534 3.8312776 -0.19512546 -0.1592041 0.324195 -0.37416148 -0.13582653 0.2187164
-0.07048073 -0.08479523 0.017780643 -0.1911031 0.017950458 3.4326937 -0.010834164 0.18766786
-0.08720379 -0.22871235 0.063112035 -0.36256194 -0.4695734 -2.8761103 -0.20467356 -4.35429
0.636131 2.3302276 -0.21074332 -0.7914324 -0.26975286 2.6122127 -0.19120727 -0.43125096
-0.26524192 3.274389 -0.22248918 3.7471972 -0.33324587 -3.2373075 -0.35311958 0.5672491
0.01287611 -0.13383812 -0.0040577715 -0.24729365 -0.24247482 2.631903 -0.016752 3.7352371
-0.11296296 0.11854819 0.7914049 3.489809 -0.116958365 0.12262847 0.21466388 3.9376194
0.83657193 2.2033195 0.0363123 0.09693438 0.8636527 1.2291944 -0.044309746 3.7622507
00000000: b417 e4bd 2dc2 cebe 8a16 6dbe 2383 c23c
00000010: bc05 c8be 62c7 1e40 a2ff f1bd 8aba 7c3c
00000020: 80f7 cf3b b4c4 043e 6721 89bd ce36 52bd
00000030: a7ec 69bc b8c4 88bd 7c26 36be d76c 05bf
00000040: f70a d7bd 707e 38be 952a 5bbe ba72 30be
00000050: a90a 933e 662e 8b40 ab45 11be 72a7 c2be
00000060: 691e bebc 170d bfbe 3991 d3bd 3a49 e33c
00000070: b308 b6bd 2d76 8dbe cbf9 bcbe 13e1 983f
00000080: 8435 b3be c799 29c0 f924 25be 175e abbd
00000090: 71db 1dbb ab29 bcbd 5c65 073d 5cab 0c3d
000000a0: 5e28 5ebe 5091 bebe 1e37 353c 5a3b 3cbe
000000b0: f0bc 8d3e 08b7 7e3d 2cf5 20bd c942 aabe
000000c0: dc6c 8c3d ce70 223e 0744 ed3e 1c09 0b40
000000d0: 3548 d83c e996 4740 63f5 573e ad3b 7840
000000e0: 0fc7 453e 838d 8540 c588 44be d3d2 7f3e
000000f0: 9ac8 fabc 4d88 02bf 406f 263f a0db 7040
00000100: 0e39 243d a72e 3c3e 4505 a4bd 8680 f53d
00000110: 10cb bcbe 1091 1f40 5975 3b3f 68cf 0e40
00000120: 6f01 2f3c b98c 63be 7129 763f 23bb f93f
00000130: 6876 ee3c b99b 5740 468a 4cbf c5d2 ba3e
00000140: 07e8 983d c69b 6f40 9549 22bd 6adf 8a3d
00000150: 7348 81be d209 02bf cd5a 0c3e b5eb 2dbd
00000160: 6eff b1bc 5910 1cbe 8ec1 113f 3705 1940
00000170: 5964 72be ff90 4dc0 e125 f8bd 3ded 35be
00000180: edb0 e9bd 6976 80be 192b 5a3f 910a c03f
00000190: 40b2 d3bc 9ded 6c3e 340e 46be adb9 5abc
000001a0: 8f17 4cbe 5d96 2bbf e63a 493f d4bb 2140
000001b0: 6016 2f3e c6ad 8440 497a bbbe 5359 1a40
000001c0: af85 373d 85f6 163d dc71 073d 706a c73c
000001d0: 6d65 a63e 26ae 8140 324f 863e 52ea 6e40
000001e0: b5b6 42bd 1fee 973d 1402 bfbc 7863 243e
000001f0: d639 f4bd 95ba b5be 90ad 49be 9f38 6fbe
00000200: 6869 c63c 872c a7bc 2fe4 833d cbdf 6b40
00000210: 6c7d 0c3f 371e 6a40 f63a af3b 8ba3 2a3e
00000220: 15f5 df3e fd22 6d40 040e 2c3d 0d27 f8bd
00000230: 1569 1cbd 81d6 9abc 8581 683e 5e90 6040
00000240: b341 1ebf 782a a13f 4ffb 0e3e ff8c 7540
00000250: 8547 0abf 2921 fb3f 8fc3 653f 49e5 2c3f
00000260: d3ac d63d fd90 7f40 964d 68bd e6ab 14be
00000270: e80c 86bd b900 8ebe 22ae 36be 2126 cf3e
00000280: ca7c 083f 742a 2b40 6ebd 8bbc c007 42be
00000290: ff86 f83d 4c8f 7540 870f a93c c85e c2be
000002a0: e621 213f 3b1c 0d40 7498 b63e ecc9 6d40
000002b0: 2402 1e3f bea2 2040 5dca dfbe 5579 283f
000002c0: 62f8 703f 4951 a33f 9681 42bd c7b8 b4bd
000002d0: d7bf 70be 78ef 7fc0 73c4 553f 05d1 0740
000002e0: 56ec fcbd 9a8b 2ebf d44d 803c 0e9a 33be
000002f0: 792d 003f cdc0 1140 f0c0 f5bc 79e2 38be
00000300: 6e30 a7bd a733 7540 f8ce 47be 6606 23be
00000310: e3fc a53e 1892 bfbe 1c16 0bbe 31f7 5f3e
00000320: 3358 90bd 1fa9 adbd b6a8 913c 88b0 43be
00000330: d70c 933c 41b1 5b40 c781 31bc 012c 403e
00000340: e797 b2bd 9233 6abe e240 813d b8a1 b9be
00000350: ed6b f0be 3112 38c0 f295 51be 5856 8bc0
00000360: 7bd9 223f 7322 1540 19cd 57be 509b 4abf
00000370: 0c1d 8abe 7e2e 2740 d7cb 43be edcc dcbe
00000380: cacd 87be 978f 5140 34d4 63be 14d2 6f40
00000390: 349f aabe 0c30 4fc0 17cc b4be 3d37 113f
000003a0: 52f6 523c dc0c 09be 0ef7 84bb 8c3a 7dbe
000003b0: 524b 78be 1971 2840 7e3b 89bc 200e 6f40
000003c0: 2059 e7bd 65c9 f23d 8399 4a3f 0859 5f40
000003d0: de87 efbd a324 fb3d d9d0 5b3e f501 7c40
000003e0: 9429 563f 3003 0d40 35bc 143d 8885 c63d
000003f0: 5818 5d3f 3e56 9d3f 237e 35bd b7c8 7040

fc1.bias f4 [128]
0.3106073 0.25352404 0.0687663 0.30453742 -0.015290935 0.26032734 0.37096652 0.31314018
0.32805985 0.2563931 -0.097537115 0.33493587 0.33489466 0.3279348 0.32259417 -0.26018685
0.07622511 0.29787338 0.30860233 -0.02074076 0.2437371 0.3496671 0.32533437 0.35865498
-0.044775426 0.101475306 0.020883905 -0.08012644 -0.08386121 0.21147664 0.3635202 -0.14521295
-0.03275316 0.29780063 0.05872503 0.13419174 0.3435426 0.08914772 0.023636635 -0.16319644
-0.064030215 0.3274784 0.28412226 0.32764742 0.2981892 0.10908063 0.078924455 0.27878052
0.29688257 0.12465274 0.3436772 0.3195087 0.30442408 0.13168393 -0.08079121 0.06050434
-0.031508166 -0.023335427 -0.10268429 -0.087259136 0.37255803 0.35070866 0.27182716 0.26042625
-0.014726181 -0.050458927 -0.11670007 0.38637996 -0.10792201 0.37521243 0.35094252 -0.078371316
-0.036065627 -0.072061494 -0.023526601 0.0065835277 -0.07074594 0.33256382 0.30722758 0.21669176
0.11120314 0.32514977 -0.07025614 0.3144381 0.11333277 -0.10206766 0.12468225 -0.25748104
0.036391467 0.32315508 0.08677543 0.13741231 0.30986947 0.31075752 0.110809 0.36250755
-0.13112743 0.26547825 0.32157516 0.3240331 0.29687065 -0.010581418 0.008631079 0.26119444
0.3006089 0.35822108 0.060618497 0.08771339 0.13079561 0.2803324 0.07748106 0.2743314
-0.22969449 -0.19837606 0.088722736 0.21096852 0.43881714 0.32796833 -0.20649341 -0.102943145
0.31891948 -0.18656749 0.29002607 -0.08151671 0.12208924 -0.03148656 0.08316028 -0.11361811
00000000: ec07 9f3e e7cd 813e 59d5 8c3d 54ec 9b3e
00000010: d486 7abc a049 853e 53ef bd3e e953 a03e
00000020: 76f7 a73e f545 833e 8ac1 c7bd b77c ab3e
00000030: 5077 ab3e 12e7 a73e 102b a53e 3637 85be
00000040: e91b 9c3d dc82 983e 2001 9e3e 87e8 a9bc
00000050: 3896 793e 9107 b33e 3a92 a63e a0a1 b73e
00000060: 7066 37bd 49d2 cf3d b914 ab3c 5519 a4bd
00000070: 6dbf abbd 558d 583e 521f ba3e b4b2 14be
00000080: 2d28 06bd 5379 983e a889 703d 8f69 093e
00000090: d1e4 af3e 1493 b63d 9ea1 c13c f81c 27be
000000a0: 4622 83bd 40ab a73e 7978 913e 67c1 a73e
000000b0: 41ac 983e aa65 df3d 25a3 a13d 52bc 8e3e
000000c0: fe00 983e f049 ff3d 75f6 af3e a596 a33e
000000d0: 79dd 9b3e 27d8 063e dd75 a5bd 66d3 773d
000000e0: b50e 01bd f029 bfbc 244c d2bd ebb4 b2bd
000000f0: edbf be3e 1690 b33e ee2c 8b3e 9756 853e
00000100: 1446 71bc 05ae 4ebd 7200 efbd 98d3 c53e
00000110: 3706 ddbd d81b c03e bdae b33e 2481 a0bd
00000120: 8db9 13bd fa94 93bd dcba c0bc a2ba d73b
00000130: 3fe3 90bd ce45 aa3e ef4c 9d3e 72e4 5d3e
00000140: 79be e33d 087a a63e 73e2 8fbd 08fe a03e
00000150: 031b e83d d908 d1bd 6859 ff3d 8ed4 83be
00000160: 380f 153d 9574 a53e 51b7 b13d d0b5 0c3e
00000170: 36a7 9e3e 9c1b 9f3e d4ef e23d 979a b93e
00000180: 4546 06be c4ec 873e 80a5 a43e abe7 a53e
00000190: 6eff 973e af5d 2dbc 5f69 0d3c 47bb 853e
000001a0: 69e9 993e c168 b73e 1a4b 783d 14a3 b33d
000001b0: 49ef 053e ba87 8f3e 64ae 9e3d 2a75 8c3e
000001c0: 0835 6bbe 1823 4bbe 44b4 b53d 2208 583e
000001d0: a4ac e03e 77eb a73e 0273 53be dbd3 d2bd
000001e0: 6a49 a33e 8c0b 3fbe 4c7e 943e 3cf2 a6bd
000001f0: ec09 fa3d 0df8 00bd f04f aa3d 9db0 e8bd

fc2.weight f4 [128, 128]
-0.065796666 -0.06645105 0.058411576 -0.092958555 0.08258291 0.09876426 0.072790645 -0.08567496
0.1421885 0.05709381 -0.15027687 -0.14960334 0.052153762 0.0687074 0.13090831 0.118495956
0.09506291 -0.0476538 -0.012447138 -0.095886596 0.0039587305 0.03002489 0.06752019 0.029316302
0.027781704 -0.0015613136 -0.12000037 -0.06672451 -0.035522856 0.03989398 0.0036400633 -0.08703107
-0.07120225 -0.039583985 0.13055186 0.0995429 -0.13379915 -0.08597951 0.056989707 -0.05275221
-0.047742117 -0.12680157 -0.016944913 0.05034796 0.13393623 -0.04356543 -0.06056896 0.026728721
0.01043938 0.015681457 -0.14425084 0.1178602 -0.0033515596 -0.015836572 -0.049517963 -0.14108051
-0.050622422 -0.14054526 0.06285092 -0.08038812 -0.14116928 -0.07982131 0.05834718 -0.08645588
-0.11831567 -0.060208317 0.1430796 0.08209502 0.03615137 -0.041943178 -0.06469664 0.031394918
0.11009269 -0.11810997 0.11914842 -0.14971659 -0.13839068 -0.14805958 0.047708627 0.0052104783
0.03625342 -0.114421934 -0.0924642 0.062434092 0.1070186 -0.12862249 0.0063061262 -0.010163711
-0.040023755 0.050917663 -0.11679169 0.07233797 -0.06132407 0.1012234 -0.039788056 0.10510376
-0.10225944 -0.14026923 0.14798208 -0.053833213 -0.00051350816 0.11209186 0.1367284 0.030488713
-0.14463231 -0.09735389 0.09528898 0.048374057 0.080868594 -0.05883501 -0.1420209 -0.025929147
0.06121857 0.10688259 -0.101670586 -0.075783655 0.12490179 0.1234828 0.14850733 0.10924399
0.039176203 -0.0013905735 -0.11547286 -0.055040304 -0.15282199 0.09995891 0.09172135 0.069027066
0.12900025 0.0027179895 0.2860812 0.21048205 0.032242045 0.091490306 0.116761945 0.1573325
0.13683757 0.2887285 -2.3256555 0.21996029 0.2951825 0.09315864 0.27274814 -1.5079507
-0.7634761 0.2519304 0.13561356 0.091035 0.2551209 0.23369633 -0.12216098 0.21382949
0.10988946 0.18229759 -0.45768973 -2.5138276 -2.7056081 0.21383792 0.1981463 -1.5673106
0.13982517 0.120542906 0.30295765 -0.1024501 0.07574302 0.088689215 -0.477044 0.12956148
-2.7664814 0.2591084 0.18685022 0.23138677 0.038638227 0.13106312 -0.7378732 0.042449962
0.040345214 0.023264961 0.33272892 0.07719574 0.28838423 -0.09673592 -2.59316 0.21845143
-0.033819336 0.12232896 -1.8533504 -2.011762 0.07020198 0.20651571 0.049256217 0.2597204
0.033682987 -2.788035 -1.5837152 0.35523993 -1.5995605 0.27794212 0.09943294 -2.2389283
0.27433094 -2.6113725 0.29843843 0.23756137 -2.9376159 0.27332076 0.13983245 0.085073
0.03835313 0.25390163 -2.7282474 0.32168332 0.18288872 -1.993495 0.012203601 -1.4931958
0.09341546 0.28939494 -0.6799634 0.06542575 0.23688984 0.12266218 0.0009859796 0.041915953
-3.230288 0.053987037 0.12069507 0.099926844 0.31360447 0.12920363 -0.32926106 0.20165446
0.28284428 0.22624889 -0.4370984 -0.65272963 0.15223229 0.24087738 0.010517793 0.11305507
-2.8220785 -3.0602303 -0.6163436 0.07078415 0.38510117 0.28487468 -2.5230896 -2.8572683
0.08037222 -1.4997023 0.14389881 -2.504506 0.017641107 -0.13385577 0.13064298 -3.085473
00000000: 67c0 86bd 7d17 88bd fa40 6f3d 0e61 bebd
00000010: 3b21 a93d eb44 ca3d 4313 953d 5a76 afbd
00000020: dd99 113e 33db 693d 2ee2 19be 9e31 19be
00000030: 2f9f 553d 77b6 8c3d d40c 063e 02ae f23d
00000040: 58b0 c23d a230 43bd 15ef 4bbc 3160 c4bd
00000050: 3db8 813b c2f6 f53c 0648 8a3d be28 f03c
00000060: 7596 e33c fea4 ccba c1c2 f5bd dca6 88bd
00000070: 6a80 11bd df67 233d 218e 6e3b 583d b2bd
00000080: 7cd2 91bd d122 22bd 63af 053e 26dd cb3d
00000090: a502 09be 0616 b0bd 0a6e 693d b412 58bd
000000a0: 3d8d 43bd 45d8 01be 0fd0 8abc aa39 4e3d
000000b0: 9426 093e aa71 32bd 2817 78bd 31f6 da3c
000000c0: ef09 2b3c 6676 803c 7eb6 13be b060 f13d
000000d0: d7a5 5bbb b3bb 81bc 59d3 4abd 6977 10be
000000e0: 7559 4fbd 19eb 0fbe fcb7 803d 87a2 a4bd
000000f0: ae8e 10be 5b79 a3bd 74fd 6e3d c80f b1bd
00000100: 7c4f f2bd ff9c 76bd 7583 123e 6f21 a83d
00000110: 7513 143d 9ccc 2bbd ac7f 84bd f597 003d
00000120: 4778 e13d a4e3 f1bd 1604 f43d 4e4f 19be
00000130: 49b6 0dbe ee9c 17be 1f6a 433d a9bc aa3b
00000140: 777e 143d 0c56 eabd df5d bdbd e4ba 7f3d
00000150: 912c db3d 9db5 03be 9fa3 ce3b b285 26bc
00000160: f3ef 23bd 0a8f 503d 7b30 efbd ee25 943d
00000170: f32e 7bbd 374e cf3d cdf8 22bd a440 d73d
00000180: 666d d1bd bda2 0fbe 9d88 173e 3780 5cbd
00000190: f39c 06ba 6b90 e53d 8802 0c3e 77c3 f93c
000001a0: 7e1a 14be 7a61 c7bd de26 c33d e023 463d
000001b0: 6f9e a53d fbfc 70bd ed6d 11be 5d69 d4bc
000001c0: 53c0 7a3d 42e5 da3d ab38 d0bd 7634 9bbd
000001d0: 82cc ff3d 8de4 fc3d 4e12 183e 50bb df3d
000001e0: 3a77 203d e743 b6ba 097d ecbd f171 61bd
000001f0: 5e7d 1cbe 42b7 cc3d 67d8 bb3d 105e 8d3d
00000200: a418 043e 4c20 323b 3c79 923e 9b88 573e
00000210: 3c10 043d 455f bb3d e320 ef3d c51b 213e
00000220: 261f 0c3e 39d4 933e 8ad7 14c0 453d 613e
00000230: 2922 973e f5c9 be3d a5a5 8b3e 8704 c1bf
00000240: 2b73 43bf 05fd 803e 48de 0a3e 8f70 ba3d
00000250: 359f 823e 174e 6f3e 892f fabd 1ef6 5a3e
00000260: ba0d e13d 38ac 3a3e 4f56 eabe 8de2 20c0
00000270: af28 2dc0 54f8 5a3e dde6 4a3e a29d c8bf
00000280: 542e 0f3e 33df f63d 441d 9b3e 5cd1 d1bd
00000290: 281f 9b3d b1a2 b53d 1c3f f4be c4ab 043e
000002a0: 080e 31c0 dba9 843e aa55 3f3e a7f0 6c3e
000002b0: 1e43 1e3d 6935 063e 42e5 3cbf 03e0 2d3d
000002c0: 0641 253d 2996 be3c 725b aa3e cd18 9e3d
000002d0: 19a7 933e 7b1d c6bd 55f6 25c0 bbb1 5f3e
000002e0: 2586 0abd 9b87 fa3d 963a edbf b5c0 00c0
000002f0: 0ec6 8f3d db78 533e e3c0 493d 13fa 843e
00000300: 2cf7 093d 2a6f 32c0 2eb7 cabf 02e2 b53e
00000310: 66be ccbf 6e4e 8e3e 7fa3 cb3d 9a4a 0fc0
00000320: 1b75 8c3e ba20 27c0 eccc 983e 4a43 733e
00000330: e601 3cc0 b3f0 8b3e 3d30 0f3e c13a ae3d
00000340: 2c18 1d3d 65ff 813e 9b9b 2ec0 adb3 a43e
00000350: 2e47 3b3e d82a ffbf 9df1 473c 0a21 bfbf
00000360: 9b50 bf3d 932b 943e 1512 2ebf f0fd 853d
00000370: 4093 723e 4f36 fb3d fc3b 813a 10b0 2b3d
00000380: 0abd 4ec0 8321 5d3d fa2e f73d 72a6 cc3d
00000390: c490 a03e f54d 043e e894 a8be 827e 4e3e
000003a0: f7d0 903e caad 673e 5dcb dfbe 4a19 27bf
000003b0: c8e2 1b3e 8fa8 763e d252 2c3c 6b89 e73d
000003c0: ef9c 34c0 d0da 43c0 b2c8 1dbf 48f7 903d
000003d0: fb2b c53e 18db 913e 4d7a 21c0 7cdd 36c0
000003e0: 319a a43d 3ff6 bfbf 365a 133e d449 20c0
000003f0: 1584 903c 7d11 09be 46c7 053e 6478 45c0

fc2.bias f4 [128]
-0.005323965 0.14685681 0.14678515 0.0 0.14347707 -0.009992418 -0.010930479 -0.005521398
0.15631258 0.22075993 0.0 -0.007929754 -0.015870124 0.16670853 0.14355196 -0.081812344
0.0 -0.007070934 0.0 0.12836988 -0.0026908645 -0.015723106 0.14057918 0.0
-0.05754217 0.0 -0.026564633 -0.024242382 0.24631296 -0.019520883 0.2248292 -0.0044253236
-0.013836767 -0.012599223 0.26273686 0.19540553 0.106732465 -0.2900439 0.27690005 0.0
0.13748533 -0.0106592765 0.38842463 0.13536344 -0.008324976 -0.033980593 -0.05127472 0.16264695
-0.021925021 0.33712506 0.0 0.0 -0.028375972 -0.027387325 -0.01841435 0.15026748
0.07103914 0.2792763 -0.0016456455 0.14772524 0.16686006 0.13619813 -0.030092366 -0.018727725
0.16547358 -0.19273023 -0.0011588492 -0.006125111 0.21055028 0.24347046 -0.0297049 -0.008155507
-0.20189393 0.13596672 0.17288995 -0.003510554 -0.014004032 -0.012639084 -0.015769407 -0.15179884
-0.019996528 -0.019591412 0.20324117 0.0 -0.007318945 -0.012735377 -0.013529429 -0.16975854
0.29770032 0.0 0.13981871 -0.013735066 -0.16178562 0.0 0.0 -0.006812305
-0.036545962 0.0 0.25296322 0.14185908 -0.0067106048 0.0 -0.007985634 0.0
-0.010942902 0.0 -0.0034844915 -0.14576015 -0.00586965 -0.020084232 -0.015094984 0.0
0.0 -0.012044249 -0.010164558 0.16566157 0.31980512 -0.0015890322 0.25547975 -0.1958442
-0.02275729 -0.010847405 0.0 -0.01239144 0.16279894 0.0 -0.0031328092 0.1602687
00000000: a874 aebb a261 163e d94e 163e 0000 0000
00000010: a7eb 123e 3db7 23bc c015 33bc d8ec b4bb
00000020: 6810 203e e40e 623e 0000 0000 cdeb 01bc
00000030: 1002 82bc a4b5 2a3e 49ff 123e 3b8d a7bd
00000040: 0000 0000 4bb3 e7bb 0000 0000 6573 033e
00000050: 3759 30bb becd 80bc fdf3 0f3e 0000 0000
00000060: 57b1 6bbd 0000 0000 139e d9bc f697 c6bc
00000070: 7739 7c3e 42ea 9fbc a039 663e 4e02 91bb
00000080: 9bb3 62bc f96c 4ebc 7285 863e 6318 483e
00000090: 8d96 da3d a280 94be d8c5 8d3e 0000 0000
000000a0: f4c8 0c3e 3fa4 2ebc 98df c63e b79c 0a3e
000000b0: 7b65 08bc 3c2f 0bbd 7105 52bd ec8c 263e
000000c0: 1a9c b3bc a89b ac3e 0000 0000 0000 0000
000000d0: ba74 e8bc 625b e0bc b1d9 96bc b8df 193e
000000e0: f87c 913d 4efd 8e3e b3b2 d7ba 4945 173e
000000f0: 5ddd 2a3e 8677 0b3e 4484 f6bc e36a 99bc
00000100: e871 293e 135b 45be 87e4 97ba 28b5 c8bb
00000110: 7e9a 573e 5250 793e b157 f3bc ad9e 05bc
00000120: 48bd 4ebe dc3a 0b3e 100a 313e 5311 66bb
00000130: 2b71 65bc 2914 4fbc d82e 81bc 2871 1bbe
00000140: c2cf a3bc 2b7e a0bc 741e 503e 0000 0000
00000150: c3d3 efbb 0ba8 50bc 8aaa 5dbc 2fd5 2dbe
00000160: 2d6c 983e 0000 0000 a32c 0f3e 0b09 61bc
00000170: 21ab 25be 0000 0000 0000 0000 c239 dfbb
00000180: 38b1 15bd 0000 0000 6584 813e 8243 113e
00000190: a2e4 dbbb 0000 0000 2dd6 02bc 0000 0000
000001a0: dc49 33bc 0000 0000 115c 64bb 2642 15be
000001b0: 3156 c0bb b087 a4bc f450 77bc 0000 0000
000001c0: 0000 0000 3e55 45bc 3f89 26bc 30a3 293e
000001d0: 7fbd a33e 1347 d0ba 3ece 823e 628b 48be
000001e0: 7f6d babc 50b9 31bc 0000 0000 7705 4bbc
000001f0: c4b4 263e 0000 0000 d14f 4dbb 7a1d 243e

fc3.weight f4 [3, 128]
0.17759071 -0.52176434 -0.7246528 0.06226018 -0.43538666 -0.1302296 -0.008201328 0.16212031
-0.6686563 -0.5099887 0.14680773 -0.08121215 0.13821287 -0.342042 -0.4635916 0.99647677
-0.113170706 0.08740955 -0.1819359 -0.4884768 -0.1609966 0.07151149 -0.42674926 0.15752089
0.4292356 -0.20813818 0.20738637 0.110089146 0.12110197 0.20893088 -0.7110784 0.1487182
0.10794039 -0.16851887 -0.62952197 -0.6358407 -0.6495123 2.5310476 -0.6779617 -0.11896916
0.962299 -0.0656747 -0.6298443 -0.6562853 -0.10582591 0.7779565 0.44760817 -0.6923943
0.026358875 -0.6079715 -0.06649841 -0.105644986 0.17076527 0.1848774 0.049287498 -0.40543124
-0.020430073 -0.754258 0.21116307 -0.68633926 -0.590301 -0.6675008 -0.15023215 0.065823704
-0.73600066 2.4436069 -0.028653655 -0.18266903 -0.6621557 -0.7009574 0.1600314 0.20216274
2.3626027 -0.5673768 -0.53568447 -0.10328676 0.16490981 0.100732684 0.31828213 2.146881
0.20702651 -0.14572604 -0.60045594 -0.10600026 -0.10425533 0.035814606 0.19938517 2.2569566
-0.6749971 -0.20918727 -0.48758474 0.13915163 2.2563205 -0.14533454 0.13661063 -0.18098223
0.002903755 -0.19989602 -0.6410477 -0.62760794 -0.172873 -0.10791303 0.12359854 -0.10539481
0.022615964 -0.20078433 0.044768624 2.1062112 0.042096358 0.11305 -0.04653749 0.07738008
-0.056877308 0.39785105 -0.10853495 -0.49888542 0.36421838 0.07115855 -0.5393776 1.6639652
0.08709827 0.11373396 0.051985398 0.06261064 -0.6506813 0.1114582 0.042345997 -0.60528314
0.01596597 -0.5860279 -0.4052099 0.12490256 -0.7373249 0.19749099 -0.03289621 0.14701648
-0.7233457 -0.7576541 -0.025486942 0.16356276 -0.10568584 -0.80849373 -0.75588614 1.4905088
0.17599057 -0.020884557 0.09438538 -0.64487755 -0.1114195 -0.18561946 -0.6225692 0.12111005
0.1744054 0.19693841 -0.18639328 -0.20148623 0.6221899 0.03424551 -0.51987123 -0.18951167
0.19043852 0.17619298 -0.67047185 -0.40219617 -0.5077546 1.5788767 -0.67980945 -0.020022023
0.64914054 -0.078240864 -0.79978 -0.82747334 0.1867132 1.1583998 0.3621676 -0.59760094
0.13169807 -0.82148916 0.1598121 0.02891886 -0.116620086 -0.15800461 -0.11664565 -0.7954404
0.20428433 -0.6914536 0.14356442 -0.7839536 -0.7458971 -0.6131607 0.16817912 -0.07934056
-0.31482223 2.5118303 0.10823513 0.18486248 -0.70151395 -0.36464316 -0.19306487 -0.21040908
2.4045062 -0.55541646 -0.6569855 0.14964803 0.10825778 -0.11299934 0.33920628 2.49226
-0.19123125 -0.07054786 -0.670041 0.12938635 0.044392463 -0.042137913 0.036430765 2.0284445
-0.63929075 0.10271671 -0.63025546 0.022837354 2.3835514 0.11509217 -0.012063223 0.15949175
-0.030357761 -0.15129425 -0.45415136 -0.67005074 -0.17934145 -0.018655352 -0.16872154 0.10369508
0.14181812 0.106834725 0.117772885 2.466276 0.06967689 0.09666765 0.1703221 -0.092111185
-0.106806666 -0.09770475 0.09415531 -0.48862597 1.0502414 -0.21056215 -0.7291121 0.95941454
-0.16495036 0.097674966 0.050892014 0.20018387 -0.64150816 0.16476174 0.071629204 -0.6757558
00000000: 57da 353e 5992 05bf d982 39bf 8804 7f3d
00000010: 00eb debe e95a 05be dd5e 06bc de02 263e
00000020: 0f2d 2bbf 9f8e 02bf c454 163e 8e52 a6bd
00000030: ad87 0d3e 2120 afbe e15b edbe 1a19 7f3f
00000040: 0bc6 e7bd c703 b33d 684d 3abe a219 fabe
00000050: 4bdc 24be 9e74 923d e17e dabe 284d 213e
00000060: c5c4 db3e 2d22 55be 185d 543e 6b76 e13d
00000070: 4f04 f83d faf1 553e 3c09 36bf 9549 183e
00000080: da0f dd3d 3690 2cbe 5a28 21bf 75c6 22bf
00000090: 7046 26bf affc 2140 e68e 2dbf 1aa6 f3bd
000000a0: 3a59 763f 7580 86bd 7a3d 21bf 5002 28bf
000000b0: 41bb d8bd 2828 473f e62c e53e c140 31bf
000000c0: 91ee d73c 05a4 1bbf 5230 88bd 665c d8bd
000000d0: 17dd 2e3e 8050 3d3e b0e1 493d af94 cfbe
000000e0: f85c a7bc 0d17 41bf 223b 583e eeb3 2fbf
000000f0: f71d 17bf 55e1 2abf 75d6 19be 94ce 863d
00000100: 8a6a 3cbf 0e64 1c40 12bb eabc 970d 3bbe
00000110: 0983 29bf f271 33bf 45df 233e c003 4f3e
00000120: e234 1740 9b3f 11bf 9e22 09bf 0288 d3bd
00000130: 1ede 283e f04c ce3d e0f5 a23e 8066 0940
00000140: c2fe 533e 3539 15be 7bb7 19bf aa16 d9bd
00000150: d283 d5bd 56b2 123d a02b 4c3e fa71 1040
00000160: 9ccc 2cbf 3035 56be b5a4 f9be c47d 0e3e
00000170: 8e67 1040 94d2 14be a8e3 0b3e 6853 39be
00000180: ed4c 3e3b 8bb1 4cbe b41b 24bf eaaa 20bf
00000190: 9f05 31be 8201 ddbd 3b21 fd3d 3cd9 d7bd
000001a0: 1d45 b93c 689a 4dbe 4e5f 373d 2acc 0640
000001b0: 3b6d 2c3d c286 e73d 189e 3ebd 7379 9e3d
000001c0: 2ef8 68bd 22b3 cb3e 9247 debd e96d ffbe
000001d0: d57a ba3e 93bb 913d a714 0abf d0fc d43f
000001e0: 9460 b23d 5aed e83d a4ee 543d 023a 803d
000001f0: 0d93 26bf 3244 e43d ff72 2d3d d6f3 1abf
00000200: 11cb 823c ed05 16bf ac77 cfbe eacc ff3d
00000210: 53c1 3cbf 143b 4a3e 2dbe 06bd 7d8b 163e
00000220: 2f2d 39bf 9ef5 41bf fec9 d0bc ff7c 273e
00000230: d171 d8bd 72f9 4ebf c181 41bf fec8 be3f
00000240: df36 343e 1716 abbc 1f4d c13d b216 25bf
00000250: e82f e4bd 0713 3ebe b260 1fbf 8c08 f83d
00000260: 5497 323e 39aa 493e e1dd 3ebe 6852 4ebe
00000270: d647 1f3f 0545 0c3d 4816 05bf 590f 42be
00000280: 5102 433e ef6b 343e 0ba4 2bbf a8ec cdbe
00000290: 35fc 01bf a218 ca3f fe07 2ebf 3a05 a4bc
000002a0: 132e 263f bf3c a0bd 62be 4cbf 4bd5 53bf
000002b0: bf31 3f3e 7246 943f 086e b93e 60fc 18bf
000002c0: dcdb 063e 1d4d 52bf c8a5 233e 3fe7 ec3c
000002d0: 83d6 eebd f6cb 21be eae3 eebd fba1 4bbf
000002e0: e92f 513e 1a03 31bf 8d02 133e 2fb1 48bf
000002f0: 1df3 3ebf 1af8 1cbf 2637 2c3e 4e7d a2bd
00000300: 6130 a1be d4c1 2040 61aa dd3d 974c 3d3e
00000310: 6b96 33bf 82b2 babe ccb2 45be 7a75 57be
00000320: 6ee3 1940 c62f 0ebf 3430 28bf 553d 193e
00000330: 41b6 dd3d 336c e7bd 72ac ad3e 3081 1f40
00000340: 20d2 43be 657b 90bd cf87 2bbf db7d 043e
00000350: dfd4 353d ce98 2cbd 6d38 153d 09d2 0140
00000360: 8fa8 23bf 235d d23d 6c58 21bf 6715 bb3c
00000370: 1b8c 1840 72b5 eb3d d3a4 45bc ce51 233e
00000380: d7b0 f8bc e1ec 1abe 8786 e8be 7288 2bbf
00000390: 49a5 37be 1cd3 98bc 57c5 2cbe 165e d43d
000003a0: c538 113e 2acc da3d e932 f13d 77d7 1d40
000003b0: c2b2 8e3d b0f9 c53d eb68 2e3e caa4 bcbd
000003c0: 74bd dabd 6e19 c8bd 80d4 c03d 2f2d fabe
000003d0: 4f6e 863f 9b9d 57be 17a7 3abf 319c 753f
000003e0: bfe8 28be d009 c83d 2574 503d 00fd 4c3e
000003f0: e139 24bf 4db7 283e 55b2 923d 55fe 2cbf

fc3.bias f4 [3]
-0.23466435 -0.09296738 0.14961717
00000000: da4b 70be af65 bebd 3e35 193e
