Project/output/acrobot/dqn/best_model.pth (torch, 293922 bytes, 24 tensors)

fc1.weight f4 [128, 6]
0	0xbddf1d55	-0.108942665
1	0xbd64fc52	-0.055904694
2	0x3e3eae39	0.18621148
3	0x3e15bdd4	0.14623195
4	0x3e596fce	0.21234056
5	0xbc72a389	-0.014809498
6	0x3d45eba9	0.048320446
7	0x3e4979c5	0.19675358
8	0x3e3ccfb8	0.18438613
9	0x3f01089c	0.5040376
10	0x3a80108a	0.0009770554
11	0xbe62a6e0	-0.2213397
12	0x3e0aec2b	0.13566653
13	0xbe4d5d49	-0.20055117
14	0x3cc13758	0.02358596
15	0x3e2a59fa	0.16635886
16	0x3db19f77	0.08672994
17	0xbd663f02	-0.056212433
18	0xbf0b68fe	-0.5445708
19	0x3e89f58c	0.2694515
20	0xbc8c13f2	-0.017099354
21	0x3df7bfdc	0.12097141
22	0xbd064af6	-0.032786332
23	0xbc9b1e14	-0.01893524
24	0xbf01a2dc	-0.5063913
25	0x3e963dc8	0.2934401
26	0xbd07c4c4	-0.033146635
27	0x3d9bd6ea	0.07609351
28	0xbcaa6b4f	-0.020803122
29	0x367d9010	3.7783793e-06
30	0xbeaa87dd	-0.3330678
31	0x3d241faa	0.04006926
32	0x3e9a60ef	0.3015208
33	0xbe4ab019	-0.19793738
34	0xbdb144e3	-0.08655717
35	0x3ddd7fac	0.10815367
36	0x3d805557	0.06266277
37	0x3dcffdce	0.10155831
38	0x3e109a10	0.1412127
39	0xbd21e1ea	-0.03952209
40	0x3b82844c	0.003983056
41	0x3cbcfaf0	0.023068875
42	0x3e830857	0.255923
43	0x3ef5b126	0.47986716
44	0x3df0f296	0.117650196
45	0xbcbd19e6	-0.023083638
46	0xbe044b7b	-0.12919419
47	0x3d004eff	0.031325337
48	0x3e876ddd	0.26451007
49	0xbe171bef	-0.1475675
50	0x3dd441c4	0.10364106
51	0x3e46d986	0.19418916
52	0xbdeda6f3	-0.11604109
53	0xbd43f3d3	-0.04783995
54	0xbe569b14	-0.20957595
55	0x3dbaff7c	0.09130761
56	0xbbc7bc3d	-0.006095438
57	0xbe2ff662	-0.17183831
58	0x3c809c61	0.015699567
59	0x3e520e9e	0.20513389
60	0x3dea149b	0.114297114
61	0x3e3844fb	0.17995064
62	0xbde47135	-0.11154405
63	0xbcc73a4f	-0.024319796
64	0xbdf68b07	-0.12038236
65	0x3e57f52b	0.21089618
66	0x3df36fb9	0.11886544
67	0xbea052d7	-0.31313202
68	0xbcedf5ea	-0.029047925
69	0xbd750fe1	-0.059829596
70	0x3d20d7a1	0.03926814
71	0x3cc8e78c	0.024524473
72	0x3ca521cd	0.020157719
73	0xbe7505ba	-0.23927966
74	0x3cc5d2d2	0.024148379
75	0x3dc22a26	0.094806954
76	0x3e30d7c9	0.17269816
77	0x3dd95e83	0.1061373
78	0x3e7bf339	0.24604501
79	0x3ded74f3	0.11594572
80	0xbd5d6d7c	-0.05405949
81	0x3ebc0bf3	0.36727867
82	0x3d6f6dd6	0.058454357
83	0xbd1bed17	-0.038067903
84	0xbe69e4ed	-0.22841235
85	0xbec612a3	-0.38686094
86	0xbe017c60	-0.12645102
87	0x3e05e982	0.13077357
88	0xbe029789	-0.12753119
89	0x3e2dbaae	0.16965744
90	0x3d91d428	0.07120544
91	0xbec26872	-0.3797031
92	0x3e4a02aa	0.19727579
93	0x3ecfa076	0.4055211
94	0xbda9c4f4	-0.08289519
95	0xbdcdaaaa	-0.10042317
96	0xbe1c7482	-0.15278819
97	0x3e9340f0	0.2876048
98	0x3eb8989a	0.36053926
99	0xbe28578a	-0.16439644
100	0x3d4883d0	0.04895383
101	0x3d88b838	0.06675762
102	0xbd2c98a6	-0.042137764
103	0xbe4c088c	-0.19925135
104	0x3e127f8e	0.14306471
105	0xbe34b8b6	-0.17648587
106	0x3e9a9fe7	0.3020012
107	0x3d92aa27	0.0716136
108	0xbd96bbd1	-0.07360042
109	0x3dee81a9	0.116458245
110	0xbe93ebe8	-0.2889092
111	0xbeae5cbe	-0.34055132
112	0x3cd2759f	0.025690852
113	0x3d421bc8	0.047389776
114	0x3d52bbaf	0.05144852
115	0x3e03d0a7	0.12872563
116	0xbe945fe6	-0.28979415
117	0xbe39759b	-0.18111269
118	0xbba1a1a4	-0.004932599
119	0x3c911158	0.017708465
120	0x3ed97d49	0.42478397
121	0xbe4070a0	-0.18792963
122	0x3e2692e9	0.1626698
123	0x3ccd58a7	0.025066687
124	0xbe131563	-0.14363627
125	0xbdd0b84e	-0.10191403
126	0xbe46705c	-0.19378799
127	0xbb9e9ca7	-0.0048404518
128	0xbdb8c0cb	-0.09021147
129	0xbe4383b8	-0.19093215
130	0x3d89362e	0.06699787
131	0x3e445d99	0.1917633
132	0xbe9f3308	-0.3109362
133	0x3daae9f8	0.08345407
134	0xbed27a99	-0.4110916
135	0xbd130cba	-0.03590081
136	0x3c82df5c	0.015975647
137	0xbe47e1fb	-0.19519798
138	0x3c9ad800	0.018901825
139	0xbebfc5f9	-0.3745573
140	0xbd2fc5c9	-0.042913232
141	0xbe25ec37	-0.1620339
142	0xbe8d9d7e	-0.2765922
143	0x3e3775cf	0.17916034
144	0x3e46af0e	0.19402716
145	0xbece4101	-0.4028397
146	0x3dd8cb5d	0.105856635
147	0x3e8f159f	0.27946183
148	0x3d056336	0.032565318
149	0x3ce6f497	0.028192801
150	0x3e960f9a	0.29308778
151	0xbe154e3a	-0.14580622
152	0x3e4c7e17	0.19969974
153	0xbe87fc80	-0.2655983
154	0xbdad82d7	-0.08472221
155	0x3e17ed00	0.14836502
156	0xbeae9ba3	-0.34103116
157	0xbe50913c	-0.20367903
158	0xbe230fb5	-0.1592396
159	0x3d98cb4c	0.07460651
160	0x3df735dd	0.120708205
161	0x3e1126ac	0.14174908
162	0xbd16f1c7	-0.03685167
163	0xbd92cb35	-0.07167665
164	0x3d9ae06d	0.07562337
165	0x3d224d7c	0.039624676
166	0xbd8be047	-0.06829887
167	0xbe3718da	-0.17880574
168	0x3dd9fffe	0.1064453
169	0x3e518103	0.2045937
170	0xbd900fa5	-0.07034234
171	0xbd69000b	-0.056884807
172	0x3e8c0541	0.27347758
173	0xbe0a7a0f	-0.13523124
174	0x3e0a4a34	0.13504869
175	0x3eaf196c	0.34199083
176	0xbe087d92	-0.13329151
177	0x3d9af3d8	0.07566041
178	0xbd3cb87d	-0.04607438
179	0x3d120014	0.035644606
180	0x3ce77882	0.028255705
181	0x3e6306bc	0.22170538
182	0x3e21db5e	0.15806338
183	0x3da75c4c	0.08171901
184	0xbe8e1447	-0.27749845
185	0xbd0b5781	-0.034018997
186	0x3d365ab1	0.044520084
187	0x3e793038	0.243348
188	0xbea89d8e	-0.32932705
189	0xbe45b256	-0.19306311
190	0xbb5db210	-0.0033828057
191	0x3be1523a	0.0068762572
192	0x3ea892d6	0.32924527
193	0xbeaa22ac	-0.33229578
194	0x3e7fca30	0.24979472
195	0x3da6bf6e	0.08141981
196	0x3d90bba1	0.070670374
197	0x3d48cc76	0.049023114
198	0xbe3a6eda	-0.18206349
199	0x3e67b3ad	0.22627135
200	0x3d1d7c4b	0.038448613
201	0xbedd39fa	-0.43208295
202	0x3cb6d4f6	0.022318345
203	0x3d2b9110	0.04188639
204	0x3ea918eb	0.33026823
205	0x3e9b77e1	0.30364898
206	0xbd7119d5	-0.058862526
207	0xbd4f6b24	-0.050639287
208	0x3d199eb4	0.037504867
209	0xbd55abb5	-0.052165706
210	0x3ea6d36e	0.32583183
211	0x3ec0a395	0.37624803
212	0x3eb42a4f	0.3518853
213	0xbcb1bdb1	-0.021696897
214	0xbe821c70	-0.2541232
215	0xbdfa9096	-0.12234609
216	0xbe15e640	-0.14638615
217	0xbe03da1d	-0.12876172
218	0xbee45ce5	-0.44602123
219	0xbe8131a1	-0.25233176
220	0x3d118340	0.03552556
221	0xbbbda42e	-0.005787394
222	0xbdc905c2	-0.09815551
223	0x3ec9311e	0.39295286
224	0xbdccb529	-0.09995491
225	0x3e1cc3e9	0.15309109
226	0x3d42a5b6	0.047521316
227	0x3e6a7996	0.22897944
228	0xbf43b3ba	-0.76446116
229	0xbe26ff3b	-0.163083
230	0xbca95119	-0.020668553
231	0x3d89eb87	0.067343764
232	0x3d40e3ff	0.047092434
233	0x3ca158ea	0.019695718
234	0xbe91bddd	-0.28465167
235	0x3eb1eaba	0.34749395
236	0xbe819e0d	-0.25315896
237	0xbe43249c	-0.19056934
238	0x3b1d4866	0.0023999452
239	0xbc69dea7	-0.014274276
240	0x3eb3ada8	0.35093427
241	0xbc19863c	-0.009370383
242	0x3e6eed68	0.23332751
243	0x3e0633ce	0.131057
244	0xbcb96be9	-0.022634463
245	0xbb800b37	-0.003907587
246	0x3ec13344	0.37734425
247	0xbe2c907c	-0.16851991
248	0xbe0e300a	-0.13885513
249	0x3dd11664	0.10209349
250	0x3d85355b	0.065043174
251	0xbb7bd4b1	-0.0038426335
252	0x3eb9c217	0.3628089
253	0x3e9990f5	0.29993406
254	0x3daca6fc	0.08430287
255	0x3c1b640c	0.009484302

fc1.bias f4 [128]
0	0xbe8122fd	-0.25222006
1	0x3e93bbda	0.28854257
2	0x3e8d891d	0.27643672
3	0xbd21d2c5	-0.039507646
4	0x3e696cd7	0.22795425
5	0x3df419d9	0.119189925
6	0x3e9f9953	0.31171665
7	0x3e784048	0.24243271
8	0x3e5b7d6b	0.21434562
9	0xbe83df02	-0.2575608
10	0xbde93aa6	-0.113881394
11	0x3eaf0de1	0.34190276
12	0x3eb39ba7	0.3507969
13	0x3e6c910a	0.23102203
14	0x3e082e49	0.13298906
15	0x3df12151	0.11773933
16	0x3eb2e33b	0.34938988
17	0xbe9d8328	-0.30764127
18	0x3e7c04a7	0.2461115
19	0x3eae5f05	0.3405687
20	0x3e9691dc	0.29408157
21	0xbe4f5acd	-0.20249481
22	0xbe6cbc4c	-0.23118705
23	0xbe645f19	-0.22301902
24	0x3e9446e5	0.28960338
25	0x3e835696	0.25651997
26	0x3e7d4c19	0.2473606
27	0xbe23ff10	-0.16015267
28	0x3e10ebae	0.14152405
29	0x3e78a952	0.2428334
30	0xbe39525a	-0.18097821
31	0x3e723aa0	0.23655176
32	0x3e0e55d5	0.1389993
33	0x3e8cbcf5	0.27487913
34	0x3e9edce0	0.3102789
35	0xbe0bf6b0	-0.13668323
36	0x3e8695be	0.2628612
37	0xbdfb4c30	-0.12270391
38	0x3ceb81d1	0.028748425
39	0x3e9f6936	0.31134957
40	0x3e7ca4b1	0.246722
41	0x3ea6e2fa	0.32595044
42	0x3e9bed0d	0.30454293
43	0x3eaa5eeb	0.33275542
44	0x3e6702c0	0.22559643
45	0x3e20d4a0	0.1570611
46	0xbd79f031	-0.06102008
47	0x3ea86942	0.32892805
48	0xbe8a0e99	-0.26964262
49	0x3eaf2770	0.34209776
50	0x3e84a682	0.25908285
51	0xbdd290d5	-0.10281531
52	0xbe338dde	-0.17534587
53	0x3eaa7111	0.33289388
54	0x3e9f5157	0.31116745
55	0x3b86d51d	0.0041147606
56	0x3ecbe86e	0.39825767
57	0xbe464d50	-0.1936543
58	0x3e46ef8c	0.19427317
59	0x3e718033	0.2358406
60	0x3e837c3b	0.25680718
61	0xbe8b3719	-0.27190474
62	0x3e8db02f	0.2767348
63	0x3e44d337	0.19221197
64	0x3dffb3db	0.124854766
65	0x3e96744d	0.29385605
66	0x3e634678	0.2219485
67	0xbdd6e3c3	-0.10492661
68	0x3dda01d3	0.10644879
69	0x3e887182	0.266491
70	0x3e2acfa9	0.16680779
71	0x3e548a69	0.20755924
72	0x3e7727f4	0.24136335
73	0xbea397a7	-0.3195164
74	0x3ab7598c	0.0013988479
75	0xbdaaf338	-0.083471715
76	0x3e804e33	0.2505966
77	0x3ed2c268	0.41163945
78	0x3e820de3	0.2540122
79	0x3e7b8126	0.24560985
80	0xbd9a1524	-0.075235635
81	0x3e88af95	0.26696458
82	0x3e823741	0.2543278
83	0x3e7cc736	0.24685368
84	0x3e60c9f5	0.2195204
85	0x3e825dd6	0.25462216
86	0x3e5d0343	0.21583275
87	0x3e9c3dd3	0.30515918
88	0xbe4f0780	-0.20217705
89	0x3e6c7cb3	0.23094444
90	0x3e481329	0.19538559
91	0x3e864011	0.26220754
92	0x3c73ce4c	0.014880728
93	0x3ea36aef	0.3191752
94	0x3cb77c0c	0.022398017
95	0xbe8d19f6	-0.2755887
96	0xbe67b3d4	-0.22627193
97	0x3e73c232	0.23804548
98	0x3ea7af79	0.32751063
99	0x3e1c812a	0.15283647
100	0xbe09ab15	-0.13444169
101	0x3e389c11	0.18028285
102	0x3d1f903b	0.03895591
103	0x3e5cf682	0.2157841
104	0x3ebf784b	0.37396464
105	0x3e59bc94	0.21263343
106	0xbe83db68	-0.2575333
107	0x3e6c8c0b	0.23100297
108	0x3e641cf4	0.2227667
109	0x3e506738	0.20351875
110	0xbe521fbe	-0.20519921
111	0xbdc23e39	-0.09484524
112	0x3de7d303	0.11319544
113	0xbe76e3ef	-0.24110387
114	0x3e4f8ba1	0.20268108
115	0x3e3c5a68	0.18393862
116	0x3e60e48e	0.21962187
117	0xbe9ad794	-0.30242598
118	0xbd0f1be0	-0.034938693
119	0x3e2b9a0c	0.16757983
120	0x3ea832ee	0.32851356
121	0xbe9ed592	-0.31022316
122	0x3ea7deb9	0.3278711
123	0xbe1c903a	-0.15289393
124	0xbe847ce2	-0.25876528
125	0x3eb91d71	0.36155275
126	0xbeba328c	-0.3636669
127	0xbe8098dc	-0.25116622

fc2.weight f4 [128, 128]
0	0x3cc12341	0.02357638
1	0x3e525f9d	0.20544286
2	0x3d1f0b88	0.038829356
3	0x3db171bb	0.086642705
4	0x3de0b768	0.10972482
5	0xbd503873	-0.050835084
6	0x3d3df2dd	0.04637419
7	0x3d46c71e	0.048529737
8	0x3c9e5326	0.019326758
9	0x3e0c74f9	0.13716497
10	0x3d5b81c5	0.053590555
11	0xbed3b664	-0.4135009
12	0xbd2128e4	-0.039345637
13	0xbd4ed123	-0.050492417
14	0x3e7505ba	0.23927966
15	0xbd896c9d	-0.067101695
16	0xbea4ebc3	-0.32211122
17	0xbe6744b8	-0.22584808
18	0xbb8649ee	-0.0040981686
19	0x3e2a91aa	0.16657129
20	0x3e514c7f	0.20439337
21	0x3e07878a	0.13235298
22	0x3e7c390f	0.24631141
23	0x3dfbbaa5	0.12291459
24	0xbe1466cd	-0.1449234
25	0x3d873824	0.06602505
26	0xbe8c55e1	-0.2740927
27	0x3e12d310	0.14338326
28	0x3d79e71a	0.06101141
29	0xbd4fb4b6	-0.05070945
30	0x3eb0d75c	0.34539306
31	0x3e051be2	0.12998918
32	0x3b14ccb8	0.002270503
33	0xbe13bc20	-0.14427233
34	0x3ddbc95a	0.10731764
35	0x3dcb53d4	0.09928098
36	0xbe866ca8	-0.26254773
37	0x3cb80960	0.022465408
38	0xbd51089f	-0.051033612
39	0xbdd2e51a	-0.10297604
40	0xbcdec267	-0.027192308
41	0xbe71f307	-0.23627864
42	0xbde3071d	-0.11085341
43	0xbdc7d904	-0.09758189
44	0x3e107c81	0.14109994
45	0x3cbbd032	0.022926424
46	0xbdbdf775	-0.09275714
47	0xbdcde6f1	-0.10053814
48	0x3e331f0d	0.17492314
49	0xbe89b980	-0.26899338
50	0xbea4ff66	-0.32226104
51	0x3e0f1c23	0.13975577
52	0x3e2128dd	0.15738244
53	0xbd052d07	-0.032513645
54	0xbdc39564	-0.095499784
55	0x3e70d1ad	0.23517485
56	0xbe00d519	-0.1258129
57	0x3c5fde97	0.013663909
58	0xbe8560b9	-0.26050356
59	0x3d2d639e	0.04233133
60	0x3cd52bc3	0.026021844
61	0x3d98075c	0.07423279
62	0xbdf179fc	-0.11790845
63	0x3e13cbda	0.14433232
64	0xbec97a3f	-0.3935108
65	0x3d4331d6	0.04765495
66	0xbdc24786	-0.09486298
67	0xbda731ee	-0.0816382
68	0x3ddab0aa	0.10678227
69	0x3c2c8eb9	0.010532075
70	0x3d081e6a	0.03323213
71	0xbdfa4a57	-0.122212104
72	0xbec4587f	-0.38348767
73	0x3da4591b	0.08024808
74	0xbee9e6dd	-0.45683947
75	0x3e3f0abd	0.1865644
76	0xbe936070	-0.28784513
77	0xbb151c79	-0.0022752567
78	0xbdea851a	-0.11451168
79	0xbd854618	-0.0650751
80	0x3e905509	0.28189877
81	0x3bdf7b47	0.0068201157
82	0xbde32e93	-0.11092868
83	0xbda94efa	-0.08267017
84	0xbd21c8fc	-0.039498314
85	0xbde84296	-0.11340825
86	0x3e833a7b	0.25630555
87	0x3d35a4f1	0.044346754
88	0x3e0a54bc	0.13508886
89	0xbcf3a39a	-0.029741097
90	0xbd88b71a	-0.06675549
91	0xbd74d637	-0.059774604
92	0x3e1f3ee5	0.15551336
93	0xbd8f1fd9	-0.06988496
94	0x3ecb885f	0.3975248
95	0x3ede6f3b	0.43444237
96	0xbd3befba	-0.045882918
97	0x3e9e0513	0.30863246
98	0x3ca2ebf9	0.019887911
99	0xbc9731fa	-0.018456448
100	0x3ce7d91c	0.028301768
101	0xbbef142f	-0.0072961072
102	0xbc37ca54	-0.011217672
103	0x3d98add4	0.0745503
104	0xbda536e9	-0.08067114
105	0xbd77e176	-0.06051775
106	0x3cca732f	0.024713127
107	0xbd41cd0e	-0.047314696
108	0x3e958f78	0.2921102
109	0x3e260ac7	0.16215049
110	0x3e880c0e	0.26571697
111	0xbe68178d	-0.22665234
112	0x3de441d3	0.111453675
113	0x3cd46d0b	0.025930902
114	0xbe004dfa	-0.12529746
115	0x3d09429d	0.033510793
116	0xbde79d7b	-0.11309334
117	0x3e6804b0	0.22658038
118	0x3ea122cc	0.3147186
119	0xbe46f3a2	-0.19428876
120	0x3d2301b4	0.039796546
121	0x3e65c7d1	0.22439505
122	0xbe7690f3	-0.24078731
123	0xbcb62f8c	-0.022239469
124	0x3d88541c	0.066566676
125	0x3c127497	0.00893893
126	0x3db86ec9	0.090055056
127	0x3d41e079	0.047333214
128	0xbd623ef6	-0.055235825
129	0x3d926318	0.07147807
130	0x3b54a9e6	0.00324499
131	0x3edd2449	0.43191746
132	0x3ea6079a	0.32427675
133	0x3c827b86	0.015928041
134	0x3dc93476	0.09824459
135	0xbacfb5b9	-0.0015847004
136	0x3db33e14	0.08752075
137	0x3dc3d3d9	0.09561891
138	0xbd9163de	-0.07099126
139	0x3e7d46d1	0.24734046
140	0x3e06a0d5	0.1314729
141	0x3dd35b8a	0.10320194
142	0x3d84bcde	0.06481336
143	0x3d00c928	0.031441838
144	0x3e2059e8	0.15659297
145	0xbe2fd557	-0.17171226
146	0x3e887b91	0.26656774
147	0x3ec416e7	0.38298723
148	0xbc714557	-0.014726005
149	0xbdb41171	-0.08792389
150	0xbdda9340	-0.10672617
151	0x3de7534f	0.11295187
152	0x3e9d809d	0.30762187
153	0x3e1c75d2	0.1527932
154	0x3e10fff8	0.14160144
155	0xbd4f9de0	-0.05068767
156	0x3d94c318	0.07263774
157	0x3d47c171	0.048768464
158	0xbdca2994	-0.09871212
159	0x3dd04684	0.101697
160	0x3cd33dc4	0.025786288
161	0x3db96883	0.09053137
162	0x3e3baa62	0.18326715
163	0x3e3c87e5	0.18411215
164	0x3e17bba6	0.14817676
165	0xbe3143b0	-0.17310977
166	0x3e311172	0.17291811
167	0x3e8231e9	0.25428703
168	0x3e8c54ad	0.27408352
169	0x3e9293e5	0.2862846
170	0x3da0e1e0	0.07855582
171	0x3ecc6fb3	0.3992897
172	0x3e4e6953	0.20157366
173	0x3d57a5a3	0.052648198
174	0x3d0c18f9	0.034203503
175	0x3d8be2dd	0.0683038
176	0xbc9e6d0d	-0.019339109
177	0x3e83e0a3	0.25757322
178	0x3e09d4b3	0.13460045
179	0x3db2ff3d	0.08740089
180	0x3daa5541	0.08317042
181	0x3e573e64	0.21019894
182	0x3e6cf33c	0.23139662
183	0xbe457cff	-0.19285963
184	0x3eb51135	0.3536469
185	0xbda77132	-0.08175887
186	0x3df99be8	0.1218794
187	0x3e98f0cc	0.29871213
188	0x3bcdacea	0.0062767165
189	0xbd09be54	-0.033628777
190	0x3e2da54c	0.16957587
191	0x3dc0b142	0.09408809
192	0x3e40b811	0.18820216
193	0x3e2600b6	0.16211209
194	0x3e30214e	0.17200205
195	0xbe2d6506	-0.16933069
196	0x3d6448e3	0.055733573
197	0x3df958ae	0.121751174
198	0x3db64765	0.08900336
199	0x3db0e666	0.08637695
200	0x3e71669f	0.23574303
201	0xbe3843af	-0.17994569
202	0x3e257c1e	0.16160628
203	0x3dd6c21c	0.10486242
204	0x3e47efa7	0.19525014
205	0x3d52237d	0.051303376
206	0x3e8c976e	0.27459282
207	0x3e56161b	0.2090687
208	0x3d35dfb6	0.0444028
209	0x3d3d9ab5	0.04629012
210	0x3e21eda3	0.15813307
211	0x3c365f4d	0.01113112
212	0x3e234d74	0.15947515
213	0x3e84c1ed	0.25929204
214	0x3e1c80fd	0.1528358
215	0x3e14edc5	0.14543827
216	0xbe00689b	-0.12539904
217	0x3dbcf339	0.092260785
218	0x3d47f926	0.04882159
219	0xbdc74708	-0.09730345
220	0xbcd99eec	-0.026565038
221	0x3dd0ba45	0.10191778
222	0xbc910a8a	-0.01770522
223	0xbe6b399a	-0.22971192
224	0xbe0ebcfb	-0.13939278
225	0x3e119d75	0.14220221
226	0x3c4f4364	0.0126503445
227	0x3e01a799	0.1266159
228	0x3c073c41	0.008254112
229	0xbd9451b1	-0.07242144
230	0xbe0e6c69	-0.13908543
231	0x3d57e7c4	0.052711263
232	0x3e4d2f9e	0.20037696
233	0x3df0fc00	0.11766815
234	0xbcfac288	-0.030610338
235	0x3d242470	0.040073812
236	0x3e96590b	0.2936481
237	0x3d00caa8	0.031443268
238	0xbdb9c1ea	-0.09070189
239	0xbe2d7fc0	-0.16943264
240	0x3d98b9eb	0.07457336
241	0xbe0ed4d3	-0.13948373
242	0x3d261b5d	0.04055344
243	0xbd034807	-0.032051113
244	0x3e408f4e	0.18804666
245	0x3dac7235	0.08420221
246	0x3bbb8732	0.0057229036
247	0x3d0c5559	0.03426108
248	0x3e6da257	0.23206459
249	0xbe3d035c	-0.18458313
250	0x3ddc5634	0.107586294
251	0xbcae216a	-0.021256167
252	0x3cdbcc15	0.026830712
253	0x3df49f61	0.119444616
254	0xbe44919b	-0.19196169
255	0xbb5e7ca7	-0.003394881

fc2.bias f4 [128]
0	0xbd45415c	-0.048158035
1	0x3e635383	0.22199826
2	0xbc94765f	-0.01812285
3	0x3e3c3ea2	0.18383268
4	0xbdb54d40	-0.08852625
5	0x3e403775	0.18771155
6	0x3e4cebf0	0.20011878
7	0x3e80c62c	0.25151193
8	0xbb215176	-0.0024615205
9	0x3dc1bce9	0.0945986
10	0x3e345efb	0.17614357
11	0xbd9db550	-0.07700598
12	0x3dec92bf	0.11551427
13	0x3e83749f	0.25674912
14	0xbda803cd	-0.0820385
15	0x3e399aaf	0.18125413
16	0x3e65cb83	0.22440915
17	0x3e8b6679	0.27226618
18	0x3e4dd4df	0.20100735
19	0x3e4afb98	0.19822538
20	0xbdd4fa34	-0.10399285
21	0x3e33eecf	0.17571567
22	0x3e7d4d28	0.24736464
23	0x3e67769e	0.22603843
24	0x3e3a9ab4	0.18223077
25	0xbc4c12d7	-0.012455664
26	0x3e93687b	0.2879065
27	0x3e403936	0.18771824
28	0xbd8bd5f5	-0.068279184
29	0xbcb0d805	-0.021587381
30	0x3e2d10e0	0.16900969
31	0x3e93f530	0.28898
32	0x3e905f58	0.28197742
33	0xbd97fc02	-0.074211136
34	0x3db8ed35	0.09029619
35	0x3e7ca3d0	0.24671865
36	0x3e959c54	0.2922083
37	0x3e57d99b	0.21079104
38	0xbe1d60a3	-0.15368895
39	0xbd0aefbc	-0.033920035
40	0xbd2a41ce	-0.041566662
41	0xbd8c9482	-0.06864263
42	0x3e81e8cc	0.25372922
43	0x3e5df516	0.21675524
44	0x3d947124	0.07248142
45	0x3e8540dc	0.26026046
46	0x3e890c57	0.26767227
47	0x3e80a105	0.25122848
48	0x3d20f829	0.039299164
49	0x3e74dd34	0.23912507
50	0xbd73cc53	-0.05952103
51	0x3e96ef53	0.29479465
52	0x3de0b804	0.10972598
53	0x3e5fd0f3	0.21857052
54	0x3e57fb1e	0.21091887
55	0xbcaf3067	-0.021385385
56	0xbd9cc8dd	-0.07655499
57	0xbdb9e044	-0.090759784
58	0x3e95c9df	0.29255578
59	0x3e955e10	0.29173326
60	0xbdb36dee	-0.08761202
61	0xbdc98d95	-0.09841458
62	0xbcfe638f	-0.031053333
63	0xbd851f57	-0.06500118
64	0x3e5b34e3	0.21406893
65	0xbd706474	-0.05868955
66	0x3e5a2e02	0.21306613
67	0xbe0ebeae	-0.13939926
68	0x3e761289	0.24030508
69	0x3e119c7b	0.14219849
70	0xbd282fb0	-0.041061103
71	0x3dfef87f	0.124497406
72	0xbdac3322	-0.0840819
73	0xbd6e827b	-0.058229905
74	0x3e187897	0.14889751
75	0xbe0b1430	-0.1358192
76	0xbd8c1658	-0.06840199
77	0xbda93ce5	-0.08263568
78	0xbc82c472	-0.015962813
79	0x3e11c2d3	0.14234476
80	0xbd544b50	-0.051829636
81	0xbd60f1ef	-0.054918226
82	0xbd9754ae	-0.07389198
83	0x3e6f714c	0.23383063
84	0xbd944e1f	-0.07241463
85	0xbc4b6a0b	-0.012415419
86	0x3e7884d8	0.24269426
87	0x3eae1ff9	0.34008768
88	0xbddef712	-0.10886969
89	0x3e7eb50e	0.24873754
90	0x3e27bdac	0.16380948
91	0x3e5a020a	0.2128984
92	0x3e95c838	0.29254317
93	0x3e245a10	0.16049981
94	0x3e5fa57b	0.2184047
95	0x3e5aea12	0.21378353
96	0x3e36161d	0.17781873
97	0x3e2fb1da	0.17157689
98	0xbdd8d2d8	-0.1058709
99	0xbbf7991e	-0.007556095
100	0x3e0bd656	0.13655981
101	0xbdae9d93	-0.08526149
102	0xbd2b7ac0	-0.04186511
103	0x3e25891b	0.16165583
104	0x3de7169b	0.112836085
105	0x3e71daaf	0.23618577
106	0x3e5bc483	0.21461682
107	0x3e9203f6	0.28518647
108	0x3e862dd1	0.2620683
109	0xbded0367	-0.115729146
110	0xbdb9983c	-0.090622395
111	0xbda4000e	-0.08007823
112	0x3e3d5762	0.18490365
113	0xbd9b3447	-0.075783305
114	0xbbbd998e	-0.0057861274
115	0x3cb14be2	0.021642629
116	0xbd60372c	-0.054740116
117	0x3e67b015	0.22625764
118	0x3dd4007f	0.10351657
119	0x3bf6836c	0.007522991
120	0x3e5c4675	0.21511252
121	0x3e4053b5	0.18781932
122	0xbdc414ab	-0.095742546
123	0xbd99b55c	-0.07505295
124	0xbd5769a6	-0.05259099
125	0x3e6180d9	0.22021808
126	0xbd3125af	-0.04324883
127	0x3e60ebec	0.21964997

fc3.weight f4 [3, 128]
0	0x3f03233f	0.51225656
1	0xbe438fa5	-0.19097765
2	0x3f24a00d	0.6430672
3	0x3c5c93fe	0.013463018
4	0x3eafc616	0.34330815
5	0xbeabe388	-0.3357203
6	0xbe39d61c	-0.18148082
7	0xbe66010f	-0.22461341
8	0x3e44436f	0.19166349
9	0xbe5fe3ea	-0.21864286
10	0xbedf3146	-0.4359228
11	0x3e910145	0.2832128
12	0xbecb820f	-0.39747664
13	0xbe75c394	-0.24000388
14	0x3dfe48df	0.12416243
15	0xbe4fbb61	-0.20286323
16	0xbe34e20a	-0.17664352
17	0xbe3aae9f	-0.18230675
18	0xbdcd51a4	-0.10025337
19	0xbd2a643f	-0.04159951
20	0x3f6320c0	0.8872185
21	0x3bfebe46	0.007774147
22	0xbeb67030	-0.35632467
23	0xbead2eaf	-0.3382468
24	0xbeaf2738	-0.3420961
25	0x3df5bb9d	0.11998675
26	0xbec10592	-0.37699562
27	0xbe9779e5	-0.29585186
28	0x3ed9f28b	0.42567858
29	0xbf4b7b9a	-0.79485476
30	0x3d49ff47	0.049315717
31	0xbe984b01	-0.29744723
32	0xbea8634c	-0.32888258
33	0x3eee3015	0.4652106
34	0xbecdcc3f	-0.4019489
35	0xbe49bd79	-0.19701184
36	0xbec5f7dd	-0.38665667
37	0xbdc1defb	-0.09466358
38	0x3f2d4288	0.67679644
39	0x3e5e57ec	0.21713227
40	0x3e9ddcfb	0.30832657
41	0x3e00c809	0.12576307
42	0xbe5fb8aa	-0.21847787
43	0xbdfa726e	-0.12228857
44	0xbe8f2216	-0.27955693
45	0xbe016b0d	-0.12638493
46	0xbeb83289	-0.35976055
47	0xbeb288fc	-0.34870136
48	0x3f16a9f9	0.5885311
49	0xbe5e83bd	-0.21729942
50	0x3efbf111	0.49207357
51	0xbe0a9a74	-0.13535482
52	0xbda3fee3	-0.080076
53	0xbea51aa0	-0.32246876
54	0xbde3bb5f	-0.111197226
55	0x3df07883	0.11741736
56	0x3e580a6d	0.21097727
57	0x3eeb6344	0.4597417
58	0xbea98c1e	-0.33114713
59	0xbdd561cb	-0.10419043
60	0x3e66ef5c	0.22552246
61	0xbdac435d	-0.08411286
62	0x3ea74611	0.32670644
63	0x3f300e7d	0.6877211
64	0xbeb6a11b	-0.3566979
65	0x3eba8eee	0.36437172
66	0xbe4c7cf2	-0.19969538
67	0x3edd4df6	0.43223542
68	0xbeaaca9d	-0.33357707
69	0xbd839e5e	-0.064266905
70	0x3ea09b4f	0.3136849
71	0xbe3afec0	-0.18261242
72	0x3ea86d7f	0.3289604
73	0x3f310f24	0.6916373
74	0xbe844568	-0.25834203
75	0x3ebf8adb	0.37410626
76	0x3ee1bbfc	0.44088733
77	0x3ef893da	0.48550302
78	0x3dd56cbf	0.10421132
79	0xbd775b99	-0.06039009
80	0x3e9fc959	0.31208304
81	0x3f8d577c	1.1042323
82	0x3f4914f5	0.785476
83	0xbec528f2	-0.385078
84	0x3e905173	0.2818714
85	0xbebc5c2f	-0.3678908
86	0xbe9d1261	-0.30678084
87	0xbe746357	-0.2386602
88	0x3e4d55e4	0.20052296
89	0xbea756d5	-0.32683435
90	0xbe7167c8	-0.23574746
91	0xbe8d9a8b	-0.2765697
92	0xbec87f09	-0.3915942
93	0x3bf4319a	0.007452202
94	0xbe9c1acb	-0.3048919
95	0xbe87d707	-0.2653124
96	0xbe9116f9	-0.2833784
97	0xbe86c3ac	-0.2632116
98	0x3ec7b1ad	0.39002743
99	0x3f8a8921	1.0823098
100	0xbe39dc0a	-0.18150344
101	0x3e78c47f	0.24293707
102	0x3e279648	0.16365921
103	0xbf011c86	-0.5043415
104	0xbf14a9b3	-0.5807144
105	0xbe9c552e	-0.30533737
106	0xbe3b1cda	-0.18272725
107	0xbe81847a	-0.25296384
108	0xbe88211e	-0.26587766
109	0x3f127ee9	0.572249
110	0x3e9a5374	0.30141795
111	0x3e9f6fb7	0.3113992
112	0xbe94a87e	-0.290348
113	0xbf4602e0	-0.77348137
114	0x3e11aad6	0.14225325
115	0xbf022de2	-0.5085126
116	0x3e291517	0.16511951
117	0xbe878eb7	-0.2647607
118	0xbe977a5d	-0.29585543
119	0xbebb991c	-0.3664025
120	0xbdf77994	-0.12083736
121	0xbe8d6c90	-0.2762189
122	0x3f2f98cc	0.68592525
123	0x3f352ac9	0.7076841
124	0xbdd8eadd	-0.105916716
125	0xbd8b8520	-0.06812501
126	0x3efc1b66	0.49239653
127	0xbeb89df0	-0.36057997
128	0x3e95974f	0.29217002
129	0xbe464263	-0.19361262
130	0x3f12ef17	0.5739607
131	0xbeb9d104	-0.3629228
132	0x3e285dbd	0.16442008
133	0xbe6cff17	-0.23144184
134	0xbea13526	-0.31485862
135	0xbeb83bd8	-0.35983157
136	0xbe3bf4e4	-0.18355137
137	0xbe4bcf65	-0.19903333
138	0xbdfb3f30	-0.122679114
139	0x3efc691a	0.49298936
140	0xbe2ef688	-0.17086232
141	0xbeaaea3a	-0.33381826
142	0x3d9d5068	0.07681352
143	0xbe9f9d9a	-0.31174928
144	0xbe513d14	-0.20433456
145	0xbe7e5ef5	-0.2484091
146	0xbdf60a5b	-0.12013694
147	0xbe08e150	-0.133672
148	0x3f18cbb4	0.59685826
149	0xbeae09b0	-0.33991766
150	0xbea8d230	-0.3297286
151	0xbea4f7fb	-0.32220444
152	0xbe7470fc	-0.23871225
153	0x3e43c5d3	0.19118433
154	0xbeb0ede2	-0.3455649
155	0x3cc7f931	0.024410816
156	0x3f196aac	0.59928393
157	0xbe14e2e5	-0.14539678
158	0xbe8cd980	-0.2750969
159	0xbee400b2	-0.4453178
160	0xbe741dec	-0.2383954
161	0x3e778cfa	0.24174872
162	0xbe6d36bd	-0.23165412
163	0xbdb4f141	-0.08835078
164	0xbe920318	-0.28517985
165	0xbe35dc86	-0.17759904
166	0x3f2e86f2	0.6817466
167	0x3ea12da2	0.31480128
168	0x3c526852	0.012842255
169	0x3e9a7139	0.30164507
170	0xbe8dbf07	-0.27684805
171	0xbe198e94	-0.14995795
172	0xbd9b78c0	-0.075913906
173	0xbe36714c	-0.17816657
174	0xbe0b0cd8	-0.13579118
175	0xbeb983e6	-0.36233443
176	0x3efecddb	0.4976643
177	0xbe515cb9	-0.20445527
178	0x3f02cdb7	0.51095146
179	0xbe96de0d	-0.29466286
180	0xbe891a13	-0.26777706
181	0xbd84d1fb	-0.06485363
182	0xbe878fb7	-0.26476833
183	0xbcb01367	-0.021493627
184	0x3e98fbd1	0.2987962
185	0x3ef210ee	0.4727854
186	0xbed08e09	-0.40733364
187	0xbe2054c6	-0.15657339
188	0x3e90d7be	0.28289598
189	0x3ebf0df7	0.37315342
190	0x3eb9108b	0.36145434
191	0x3ed83596	0.42228383
192	0xbe45e61d	-0.19326063
193	0x3e8ca359	0.27468374
194	0xbe898df4	-0.26866114
195	0x3ef4c1d8	0.4780414
196	0xbea69b4a	-0.3254035
197	0xbe97d531	-0.2965484
198	0x3f093fb6	0.5361284
199	0xbe056dfe	-0.1303024
200	0x3ec4c577	0.38431904
201	0x3ef28137	0.47364208
202	0xbe771817	-0.24130283
203	0x3f0a9cd2	0.5414554
204	0x3e56cf8a	0.20977607
205	0x3e9a346f	0.3011813
206	0x3dd54f40	0.10415506
207	0xbe42105d	-0.18951555
208	0x3eeca646	0.46220607
209	0x3f0c32d9	0.5476509
210	0x3f2cd691	0.675149
211	0xbe90470b	-0.281792
212	0x3ea29b88	0.31759286
213	0x3e988cb0	0.29794836
214	0xbebe4d94	-0.37168562
215	0xbe8d92e2	-0.27651125
216	0x3e9b9c0c	0.30392492
217	0xbee2883b	-0.4424456
218	0xbdbf7ad3	-0.09349599
219	0xbe432c63	-0.19059901
220	0xbe9d2dd7	-0.30699036
221	0xbe88a72b	-0.2669004
222	0xbea3da6c	-0.3200258
223	0xbe059265	-0.13044126
224	0x3c093139	0.008373552
225	0xbe4ac4d0	-0.1980164
226	0x3e5440ac	0.20727795
227	0x3f17fe10	0.59372044
228	0xbb930ed9	-0.004487854
229	0x3ebf02df	0.37306878
230	0x3e0d6b9e	0.13810584
231	0xbeba1cc6	-0.36350077
232	0xbecbc248	-0.39796662
233	0xbe319435	-0.17341693
234	0xbea15c0c	-0.3151554
235	0xbeb45a76	-0.35225266
236	0xbe05d071	-0.13067795
237	0x3f20d04d	0.6281784
238	0x3e906838	0.28204513
239	0x3e94b694	0.29045546
240	0x3d061569	0.032735262
241	0xbf155e52	-0.58347046
242	0xbd8e87c5	-0.0695949
243	0xbe264116	-0.16235766
244	0xbe712dc8	-0.2355262
245	0xbe824858	-0.2544582
246	0xbef1456d	-0.4712328
247	0xbe1ad5a5	-0.15120561
248	0xbe7aa6a4	-0.24477631
249	0xbea6befb	-0.32567582
250	0x3f460885	0.7735675
251	0x3f1cd153	0.61256903
252	0xbf35eea7	-0.7106728
253	0xbe920c25	-0.2852489
254	0x3ed34eea	0.41271144
255	0xbe3ba3f0	-0.18324256

fc3.bias f4 [3]
0	0xbe1f439d	-0.15553136
1	0xbe158630	-0.1460197
2	0xbe1eb2dd	-0.15497918

fc1.weight f4 [128, 6]
0	0xbddecd22	-0.1087897
1	0xbd657e1f	-0.05602848
2	0x3e3e0d67	0.185598
3	0x3e14ddcc	0.14537734
4	0x3e59250e	0.21205541
5	0xbc665754	-0.014058907
6	0x3d41984b	0.04726438
7	0x3e4a119f	0.19733284
8	0x3e3b16af	0.18270372
9	0x3f00cb90	0.5031061
10	0x3ad6deca	0.0016393301
11	0xbe61e8f5	-0.22061522
12	0x3e0b1664	0.1358276
13	0xbe4d4e8f	-0.20049499
14	0x3cc58a60	0.024113834
15	0x3e2a8c42	0.16655067
16	0x3db53007	0.08847051
17	0xbd637788	-0.055533916
18	0xbf0bbbb5	-0.54583293
19	0x3e88de3b	0.26732048
20	0xbc7a9d36	-0.015296271
21	0x3df950e4	0.12173632
22	0xbcf91f4f	-0.030410437
23	0xbcae9d20	-0.021315157
24	0xbf01964b	-0.50619954
25	0x3e95af36	0.29235238
26	0xbd052356	-0.032504402
27	0x3d9d556a	0.07682307
28	0xbc9240fe	-0.017853256
29	0xbb0e13d9	-0.002167931
30	0xbea985d3	-0.33109912
31	0x3d1ca0e6	0.038239382
32	0x3e99478e	0.29937404
33	0xbe4e82a5	-0.20167024
34	0xbdb347b4	-0.08753911
35	0x3dd8979d	0.10575793
36	0x3d7f2372	0.062289663
37	0x3dce9951	0.100878365
38	0x3e111867	0.14169465
39	0xbd1ee9eb	-0.0387973
40	0x3b7ec387	0.0038873868
41	0x3cbeacb4	0.02327571
42	0x3e8207a4	0.25396454
43	0x3ef5f8ee	0.4804148
44	0x3def8ec4	0.11697152
45	0xbca1080b	-0.019657155
46	0xbe03f646	-0.12886915
47	0x3cff2fde	0.031150755
48	0x3e86c180	0.26319504
49	0xbe174d7c	-0.14775652
50	0x3dd9a25a	0.10626669
51	0x3e4695eb	0.19393127
52	0xbdeb2cbd	-0.114831425
53	0xbd491984	-0.0490966
54	0xbe552438	-0.20814598
55	0x3db6f028	0.08932525
56	0xbbe7c598	-0.0070731156
57	0xbe322641	-0.17397405
58	0x3c798fd1	0.015232042
59	0x3e522fa3	0.20525984
60	0x3deb68b6	0.114945814
61	0x3e3774d4	0.1791566
62	0xbde2a767	-0.11067086
63	0xbcbaf0b0	-0.022819847
64	0xbdf612a9	-0.12015278
65	0x3e57ea79	0.21085538
66	0x3df19143	0.117952846
67	0xbea0c6a5	-0.31401554
68	0xbced633a	-0.028977979
69	0xbd6e57d8	-0.058189243
70	0x3d194a40	0.037424326
71	0x3cd75140	0.02628386
72	0x3cb7033a	0.022340406
73	0xbe725e9f	-0.23668908
74	0x3cca247e	0.024675604
75	0x3dc698da	0.09697123
76	0x3e311a10	0.17295098
77	0x3dd706a4	0.104993135
78	0x3e7b9639	0.24569024
79	0x3deaef1d	0.114713885
80	0xbd5a5f90	-0.05331379
81	0x3ebcc5b3	0.36869583
82	0x3d727b75	0.05919977
83	0xbd1a07d5	-0.037605125
84	0xbe68b1f5	-0.22724135
85	0xbec4b097	-0.38415977
86	0xbe03298f	-0.12808822
87	0x3e0601af	0.1308658
88	0xbe0182e4	-0.12647587
89	0x3e2e3f43	0.1701632
90	0x3d8f99d7	0.070117645
91	0xbec12856	-0.37726086
92	0x3e498b2d	0.19681998
93	0x3ecf8d35	0.4053742
94	0xbda967a9	-0.08271725
95	0xbdcef10a	-0.10104568
96	0xbe1c9dc2	-0.15294555
97	0x3e91c644	0.28471577
98	0x3eb950de	0.3619451
99	0xbe287c07	-0.16453563
100	0x3d4e03f9	0.050296757
101	0x3d85a6a7	0.06525927
102	0xbd2c9732	-0.04213638
103	0xbe4aaff0	-0.19793677
104	0x3e10b139	0.14130105
105	0xbe345569	-0.17610706
106	0x3e9a6995	0.30158678
107	0x3d9364ca	0.07196958
108	0xbd95a8c4	-0.0730758
109	0x3df04bb0	0.11733186
110	0xbe93c983	-0.2886468
111	0xbeaeaa5a	-0.34114343
112	0x3cc7376e	0.024318423
113	0x3d416173	0.047212075
114	0x3d510da6	0.051038407
115	0x3e046d99	0.12932433
116	0xbe946962	-0.2898665
117	0xbe392d82	-0.18083766
118	0xbbab7862	-0.0052328566
119	0x3c91b6bb	0.017787328
120	0x3ed88f41	0.42296794
121	0xbe410eb7	-0.1885327
122	0x3e25edf1	0.16204049
123	0x3cc853af	0.024453966
124	0xbe122b54	-0.14274341
125	0xbdd25285	-0.102696456
126	0xbe44ebb8	-0.19230545
127	0xbbe6177d	-0.007021843
128	0xbdb9e79c	-0.09077379
129	0xbe44023c	-0.19141477
130	0x3d8509e5	0.06496028
131	0x3e44b0b6	0.19208035
132	0xbe9efdcf	-0.31053016
133	0x3daf75ff	0.08567428
134	0xbed1f258	-0.41005206
135	0xbd14349f	-0.036182996
136	0x3c88743b	0.016656986
137	0xbe4729b0	-0.19449496
138	0x3ca1a322	0.019731108
139	0xbebe9673	-0.3722416
140	0xbd3940b7	-0.045227733
141	0xbe24acc9	-0.16081537
142	0xbe8ccdc5	-0.2750074
143	0x3e379d6a	0.17931142
144	0x3e47942b	0.19490115
145	0xbece50a5	-0.40295902
146	0x3dd7f25b	0.105442725
147	0x3e8e31a3	0.27772245
148	0x3cfc4697	0.030795379
149	0x3ce5c9f5	0.028050402
150	0x3e954d58	0.2916057
151	0xbe16982d	-0.14706488
152	0x3e4c2e1b	0.19939463
153	0xbe869a51	-0.2628961
154	0xbdb02337	-0.08600467
155	0x3e176849	0.14785875
156	0xbead8e9b	-0.33897862
157	0xbe547d8c	-0.20751017
158	0xbe1cd23a	-0.1531457
159	0x3d9c62f1	0.07636059
160	0x3df69905	0.12040905
161	0x3e0fedff	0.14055632
162	0xbd1581c5	-0.03650071
163	0xbd8c6281	-0.06854726
164	0x3d9c936c	0.07645306
165	0x3d1a4536	0.03766366
166	0xbd874e2f	-0.06606709
167	0xbe371aff	-0.17881392
168	0x3de212dc	0.110387534
169	0x3e531b01	0.2061577
170	0xbd926fd3	-0.07150235
171	0xbd540252	-0.051760025
172	0x3e8bca0d	0.2730259
173	0xbe0a7c10	-0.13523889
174	0x3e0a81f3	0.13526134
175	0x3eaf2b4f	0.3421273
176	0xbe063aa0	-0.13108301
177	0x3d99bb94	0.07506481
178	0xbd41fc3b	-0.047359686
179	0x3d0d8cac	0.034557983
180	0x3cf3bb42	0.029752377
181	0x3e624a2c	0.22098607
182	0x3e2196fa	0.15780249
183	0x3da7d45c	0.08194801
184	0xbe8d6ca9	-0.27621964
185	0xbd0b874d	-0.03406458
186	0x3d3c24b6	0.045933448
187	0x3e7ac94d	0.24490853
188	0xbea7a8d0	-0.3274598
189	0xbe458a57	-0.19291054
190	0xbb52b12a	-0.0032149055
191	0x3bd6a1cb	0.006550049
192	0x3ea8c5a6	0.32963294
193	0xbeaa9565	-0.33317104
194	0x3e7e6c84	0.24846083
195	0x3da75fa5	0.081725396
196	0x3d8ff89f	0.070298426
197	0x3d40a695	0.047033865
198	0xbe3b5232	-0.18293074
199	0x3e66c91c	0.22537655
200	0x3d1afb63	0.037837397
201	0xbedd7f11	-0.43261006
202	0x3cb5c231	0.022187324
203	0x3d27f98a	0.041009463
204	0x3ea8769c	0.32902992
205	0x3e9c011c	0.30469596
206	0xbd6a42b4	-0.05719252
207	0xbd4645d3	-0.048406433
208	0x3d1596bf	0.036520716
209	0xbd51fa6c	-0.05126421
210	0x3ea501a3	0.3222781
211	0x3ebe78e8	0.3720162
212	0x3eb2db61	0.34932998
213	0xbcbdbc7d	-0.023161167
214	0xbe81c06b	-0.25342116
215	0xbdfbdbf7	-0.12297814
216	0xbe178a1f	-0.14798783
217	0xbe027da8	-0.12743247
218	0xbee3de5b	-0.4450558
219	0xbe80e1af	-0.25172183
220	0x3d172a91	0.03690583
221	0xbbe7c062	-0.0070724944
222	0xbdc7b9f5	-0.09752265
223	0x3ec6ec11	0.3885198
224	0xbdcd1fd4	-0.10015836
225	0x3e1c1c47	0.15245162
226	0x3d41b2a0	0.04728949
227	0x3e6b57a9	0.22982658
228	0xbf43f62f	-0.7654752
229	0xbe281596	-0.16414484
230	0xbc94af49	-0.018149989
231	0x3d86cfbf	0.06582593
232	0x3d437098	0.0477148
233	0x3ca4fe77	0.02014087
234	0xbe9291e5	-0.28626934
235	0x3eb1a01b	0.34692463
236	0xbe80daa2	-0.25166804
237	0xbe44cad5	-0.19218
238	0x3b180035	0.0023193483
239	0xbc6ff26c	-0.0146452
240	0x3eb38c3c	0.35067928
241	0xbc0f881d	-0.008760479
242	0x3e6f73d0	0.23384023
243	0x3e0720fb	0.13196175
244	0xbcbe738b	-0.023248455
245	0xbb4a79b4	-0.0030895295
246	0x3ec1027a	0.37697202
247	0xbe2bdd15	-0.16783555
248	0xbe0e5bdc	-0.13902229
249	0x3dcfeb90	0.10152352
250	0x3d83733f	0.06418466
251	0xbb6c7db7	-0.0036085674
252	0x3eb946a5	0.3618671
253	0x3e99a313	0.30007228
254	0x3dab2aa1	0.0835774
255	0x3c5af659	0.013364398

fc1.bias f4 [128]
0	0xbe81a6ab	-0.2532247
1	0x3e9369b6	0.2879159
2	0x3e8cfb04	0.2753526
3	0xbd20d3b2	-0.03926439
4	0x3e6a8513	0.22902326
5	0x3df89d7d	0.121394135
6	0x3e9f81c0	0.3115368
7	0x3e774f8d	0.2415144
8	0x3e59a04b	0.21252553
9	0xbe832954	-0.25617468
10	0xbde95a2b	-0.11394151
11	0x3eaebf36	0.34130257
12	0x3eb2ad8f	0.3489804
13	0x3e6ca2a1	0.23108913
14	0x3e0a843d	0.13527007
15	0x3df37f3b	0.11889502
16	0x3eb2c5ca	0.34916526
17	0xbe9dfa1b	-0.30854878
18	0x3e7bd7b6	0.24594006
19	0x3eae39d4	0.34028494
20	0x3e96336b	0.29336104
21	0xbe4e66a9	-0.20156349
22	0xbe6c8c3a	-0.23100367
23	0xbe62be97	-0.22143017
24	0x3e9492c5	0.29018226
25	0x3e82e7dc	0.2556752
26	0x3e7ceb30	0.24699092
27	0xbe232ee5	-0.15935858
28	0x3e10e618	0.14150274
29	0x3e789e76	0.24279198
30	0xbe383b2a	-0.1799132
31	0x3e721e37	0.23644339
32	0x3e0f398a	0.13986793
33	0x3e8cde38	0.2751329
34	0x3e9ef87c	0.31048954
35	0xbe0c5dc5	-0.13707645
36	0x3e8657b0	0.26238775
37	0xbdfb542b	-0.12271913
38	0x3ce68fb5	0.028144697
39	0x3e9f3a69	0.3109925
40	0x3e7c634d	0.24647255
41	0x3ea705aa	0.3262151
42	0x3e9b87a3	0.3037692
43	0x3eaa6786	0.33282107
44	0x3e677c9d	0.2260613
45	0x3e210b08	0.15726864
46	0xbd7e4ce0	-0.062085032
47	0x3ea7e911	0.32795003
48	0xbe89a4b9	-0.26883486
49	0x3eaed58b	0.34147295
50	0x3e845e79	0.25853327
51	0xbdccfbb9	-0.1000895
52	0xbe344f35	-0.1760834
53	0x3ea9bc62	0.33151537
54	0x3e9f687a	0.31134397
55	0x3b838643	0.004013808
56	0x3ecbf641	0.39836314
57	0xbe46b76a	-0.19405904
58	0x3e48832d	0.1958129
59	0x3e72c1f5	0.23706801
60	0x3e8362b3	0.2566124
61	0xbe8b8cd1	-0.27255872
62	0x3e8d8eb9	0.2764795
63	0x3e44667b	0.19179718
64	0x3e00cbfa	0.12577811
65	0x3e962db3	0.2933174
66	0x3e6366fd	0.22207256
67	0xbdd7913e	-0.105257496
68	0x3dd80273	0.10547342
69	0x3e8836da	0.26604348
70	0x3e2c808e	0.16845915
71	0x3e548395	0.2075332
72	0x3e772142	0.2413378
73	0xbea3bda9	-0.31980637
74	0xbaaecb0b	-0.0013335658
75	0xbdad8fa1	-0.08474661
76	0x3e805334	0.2506348
77	0x3ed29fcc	0.4113754
78	0x3e82037e	0.2539329
79	0x3e7bb146	0.24579343
80	0xbd9b234e	-0.07575093
81	0x3e8835a1	0.26603416
82	0x3e8277fa	0.2548216
83	0x3e7c0626	0.2461172
84	0x3e61006a	0.21972814
85	0x3e8228b1	0.2542167
86	0x3e5d152a	0.21590105
87	0x3e9bf5c5	0.30460945
88	0xbe4e8b55	-0.20170338
89	0x3e6c4d20	0.23076296
90	0x3e47c58c	0.19508952
91	0x3e86b6e9	0.26311424
92	0x3c8b9f4c	0.017043732
93	0x3ea31669	0.31853035
94	0x3cb6b2a8	0.022301987
95	0xbe8d1bfb	-0.2756041
96	0xbe696ba5	-0.2279497
97	0x3e74b916	0.2389873
98	0x3ea854d4	0.3287722
99	0x3e1bfb91	0.15232684
100	0xbe0a378f	-0.13497756
101	0x3e373f9f	0.17895363
102	0x3d2282b8	0.039675444
103	0x3e5cc216	0.21558413
104	0x3ebfd0ee	0.37464088
105	0x3e599cf1	0.21251275
106	0xbe8348e4	-0.2564155
107	0x3e6bdebc	0.23034185
108	0x3e65a37b	0.22425644
109	0x3e50548b	0.2034475
110	0xbe51527e	-0.20441625
111	0xbdc421e8	-0.095767796
112	0x3de73aff	0.112905495
113	0xbe76b436	-0.24092183
114	0x3e50e5b0	0.20400119
115	0x3e3c72d7	0.18403183
116	0x3e5fac2a	0.21843019
117	0xbe9b2fc0	-0.30309868
118	0xbd1b5993	-0.03792722
119	0x3e29ae91	0.16570498
120	0x3ea7d536	0.32779855
121	0xbe9dd941	-0.30829814
122	0x3ea75703	0.32683572
123	0xbe1d43a1	-0.1535783
124	0xbe83aee0	-0.25719357
125	0x3eb86edf	0.36022088
126	0xbeb99d82	-0.3625298
127	0xbe805ffd	-0.25073233

fc2.weight f4 [128, 128]
0	0x3cc9b4ff	0.024622438
1	0x3e5154e4	0.2044254
2	0x3d1c7aa4	0.038202897
3	0x3db09041	0.08621264
4	0x3de11445	0.10990194
5	0xbd546729	-0.051856194
6	0x3d3e6371	0.046481553
7	0x3d49a4c9	0.049229417
8	0x3ca10285	0.019654522
9	0x3e0a488d	0.13504238
10	0x3d5782a8	0.052614838
11	0xbed2451b	-0.41068348
12	0xbd1d4fe6	-0.038406275
13	0xbd58a83b	-0.052894812
14	0x3e74b211	0.23896052
15	0xbd897328	-0.067114174
16	0xbea43b6a	-0.3207658
17	0xbe61da0e	-0.22055838
18	0xbb475986	-0.003041835
19	0x3e2b68f3	0.16739254
20	0x3e515e56	0.20446143
21	0x3e04df46	0.12975797
22	0x3e7c88c3	0.24661545
23	0x3df930d8	0.12167519
24	0xbe14bc30	-0.14524913
25	0x3d8703d0	0.06592524
26	0xbe88af8a	-0.26696426
27	0x3e129040	0.1431284
28	0x3d769d79	0.06020877
29	0xbd4ee2cc	-0.05050926
30	0x3eafbce1	0.3432379
31	0x3e053ec4	0.13012224
32	0x3ae5ac5b	0.0017522679
33	0xbe1306a5	-0.14358003
34	0x3dd9b8e6	0.1063097
35	0x3dcbfa26	0.099598214
36	0xbe854f6a	-0.2603715
37	0x3cade900	0.021229267
38	0xbd42e4be	-0.047581427
39	0xbdd22f3f	-0.10262918
40	0xbce4ca2f	-0.02792844
41	0xbe72cbf2	-0.23710611
42	0xbddfbc2a	-0.10924561
43	0xbdc6c427	-0.09705382
44	0x3e0ec494	0.13942176
45	0x3cbbb25f	0.022912202
46	0xbdc19d3c	-0.09453818
47	0xbdc9b60d	-0.098491766
48	0x3e3119a4	0.17294937
49	0xbe874ac1	-0.2642422
50	0xbea52c15	-0.32260194
51	0x3e0e64bb	0.13905613
52	0x3e20fc68	0.15721285
53	0xbd09af09	-0.033614192
54	0xbdc54b36	-0.09633486
55	0x3e71b9ba	0.23606005
56	0xbdfdd366	-0.12393837
57	0x3c25b0f2	0.010112988
58	0xbe84e75d	-0.25957766
59	0x3d39e415	0.04538353
60	0x3cd2f7b4	0.02575288
61	0x3d953469	0.07285387
62	0xbdf2d262	-0.118565336
63	0x3e139a40	0.1441431
64	0xbec7d006	-0.39025897
65	0x3d450e54	0.048109367
66	0xbdbf91b0	-0.093539596
67	0xbda7bbcf	-0.081901185
68	0x3dded600	0.10880661
69	0x3c310dd0	0.010806516
70	0x3d108307	0.035281207
71	0xbdf4de4f	-0.119564645
72	0xbec3295b	-0.3811749
73	0x3d9bf104	0.076143295
74	0xbee6b2e5	-0.4505836
75	0x3e3c14f4	0.18367368
76	0xbe9192fc	-0.28432453
77	0xbae23e62	-0.0017261023
78	0xbdeacaa5	-0.114644326
79	0xbd85a192	-0.06524958
80	0x3e8f5fda	0.28002816
81	0x3c04c49e	0.008103518
82	0xbde1694e	-0.110064134
83	0xbdaa037a	-0.08301444
84	0xbd1fc115	-0.039002497
85	0xbde85df1	-0.11346043
86	0x3e8204c0	0.2539425
87	0x3d3bb7c7	0.04582956
88	0x3e0bc855	0.1365064
89	0xbcf8f76e	-0.030391421
90	0xbd89cf65	-0.067290105
91	0xbd786bd9	-0.060649727
92	0x3e1dd7f8	0.15414417
93	0xbd8fb11e	-0.07016204
94	0x3ecb887d	0.3975257
95	0x3edd4e91	0.43224004
96	0xbd411249	-0.04713658
97	0x3e9cb54c	0.3060707
98	0x3ca94c52	0.020666275
99	0xbc8da3e8	-0.01729007
100	0x3ceddabd	0.029034967
101	0xbc02d666	-0.007985687
102	0xbc298283	-0.010346058
103	0x3d96c8b3	0.07362499
104	0xbda67ae8	-0.08128911
105	0xbd731ffe	-0.059356682
106	0x3cbb7621	0.022883477
107	0xbd3e248b	-0.04642157
108	0x3e95318f	0.29139373
109	0x3e255846	0.16146955
110	0x3e87aa14	0.26496947
111	0xbe671814	-0.22567779
112	0x3de4bbdd	0.111686446
113	0x3cd3d9e8	0.025860742
114	0xbdff1c1d	-0.12456534
115	0x3d1620d7	0.036652412
116	0xbde83c1b	-0.11339589
117	0x3e674c58	0.22587717
118	0x3ea08d2a	0.313577
119	0xbe41a985	-0.18912323
120	0x3d1f4f2a	0.038893856
121	0x3e63c4d4	0.22243053
122	0xbe747970	-0.2387445
123	0xbcba7c2e	-0.022764292
124	0x3d868a73	0.06569376
125	0x3c29a0a0	0.010353237
126	0x3dbdfcea	0.09276755
127	0x3d3e438b	0.046451133
128	0xbd62c490	-0.055363238
129	0x3d9138b3	0.07090893
130	0x3b4c7168	0.0031195525
131	0x3edd7c99	0.43259123
132	0x3ea63b1e	0.32466978
133	0x3c83df57	0.016097708
134	0x3dc93fc2	0.09826614
135	0xbace4b24	-0.0015738946
136	0x3db263fa	0.08710475
137	0x3dc2e3fa	0.09516139
138	0xbd9141ec	-0.07092652
139	0x3e7cffc8	0.24706948
140	0x3e06d57a	0.13167372
141	0x3dd38d64	0.103297025
142	0x3d8527d1	0.06501735
143	0x3d01e6f3	0.03171439
144	0x3e205ec0	0.15661144
145	0xbe307124	-0.1723066
146	0x3e889733	0.26677856
147	0x3ec4159b	0.38297734
148	0xbc7687f9	-0.015047067
149	0xbdb4d5bd	-0.0882983
150	0xbddbbb67	-0.107291035
151	0x3de93ec3	0.11388924
152	0x3e9d75e3	0.30754003
153	0x3e1c558b	0.15267007
154	0x3e10a591	0.14125659
155	0xbd513865	-0.051079173
156	0x3d952065	0.072815694
157	0x3d47624d	0.04867773
158	0xbdc84310	-0.09778416
159	0x3dcfe737	0.101515226
160	0x3cd1dba7	0.025617434
161	0x3dba410e	0.090944394
162	0x3e3affb8	0.18261611
163	0x3e3c45f6	0.18386063
164	0x3e175ff6	0.147827
165	0xbe316fda	-0.17327824
166	0x3e331e7f	0.17492102
167	0x3e8252c5	0.25453773
168	0x3e8c5978	0.2741201
169	0x3e926b20	0.28597355
170	0x3da06de1	0.07833458
171	0x3ecc2401	0.3987122
172	0x3e4e5538	0.20149696
173	0x3d5b3e81	0.053526405
174	0x3d0cc293	0.034365248
175	0x3d8af6c8	0.06785351
176	0xbc96a835	-0.018390754
177	0x3e83e4d6	0.25760525
178	0x3e0970fe	0.1342201
179	0x3db4527a	0.08804794
180	0x3da97f08	0.082761824
181	0x3e567b47	0.20945464
182	0x3e6cc5d1	0.23122336
183	0xbe45bfda	-0.19311467
184	0x3eb4e27b	0.3532904
185	0xbda5d94c	-0.08098087
186	0x3dfa0a36	0.12208979
187	0x3e999475	0.29996076
188	0x3bd60de7	0.006532419
189	0xbd088c11	-0.033336703
190	0x3e2d2537	0.16908728
191	0x3dc148b1	0.09437693
192	0x3e4015fe	0.1875839
193	0x3e2591b0	0.16168857
194	0x3e2fd167	0.17169724
195	0xbe2c5f57	-0.16833244
196	0x3d6499e4	0.055810824
197	0x3df8c6bf	0.12147283
198	0x3db6217a	0.08893104
199	0x3db13af1	0.0865382
200	0x3e70f871	0.23532273
201	0xbe376284	-0.17908674
202	0x3e24c8af	0.1609218
203	0x3dd8884e	0.10572873
204	0x3e47dc70	0.19517684
205	0x3d51cc4b	0.05122022
206	0x3e8cc23c	0.2749194
207	0x3e56102b	0.20904605
208	0x3d39af48	0.045333177
209	0x3d3e93e4	0.04652776
210	0x3e21a22d	0.15784521
211	0x3c31f5fc	0.01086187
212	0x3e22bfab	0.15893428
213	0x3e84db6c	0.25948656
214	0x3e1ce7ec	0.15322846
215	0x3e1505c6	0.14552984
216	0xbe00ae23	-0.12566428
217	0x3dbcc554	0.09217325
218	0x3d47f15f	0.048814174
219	0xbdc683d1	-0.09693111
220	0xbcd32213	-0.025773084
221	0x3dd00772	0.1015767
222	0xbc8af342	-0.016961697
223	0xbe69c113	-0.22827558
224	0xbe0e1010	-0.13873315
225	0x3e12aabb	0.14322941
226	0x3c4deccc	0.012568664
227	0x3e015975	0.12631781
228	0x3bea4fdf	0.0071506347
229	0xbd94274b	-0.07234057
230	0xbe0dd408	-0.13850415
231	0x3d5798f6	0.05263611
232	0x3e4d0b02	0.2002373
233	0x3df0d3de	0.117591605
234	0xbcea470b	-0.028598329
235	0x3d22c17b	0.0397353
236	0x3e9697cf	0.29412696
237	0x3d001946	0.031274103
238	0xbdb86bfe	-0.09004973
239	0xbe2cab61	-0.16862251
240	0x3d985ae6	0.074392125
241	0xbe0e8400	-0.13917542
242	0x3d2501bb	0.040284853
243	0xbd016929	-0.03159443
244	0x3e408899	0.18802108
245	0x3dab6e5c	0.08370659
246	0x3bd87f74	0.0066069905
247	0x3d0db87c	0.034599766
248	0x3e6e6da9	0.2328402
249	0xbe3cf214	-0.1845172
250	0x3ddb6007	0.10711675
251	0xbcac621f	-0.021042882
252	0x3cd62d01	0.026144506
253	0x3df3fa75	0.11913005
254	0xbe4312eb	-0.19050185
255	0xbb5dae5d	-0.0033825852

fc2.bias f4 [128]
0	0xbd432890	-0.047646105
1	0x3e63545c	0.2220015
2	0xbc95fc3d	-0.018308753
3	0x3e3c5208	0.18390667
4	0xbdb59802	-0.08866884
5	0x3e403933	0.1877182
6	0x3e4cec27	0.2001196
7	0x3e80c6f7	0.25151798
8	0xbb21514f	-0.0024615114
9	0x3dc22d40	0.09481287
10	0x3e33cdd7	0.1755899
11	0xbda0404b	-0.07824763
12	0x3decf65e	0.11570428
13	0x3e83752e	0.25675339
14	0xbda8cd19	-0.08242244
15	0x3e389c2a	0.18028322
16	0x3e65c9a4	0.22440201
17	0x3e8b63fe	0.27224725
18	0x3e4dc98e	0.20096418
19	0x3e4af2d5	0.19819196
20	0xbdd55a20	-0.104175806
21	0x3e333095	0.17499001
22	0x3e7d474f	0.24734233
23	0x3e6777fa	0.22604361
24	0x3e3ad464	0.18245083
25	0xbc4c12a1	-0.012455613
26	0x3e9368f6	0.28791016
27	0x3e402595	0.18764336
28	0xbd8ab29f	-0.067723505
29	0xbcaf743c	-0.02141773
30	0x3e2d15b0	0.16902804
31	0x3e93f63f	0.28898808
32	0x3e9059b5	0.2819344
33	0xbd9a334c	-0.07529315
34	0x3db96d61	0.090540655
35	0x3e7c98e5	0.246677
36	0x3e959be6	0.29220504
37	0x3e57e047	0.21081649
38	0xbe1d3ed8	-0.15356004
39	0xbd0d1473	-0.03444333
40	0xbd275760	-0.04085481
41	0xbd8e1d85	-0.06939224
42	0x3e81e6d9	0.25371435
43	0x3e5deb6e	0.2167184
44	0x3d95c43b	0.073128186
45	0x3e854485	0.2602884
46	0x3e8904fc	0.26761615
47	0x3e80a224	0.25123703
48	0x3d2376e1	0.039908294
49	0x3e74da89	0.2391149
50	0xbd73658f	-0.059423026
51	0x3e96f385	0.29482666
52	0x3ddc73cc	0.10764274
53	0x3e5fc071	0.21850754
54	0x3e57fe63	0.21093135
55	0xbcadc072	-0.02120993
56	0xbd9e48d2	-0.07728733
57	0xbdb8d2e1	-0.09024597
58	0x3e95cb3f	0.29256627
59	0x3e955d73	0.2917286
60	0xbdb2b4ee	-0.08725916
61	0xbdca00d5	-0.0986344
62	0xbcffcf9c	-0.031226926
63	0xbd8323e6	-0.064033315
64	0x3e5b34e2	0.21406892
65	0xbd71012e	-0.058839016
66	0x3e5a30fa	0.21307746
67	0xbe10fc83	-0.14158826
68	0x3e760afb	0.24027626
69	0x3e11c567	0.1423546
70	0xbd2ea865	-0.042641062
71	0x3dfbd38f	0.12296211
72	0xbdad39d1	-0.08458293
73	0xbd704093	-0.058655333
74	0x3e188f06	0.14898309
75	0xbe0c5fa8	-0.13708365
76	0xbd887f41	-0.06664897
77	0xbdac8025	-0.08422879
78	0xbc82c435	-0.0159627
79	0x3e11d06d	0.14239664
80	0xbd5516f7	-0.052023854
81	0xbd6223e6	-0.055210017
82	0xbd9496fc	-0.072553605
83	0x3e6f6b55	0.23380788
84	0xbd9593ca	-0.07303579
85	0xbc3ba2a3	-0.01145235
86	0x3e788ad9	0.24271716
87	0x3eae1f8a	0.34008437
88	0xbddde038	-0.10833782
89	0x3e7ea27b	0.24866669
90	0x3e27bb13	0.16379957
91	0x3e59f839	0.21286096
92	0x3e95c3a2	0.29250818
93	0x3e246955	0.16055806
94	0x3e5fa591	0.21840502
95	0x3e5adb2c	0.2137267
96	0x3e3603c0	0.17774868
97	0x3e2ee8d9	0.17081012
98	0xbdd89831	-0.10575903
99	0xbbf0433d	-0.007332234
100	0x3e0c2a21	0.13687946
101	0xbdb042b4	-0.086064726
102	0xbd2b8b3d	-0.041880835
103	0x3e25e611	0.16201045
104	0x3de6309f	0.112397425
105	0x3e71cd40	0.23613453
106	0x3e5bc4b5	0.21461757
107	0x3e92041a	0.28518754
108	0x3e862a11	0.2620397
109	0xbdef6bd1	-0.11690486
110	0xbdb75b05	-0.089529075
111	0xbda7ad2d	-0.081873275
112	0x3e3d40e5	0.18481787
113	0xbd993373	-0.07480516
114	0xbbbd9928	-0.00578608
115	0x3cb41a64	0.02198524
116	0xbd53de6a	-0.051725782
117	0x3e67aa66	0.22623596
118	0x3dd27ae8	0.10277349
119	0x3bf3dc2c	0.007442018
120	0x3e5c434a	0.21510044
121	0x3e40610d	0.18787022
122	0xbdc599d3	-0.0964848
123	0xbd98fc63	-0.07470014
124	0xbd4fdd6d	-0.050748277
125	0x3e617d2f	0.2202041
126	0xbd2f281b	-0.042762857
127	0x3e60dfc1	0.21960355
