Project/output/cartpole/dqn/best_model.pth (torch, 287778 bytes, 24 tensors)

fc1.weight f4 [128, 4]
00000000: 78a1 843d 7863 e63c 1550 fcbc d93a 893d
00000010: 37c7 18bd 4c13 313e 36c0 d03e 408d 323d
00000020: 0057 533e 9f3f 243e 7e63 5cbf d643 3fbd
00000030: 8bc4 113e ad48 50bc 334e fc3e 4c66 803e
00000040: 2545 d9be 8a9c 173b 96e4 96bd 71db a53d
00000050: 070e 033e f8ca bd3d 4da9 5a3e 20ff 4c3e
00000060: ed99 d5be 14da 38be 640c 85bf ec8b 4abe
00000070: 78a0 5a3d db52 0cbe 281d 01bf f8e9 70be
00000080: ba67 cd3e a7b7 7e3e 0b07 bdbe a227 103c
00000090: 9a5b 6dbe 3de7 303d c6ca 683e db97 c83c
000000a0: f3ea eabd 5200 df3d 4124 74be c39c a73d
000000b0: aef8 e03d f60f 453d 6c8d 8ebf 346b 31be
000000c0: ad4a f43e 5660 423e e6bb cabe e091 1abd
000000d0: 8ed3 cb3d b585 15be 9f51 a4be 9b2b 193d
000000e0: 7e01 28bf 7dcd b0be 5b7c 4cbf ba33 37be
000000f0: 1ba7 70be 500a e13c 26f6 333e 0ac4 babd
00000100: eb99 48be 6a3c 253e 9790 3b3f ce37 8bbd
00000110: f746 4d3e 878c bf3d 978f 76bf 3485 43be
00000120: 6cab 583e 2e25 b6bd 5526 8a3e fb65 613d
00000130: d540 10bf 514d aa3d 132a 2b3f 3c28 5e3c
00000140: cc20 a8bb 12e1 e8bd a813 19bf efee 56be
00000150: 77fb 2cbf fb45 b3be 2e49 c6be 0b67 55be
00000160: 56d9 9e3e f824 5d3e 640f f9be fdb0 32be
00000170: c154 1abf 71b5 0f3d a72d 313f d379 42bd
00000180: 8507 55be e74d 493e 4dcd 983f 82d5 833e
00000190: 5bb3 87be 80e8 8abe 96b9 81bf d020 cbbe
000001a0: 9ba5 3a3e bda9 edbc 2400 f2be 4662 1fbe
000001b0: e35b aebc 475b 963d 5c6b 1b3f 0e03 173e
000001c0: af65 c53d 9273 97bd 9914 563f 876d da3e
000001d0: 0e10 35bf 892c c7be db2d 023f 14bb 6f3e
000001e0: 275e 7f3e 67ce 8e3e ceca c5be 1786 453d
000001f0: cd2e de3d b222 3b3e 891e 04bf aa5d 44bc
00000200: 9c7f 13bd 0e91 2c3d 5019 9d3f b8fd 813e
00000210: 9fff 69bd 01f5 0f3e 81d5 123f 5e5b 4f3e
00000220: faf0 7fbd aed2 6e3e a20e ddbe 2bf3 05bf
00000230: a505 c3bd b317 233e 4079 1b3f 90f6 833e
00000240: 03e7 bf3d 20c7 833d f0f9 60bb 51cb ac3c
00000250: 35be 9ebd 5f5d 563d 70c7 c23e 9f4c 0d3e
00000260: 4b5d f6bd a825 073d 0a69 e93e 5f92 febd
00000270: f8e9 e9bd 3035 94bd a8e7 813e 056d 323d
00000280: 99da e5be 6caf 27be 8239 e43e 22f6 a23e
00000290: 163c 833e 442a 78be 90df 5fbf 5e1b 52be
000002a0: 7071 1fbd 2a57 c5bd 8ea7 ccbe 4ca9 5ebd
000002b0: f011 68bc b7de 3e3e df4e e43e b24c f63c
000002c0: b628 e3bd 138f a83c e04b 0f3f b659 06be
000002d0: 6f64 143e 8de5 6bbd d226 86be 69aa f1bd
000002e0: 5152 61bf 4af7 b3bd 3e49 e83e 38ca 9e3d
000002f0: 958d 6fbf ba70 84be bda6 7e3e 0011 1dbd
00000300: 1ca5 32bf af59 18bf 14f7 433e d697 7b3e
00000310: 85b1 beba 867a 2c3d ac4f 253e dab3 e4bd
00000320: 3bbb 0d3e 3264 823e fc32 1a3f 08dd 9a3e
00000330: a65f 17bf 0636 bdbe 98c8 81bf e165 21be
00000340: bf90 043e e1b8 76bc 39a4 98bf 49a1 92be
00000350: 114f ad3e 4c8d 693e 0e9a 00bf af81 a73d
00000360: 72f8 84be d8af 94be a7d5 8ebf 487c 95be
00000370: 15a4 cabe 4e72 62be 17a0 6abf 1eb2 46be
00000380: 5216 683e 6291 73be 2313 45bf e4ee 9dbb
00000390: 7bd7 4a3d 5dce ccb9 970f 843f 7206 973e
000003a0: 926d 6f3e 88df 87be 127d 6dbf b497 d0bd
000003b0: af29 fd3d 9065 293e 95c9 d9be b8fc d2be
000003c0: 621b d4be 05d6 51be 92a9 90bf b946 83be
000003d0: e528 70bd 5d59 813e 2f99 323f 3792 8e3e
000003e0: 1412 0a3d e1eb f83c 107b c63e d0cb eabd
000003f0: 9ab8 55bf b32f 33bf 333b 8dbe 13ba d1bd
0.0647611 0.028123602 -0.030799905 0.067006774 -0.03729936 0.17292517 0.40771645 0.043591738
0.20638657 0.16039895 -0.86089313 -0.046695553 0.14235131 -0.01271264 0.4927841 0.25078046
-0.42435566 0.0023134076 -0.07367818 0.08098496 0.1279832 0.09267229 0.21353646 0.20019197
-0.41719 -0.1805194 -1.0394406 -0.19779938 0.05337569 -0.13703482 -0.50435114 -0.23526752
0.401182 0.24874745 -0.36919436 0.008798512 -0.23179474 0.043189276 0.22733602 0.024486473
-0.11470594 0.10888733 -0.23841955 0.08184197 0.10984932 0.048110925 -1.1136909 -0.17326051
0.47713223 0.18982062 -0.3959648 -0.037736773 0.0995246 -0.14601786 -0.32093522 0.0373951
-0.65627277 -0.34531775 -0.7987725 -0.17890826 -0.23501246 0.027470738 0.17574367 -0.09119423
-0.19589965 0.16136327 0.732675 -0.06797753 0.20046602 0.09352975 -0.9631285 -0.19093782
0.21159142 -0.0889381 0.2698237 0.055028897 -0.56348926 0.08315528 0.66861075 0.013559397
-0.005130863 -0.11371054 -0.5979562 -0.20989583 -0.67571205 -0.35014328 -0.38727707 -0.20840089
0.3102519 0.21596134 -0.48644555 -0.17450328 -0.60285574 0.035085145 0.69210285 -0.047479462
-0.2080365 0.19658624 1.1937653 0.2574883 -0.26504025 -0.27130508 -1.0134761 -0.3967347
0.18227236 -0.029011602 -0.47265732 -0.15564832 -0.02128405 0.073416285 0.6071069 0.14747259
0.09638535 -0.0739509 0.8362518 0.42661688 -0.7072762 -0.38901165 0.5085122 0.23411208
0.2493826 0.27891847 -0.3863129 0.04822358 0.1084877 0.18274954 -0.5160909 -0.011985222
-0.03601037 0.042130522 1.227335 0.25388885 -0.057128545 0.14058305 0.5735703 0.20249698
-0.062485673 0.23322555 -0.43175226 -0.5232417 -0.09522561 0.1592701 0.6073189 0.2577405
0.09370234 0.064344645 -0.0034328662 0.021093043 -0.07751123 0.05233514 0.38042784 0.1379876
-0.12029513 0.032994896 0.4558795 -0.12430262 -0.11421579 -0.07236707 0.25372052 0.043561
-0.4489334 -0.16375512 0.44575125 0.3182841 0.2563178 -0.24234873 -0.87450504 -0.20518252
-0.03892654 -0.09635766 -0.39971584 -0.054360673 -0.014164433 0.18639646 0.44591424 0.030065868
-0.11091749 0.020576036 0.5597515 -0.1312016 0.14491437 -0.057591964 -0.26201493 -0.11800081
-0.8801623 -0.08787401 0.4536838 0.07753414 -0.9357541 -0.25867254 0.24868293 -0.03834629
-0.69783187 -0.59511846 0.19137222 0.2456964 -0.0014548755 0.042109035 0.16143674 -0.111671165
0.13840954 0.25467068 0.60234046 0.30246758 -0.5913032 -0.3695528 -1.0139341 -0.1576152
0.12945841 -0.015058727 -1.1925117 -0.28638676 0.33849385 0.22807807 -0.5023507 0.08179032
-0.259708 -0.29040408 -1.1158952 -0.29196382 -0.3957831 -0.22113916 -0.9165053 -0.19403884
0.22664765 -0.23785928 -0.76982325 -0.0048197377 0.049521904 -0.00039063665 1.0317258 0.29497105
0.23381642 -0.26537728 -0.9276897 -0.10185185 0.12361466 0.1654265 -0.42536607 -0.41208434
-0.4142714 -0.20491798 -1.1301749 -0.25639895 -0.05863275 0.2526349 0.6976499 0.27845928
0.033708647 0.030385913 0.38765764 -0.114646554 -0.83484805 -0.6999466 -0.27584228 -0.10240569

fc1.bias f4 [128]
00000000: 089f 9a3e 1e6b 1e3e 6c9b 86be 9127 50be
00000010: 0ffc 4b3e 7108 923e 6fc3 05be 7ed0 c13e
00000020: a5c3 30be 4a52 a13e f6a9 a23e 51a9 5dbe
00000030: 08e7 a6bd 1855 813e d5ea 0b3d 2a8c 013e
00000040: f705 8f3d af2f 9fbe 0685 903e b12f 033e
00000050: a4de c23e 37f2 1cb9 e900 75be ead9 003e
00000060: e6ef 92be 3115 5e3d bfb8 be3e 925a 9b3e
00000070: ce1b a6ba 2b1f 4d3e b0ad 46be 0056 ba3e
00000080: 4f6c b3be e5de a03e 619d 51bd d650 2b3e
00000090: 403b a63e eb59 903e 7c73 593e 75b8 933e
000000a0: e8a3 54be e04a 4a3e 7bbf aa3e fd8c 3c3e
000000b0: dce7 4e3e 8617 a83e 45b0 86be ec3a 5abe
000000c0: 5483 c43e f00d 8a3e fa9b 46be 8eff 443d
000000d0: 222e 66be 1010 ddbd 7f32 f3bd 30b8 dc3d
000000e0: 5813 593e 0318 313e 7aa3 1a3e 5d0d 1a3e
000000f0: 1b46 d8bd 4021 ad3e 2643 573e 17a8 043e
00000100: 8dae 8c3e d12c 10be 6e1a 973e 051b a73e
00000110: cdcc a93e 60c0 393e af3c 9a3e 3445 a6be
00000120: 6916 a33e 9590 a03e cae4 a03e 3042 303c
00000130: 5a40 3d3e d763 9b3e 452f b7be 0e43 a53e
00000140: 36e5 c43e d0cd 40be 8aaa 933e 455c 9b3e
00000150: 0b90 b4be 3f02 e33d 3794 cdbe 8ca2 3f3e
00000160: 70b4 b2bd 4c8f 9d3e 2dc4 e5bd 5d91 47bc
00000170: 5c6f 2b3e 1e24 d9bd bc98 8b3e 1ed5 783e
00000180: aadd d3be 22d0 b13e 3adc aa3e 726c 95be
00000190: 9064 9ebe ab90 923e 5765 b43d 2a49 21be
000001a0: 6dd7 023e 2ea8 8d3e babe 583e b1af f3bd
000001b0: d59b a53e 9927 b83e 580a 9b3e 1845 383e
000001c0: b7d1 b7be 949f 3b3e c61b d53e 81c7 1ebe
000001d0: 3ffb 9d3e d891 23be 7b8a 763e 6077 9d3e
000001e0: 387f f0be 2c56 223d ccbe c9be c175 b6bd
000001f0: 7ea2 b93e 9dbf c03e 06cc 63be 9c2c 603d
0.30199456 0.1547055 -0.26290452 -0.20327593 0.19920371 0.28522065 -0.13062833 0.3785438
-0.17262132 0.31508094 0.31770295 -0.2164662 -0.081495345 0.25260234 0.0341595 0.12651125
0.069835596 -0.31091067 0.2822649 0.12811162 0.38060486 -0.00014967551 -0.23926128 0.12583128
-0.28698653 0.05421943 0.37250325 0.30342537 -0.0012673081 0.20031421 -0.19402194 0.36393738
-0.3504357 0.31420055 -0.05117548 0.16730055 0.3246708 0.28193602 0.2123546 0.28851667
-0.2076565 0.19755125 0.33349213 0.18413158 0.20205635 0.32830447 -0.26306358 -0.2131154
0.38381445 0.26963758 -0.19395438 0.04809528 -0.22478536 -0.10794079 -0.11874866 0.107773185
0.21198785 0.17294316 0.15101424 0.1504416 -0.105602466 0.3381443 0.21021709 0.12954746
0.27476922 -0.14079596 0.29512352 0.32637802 0.33164063 0.18139791 0.30124423 -0.32474673
0.31853035 0.31360307 0.31424552 0.010757968 0.1848158 0.3034961 -0.3577825 0.3227772
0.38456124 -0.18828511 0.28841048 0.30343834 -0.35266146 0.11084413 -0.4015214 0.1871435
-0.08725822 0.3077339 -0.11219058 -0.012180653 0.16741699 -0.10602592 0.27264965 0.24300048
-0.41380054 0.34729105 0.33371145 -0.291843 -0.30936098 0.28625998 0.088083915 -0.15750566
0.12777491 0.27667373 0.21166506 -0.11898745 0.32345453 0.3596771 0.3028133 0.17995107
-0.35902187 0.18322593 0.41622752 -0.15505792 0.30855748 -0.15973604 0.24076264 0.30755138
-0.4697206 0.03963296 -0.3940338 -0.089091785 0.36256784 0.3764619 -0.22245798 0.054730043

fc2.weight f4 [128, 128]
00000000: 7438 52be 5edf 71be 6103 4c3e ee08 9dbd
00000010: 3bde b53d 7238 2abf 3e0f 043f 13ea b93d
00000020: 0e38 843e 3ce6 dabd 64ad 39be cdf0 7c3e
00000030: f393 d83c 4e54 c93b 4eea 1d3f 9f0d 9ebd
00000040: 580b 253d 1dcd 5c3e db53 ffbe 1713 e2bc
00000050: 18f9 ae3e da67 f63e baac 3d3e b251 693e
00000060: 13e3 12be ab64 dd3e 2f12 f03b 4511 8dbf
00000070: 0360 cebd 7ab0 a53e 445a 503e b57b 0bbe
00000080: 355a 87bc caa9 80bf 01d9 4e3e 4cf4 08bf
00000090: 79f9 fabd e5ff 13bf 1597 32bd 745d 32be
000000a0: 0131 873e f433 e93e 2d96 8e3e 1137 27be
000000b0: 913f babd 8128 2b3e c078 f63e 8e92 5e3f
000000c0: 7d47 f03e 8787 fabd dd5a a23a 9234 143f
000000d0: 089f 8b3e 1363 2b3e 818e f33e b99d fc3e
000000e0: 204e 973e 5ab8 ebbe 4832 c03e 7158 ba3d
000000f0: d38b e93e 99c7 b4bf 7adf d8bd 3460 273f
00000100: a400 3cbd 653a 073f da41 92bf 2cfe 1abe
00000110: ab7c 193e 2d23 60be 4845 97bf 6103 5cbe
00000120: 6d88 01bf 7d44 c23e 9681 95be 0b6b f63e
00000130: 594b 003f e1ae 3dbd 7981 a43d 2a73 783e
00000140: 07e0 673d 638e 833d 1412 a4bf 413a b73d
00000150: af04 733e 7654 2c3e 3fce 52be 97fe 0abe
00000160: 9ba0 113f 7ea0 8abf 14c8 443b c0f6 8cbd
00000170: 471e 06bf 7ee9 773e 53fb ef3d 8d52 413e
00000180: 1656 973d b4e7 4fbe 3b04 19be 9656 a73e
00000190: eb92 a43e fbb7 dfbe e48f b43e 14ab 043f
000001a0: 41ec a1bd 0f0f a4be de73 3ebd 3d15 1fbd
000001b0: 3771 f6bc a982 013e 7d12 4dbf 489b 86be
000001c0: 81a9 bebc 68d1 fcbc 5dfb 503e d81c 063d
000001d0: 3db3 66be 8598 133f 6304 ae3d a99e 3e3b
000001e0: 93b3 72bc 7028 0dbe c57b 48bb 5955 0c3f
000001f0: 92c3 093e b39c 993e 563d 913e ea89 093f
00000200: 460c 913e 4056 acbd 5f38 6abe 5a32 62bd
00000210: d941 543e 92bc a9bc fc8f 383e cda5 423e
00000220: e1c6 283c 2b16 423e 5b3e 6b3e 7134 73bd
00000230: d468 0c3e 18be 463e 742a 143d 42f7 89bd
00000240: b721 453d 4410 3c3d 08c6 2d3e 2d9a 393e
00000250: 1974 403e 8bc5 083d 26f2 b53d c279 073e
00000260: dc5b f7bf 1d2c 3dba 8072 953e c2ae 483e
00000270: 2ab1 303e 75bb f33b a7e8 89be 2bb6 653d
00000280: 0c05 c3bf 2264 2fbc 6a23 11be 2e30 333e
00000290: 40cc 843e 5b40 25bb 79bf 123e 83b3 a43d
000002a0: f0f3 9dbe 7b73 063e 9433 1a3e cfcb 423e
000002b0: 5782 2f3e 7a62 9e3e 4f1c 6ebf 7022 23bf
000002c0: 87dd c6bc bfeb 643e a082 f0be 4615 16be
000002d0: b56b 053e 8c92 ce3d 1c47 8f3e 4931 8cbe
000002e0: b3e3 203e 6f3b 793e e4dc c2bd dbd2 f7bd
000002f0: 6d47 683c 0606 653e 4c3d d4bd 990f 493d
00000300: 8164 9d3e c78a e3bd 951b d13d 60df 943e
00000310: 0545 223e befa e63d 1e5d b03d cf9d d7bf
00000320: dcde 873e 379f 1d3d f34d 393e 5d05 243e
00000330: 2c14 00be f90b 393e 7305 89bf 9d89 ca3d
00000340: d71f a43d bc4c b2bc 3e95 a33c bbac 203e
00000350: 0c91 a8bf da8d 3f3c 37ce b3bf 21b8 6abd
00000360: 9827 863c 2371 3a3e f172 d43d 734d 10bd
00000370: ca8a 003e e606 323e b9fc 343e 2375 3c3d
00000380: bac7 a0bf c002 693e 307b 9f3d a84a 2abf
00000390: 9980 a6bd 252a 693e 956d b7bd 7b0e 893d
000003a0: 599b 523c 8186 9b3e 893d 173e b9af 94bc
000003b0: 9ee5 a83d c0ef b73d 8ab5 623e 4b39 99bd
000003c0: 3d9f e3bf 5bb5 8ebd f1bd 0c3e 82ee 80bd
000003d0: 503d 5e3e 6d52 5a3d 56bc 293e 59a4 ea3d
000003e0: b198 47bf 56eb 2b3d 4bf8 8fbf e21a 5b3e
000003f0: 7844 583e 9c4d b43e 4f75 1c3e 8133 233e
-0.20529348 -0.23620364 0.19923164 -0.07667719 0.08880278 -0.6649238 0.5158576 0.09077849
0.25824016 -0.10688445 -0.1813255 0.24701233 0.026437735 0.006144083 0.61685646 -0.07717442
0.04029402 0.2156262 -0.49868664 -0.027596993 0.34174418 0.48126107 0.18522921 0.2278507
-0.14344434 0.43240866 0.0073263864 -1.1020895 -0.100769065 0.32361203 0.20346934 -0.13621409
-0.016522506 -1.0051816 0.20199968 -0.5349777 -0.122546144 -0.5781234 -0.043601114 -0.17418462
0.26404575 0.4554745 0.2784895 -0.163296 -0.090941556 0.1671467 0.48139 0.86942375
0.4692954 -0.12232881 0.0012386699 0.57892716 0.2726977 0.16737013 0.4756966 0.49339083
0.29551792 -0.46039087 0.37538362 0.090989 0.4561449 -1.4123412 -0.105895 0.6538117
-0.04589905 0.5282348 -1.1426346 -0.15136021 0.14988963 -0.21888418 -1.1818018 -0.21485664
-0.50598794 0.37942877 -0.2920043 0.48128542 0.5011497 -0.046309356 0.080325074 0.24262682
0.056610133 0.064236425 -1.2818017 0.08946658 0.23732255 0.16829094 -0.20586489 -0.13573681
0.5688569 -1.0830228 0.0030026482 -0.06883001 -0.5238995 0.24210164 0.11717858 0.18879147
0.073894665 -0.20303231 -0.1494302 0.32683247 0.3214334 -0.43695053 0.3526603 0.51823545
-0.0790639 -0.3204274 -0.04649722 -0.038838614 -0.030083282 0.12647499 -0.80106336 -0.26290345
-0.023274185 -0.030861571 0.20408387 0.03274235 -0.22529311 0.576546 0.084969305 0.0029086268
-0.014813322 -0.13784957 -0.003059135 0.5481773 0.1345351 0.30002365 0.28367108 0.53726065
0.28329676 -0.084148884 -0.22873066 -0.0552238 0.20728244 -0.0207198 0.18023676 0.1900856
0.010301323 0.18953769 0.22973005 -0.059376184 0.13711864 0.19408453 0.0361733 -0.06736614
0.048127856 0.04591395 0.16970074 0.1812522 0.18794288 0.033391517 0.08884077 0.1323004
-1.9324908 -0.0007216351 0.2918892 0.19597915 0.17255083 0.007438118 -0.26935312 0.056081932
-1.5235915 -0.010705026 -0.14173666 0.17498848 0.2593708 -0.002521536 0.14330854 0.08042052
-0.30850172 0.1312999 0.15058738 0.1902306 0.17139564 0.30934507 -0.93011945 -0.6372442
-0.024275554 0.22355555 -0.4697466 -0.14656553 0.13029368 0.10086545 0.2798394 -0.27381352
0.1571186 0.24339078 -0.09514788 -0.12100764 0.0141771855 0.22365579 -0.10363254 0.04908714
0.3074074 -0.11110454 0.10210339 0.29076672 0.15846641 0.11278294 0.08611511 -1.6845034
0.26537216 0.038481917 0.18096142 0.16017671 -0.12507695 0.18070973 -1.0704788 0.09889529
0.080138855 -0.021765105 0.019968625 0.15690891 -1.3169265 0.011691535 -1.4047307 -0.057304505
0.016376302 0.1820722 0.10373486 -0.03523011 0.12552944 0.17385444 0.17674531 0.046010148
-1.2560952 0.22754955 0.07787168 -0.66520166 -0.08129997 0.22769983 -0.08956448 0.06692215
0.012854421 0.30376056 0.14769568 -0.018150197 0.08246921 0.089812756 0.22139564 -0.07481631
-1.7782971 -0.069681846 0.13744332 -0.06295492 0.21703076 0.053301264 0.1657575 0.11457128
-0.77967364 0.04197248 -1.1247648 0.21396974 0.21119869 0.3521546 0.15279125 0.15937616

fc2.bias f4 [128]
00000000: 9286 42bd 41c1 283e 1ec6 f13b 0d93 2f3e
00000010: 952b 9cbc 4a0a 7e3e 1deb 1ebd c36b 8c3e
00000020: 2fbc 453e f54e d8bc 0ec8 d7bc e308 72bd
00000030: 6b6e 80bd 1951 d1bb 46be 103d 9cc4 12bd
00000040: 7b4d f7bc 62bb c73c cf70 3f3e 31b5 2a3e
00000050: 18cf 6b3e f271 cabb dcf6 d2bd ab9c 663e
00000060: 0896 873e 45e1 3a3e 20e4 46bc 57a0 01bc
00000070: 6028 a9bb 729d 123e 948a 4d3e 08ac 69bb
00000080: a911 3abe f637 333e 8c8c 613e c15f 5b3e
00000090: 98e0 aa3a d778 5bbc 561a 163e 68fe 8bbd
000000a0: b500 283e 76ae 893e 29a0 8dbd d35e aabb
000000b0: 3351 5a3e 8881 3f3e 7c4d 493c 108e 503d
000000c0: 36ea 383e 5487 863e 4208 0e3e 6a27 173e
000000d0: 964d 433e 407c e7bb e745 833e 5dbc 5f3b
000000e0: a1ce 2bbc c58b 6dbc 1360 173e 67c6 303e
000000f0: 12ac 403e 68f8 013a c556 433e 56cf 693e
00000100: 8b65 383e 1483 5c3e 7822 243e 108b 2e3e
00000110: 374f 263b 5bfa 8bbd 4e59 6bbe cfcb 853d
00000120: ee4c 2c3d 5d67 6d3e a9a3 8bbd d9ba 653e
00000130: 5bc6 553e b869 0d3e 2812 3a3e 89a9 80bd
00000140: 8bf8 933e ec63 813c 7dea 7f3e 2781 1ebd
00000150: 5539 843e 82ff 01be d8c3 973e 2b04 b0bd
00000160: 8540 933e 193d c9bd 6cd4 9abd 6ddc 18be
00000170: 13d7 03be d73f 29bd ab3d 56bb 0911 683e
00000180: 322f 10bc 1186 463e 6f94 763e 831a 073c
00000190: 34ce 09be 8390 10be c491 57bb 7dfb c2bb
000001a0: 4bf3 f93d d79a 2d3e 315b 60bd 44d1 7c3e
000001b0: 8a10 94bd d069 3dbc cd9f 5b3e c647 913e
000001c0: 4fbe 7f3c 69d7 92bd c1db a8bb f410 e53d
000001d0: 60dd 5d3e a9f9 33be f3dd 26bc 4dc7 67bb
000001e0: 0a47 233e 0f59 84bc 1576 2bbd 0577 1abb
000001f0: dacc adbd c613 b8bd 0621 60be 2c8a 3bbe
-0.047491618 0.1647997 0.0073783537 0.17145939 -0.01906375 0.24808612 -0.03879844 0.27425966
0.19310068 -0.026404837 -0.02634051 -0.059090506 -0.062710606 -0.0063878414 0.03533771 -0.035832033
-0.030188313 0.024381343 0.18695377 0.16670682 0.23028219 -0.006178134 -0.10300991 0.22520702
0.26481652 0.18249996 -0.01213935 -0.007911763 -0.005162284 0.14317873 0.20072395 -0.0035655517
-0.181708 0.17501816 0.2202627 0.21423246 0.0013036905 -0.01339551 0.14658484 -0.068356335
0.1640652 0.26890916 -0.06915314 -0.005199292 0.21320038 0.18701756 0.01228654 0.05091673
0.18058094 0.26275122 0.13870338 0.14761129 0.19072565 -0.0070643723 0.2563927 0.0034139373
-0.010486276 -0.014498656 0.14782743 0.17263184 0.1881564 0.0004957975 0.19076069 0.22832999
0.18007486 0.21534377 0.16028774 0.17045236 0.0025376806 -0.06834861 -0.22983286 0.06533014
0.042065553 0.23183961 -0.06818325 0.22434558 0.20876448 0.1380986 0.18170989 -0.06282336
0.2890056 0.015794717 0.24991794 -0.038697388 0.2582499 -0.12695125 0.29641604 -0.08594545
0.28760162 -0.098261066 -0.075600475 -0.14927836 -0.12875013 -0.041320648 -0.0032690566 0.22662748
-0.008800315 0.1938708 0.2408006 0.008246067 -0.13457566 -0.14117627 -0.003289328 -0.00595039
0.122046076 0.16953598 -0.054774467 0.24689204 -0.07229717 -0.011560872 0.21447678 0.2837507
0.015609338 -0.071699925 -0.00515315 0.11184874 0.21666479 -0.17575707 -0.010184753 -0.0035366595
0.15945068 -0.016155748 -0.04186066 -0.0023569476 -0.08486338 -0.089881465 -0.21887597 -0.18314427

fc3.weight f4 [2, 128]
00000000: 744e 8dbf b18f 473f 119e 4cbf fe73 a03e
00000010: 66b2 3abe 4ba3 6d3e ef2e 10bc 0424 3e3f
00000020: 001a c93e e767 a1bf d3d5 d0be b284 95bf
00000030: b530 7bbe e0c5 c7bd e221 bebe 49be 3fbf
00000040: 409e 49bf 9e6a 343d aeac 703e c8d7 aa3e
00000050: 661d 3e3f 4e00 1fbf dfaf 4bbf 1b05 103f
00000060: db8b 013f e470 133f 36bf 36bc 1124 02be
00000070: 0bf6 e7bc 18c4 cf3e d0c7 c03e e583 dabd
00000080: f835 9ebf c4db 9d3e fed3 9c3e 827c 153f
00000090: 6e99 34bf e2a6 37bf bfd3 11be 92df 5abf
000000a0: 1fa9 863e 425e 463f 1a50 c8be cd0f 5ebf
000000b0: 6fa8 4b3e 8596 343f 88fd 4dbf 440c 933f
000000c0: 4ac4 333e cf4b f4bd 3bc3 a63e 514c ce3e
000000d0: e173 883e 198c 0fbe 7726 c93c a1a5 1e3e
000000e0: 131a 07be 0e9d 28bd d465 9f3e 2e0c 873e
000000f0: e160 883e 5978 31bf b06c 8a3d 3ed5 273d
00000100: 6259 a23e 141a 213f 6e58 803e 4334 4f3e
00000110: e3ad 413e 3c73 5bbf 7dc2 8d3f 792d 063f
00000120: 0be6 003f 875a 363f aca8 43bf ce42 803e
00000130: 6973 8c3e d3e9 813e 55b0 023e e70d 44bf
00000140: 5852 2c3f 58ab 04bf 3c50 3a3e 6b70 6fbf
00000150: 2ea8 483e b5fa d03c db2c 263d a0bc 47bf
00000160: bccc fbbc ab24 2cbd fb97 19bf 7185 e5be
00000170: 1da8 26bf 7ca0 46bf fb8f 44be ef60 1d3f
00000180: 6168 18be 0cdf 9a3e 6e89 313f 13fb 12bf
00000190: 2ce7 1dbe 7c01 fa3e bba7 02bf 8e29 f7bd
000001a0: 6c35 c73e 7dba 773e 265c a2bf eb0f 823e
000001b0: c751 20be d212 42be 4040 153f 583e 243f
000001c0: 562e 46bf 7c73 9d3e eaf0 56bd dcda 9c3e
000001d0: cb04 3e3d 9579 debe 051d f2ba 897b 00be
000001e0: 3f32 d63e 02f5 58be d821 e2be c99d 12be
000001f0: 1948 8ebf adb0 02bf ce2c 863f 9705 173f
00000200: 5e3e 3fbf 05b4 67be 480b 3cbf 3ac6 ca3e
00000210: 6995 f33d a811 3c3f 7a72 51bf 3560 d93e
00000220: 27cd 993e 4cfe febe 9f2f 94bf 045f 6cbe
00000230: b285 8ebf 7ebd 1fbe 1220 9abe bf9b 48bf
00000240: 543a 3bbf 815f 34bf b54e b03e 2e22 bf3e
00000250: 73d8 ad3e 2f99 a33e a3da 42bf 741a bc3e
00000260: 3cf5 9d3e fe74 d1bd a412 cebd c028 ffbd
00000270: 90c1 d1bd 81b5 8d3e 6af2 3d3f e356 a53d
00000280: 9010 a93e 6bdc a73e 97d9 c03e 8c14 c63e
00000290: f54b 32bf 0e13 55be c9ab b73e a4da b8be
000002a0: c44d cc3e 2aa9 563e 24a6 70bf ce65 30bf
000002b0: edeb d43e f94b 3ebe b97f 6abf fdfa 14bf
000002c0: 0f70 c13e a2bb 033f 1226 4f3e ea6f 583e
000002d0: a016 de3e 9db3 cabd 86d2 0b3f 4ac3 32be
000002e0: 8457 4cbe 0a68 1abe 5a48 a13e 236c cb3e
000002f0: 0ffd f73e 4cd4 4fbf 87a2 e53e cf7e 9d3e
00000300: 6073 043f 1433 153f 0847 bf3e b127 df3e
00000310: e97a f63d 5e89 f6bd cb69 80bf e2c6 0ebf
00000320: a336 7dbf 1db0 453e 7e28 28bf 326a a93e
00000330: 31de dc3e a8ed 333e 7ac6 ac3e ce2a 62be
00000340: 60bf d13e ee22 54be c7b6 c13e daab 47bf
00000350: 0bec ea3e ee46 90bf 06b5 543f b91c e6be
00000360: 8da5 343f d1a5 88bf 1001 58bf f7c9 5dbf
00000370: 85e2 7cbf 0fdf 57be 6aad ccbd 8f73 eb3e
00000380: fb0f 87bc 2f9a 2a3f f10c e03d 50a2 06bf
00000390: 34c3 90bf 1f4e 8bbf fd10 1bbf 84e7 4fbe
000003a0: aff6 123e 2641 e93e 16c7 42be 4ca5 cd3e
000003b0: 0207 ecbe 847d c83d 1ff9 3fbe 2aee 963e
000003c0: f39a 82bf 4b0e 41bf 9e84 8cbd 29ca 3f3d
000003d0: 2348 8f3e 53e4 95bf 2201 6abd 289c db3d
000003e0: 3d18 ee3e f393 5dbd 9ab4 33bf 0ae0 1fbe
000003f0: a901 c9be 1b71 ccbe 5af7 86bf 5dd2 9dbf
-1.1039567 0.7795363 -0.7992869 0.31338495 -0.18232116 0.23206823 -0.008800252 0.74273705
0.3927765 -1.2609833 -0.40788135 -1.168112 -0.24530299 -0.097545385 -0.37135226 -0.7489973
-0.78757095 0.04404699 0.23503372 0.33367753 0.7426361 -0.6210984 -0.79565233 0.5625779
0.5060403 0.5759413 -0.011153987 -0.1270907 -0.028315565 0.40579295 0.37652445 -0.10669688
-1.236022 0.3083173 0.30630487 0.5839311 -0.70546615 -0.7173902 -0.14240931 -0.8549739
0.26300904 0.77487576 -0.39123613 -0.8674286 0.19888471 0.70542175 -0.80464983 1.1488118
0.17555347 -0.11928522 0.32570824 0.402926 0.2665091 -0.14018287 0.024554474 0.1549287
-0.1319354 -0.041165404 0.31132376 0.2637648 0.26636413 -0.6932426 0.06759012 0.040974848
0.3170882 0.6293042 0.25067466 0.2023478 0.18913989 -0.8572271 1.1074978 0.52413136
0.5035102 0.71231884 -0.7642925 0.25050968 0.274318 0.25373706 0.12762578 -0.76583713
0.67313147 -0.5182395 0.1819467 -0.9353091 0.19595405 0.025510171 0.04057012 -0.78022194
-0.030737273 -0.042027157 -0.5999753 -0.4482837 -0.6510027 -0.7758863 -0.19195549 0.61476034
-0.14883567 0.30248296 0.69350326 -0.5741436 -0.15420216 0.48829257 -0.51037186 -0.12068473
0.38907945 0.24192233 -1.2684371 0.2540277 -0.15656196 -0.18952492 0.5830116 0.6415763
-0.77414453 0.3075217 -0.052475847 0.30635726 0.04639129 -0.43452135 -0.0018471783 -0.12547125
0.4183521 -0.21187213 -0.44166446 -0.14318003 -1.1115752 -0.51050836 1.0482423 0.58992904
-0.7470454 -0.22627266 -0.73454714 0.3960436 0.11893732 0.7346444 -0.818153 0.42456213
0.3003933 -0.49803388 -1.1577033 -0.2308312 -1.113455 -0.1559963 -0.30102593 -0.7836265
-0.73135877 -0.7045823 0.3443505 0.37330765 0.339542 0.31952807 -0.76114863 0.36738932
0.3085116 -0.102273926 -0.10062149 -0.12458944 -0.10241997 0.2767754 0.7419802 0.08073213
0.3302045 0.32785353 0.37666008 0.3868755 -0.6964715 -0.2080805 0.3587325 -0.3610431
0.3990308 0.20962968 -0.9400351 -0.6890534 0.41586247 -0.18583669 -0.9160114 -0.5819548
0.37780806 0.5145818 0.20229366 0.21136442 0.43376637 -0.0989754 0.5461811 -0.1745731
-0.1995526 -0.1507875 0.31500512 0.3973094 0.48435256 -0.81183314 0.4485056 0.3076081
0.5173855 0.58281064 0.3735888 0.4358497 0.12035162 -0.120379195 -1.0032285 -0.5577222
-0.98911494 0.19305463 -0.65686786 0.33088833 0.4313827 0.17571127 0.33745176 -0.22086641
0.4096632 -0.2071645 0.3783476 -0.779966 0.45883211 -1.1271646 0.8308872 -0.4494379
0.7056511 -1.0675603 -0.8437662 -0.866363 -0.9878314 -0.21081184 -0.099940136 0.45986602
-0.016487112 0.66641515 0.109399684 -0.5259142 -1.1309571 -1.0883216 -0.605728 -0.2030316
0.14351915 0.45557517 -0.19021258 0.40165174 -0.46099097 0.09789565 -0.18747376 0.2947858
-1.0203537 -0.75412434 -0.06861232 0.046823654 0.27984723 -1.1710304 -0.057129987 0.10723144
0.46502867 -0.054096173 -0.7019745 -0.15612808 -0.3925908 -0.39930043 -1.0544236 -1.2329823

fc3.bias f4 [2]
00000000: d2a5 af3d 05e6 263e
0.085765496 0.16298683

fc1.weight f4 [128, 4]
00000000: 548e 843d fe66 e63c 93bc f9bc 9eea 8a3d
00000010: 98bc 1bbd bb8c 303e 32c5 cf3e 0c19 2f3d
00000020: fead 523e dd40 233e b2da 5cbf 3d0e 4bbd
00000030: 9e91 123e 7c75 4ebc 21b0 fc3e d84d 813e
00000040: c02c d9be 2dc1 be3a 38f2 94bd 0957 a73d
00000050: 16f9 013e 62ae bb3d ce44 583e 3a66 4c3e
00000060: efc0 d4be 7642 36be 5692 84bf a408 4bbe
00000070: 6da9 583d 6295 0cbe ca27 01bf 4c99 70be
00000080: 4e45 cd3e f040 7e3e b9a3 bdbe 2c2f b73b
00000090: 4550 6bbe 250a 383d bd4f 6a3e d72e c03c
000000a0: 3d05 ebbd 1912 df3d d2c1 73be db3e a93d
000000b0: 1db5 e33d bb2f 4a3d 6385 8ebf 2400 32be
000000c0: 943f f43e 6d21 423e a405 cbbe 9352 22bd
000000d0: b740 cc3d 0057 15be 9dd0 a3be fb23 1f3d
000000e0: 8dac 27bf 8e25 b0be 2dca 4bbf 051b 37be
000000f0: df77 6fbe 2e8a dd3c a9de 363e be6b b6bd
00000100: d50e 49be 1802 253e 805c 3b3f df35 8bbd
00000110: 4047 4d3e 9551 be3d 12cd 76bf 127b 45be
00000120: 7fa4 583e 5640 b6bd a925 8a3e dfd6 643d
00000130: 87d6 0fbf 6e18 ac3d 94ba 2b3f 2cb0 573c
00000140: 1fc1 e4ba decc e1bd 2f5f 18bf 028e 59be
00000150: 6cb0 2cbf a413 b3be 85e7 c4be d72c 55be
00000160: 25d2 9e3e b0e4 5c3e 4f36 f9be 2847 34be
00000170: 72be 19bf 462e 0f3d 5e32 323f cdde 39bd
00000180: 7962 57be 43ab 463e 1fcf 983f e0e9 843e
00000190: d2bd 86be 7bd7 89be 3870 81bf 83e2 cabe
000001a0: cc67 3a3e 77c6 edbc e9e3 f1be 1cd7 1ebe
000001b0: 0f25 aebc c225 963d 5b57 1b3f db9d 173e
000001c0: f213 c63d 8dac 96bd 1d35 563f 0563 d93e
000001d0: 15cd 34bf 9df2 c6be daac 023f a139 703e
000001e0: d90b 7f3e af83 8e3e 5556 c6be f47e 3b3d
000001f0: 0876 dd3d 47f6 3a3e bd1f 04bf 75e0 3cbc
00000200: cb65 0abd e819 353d 576e 9d3f 656e 823e
00000210: cd3b 6abd 91c9 0f3e 49ba 123f 14da 4f3e
00000220: 105c 84bd e354 6e3e e542 dcbe 3fc1 05bf
00000230: ce9d c3bd 34b1 223e df1b 1b3f 8b89 833e
00000240: 01e0 bf3d b7bb 833d 9b85 52bb d83c b43c
00000250: 25dc 9ebd 01f5 553d 33be c23e af3d 0e3e
00000260: 132a f7bd 0275 063d 1866 e93e 39b5 fdbd
00000270: 8a47 e7bd 3e1d 93bd 204c 823e ecc4 373d
00000280: c9cc e3be ff27 24be 57ff e63e 4ce9 a33e
00000290: 1d01 833e 80cb 78be b08d 5fbf ef50 4ebe
000002a0: 5d9f 1bbd 0afc c3bd 7895 ccbe 4f6f 68bd
000002b0: ee34 54bc 44d1 3f3e 4d4d e43e 777e ed3c
000002c0: 418b e3bd 5241 a83c 0856 0f3f 4f9b 05be
000002d0: 3048 143e 43be 6bbd 5fee 85be 361e f0bd
000002e0: cbed 60bf 5e7f b0bd b8e3 e93e 363d 9f3d
000002f0: 7f42 6fbf 813c 83be aa06 813e 8968 21bd
00000300: 6a65 32bf f94c 18bf 3902 463e 50e4 7c3e
00000310: 94aa c0ba 02e4 2c3d 26ab 253e 8f21 e3bd
00000320: 4b8d 0d3e 45f8 813e 2cfd 193f 7e81 9b3e
00000330: 7e13 17bf 447b bcbe 507b 81bf 1e48 21be
00000340: 0950 013e 7555 84bc 76f4 98bf c5f7 92be
00000350: a138 ad3e f649 693e 38d3 00bf 7b21 a23d
00000360: fc09 84be c159 93be f656 8ebf 3caf 95be
00000370: 13a7 c9be 172e 60be 4135 6abf 5f28 46be
00000380: 0a0c 683e ee76 73be 04f5 44bf b114 8fbb
00000390: ec98 503d 6847 4539 6b1a 843f 36ed 973e
000003a0: 7c7b 703e 7a65 88be a7eb 6cbf d8c6 cebd
000003b0: c905 fe3d 273b 293e def1 d7be adb9 d1be
000003c0: 4627 d3be 4155 4fbe 9f2c 90bf 494c 83be
000003d0: f49e 76bd d18f 803e 08b7 313f 9722 8e3e
000003e0: 052b 0a3d efd3 f93c ba91 c63e ca9a e9bd
000003f0: c171 55bf feca 32bf 3211 8cbe fea8 d1bd
0.064724594 0.028125282 -0.030485427 0.06783031 -0.038021654 0.17241184 0.40580136 0.042748496
0.20574185 0.15942712 -0.862712 -0.049574126 0.14313361 -0.012601253 0.49353126 0.25254703
-0.42416954 0.001455342 -0.07272762 0.081708975 0.12692675 0.0916412 0.21119997 0.19960871
-0.41553447 -0.1779879 -1.0357158 -0.19827515 0.052895952 -0.1372886 -0.5045134 -0.23495978
0.40091938 0.24829459 -0.37038973 0.00559034 -0.22979839 0.04493155 0.2288198 0.023459835
-0.114756085 0.10892124 -0.23804405 0.08263942 0.11118529 0.049361926 -1.1134456 -0.17382866
0.47704756 0.18958063 -0.3965274 -0.03962953 0.09973281 -0.14583969 -0.31995097 0.038852673
-0.65497667 -0.34403652 -0.7960537 -0.17881401 -0.23385571 0.027043428 0.17858376 -0.08907269
-0.19634564 0.1611408 0.7318802 -0.067973845 0.20046711 0.09292904 -0.9640666 -0.19285229
0.211565 -0.0889899 0.26981857 0.05586898 -0.5618672 0.08403097 0.6708157 0.013164561
-0.0017452574 -0.110254034 -0.5952024 -0.21245578 -0.674567 -0.34975922 -0.38457885 -0.20817886
0.31019703 0.21571612 -0.48674247 -0.17605269 -0.6005622 0.03495624 0.69608104 -0.045378495
-0.21033658 0.19401269 1.1938208 0.25959682 -0.26316696 -0.2692221 -1.0112371 -0.3962594
0.18203658 -0.0290253 -0.47244194 -0.15511745 -0.021257905 0.073314205 0.6068017 0.14806311
0.09671773 -0.0735713 0.83674794 0.42458358 -0.7062543 -0.38856974 0.51045 0.23459484
0.24906863 0.27834842 -0.3873774 0.04577537 0.10813528 0.1825801 -0.5161093 -0.011528124
-0.033788484 0.04421416 1.2299298 0.2547485 -0.057185937 0.14041735 0.573155 0.20298034
-0.06462872 0.23274569 -0.43019786 -0.52247995 -0.09551583 0.1588791 0.605894 0.25690874
0.09368897 0.06432288 -0.0032123092 0.022001669 -0.07756833 0.052235607 0.38035735 0.13890718
-0.12068572 0.03282643 0.45585704 -0.12388081 -0.11292942 -0.07183312 0.25448704 0.044865534
-0.44492176 -0.16030882 0.45116684 0.3201393 0.25586787 -0.24296379 -0.8732557 -0.20148061
-0.037993778 -0.09569557 -0.39957786 -0.056746777 -0.012952073 0.18732172 0.44590226 0.028990967
-0.11110545 0.02053896 0.5599065 -0.13047527 0.14480662 -0.057554495 -0.26158425 -0.11724512
-0.87862843 -0.08618043 0.45681548 0.07775347 -0.9346084 -0.25632098 0.25200397 -0.039406333
-0.69685996 -0.5949245 0.19336785 0.2469647 -0.0014699274 0.042209633 0.16178569 -0.11090385
0.1382343 0.25384727 0.60151935 0.30372232 -0.5901412 -0.36812794 -1.0115757 -0.15750167
0.12628187 -0.01615403 -1.1949604 -0.28704658 0.33832267 0.2278212 -0.50322294 0.07916542
-0.25788867 -0.28779414 -1.1120288 -0.29235256 -0.3938528 -0.21892582 -0.9148751 -0.19351338
0.22660843 -0.23775837 -0.76936364 -0.0043664803 0.050927088 0.00018813985 1.0320562 0.29673165
0.23484606 -0.2663992 -0.92547077 -0.1009652 0.12403447 0.16526471 -0.42176718 -0.40961972
-0.412409 -0.20247366 -1.1263617 -0.25644138 -0.060210183 0.25109723 0.6941991 0.27760765
0.033732433 0.030496566 0.38783056 -0.11406477 -0.833767 -0.6984099 -0.2735687 -0.10237311

fc1.bias f4 [128]
00000000: d979 9a3e 191c 1e3e 77a7 87be 26be 50be
00000010: 8708 4b3e 78fe 913e b3d0 03be cac6 c13e
00000020: b924 32be ca36 a13e 648e a23e 1a80 5bbe
00000030: cca9 a7bd 1848 813e 5860 103d 7ef9 003e
00000040: 33d3 8d3d f086 a0be ca57 903e 818f 023e
00000050: b29b c33e e477 aa3a 3a8a 75be 9250 003e
00000060: d774 92be 6c7f 623d d1ae be3e 3712 9b3e
00000070: 94db b1ba a63d 4d3e 2f95 48be 3c34 ba3e
00000080: ac43 b2be 1b96 a03e 336f 49bd f3c8 2a3e
00000090: f416 a63e c725 903e fa44 593e 5270 933e
000000a0: c6fd 56be d46c 4a3e d062 aa3e b329 3b3e
000000b0: c2b1 4e3e 4a09 a83e 7a80 86be f942 59be
000000c0: 2797 c43e 19fa 893e 253b 48be 6554 4a3d
000000d0: 596a 64be bfbe ddbd 97b4 efbd 60ea df3d
000000e0: 1efe 583e 894c 2d3e 52f2 193e a668 193e
000000f0: f83e d5bd 3b31 ad3e 7411 573e 6f3d 063e
00000100: ea81 8c3e a540 0ebe c925 973e e1f3 a63e
00000110: 82d0 a93e 7793 393e 7542 9a3e 2c3c a6be
00000120: f01f a33e cbcd a03e 17c3 a03e 9334 4a3c
00000130: 8584 3d3e 713a 9b3e 4ace b7be 5346 a53e
00000140: d4dc c43e 847f 41be 4bc7 933e 7d43 9b3e
00000150: 784c b4be ef0e e03d 4891 cebe fbd3 3d3e
00000160: 451c afbd b6a4 9d3e 4b60 e7bd 2693 4cbc
00000170: 534f 2b3e cb18 d7bd ce89 8b3e 0e04 793e
00000180: 689e d3be 47a6 b13e bfa8 aa3e 2560 96be
00000190: 9ce2 9ebe 9b63 923e a063 b73d 9a89 1fbe
000001a0: db96 013e a489 8d3e 7470 583e ebb8 f5bd
000001b0: 0179 a53e 68e4 b73e 93c1 9a3e 408c 363e
000001c0: 06de b7be b935 3b3e 7c59 d53e 4f61 20be
000001d0: 70dc 9d3e 3987 22be 8170 763e 734f 9d3e
000001e0: b362 f0be e94c 1f3d 3e65 c9be 639a b3bd
000001f0: 9e3b b93e 134a c03e a7c3 63be a9c4 613d
0.30171087 0.15440406 -0.26494953 -0.20385036 0.19827472 0.28514457 -0.12872581 0.37846977
-0.17396821 0.31487113 0.3174926 -0.21435586 -0.08186683 0.25250316 0.03524813 0.12595174
0.06925049 -0.3135295 0.28191978 0.12750055 0.38204724 0.0013005701 -0.2397851 0.12530735
-0.28604767 0.0552973 0.3724275 0.30287334 -0.0013569468 0.20043048 -0.19588159 0.36367977
-0.34817255 0.3136452 -0.049178313 0.16678219 0.32439387 0.28153822 0.21217719 0.2879663
-0.20995244 0.19768077 0.33278513 0.18277626 0.20184997 0.32819587 -0.26269895 -0.21216954
0.3839657 0.26948622 -0.19553812 0.04939689 -0.22306193 -0.108273976 -0.11704367 0.10933375
0.21190688 0.16923727 0.15033844 0.14981326 -0.10412401 0.33826622 0.21002752 0.13109373
0.27442867 -0.13891847 0.29521015 0.3260794 0.3316689 0.1812266 0.30128828 -0.32467782
0.31860304 0.31407008 0.31398842 0.012341636 0.18507583 0.30318025 -0.35899574 0.32280216
0.38449728 -0.188963 0.28862986 0.30324927 -0.3521459 0.10940348 -0.40345216 0.18537895
-0.08550314 0.30789727 -0.11297663 -0.012486255 0.16729479 -0.10502776 0.27253574 0.24317953
-0.41331792 0.34697172 0.33331868 -0.29370227 -0.31032264 0.28591618 0.08954549 -0.15579835
0.12655203 0.27644074 0.21136647 -0.11998161 0.3231888 0.35916448 0.3022581 0.17826939
-0.35911578 0.18282212 0.41669834 -0.1566212 0.30832243 -0.15871896 0.24066354 0.30724677
-0.46950302 0.038891707 -0.39335054 -0.08769681 0.36178297 0.37556514 -0.22242604 0.05511919

fc2.weight f4 [128, 128]
00000000: fc79 50be f5f5 6dbe 0103 4c3e 6e08 9dbd
00000010: 7106 b63d c219 29bf ed90 033f 75e9 ba3d
00000020: 1538 843e 30fb d8bd 1699 38be ccf0 7c3e
00000030: 6a93 d83c 170b e23b 60aa 1d3f ec4c 9dbd
00000040: 57f6 2b3d aacc 5c3e ba01 febe 8ed1 dfbc
00000050: c831 af3e efe4 f53e b0ac 3d3e 1a71 693e
00000060: c6e2 12be 7ff4 dc3e 7e8e 073c 5eb7 8cbf
00000070: a162 c7bd 4291 a53e f259 503e 4713 0abe
00000080: a559 87bc 5948 80bf 5910 4f3e 5eeb 06bf
00000090: 903e f7bd f783 13bf 6921 2ebd f259 31be
000000a0: ca5a 853e 7c37 e93e 23db 8e3e 0365 23be
000000b0: c9ca b7bd 6c33 2c3e bc0f f53e 711b 5e3f
000000c0: da37 f03e 8602 f8bd ee5a a23a dbf3 133f
000000d0: 830a 8c3e a762 2b3e cc98 f23e d43f fc3e
000000e0: 856b 973e 8a00 e7be c30d c03e 6ebc bb3d
000000f0: b6ad e83e 6a24 b4bf ef7f d5bd 9830 273f
00000100: 9fa4 34bd 56ba 063f f08c 91bf dcb2 18be
00000110: 8712 1a3e ec57 5cbe 4e80 96bf 1a03 5cbe
00000120: 295e 00bf 4537 c23e 01e1 94be 54ee f53e
00000130: 0724 003f 2630 37bd b681 a43d 42f6 783e
00000140: 657d 6b3d c58d 833d 6d89 a3bf d1f4 b93d
00000150: f304 733e 1979 2c3e 12ce 52be 63a9 0abe
00000160: 8c4e 113f aa1e 8abf 86c4 443b 24f7 8cbd
00000170: ee12 06bf 2bc1 753e ab59 f23d a1ca 413e
00000180: 9d56 973d d03d 4ebe 2e2a 16be ef55 a73e
00000190: e792 a43e ec34 debe 9341 b43e 1d24 043f
000001a0: f2d9 a0bd b7fb a2be 7229 39bd 6d15 1fbd
000001b0: 2235 e7bc dc06 023e 5565 4cbf 42f0 83be
000001c0: 08a9 bebc 3a01 fcbc c975 513e 3c1d 063d
000001d0: e9ef 61be 8809 133f b9cd af3d a401 8c3b
000001e0: ecb2 72bc 4132 0dbe 197b 48bb bce3 0b3f
000001f0: 3d70 0a3e 3fdf 993e e63c 913e ea4e 093f
00000200: df00 913e d930 acbd 7285 6abe 37fa 7cbd
00000210: f784 533e 9887 aabc 5319 373e 886b 423e
00000220: 4250 263c d500 413e c440 6b3e a6f9 73bd
00000230: dc34 0c3e 1866 463e 54f7 123d 38e9 8cbd
00000240: 2a26 483d 1630 3f3d 4d9c 2d3e ad3d 393e
00000250: 4d2b 403e d5c6 063d 370b b53d 74ab 063e
00000260: 68a3 f6bf f289 13bb 3e5a 953e dcb9 483e
00000270: 7dd5 2d3e 99dc 013c 2604 8abe 6e53 653d
00000280: 4000 c3bf 4d67 2ebc 959c 10be 434a 333e
00000290: bac1 843e 730a 21bb 2fea 123e 97df a33d
000002a0: 3595 9cbe 070f 063e ae23 193e cbd8 423e
000002b0: 03b2 2f3e f84a 9e3e be59 6ebf f550 23bf
000002c0: 859e c4bc 3ce8 643e c2ee f0be ca5a 16be
000002d0: 1183 043e e73a ce3d 6b6c 8e3e 727b 8cbe
000002e0: e2a4 1f3e 0955 793e 0010 c6bd 3b36 f7bd
000002f0: 8ad9 4a3c e70c 653e 103d d4bd 022b 4a3d
00000300: 6c42 9d3e ea87 e6bd 49f4 d03d d4d8 943e
00000310: 6c2e 213e a52e e73d fd40 b03d 319e d7bf
00000320: 45d9 873e f06c 1f3d e154 393e 286c 233e
00000330: 1036 00be de16 393e 4a56 89bf 42c5 c93d
00000340: 54cb a33d 35ae b2bc 8ab6 a33c 177c 203e
00000350: 7c92 a8bf 7ad0 3e3c 1cf5 b3bf e0c1 6abd
00000360: 4456 913c 3381 3a3e 8b8a d43d 39f4 10bd
00000370: 2341 003e 6893 303e 85ad 343e b785 393d
00000380: 43c9 a0bf 93ea 683e 0d50 9f3d 1555 2abf
00000390: 4ef4 a6bd 370d 693e 6189 b4bd df25 863d
000003a0: a601 523c db74 9b3e 45f7 163e 9953 95bc
000003b0: 4ab7 a83d c54c b63d 1bc2 623e 7e34 99bd
000003c0: 8a9f e3bf f1ff 8fbd 519b 0c3e 46ac 81bd
000003d0: ff1f 5e3e c218 553d 314f 293e 4ea8 ea3d
000003e0: a69d 47bf 6e1f 2d3d 6bfa 8fbf ed33 593e
000003f0: 2904 573e e4a7 b33e f325 1c3e 25f0 223e
-0.20359033 -0.23238356 0.19923021 -0.076676235 0.08887947 -0.6605493 0.51393014 0.0912656
0.25824037 -0.10594785 -0.18027148 0.24701232 0.02643748 0.0068982947 0.61588097 -0.07680687
0.041982975 0.21562448 -0.49610692 -0.027321603 0.34217668 0.48026225 0.18522906 0.22797051
-0.1434432 0.43155286 0.008273719 -1.0993459 -0.09735609 0.32337385 0.20346811 -0.13483916
-0.016522238 -1.0022079 0.2022108 -0.5270289 -0.1207248 -0.5762324 -0.04251233 -0.17319468
0.2604583 0.45550144 0.27901563 -0.15956502 -0.08974225 0.16816491 0.47863567 0.8676062
0.4691761 -0.12109856 0.0012386718 0.5779397 0.2735177 0.16736852 0.473822 0.49267447
0.29574218 -0.451176 0.375105 0.091667995 0.4544503 -1.4073613 -0.10424792 0.65308523
-0.044102307 0.52628076 -1.1371136 -0.1491198 0.1504613 -0.21517915 -1.1757905 -0.21485558
-0.50143677 0.37932792 -0.29077914 0.48033392 0.50054973 -0.044723652 0.08032553 0.2431269
0.057492632 0.06423525 -1.2776314 0.09079898 0.23732357 0.1684307 -0.20586422 -0.13541178
0.5676048 -1.0790608 0.0030024364 -0.06883076 -0.52372634 0.23999469 0.11833509 0.18924953
0.07389567 -0.20140767 -0.14664528 0.3268275 0.32143328 -0.4339975 0.3520628 0.51617604
-0.0785407 -0.31832668 -0.04520554 -0.038838793 -0.028223578 0.12697929 -0.7984212 -0.2576924
-0.02327396 -0.030762304 0.20455088 0.032742724 -0.22064175 0.5743642 0.0858416 0.0042726565
-0.014813166 -0.13788702 -0.003059095 0.5464437 0.13519378 0.30053136 0.28366774 0.5363604
0.28320977 -0.084077545 -0.22902468 -0.06176206 0.20656191 -0.02081661 0.17880754 0.18986332
0.010150971 0.18847974 0.22973925 -0.059564255 0.13692039 0.19374883 0.0358804 -0.068804204
0.04886452 0.046676718 0.16954155 0.18089934 0.18766518 0.032904465 0.0884003 0.13151342
-1.9268618 -0.0022512642 0.29170412 0.1960215 0.1697597 0.00792613 -0.2695629 0.055987768
-1.5234451 -0.010644746 -0.14122231 0.17508797 0.25929052 -0.0024572879 0.14347146 0.08001631
-0.30582586 0.1309167 0.14955017 0.19028012 0.1715775 0.30916572 -0.93105686 -0.63795406
-0.02400137 0.22354215 -0.47057158 -0.14683071 0.12940623 0.100698285 0.2781709 -0.2743793
0.15590242 0.24348845 -0.096710205 -0.120708905 0.012380967 0.22368203 -0.10363209 0.04935742
0.30714738 -0.11256392 0.10202844 0.29071677 0.15740365 0.112881936 0.086061455 -1.6845151
0.2653295 0.03892225 0.18098785 0.15959227 -0.12520623 0.1807513 -1.0729458 0.09852077
0.07997766 -0.021811584 0.019984502 0.15672337 -1.3169703 0.011646384 -1.4059176 -0.0573138
0.01774133 0.18213348 0.103779875 -0.03538916 0.12524848 0.17243731 0.17644317 0.045293536
-1.256142 0.22745733 0.0777894 -0.66536075 -0.08152066 0.22758947 -0.088152654 0.06550192
0.012817776 0.3036259 0.14742763 -0.018228339 0.082380846 0.089013614 0.22144358 -0.07480715
-1.7783062 -0.07031239 0.13731124 -0.06331687 0.21691893 0.052025564 0.16534115 0.11457883
-0.7797493 0.0422663 -1.1248296 0.21211214 0.2099768 0.35089028 0.15248851 0.1591192

fc2.bias f4 [128]
00000000: 2a94 3dbd 65ae 283e f2d9 063c d658 2f3e
00000010: 562b 9cbc 4c00 7e3e 7fed 1cbd 5650 8c3e
00000020: 0a84 453e d37f d1bc cb28 d7bc 5c7a 6ebd
00000030: 0af0 76bd d250 d1bb d317 123d fdd7 0fbd
00000040: df68 f0bc 8f53 c93c 1437 3f3e 357b 2a3e
00000050: 959a 6b3e cf88 ccbb 50f8 d3bd 1165 663e
00000060: ae7a 873e 74c8 3a3e 11e4 46bc 05a0 01bc
00000070: 5728 a9bb 4766 123e 6c84 4d3e fbab 69bb
00000080: 4011 3abe 59fe 323e 6a52 613e ec27 5b3e
00000090: 2b2c 143b 2176 66bc 71cc 153e cd09 8fbd
000000a0: a2c6 273e e496 893e e59f 8dbd e649 8bbb
000000b0: 0918 5a3e 436d 3f3e a307 543c cfe5 4e3d
000000c0: 5eb1 383e 0463 863e afd2 0d3e e1f2 163e
000000d0: 6513 433e d37b e7bb 0733 833e 3abc 5f3b
000000e0: 77ce 2bbc 638b 6dbc af26 173e 4e8c 303e
000000f0: fd71 403e 8ca6 a83a 9222 433e ed9c 693e
00000100: d1d3 373e 9f48 5c3e 8be8 233e e451 2e3e
00000110: a74e 263b 3381 8cbd aa59 6bbe 07ed 853d
00000120: 84bc 2b3d 5838 6d3e 0037 8ebd 2481 653e
00000130: 158c 553e 1b34 0d3e c3da 393e 7d2f 84bd
00000140: e9dc 933e 97f4 853c 97b1 7f3e 69d3 1abd
00000150: dc1c 843e 1c00 02be 79c1 973e 366b b0bd
00000160: b532 933e a03d c9bd 0c7d 9ebd 8516 19be
00000170: 6697 05be 2819 2cbd fa3c 56bb 14d8 673e
00000180: 962e 10bc f07e 463e e369 763e efa1 003c
00000190: 809b 07be b451 0fbe b345 75bb 49fb c2bb
000001a0: 2c92 f93d fd60 2d3e 1752 5cbd 4797 7c3e
000001b0: 5610 94bd 8069 3dbc 5b8f 5b3e a32d 913e
000001c0: 22a9 843c 8d8f 91bd c7db a8bb c9c4 e43d
000001d0: 8eaa 5d3e 6767 32be 9fdd 26bc d3c6 67bb
000001e0: 870c 233e e558 84bc 929a 2abd 9e76 1abb
000001f0: 0f57 acbd c01e bbbd ca21 60be 978a 3bbe
-0.04628388 0.16472776 0.008230673 0.17123732 -0.019063633 0.24804801 -0.03831243 0.2740504
0.1928865 -0.025573647 -0.026264569 -0.05822216 -0.060287513 -0.0063878084 0.03566725 -0.03511809
-0.029346881 0.024575977 0.18673354 0.16648562 0.23008187 -0.006241895 -0.10350096 0.22499491
0.26460785 0.1824053 -0.012139336 -0.007911687 -0.0051622796 0.14296828 0.20070046 -0.0035655487
-0.18170643 0.17479838 0.22004095 0.21401948 0.0022609334 -0.01406625 0.1462877 -0.06984291
0.16384366 0.26872933 -0.06915263 -0.0042507527 0.21298231 0.18694024 0.012941274 0.05051213
0.1803641 0.26247418 0.138499 0.14741088 0.19050367 -0.0070643215 0.25624868 0.0034139291
-0.010486237 -0.014498564 0.1476085 0.17241022 0.18793483 0.0012867018 0.19056156 0.22813769
0.17951895 0.21512078 0.16006677 0.17023426 0.002537647 -0.0686058 -0.22983423 0.0653935
0.04192783 0.23166025 -0.06944084 0.22412544 0.20854218 0.13789408 0.18149857 -0.0645437
0.2887948 0.016351981 0.24970089 -0.037799273 0.25803268 -0.12695354 0.29639795 -0.08614199
0.28749624 -0.09826207 -0.077386945 -0.14949997 -0.13046035 -0.04201618 -0.0032690153 0.22641021
-0.008800169 0.1938436 0.2406383 0.007851108 -0.13242912 -0.13996011 -0.0037425577 -0.0059503657
0.12186083 0.1693153 -0.053789224 0.24667083 -0.07229678 -0.011560798 0.21441405 0.2835513
0.01619393 -0.07107458 -0.0051531526 0.11170346 0.21647093 -0.17422257 -0.0101846745 -0.0035366311
0.15922748 -0.01615567 -0.041651316 -0.0023569237 -0.084150426 -0.091367245 -0.2188789 -0.18314587

fc3.weight f4 [2, 128]
00000000: 684b 8dbf d287 473f 9d9b 4cbf 4661 a03e
00000010: f7b2 3abe 1063 6d3e 05a3 10bc fc15 3e3f
00000020: cff8 c83e 6a61 a1bf b7d1 d0be 577a 95bf
00000030: 5c30 7bbe a0c6 c7bd 419b bebe 65bc 3fbf
00000040: 899a 49bf 53b4 323d e678 703e 0fbc aa3e
00000050: 0314 3e3f eb0f 1fbf 5c5d 4cbf 3bfa 0f3f
00000060: f37e 013f e164 133f 40bf 36bc d424 02be
00000070: 7af6 e7bc 68b6 cf3e 0bad c03e 4984 dabd
00000080: c536 9ebf 82b5 9d3e afbd 9c3e 726e 153f
00000090: 9d9c 34bf db9e 37bf 751b 12be 79e4 5bbf
000000a0: 2b89 863e 3d51 463f e850 c8be 150c 5ebf
000000b0: 0e6c 4b3e b88d 343f a6fb 4dbf b514 933f
000000c0: b289 333e 90d9 f4bd 69ab a63e dc2f ce3e
000000d0: 1853 883e dc8c 0fbe a560 c73c eea4 1e3e
000000e0: 5c1a 07be 469d 28bd aa45 9f3e e8f1 863e
000000f0: 9744 883e b178 31bf aae6 893d f21e 273d
00000100: a5c7 a13e f40b 213f 0e3a 803e 3af4 4e3e
00000110: b1ad 413e 18b1 5bbf 45c2 8d3f ad1c 063f
00000120: 8bac 003f 8f4f 363f dcdb 43bf 9523 803e
00000130: 5154 8c3e e5d4 813e ad7a 023e dc36 44bf
00000140: f646 2c3f f1f6 04bf ef18 3a3e b76c 6fbf
00000150: 5169 483e 1afa d03c e823 253d bf14 49bf
00000160: 3961 fdbc 2e25 2cbd 17b7 19bf 4255 e6be
00000170: 82e8 26bf a0e2 46bf c090 44be 6154 1d3f
00000180: d568 18be dcbf 9a3e fc7f 313f 0eea 12bf
00000190: dde7 1dbe 2900 f63e 27ab 02bf e329 f7bd
000001a0: 7a18 c73e d984 773e e250 a2bf b9f4 813e
000001b0: 0f51 20be 4013 42be 4a36 153f c633 243f
000001c0: 2826 46bf d8bb 9d3e 71f1 56bd 42b8 9c3e
000001d0: 1607 3d3d be85 e4be b31d f2ba 067c 00be
000001e0: 6418 d63e 4af4 58be 9a15 e2be 059e 12be
000001f0: 7641 8ebf 8596 03bf 152c 863f 5e05 173f
00000200: 88f0 3dbf 3ed4 67be ebc3 3abf 239a ca3e
00000210: 7b95 f33d 54eb 3b3f 3928 51bf bb25 d93e
00000220: 2a99 993e 6b3f fcbe 9e87 93bf a2a1 66be
00000230: 5c86 8ebf 2dbe 1fbe c2c6 99be 3b58 47bf
00000240: 11f3 39bf 8a46 34bf e71f b03e 83f4 be3e
00000250: eba6 ad3e 25ff a23e 06ca 42bf 57e6 bb3e
00000260: 84c2 9d3e 6fc9 d1bd 2013 cebd 8b29 ffbd
00000270: 19c2 d1bd 3b8a 8d3e eacf 3d3f 3756 a53d
00000280: e610 a93e bfab a73e 22a8 c03e e8e2 c53e
00000290: e203 31bf 3aa0 54be 1455 b73e c98c b8be
000002a0: 3021 cc3e b44a 563e b3a6 70bf b61b 2fbf
000002b0: e5b9 d43e 0074 3ebe 993c 69bf 1c50 15bf
000002c0: 6d3a c13e c792 033f c1d2 4e3e 570f 583e
000002d0: cfe1 dd3e d8b3 cabd 27ad 0b3f b7c3 32be
000002e0: 8457 4cbe 8d68 1abe c414 a13e 9439 cb3e
000002f0: ddcd f73e f697 4ebf 0776 e53e aa53 9d3e
00000300: 7b2f 043f 581b 153f 4514 bf3e 7af8 de3e
00000310: e97a f63d a73f f7bd 4769 80bf 81c4 0ebf
00000320: f90f 7dbf e14d 453e af16 28bf 0b3c a93e
00000330: 1eaa dc3e 84a2 333e 1a98 ac3e fff0 61be
00000340: 7088 d13e 92a7 53be c486 c13e 6b63 46bf
00000350: fcb8 ea3e ce46 90bf 3488 543f c196 e5be
00000360: df81 343f ada5 88bf 93e7 57bf 9fa5 5dbf
00000370: 09dd 7cbf 38d2 57be 6aad ccbd cf44 eb3e
00000380: 3410 87bc 0f73 2a3f 0f69 df3d ef7d 06bf
00000390: 48b4 90bf 97da 8abf a7e6 1abf e0e7 4fbe
000003a0: 1891 123e 1e09 e93e 4f01 3dbe 7376 cd3e
000003b0: 1a07 ecbe 717d c83d d324 40be 19b8 963e
000003c0: 4fee 81bf adb7 3fbf 1485 8cbd dd3b 3e3d
000003d0: 841b 8f3e fe99 95bf ea01 6abd fa9b db3d
000003e0: b6ec ed3e a994 5dbd 17ee 33bf 0ae0 1fbe
000003f0: 943d c6be c6b9 cbbe 35f7 86bf fed1 9dbf
-1.1038637 0.7794162 -0.7992495 0.31324214 -0.18232332 0.2318232 -0.008827929 0.74252295
0.39252326 -1.2607853 -0.40785 -1.167796 -0.24530166 -0.097546816 -0.37227824 -0.7489684
-0.78751427 0.043629 0.23483619 0.33346602 0.74249285 -0.62133664 -0.79829955 0.56241196
0.50584334 0.57575804 -0.011153996 -0.12709361 -0.028315771 0.40568852 0.3763202 -0.10669763
-1.2360464 0.30802542 0.30613467 0.5837165 -0.7055147 -0.7172677 -0.14268287 -0.85895497
0.26276526 0.7746771 -0.39124227 -0.86737186 0.19865438 0.70528746 -0.8046211 1.1490694
0.17532995 -0.11955559 0.3255265 0.4027089 0.26625896 -0.14018577 0.024338076 0.15492603
-0.13193649 -0.041165613 0.31107837 0.26356435 0.2661483 -0.69324785 0.06733449 0.040800996
0.3159763 0.62908864 0.25044292 0.20210353 0.18913914 -0.858171 1.1074911 0.52387506
0.5026328 0.71215147 -0.76507354 0.25027147 0.27408078 0.25357738 0.1274211 -0.7664621
0.6729578 -0.519393 0.18173574 -0.9352526 0.19571425 0.025509883 0.040317446 -0.7854728
-0.030930148 -0.042027645 -0.60045 -0.44986922 -0.6519853 -0.7768955 -0.19195843 0.61456877
-0.1488374 0.30224502 0.69335914 -0.5738839 -0.1542048 0.48046997 -0.5104241 -0.12068536
0.38885862 0.24171771 -1.2680933 0.2538202 -0.15655921 -0.18952656 0.58285964 0.641415
-0.7740197 0.30807376 -0.05247635 0.30609328 0.046149336 -0.44633287 -0.0018471986 -0.12547311
0.41815484 -0.21186939 -0.44157106 -0.14318092 -1.1113727 -0.5140155 1.0482203 0.58992565
-0.74195147 -0.22639558 -0.729552 0.39570722 0.118937455 0.7340596 -0.81702 0.424116
0.29999667 -0.49267134 -1.1525762 -0.22522596 -1.1134753 -0.1559989 -0.30034453 -0.77869004
-0.72636515 -0.70420134 0.3439934 0.37295923 0.3391641 0.31835285 -0.76089513 0.36699173
0.30812466 -0.102434985 -0.100622416 -0.124590956 -0.10242099 0.27644524 0.74145377 0.08073085
0.33020705 0.3274822 0.37628275 0.38649678 -0.6914655 -0.20764247 0.35807097 -0.3604491
0.3986907 0.20926934 -0.9400436 -0.6840166 0.41548076 -0.18598938 -0.9110809 -0.5832536
0.37739888 0.5139584 0.20197584 0.21099602 0.4333634 -0.09897584 0.54561085 -0.17457472
-0.1995526 -0.15078945 0.31461155 0.39692366 0.4839925 -0.80700624 0.4481661 0.30727893
0.5163495 0.5824485 0.37320152 0.43548948 0.12035162 -0.120726876 -1.0032128 -0.5576859
-0.988525 0.1926799 -0.6565961 0.33053622 0.4309854 0.17542464 0.33709794 -0.22064589
0.40924406 -0.20669392 0.3779813 -0.7749545 0.45844257 -1.1271608 0.8302033 -0.4484158
0.7051067 -1.067556 -0.8433773 -0.8658084 -0.9877477 -0.21076286 -0.099940136 0.45950934
-0.016487218 0.66581815 0.1090871 -0.5253591 -1.1305017 -1.0847958 -0.605082 -0.20303297
0.14313161 0.45514768 -0.1845753 0.40129432 -0.46099168 0.09789551 -0.18764047 0.2943733
-1.0150851 -0.7488964 -0.0686132 0.04644381 0.2795068 -1.168762 -0.05713073 0.107231095
0.4646966 -0.05409685 -0.7028517 -0.15612808 -0.38718855 -0.3979017 -1.0544192 -1.232971

fc3.bias f4 [2]
00000000: 6f5b af3d feb2 263e
0.085623614 0.16279218
