Project/output/mountaincar/dqn/best_model.pth (torch, 285730 bytes, 24 tensors)

fc1.weight f4 [128, 2]
0	0xbd8f9ade	-0.070119604
1	0xbe0b37bf	-0.13595484
2	0xbea7ced6	-0.3277499
3	0x3ea166fe	0.3152389
4	0x3d48334b	0.04887704
5	0x3dc58dee	0.096462116
6	0xbdf51429	-0.11966736
7	0x3e422b26	0.18961772
8	0x3bfb8168	0.0076753385
9	0x3e04d32e	0.12971184
10	0xbdc70d81	-0.097193725
11	0x3ecf7219	0.40516737
12	0xbccf08bb	-0.025272718
13	0x3ef70af1	0.48250535
14	0xbe58b267	-0.21161805
15	0x3e83802a	0.2568372
16	0xbe1324d7	-0.14369522
17	0xbc39492e	-0.011308951
18	0xbe8a0e2c	-0.26963937
19	0x3f1886b0	0.59580517
20	0x3e58e2c8	0.2118026
21	0x40825d0c	4.0738583
22	0xbddbc0a5	-0.107301034
23	0x3dd8df34	0.105894476
24	0xbd4a58ae	-0.049400978
25	0x3e2b2e3d	0.16716857
26	0xbdabc110	-0.08386433
27	0x3e22fb5f	0.15916203
28	0xbdd3187b	-0.10307404
29	0x3ce29fe8	0.02766414
30	0xbea8367f	-0.32854077
31	0x40504d89	3.2547324
32	0xbe9414ec	-0.28922212
33	0xc04d76aa	-3.2103677
34	0xbe224ccf	-0.15849613
35	0x3f019891	0.5062342
36	0xbc892914	-0.01674322
37	0x3ebed722	0.37273508
38	0x3cb71d71	0.022352906
39	0x3d560105	0.052247066
40	0xbe585c32	-0.2112892
41	0xbdc98b5f	-0.09841036
42	0x3ca328da	0.01991694
43	0x3d99e9e4	0.07515314
44	0x3f5836cc	0.84458613
45	0x3ef1cb30	0.47225332
46	0xbd08c817	-0.033393946
47	0xbd46619d	-0.048432935
48	0xbd93307b	-0.07186981
49	0x40626b08	3.5377827
50	0x3ebc2517	0.36747047
51	0xbf517006	-0.8181156
52	0x3e66b7a6	0.22530994
53	0xbdc2c165	-0.09509543
54	0x3e0351f5	0.12824233
55	0x406a6789	3.6625693
56	0x3e562af9	0.2091483
57	0x40811550	4.0338516
58	0xbe97b0c4	-0.2962705
59	0x3f9ba238	1.215888
60	0x3c53263c	0.012887534
61	0xbe852743	-0.26006517
62	0x3ee7999e	0.45234388
63	0x4078f7a9	3.890116
64	0x3cc684a2	0.024233166
65	0x3e46f945	0.19431026
66	0xbe170589	-0.14748205
67	0x3f4494c8	0.7678952
68	0x3ea4a050	0.3215356
69	0xbef09bf6	-0.4699399
70	0x3e554942	0.20828727
71	0x405b86c1	3.4300997
72	0xbc2c1f36	-0.010505488
73	0x3e4d8e3a	0.20073786
74	0x3e9d1a0c	0.30683935
75	0x40715fff	3.7714841
76	0x3e75dd59	0.24010219
77	0x407a6753	3.9125564
78	0xbb2a85e3	-0.0026019744
79	0x3e35e578	0.17763317
80	0x3d039523	0.03212465
81	0x40683ac5	3.628587
82	0xbd202cda	-0.039105274
83	0x3e76fb63	0.24119334
84	0xbe8323f5	-0.2561337
85	0x3e38a789	0.1803266
86	0x3cde60e8	0.027145818
87	0x3f4c67e9	0.79846054
88	0xbc4fdd48	-0.012687035
89	0x3e08dddc	0.13365883
90	0x3f6e1284	0.92997
91	0x3fc018e9	1.5007602
92	0xbe8701a1	-0.2636843
93	0xc080c515	-4.024058
94	0xbde5090c	-0.11183366
95	0x3e2a1210	0.16608453
96	0xbdcb372f	-0.09922635
97	0x3d9abfe3	0.07556131
98	0x3dfa940c	0.12235269
99	0xbf9cdb54	-1.2254434
100	0x3bac8f22	0.005266086
101	0x3ee386a5	0.44438663
102	0xbe4456fd	-0.19173808
103	0x3f52a17f	0.82277673
104	0xbe1b3d75	-0.15160163
105	0xbe4015d0	-0.18758321
106	0x3f8d9f37	1.1064214
107	0x3ff85689	1.9401408
108	0x3e2605ff	0.16213225
109	0x40800842	4.001008
110	0x3f5dce30	0.8664274
111	0x3fa69198	1.3013182
112	0x3e96f4fe	0.2948379
113	0xbe029c9a	-0.12755051
114	0x3ec1f953	0.37885532
115	0xbf3411a6	-0.7033943
116	0x3e9fefb8	0.31237578
117	0x4080c27f	4.023742
118	0x3e1b2f89	0.15154852
119	0x40687bca	3.6325555
120	0xbd6b6f86	-0.057479404
121	0x3f0df2ce	0.55448616
122	0xbc9edb8d	-0.0193918
123	0x3ed3f9dd	0.41401568
124	0xbdb20932	-0.0869316
125	0x3d8bcfcf	0.06826746
126	0xbe5e4ebc	-0.21709722
127	0x3ca274de	0.019831117
128	0xbe60eee6	-0.21966133
129	0x403f6a5f	2.9908674
130	0xbecec271	-0.40382722
131	0x40159601	2.3372805
132	0x3f456f89	0.77123314
133	0x4054fbc4	3.3278666
134	0xbc84d47f	-0.016214607
135	0x3ef46168	0.47730565
136	0x3f7cdfd6	0.98779047
137	0x3f9755e4	1.1823087
138	0x3d39f083	0.045395385
139	0x3e728504	0.23683554
140	0xbc08b4b5	-0.008343865
141	0x3e5f2401	0.21791078
142	0x3e825b83	0.25460443
143	0x4066f7ad	3.608867
144	0x3f592372	0.8481971
145	0x3f2a0782	0.66417706
146	0x3e044c7e	0.12919804
147	0x40665b9c	3.5993414
148	0x3ea263fa	0.317169
149	0xbed1eab8	-0.4099939
150	0x3f370fc7	0.7150845
151	0xbdf62aaa	-0.12019856
152	0xbc9148d0	-0.017734915
153	0x406c5f63	3.693322
154	0xbd126d55	-0.0357488
155	0x3e4c643c	0.19960111
156	0xbdf25aac	-0.118337005
157	0x3ea9c5ab	0.3315862
158	0xbe90a75b	-0.28252682
159	0x3f67f9be	0.9061545
160	0x3f8621d3	1.0479072
161	0x3fd6083d	1.6721264
162	0xbd335ca5	-0.043789525
163	0x3e25da5f	0.16196583
164	0x3d8874b0	0.066628814
165	0x406aef0e	3.6708407
166	0x3d43f4eb	0.047840994
167	0xbe5b01c9	-0.213874
168	0x3e6c9bb5	0.23106273
169	0x3f238c0f	0.6388559
170	0x3ea78e90	0.32725954
171	0x406ad861	3.6694567
172	0x3f7671af	0.9626722
173	0x3f86b854	1.0525002
174	0xbdf58fb8	-0.11990303
175	0x4061fb02	3.5309453
176	0x3ef988e4	0.48737252
177	0x406838a4	3.628457
178	0xbd0e0715	-0.034674723
179	0x3ea2ed12	0.31821495
180	0xbe467bcd	-0.19383164
181	0xc08c7207	-4.3889194
182	0x3f094a19	0.5362869
183	0x406c97f3	3.6967742
184	0xbe0d9ac1	-0.13828565
185	0xbeaae388	-0.33376718
186	0x3b73532d	0.0037128434
187	0x3e6ceadf	0.23136471
188	0x3f6ef09f	0.9333591
189	0x3fd3dca5	1.655171
190	0xbd8ac5ee	-0.06776033
191	0x3e895a32	0.26826626
192	0xbd4ea78e	-0.05045276
193	0x406b5d2b	3.6775615
194	0xbe8fc3c1	-0.28079036
195	0x3f2a345f	0.6648616
196	0x3e947339	0.28994158
197	0x406c0caf	3.6882741
198	0xbe01af2e	-0.12664482
199	0x3ee95bd4	0.45577872
200	0xbd3a3721	-0.04546273
201	0x3ee5f4b9	0.4491327
202	0x3c66ae53	0.014079648
203	0xbe437e91	-0.1909125
204	0x3df3a440	0.118965626
205	0x406a4660	3.6605453
206	0xbd9fbc77	-0.07799619
207	0x3ef06b64	0.46956933
208	0xbd9bb6af	-0.076032035
209	0x3df54fc4	0.11978105
210	0x3d4dafe4	0.05021657
211	0xbdb24658	-0.08704823
212	0xbeceed16	-0.40415257
213	0xc063a95c	-3.5572119
214	0xbed0aa7e	-0.40755075
215	0xc01bccba	-2.4343705
216	0x3f4b17d3	0.7933323
217	0x4013b243	2.3077552
218	0xbe07be4b	-0.13256185
219	0xbea4aa35	-0.32161108
220	0xbed7259e	-0.42020887
221	0x40129a6f	2.2906759
222	0xbe657d2d	-0.22411032
223	0x3e195f40	0.14977741
224	0xbede814c	-0.4345802
225	0x400be69c	2.1859503
226	0x3de1807f	0.11010837
227	0x4075e76e	3.8422503
228	0xbe9c934e	-0.30581135
229	0xc0627c98	-3.5388546
230	0xbef34bcd	-0.4751877
231	0x3fab13a3	1.3365368
232	0xbb1bf0fd	-0.0023794763
233	0x3dc66adc	0.096883506
234	0x3c91d056	0.017799538
235	0x3dd406ad	0.10352836
236	0xbed2b325	-0.411523
237	0x40221e83	2.5331123
238	0x3c95304f	0.018211512
239	0x40621a8c	3.5328703
240	0xbe532aa5	-0.20621736
241	0x3f2d116d	0.67604715
242	0x3f3dd318	0.7415023
243	0x40660197	3.593847
244	0xbe46bbc2	-0.19407561
245	0x3f15ad94	0.58467984
246	0x3e31aeea	0.1735188
247	0x40771b33	3.861035
248	0x3f70c6ca	0.9405333
249	0x40077d3a	2.1170182
250	0xbed16cf2	-0.4090343
251	0x4020e19c	2.51377
252	0x3f83b7d5	1.0290476
253	0x3fe6f66d	1.8043953
254	0x3dbef523	0.093241
255	0x406d02c3	3.7032936

fc1.bias f4 [128]
0	0x3ead5c61	0.33859542
1	0x3e6e0327	0.2324339
2	0xbcf488c2	-0.029850367
3	0x3ea1e547	0.31620237
4	0xbc881080	-0.01660943
5	0x3e7464a8	0.23866522
6	0x3ec45a6e	0.38350242
7	0x3ea34b33	0.3189331
8	0x3ea6736c	0.32509935
9	0x3e899608	0.26872277
10	0xbdb46353	-0.08808007
11	0x3eb51f67	0.3537552
12	0x3eae8769	0.34087685
13	0x3ead9ed4	0.3391024
14	0x3eaa6581	0.33280566
15	0xbe824127	-0.25440332
16	0x3db13ca6	0.08654146
17	0x3ea541d2	0.3227678
18	0x3ea06fbd	0.3133525
19	0xbc66d850	-0.014089659
20	0x3e91158a	0.28336746
21	0x3eb2480c	0.34820592
22	0xbd0bb5ba	-0.034108855
23	0x3ecacd79	0.39609888
24	0xbdf2c67a	-0.11854263
25	0x3ebff625	0.3749248
26	0x3e720b2b	0.23637073
27	0xbd8ed526	-0.069742486
28	0xbdb2fe85	-0.08739952
29	0x3e4c74ca	0.19966426
30	0x3ec92055	0.3928248
31	0xbde543f2	-0.111946
32	0xbccb6b2e	-0.02483138
33	0x3ea4a719	0.32158735
34	0x3ea8cf2c	0.3297056
35	0xbd9d2036	-0.076721594
36	0x3eb6f49f	0.35733506
37	0xbdc0e60a	-0.094188765
38	0xbdb3869f	-0.08765911
39	0xbc4a2af8	-0.012339346
40	0xbd9d3fa5	-0.07678155
41	0x3eb6a951	0.35676053
42	0x3e9fd203	0.31214914
43	0x3e5b5aea	0.214214
44	0x3ea362d2	0.3191133
45	0x3dfab1d3	0.122409485
46	0x3dc24b79	0.094870515
47	0x3e95abd1	0.29232648
48	0x3ea9405d	0.33056918
49	0x3c82c307	0.015962137
50	0x3ebe1ad0	0.3712983
51	0x3eafd655	0.3434321
52	0x3ea4dc1b	0.32199177
53	0x3e404cb7	0.18779264
54	0xbda38226	-0.07983808
55	0x3da2bcd4	0.07946172
56	0x3e9f724a	0.31141883
57	0x3ec5b4cc	0.386145
58	0xbdcc44fb	-0.099740945
59	0xbd953681	-0.072857864
60	0x3ecc9709	0.3995898
61	0x3ebe0d41	0.37119487
62	0x3e9bbcc3	0.3041745
63	0x3e8a3302	0.2699204
64	0xbe400492	-0.18751743
65	0x3d95fd54	0.07323709
66	0xbe3bd015	-0.18341096
67	0x3ece28cb	0.40265498
68	0x3dd69efd	0.10479543
69	0x3ec613e9	0.38687065
70	0x3ec958f6	0.39325684
71	0xbdaf0d19	-0.0854742
72	0x3b53f8e4	0.0032344395
73	0xbd8d9301	-0.069128044
74	0x3ea6a766	0.3254959
75	0xbd49c217	-0.049257364
76	0xbdd2df10	-0.10296452
77	0x3eb7cab4	0.35896838
78	0x3e924ea2	0.28575617
79	0x3e72ab71	0.23698212
80	0x3e5df3dc	0.21675056
81	0x3ea98d1e	0.33115476
82	0xbd83e477	-0.064400606
83	0x3ea36565	0.31913295
84	0x3e94c4f2	0.29056507
85	0xbdc4c4e6	-0.09607868
86	0x3d85bcd0	0.06530154
87	0xbe14b57a	-0.14522353
88	0xbddb2033	-0.10699501
89	0x3eb49adc	0.35274398
90	0x3dc10e22	0.09426524
91	0xbdf89f33	-0.1213974
92	0x3e91271a	0.28350145
93	0x3ea027de	0.31280416
94	0x3e4e5e04	0.20153052
95	0x3ebdaf2c	0.37047708
96	0xbdecbf06	-0.11559872
97	0x3e8911f0	0.26771498
98	0xbdbbf506	-0.09177594
99	0x3eaf9086	0.3428995
100	0x3ea6fd8c	0.32615316
101	0xbc76a9de	-0.015055148
102	0xbd89c671	-0.06727303
103	0x3e7ff3af	0.24995302
104	0x3ea40291	0.32033208
105	0x3eca0745	0.3945867
106	0x3dc5e537	0.0966286
107	0x3d54d17a	0.051957585
108	0x3e355216	0.17707095
109	0x3ea5c280	0.32374954
110	0x3d9ea406	0.07746129
111	0x3e943e97	0.28954002
112	0x3d92ffb6	0.07177679
113	0xbd8a39e6	-0.067493245
114	0x3dbdd6ab	0.0926946
115	0x3e6280e7	0.22119485
116	0x3eed1a0e	0.4630894
117	0x3eb47111	0.35242513
118	0xbe99e66f	-0.3005862
119	0x3c329594	0.01089992
120	0x3e9da6ca	0.30791312
121	0xbe144851	-0.14480712
122	0x3e9ad71c	0.3024224
123	0xbda2d92d	-0.07951579
124	0x3e8acf07	0.27111074
125	0x3da3a2f9	0.07990069
126	0x3ea4772e	0.32122177
127	0xbd77549f	-0.060383435

fc2.weight f4 [128, 128]
0	0xbd83171a	-0.06400891
1	0xbd85c1ed	-0.06531129
2	0x3d6f40fa	0.058411576
3	0xbdbabb6e	-0.091177806
4	0x3da9213b	0.08258291
5	0x3dcd733a	0.10031743
6	0x3d99ebda	0.07515688
7	0xbdac142e	-0.084022865
8	0x3e138b82	0.14408687
9	0x3d6eee53	0.058332752
10	0xbe19d8fe	-0.15024182
11	0xbe1745be	-0.14772698
12	0x3d5e4ca2	0.0542723
13	0x3d90a48c	0.07062635
14	0x3e07fd14	0.13280135
15	0x3df2ae02	0.118495956
16	0x3dc2b058	0.09506291
17	0xbd3cad25	-0.04606356
18	0xbc2a2d67	-0.010386801
19	0xbdc46031	-0.095886596
20	0x3ba734d6	0.005102734
21	0x3d04731a	0.032336332
22	0x3d8f0537	0.069834165
23	0x3d0139fd	0.031549443
24	0x3ce39675	0.027781704
25	0x3906eeb5	0.00012868161
26	0xbdf5c2c1	-0.12000037
27	0xbd88a6dc	-0.06672451
28	0xbd11806a	-0.035522856
29	0x3d27a0ff	0.040925022
30	0x3bc23102	0.0059262523
31	0xbdb065f9	-0.086132
32	0xbd91d27c	-0.07120225
33	0xbd1ae78a	-0.03781847
34	0x3e05af63	0.13055186
35	0x3dd12704	0.1021252
36	0xbe06b986	-0.13156709
37	0xbda9ec14	-0.082969815
38	0x3d696e0a	0.056989707
39	0xbd5812b4	-0.05275221
40	0xbd438d3d	-0.047742117
41	0xbdff60aa	-0.12469609
42	0xbc8030a8	-0.015648201
43	0x3d5853c5	0.052814264
44	0x3e0b1b24	0.13584572
45	0xbd2a2c63	-0.041546237
46	0xbd781728	-0.06056896
47	0x3ce7d148	0.028298035
48	0x3c46dcd2	0.012137609
49	0x3c980b15	0.018559972
50	0xbe1172c9	-0.14203943
51	0x3df4cfda	0.11953707
52	0xbaec9926	-0.0018051013
53	0xbc5746ff	-0.013139485
54	0xbd4ad359	-0.049517963
55	0xbe107769	-0.14108051
56	0xbd4f5975	-0.050622422
57	0xbe0feb19	-0.14054526
58	0x3d81006f	0.06298911
59	0xbda47cdb	-0.08031627
60	0xbe0e36a3	-0.1388803
61	0xbd9ed69f	-0.077557795
62	0x3d755287	0.059893157
63	0xbdae7ea8	-0.085202515
64	0xbdf24f7c	-0.11831567
65	0xbd769cff	-0.060208317
66	0x3e135e32	0.14391401
67	0x3dad4419	0.08460254
68	0x3d15ff3c	0.036620364
69	0xbd216fe3	-0.039413344
70	0xbd7fdf65	-0.062468905
71	0x3d0097f5	0.031394918
72	0x3de17847	0.11009269
73	0xbdf1e3a4	-0.11810997
74	0x3df40416	0.11914842
75	0xbe16e47f	-0.14735602
76	0xbe0db649	-0.13839068
77	0xbe15854a	-0.14601627
78	0x3d4af0d1	0.049546067
79	0x3bcdfe74	0.0062864367
80	0x3d1c5af6	0.038172685
81	0xbde601e4	-0.11230829
82	0xbdbd5ddf	-0.0924642
83	0x3d84350f	0.064554326
84	0x3ddfa9b2	0.10921039
85	0xbe03846a	-0.1284348
86	0x3c0b522e	0.00850348
87	0xbc2685b2	-0.010163711
88	0xbd18a8e2	-0.037270434
89	0x3d58defd	0.052947033
90	0xbdef05cc	-0.116710275
91	0x3d9a00c2	0.07519676
92	0xbd743578	-0.059621304
93	0x3dd39f17	0.10333078
94	0xbd1b7979	-0.037957642
95	0x3ddbc8f2	0.10731687
96	0xbdd16d66	-0.10225944
97	0xbe0e546a	-0.13899389
98	0x3e1a1fc0	0.15051174
99	0xbd54f81d	-0.05199443
100	0x3aa9fbcd	0.0012968719
101	0x3de59064	0.11209181
102	0x3e0c0288	0.1367284
103	0x3d039e48	0.03213337
104	0xbe1246b6	-0.14284787
105	0xbdc253a3	-0.09488609
106	0x3dc326de	0.09528898
107	0x3d46e7a2	0.048560746
108	0x3daa4d09	0.083154745
109	0xbd6b6294	-0.05746706
110	0xbe116ded	-0.1420209
111	0xbcc907b4	-0.024539806
112	0x3d7ac053	0.06121857
113	0x3ddae542	0.10688259
114	0xbdd038ab	-0.101670586
115	0xbd99d427	-0.07511168
116	0x3e02c9ef	0.12772344
117	0x3e00a343	0.1256228
118	0x3e18124e	0.14850733
119	0x3ddfbb50	0.10924399
120	0x3d27f5ca	0.041005887
121	0xb9bda4e3	-0.0003617174
122	0xbde92db4	-0.1138567
123	0xbd6171f1	-0.055040304
124	0xbe199f38	-0.15002143
125	0x3dccb742	0.09995891
126	0x3dc162e8	0.09442693
127	0x3d8d5e10	0.069027066
128	0x3e1abc89	0.15110983
129	0x3d0630dc	0.03276144
130	0x3e055d04	0.13023764
131	0x3e703e28	0.2346121
132	0x3d04853a	0.032353617
133	0x3ddcf976	0.107897684
134	0x3e176b9d	0.14787145
135	0x3e3fa54b	0.18715398
136	0x3e2a5162	0.16632608
137	0x3ea2f9fe	0.31831354
138	0xc00c2251	-2.1895945
139	0x3e794d4f	0.24345897
140	0x3ea8c413	0.32962093
141	0x3df1dabe	0.118093
142	0x3e987081	0.29773334
143	0xc046e6cd	-3.107837
144	0xbf3add6a	-0.729941
145	0x3e8c297c	0.273754
146	0x3e2b9b07	0.16758357
147	0x3dbde352	0.092718735
148	0x3e8e095a	0.2774151
149	0x3e862247	0.26198027
150	0x3e160d52	0.14653519
151	0x3e785420	0.24250841
152	0xc02d57bd	-2.7084801
153	0xbc16a125	-0.009193693
154	0x3d88cd83	0.06679823
155	0xc0185b5d	-2.3805764
156	0xc01ea2c3	-2.4786842
157	0x3e7f70ac	0.24945325
158	0x3e641e9c	0.22277302
159	0xbfc2b6a4	-1.5211987
160	0x3e110e4a	0.14165607
161	0x3e1eddb7	0.15514265
162	0x3d8c70f2	0.0685748
163	0xc00d2caf	-2.2058523
164	0x3dd800d5	0.10547034
165	0xbfd7b843	-1.6853107
166	0xc005943c	-2.0871725
167	0xbd589bb0	-0.05288285
168	0xc01e44e6	-2.4729552
169	0x3e9206f0	0.28520918
170	0x3e5b5fde	0.21423289
171	0x3e19becd	0.15014191
172	0x3d786a83	0.060648452
173	0x3e4cfdf7	0.20018755
174	0xbf53f2db	-0.82792443
175	0x3d8d7972	0.069079295
176	0x3d8747e8	0.06605512
177	0x3ec42439	0.38308886
178	0x3eb7e3f1	0.35916093
179	0x3dcf648f	0.10126602
180	0x3e9d7852	0.3075586
181	0x3db9a413	0.09064498
182	0xc010eba7	-2.264383
183	0x3e590237	0.21192251
184	0xbdaf3508	-0.08555037
185	0x3cef1911	0.029186757
186	0xbfeed8cd	-1.8659912
187	0xc006c896	-2.1059928
188	0x3dcce7cd	0.1000515
189	0x3e6f7135	0.23383029
190	0x3d8fda5d	0.07024071
191	0x3e940129	0.28907135
192	0xc028e2df	-2.638847
193	0x3d407d0b	0.04699425
194	0xbfca5dcc	-1.5809875
195	0x3ec6e107	0.38843557
196	0x3ea0b9c1	0.3139172
197	0x3e9eda86	0.31026095
198	0x3dfd522d	0.123691894
199	0xc00a5277	-2.1612833
200	0x3e9f99f6	0.3117215
201	0xc014f76e	-2.327602
202	0x3d18a96f	0.03727096
203	0x3ed0f47b	0.40811524
204	0xc03374e9	-2.8040106
205	0x3e989da3	0.29807767
206	0x3e35acfa	0.17741767
207	0x3dedfe21	0.11620737
208	0x3ddab7f4	0.106796175
209	0x3e90e2ae	0.28297943
210	0xc0170345	-2.3595746
211	0x3eaffe86	0.34373873
212	0x3e23a4f1	0.15980889
213	0xbfeb1aaa	-1.8367512
214	0x3e23057d	0.15920062
215	0xc03dd3f0	-2.9660606
216	0xbfba5edf	-1.4560202
217	0x3ea29758	0.3175609
218	0xbf335396	-0.70049417
219	0xbfbc20af	-1.4697474
220	0x3e877927	0.2645962
221	0x3e1a91cb	0.15094678
222	0x3dcd3e18	0.10021609
223	0x3d9e99fa	0.077442124
224	0xc032e39c	-2.7951422
225	0x3dafcfc7	0.08584552
226	0xbfe0b100	-1.7554016
227	0x3dfcd2fc	0.123449296
228	0x3ead2698	0.33818507
229	0x3e044ae5	0.12919195
230	0xc00ff38c	-2.24924
231	0x3e72d894	0.2371543
232	0x3e9de07c	0.3083533
233	0x3e8c6743	0.27422532
234	0xbef39c0a	-0.47579986
235	0xbcbf2137	-0.023331268
236	0x3e7700b2	0.24121359
237	0x3e851987	0.25996038
238	0x3cde3200	0.027123451
239	0x3e10a7ee	0.1412656
240	0x3e8c8984	0.27448666
241	0xc01ba4b9	-2.4319289
242	0xbf0f8bfa	-0.5607296
243	0x3dcf862e	0.101330146
244	0x3eda2ac5	0.42610756
245	0x3e9f7bd9	0.31149176
246	0xc0170352	-2.3595777
247	0xbfeef8ee	-1.8669717
248	0x3def5a9e	0.11687206
249	0xbfaa877b	-1.3322595
250	0x3e3316da	0.17489186
251	0xc0185e58	-2.3807583
252	0x3e12c7b0	0.14333987
253	0x3ba691a2	0.0050832788
254	0x3e9eb0b7	0.30994198
255	0xc017a596	-2.3694816

fc2.bias f4 [128]
0	0x00000000	0.0
1	0x3e3575a9	0.17720665
2	0x3e1e575c	0.15463012
3	0x00000000	0.0
4	0x3e37a00a	0.17932144
5	0xbce02ad0	-0.027364165
6	0xbc32e862	-0.010919662
7	0xbbb49c78	-0.0055118166
8	0x3e363f73	0.17797641
9	0x3e802b46	0.25033015
10	0x00000000	0.0
11	0xbcbb03c0	-0.022828937
12	0xbdc57b80	-0.096426964
13	0x3e50a578	0.20375621
14	0x3e33371e	0.17501494
15	0xbd087582	-0.03331519
16	0x00000000	0.0
17	0x3e23f4eb	0.16011398
18	0x00000000	0.0
19	0x3e22e431	0.1590736
20	0xbc2245f2	-0.009904372
21	0x00000000	0.0
22	0x3e2ded2a	0.16985002
23	0x00000000	0.0
24	0xbc80a6f1	-0.015704604
25	0x00000000	0.0
26	0x3e045cb3	0.12925987
27	0xbdb74aa2	-0.08949782
28	0xbaea36ee	-0.0017869154
29	0xbbcac9e8	-0.00618862
30	0x3e5f96ff	0.21834944
31	0xbbd42782	-0.0064744363
32	0x3e7c4a32	0.24637678
33	0xbc4aaa28	-0.01236967
34	0xbb059457	-0.0020382607
35	0x3e4c87e4	0.19973713
36	0xbd0735ec	-0.03301041
37	0xbc564802	-0.013078691
38	0x3e8d4e47	0.27598783
39	0x00000000	0.0
40	0xbc36a130	-0.0111468285
41	0xbc2ecccb	-0.010668944
42	0x3edd3b3c	0.43209255
43	0x3e249cd6	0.16075453
44	0xbc189139	-0.0093119675
45	0xbc021e3a	-0.007941777
46	0xbe0c611f	-0.13708924
47	0x3e321427	0.173905
48	0xbc97ce2c	-0.018530928
49	0x3eb9a60c	0.36259496
50	0x00000000	0.0
51	0x00000000	0.0
52	0xbba8e2c0	-0.005153984
53	0xbdb87574	-0.090067774
54	0xbc0926f6	-0.008371105
55	0x3e434800	0.19070435
56	0x00000000	0.0
57	0x3e982e5c	0.2972287
58	0x00000000	0.0
59	0x3e33662a	0.17519441
60	0x3e45743d	0.19282623
61	0x3e23952f	0.15974878
62	0xbd08a845	-0.0333636
63	0x3ed7a9be	0.4212169
64	0x3e381354	0.17976123
65	0xbdc49484	-0.095986396
66	0x00000000	0.0
67	0xbb275c5f	-0.0025537235
68	0x3e59ec0b	0.2128145
69	0x3e699b1e	0.22813079
70	0xbd1d2997	-0.03836974
71	0xbc05a92d	-0.00815801
72	0xbcaf7d6f	-0.021422116
73	0x3e276cdf	0.16350125
74	0x3e47d183	0.19513516
75	0xbc299e10	-0.010352626
76	0xbc3597b3	-0.011083531
77	0xbc4f3c84	-0.012648705
78	0x3e218223	0.157723
79	0xbdc7adf5	-0.097499765
80	0xbdc4360a	-0.0958062
81	0x3e8f94e6	0.28043288
82	0x3e5aa08e	0.21350309
83	0xbaffa747	-0.0019504809
84	0xbc6a98e8	-0.014318682
85	0x3ec1bd70	0.37839842
86	0xbdbb44db	-0.091439925
87	0x00000000	0.0
88	0x3e978bbd	0.295988
89	0x00000000	0.0
90	0x3e30c29c	0.17261738
91	0xbc814587	-0.015780224
92	0xbdaba358	-0.08380765
93	0x00000000	0.0
94	0x00000000	0.0
95	0xbbdfa11b	-0.006824625
96	0x3e62ff65	0.22167738
97	0x00000000	0.0
98	0x3e7e1529	0.2481276
99	0x3e2f73f3	0.17134075
100	0xbc12268a	-0.008920321
101	0x00000000	0.0
102	0xbc02e334	-0.00798874
103	0x00000000	0.0
104	0xbc39e6b3	-0.011346507
105	0x00000000	0.0
106	0x00000000	0.0
107	0xbdc2b569	-0.095072575
108	0x3e98aa72	0.2981754
109	0xbc193542	-0.009351077
110	0xbce73d6b	-0.028227529
111	0x00000000	0.0
112	0x00000000	0.0
113	0xbc844598	-0.016146466
114	0xbc2631ce	-0.01014371
115	0x3e511c74	0.2042101
116	0xbcc0baf6	-0.02352665
117	0x00000000	0.0
118	0x3e8a28c4	0.26984227
119	0xbc9eab6d	-0.019368852
120	0xbcb3e95a	-0.021961857
121	0xbc37ffa7	-0.011230386
122	0x00000000	0.0
123	0xbc03f803	-0.008054736
124	0x3e39a958	0.18131006
125	0x00000000	0.0
126	0xbba5b09a	-0.005056453
127	0x3e391f6c	0.18078393

fc3.weight f4 [3, 128]
0	0x3e35f93d	0.17770858
1	0xbee09636	-0.43864602
2	0xbf2f17bd	-0.68395597
3	0x3d7f0488	0.06226018
4	0xbeb4ef87	-0.35338995
5	0xbe1cf573	-0.15328006
6	0xbc061de4	-0.008185837
7	0x3e261bab	0.16221492
8	0xbf1c480f	-0.6104745
9	0xbed74ab4	-0.4204918
10	0x3e1654c4	0.14680773
11	0xbdb8c7f7	-0.09022515
12	0x40254211	2.5821574
13	0xbe7d0ce6	-0.24711952
14	0xbecda869	-0.4016755
15	0xbd85c5bf	-0.06531858
16	0xbde7c5ff	-0.11317062
17	0xbcd6a53d	-0.026201839
18	0xbe3a4d62	-0.18193582
19	0xbed3313b	-0.41248497
20	0xbe2843e0	-0.16432142
21	0x3d8d7dcb	0.06908759
22	0xbead0a2d	-0.33796826
23	0x3e214d28	0.15752089
24	0x3e267277	0.16254602
25	0xbe55222d	-0.20813818
26	0xbbf47117	-0.0074597704
27	0x402182a4	2.5235987
28	0xbe10b40e	-0.14131185
29	0x3e55e833	0.20889358
30	0xbf2e435b	-0.68071526
31	0x3e1ad995	0.15122063
32	0x3f8ec41a	1.1153595
33	0xbe2bf914	-0.16794235
34	0x3d040805	0.03223421
35	0xbf17ecde	-0.59345806
36	0xbe6d80ce	-0.23193666
37	0x3d83c576	0.06434147
38	0xbf27980e	-0.6546639
39	0xbdf3a61a	-0.11896916
40	0x3ddc029c	0.10742685
41	0xbd8682e8	-0.06567937
42	0xbf16ea51	-0.5895129
43	0xbf16d7bd	-0.5892294
44	0xbdd136f5	-0.1021556
45	0x3dd9104a	0.1059881
46	0x3fb3e518	1.4054289
47	0xbf276101	-0.6538239
48	0x3cd80569	0.026369767
49	0xbf102f71	-0.5632239
50	0xbd883052	-0.06649841
51	0xbdd85c66	-0.105644986
52	0x3e2e2900	0.17007828
53	0x40307b08	2.7575092
54	0x3d5a4a65	0.053293604
55	0xbea75d32	-0.3268829
56	0xbe128a23	-0.14310507
57	0xbf31ea67	-0.69498295
58	0x3e57e6ac	0.21084088
59	0xbf1e190e	-0.6175698
60	0xbf09152f	-0.5354795
61	0xbf1b8e48	-0.6076398
62	0xbe156e11	-0.14592768
63	0xbf242053	-0.6411182
64	0xbf334446	-0.7002605
65	0x402ef144	2.7334757
66	0xbceb70c7	-0.0287403
67	0xbe3b1969	-0.18271412
68	0xbf1feb1d	-0.6246813
69	0xbf2dba53	-0.67862433
70	0x3e24bfc5	0.1608878
71	0x3e4f085f	0.20218037
72	0x3dfff373	0.12497606
73	0xbefafe58	-0.49022174
74	0xbefb1092	-0.4903608
75	0xbdd387f8	-0.10328668
76	0x3e28ebf4	0.16496259
77	0x3dce49f5	0.100727
78	0x3fa6bbef	1.3026103
79	0x40289b89	2.634493
80	0x402e38b3	2.7222106
81	0xbf3c29db	-0.73501366
82	0xbf108de1	-0.5646649
83	0xbdd9169e	-0.10600017
84	0xbdd24b1b	-0.102682315
85	0xbf165d84	-0.58736444
86	0x402d4f20	2.7079544
87	0x3e01ec0c	0.12687701
88	0xbf26da78	-0.65177107
89	0xbe563530	-0.20918727
90	0xbecbe251	-0.39821103
91	0x3e0e8618	0.1391834
92	0x402d8f63	2.7118766
93	0xbe14d294	-0.14533454
94	0x3e0be3a8	0.13661063
95	0xbe395017	-0.18096958
96	0xbf0e640c	-0.5562141
97	0xbe4cb18b	-0.19989602
98	0xbf1d015b	-0.61330193
99	0xbf0f9732	-0.5609008
100	0xbe3203eb	-0.17384307
101	0xbddd0182	-0.10791303
102	0x3dfd291e	0.12361358
103	0xbdd7d93c	-0.10539481
104	0x3cb9451d	0.022615964
105	0xbe4d9a68	-0.20078433
106	0x3d375f4e	0.044768624
107	0x402b20b2	2.6738706
108	0x3ee0bafe	0.43892664
109	0x3de79027	0.11306792
110	0x3bafd328	0.005365748
111	0x3d9e7973	0.07738008
112	0xbd68f82e	-0.056877308
113	0x3e09ed3d	0.13469405
114	0xbdde3bd4	-0.10851255
115	0xbed06ddd	-0.4070882
116	0xbcce729b	-0.025201133
117	0x3d91bb93	0.07115855
118	0xbefd5457	-0.4947841
119	0x3e3923e9	0.18080105
120	0x3db1d77e	0.0868368
121	0x3de7c409	0.113166876
122	0x3d54eea4	0.051985398
123	0x3d804284	0.06262687
124	0xbf199cb6	-0.60004747
125	0x3de44432	0.1114582
126	0x3d2d6668	0.04233399
127	0xbf0baa7d	-0.5455702
128	0x3c82cb11	0.01596597
129	0xbedc0821	-0.42974952
130	0xbe96697d	-0.29377356
131	0x3dffccea	0.12490256
132	0xbf0f3524	-0.5594046
133	0x3e58a52a	0.21156755
134	0xbd06b04d	-0.032882977
135	0x3e168c2c	0.14701909
136	0xbf128efd	-0.5724943
137	0xbf0d3303	-0.5515596
138	0xbcd0c9fe	-0.025486942
139	0x3e2760ca	0.16345516
140	0x401b185c	2.4233618
141	0xbf1b0bba	-0.6056477
142	0xbf1d4abb	-0.61442155
143	0x3e4d3609	0.20040144
144	0x3e3436df	0.17599057
145	0xbd9ae905	-0.07563976
146	0x3dc14d1f	0.09438538
147	0xbef4e1a5	-0.47828403
148	0xbdddfa70	-0.10838783
149	0xbe3f2b5b	-0.18668883
150	0xbeddae79	-0.43297175
151	0x3df8087e	0.12110995
152	0xbb059e81	-0.0020388665
153	0x3e49aa2e	0.19693825
154	0xbed406a6	-0.41411322
155	0x4010708c	2.2568693
156	0x3e4ef940	0.20212269
157	0x3d0ab707	0.033865955
158	0xbee88978	-0.4541738
159	0xbe409c9b	-0.1880974
160	0x3fa20e13	1.2660545
161	0x3e347032	0.17620924
162	0xbc49bbba	-0.012312824
163	0xbeab4d2e	-0.3345732
164	0x3e2fd99e	0.17172858
165	0xbcb74cc7	-0.022375477
166	0xbf288c03	-0.6583864
167	0xbca4053a	-0.020022023
168	0x3e2f0383	0.17091183
169	0xbda04133	-0.07824936
170	0xbf3c584f	-0.7357225
171	0xbf2b0f6e	-0.6682042
172	0x3e3fbaec	0.18723649
173	0x3e16b566	0.14717636
174	0x3fb8a04f	1.4423922
175	0xbf02eea1	-0.5114537
176	0x3e06dd24	0.13170296
177	0xbf423f10	-0.75877476
178	0x3e23a5c8	0.1598121
179	0x3cece73f	0.02891886
180	0xbdf21fa9	-0.11822445
181	0x40175859	2.3647673
182	0xbdedb13e	-0.11606072
183	0xbf1f9906	-0.6234287
184	0x3dbab451	0.09116424
185	0xbf0fbc4b	-0.5614669
186	0x3e13028d	0.14356442
187	0xbf1c61c9	-0.6108671
188	0xbf1fd212	-0.62429917
189	0xbef2edde	-0.47447103
190	0x3e2e3be2	0.17015031
191	0xbf340250	-0.7031603
192	0xbe7a1763	-0.24422984
193	0x4032197c	2.7828054
194	0x3dddaa61	0.10823513
195	0x3e3d4c86	0.18486223
196	0xbf225d15	-0.6342328
197	0xbea9e0c2	-0.3317929
198	0xbe26acb4	-0.16276819
199	0xbe5770bc	-0.21039099
200	0x3d7917e2	0.060813792
201	0xbecde36e	-0.40212578
202	0xbf0e9461	-0.5569516
203	0x3e193cda	0.1496462
204	0x3dddc227	0.10828047
205	0xbde7721e	-0.11301063
206	0x3f990225	1.195378
207	0x4030a306	2.7599502
208	0x4015ddb6	2.3416572
209	0xbf16f80a	-0.5897223
210	0xbf1ade4c	-0.6049545
211	0x3e047ddb	0.12938635
212	0x3d31a7d3	0.04337294
213	0xbf14a26b	-0.5806033
214	0x4025a0c6	2.5879378
215	0xbe2b3294	-0.16718513
216	0xbf1cab87	-0.6119923
217	0x3dd25d23	0.10271671
218	0xbee2b51b	-0.44278798
219	0x3cbb4fa3	0.022865122
220	0x402b2666	2.6742187
221	0x3debb572	0.11509217
222	0xbc45a4d3	-0.012063223
223	0x3e2354de	0.15950343
224	0xbf055486	-0.520821
225	0xbe1aece1	-0.15129425
226	0xbed351ba	-0.4127329
227	0xbefe1b9f	-0.49630448
228	0xbe37a549	-0.17934145
229	0xbc98d31c	-0.018655352
230	0xbe2cc1ac	-0.16870755
231	0x3dd45e16	0.10369508
232	0x3e1138c5	0.14181812
233	0x3ddacc24	0.10683468
234	0x3df132e9	0.117772885
235	0x4031cfd6	2.7783103
236	0x3ec72ca9	0.3890126
237	0x3dc6035d	0.0966861
238	0x3e6fd9f3	0.23422985
239	0xbdbca4ca	-0.092111185
240	0xbddabd74	-0.106806666
241	0x3d76bff6	0.060241662
242	0x3dc0de5e	0.09417413
243	0xbe9c713a	-0.30555135
244	0x3e4122d2	0.18860939
245	0xbe582566	-0.21108016
246	0xbf2dad73	-0.6784279
247	0x3e09e89d	0.13467641
248	0xbe28f0bf	-0.16498087
249	0x3dc6f480	0.097146034
250	0x3d507425	0.050892014
251	0x3e4d013a	0.20019999
252	0xbf031a1b	-0.5121171
253	0x3e28b74d	0.16476174
254	0x3d92bdc4	0.07165101
255	0xbf0f98b9	-0.5609241

fc3.bias f4 [3]
0	0xbe322e3e	-0.17400452
1	0xbe46e381	-0.19422723
2	0x3e1f6f81	0.15569879

fc1.weight f4 [128, 2]
0	0xbd903a23	-0.07042339
1	0xbe1607d5	-0.14651425
2	0xbea59afb	-0.32344803
3	0x3e990691	0.29887822
4	0x3d483400	0.048877716
5	0x3dc58ea8	0.0964635
6	0xbdf25b34	-0.11833802
7	0x3e37dc0e	0.17955038
8	0x3bfb819b	0.0076753623
9	0x3e04d38c	0.12971324
10	0xbdc54d40	-0.09633875
11	0x3ec71b39	0.38887957
12	0xbcc7646f	-0.024339883
13	0x3eecab22	0.46224314
14	0xbe56a209	-0.20960249
15	0x3e76524f	0.24054836
16	0xbe11c0a4	-0.14233643
17	0xbcabb1ef	-0.020958869
18	0xbe881424	-0.26577866
19	0x3f134bd1	0.5753756
20	0x3e5643a2	0.20924237
21	0x4081752a	4.0455523
22	0xbdd9e7f2	-0.10639943
23	0x3dbe77ca	0.09300192
24	0xbd47547d	-0.04866456
25	0x3e1c503b	0.1526498
26	0xbdaa4d1c	-0.08315489
27	0x3e16e06c	0.14734048
28	0xbdd1b96b	-0.10240444
29	0x3c86eb9e	0.016469773
30	0xbea6103c	-0.3243426
31	0x404fd529	3.2473853
32	0xbe93a9e7	-0.28840563
33	0xc04bd57c	-3.184905
34	0xbe20c3eb	-0.15699737
35	0x3ef7e2bb	0.4841517
36	0xbc7f5ef2	-0.015586602
37	0x3eb909c8	0.36140275
38	0x3cb71dc7	0.022353066
39	0x3d560199	0.052247617
40	0xbe57213b	-0.2100877
41	0xbddb6e95	-0.10714451
42	0x3ca5b05e	0.0202257
43	0x3d851d02	0.064996734
44	0x3f5369dd	0.8258341
45	0x3ede23f0	0.43386793
46	0xbd07fdf0	-0.033201158
47	0xbd81a410	-0.063301206
48	0xbd91f7f6	-0.07127373
49	0x4060cfa9	3.5126746
50	0x3eb9375d	0.3617505
51	0xbf500843	-0.81262606
52	0x3e5fcf02	0.21856311
53	0xbdc41fe8	-0.09576398
54	0x3e034b52	0.12821701
55	0x4068a20c	3.6348906
56	0x3e5375f9	0.20650472
57	0x40802fbc	4.005827
58	0xbe9435f3	-0.2894741
59	0x3f9839df	1.1892661
60	0x3c474e10	0.012164608
61	0xbe8a34cb	-0.26993403
62	0x3ee82028	0.45337033
63	0x40767586	3.850923
64	0x3cc684c0	0.024233222
65	0x3e46f9f0	0.19431281
66	0xbe148405	-0.14503486
67	0x3f3e517d	0.7434309
68	0x3ea142aa	0.31496173
69	0xbeef07fb	-0.46685776
70	0x3e52a25a	0.20569745
71	0x405995ec	3.3997755
72	0xbc271363	-0.010197493
73	0x3e3c0d7e	0.18364522
74	0x3e9c0baf	0.30477664
75	0x406f2f2a	3.7372537
76	0x3e737920	0.23776674
77	0x40787246	3.8819747
78	0xbb2a8656	-0.0026020012
79	0x3e35e60f	0.17763542
80	0x3d040d9f	0.032239553
81	0x406689c5	3.6021588
82	0xbd1c237a	-0.03811977
83	0x3e6a4d9e	0.22881171
84	0xbe820590	-0.2539487
85	0x3e27b852	0.16378906
86	0x3ce344d5	0.027742783
87	0x3f46f134	0.77711797
88	0xbc508c6a	-0.01272879
89	0x3df8b63a	0.12144132
90	0x3f6ad605	0.9173282
91	0x3fbb960f	1.4655169
92	0xbe86c045	-0.26318565
93	0xc07fe700	-3.9984741
94	0xbde329f9	-0.1109199
95	0x3e1c208c	0.1524679
96	0xbdca6f72	-0.09884538
97	0x3d7c1323	0.061541688
98	0x3df99a06	0.12187581
99	0xbf9b7bfb	-1.2147211
100	0x3bc988a7	0.0061503234
101	0x3edb9ac9	0.4289153
102	0xbe41a3b0	-0.18910098
103	0x3f4b7b5d	0.7948511
104	0xbe1acc67	-0.15117036
105	0xbe4733c9	-0.19453348
106	0x3f8bf776	1.0934894
107	0x3ff41771	1.9069654
108	0x3e2658ab	0.16244762
109	0x407e3d32	3.972485
110	0x3f5a328e	0.8523339
111	0x3fa221a0	1.2666512
112	0x3e92d1c8	0.28675675
113	0xbe05c126	-0.13061962
114	0x3ebe9fbf	0.37231252
115	0xbf32fedd	-0.6992014
116	0x3e9eacf8	0.3099134
117	0x407f6c1b	3.9909732
118	0x3e1c49f8	0.15262592
119	0x4066a0b5	3.6035588
120	0xbd67aaf2	-0.05655951
121	0x3f08a164	0.5337126
122	0xbc96e353	-0.018418944
123	0x3ecc1816	0.39862126
124	0xbdb179f5	-0.086658396
125	0x3d6c59df	0.057702895
126	0xbe5cd471	-0.21565415
127	0x3c44d272	0.012013065
128	0xbe617604	-0.22017676
129	0x403dc9f7	2.965452
130	0xbec895c0	-0.3917675
131	0x4013abad	2.3073533
132	0x3f4380be	0.7636832
133	0x4052ad9d	3.2918465
134	0xbc787549	-0.015164682
135	0x3eebef18	0.46080852
136	0x3f79491a	0.9737717
137	0x3f92dfa1	1.1474496
138	0x3d3b0438	0.04565832
139	0x3e63ee36	0.22258839
140	0xbc02c01b	-0.007980372
141	0x3e51a7fb	0.20474236
142	0x3e80c33b	0.2514895
143	0x4064f346	3.5773482
144	0x3f54d276	0.8313364
145	0x3f205787	0.62633556
146	0x3e04710c	0.12933749
147	0x406491d6	3.5714011
148	0x3e9ebfad	0.31005612
149	0xbed023cf	-0.4065232
150	0x3f318bc5	0.69353896
151	0xbe1fc237	-0.15601431
152	0xbc96952e	-0.018381681
153	0x406ab141	3.6670687
154	0xbd11df7c	-0.035613522
155	0x3e3e9b0a	0.1861383
156	0xbdeed870	-0.11662376
157	0x3ea186c5	0.31548133
158	0xbe8dc73d	-0.2769107
159	0x3f617256	0.8806509
160	0x3f84768e	1.034868
161	0x3fd1bb96	1.6385372
162	0xbd2e328f	-0.042528685
163	0x3e16c5e9	0.14723934
164	0x3d871252	0.06595291
165	0x4069375a	3.6440034
166	0x3d409a52	0.04702217
167	0xbe6243fd	-0.22096248
168	0x3e697ba9	0.22801079
169	0x3f1d7567	0.61507267
170	0x3ea625f5	0.32450834
171	0x40689884	3.6343088
172	0x3f729302	0.94755566
173	0x3f824cfa	1.0179741
174	0xbdf911ad	-0.121615745
175	0x40603505	3.503236
176	0x3ef94d81	0.48691943
177	0x4065b2c3	3.5890357
178	0xbd0afbf9	-0.033931706
179	0x3e9acc5d	0.30234042
180	0xbe4667e6	-0.19375572
181	0xc08b970d	-4.362189
182	0x3f08d7ae	0.534541
183	0x406a16de	3.6576457
184	0xbe0d6cf8	-0.138111
185	0xbeabed4c	-0.3357948
186	0x3b90b184	0.0044156928
187	0x3e5efccc	0.21776122
188	0x3f6c0720	0.9219837
189	0x3fcf7f6c	1.6210761
190	0xbd89af92	-0.067229405
191	0x3e7fc502	0.24977496
192	0xbd4a76ef	-0.04942983
193	0x4069c826	3.652841
194	0xbe8dbb09	-0.2768176
195	0x3f242c00	0.6412964
196	0x3e9348d7	0.2876651
197	0x4069ec08	3.6550312
198	0xbe00082f	-0.12503122
199	0x3ee1c296	0.4409377
200	0xbd36b06b	-0.04460184
201	0x3edc39f8	0.43012977
202	0x3c66af22	0.014079841
203	0xbe437f50	-0.19091535
204	0x3df0461f	0.117321245
205	0x40688b39	3.6334975
206	0xbd9dfc56	-0.07714145
207	0x3ee812d2	0.4532686
208	0xbd9a7fc6	-0.07543902
209	0x3dd7d56d	0.105387546
210	0x3d4c9bd9	0.049953315
211	0xbdcafd08	-0.09911543
212	0xbece6b6c	-0.4031633
213	0xc061fc10	-3.5310097
214	0xbecfbce6	-0.40573806
215	0xc01a0d24	-2.407052
216	0x3f490253	0.7851917
217	0x4011a367	2.2755983
218	0xbe081d84	-0.1329251
219	0xbea95366	-0.3307144
220	0xbed163b2	-0.40896374
221	0x40113b2e	2.269237
222	0xbe6393f6	-0.22224411
223	0x3e0518dd	0.12997766
224	0xbed87e01	-0.42283633
225	0x400b2229	2.17396
226	0x3ddf5167	0.10904198
227	0x407433ae	3.8156543
228	0xbe9c38d6	-0.30512112
229	0xc060d2ad	-3.5128586
230	0xbeee5d33	-0.4655548
231	0x3fa7bda6	1.3104751
232	0xbad77e08	-0.0016440758
233	0x3daae9a2	0.08345343
234	0x3c90ce53	0.017676508
235	0x3db5dd5d	0.08880112
236	0xbed05e1c	-0.406968
237	0x4021cff7	2.5283182
238	0x3c8dc6a7	0.017306639
239	0x40606b0e	3.506534
240	0xbe4fedc3	-0.20305543
241	0x3f28649a	0.65778506
242	0x3f3c7a05	0.7362369
243	0x4063b2e2	3.5577931
244	0xbe443baf	-0.19163392
245	0x3f101ba0	0.5629215
246	0x3e319bae	0.17344543
247	0x40754503	3.8323371
248	0x3f6f60a3	0.9350683
249	0x40056cfa	2.0847764
250	0xbecd59b6	-0.40107507
251	0x4020257b	2.5022876
252	0x3f82e92c	1.0227408
253	0x3fe2acc4	1.7708974
254	0x3dbdde70	0.09270942
255	0x406b50ab	3.6767986

fc1.bias f4 [128]
0	0x3eac4f87	0.33654425
1	0x3e6e2889	0.2325765
2	0xbcf48874	-0.029850222
3	0x3ea1a1f2	0.31568867
4	0xbc881075	-0.01660941
5	0x3e72e369	0.23719563
6	0x3ec3a8b2	0.38214642
7	0x3ea2aa2f	0.31770465
8	0x3ea6245b	0.32449612
9	0x3e896c79	0.2684057
10	0xbdb212f0	-0.08695018
11	0x3eb483bf	0.35256764
12	0x3eaddaf7	0.3395612
13	0x3ead4248	0.3383963
14	0x3ea980ce	0.33106083
15	0xbe809cd7	-0.2511966
16	0x3db0c302	0.08630945
17	0x3ea408ed	0.3203806
18	0x3ea04308	0.3130114
19	0xbc66d7c3	-0.014089528
20	0x3e905655	0.28190866
21	0x3eb1f2c1	0.3475552
22	0xbd13bbd8	-0.036067814
23	0x3ec9a5d9	0.39384344
24	0xbdf09c79	-0.11748595
25	0x3ebcc639	0.36869982
26	0x3e6b7ad7	0.22996078
27	0xbd8cdb02	-0.0687771
28	0xbdb04e42	-0.086086765
29	0x3e4d45ee	0.20046207
30	0x3ec82bdc	0.39095962
31	0xbde38e83	-0.11111166
32	0xbccb6aa9	-0.024831133
33	0x3ea3b378	0.3197286
34	0x3ea58613	0.32328853
35	0xbd9bc4ce	-0.07605897
36	0x3eb5d394	0.35512984
37	0xbdbf5a36	-0.09343378
38	0xbdb29f25	-0.08721761
39	0xbc4a2a59	-0.012339198
40	0xbd9e53d3	-0.07730832
41	0x3eb635ed	0.35588017
42	0x3e9ee1fe	0.31031793
43	0x3e595c34	0.21226579
44	0x3ea255e5	0.31706157
45	0x3df7c895	0.12098805
46	0x3dc14c23	0.0943835
47	0x3e9542ab	0.29152426
48	0x3ea80e89	0.3282359
49	0x3c48a136	0.012245467
50	0x3ebd9b99	0.37032774
51	0x3eaeff43	0.34179124
52	0x3ea42aef	0.32064006
53	0x3e419f8b	0.18908517
54	0xbda2c1c3	-0.07947113
55	0x3da2adf3	0.079433344
56	0x3e9b5b40	0.30343056
57	0x3ec2a115	0.3801352
58	0xbdc9b582	-0.09849073
59	0xbd9401f0	-0.07226932
60	0x3ecba887	0.39777014
61	0x3ebd8337	0.3701417
62	0x3e9aacb5	0.3020989
63	0x3e89e1c0	0.26930046
64	0xbe406723	-0.18789344
65	0x3d90065c	0.07032463
66	0xbe389d9b	-0.18028872
67	0x3ecdb91b	0.40180287
68	0x3dd5e164	0.104433805
69	0x3ec568a5	0.385564
70	0x3ec87b29	0.39156464
71	0xbdad564a	-0.08463724
72	0x3ab3cba2	0.0013717304
73	0xbd8bea09	-0.06831748
74	0x3ea32ef7	0.3187177
75	0xbd41b719	-0.047293756
76	0xbdd48633	-0.10377159
77	0x3eb6efda	0.35729867
78	0x3e922118	0.28540874
79	0x3e7272e3	0.23676638
80	0x3e5d9bc1	0.21641447
81	0x3ea92573	0.33036384
82	0xbd853410	-0.06504071
83	0x3ea2ac71	0.31772187
84	0x3e90fb52	0.28316742
85	0xbdc42cef	-0.09578883
86	0x3d875d54	0.06609598
87	0xbe151c87	-0.14561664
88	0xbdda40a2	-0.10656859
89	0x3eb3ab19	0.35091475
90	0x3dc05778	0.09391683
91	0xbdf5f854	-0.120102555
92	0x3e90b704	0.2826463
93	0x3e9f99a5	0.3117191
94	0x3e4d3576	0.20039925
95	0x3ebc8ad6	0.36824673
96	0xbdea0d25	-0.11428288
97	0x3e884472	0.2661472
98	0xbdb9e243	-0.09076359
99	0x3eaf3058	0.3421657
100	0x3ea5fd20	0.32419682
101	0xbc76a9c4	-0.015055124
102	0xbd88f2cc	-0.06686935
103	0x3e7e7e93	0.24852972
104	0x3ea32d54	0.3187052
105	0x3ec92dd3	0.39292774
106	0x3dc35144	0.095369846
107	0x3d4e1b9a	0.05031929
108	0x3e33a6aa	0.17544046
109	0x3ea4ab58	0.32161975
110	0x3d9a056e	0.07520567
111	0x3e932ea5	0.28746524
112	0x3d93309e	0.07187007
113	0xbd884fbe	-0.066558346
114	0x3dbd8124	0.09253147
115	0x3e64275b	0.22280638
116	0x3eec8ca0	0.46201038
117	0x3eb37108	0.35047174
118	0xbe9872bb	-0.29775032
119	0x3c1c61ca	0.009544799
120	0x3e9d7a32	0.3075729
121	0xbe11685a	-0.14199963
122	0x3e99eb66	0.30062407
123	0xbda15566	-0.078776166
124	0x3e885718	0.26628947
125	0x3da0e93e	0.078569874
126	0x3ea16144	0.3151952
127	0xbd74e39a	-0.05978737

fc2.weight f4 [128, 128]
0	0xbd83171a	-0.06400891
1	0xbd85c1ed	-0.06531129
2	0x3d6f40fa	0.058411576
3	0xbdbabb6e	-0.091177806
4	0x3da9213b	0.08258291
5	0x3dcd733a	0.10031743
6	0x3d99ebda	0.07515688
7	0xbdac142e	-0.084022865
8	0x3e138b86	0.14408693
9	0x3d6eee53	0.058332752
10	0xbe19d8fe	-0.15024182
11	0xbe1745be	-0.14772698
12	0x3d5e4ca2	0.0542723
13	0x3d90a48e	0.07062636
14	0x3e07fd14	0.13280135
15	0x3df2ae02	0.118495956
16	0x3dc2b058	0.09506291
17	0xbd3cad25	-0.04606356
18	0xbc2a2d67	-0.010386801
19	0xbdc46031	-0.095886596
20	0x3ba734d6	0.005102734
21	0x3d04731a	0.032336332
22	0x3d8f0537	0.069834165
23	0x3d0139fd	0.031549443
24	0x3ce39675	0.027781704
25	0x3906eeb5	0.00012868161
26	0xbdf5c2c1	-0.12000037
27	0xbd88a6dc	-0.06672451
28	0xbd11806a	-0.035522856
29	0x3d27a0ff	0.040925022
30	0x3bc23102	0.0059262523
31	0xbdb065f9	-0.086132
32	0xbd91d27c	-0.07120225
33	0xbd1ae78a	-0.03781847
34	0x3e05af63	0.13055186
35	0x3dd12704	0.1021252
36	0xbe06b986	-0.13156709
37	0xbda9ec14	-0.082969815
38	0x3d696e0a	0.056989707
39	0xbd5812b4	-0.05275221
40	0xbd438d3d	-0.047742117
41	0xbdff60aa	-0.12469609
42	0xbc8030a8	-0.015648201
43	0x3d5853c5	0.052814264
44	0x3e0b1b24	0.13584572
45	0xbd2a2c63	-0.041546237
46	0xbd781728	-0.06056896
47	0x3ce7d148	0.028298035
48	0x3c46dcd2	0.012137609
49	0x3c980b16	0.018559974
50	0xbe1172ce	-0.14203951
51	0x3df4cfda	0.11953707
52	0xbaec9933	-0.0018051028
53	0xbc5746ff	-0.013139485
54	0xbd4ad359	-0.049517963
55	0xbe107769	-0.14108051
56	0xbd4f5975	-0.050622422
57	0xbe0feb19	-0.14054526
58	0x3d81006f	0.06298911
59	0xbda47cdb	-0.08031627
60	0xbe0e36a3	-0.1388803
61	0xbd9ed69f	-0.077557795
62	0x3d755287	0.059893157
63	0xbdae7ea8	-0.085202515
64	0xbdf24f7c	-0.11831567
65	0xbd769cff	-0.060208317
66	0x3e135e36	0.14391407
67	0x3dad4419	0.08460254
68	0x3d15ff3c	0.036620364
69	0xbd216fe3	-0.039413344
70	0xbd7fdf65	-0.062468905
71	0x3d0097f5	0.031394918
72	0x3de17847	0.11009269
73	0xbdf1e3a4	-0.11810997
74	0x3df40416	0.11914842
75	0xbe16e47f	-0.14735602
76	0xbe0db649	-0.13839068
77	0xbe15854a	-0.14601627
78	0x3d4af0d1	0.049546067
79	0x3bcdfe74	0.0062864367
80	0x3d1c5afe	0.038172714
81	0xbde601e4	-0.11230829
82	0xbdbd5ddf	-0.0924642
83	0x3d84350f	0.064554326
84	0x3ddfa9b2	0.10921039
85	0xbe03846a	-0.1284348
86	0x3c0b522e	0.00850348
87	0xbc2685b2	-0.010163711
88	0xbd18a8e6	-0.03727045
89	0x3d58defd	0.052947033
90	0xbdef05cc	-0.116710275
91	0x3d9a00c2	0.07519676
92	0xbd743578	-0.059621304
93	0x3dd39f17	0.10333078
94	0xbd1b7979	-0.037957642
95	0x3ddbc8f2	0.10731687
96	0xbdd16d66	-0.10225944
97	0xbe0e546a	-0.13899389
98	0x3e1a1fc0	0.15051174
99	0xbd54f81d	-0.05199443
100	0x3aa9fbcd	0.0012968719
101	0x3de5906b	0.11209186
102	0x3e0c0288	0.1367284
103	0x3d039e48	0.03213337
104	0xbe1246b6	-0.14284787
105	0xbdc253a3	-0.09488609
106	0x3dc326de	0.09528898
107	0x3d46e7a2	0.048560746
108	0x3daa4d09	0.083154745
109	0xbd6b6294	-0.05746706
110	0xbe116ded	-0.1420209
111	0xbcc907b9	-0.024539815
112	0x3d7ac053	0.06121857
113	0x3ddae542	0.10688259
114	0xbdd038ab	-0.101670586
115	0xbd99d427	-0.07511168
116	0x3e02c9ef	0.12772344
117	0x3e00a343	0.1256228
118	0x3e18124e	0.14850733
119	0x3ddfbb50	0.10924399
120	0x3d27f5ca	0.041005887
121	0xb9bda4e3	-0.0003617174
122	0xbde92db4	-0.1138567
123	0xbd6171f1	-0.055040304
124	0xbe199f38	-0.15002143
125	0x3dccb742	0.09995891
126	0x3dc162e8	0.09442693
127	0x3d8d5e10	0.069027066
128	0x3e1a121a	0.15045968
129	0x3d02e64c	0.03195791
130	0x3e055dd4	0.13024074
131	0x3e6f9b82	0.23399165
132	0x3d04856c	0.032353804
133	0x3ddbd69f	0.10734295
134	0x3e16f37c	0.1474132
135	0x3e3eeed3	0.18645792
136	0x3e299d6c	0.16563958
137	0x3ea2a00a	0.31762725
138	0xc00a8693	-2.1644638
139	0x3e78a9b0	0.2428348
140	0x3ea87ba2	0.32906824
141	0x3df0a6bc	0.11750552
142	0x3e981bdf	0.29708764
143	0xc045a761	-3.088341
144	0xbf3acc1e	-0.7296771
145	0x3e8bda76	0.2731511
146	0x3e2b2569	0.1671349
147	0x3dbde35f	0.09271883
148	0x3e8da22c	0.2766279
149	0x3e85e2fd	0.2614974
150	0x3e187c54	0.14891177
151	0x3e77ba88	0.2419225
152	0xc02b8e14	-2.6805468
153	0xbc25160c	-0.010076057
154	0x3d8844e9	0.066537686
155	0xc017477f	-2.3637388
156	0xc01d0730	-2.4535637
157	0x3e7ed7e7	0.24887048
158	0x3e63869f	0.22219323
159	0xbfc0006f	-1.5000132
160	0x3e110ecd	0.14165802
161	0x3e1e5243	0.15461068
162	0x3d8b1ff8	0.06793207
163	0xc00b8949	-2.1802542
164	0x3dd6f875	0.10496608
165	0xbfd46038	-1.6591864
166	0xc003e615	-2.060918
167	0xbd589b3a	-0.05288241
168	0xc01d38fc	-2.456603
169	0x3e91c2b7	0.28468868
170	0x3e5a9ab3	0.21348076
171	0x3e199c27	0.15000974
172	0x3d764a70	0.060129583
173	0x3e4835e7	0.19551812
174	0xbf53dbd9	-0.82757336
175	0x3d8c31ae	0.06845413
176	0x3d85fa88	0.06541926
177	0x3ec5761c	0.38566673
178	0x3eb7ac9c	0.35873878
179	0x3dce3ccf	0.10070192
180	0x3e9d17c7	0.30682203
181	0x3dad6b0c	0.08467683
182	0xc00f90b3	-2.2432067
183	0x3e55c9d6	0.20877776
184	0xbdafc1f2	-0.08581914
185	0x3ce8cc59	0.028417753
186	0xbfeb6667	-1.8390626
187	0xc0056f18	-2.0849056
188	0x3dcbe9b7	0.09956687
189	0x3e6ef846	0.23336896
190	0x3d8e9090	0.06961167
191	0x3e939ced	0.28830662
192	0xc0278c16	-2.6179252
193	0x3d3f821d	0.046754945
194	0xbfc7b5e2	-1.5602381
195	0x3ec6a615	0.38798586
196	0x3e9f40cb	0.3110412
197	0x3e9ea2fa	0.30983716
198	0x3dfc4d0f	0.12319385
199	0xc0089fea	-2.1347604
200	0x3ea049dd	0.31306353
201	0xc013d76c	-2.3100233
202	0x3d163ffc	0.036682114
203	0x3ed26a19	0.4109657
204	0xc031cd70	-2.778164
205	0x3e985806	0.29754657
206	0x3e351212	0.17682675
207	0x3decad53	0.115564965
208	0x3dcd6b97	0.10030287
209	0x3e909b44	0.28243458
210	0xc0166bbf	-2.3503263
211	0x3eafba36	0.34321755
212	0x3e2402ae	0.16016647
213	0xbfe7c684	-1.8107457
214	0x3e21b49f	0.15791558
215	0xc03be638	-2.9359264
216	0xbfb810b6	-1.43801
217	0x3ea25557	0.31705734
218	0xbf333f69	-0.7001863
219	0xbfb9ad10	-1.450594
220	0x3e8713a7	0.2638218
221	0x3e1a18de	0.15048549
222	0x3dbeb605	0.09312061
223	0x3d9d76bd	0.07688663
224	0xc03120dd	-2.7676308
225	0x3dae64af	0.085152976
226	0xbfdd4850	-1.7287693
227	0x3dfba909	0.122881
228	0x3eace747	0.337702
229	0x3e044ad5	0.12919171
230	0xc00f06a9	-2.2347815
231	0x3e7253aa	0.23664728
232	0x3e9d9214	0.3077551
233	0x3e8c2634	0.27372897
234	0xbef3b3ea	-0.475982
235	0xbcc93018	-0.024559066
236	0x3e6cdc1f	0.23130845
237	0x3e84b67c	0.25920475
238	0x3cdc03db	0.026857307
239	0x3e0fe418	0.14051855
240	0x3e8c6479	0.27420405
241	0xc01af778	-2.4213543
242	0xbf0f7a5f	-0.560461
243	0x3dce12d9	0.10062189
244	0x3ed9e6db	0.4255894
245	0x3e9f3bd4	0.31100333
246	0xc015c1f0	-2.339962
247	0xbfee59f7	-1.8621205
248	0x3dee1edf	0.11626982
249	0xbfa8a6c7	-1.3175896
250	0x3e32740b	0.1742708
251	0xc016e845	-2.3579266
252	0x3e0a2496	0.13490519
253	0x3b9f0ae9	0.0048535955
254	0x3e9aebc6	0.30258006
255	0xc0173f34	-2.3632326

fc2.bias f4 [128]
0	0x00000000	0.0
1	0x3e34e81f	0.17666672
2	0x3e1e8f84	0.15484434
3	0x00000000	0.0
4	0x3e371924	0.17880684
5	0xbcdcf980	-0.02697444
6	0xbc32e7a8	-0.010919489
7	0xbbb49c60	-0.0055118054
8	0x3e366b8b	0.17814462
9	0x3e7fced0	0.24981236
10	0x00000000	0.0
11	0xbcbb0226	-0.022828173
12	0xbdc06e96	-0.093960926
13	0x3e4ff440	0.20308018
14	0x3e33e7d6	0.17568907
15	0xbd08da5c	-0.03341137
16	0x00000000	0.0
17	0x3e1a7e3c	0.15087217
18	0x00000000	0.0
19	0x3e224ad2	0.15848854
20	0xbc1f26be	-0.009713827
21	0x00000000	0.0
22	0x3e2cdbe1	0.16880752
23	0x00000000	0.0
24	0xbc80a6cd	-0.015704537
25	0x00000000	0.0
26	0x3e02206d	0.12707682
27	0xbdb21477	-0.086953096
28	0xbaea3643	-0.0017868954
29	0xbbcac9b9	-0.006188598
30	0x3e61a674	0.22036153
31	0xbbd42762	-0.0064744214
32	0x3e733c1c	0.23753399
33	0xbc4aa9b1	-0.012369559
34	0xbb0593bd	-0.0020382248
35	0x3e4d7a62	0.20066217
36	0xbd0570f5	-0.032578427
37	0xbc5647ea	-0.013078669
38	0x3e8fb164	0.28065026
39	0x00000000	0.0
40	0xbc36a0c8	-0.011146732
41	0xbc2ecc17	-0.010668776
42	0x3ede223b	0.4338549
43	0x3e24ea03	0.16104893
44	0xbc1890ae	-0.009311838
45	0xbc021dcd	-0.007941675
46	0xbe0b12ed	-0.13581438
47	0x3e335b79	0.17515363
48	0xbc96c7ae	-0.018405762
49	0x3eba7590	0.36417818
50	0x00000000	0.0
51	0x00000000	0.0
52	0xbba8e207	-0.0051538977
53	0xbdb434ae	-0.0879911
54	0xbc0f20d8	-0.008735858
55	0x3e42b0bd	0.19012733
56	0x00000000	0.0
57	0x3e985fe8	0.2976067
58	0x00000000	0.0
59	0x3e3356ad	0.17513533
60	0x3e465789	0.1936933
61	0x3e2374fe	0.15962598
62	0xbd08a753	-0.033362698
63	0x3ed8a37e	0.42312235
64	0x3e3877a5	0.18014391
65	0xbdc0b85f	-0.09410166
66	0x00000000	0.0
67	0xbb275c2f	-0.0025537123
68	0x3e5d0004	0.21582037
69	0x3e6be640	0.23037052
70	0xbd1dba90	-0.038507998
71	0xbc05a8d5	-0.0081579285
72	0xbcb21a6b	-0.021741113
73	0x3e26d80a	0.1629335
74	0x3e491403	0.1963654
75	0xbc299d87	-0.010352499
76	0xbc359728	-0.011083402
77	0xbc4f3c01	-0.012648583
78	0x3e18397a	0.14865676
79	0xbdc2bcc3	-0.0950866
80	0xbdbef2df	-0.09323668
81	0x3e906d6f	0.2820849
82	0x3e5d07c0	0.21584988
83	0xbaf62ebd	-0.001878224
84	0xbc66ee76	-0.014094939
85	0x3ec253d3	0.37954578
86	0xbdb6c7c7	-0.08924823
87	0x00000000	0.0
88	0x3e9973ee	0.2997126
89	0x00000000	0.0
90	0x3e30076e	0.17190334
91	0xbc814565	-0.01578016
92	0xbda8148a	-0.082070425
93	0x00000000	0.0
94	0x00000000	0.0
95	0xbbdfa0e2	-0.0068245986
96	0x3e62aa27	0.2213522
97	0x00000000	0.0
98	0x3e801f05	0.25023666
99	0x3e2f254e	0.17104074
100	0xbc12267e	-0.00892031
101	0x00000000	0.0
102	0xbc02e2ad	-0.007988614
103	0x00000000	0.0
104	0xbc38ed32	-0.0112870205
105	0x00000000	0.0
106	0x00000000	0.0
107	0xbdbe6f12	-0.09298529
108	0x3e942883	0.28937158
109	0xbc1934be	-0.009350954
110	0xbcc0fb62	-0.023557369
111	0x00000000	0.0
112	0x00000000	0.0
113	0xbc8444ce	-0.01614609
114	0xbc2631bf	-0.010143696
115	0x3e4ffc2c	0.2031104
116	0xbcbec9aa	-0.02328952
117	0x00000000	0.0
118	0x3e8bd8bc	0.27313793
119	0xbc9e8552	-0.019350681
120	0xbcb30331	-0.021852108
121	0xbc37ff90	-0.011230364
122	0x00000000	0.0
123	0xbc03f805	-0.008054738
124	0x3e3a3186	0.18182954
125	0x00000000	0.0
126	0xbba5b00f	-0.005056388
127	0x3e3a1d00	0.18175125
