Project/output/mountaincar/dqn/final_model.pth (torch, 285764 bytes, 24 tensors)

fc1.weight f4 [128, 2]
00000000: 14e0 81bd a5c5 013b fc77 c7be 1a05 123f
00000010: 4b33 483d ee8d c53d dd43 0abe 4662 a53e
00000020: 6881 fb3b 2ed3 043e 104c ddbd 8edc 2b3f
00000030: d65a 0dbd ba51 403f 3b8b 72be 48f3 f83e
00000040: a785 23be 1521 ef3d a4d8 a3be 8d7d 633f
00000050: d22f 6b3e 5984 8e40 37a5 eebd 4404 8a3e
00000060: ecbd 68bd 1a60 b63e c2cd babd 45d2 9f3e
00000070: 4f2b debd b3e4 353e 587a b7be 2bd8 5d40
00000080: a3f2 99be 0b7f 61c0 4c9c 36be c81c 583f
00000090: c4ae edbc 0ba2 033f 711d b73c 0501 563d
000000a0: 9f8e 66be 341b 9e3c 6c93 953c 5710 4a3e
000000b0: ab25 8a3f c6d8 773f 3455 08bd 634a 0f3e
000000c0: 5e17 b4bd 16d6 7640 8cb1 e43e ccab 63bf
000000d0: b465 a33e bb4f abbd 0b35 113e 3f80 8040
000000e0: 5f18 6b3e c42b 8d40 832a c8be 8409 cc3f
000000f0: c1cc ca3c ed30 14be 106b e63e 8ee0 8b40
00000100: a284 c63c 45f9 463e b1eb 35be 1969 8f3f
00000110: 4627 d13e d77a 02bf 06a4 6b3e aee5 7440
00000120: 42b3 34bc f17e dd3e 50f4 a83e 657c 8640
00000130: f8da 873e 0ad8 8940 e385 2abb 78e5 353e
00000140: 7361 463d 28d6 7d40 9d21 4bbd 2d88 cb3e
00000150: 1c5e 91be fbdd d93e dc1e b03c b745 8d3f
00000160: 9d07 26bc a6e6 953e ee68 8d3f 3a98 f83f
00000170: 09de 89be 4532 8bc0 3aae f7bd 6b10 b43e
00000180: 67c1 cdbd d978 863e 6e1c 1c3e 236f b9bf
00000190: 7f15 5fbb 315d 233f e4f4 66be 5b9b 9b3f
000001a0: f0ef 1dbe bcf7 cdbd 8bea a13f 46d3 1840
000001b0: 11eb 353e 9784 8b40 50bc 873f 913c de3f
000001c0: 4011 ce3e bccb a7bd f98a eb3e 22a2 41bf
000001d0: e21c ad3e 9f59 8e40 aa34 2a3e c3ab 7f40
000001e0: e933 8abd 61c7 573f fdae f3bc 3df6 1d3f
000001f0: 230d b5bd af71 523e 9736 70be 57b3 013e
00000200: 81cd 3fbe 7442 5840 6fe3 13bf 3a25 2b40
00000210: b6a2 613f 6d94 7340 1ecc ddbc a417 323f
00000220: 2d13 973f e0f9 ce3f 6f5b 373d e832 d43e
00000230: 30d0 23bc d885 c13e f2ed 8f3e 8ab4 8040
00000240: 6268 883f 9edb 913f 9339 143e 7302 7d40
00000250: 4f23 d23e 0521 e8be 2a38 7c3f fda2 c33e
00000260: e91c e3bb 9fc0 8040 0b9b 0bbd d479 bd3e
00000270: 721a 0ebe 407b 0c3f 8307 b9be 419e a33f
00000280: 9c11 9b3f dfb6 0740 468e 6cbd e9d8 b63e
00000290: 46ef a53d 5f75 8040 0d66 7b3d 32ce 13be
000002a0: 67c4 933e 3843 763f 0ccf bb3e 6a8a 8340
000002b0: e38f 953f 851d be3f 53fd 02be e75e 7740
000002c0: dc90 fe3e cc87 8340 dc8c 2bbd dcda 063f
000002d0: 9907 52be 4faf 96c0 4695 123f d4b6 8540
000002e0: 047f 0cbe 9a36 a8be fe20 24bb 1e48 ce3e
000002f0: 69a4 8b3f 1964 0640 e569 92bd ca4d 073f
00000300: 849e 79bd 8402 8040 1c72 abbe 9905 813f
00000310: 8177 a03e 94b1 8340 e420 15be 804a 293f
00000320: a96d 5ebd 3cd0 363f 53ae 663c 917e 43be
00000330: ed7c 003e cf5e 8040 6b6c b1bd 86dd 373f
00000340: 5209 a7bd 4d48 a03e 915e 673d d777 7f3d
00000350: d7e7 d4be 17b6 78c0 0483 dcbe 4318 31c0
00000360: bf39 6e3f 08e7 2d40 1cb4 febd 804a 5ebe
00000370: 5c66 16bf 9cae 2040 3b18 7fbe 206e e43e
00000380: e687 19bf b1cf 1240 d697 f13d cd20 8640
00000390: f9dd a1be 5ec0 76c0 7f0b 1cbf 3b5b d83f
000003a0: 4dc1 13bc ef7b 823e 3037 b43c a637 913e
000003b0: 4e4d e9be 5fa0 2840 e288 c63c daec 7740
000003c0: 36c2 7bbe 685d 6e3f 56e2 523f 290c 8240
000003d0: 5a89 68be 609c 663f 18a2 4b3e 8635 8740
000003e0: 0d7c 853f 4ef9 2040 7b37 02bf 5abc 2b40
000003f0: f5d5 903f 5208 0e40 b35b cd3d d691 8140
-0.06341568 0.0019801643 -0.38958728 0.57039034 0.04887704 0.096462116 -0.1350245 0.3230154
0.0076753385 0.12971184 -0.108055234 0.67133415 -0.034510456 0.75124705 -0.23685925 0.4862311
-0.15968953 0.11676232 -0.3200122 0.8886345 0.22967461 4.4536557 -0.11652606 0.2695638
-0.05682175 0.35620195 -0.091212764 0.3121511 -0.10848104 0.17763023 -0.35835528 3.4663188
-0.3006793 -3.523379 -0.1783306 0.84418917 -0.029013999 0.5141913 0.022352906 0.052247066
-0.22515343 0.01930008 0.018258773 0.19732796 1.0792745 0.96815145 -0.03328438 0.1399322
-0.087935194 3.8568168 0.44666708 -0.88934016 0.3191353 -0.08364817 0.1418039 4.015655
0.22958516 4.4115925 -0.39094934 1.5940404 0.024755837 -0.14471789 0.45003557 4.3711615
0.024233166 0.19431026 -0.1776569 1.1203948 0.40850276 -0.5096869 0.23011789 3.8265185
-0.0110290665 0.4326091 0.32998896 4.202685 0.26534247 4.307622 -0.0026019744 0.17763317
0.04843278 3.966196 -0.049592603 0.3975233 -0.28392112 0.4255217 0.02149909 1.10369
-0.010133651 0.29277533 1.1047647 1.9421456 -0.26927212 -4.3498864 -0.12093778 0.35168776
-0.10046654 0.26264074 0.1524522 -1.4487041 -0.0034039912 0.63814074 -0.22554356 1.2156786
-0.1542356 -0.10057017 1.2649702 2.387895 0.17765452 4.3599353 1.0604343 1.7362233
0.40247536 -0.08193156 0.46004465 -0.7563802 0.33811098 4.44844 0.16621652 3.9948585
-0.06748182 0.84288603 -0.029746527 0.61703855 -0.08840396 0.2055118 -0.23458324 0.12666069
-0.18730737 3.379056 -0.5776891 2.6741471 0.881389 3.8059342 -0.02707487 0.6956732
1.1802727 1.6170006 0.044764932 0.41445088 -0.009998366 0.37797427 0.28111225 4.0220385
1.0656855 1.1395147 0.14475088 3.9532745 0.41042563 -0.45337692 0.985232 0.38210288
-0.0069309366 4.0235133 -0.034083407 0.3700701 -0.13877276 0.54875565 -0.36138543 1.278267
1.2114749 2.1205366 -0.05775287 0.35712364 0.081022784 4.0143275 0.06137662 -0.14434126
0.2886078 0.9619632 0.36681402 4.1106462 1.1684536 1.4852759 -0.12791948 3.8651674
0.49719894 4.110327 -0.04188238 0.526777 -0.20510711 -4.7089 0.57259023 4.178568
-0.13720328 -0.32854158 -0.002504408 0.40289396 1.0909549 2.0998595 -0.07149104 0.5285307
-0.060942188 4.000307 -0.33485496 1.0079833 0.31341174 4.115427 -0.14563328 0.661293
-0.0543038 0.7141149 0.014079648 -0.1909125 0.12547655 4.0115733 -0.08663257 0.7182239
-0.081560746 0.3130516 0.05648667 0.062370148 -0.4158313 -3.886114 -0.43068707 -2.7671058
0.93056864 2.717226 -0.12436697 -0.21708107 -0.5874994 2.5106573 -0.24911587 0.4461527
-0.5997299 2.2939265 0.117965385 4.191504 -0.31614664 -3.8554912 -0.6095504 1.6902841
-0.0090182545 0.2548518 0.021998972 0.2836277 -0.4556679 2.6347883 0.024235193 3.8738313
-0.24585804 0.93111277 0.8237661 4.0639844 -0.22708645 0.9008236 0.19886053 4.2252836
1.0428482 2.5152164 -0.50865906 2.683371 1.1315295 2.2192578 0.10027256 4.0490522

fc1.bias f4 [128]
00000000: 18db c43e 2da7 7a3e c288 f4bc e5ac ab3e
00000010: 8010 88bc 2d98 903e acb2 d53e db1e b53e
00000020: ca24 b13e be97 933e 3baf c4bd d482 c53e
00000030: 23f7 be3e 8856 b93e fd39 bf3e 729f 8ebe
00000040: 8e96 bd3d 17aa c13e d318 a83e 50d8 66bc
00000050: 9b00 a43e 79bc bb3e f068 1f3c f775 e33e
00000060: d0e9 06be 0d66 e93e 5994 ac3e 58b9 9bbd
00000070: 0870 c3bd c5ed 503e 9026 dd3e fd6f fcbd
00000080: 2e6b cbbc c93f bd3e e3e0 d63e fb2e afbd
00000090: 4a21 d03e 10e3 d5bd e92e c7bd f82a 4abc
000000a0: 302e 91bd e810 c33e de2e b63e 7737 853e
000000b0: c54a b93e 7bc4 163e ccef cd3d 2daf a23e
000000c0: 91dc c33e d15c 453d 7799 cb3e aff4 c73e
000000d0: 4893 b53e aa8f 533e 6a2a b4bd 4d4a b13d
000000e0: 7ce8 da3e bade f03e 7ea7 debd 1ee3 a5bd
000000f0: 640c e23e cb1d cc3e 20dd b23e cefe 943e
00000100: 122e 33be 1576 ce3d c4d0 48be f67f da3e
00000110: 8c59 eb3d 3233 d53e 28a5 dc3e 17d3 c1bd
00000120: 0b5a 123d 7951 9bbd 2cbd d73e bdd5 d6bc
00000130: 1a0b cdbd 3859 cb3e 5435 9c3e 81c9 833e
00000140: b313 803e c88a b53e d76f 7cbd 167a b23e
00000150: 1297 cf3e edfc debd a699 893d 0986 19be
00000160: 665d 00be 1319 c93e 06b6 cf3d 0f58 0cbe
00000170: 8d35 9e3e f89c ae3e 6baa 693e f517 d83e
00000180: a9f4 00be f4a5 9e3e c441 cebd 71da bc3e
00000190: 482b be3e dea9 76bc 7257 92bd 5ec7 933e
000001a0: 7d67 b73e f036 dc3e 3e85 de3d 3512 963d
000001b0: 2506 3e3e 3507 bd3e 7a79 b83d d8df ae3e
000001c0: b653 923d 4980 93bd bdff ca3d 89d9 533e
000001d0: e893 fa3e 4e87 c93e fb53 adbe cb42 db3c
000001e0: 7acd a73e dfee 25be e74d b23e e516 b6bd
000001f0: 1290 a13e 9d36 d73d e48b c73e c36d 86bd
0.38448405 0.24477835 -0.029850367 0.33530346 -0.01660943 0.282411 0.41737878 0.35375103
0.3459838 0.28826708 -0.09603735 0.38576376 0.37297925 0.3619883 0.3734893 -0.27856022
0.09257232 0.3782508 0.3283144 -0.014089659 0.32031712 0.3666723 0.009729609 0.44425938
-0.1317513 0.4558567 0.3370693 -0.07603711 -0.09542853 0.20403202 0.43193483 -0.123260476
-0.02483138 0.36962727 0.4196845 -0.08553883 0.40650398 -0.10443699 -0.09725744 -0.012339346
-0.07088888 0.38098836 0.35582632 0.2601888 0.36189857 0.14723389 0.10055503 0.31774274
0.38254216 0.04818422 0.39765522 0.39053866 0.3546393 0.20660272 -0.08797152 0.0865675
0.42755497 0.47044927 -0.1087179 -0.0809996 0.44150078 0.3986648 0.3493433 0.2910065
-0.17498043 0.10081116 -0.19610888 0.4267575 0.11491689 0.4164062 0.43094754 -0.0946409
0.035730403 -0.07583899 0.42136514 -0.026224965 -0.10011883 0.39716506 0.30509436 0.25739673
0.2501503 0.35457444 -0.061630096 0.3485877 0.40544945 -0.108880855 0.06718759 -0.14992537
-0.12535629 0.39276943 0.1014214 -0.13705467 0.3090023 0.34104133 0.22818916 0.42205778
-0.1259333 0.30985987 -0.100711375 0.36885408 0.37142396 -0.015055148 -0.07145585 0.28863043
0.35821143 0.43010664 0.10865258 0.073276915 0.18557031 0.3691956 0.09007545 0.34155154
0.07144873 -0.07202203 0.099120595 0.20688452 0.4894097 0.39361042 -0.33853135 0.026765248
0.32773954 -0.16204403 0.3482506 -0.088910855 0.3155523 0.105084635 0.38973916 -0.06563904

fc2.weight f4 [128, 128]
00000000: 1a17 83bd edc1 85bd fa40 6f3d 6ebb babd
00000010: 3b21 a93d 3a73 cd3d daeb 993d 2e14 acbd
00000020: 828b 133e 53ee 6e3d fed8 19be be45 17be
00000030: a24c 5e3d 8ca4 903d 14fd 073e 02ae f23d
00000040: 58b0 c23d 25ad 3cbd 672d 2abc 3160 c4bd
00000050: d634 a73b 1a73 043d 3705 8f3d fd39 013d
00000060: 7596 e33c b5ee 0639 c1c2 f5bd dca6 88bd
00000070: 6a80 11bd ffa0 273d 0231 c23b f965 b0bd
00000080: 7cd2 91bd 8ae7 1abd 63af 053e 0427 d13d
00000090: 86b9 06be 14ec a9bd 0a6e 693d b412 58bd
000000a0: 3d8d 43bd aa60 ffbd a830 80bc c553 583d
000000b0: 241b 0b3e 632c 2abd 2817 78bd 48d1 e73c
000000c0: d2dc 463c 150b 983c c972 11be dacf f43d
000000d0: 2699 ecba ff46 57bc 59d3 4abd 6977 10be
000000e0: 7559 4fbd 19eb 0fbe 6f00 813d db7c a4bd
000000f0: a336 0ebe 9fd6 9ebd 8752 753d a87e aebd
00000100: 7c4f f2bd ff9c 76bd 325e 133e 1944 ad3d
00000110: 3cff 153d e36f 21bd 65df 7fbd f597 003d
00000120: 4778 e13d a4e3 f1bd 1604 f43d 7fe4 16be
00000130: 49b6 0dbe 4a85 15be d1f0 4a3d 74fe cd3b
00000140: f65a 1c3d e401 e6bd df5d bdbd 0f35 843d
00000150: b2a9 df3d 6a84 03be 2e52 0b3c b285 26bc
00000160: e2a8 18bd fdde 583d cc05 efbd c200 9a3d
00000170: 7835 74bd 179f d33d 7979 1bbd f2c8 db3d
00000180: 666d d1bd 6a54 0ebe c01f 1a3e 1df8 54bd
00000190: cdfb a93a 6490 e53d 8802 0c3e 489e 033d
000001a0: b646 12be a353 c2bd de26 c33d a2e7 463d
000001b0: 094d aa3d 9462 6bbd ed6d 11be b407 c9bc
000001c0: 53c0 7a3d 42e5 da3d ab38 d0bd 27d4 99bd
000001d0: efc9 023e 43a3 003e 4e12 183e 50bb df3d
000001e0: caf5 273d e3a4 bdb9 b42d e9bd f171 61bd
000001f0: 389f 19be 42b7 cc3d e862 c13d 105e 8d3d
00000200: a0a0 233e 6cf4 283d 045d 053e e0dd 773e
00000210: 3a85 043d c821 e83d 2182 1c3e 6aa9 473e
00000220: 8231 333e 055c a63e 1441 21c0 d49a 803e
00000230: 183f ac3e de4b 003e 5a9d 9c3e d621 58c0
00000240: f69d 39bf 1347 8f3e 8edf 303e 52e3 bd3d
00000250: 360c 933e 2f7e 893e b84d e63d ca2a 803e
00000260: 1cab 43c0 d4f3 ad3b 04b2 933d 3ed4 24c0
00000270: 7de1 33c0 d36b 813e f7cf 6c3e 8e0b ebbf
00000280: 4a0e 113e 68ab 233e 1a7a a23d 41b2 22c0
00000290: 6aba e43d f059 02c0 14b6 1bc0 b09b 58bd
000002a0: 5448 26c0 9b4d 953e e61a 643e d280 183e
000002b0: 8fb7 893d b4ec 893e abe5 51bf dc79 9c3d
000002c0: 8051 973d e748 c23e 2c5a ba3e 079f d93d
000002d0: cb6b a23e 327e 333e f88a 21c0 8c91 813e
000002e0: 177b a4bd 04b5 2b3d f639 0ec0 9477 17c0
000002f0: 5468 d73d 15d9 743e 76f1 9f3d 7bbc 983e
00000300: 0b0e 3ec0 0084 233d 4e31 efbf 2b7a c93e
00000310: a7b5 b43e 61a9 a13e d024 053e 5eb8 20c0
00000320: f6fc 973e 651e 22c0 27a2 413d da39 b43e
00000330: 85e3 45c0 b9f8 9b3e 0240 3c3e 5875 f83d
00000340: 2b4d 4e3e 2c52 943e 7f04 19c0 161d b43e
00000350: 26f8 1f3e 9938 0cc0 9b31 323e 7a09 56c0
00000360: db9d ddbf 549d a53e 5a7a 2fbf 841a e0bf
00000370: 8df6 8c3e 975f 203e 1a46 4e3e ffea ab3d
00000380: 86e8 48c0 9105 bd3d 82da 06c0 31b9 043e
00000390: fdc2 af3e e54a 043e 9c45 19c0 c3c4 773e
000003a0: b09d a13e 1817 903e a4dd efbe 24c1 eebb
000003b0: 7f3e c13e d54d 8a3e 43e0 a93c d83e 193e
000003c0: 8673 893e e83b 22c0 b033 0ebf 883d d83d
000003d0: c5b8 dd3e b4c4 a23e 2364 27c0 cdda f6bf
000003e0: eb2f fb3d aaee c6bf 2e4a 393e 8eca 2bc0
000003f0: 2998 863e fb69 03bb 58f6 d23e e106 1ac0
-0.06400891 -0.06531129 0.058411576 -0.091177806 0.08258291 0.10031743 0.07515688 -0.084022865
0.14408687 0.058332752 -0.15024182 -0.14772698 0.0542723 0.07062635 0.13280135 0.118495956
0.09506291 -0.04606356 -0.010386801 -0.095886596 0.005102734 0.032336332 0.069834165 0.031549443
0.027781704 0.00012868161 -0.12000037 -0.06672451 -0.035522856 0.040925022 0.0059262523 -0.086132
-0.07120225 -0.03781847 0.13055186 0.1021252 -0.13156709 -0.082969815 0.056989707 -0.05275221
-0.047742117 -0.12469609 -0.015648201 0.052814264 0.13584572 -0.041546237 -0.06056896 0.028298035
0.012137609 0.018559972 -0.14203943 0.11953707 -0.0018051013 -0.013139485 -0.049517963 -0.14108051
-0.050622422 -0.14054526 0.06298911 -0.08031627 -0.1388803 -0.077557795 0.059893157 -0.085202515
-0.11831567 -0.060208317 0.14391401 0.08460254 0.036620364 -0.039413344 -0.062468905 0.031394918
0.11009269 -0.11810997 0.11914842 -0.14735602 -0.13839068 -0.14601627 0.049546067 0.0062864367
0.038172685 -0.11230829 -0.0924642 0.064554326 0.10921039 -0.1284348 0.00850348 -0.010163711
-0.037270434 0.052947033 -0.116710275 0.07519676 -0.059621304 0.10333078 -0.037957642 0.10731687
-0.10225944 -0.13899389 0.15051174 -0.05199443 0.0012968719 0.11209181 0.1367284 0.03213337
-0.14284787 -0.09488609 0.09528898 0.048560746 0.083154745 -0.05746706 -0.1420209 -0.024539806
0.06121857 0.10688259 -0.101670586 -0.07511168 0.12772344 0.1256228 0.14850733 0.10924399
0.041005887 -0.0003617174 -0.1138567 -0.055040304 -0.15002143 0.09995891 0.09442693 0.069027066
0.15979242 0.041248724 0.13023764 0.24205732 0.032353617 0.11334568 0.15284015 0.1949822
0.17499354 0.3249208 -2.519597 0.25118124 0.33641887 0.12528941 0.305888 -3.3770652
-0.72506654 0.27983913 0.1727278 0.092718735 0.28720254 0.26854083 0.112452924 0.25032645
-3.0573187 0.0053086076 0.07211688 -2.5754542 -2.8106377 0.25277576 0.23126207 -1.8362901
0.14165607 0.15983355 0.07933445 -2.5421298 0.11168368 -2.0367393 -2.4329882 -0.05288285
-2.5981646 0.2916077 0.22275886 0.14892891 0.06724464 0.26938403 -0.8199107 0.0764043
0.07388592 0.37946245 0.3639692 0.10626035 0.31722865 0.17528608 -2.524107 0.25306356
-0.0803129 0.041920677 -2.2222877 -2.3666735 0.10517946 0.23910935 0.07809727 0.298313
-2.969607 0.039920807 -1.8686922 0.3935102 0.3529484 0.31574538 0.13002324 -2.5112529
0.2968518 -2.5331051 0.04727378 0.35200387 -3.0920117 0.30463198 0.18383792 0.121317565
0.20146625 0.28968942 -2.3908994 0.3517844 0.15622005 -2.1909544 0.17401735 -3.3443284
-1.7313799 0.32346594 -0.6854607 -1.7508092 0.27531853 0.15661465 0.20143929 0.08394431
-3.139192 0.09229577 -2.1070867 0.1296127 0.34328452 0.12919195 -2.3948736 0.24196152
0.3156562 0.2814262 -0.46848786 -0.0072862078 0.37742993 0.27012506 0.02073682 0.14965379
0.2684595 -2.5349064 -0.5554762 0.10558611 0.4330503 0.31790698 -2.6154869 -1.9285523
0.12264999 -1.5541584 0.18094704 -2.684238 0.26287964 -0.0020052183 0.4120357 -2.4066699

fc2.bias f4 [128]
00000000: 0000 0000 c24f 3d3e f9d7 193e 0000 0000
00000010: 95ec 3d3e f842 09bd 62e8 32bc 789c b4bb
00000020: 4222 333e 9f90 843e 0000 0000 a1ad cabc
00000030: f753 05be 0ac0 5a3e 7cae 2d3e a6d6 20bd
00000040: 0000 0000 2ad4 933e 0000 0000 e182 2a3e
00000050: ae9b 68bc 0000 0000 ce43 3b3e f6c9 15ba
00000060: f1a6 80bc 0000 0000 489d 1d3e adc6 ffbd
00000070: ee36 eaba 9075 d9bb e3be 473e 8227 d4bb
00000080: 9cd1 c03e 28aa 4abc 5794 05bb c98a 413e
00000090: 0fa3 22bd 0248 56bc b3b1 5a3e 0000 0000
000000a0: 30a1 36bc cbcc 2ebc 4e26 d33e 8689 213e
000000b0: 3991 18bc 3a1e 02bc 9825 05be f7e1 223e
000000c0: 0671 a5bc 393e b13e 0000 0000 0000 0000
000000d0: 7aff e1bb 265b eabd bafc 1bbc c568 493e
000000e0: 0000 0000 2a56 953e c0df 26bb e97a 333e
000000f0: ebfd 3a3e 50fe 223e ffe7 0abd a4de cc3e
00000100: 55a0 333e 7267 f4bd 0000 0000 5f5c 27bb
00000110: 49cf 343e 334c 503e 1573 39bd 2da9 05bc
00000120: b8ff d4bc 9d55 2d3e ac5e 383e 109e 29bc
00000130: b397 35bc 843c 4fbc e64a 953e ca2f fcbd
00000140: 1bb9 fdbd 6812 863e 5a3e 3f3e c37a 82bb
00000150: e898 6abc 5b6e bc3e b2cd eebd 0000 0000
00000160: f882 823e 0000 0000 79c4 393e 8745 81bc
00000170: ecbe dabd 0000 0000 0000 0000 1ba1 dfbb
00000180: bf1e 683e 0000 0000 4c64 653e b928 313e
00000190: 8a26 12bc 4c03 d6ba 34e3 02bc 0000 0000
000001a0: 82bc 4cbc 81f8 2bbb 0000 0000 d2a9 f3bd
000001b0: 7997 da3e 4235 19bc 2f78 b6bd 0000 0000
000001c0: 0000 0000 b0f9 d43d ce31 26bc 85cf 603e
000001d0: 028f e1bc 0000 0000 fb3e 6c3e 6dab 9ebc
000001e0: 7c7b d4bc a7ff 37bc 0000 0000 b7e5 433d
000001f0: 19f2 323e 4189 42ba 9ab0 a5bb b5ff 2e3e
0.0 0.18487456 0.15023793 0.0 0.1854728 -0.033511132 -0.010919662 -0.0055118166
0.17493537 0.25891587 0.0 -0.024740996 -0.13020311 0.2136232 0.16961092 -0.039267205
0.0 0.28872806 0.0 0.16651489 -0.014197273 0.0 0.18287584 -0.00057139935
-0.015704604 0.0 0.1539203 -0.12489066 -0.0017869154 -0.006636329 0.19506411 -0.0064744363
0.3765992 -0.01236967 -0.0020382607 0.18900599 -0.039706286 -0.013078691 0.2135685 0.0
-0.0111468285 -0.010668944 0.41240162 0.15775117 -0.0093119675 -0.007941777 -0.13002622 0.15906511
-0.020195495 0.34617785 0.0 0.0 -0.0068969103 -0.114431664 -0.009520704 0.19668873
0.0 0.291673 -0.0025462955 0.17527355 0.18260925 0.15917325 -0.033912655 0.4001361
0.1754163 -0.11933793 0.0 -0.0025537235 0.17657198 0.20341568 -0.045275766 -0.00815801
-0.026000842 0.1692719 0.18004864 -0.010352626 -0.011083531 -0.012648705 0.29158705 -0.123138025
-0.12388822 0.26185918 0.18676129 -0.0039819195 -0.014318682 0.36802945 -0.11660327 0.0
0.25490546 0.0 0.18141355 -0.015780224 -0.10680947 0.0 0.0 -0.006824625
0.22667979 0.0 0.22401541 0.1730069 -0.008920321 -0.0016327887 -0.00798874 0.0
-0.012496116 -0.002624065 0.0 -0.11897625 0.4269369 -0.009351077 -0.08909642 0.0
0.0 0.103991866 -0.01014371 0.21954162 -0.027534012 0.0 0.230709 -0.019368852
-0.025937788 -0.011230386 0.0 0.047826495 0.17475165 -0.0007420965 -0.005056453 0.17089732

fc3.weight f4 [3, 128]
00000000: 3df9 353e 29a6 d8be 147a 3abf 8804 7f3d
00000010: 4f6d aebe 2272 1ebe e41d 06bc ab1b 263e
00000020: 7b83 22bf a99a d1be c454 163e 55c7 b8bd
00000030: 8656 3840 6497 61be 7fb3 d2be 2bd5 87bd
00000040: ffc5 e7bd a1d1 f4b9 624d 3abe 22b4 cdbe
00000050: 6b64 29be cb7d 8d3d 3eab 9fbe 284d 213e
00000060: 7772 263e 2d22 55be 3da7 923d bd8d 3440
00000070: 0eb4 10be 33e8 553e c2a2 3dbf 95d9 1a3e
00000080: 641d 9d3f 14f9 2bbe 0508 043d 03e7 1ebf
00000090: be0b 6fbe 76c5 833d 5891 42bf 1aa6 f3bd
000000a0: 9c02 dc3d e882 86bd 6c02 20bf 2846 1abf
000000b0: f536 d1bd 4a10 d93d 1861 ee3f b070 31bf
000000c0: 6905 d83c fc4d 17bf 5230 88bd 665c d8bd
000000d0: 0029 2e3e c5ad 4840 e7ea 5a3d c638 a5be
000000e0: 238a 12be 9cf9 3fbf ace6 573e 7b54 20bf
000000f0: 81b2 10bf 3e9b 1ebf 116e 15be c3eb 31bf
00000100: e4de 3abf 5b22 4640 c770 ebbc 6919 3bbe
00000110: 12a9 32bf d6d2 3cbf d165 223e 5f08 4f3e
00000120: 276b fe3d 6b9d f9be b9b9 05bf f887 d3bd
00000130: f4eb 283e f549 ce3d 734d b93f 10c0 3e40
00000140: 680b 4440 feef 51bf 00ca 20bf 9e16 d9bd
00000150: 1b4b d2bd fd9b 21bf d8d1 4340 0cec 013e
00000160: ea7d 3dbf 3035 56be 1cf1 c2be 1886 0e3e
00000170: 8c63 4540 94d2 14be a8e3 0b3e 1750 39be
00000180: 61ee 10bf 8bb1 4cbe 6ad8 29bf fe64 10bf
00000190: eb03 32be 8201 ddbd 1e29 fd3d 3cd9 d7bd
000001a0: 1d45 b93c 1eb5 4dbe 4e5f 373d b75b 4240
000001b0: 97a3 093f 2790 e73d 88ef 233e 7379 9e3d
000001c0: 2ef8 68bd 720f 1a3f d43b debd c3b7 c1be
000001d0: 8da0 cebc 93bb 913d ed81 10bf e923 393e
000001e0: 7ed7 b13d 09c4 e73d a4ee 543d c346 a43e
000001f0: 0cc3 20bf 3244 e43d 6866 2d3d 7254 12bf
00000200: 11cb 823c 9600 d1be 2bc7 a2be eacc ff3d
00000210: bd21 0cbf 023b 5b3e 4db0 06bd 2c8c 163e
00000220: f302 18bf 10a6 06bf fec9 d0bc ca60 273e
00000230: 92b3 2d40 9e3b 15bf 066e 20bf 6586 4f3e
00000240: df36 343e 98a9 64bd 1f4d c13d fc76 eebe
00000250: 1278 dabd 5b2b 3fbe 8bb5 d1be 7e08 f83d
00000260: 819e 05bb 2eaa 493e e372 b7be 8aea 2240
00000270: 40f9 4e3e 07b7 0a3d 05a7 02bf 9b9c 40be
00000280: b472 b03f 3270 343e babb 49bc e6a5 b6be
00000290: 5fd6 323e c74c b7bc 8cb2 46bf 3a05 a4bc
000002a0: 8303 2f3e 3341 a0bd 8c39 44bf 3d6d 2dbf
000002b0: ecba 3f3e 66b5 163e dd87 e43f 0738 0cbf
000002c0: 24dd 063e 4927 48bf c8a5 233e 3fe7 ec3c
000002d0: a91f f2bd 5555 2b40 3eb1 edbd 9fe6 1ebf
000002e0: 51b4 ba3d e301 15bf 8d02 133e 3ec4 1cbf
000002f0: af10 27bf e4d1 f7be e23b 2e3e a174 3ebf
00000300: 6066 88be 22ea 4540 61aa dd3d 864c 3d3e
00000310: 497c 37bf eb0d c3be a401 23be bc70 57be
00000320: 7903 803d ba64 cabe 48b5 16bf da3c 193e
00000330: 27c2 dd3d 1e72 e7bd 1998 aa3f 0f2c 4440
00000340: 0f47 2940 338b 25bf c5bb 2bbf db7d 043e
00000350: d3a7 313d 51c8 1bbf f742 3940 9432 2bbe
00000360: 23ce 33bf 235d d23d ef74 d9be a34f bb3c
00000370: b908 3f40 72b5 eb3d d3a4 45bc de54 233e
00000380: d82d 04bf e1ec 1abe 93e2 eabe 7ba6 00bf
00000390: 49a5 37be 1cd3 98bc acc1 2cbe 165e d43d
000003a0: c538 113e 24cc da3d e932 f13d bb9c 4540
000003b0: 5c5e fc3e 5d03 c63d 8c48 ef3e caa4 bcbd
000003c0: 74bd dabd 4d33 023f 5ede c03d e441 8dbe
000003d0: d222 413e 6625 58be 07f8 41bf 9de8 093e
000003e0: bff0 28be 80f4 c63d 2574 503d 2ac1 e83e
000003f0: c027 09bf 4db7 283e c4bd 923d f396 15bf
0.17770858 -0.4231427 -0.72842526 0.06226018 -0.3406777 -0.15473226 -0.008185837 0.16221492
-0.63481873 -0.4093831 0.14680773 -0.090223946 2.880281 -0.22030407 -0.4115257 -0.066324554
-0.11317062 -0.00046695492 -0.18193582 -0.40176493 -0.16542213 0.06908759 -0.31185335 0.15752089
0.16254602 -0.20813818 0.071608044 2.821151 -0.14131185 0.20889358 -0.74076474 0.15122063
1.2274594 -0.16794235 0.03223421 -0.62071246 -0.23344323 0.06434147 -0.76003027 -0.11896916
0.10742685 -0.06567937 -0.62503695 -0.602633 -0.1021556 0.1059881 1.8623381 -0.6931257
0.026369767 -0.5910337 -0.06649841 -0.105644986 0.17007828 3.135606 0.053446677 -0.32269877
-0.14310507 -0.7499025 0.21084088 -0.62628907 -0.56522375 -0.6195563 -0.14592768 -0.6950037
-0.72996354 3.095847 -0.0287403 -0.18271412 -0.6978923 -0.7375921 0.15859152 0.20218037
0.124227814 -0.48752913 -0.52236515 -0.10328668 0.16496259 0.100727 1.4476761 2.9804726
3.0631962 -0.82006824 -0.6280823 -0.10600017 -0.102682315 -0.63128644 3.0596828 0.12687701
-0.74020255 -0.20918727 -0.38074577 0.1391834 3.0842009 -0.14533454 0.13661063 -0.18096958
-0.5661374 -0.19989602 -0.66345847 -0.564041 -0.17384307 -0.10791303 0.12361358 -0.10539481
0.022615964 -0.20088622 0.044768624 3.0368478 0.53765243 0.11306792 0.16009343 0.07738008
-0.056877308 0.6017982 -0.10851255 -0.37835512 -0.025223041 0.07115855 -0.5644825 0.18080105
0.0868368 0.113166876 0.051985398 0.32085237 -0.6279762 0.1114582 0.04233399 -0.57160103
0.01596597 -0.4082076 -0.31792578 0.12490256 -0.5473898 0.21409228 -0.032882977 0.14701909
-0.593795 -0.5259714 -0.025486942 0.16345516 2.714085 -0.58294094 -0.6266788 0.20266111
0.17599057 -0.0558258 0.09438538 -0.46575153 -0.10667433 -0.18668883 -0.4095882 0.12110995
-0.0020388665 0.19693825 -0.3582984 2.5455651 0.20212269 0.033865955 -0.510361 -0.1880974
1.3785005 0.17620924 -0.012312824 -0.35673445 0.17464589 -0.022375477 -0.7761619 -0.020022023
0.17091183 -0.07824936 -0.7665031 -0.6774481 0.18723649 0.14717636 1.7853962 -0.5477299
0.13170296 -0.78184944 0.1598121 0.02891886 -0.11822445 2.6770833 -0.11606072 -0.6207065
0.09116424 -0.58206004 0.14356442 -0.6123694 -0.6525983 -0.4840232 0.17015031 -0.7439671
-0.26640606 3.0924153 0.10823513 0.18486223 -0.7167402 -0.38096556 -0.15918595 -0.21039099
0.06250662 -0.39529973 -0.58870363 0.1496462 0.10828047 -0.11301063 1.3327667 3.0651891
2.644962 -0.64665526 -0.6708339 0.12938635 0.04337294 -0.60852534 2.8947122 -0.16718513
-0.70236415 0.10271671 -0.42472026 0.022865122 2.9849074 0.11509217 -0.012063223 0.15950343
-0.5163245 -0.15129425 -0.45875987 -0.5025403 -0.17934145 -0.018655352 -0.16870755 0.10369508
0.14181812 0.10683468 0.117772885 3.087691 0.4929074 0.0966861 0.46735036 -0.092111185
-0.106806666 0.5085953 0.09417413 -0.27589333 0.18860939 -0.21108016 -0.75769085 0.13467641
-0.16498087 0.097146034 0.050892014 0.45459872 -0.5357628 0.16476174 0.07165101 -0.58433455

fc3.bias f4 [3]
00000000: 905b bbbd a379 fbbd cb01 873e
-0.091483235 -0.1227906 0.26368555

fc1.weight f4 [128, 2]
00000000: 8965 83bd 543a 14bc 997e c4be 430c 0c3f
00000010: 0034 483d a88e c53d 7f00 09be 4fc1 9f3e
00000020: 9b81 fb3b 8cd3 043e 02be dbbd 846f 253f
00000030: 582a 0bbd f0a6 3a3f 6045 70be 2ebb ee3e
00000040: 9443 22be 8210 da3d 089b a1be 8de8 5c3f
00000050: 623c 693e 2a83 8d40 076a edbd 2a71 833e
00000060: d9ce 66bd 407c ae3e 72ee b9bd 6596 993e
00000070: b3a0 ddbd 604a 293e 6db7 b6be 4f39 5c40
00000080: d263 99be b9e5 5fc0 7e08 35be 8851 503f
00000090: 6139 e6bc a0c8 003f c71d b73c 9901 563d
000000a0: 895a 65be 35ad 173c 66ce 953c 2aa5 403e
000000b0: e7a8 873f 678b 6d3f a067 09bd 0556 003e
000000c0: 6a30 b0bd 1c1d 7540 c92c e13e 2524 62bf
000000d0: d3ab 9e3e 6406 acbd c97d 103e 5117 7f40
000000e0: a3ee 683e e929 8c40 60c3 c3be 0ce1 c73f
000000f0: 134c c13c 5dbf 1cbe 0c0f e63e ce9d 8a40
00000100: c084 c63c f0f9 463e fc99 33be 147d 8b3f
00000110: 6130 cd3e 99a3 01bf 7932 693e 79ca 7240
00000120: 5179 38bc 7f98 d33e 7281 a63e a262 8540
00000130: 7735 863e b5cd 8840 5686 2abb 0fe6 353e
00000140: 268c 423d a308 7c40 4ff8 47bd 7835 c53e
00000150: f624 90be 4ea0 ce3e 7fae b13c 40dd 893f
00000160: be03 2bbc 3d50 8f3e ca7d 8b3f 1ce0 f33f
00000170: a9b9 89be 815a 8ac0 eb80 f6bd d511 ac3e
00000180: 371e cebd d550 7d3e 0d93 133e 7537 b7bf
00000190: 46b5 3bbb b47b 1f3f 5a20 64be ff41 973f
000001a0: b5e3 1dbe 0c91 dbbd cf3f a03f 9a5e 1640
000001b0: 5853 343e 1692 8a40 c098 853f e7a6 d93f
000001c0: d4dd c83e 2868 aebd 06e7 e73e 678b 40bf
000001d0: 14bf aa3e 8142 8d40 d5b6 283e b9c0 7d40
000001e0: 40cf 88bd 5f7d 513f db78 edbc beb5 193f
000001f0: c3eb b4bd 9f09 473e 0fb1 6ebe 8774 f03d
00000200: a8ba 41be 662f 5640 6ae3 0fbf 4299 2940
00000210: e411 5f3f d6f7 7040 adf7 d7bc 057e 2d3f
00000220: f5f8 943f e75e ca3f 71e0 363d 3012 cd3e
00000230: 5ccc 24bc 8f4a bb3e e662 8e3e 0b35 7f40
00000240: d412 863f 7ce1 8c3f 2d7f 133e 0017 7b40
00000250: 9cc1 cd3e 3d3a e6be 0d90 763f 08e2 ac3e
00000260: 3dd4 0cbc 95b1 7f40 7a16 0dbd e98d b63e
00000270: 267e 0cbe f2c9 073f 7159 b5be 9d7b 9f3f
00000280: 1350 993f 6e43 0540 a67e 68bd 89b6 ae3e
00000290: 40b7 a43d 6013 7f40 3254 763d c013 18be
000002a0: f1e1 903e 866e 6f3f 6aab b93e 5e5e 8240
000002b0: e445 933f e89c b93f 03cf 00be 019e 7540
000002c0: c4b7 fd3e 7443 8240 4491 29bd ad80 023f
000002d0: af27 51be f1de 95c0 a8a2 113f 4e76 8440
000002e0: 9cb0 0cbe d0b2 a7be f7b2 0ebb 856f c73e
000002f0: 3d10 8a3f 06e2 0340 e753 92bd ca91 013f
00000300: 9e75 74bd 153e 7e40 46f7 a8be b64b 7a3f
00000310: 5628 9e3e 2099 8240 428e 13be bdc5 243f
00000320: 0b7a 5cbd a40d 313f 22af 663c 507f 43be
00000330: ae59 013e e3d1 7e40 186f b0bd 1008 323f
00000340: 9a49 a6bd 7aff 973e 0894 643d a614 503d
00000350: 1469 d4be 0706 77c0 348c dbbe 1d64 2fc0
00000360: fa6d 6b3f 548e 2b40 2e38 00be c701 66be
00000370: 5d94 12bf b8bf 1f40 c3dd 7cbe 3fdc d63e
00000380: 5bd6 15bf 9f6b 1240 71a6 f13d 0d2d 8540
00000390: 9056 a1be 1723 75c0 af92 18bf cc9b d43f
000003a0: d070 0cbc afe0 783e 1913 b03c b915 8a3e
000003b0: eece e7be 2fdf 2740 f595 c93c e817 7640
000003c0: ac51 78be 76c1 683f e8eb 503f 7ecf 8040
000003d0: a6b0 65be 868f 5f3f ead7 493e e339 8640
000003e0: 6763 843f 57c0 1e40 371d 00bf a2cd 2a40
000003f0: 3cd8 8f3f 43b8 0b40 984c ca3d 91a7 8040
-0.06415851 -0.00904711 -0.38377836 0.5470621 0.048877716 0.0964635 -0.13379095 0.3120217
0.0076753623 0.12971324 -0.107296005 0.64623284 -0.03397593 0.72910976 -0.23463964 0.46627182
-0.15846092 0.1064768 -0.31563592 0.86292344 0.2277694 4.422261 -0.11592489 0.25672275
-0.05634961 0.3407917 -0.09078683 0.29997554 -0.108216666 0.16532278 -0.35686818 3.4409978
-0.2995897 -3.4983962 -0.17679021 0.81374407 -0.028103532 0.5030613 0.022353066 0.052247617
-0.22397818 0.009257604 0.018286895 0.18813005 1.059842 0.92790836 -0.03354609 0.12532814
-0.08602984 3.8299017 0.4397948 -0.883364 0.30990466 -0.083996564 0.14110483 3.9857981
0.22747283 4.380116 -0.38234997 1.5615554 0.023595845 -0.15307374 0.44933355 4.3317633
0.024233222 0.19431281 -0.17539209 1.0897546 0.40075973 -0.50640255 0.2277316 3.793608
-0.011259393 0.41327283 0.32520634 4.16829 0.26212665 4.2751107 -0.0026020012 0.17763542
0.047496937 3.9380271 -0.04882079 0.38517356 -0.281532 0.40356678 0.021689652 1.0770645
-0.010437904 0.27990904 1.0897763 1.9052768 -0.2689946 -4.323548 -0.12036308 0.33607355
-0.10064357 0.24737866 0.14411564 -1.4313799 -0.0028641983 0.6229813 -0.22277966 1.1817015
-0.15418895 -0.10721025 1.2519473 2.349524 0.17609918 4.3303328 1.0437241 1.700406
0.3923174 -0.0851596 0.45293444 -0.7521271 0.33348906 4.414368 0.16475995 3.9648879
-0.06680155 0.81831926 -0.028988292 0.6004294 -0.088340305 0.19437264 -0.2330973 0.11740976
-0.1891886 3.346643 -0.5620638 2.649979 0.87136674 3.7651267 -0.026363218 0.67770416
1.1638476 1.5810212 0.044647638 0.40052938 -0.010058489 0.3658032 0.2780983 3.9876125
1.0474496 1.1006312 0.14403982 3.9232788 0.40186775 -0.44966307 0.96313554 0.33766198
-0.008595523 3.9952137 -0.034445263 0.35655144 -0.13719997 0.5304252 -0.354198 1.2459599
1.1977562 2.0822406 -0.056761406 0.34123638 0.08042765 3.9855576 0.06013889 -0.14851284
0.2829738 0.9352802 0.3626359 4.0740194 1.1505704 1.4501009 -0.12578969 3.8377688
0.49554265 4.070734 -0.0413983 0.50977594 -0.20425294 -4.6834645 0.5688882 4.1394415
-0.13739246 -0.3275361 -0.0021774152 0.3895227 1.0786206 2.0606704 -0.07144909 0.5061308
-0.05968248 3.9725392 -0.33001155 0.97771776 0.3089015 4.081192 -0.14409736 0.64364225
-0.053827327 0.6916144 0.014079841 -0.19091535 0.12631866 3.9815605 -0.086149395 0.6954355
-0.08119507 0.296871 0.055805236 0.050800942 -0.41486418 -3.8597429 -0.42880404 -2.7404854
0.91964686 2.680562 -0.12521431 -0.22461616 -0.57257634 2.4960766 -0.2469397 0.4196491
-0.58530205 2.2878187 0.11799324 4.1617494 -0.31511354 -3.8302667 -0.5959882 1.6610045
-0.0085718185 0.2430446 0.021493481 0.26969698 -0.45275062 2.622997 0.024607638 3.8452091
-0.24249905 0.909202 0.81609964 4.0253286 -0.22430667 0.87328374 0.19711271 4.1945662
1.0342835 2.4804895 -0.5004458 2.6688008 1.1237864 2.1831214 0.0987789 4.020455

fc1.bias f4 [128]
00000000: 4e4c c23e 2dab 783e 7488 f4bc c16b aa3e
00000010: 7510 88bc f4d9 8d3e 61b0 d33e 9d07 b33e
00000020: a2cd af3e 593b 923e 03a1 c2bd 7999 c33e
00000030: c615 bd3e 08e2 b73e 35ee bc3e e43a 8ebe
00000040: 29c6 bc3d 6275 be3e 1712 a73e c3d7 66bc
00000050: 33da a13e 4496 ba3e e41f 003c 3bd3 e03e
00000060: 59c3 05be 4fc9 e53e 0af4 a73e e1f5 99bd
00000070: 7006 c2bd 7386 4f3e 0c02 db3e 3632 fabd
00000080: a96a cbbc ef5e ba3e 98ce d23e 7aa7 adbd
00000090: ab5e cd3e 15d1 d3bd c23a c5bd 592a 4abc
000000a0: 26e4 90bd ba9c c13e 38b1 b33e f985 823e
000000b0: 7af8 b63e 98ef 143e 9cf0 cc3d 1709 a13e
000000c0: 05f2 c03e dcfe 343d 7603 ca3e f711 c53e
000000d0: 70ac b33e 9703 513e 599b b0bd ae29 b23d
000000e0: 4fb0 d53e 7017 ed3e 2f84 dcbd e99f a2bd
000000f0: 37a6 df3e 327d ca3e a662 b03e 81a7 933e
00000100: 3ebc 33be 3e87 c93d b01d 48be c003 d93e
00000110: 3bfb ea3d 4781 d33e ae89 da3e b2a0 c0bd
00000120: 867a 0c3d a5c1 99bd 0b78 d33e d6ac f4bc
00000130: 7885 cfbd 622f c93e 3fd4 9a3e 7456 823e
00000140: 61b7 7c3e ae17 b43e 442a 7abd f4d8 b03e
00000150: a9f1 c93e 13c9 dcbd 9d36 8c3d 9390 18be
00000160: 1664 fcbd 52e3 c63e 91f8 cd3d 3ecc 09be
00000170: a69f 9c3e e7ee ac3e f5fb 653e a325 d53e
00000180: ddd9 00be 062a 9c3e dd1a ccbd f533 bb3e
00000190: ec95 bb3e c4a9 76bc 042c 92bd 6f61 913e
000001a0: 403f b53e 0340 da3e bc76 dc3d e316 923d
000001b0: ae61 3c3e 2d88 ba3e eacc b63d 65cc ab3e
000001c0: dbff 913d 49dd 92bd 8736 ca3d 38ef 553e
000001d0: b10b f93e f744 c73e 2eb5 abbe 242e d03c
000001e0: de6c a63e 8787 23be 5c96 af3e 7800 b4bd
000001f0: 1cb4 9f3e 0116 d23d 345f c43e d781 83bd
0.3794884 0.24284048 -0.029850222 0.33285335 -0.01660941 0.27705348 0.41345504 0.34966746
0.34336573 0.28560904 -0.09503367 0.38203028 0.36930674 0.35914636 0.36900488 -0.27779305
0.092174836 0.3719893 0.3263099 -0.014089528 0.31611785 0.3644277 0.007820103 0.43911156
-0.130628 0.4488015 0.32803375 -0.07517601 -0.09473884 0.20266132 0.42775 -0.12216608
-0.024831133 0.36400554 0.41173244 -0.08479209 0.40111288 -0.103426136 -0.09630348 -0.012339198
-0.07074766 0.37814885 0.35096145 0.25492838 0.35736448 0.14544523 0.1000683 0.31452248
0.37684646 0.044188365 0.39455765 0.3849027 0.35092497 0.20411526 -0.0862338 0.08699356
0.41736075 0.46306944 -0.107673995 -0.07940657 0.436815 0.3954864 0.34450263 0.28838733
-0.17552277 0.098402485 -0.19542575 0.42385674 0.114737 0.41309568 0.42683166 -0.0940565
0.034296535 -0.07507638 0.41302523 -0.02986757 -0.10132879 0.39293963 0.30240056 0.25456583
0.24679329 0.35174316 -0.061075464 0.34540522 0.39442185 -0.10780539 0.06846354 -0.148989
-0.123237774 0.38845307 0.10057176 -0.13456818 0.30590552 0.33776018 0.22459395 0.41630277
-0.12583108 0.3050081 -0.09966061 0.36563078 0.3663782 -0.015055124 -0.071373016 0.28394648
0.35399818 0.42626962 0.10764834 0.071332715 0.18396637 0.3643202 0.08925803 0.33554378
0.07128879 -0.07171113 0.098736815 0.20892036 0.48641732 0.38919804 -0.33536667 0.025412627
0.32504934 -0.15969668 0.34294403 -0.08789152 0.311921 0.10258103 0.38353884 -0.06421249

fc2.weight f4 [128, 128]
00000000: 1a17 83bd edc1 85bd fa40 6f3d 6ebb babd
00000010: 3b21 a93d 3a73 cd3d daeb 993d 2e14 acbd
00000020: 868b 133e 53ee 6e3d fed8 19be be45 17be
00000030: a24c 5e3d 8ea4 903d 14fd 073e 02ae f23d
00000040: 58b0 c23d 25ad 3cbd 672d 2abc 3160 c4bd
00000050: d634 a73b 1a73 043d 3705 8f3d fd39 013d
00000060: 7596 e33c b5ee 0639 c1c2 f5bd dca6 88bd
00000070: 6a80 11bd ffa0 273d 0231 c23b f965 b0bd
00000080: 7cd2 91bd 8ae7 1abd 63af 053e 0427 d13d
00000090: 86b9 06be 14ec a9bd 0a6e 693d b412 58bd
000000a0: 3d8d 43bd aa60 ffbd a830 80bc c553 583d
000000b0: 241b 0b3e 632c 2abd 2817 78bd 48d1 e73c
000000c0: d2dc 463c 160b 983c ce72 11be dacf f43d
000000d0: 3399 ecba ff46 57bc 59d3 4abd 6977 10be
000000e0: 7559 4fbd 19eb 0fbe 6f00 813d db7c a4bd
000000f0: a336 0ebe 9fd6 9ebd 8752 753d a87e aebd
00000100: 7c4f f2bd ff9c 76bd 365e 133e 1944 ad3d
00000110: 3cff 153d e36f 21bd 65df 7fbd f597 003d
00000120: 4778 e13d a4e3 f1bd 1604 f43d 7fe4 16be
00000130: 49b6 0dbe 4a85 15be d1f0 4a3d 74fe cd3b
00000140: fe5a 1c3d e401 e6bd df5d bdbd 0f35 843d
00000150: b2a9 df3d 6a84 03be 2e52 0b3c b285 26bc
00000160: e6a8 18bd fdde 583d cc05 efbd c200 9a3d
00000170: 7835 74bd 179f d33d 7979 1bbd f2c8 db3d
00000180: 666d d1bd 6a54 0ebe c01f 1a3e 1df8 54bd
00000190: cdfb a93a 6b90 e53d 8802 0c3e 489e 033d
000001a0: b646 12be a353 c2bd de26 c33d a2e7 463d
000001b0: 094d aa3d 9462 6bbd ed6d 11be b907 c9bc
000001c0: 53c0 7a3d 42e5 da3d ab38 d0bd 27d4 99bd
000001d0: efc9 023e 43a3 003e 4e12 183e 50bb df3d
000001e0: caf5 273d e3a4 bdb9 b42d e9bd f171 61bd
000001f0: 389f 19be 42b7 cc3d e862 c13d 105e 8d3d
00000200: add3 223e 4394 253d d45d 053e 8829 773e
00000210: 6c85 043d f928 e73d d715 1c3e 7eea 463e
00000220: ba5d 323e c109 a63e f288 1fc0 9a3e 803e
00000230: 94f0 ab3e c942 ff3d 023c 9c3e 0993 56c0
00000240: d9db 39bf 4500 8f3e c56a 303e 5fe3 bd3d
00000250: fd92 923e c933 893e 48e5 e83d a4a0 7f3e
00000260: 6bcb 41c0 0a60 8f3b 704f 933d b5de 23c0
00000270: 2a23 32c0 f93d 813e c20b 6c3e b16c e7bf
00000280: cd0e 113e af3e 233e 0230 a13d 59ec 20c0
00000290: 98a5 e33d 9e71 00c0 d2e1 19c0 3a9b 58bd
000002a0: 1bfc 25c0 5703 953e 0a4a 633e 35b1 183e
000002b0: dc8b 883d 65e7 853e e03f 52bf f21d 9b3d
000002c0: 16e0 953d fd8c c13e 8d25 ba3e 4cb5 d83d
000002d0: 67f5 a13e 0cfb 293e 6638 20c0 6e06 7e3e
000002e0: 63d3 a4bd f878 283d 2250 0cc0 1621 16c0
000002f0: a984 d63d 1163 743e da7b 9e3d 0449 983e
00000300: 7406 3cc0 1ab8 253d 2a02 ecbf 1842 c93e
00000310: 0931 b23e f66d a13e 4094 043e eada 1ec0
00000320: d4ba 973e 1a12 21c0 294e 3f3d a257 b63e
00000330: 838d 44c0 98ad 9b3e d0a7 3b3e c96f f73d
00000340: 1bd2 433e ba04 943e b723 19c0 55c1 b33e
00000350: 0071 203e 644b 0ac0 f79c 2f3e f407 54c0
00000360: 494c dabf 615a a53e 8104 30bf e6d9 dcbf
00000370: 1671 8c3e 1ae1 1f3e 4230 433e 70c2 aa3d
00000380: f814 47c0 40c5 bb3d 73f6 04c0 8526 043e
00000390: 908a af3e d54a 043e e49b 18c0 ff58 773e
000003a0: 8148 a13e 6bc6 8f3e 435f f0be 255c 10bc
000003b0: 9b3c ba3e 0cd3 893e 74e5 ad3c 8074 183e
000003c0: 36af 893e 8ecf 21c0 a374 0ebf 69a4 d73d
000003d0: c268 dd3e 657d a23e 83ff 25c0 ea64 f6bf
000003e0: e514 fa3d fa58 c4bf ffb8 383e 8f2e 2ac0
000003f0: 337f 803e 65bc bdba 9bfc cd3e 0af8 19c0
-0.06400891 -0.06531129 0.058411576 -0.091177806 0.08258291 0.10031743 0.07515688 -0.084022865
0.14408693 0.058332752 -0.15024182 -0.14772698 0.0542723 0.07062636 0.13280135 0.118495956
0.09506291 -0.04606356 -0.010386801 -0.095886596 0.005102734 0.032336332 0.069834165 0.031549443
0.027781704 0.00012868161 -0.12000037 -0.06672451 -0.035522856 0.040925022 0.0059262523 -0.086132
-0.07120225 -0.03781847 0.13055186 0.1021252 -0.13156709 -0.082969815 0.056989707 -0.05275221
-0.047742117 -0.12469609 -0.015648201 0.052814264 0.13584572 -0.041546237 -0.06056896 0.028298035
0.012137609 0.018559974 -0.14203951 0.11953707 -0.0018051028 -0.013139485 -0.049517963 -0.14108051
-0.050622422 -0.14054526 0.06298911 -0.08031627 -0.1388803 -0.077557795 0.059893157 -0.085202515
-0.11831567 -0.060208317 0.14391407 0.08460254 0.036620364 -0.039413344 -0.062468905 0.031394918
0.11009269 -0.11810997 0.11914842 -0.14735602 -0.13839068 -0.14601627 0.049546067 0.0062864367
0.038172714 -0.11230829 -0.0924642 0.064554326 0.10921039 -0.1284348 0.00850348 -0.010163711
-0.03727045 0.052947033 -0.116710275 0.07519676 -0.059621304 0.10333078 -0.037957642 0.10731687
-0.10225944 -0.13899389 0.15051174 -0.05199443 0.0012968719 0.11209186 0.1367284 0.03213337
-0.14284787 -0.09488609 0.09528898 0.048560746 0.083154745 -0.05746706 -0.1420209 -0.024539815
0.06121857 0.10688259 -0.101670586 -0.07511168 0.12772344 0.1256228 0.14850733 0.10924399
0.041005887 -0.0003617174 -0.1138567 -0.055040304 -0.15002143 0.09995891 0.09442693 0.069027066
0.1590106 0.040424597 0.13024074 0.24136937 0.032353804 0.11287112 0.15242706 0.19425389
0.17418566 0.32429317 -2.4927335 0.2504776 0.33581984 0.1246391 0.30514532 -3.3527243
-0.72601086 0.27929893 0.1722823 0.09271883 0.28627768 0.2679732 0.11371857 0.24963623
-3.0280406 0.0043754624 0.07192886 -2.560468 -2.7833962 0.25242594 0.2305136 -1.8080045
0.14165802 0.1594188 0.07870485 -2.5144255 0.11115569 -2.0069346 -2.404408 -0.05288241
-2.5935123 0.2910411 0.22196212 0.14911349 0.06667301 0.26153103 -0.82128716 0.07574071
0.073181316 0.37802878 0.36356774 0.10581455 0.3163254 0.16599673 -2.5034423 0.2480714
-0.08048131 0.04113099 -2.192391 -2.3457694 0.10474522 0.23865916 0.077384666 0.29743207
-2.9378939 0.040458776 -1.843816 0.39308238 0.34803036 0.31529206 0.12947178 -2.4821115
0.29634726 -2.5167298 0.0467054 0.35613734 -3.0711372 0.3040588 0.18325734 0.12081868
0.19123118 0.28909856 -2.3928049 0.35108438 0.15668106 -2.1608515 0.17149721 -3.3129854
-1.705453 0.32295516 -0.6875687 -1.7253997 0.27430028 0.15613213 0.19061378 0.08337867
-3.1106548 0.09168482 -2.077542 0.12905319 0.34285402 0.12919171 -2.3845148 0.24155043
0.3150063 0.28081068 -0.4694768 -0.0088110315 0.36374363 0.26918828 0.021227576 0.14888191
0.26891488 -2.5282931 -0.55646724 0.105294056 0.43243986 0.31736293 -2.5937202 -1.9249547
0.122110166 -1.5339653 0.1803932 -2.6590917 0.25097045 -0.0014475702 0.40231785 -2.405764

fc2.bias f4 [128]
00000000: 0000 0000 2d9a 3c3e f764 1a3e 0000 0000
00000010: 2f6d 3d3e 4f5d 09bd a8e7 32bc 609c b4bb
00000020: f069 333e 332a 843e 0000 0000 1dac cabc
00000030: b48d 02be 2cd9 593e a6f8 2d3e 687f 1dbd
00000040: 0000 0000 372c 8e3e 0000 0000 15d7 293e
00000050: 25e2 64bc 0000 0000 773b 3a3e 9828 bfb9
00000060: cda6 80bc 0000 0000 52c0 1b3e c4cc f9bd
00000070: 4336 eaba 3275 d9bb d478 493e 6227 d4bb
00000080: d811 bb3e b1a9 4abc bd93 05bb 522f 423e
00000090: c6e5 22bd ea47 56bc e294 603e 0000 0000
000000a0: c8a0 36bc 17cc 2ebc abc1 d33e 52a2 213e
000000b0: ae90 18bc cd1d 02bc 18b4 05be afbc 233e
000000c0: 4d0e a5bc 09b8 b13e 0000 0000 0000 0000
000000d0: d1ea e1bb 4aab e6bd 2ff7 1bbc 2cf7 483e
000000e0: 0000 0000 7b93 953e 2760 26bb 1797 333e
000000f0: 5c94 3b3e ce22 233e eae3 0abd 2580 cd3e
00000100: 46f0 333e f155 f0bd 0000 0000 2f5c 27bb
00000110: f094 373e 7c13 523e 454c 3abd d5a8 05bc
00000120: 2448 d4bc 1ddf 2c3e db0a 393e 879d 29bc
00000130: 2897 35bc 013c 4fbc 7766 8f3e 801a f8bd
00000140: 91a5 f9bd 05c2 863e 081b 413e 2510 82bb
00000150: b398 6abc 5bc2 bc3e 5bab eabd 0000 0000
00000160: 1f0f 843e 0000 0000 b307 393e 6545 81bc
00000170: 39db d6bd 0000 0000 0000 0000 e2a0 dfbb
00000180: e596 673e 0000 0000 5b26 673e aa44 313e
00000190: 7e26 12bc 714c cdba ade2 02bc 0000 0000
000001a0: e723 4abc 4164 26bb 0000 0000 45e3 efbd
000001b0: bee1 d43e be34 19bc 46ef acbd 0000 0000
000001c0: 0000 0000 a2d4 c13d bf31 26bc bf8f 5f3e
000001d0: 3181 e0bc 0000 0000 8232 6f3e 2eab 9ebc
000001e0: 3845 cebc 90ff 37bc 0000 0000 29a9 043d
000001f0: 9f6b 333e 5c85 42ba 0fb0 a5bb e6a4 2f3e
0.0 0.18418188 0.15077578 0.0 0.18498681 -0.03353625 -0.010919489 -0.0055118054
0.1752088 0.25813445 0.0 -0.024740273 -0.12749368 0.21274251 0.16989383 -0.038451582
0.0 0.27768108 0.0 0.16585954 -0.013969933 0.0 0.18186747 -0.00036460604
-0.015704537 0.0 0.15210083 -0.12197259 -0.0017868954 -0.006636285 0.19674999 -0.0064744214
0.3653705 -0.012369559 -0.0020382248 0.18963364 -0.03976991 -0.013078669 0.21931794 0.0
-0.011146732 -0.010668776 0.41358694 0.15784577 -0.009311838 -0.007941675 -0.13056982 0.15989946
-0.02014842 0.3471072 0.0 0.0 -0.0068944474 -0.112631395 -0.009519382 0.19625539
0.0 0.2921408 -0.00253869 0.17538105 0.18318313 0.15931246 -0.033908762 0.4013683
0.17572126 -0.11735142 0.0 -0.0025537123 0.17927909 0.20515245 -0.045482893 -0.0081579285
-0.025913306 0.16881986 0.18070547 -0.010352499 -0.011083402 -0.012648583 0.28007862 -0.121144295
-0.121897824 0.263199 0.18857968 -0.0039692097 -0.014318633 0.3686703 -0.11458465 0.0
0.25792786 0.0 0.18069343 -0.01578016 -0.10491032 0.0 0.0 -0.0068245986
0.22616155 0.0 0.22573225 0.1731135 -0.00892031 -0.001566304 -0.007988614 0.0
-0.012337661 -0.0025389346 0.0 -0.1171327 0.41578478 -0.009350954 -0.08444075 0.0
0.0 0.094643846 -0.010143696 0.21832179 -0.027405353 0.0 0.23359111 -0.019368734
-0.02517949 -0.011230364 0.0 0.032387886 0.17521523 -0.0007420385 -0.005056388 0.17152748

fc3.weight f4 [3, 128]
00000000: 3df9 353e eee9 d9be 05dc 39bf 8804 7f3d
00000010: d683 afbe dc73 1ebe 3d1d 06bc de1b 263e
00000020: 5347 22bf 8abf d2be c454 163e 8fc7 b8bd
00000030: f36d 3640 56f3 64be f1ae d2be b7d8 87bd
00000040: 0bc6 e7bd d88b 7dbb 684d 3abe 30c5 cebe
00000050: 7e64 29be cb7d 8d3d dc6f a1be 284d 213e
00000060: 9672 263e 2d22 55be 0780 823d dba4 3240
00000070: 66b3 10be 33e8 553e 106f 3cbf 0ed9 1a3e
00000080: 22e7 9b3f 6ef9 2bbe 6c08 043d 6986 1ebf
00000090: 120f 6fbe 3dc5 833d 78e7 3fbf 1aa6 f3bd
000000a0: 1903 dc3d cd82 86bd 4a5b 1fbf 1641 1abf
000000b0: 4236 d1bd 6910 d93d 7002 e93f 3ec6 30bf
000000c0: 0106 d83c 40de 16bf 5230 88bd 665c d8bd
000000d0: 9629 2e3e 2446 4640 89ea 5a3d 84f5 a5be
000000e0: 238a 12be af17 3fbf ace6 573e 076c 20bf
000000f0: 7e3f 10bf 94a5 1ebf 556e 15be c4dc 30bf
00000100: f689 3abf 9dce 4340 c770 ebbc 5019 3bbe
00000110: b5ff 30bf d5a4 3bbf a660 223e 7008 4f3e
00000120: c268 fe3d ec5e fabe c431 05bf 0288 d3bd
00000130: 67eb 283e 984a ce3d 8dc8 b73f a387 3c40
00000140: 9fd9 4140 a240 50bf 9775 1fbf aa16 d9bd
00000150: 994b d2bd 32e2 20bf db8f 4140 0cec 013e
00000160: c27c 3bbf 3035 56be 6b55 c4be 5c86 0e3e
00000170: ed02 4340 94d2 14be a8e3 0b3e 804f 39be
00000180: 8b1b 11bf 8bb1 4cbe 08d9 28bf fa9d 10bf
00000190: 4f04 32be 8201 ddbd d329 fd3d 3cd9 d7bd
000001a0: 1d45 b93c 99b4 4dbe 4e5f 373d 5709 4040
000001b0: f286 073f ea90 e73d 5902 163e 7379 9e3d
000001c0: 2ef8 68bd c327 103f da3b debd 4ea6 c3be
000001d0: 89a0 cebc 93bb 913d 63e0 0ebf 8724 393e
000001e0: c7d7 b13d 7ac4 e73d a4ee 543d e45a 713e
000001f0: 1a6c 20bf 3244 e43d 0e67 2d3d 43f7 11bf
00000200: 11cb 823c 8547 d2be f208 a2be eacc ff3d
00000210: 518a 0cbf 7b2c 5a3e 1db0 06bd 458c 163e
00000220: 87a9 17bf 525b 07bf fec9 d0bc de60 273e
00000230: 2647 2c40 27d6 15bf f546 20bf 2081 4e3e
00000240: df36 343e d99c 6bbd 1f4d c13d 1550 efbe
00000250: f8fb dbbd 5b2b 3fbe f302 d3be 8c08 f83d
00000260: e59d 05bb 39aa 493e 6be3 b9be 017e 2140
00000270: 40f9 4e3e 07b7 0a3d d579 01bf 089d 40be
00000280: ba61 af3f 9f70 343e 69bb 49bc c4f1 b5be
00000290: 9494 313e a84c b7bc 30c0 43bf 3a05 a4bc
000002a0: 8e03 2f3e a740 a0bd fea7 43bf d259 2dbf
000002b0: ecba 3f3e adb5 163e 0cec e13f d985 0bbf
000002c0: 6cdd 063e 91c6 47bf c8a5 233e 3fe7 ec3c
000002d0: 441f f2bd 3fcf 2940 aab1 edbd 7b15 1fbf
000002e0: 51b4 ba3d b8c1 14bf 8d02 133e cbdd 1cbf
000002f0: ac8c 26bf 36ae f7be 8f3b 2e3e eca9 3dbf
00000300: c2c1 87be 3569 4440 61aa dd3d 974c 3d3e
00000310: fd9a 35bf cb11 c1be bb8e 24be 0270 57be
00000320: 12f8 7c3d 80ff cabe ed1c 16bf 553d 193e
00000330: c1c2 dd3d ab71 e7bd 124d a93f b2ae 4240
00000340: a9ca 2740 3366 24bf b34a 2abf db7d 043e
00000350: 1fa8 313d 1a51 1bbf 24c3 3740 9432 2bbe
00000360: 1fc1 31bf 235d d23d 0a89 dabe ff4f bb3c
00000370: 0285 3d40 72b5 eb3d d3a4 45bc ee54 233e
00000380: de63 04bf e1ec 1abe a00b e9be 9c9e 00bf
00000390: 49a5 37be 1cd3 98bc 6fc1 2cbe 165e d43d
000003a0: c538 113e 2acc da3d e932 f13d e01b 4440
000003b0: a864 f83e d803 c63d 7a7d e53e caa4 bcbd
000003c0: 74bd dabd bcb4 f13e a8de c03d 27d6 8ebe
000003d0: 6823 413e 6625 58be 6a28 40bf 55e8 093e
000003e0: 17f0 28be 40f5 c63d 2574 503d 0aed be3e
000003f0: 10c4 08bf 4db7 283e 0dbe 923d a530 15bf
0.17770858 -0.42561287 -0.7260135 0.06226018 -0.3428027 -0.15473884 -0.008185682 0.16221568
-0.6339008 -0.41161758 0.14680773 -0.09022438 2.8504608 -0.2235845 -0.41149095 -0.06633132
-0.113170706 -0.003868809 -0.1819359 -0.40384817 -0.16542241 0.06908759 -0.31530654 0.15752089
0.16254649 -0.20813818 0.063720755 2.791312 -0.14130935 0.20889358 -0.7360697 0.15121862
1.2179911 -0.16794369 0.032234594 -0.61923844 -0.23345593 0.064341046 -0.7496257 -0.11896916
0.10742778 -0.06567917 -0.6224867 -0.60255563 -0.10215427 0.10598833 1.8203869 -0.69052494
0.02637005 -0.58932877 -0.06649841 -0.105644986 0.17008051 3.098031 0.053446326 -0.32413876
-0.14310507 -0.74645513 0.21084088 -0.62664837 -0.5634688 -0.619714 -0.1459287 -0.6908686
-0.7286676 3.0594857 -0.0287403 -0.18271375 -0.6914018 -0.7329839 0.15857181 0.20218062
0.12422325 -0.48900545 -0.5202906 -0.10328676 0.16496049 0.100728214 1.4358078 2.9457786
3.0289075 -0.8134862 -0.622888 -0.10600026 -0.10268325 -0.62845147 3.0244052 0.12687701
-0.7323724 -0.20918727 -0.3834642 0.13918442 3.0470536 -0.14533454 0.13661063 -0.18096733
-0.5668265 -0.19989602 -0.65956163 -0.56491053 -0.17384456 -0.10791303 0.12361493 -0.10539481
0.022615964 -0.20088424 0.044768624 3.00057 0.52940285 0.11306937 0.14649333 0.07738008
-0.056877308 0.5631067 -0.108512595 -0.38212818 -0.025223034 0.07115855 -0.55811137 0.1808034
0.086837344 0.11316772 0.051985398 0.23569828 -0.6266495 0.1114582 0.04233461 -0.57017916
0.01596597 -0.4107019 -0.3164745 0.12490256 -0.54898554 0.2130603 -0.0328828 0.14701946
-0.59243053 -0.5287372 -0.025486942 0.16345546 2.6918426 -0.58529896 -0.6260827 0.20166445
0.17599057 -0.05752263 0.09438538 -0.46740785 -0.107414186 -0.18668883 -0.41213188 0.12111005
-0.0020388302 0.19693841 -0.3630632 2.5233157 0.20212269 0.033865955 -0.50576526 -0.18809903
1.3701699 0.17621087 -0.0123127485 -0.35536015 0.17341834 -0.02237542 -0.7646513 -0.020022023
0.170912 -0.078248315 -0.7642821 -0.6771518 0.18723649 0.14717741 1.7650161 -0.5450111
0.13170403 -0.78037363 0.1598121 0.02891886 -0.1182237 2.6532743 -0.11606152 -0.6214215
0.09116424 -0.5810809 0.14356442 -0.6127593 -0.650584 -0.483751 0.17014907 -0.74087405
-0.26515013 3.0689213 0.10823513 0.18486248 -0.7093962 -0.37708887 -0.16070072 -0.21038821
0.061760016 -0.39648056 -0.5863789 0.14964803 0.10828162 -0.11300977 1.3226645 3.0419126
2.6217444 -0.64218444 -0.6652023 0.12938635 0.043373223 -0.60670626 2.8712854 -0.16718513
-0.69435304 0.10271671 -0.42682678 0.022865294 2.9612432 0.11509217 -0.012063223 0.15950367
-0.51714885 -0.15129425 -0.45516682 -0.5024202 -0.17934145 -0.018655352 -0.16870664 0.10369508
0.14181812 0.106834725 0.117772885 3.0642014 0.48514295 0.09668702 0.44822294 -0.092111185
-0.106806666 0.47208202 0.09417468 -0.2789776 0.18861163 -0.21108016 -0.75061667 0.13467534
-0.16497837 0.097147465 0.050892014 0.3729022 -0.5342417 0.16476174 0.071651556 -0.5827735

fc3.bias f4 [3]
00000000: ffc5 c9bd ecaf 03be 3d27 823e
-0.09852218 -0.12860078 0.2542056
