Project/output/old2/norm/ddqn_test/final_model.pth (torch, 287307 bytes, 24 tensors)

fc1.weight f4 [128, 4]
000000 a0 c5 0e bb fd a8 f8 3c 80 e2 a2 bf d8 c2 5c be
       -0.0021785274 0.030354017 -1.2725372 -0.21558702
000010 11 e4 97 3d ac 80 14 be 21 5e c4 be 27 86 fd bd
       0.07416547 -0.1450221 -0.38353065 -0.12379103
000020 bf 23 86 3e a5 3e 43 be cc dc 31 3e aa 2c 14 be
       0.26199147 -0.19066866 0.17369384 -0.14470163
000030 3f 2c 7d bc 14 21 5d 3c 72 92 fe bd de 95 14 3b
       -0.015452444 0.013496656 -0.12430276 0.0022672336
000040 58 98 df ba c8 3b be b7 14 b8 8d 3d 0e 55 37 bd
       -0.0017058952 -2.2677603e-05 0.06919876 -0.04475885
000050 e4 56 90 be c1 82 3d be bc 58 29 bf 8e 07 41 be
       -0.28191292 -0.1850691 -0.6615102 -0.18850538
000060 cb bd 62 3d 74 14 c4 bd d7 f3 42 bf b6 bc c0 bd
       0.055356782 -0.095742136 -0.7615332 -0.09410994
000070 b3 95 85 be 3c 62 56 3e 17 f8 a4 3f f4 b7 97 3e
       -0.26090774 0.20935911 1.2888211 0.29632533
000080 08 9e f0 bb fb f6 97 bd 99 9c b8 3f 8a a8 43 3e
       -0.0073430575 -0.07420155 1.442279 0.19107261
000090 f8 60 de bb 3a 92 50 3b 5b ca 99 bf 24 d4 3c be
       -0.006786462 0.003182544 -1.2014879 -0.184403
0000a0 c4 fb 59 3e a5 67 11 3c 93 ac 72 be ae 26 05 bd
       0.21287447 0.008874808 -0.23698644 -0.03250759
0000b0 46 42 e9 3b 4b 21 e8 bd b4 54 1a 3e 63 f6 0e be
       0.007118496 -0.11334475 0.15071374 -0.13961177
0000c0 79 02 4b 3d f0 e7 9e bc 92 dd a0 3e 72 07 3b bc
       0.049562905 -0.019397706 0.31419045 -0.011415349
0000d0 d0 2e 37 be 10 6f 44 be 6f 98 1a bf 91 36 69 be
       -0.17888951 -0.19182992 -0.60388845 -0.22774722
0000e0 10 d2 10 3c 73 a6 2b bc 3b 81 6d 3f e9 0f 1d 3e
       0.008839145 -0.010476696 0.92775315 0.153381
0000f0 f6 98 30 3e 4a 48 8c 3d 49 31 dd 3e 48 fc 85 3d
       0.1724585 0.068497255 0.43201664 0.065422595
000100 c9 92 cd 3c 53 8a 98 bd ab 9e 80 3e 26 be f2 3c
       0.025094407 -0.07448258 0.25121054 0.029631685
000110 04 f3 b2 3e 85 31 cb 3d d1 ce d4 3e d1 93 86 3d
       0.3495103 0.099215545 0.41564038 0.065711625
000120 fe 74 cc 3d a7 b3 4e 3e a0 fc e0 be e3 fc 51 3d
       0.09983252 0.2018572 -0.43942738 0.051266562
000130 a9 50 40 3e 1b b4 7c be 74 5c d1 3d 71 3a a4 bd
       0.1878077 -0.2467808 0.10222712 -0.08018959
000140 f3 97 a3 bd 7c 1f 43 3d 7a ba 61 3d fa 87 a7 3c
       -0.079879664 0.047637448 0.05510948 0.02045058
000150 a6 ee 8c 3d 62 84 a7 bd fa c1 ee be 65 45 9c bd
       0.06881456 -0.08179547 -0.46632367 -0.076304235
000160 6a cb 34 be 5f 1f 04 3e 65 f3 5b 3f 6d 49 75 3e
       -0.17655721 0.12902592 0.85918266 0.23953791
000170 f5 20 e2 bb cd cf f0 bb 67 0d 0a bd 21 be 8d bc
       -0.0069009014 -0.0073489905 -0.033704188 -0.017302575
000180 cc 4b 00 3f 76 d1 ba 3d b1 68 fd 3e 84 45 87 3d
       0.50115657 0.09121983 0.49493936 0.06605056
000190 8a c6 e5 bd 8d 75 93 bd 6f 06 eb be ab ab 04 be
       -0.11219509 -0.072001554 -0.45903346 -0.12956111
0001a0 73 0a 89 3e a6 ea ce 3d fc 8e 03 3f c7 63 d0 3d
       0.26765785 0.101033494 0.5139005 0.10175281
0001b0 61 b0 04 3f 74 24 cc 3d f1 b6 06 3f fb 33 92 3d
       0.5183163 0.099678904 0.52622896 0.07138821
0001c0 ac e8 bb bb bf 62 cd bc 21 63 b5 bf bc 7d 11 bd
       -0.0057345238 -0.0250715 -1.4170877 -0.0355203
0001d0 96 72 1b bd c0 12 84 3d 75 39 35 bd a7 2f ab bd
       -0.037951075 0.06448889 -0.04424425 -0.08358698
0001e0 16 6f 76 bc 85 e9 0a bd 9d 6e ec bf 72 ce 90 be
       -0.015041133 -0.033914108 -1.8471256 -0.28282505
0001f0 6e e8 68 3c 7e 67 fd bc eb e0 ae 3f 6f 7f 50 3e
       0.014215572 -0.030933138 1.366239 0.20361112
000200 8b 49 1f 3e 05 a4 39 3e b1 d2 5a 3f 90 a7 66 3e
       0.15555398 0.18128975 0.8547774 0.22524858
000210 f4 fa 1c 3e 43 5b 0c 3e 08 ca 2f 3f dc 13 4c 3e
       0.15330106 0.13706689 0.6866765 0.19929451
000220 d5 fb e4 3e c1 1e 73 3d 71 d3 fc bd 70 64 0e 3c
       0.44723383 0.0593555 -0.12345017 0.008690938
000230 5a b2 fe 3d 30 c7 64 be 22 18 15 bf 1d a8 0b be
       0.124363616 -0.22341609 -0.5823995 -0.13638349
000240 d7 ad 3b bd 8d 89 91 3c 32 03 21 3c 8e a8 b3 bb
       -0.045820083 0.017765785 0.009827422 -0.00548274
000250 b1 12 e3 3c 2c ae 64 bd c3 6b f6 be ee 78 87 bd
       0.027718874 -0.055830166 -0.4812909 -0.066148624
000260 11 ad 3f bd 03 7d 08 3d 2c a5 72 bf 44 11 8a be
       -0.04679591 0.033322345 -0.9478328 -0.26966298
000270 34 c7 c6 3a bc 6b ff 3b c0 0c cc bd c4 17 6e 3c
       0.0015165568 0.0077948254 -0.09963369 0.014532033
000280 19 ba 18 3d 84 ae f6 bd 34 ff 17 bf e7 52 4c be
       0.03728685 -0.12045005 -0.59373784 -0.199535
000290 5e 2f 78 be 5c 3e 3e be 1d 0e df be 62 53 3d be
       -0.24236819 -0.18578476 -0.43565455 -0.1848884
0002a0 ac 27 23 3d c8 0b e4 3d bf 00 32 3e d7 0d 2e 3d
       0.039832756 0.111350596 0.17383097 0.042493667
0002b0 12 a9 fa be d6 47 ee 3d cf 65 8e 3f ea 44 8d 3e
       -0.48957115 0.11634795 1.112482 0.2759164
0002c0 d8 66 a9 3d de dc 82 bd 51 fd c7 3e 05 19 b4 3b
       0.08271569 -0.06389783 0.39060453 0.0054961466
0002d0 9e d3 f8 3d bd 25 33 3e c9 cb 0d 3f c5 a0 74 3e
       0.12149738 0.17494865 0.55389076 0.23889454
0002e0 cb 0f 0a bd dc 20 ba 3c a9 f8 81 3f 25 67 b4 3d
       -0.033706468 0.022720747 1.015401 0.08808736
0002f0 3d 6c 27 3e a5 2f 4d be d2 d1 87 3e 94 f1 c9 bd
       0.16349883 -0.20037706 0.26527268 -0.098605305
000300 f0 55 c2 bc 5b df 34 3e 80 42 d6 3e 5f 16 94 3e
       -0.023722619 0.17663328 0.4184761 0.28923318
000310 68 22 19 3b e8 f4 74 3b 78 0e b4 3e 6b 48 1d 3d
       0.0023366455 0.003737742 0.3516729 0.03839914
000320 8c 6d 39 3d 36 ce 85 bd bf 05 93 bd cd 43 a1 bd
       0.045270488 -0.06533472 -0.0717883 -0.0787426
000330 31 29 a1 bc 2f e0 f8 3b a7 8d 92 3e eb 4e 18 3c
       -0.019672962 0.007595084 0.28623697 0.009296159
000340 ed 2c 3a 3d 7f 77 cf bd 95 e7 d3 be 4e 65 be bd
       0.045453 -0.10130214 -0.4138762 -0.09296666
000350 bb ef 5d 3e c3 49 5f be 91 06 8f 3d 30 48 1f be
       0.21673481 -0.21805482 0.06983674 -0.15554881
000360 b9 14 6e 3e ad 33 e4 3d aa 75 05 3f a8 5e d1 3d
       0.23250093 0.11142669 0.52132666 0.10223132
000370 52 eb cf bd da 5e cb 3d 2d 1e 5a 3d 76 e3 8f 3d
       -0.10152306 0.09930201 0.053251434 0.070258066
000380 e0 3c 26 bf 86 74 2f be 8e e5 fb be 29 29 d8 bd
       -0.6493664 -0.17134294 -0.49198574 -0.10554726
000390 94 05 f1 3c bc 35 d9 3c ac e4 c9 3f c6 49 83 3e
       0.029421605 0.02651488 1.577291 0.25642222
0003a0 5f a5 32 3c de 5b 1a bd 61 57 87 bf 1d f3 99 be
       0.010903685 -0.037685268 -1.0573541 -0.30068293
0003b0 fb 25 62 be 0c 47 0c 3e 4c 81 7a 3f ac f2 75 3e
       -0.22084801 0.13698977 0.9785354 0.24018353
0003c0 4f f1 90 3e 7f 01 1b 3a d4 23 ec be ca 83 70 bd
       0.28309104 0.00059130037 -0.46121085 -0.058719434
0003d0 8c da 7f be 21 c3 8c 3d 64 de 0b 3f 56 da cf 3d
       -0.24985713 0.068731554 0.54636216 0.10149066
0003e0 9b d5 c9 bb 02 1e 75 3a ba a1 44 3d 3d 5d b9 bc
       -0.006159497 0.000935048 0.048005797 -0.022627467
0003f0 e1 db 70 3c 9d 2a 3c 3d 82 86 8e bf 18 1b 11 be
       0.014700861 0.045939077 -1.1134799 -0.14170492

fc1.bias f4 [128]
000000 c0 d1 c3 be 7a 17 a4 be 26 83 48 bd 22 4e 34 bd
       -0.38245964 -0.3204916 -0.048953198 -0.044019826
000010 ef 15 f4 bd ab c2 56 be 8b d4 9d be 4e f4 aa be
       -0.11918246 -0.20972697 -0.3082622 -0.33389515
000020 cb e9 f3 be 1b 1b bb be 5c 9d d5 be 40 5e 31 bd
       -0.47639307 -0.36544117 -0.41721618 -0.043302774
000030 a2 0e 38 be 7b 4b 17 be 4f ac 73 be 84 44 ad be
       -0.17974332 -0.14774887 -0.237962 -0.33841336
000040 ac 06 3e 3e 49 3e 38 3d c4 f4 5d be 85 e2 33 be
       0.18557233 0.044981275 -0.21675402 -0.17566879
000050 58 6e 14 be b7 f3 91 bd f0 76 a2 be 2f 59 bd bd
       -0.14495218 -0.07126563 -0.31731367 -0.09245526
000060 b3 04 72 bc 0e a5 8a be 5e d6 bf 3d 4b 5a 2b 3d
       -0.014771628 -0.27079052 0.09367059 0.041834157
000070 40 e0 8f be ec b7 45 bd d4 90 c9 be dd 4a d4 be
       -0.28100777 -0.048271105 -0.39368308 -0.41463366
000080 27 0e 30 be 47 bd 1b bf 5f a8 1a 3e 95 39 8b be
       -0.17192899 -0.6083569 0.15103291 -0.2719237
000090 51 54 e9 bd 51 41 65 be fd 61 0d bf 94 4e 14 bd
       -0.11393035 -0.22388197 -0.55227643 -0.03620775
0000a0 dd f6 7e be 10 17 d5 bd c7 8b b4 3d db f8 b0 be
       -0.24898858 -0.104047894 0.08815723 -0.34564862
0000b0 c8 c5 ec 3d f4 75 10 bf 8f ac 5e be fa 15 c0 be
       0.11561161 -0.5642998 -0.21745513 -0.37516767
0000c0 90 13 95 be 2f cc dd bb 89 a7 2e be 12 f7 0a be
       -0.29116488 -0.0067687253 -0.17056097 -0.13570812
0000d0 10 1d 8a be 67 66 d1 bb 3d 17 83 bd 47 4e be bd
       -0.26975298 -0.006390381 -0.06400917 -0.09292274
0000e0 22 b0 85 be f6 79 bc be 43 6f bf be a7 95 9b be
       -0.2611094 -0.368118 -0.37389573 -0.30387613
0000f0 ce 5a 85 3e 45 27 09 be d3 6a 04 be 5f 8a 5e be
       0.2604584 -0.13393886 -0.12931375 -0.21732472
000100 fb f5 58 be 6f 05 7f be 05 93 8d be f0 14 ed bb
       -0.21187584 -0.24904417 -0.2765123 -0.007235162
000110 7e ce 92 be 0f 30 17 be 6e 6f b5 be f8 17 ad be
       -0.28673166 -0.14764427 -0.35436577 -0.3380735
000120 6f 2c c5 3d 76 0a 19 3d 72 5d b6 be fb 7f 1d bd
       0.09627616 0.037363492 -0.35618168 -0.03845213
000130 08 7d c3 bd a4 f3 0a 3e 84 f6 94 be 27 53 4e 3d
       -0.09545332 0.13569504 -0.29094326 0.05037227
000140 24 42 ab 3d 48 07 1f bf d4 5d 16 bc 5e c1 29 be
       0.08362225 -0.62120485 -0.009177644 -0.1657767
000150 db de ab be 84 8a 90 be da a6 a9 be da d2 cc be
       -0.33568463 -0.2823068 -0.3313511 -0.40004617
000160 05 6c ed be 77 19 0d 3e be c5 bd be 96 f2 b9 be
       -0.46371475 0.13779245 -0.37064928 -0.3631789
000170 dc bb 0d be 86 97 3e be 40 bc 6d 3c 09 fd 91 3e
       -0.13841194 -0.18612489 0.014510214 0.28513363
000180 43 c6 58 3e 70 e1 80 be 7d c5 90 be 64 5d 04 be
       0.21169381 -0.25171995 -0.28275672 -0.1292625
000190 a5 27 c0 3b 96 86 6b be f6 cf 55 be 5a 46 2b bd
       0.005864101 -0.23000559 -0.20880112 -0.04181514
0001a0 47 f0 3d be d0 2e 3a be 74 d5 e4 be a3 d0 0c be
       -0.1854869 -0.1818192 -0.44694102 -0.13751464
0001b0 87 63 7b be 10 e5 09 be 78 b0 6a bd 9f 1f e6 be
       -0.24549685 -0.13466287 -0.0572972 -0.44946
0001c0 c5 ff 17 3e fb fb ae be e4 66 6a 3d 82 8e 72 be
       0.14843662 -0.3417662 0.05722703 -0.23687175
0001d0 20 f2 1e be cc e8 1b be 45 41 bb be 96 08 77 be
       -0.15522051 -0.15225524 -0.36573234 -0.24124369
0001e0 76 9a b1 bd 7c db 8f be df 33 f0 bd 67 3d c4 3d
       -0.08672039 -0.2809714 -0.117286436 0.09582024
0001f0 9f a1 aa be c4 5b d3 3b d2 b0 a8 be 57 df 9c 3d
       -0.33326432 0.0064501483 -0.32947403 0.07659786

fc2.weight f4 [128, 128]
000000 ee b9 7a 3d f8 fa 2d bf 12 cd 15 be e9 75 61 3d
       0.061212473 -0.6796107 -0.1462901 0.05504409
000010 f1 e8 87 3d c1 8c bc 3d 20 2e a8 be 2e 1e 8c 3e
       0.06636227 0.09206534 -0.3284769 0.27366775
000020 ed 3f 5e bf 36 6e 86 3e 82 9b ce be 53 e9 56 3d
       -0.86816293 0.2625596 -0.40353018 0.05246861
000030 ad 5d a9 3e 7e 7e 5a 3e 2c 35 e4 3c 34 c5 ae 39
       0.3307928 0.21337315 0.027857386 0.00033334794
000040 c6 3b af 3a c0 c7 98 3e cf 51 3f 3d fc f0 04 3d
       0.0013369254 0.29839897 0.046708878 0.032456383
000050 8d 26 ba 3e 46 2d 5a 3d 40 32 23 bf 88 13 34 3e
       0.36357537 0.053265832 -0.6374855 0.17585576
000060 cf e4 7c bd 51 70 01 3e 67 40 3c bd 84 a0 58 3e
       -0.061741646 0.12640502 -0.045959856 0.21154982
000070 c3 51 39 be 1d 10 eb 3d a8 71 a7 bc 78 f2 db 3c
       -0.18097596 0.11477683 -0.020439938 0.026849017
000080 1f 19 ff 3e 56 b1 1f bf 1a ca c5 3d 9a 8f 93 be
       0.49823853 -0.6237997 0.096576884 -0.28820497
000090 42 0a 78 3e c8 21 e0 bd 54 49 a4 be 50 f3 cd 3c
       0.24222663 -0.10943943 -0.32087195 0.025140435
0000a0 99 d7 40 3e 0c 3f ef 3e 89 11 a4 bd ee 0b 29 be
       0.18832244 0.46727788 -0.08011157 -0.16508457
0000b0 5f 1f 14 3e 43 b1 d4 be 35 a2 6b 3d 9a a6 e0 bd
       0.14465092 -0.4154149 0.05752774 -0.10969277
0000c0 5f 36 db 3d 43 b1 25 3e 5f d4 9c bd 61 0b 1a bc
       0.1070373 0.16180901 -0.07657694 -0.009402127
0000d0 ba 92 56 be ab df c5 3c 0e 6d e7 3a 9c cc 51 3e
       -0.20954409 0.024154505 0.0017656402 0.20488209
0000e0 7d 7b 97 3d c1 0c 0e bc 02 47 eb 3c ed 8e 94 bf
       0.073966004 -0.008670033 0.028720383 -1.1606117
0000f0 89 93 05 be e7 dd 1b 3e 42 1f fa 3d d4 a2 be bc
       -0.13044561 0.15221368 0.12212993 -0.023271002
000100 c6 32 05 3b bc 3e 5d bf 2c e4 67 3e e3 2e 0f bf
       0.0020324453 -0.8642385 0.22645634 -0.5593092
000110 cb 18 9a 3e 82 e9 0a 3e 42 58 6e bf 16 9a 53 3e
       0.3009704 0.13565639 -0.9310342 0.20664248
000120 cc 4d 70 bf 40 3e 38 be 3b 5d 33 bf 85 82 bb 3d
       -0.9386871 -0.17992496 -0.70064133 0.09155754
000130 3d 56 84 bd 12 5c c4 3d 56 47 69 be c9 0d f1 3d
       -0.06461761 0.095878735 -0.22781119 0.117702074
000140 81 76 8d bd 17 eb b5 be 5c fa 1b be 02 45 52 3e
       -0.069073685 -0.35530922 -0.15232223 0.20534137
000150 a6 ca 10 bf 93 1f 24 be fd f6 d9 be 49 cb 31 bf
       -0.56559217 -0.1602767 -0.4257125 -0.69450814
000160 87 a8 eb 3c a1 0b 8c 3e a1 c5 f3 3d 49 c5 11 be
       0.028766884 0.27352622 0.11902929 -0.14235415
000170 67 ff 6d bd 97 20 80 3e 0c 9d 99 3d 82 47 b4 bd
       -0.0581049 0.25024864 0.075006574 -0.088027015
000180 73 50 ae bd af 2f 01 3d d7 54 8d bc 85 67 23 bf
       -0.08511438 0.031539615 -0.017252369 -0.63829833
000190 04 f4 e7 3e f6 98 3a 3e 82 17 8e bc 09 c9 00 be
       0.45303357 0.18222412 -0.017345194 -0.12576689
0001a0 a7 65 5f bd 40 0a 5c 3e 25 d9 50 bd c6 e1 82 bd
       -0.054540303 0.21488285 -0.050988335 -0.06390719
0001b0 dd 6d 7b bd f9 87 fa 3c 8a 27 f0 3d 0d 24 fa bd
       -0.06138407 0.030582415 0.117262915 -0.122139074
0001c0 a3 94 cc 3d 5d 6b 71 bf ae 59 3a 3e 9d df fb bc
       0.09989288 -0.9430445 0.18198273 -0.030746276
0001d0 da 5f 80 bd 09 77 ba 3d 33 64 00 bf 97 29 b0 bd
       -0.06268282 0.091047354 -0.5015289 -0.08601683
0001e0 96 7e a5 bd 1c 86 d0 3d 3c 23 a8 bd 62 71 1c 3c
       -0.08080785 0.10181829 -0.082098454 0.009548517
0001f0 a8 31 d2 bc 74 59 ad 3d 2c 2d 1c bf 42 27 90 3e
       -0.025658444 0.084643275 -0.61006427 0.2815495
000200 29 b1 73 be ad 20 d1 bc 60 d6 92 be 16 a7 2f 3d
       -0.2379805 -0.025528276 -0.2867918 0.042883955
000210 ef 7c a5 3e c8 9a 4f bf 8a 25 19 3e 8a 9d 62 bf
       0.3232188 -0.8109555 0.14955726 -0.88521636
000220 65 06 28 bf 02 d7 6c bf ff 2f 59 bd 23 d3 3d 3e
       -0.6563476 -0.92515576 -0.05302429 0.18537574
000230 92 38 98 bd e2 db 3c be 32 2a 89 3c c2 4a b3 be
       -0.07432665 -0.18443254 0.016743753 -0.35017973
000240 d4 78 11 be 7a 81 2a be e1 da ba bd 4a 6c c8 bc
       -0.14206249 -0.16650954 -0.09123779 -0.024465699
000250 df 6b bb bd d7 85 e7 39 c7 90 c2 be 5f 85 a1 3d
       -0.09151434 0.00044159472 -0.3800108 0.07886767
000260 dc 03 c0 bd 31 7a cf be 6a 89 96 be f3 68 0e be
       -0.09375736 -0.40522912 -0.29401714 -0.13907222
000270 66 d0 38 bf 07 7c 9f bb 72 4f 86 3e 1e d1 d8 be
       -0.7219299 -0.00486708 0.26232487 -0.42347044
000280 24 99 6f 3e f3 90 2a be 21 a6 6f 3e 92 9b a8 3e
       0.23398262 -0.16656856 0.23403217 0.3293119
000290 30 59 3a 3e 94 db 05 3e a8 fa 97 bf 73 45 4c 3d
       0.18198085 0.13072044 -1.1873369 0.04987092
0002a0 27 82 84 bd 22 26 5e be 80 fa 9f 3d a0 09 ac bf
       -0.06470137 -0.21694234 0.07811451 -1.3440437
0002b0 bb a7 dd bd 03 52 bf be d1 d3 da bd 39 3f c0 3d
       -0.10823008 -0.37367257 -0.10684932 0.09387059
0002c0 1b 0b a0 be 35 13 fa 3d 44 3d 81 bd e5 b6 2c 3d
       -0.31258473 0.12210695 -0.063105136 0.04216661
0002d0 5a ef 49 3e 84 47 ed 3c 05 d4 7c 3d f4 e8 cd bd
       0.19720212 0.028964765 0.061725635 -0.10054198
0002e0 ab 23 a2 be 8f 75 e2 be 56 b2 5d 3e b8 20 1e bf
       -0.31667838 -0.44230315 0.21650061 -0.61768675
0002f0 60 45 0f 3e c2 5f a7 bb 2d 38 10 bc 65 c6 2b 3e
       0.13991308 -0.005107851 -0.008802456 0.167749
000300 8f 8a cf 3d ad df 2e bf 07 6b 6c be d9 2c 08 be
       0.1013385 -0.6831005 -0.23087703 -0.13298358
000310 7f e8 0e bf dc 54 32 bd 2e 3a 03 c0 fc d0 56 bb
       -0.5582351 -0.04353796 -2.050426 -0.0032778373
000320 21 09 e2 bd 9b 81 fe bc 3a 98 a6 bc 67 99 0e be
       -0.110368975 -0.03106766 -0.02033626 -0.13925706
000330 3c c5 8d bd c9 6e 8b 3e a3 b3 88 3d e5 76 91 3e
       -0.06922385 0.2723296 0.06674888 0.28411022
000340 e6 1e e4 3c d4 a5 e6 bd 8a 1c 16 3e 7a 7b 66 3d
       0.027846765 -0.11262098 0.14659324 0.0562701
000350 68 6e 75 bf 18 47 87 be 0b de 4f bd f9 b1 8c 3a
       -0.9587159 -0.26421428 -0.050748866 0.0010734192
000360 8b 92 16 bf 30 94 e2 3c 4c c6 1e be 81 26 41 bf
       -0.58817357 0.027658552 -0.15505332 -0.7544938
000370 9c b6 ce be 19 18 a1 bd 2f 77 17 be c1 c7 42 3e
       -0.40373695 -0.078659244 -0.14791559 0.19021513
000380 b5 15 82 3d ef bd 84 3e af c6 61 3d 2a 14 60 3e
       0.063517965 0.25926158 0.05512112 0.21882692
000390 45 88 57 3c e6 c5 aa be b8 e8 a3 bd bb e0 09 3e
       0.013155048 -0.3335411 -0.08003372 0.13464634
0003a0 4f df d3 bd 20 8c 84 3c 1a 04 2b be 3d 04 af be
       -0.10345327 0.016180098 -0.16700783 -0.3418292
0003b0 83 2d 44 bc 87 03 9a be a7 4d 0a bc ff ca bc be
       -0.011973741 -0.30080816 -0.008441365 -0.36873624
0003c0 40 4a 34 be 76 54 8b bf f4 f1 93 be 65 7b 12 bc
       -0.17606449 -1.088515 -0.28895533 -0.008940552
0003d0 5c 62 f0 bd 5c cc 87 3d 61 fb 0e 3e ed dc 7b bd
       -0.117375106 0.06630775 0.13963081 -0.061489988
0003e0 93 23 18 be 43 86 c8 3d 22 eb 46 3e 43 86 b4 3d
       -0.1485732 0.097912334 0.19425634 0.08814671
0003f0 2e 66 25 be a8 61 d6 bc 4c d2 ee be 3c c6 3a 3e
       -0.1615226 -0.026169613 -0.4664482 0.18239683

fc2.bias f4 [128]
000000 5e c5 84 3e 9d 9b 8e 3e b4 82 c2 bc 4f 63 b0 be
       0.2593183 0.278531 -0.023743965 -0.34450766
000010 61 42 b8 3e 5e d2 a9 3e b1 8a 98 be 85 a4 80 3e
       0.35988143 0.3316831 -0.29793313 0.25125518
000020 bd a7 8b bc 71 cb 7e 3e fd 96 f6 3d 81 47 c9 3e
       -0.017047757 0.24882294 0.120405175 0.39312366
000030 2c 5f 07 3f 78 26 8c 3e 10 29 56 be 10 84 00 3e
       0.52879596 0.273731 -0.20914102 0.12550378
000040 43 4f 29 bd d1 21 a8 3c 39 b7 8a bd cb cd ad 3e
       -0.041335355 0.020523937 -0.06773228 0.3394607
000050 6d 7f 64 be 7a 8b 62 be 50 d3 cf 3e 21 00 68 bc
       -0.22314234 -0.22123519 0.40590906 -0.014160187
000060 3d 4e 5b bd 59 37 24 3e 65 a1 f3 3e 4b 52 0c 3e
       -0.05354141 0.16036738 0.47584072 0.13703267
000070 71 1f 2b 3e f9 12 39 bd 0a 0f 1b bd 56 5d 7e 3d
       0.16711213 -0.04518411 -0.03785614 0.06210073
000080 2e dd c0 3e ee f2 ff 3e 22 7e c6 bd 24 bc 85 be
       0.37668747 0.49990028 -0.09692027 -0.26120102
000090 ac 95 6a bd 13 2f ab 3e b5 47 9a 3e 8c c1 fe bc
       -0.057271644 0.33434352 0.30132833 -0.03109815
0000a0 31 0c 38 bd 35 5e 37 3e 4e 3c 8c 3b 3c 8b 97 3e
       -0.0449335 0.17907031 0.00427965 0.29598415
0000b0 68 3d 58 be 9a 65 03 3f 8b 2a a6 3a 9b 3b f7 3d
       -0.21117175 0.51326907 0.0012677474 0.12071916
0000c0 fc 24 a8 3e 78 26 1e bd 6a ee 19 3e 93 ba 7a be
       0.32840717 -0.038610905 0.15032354 -0.24485235
0000d0 fc 64 35 bd f3 c1 c3 be e7 9d c1 3e 9e a2 ae bd
       -0.04428576 -0.3823391 0.37815782 -0.085271105
0000e0 c6 e5 81 3e ff bd b3 3e ee 7f 59 bd 21 c6 7f bc
       0.25370616 0.35105893 -0.05310052 -0.015611202
0000f0 41 55 63 be a0 ef a1 3e e7 c5 5c 3e 33 73 bc 3c
       -0.2220049 0.31628132 0.21559869 0.02300415
000100 1b c9 4d bd 66 d8 b5 bd 70 69 c9 bd e0 17 32 bf
       -0.050240617 -0.08879165 -0.09834564 -0.6956768
000110 ab f3 9c be 9b cb f0 bc 86 e1 31 be 50 f0 f3 ba
       -0.30654654 -0.029393962 -0.17371187 -0.0018611047
000120 1b 48 9c 3e 77 e2 9a 3e 71 35 a3 bc 86 fa 82 3e
       0.30523762 0.30250904 -0.019922944 0.2558176
000130 68 1e 97 be 4a d1 27 bd ee e6 ee be e0 00 a4 bc
       -0.29515386 -0.040971078 -0.4666056 -0.020019948
000140 88 4c 7c 3e 97 20 90 3e 3f 60 82 3e 45 9e c5 3d
       0.2463857 0.28149864 0.25464055 0.09649328
000150 1f 8b f7 bc ba 1a 3c be 73 a2 c2 3e 12 c1 57 3e
       -0.030217705 -0.1836957 0.38014564 0.21069744
000160 07 c8 bb 3e 0a 2a 84 3e bf ec f1 3e 2d f4 92 3e
       0.36676046 0.25813323 0.47250935 0.28701916
000170 96 8a c0 3c ec 9b 90 3d 57 bd 74 3e 31 f8 40 be
       0.023503583 0.0706099 0.23900352 -0.18844678
000180 27 b4 c5 3c d3 12 bf 3e d9 b6 b9 bd 94 a0 66 be
       0.024133755 0.3731905 -0.090680785 -0.22522193
000190 56 d9 c8 3e e0 ca 51 3e 26 be c3 3e a8 d1 84 bc
       0.39228314 0.20487547 0.3823101 -0.016213253
0001a0 88 82 64 3e 62 62 fa 3b 32 8f 4f 3e 89 e5 81 bd
       0.22315419 0.0076411227 0.20269468 -0.063426085
0001b0 0c 16 b1 bd 5f 1f 46 be b6 c8 19 3e 41 d9 02 be
       -0.08646783 -0.19347905 0.15017971 -0.12778188
0001c0 d3 d1 e3 3e 37 50 8b 3d 50 98 40 be 87 1a f8 3e
       0.4449602 0.06802409 -0.18808103 0.4845774
0001d0 19 e8 8c be 7d 8d 90 bd cf a7 ee 3b 96 fb 58 3e
       -0.27520826 -0.07058237 0.007283188 0.21189722
0001e0 5a 09 28 be 7a 9d 92 3e b2 90 aa 3e c4 e9 7c 3e
       -0.16409817 0.2863577 0.3331352 0.2469855
0001f0 9a 0b 81 3e d0 45 e6 3e 9a 56 7f bc 1b 22 53 3d
       0.25204164 0.44975138 -0.015584612 0.051546197

fc3.weight f4 [2, 128]
000000 30 bc 86 3d 44 a6 11 3e 63 bf 3b bd a1 78 11 3e
       0.06578863 0.14223582 -0.045836817 0.14206173
000010 d6 df 37 3d e8 40 7e 3e 5a cd ee 3d 36 a0 64 3e
       0.0448912 0.24829447 0.116602615 0.2232674
000020 03 ff 08 be 89 53 86 3e a2 e6 97 bc e5 27 e6 3e
       -0.13378529 0.26235607 -0.018542591 0.44952312
000030 be 5b 5a 3d 40 e5 16 3e c8 68 65 bf 33 d8 b3 3d
       0.05331015 0.1473589 -0.8961301 0.08781471
000040 ae 30 c9 bf d9 77 b8 3d c7 ce 21 be 40 37 85 3e
       -1.5717981 0.09007234 -0.15801536 0.26018715
000050 d7 7f 8d bc 36 58 7a 3c 6a 74 55 3e 6a 5a 02 3e
       -0.017272873 0.01527982 0.2084519 0.12729803
000060 bb fd 62 3f b9 d7 f4 3e 81 7b 60 3e 64 41 be bd
       0.8866841 0.47820833 0.21922113 -0.09289816
000070 99 24 bd 3d fd db 79 3c e5 44 b7 3e b3 b7 04 3e
       0.09235496 0.015250203 0.3579475 0.129607
000080 15 d2 9d 3d a5 96 8d 3e 8b fb d4 bd 45 f6 5e 3d
       0.077060856 0.27653995 -0.103995405 0.05443408
000090 6a 48 0c 3c d2 8a a1 3d 96 8a c6 3d bc 4a f8 3c
       0.008562187 0.07887806 0.09694402 0.030309074
0000a0 b1 70 ef bc 12 7c 6a be 26 47 9f bc 55 e6 4a 3d
       -0.02922854 -0.22898892 -0.019443106 0.049536068
0000b0 ad 8c cc bb e3 ec c8 3d 7f e7 5f 3d b1 94 cb bd
       -0.006242356 0.098108076 0.05466413 -0.0994047
0000c0 cc f1 37 3d 85 c1 4f bd 69 50 f7 3d 99 32 3c bc
       0.04490833 -0.050721664 0.12075884 -0.011486673
0000d0 d1 13 6c bd b6 74 f2 39 c3 7b c9 bd 7f b2 bc bd
       -0.057636086 0.00046244793 -0.09838059 -0.09213733
0000e0 7d 1b 17 3e 3d 79 22 3e 12 48 ad bd f7 fb a7 be
       0.1475658 0.15866561 -0.08461012 -0.3280942
0000f0 8b ae 78 be 77 9e 5b 3d 91 cd 5a 3e 0e ee 63 bd
       -0.24285333 0.05361792 0.2136748 -0.05564695
000100 60 0b 78 be 55 71 37 3e be 29 0c bd cd 56 88 be
       -0.24223089 0.17914326 -0.034219496 -0.26628724
000110 a9 c5 dc bd 6c 64 0c 3e 7b 8a a3 3a 38 3f 52 be
       -0.10779888 0.13710183 0.0012477183 -0.20531929
000120 5d 38 8c 3d 63 5b 01 be 0e 0e e7 be 3e 93 b3 bd
       0.06846688 -0.12632518 -0.4512791 -0.087683186
000130 cd 94 8f be 10 b1 59 3d 24 ba 66 be 43 a5 76 3d
       -0.28043213 0.053147376 -0.22531945 0.0602162
000140 25 db 46 3e 7e f3 67 bd 61 9f 90 3e f6 80 8b be
       0.19419535 -0.056628697 0.28246596 -0.27246827
000150 21 bf 61 bd f0 0e 4b bd 6c 13 83 3e 93 5f 17 3e
       -0.055113915 -0.049574792 0.25600755 0.14782552
000160 7a 72 d2 3e 5e 7e 8c bb 1d 06 dc 3e 7c 53 58 3e
       0.41102964 -0.004287525 0.42973414 0.21125597
000170 83 5e 85 3e 12 7f fb bd e5 87 1e 3d c9 07 b4 3b
       0.2604867 -0.12280096 0.038703818 0.005494092
000180 56 69 14 bd a3 a8 69 3e 1a cc 9c 38 d0 26 3e 3c
       -0.03623327 0.22818236 7.4766765e-05 0.011605933
000190 97 5c 52 3e 42 53 9e 3d d2 61 ab 3e c2 4f 09 bf
       0.20543133 0.07730724 0.33473068 -0.53637326
0001a0 57 97 dc 3d 19 70 21 bf 50 05 05 3e cf b1 0e bf
       0.10771053 -0.6306167 0.12990308 -0.55740064
0001b0 66 71 d0 be f2 a8 14 3d ec 9b d7 be b4 5a b6 bc
       -0.40711516 0.03629393 -0.42111146 -0.022260047
0001c0 e5 bd e9 3e a7 01 9c bc 26 1a 69 bf 6b 50 c1 3e
       0.4565269 -0.019043757 -0.91055524 0.37756667
0001d0 f2 0d 4f 3e 56 48 81 bc 73 23 26 3e 61 72 2a bd
       0.20220163 -0.015781563 0.1622446 -0.041612986
0001e0 6b 7c 8e be 6b 10 09 3e 69 b0 88 3e fe e0 f8 3d
       -0.27829298 0.13385169 0.2669709 0.12152289
0001f0 d1 a7 63 bc 55 e6 10 3e a8 18 83 be 06 4a 87 3d
       -0.013894991 0.14150365 -0.2560475 0.06605916
000200 94 50 1d 3e 7f cc 0d bc c2 a0 00 3d 93 c5 96 be
       0.1536277 -0.008654713 0.03140331 -0.29447612
000210 a0 dd 5e 3e e6 b6 b5 3e 31 a8 53 bd 39 09 17 3d
       0.2176423 0.35491103 -0.05167407 0.03687403
000220 c0 2b 9d 3e 7b f1 17 bd d8 60 a1 bd d2 5b bf 3d
       0.3069744 -0.037095528 -0.078797996 0.09343685
000230 cc a8 c5 3e f7 2e e5 3d d7 d0 28 bf cf 6c 35 3b
       0.38605344 0.111905985 -0.65943664 0.0027683263
000240 dc e2 f6 bf 29 f8 4e 3c 45 dd 3d 3c 05 7f 4c 3e
       -1.9287982 0.012632408 0.011588399 0.19970329
000250 61 a8 3f bd e3 4c b9 3c 64 f2 42 3e b1 b8 92 be
       -0.046791438 0.02261967 0.19037777 -0.28656533
000260 94 91 0e be cc 65 d7 3e 74 dd 66 3e 3f bd f9 3c
       -0.13922721 0.42069852 0.22545415 0.030485747
000270 7a a0 22 3d cd 1b 9d bc 2e a6 00 3e c5 b3 40 be
       0.039703824 -0.019178296 0.12563393 -0.18818577
000280 e2 9a 67 3e 4d 8c ef 3d 47 a0 6d 3d 18 61 d9 be
       0.22617677 0.11696682 0.05801418 -0.4245689
000290 c2 42 4e 3c bf 3d 6a 3e 8b 14 a1 3e 99 fc 0f 3d
       0.0125891585 0.22875117 0.31460986 0.035153005
0002a0 44 9d ea bd b2 5c 60 3e 78 b1 ff 3c 38 df f2 3c
       -0.11455777 0.2191036 0.031212553 0.029647455
0002b0 d9 60 44 bc 89 d2 f2 3e 77 20 24 bb d6 91 63 3d
       -0.011985981 0.4742625 -0.0025043765 0.055559002
0002c0 94 89 71 3e eb c4 2c 3e a5 88 03 be 19 e9 ee 3b
       0.23587638 0.16871993 -0.12845095 0.007290971
0002d0 c8 90 16 3e 6c 24 aa bc 0e 4f 8a 3e 7c 48 3c bc
       0.14703667 -0.02076932 0.2701344 -0.011491891
0002e0 6b 10 0b be 39 03 84 3e c6 8c 1a bd d5 23 a6 bd
       -0.13580482 0.2578371 -0.03773191 -0.08112303
0002f0 a6 9a cf bd 67 e7 4c 3e c0 9f 88 3c 18 3a 72 bd
       -0.10136919 0.20010148 0.016677737 -0.059137434
000300 5a 01 3d 3e 08 e3 9e be e0 80 51 be e2 be 98 be
       0.18457547 -0.31032586 -0.20459318 -0.29833132
000310 b1 28 8f 3b c7 dd 15 be 0f 83 2f 3c 70 6f 8a be
       0.0043688645 -0.14635383 0.010712399 -0.27038145
000320 b1 36 c7 3d 03 36 8c 3e 89 57 5b be 59 46 eb 3d
       0.097272284 0.27384958 -0.21420111 0.11488027
000330 5f 86 7c be 02 02 76 3c 40 10 99 be 6f 85 85 bd
       -0.24660634 0.015015127 -0.2989521 -0.06519591
000340 b8 e1 1d 3e 66 29 21 3e 6f b7 af 3e eb be f4 3e
       0.15418136 0.15738449 0.34319636 0.4780191
000350 14 bb a7 3b 96 75 2a bf 1e 28 5d 3d 3c b9 35 3e
       0.005118737 -0.6658567 0.053993337 0.17746443
000360 17 68 d4 bc b4 30 e3 3d 03 ab aa 3e 0a b3 12 3d
       -0.02592854 0.11093274 0.33333597 0.035815276
000370 25 ae a7 3e 0a 43 14 be fe 35 a7 3e 48 5e 46 3d
       0.3275005 -0.14478698 0.3265838 0.048429757
000380 6c 57 e7 3d 3a fb c2 3e d1 8c 3f bb 57 ad ec bc
       0.11295971 0.38082296 -0.002922822 -0.028891249
000390 b5 24 4a 3d be 5b f4 bc a0 52 08 3e 66 29 90 3e
       0.049351413 -0.029828902 0.13312769 0.28156585
0003a0 e8 b1 28 3e a8 88 a7 bd 2b b6 0d bc b3 84 fa 3d
       0.16474116 -0.08180362 -0.008649389 0.122323416
0003b0 e1 66 71 3e 7f d7 ab 3b 8f 2a 7d 3e 30 f7 9d 3c
       0.23574401 0.005244195 0.24723266 0.019282907
0003c0 5a 1c 87 3d c3 df 01 be 7a c7 97 3e 69 eb 19 3e
       0.065972045 -0.12683015 0.29644376 0.15031208
0003d0 6c f1 d1 be bc fe fa 3b e1 1a c5 3d 82 93 cb 3d
       -0.41004503 0.0076597612 0.09624267 0.09940244
0003e0 f4 b3 a2 3c 6e 6a 8c 3e 89 37 2c 3d 22 98 c5 bd
       0.019861199 0.2742495 0.04204515 -0.09648158
0003f0 4d 57 05 3e 35 f6 e2 3d b8 ae b9 3e 86 e5 74 3e
       0.13021584 0.110821165 0.36266112 0.23915681

fc3.bias f4 [2]
000000 6e 60 ea 3e a1 23 9d 3e
       0.45776695 0.30691245

fc1.weight f4 [128, 4]
000000 c1 0a 95 ba c9 e8 ff 3c 5c 16 a3 bf 3a 8d 5d be
       -0.0011371003 0.03123893 -1.2741199 -0.21635905
000010 11 e4 97 3d ac 80 14 be 20 5e c4 be 27 86 fd bd
       0.07416547 -0.1450221 -0.38353062 -0.12379103
000020 ee 3f 86 3e f7 99 42 be 0f fe 32 3e 68 b5 13 be
       0.2622065 -0.19004045 0.17479728 -0.1442467
000030 3e 2c 7d bc 13 21 5d 3c 71 92 fe bd dd 95 14 3b
       -0.015452443 0.013496655 -0.12430275 0.0022672333
000040 58 98 df ba c7 3b be b7 14 b8 8d 3d 0e 55 37 bd
       -0.0017058952 -2.2677601e-05 0.06919876 -0.04475885
000050 97 92 91 be 6b e6 3e be 7b 2e 29 bf c4 c2 3f be
       -0.28432152 -0.18642585 -0.6608655 -0.18726641
000060 ca bd 62 3d 73 14 c4 bd d7 f3 42 bf b5 bc c0 bd
       0.05535678 -0.09574213 -0.7615332 -0.09410993
000070 61 23 86 be 35 24 55 3e f5 fe a4 3f 58 25 98 3e
       -0.26198867 0.20814593 1.2890307 0.2971599
000080 d7 cd c3 bb 3a f9 96 bd 26 8a b8 3f 68 4a 43 3e
       -0.0059754658 -0.07371755 1.441716 0.19071352
000090 fc e8 c1 bb 44 37 02 3b 02 bb 99 bf 1d 3b 3b be
       -0.0059176665 0.0019869367 -1.2010195 -0.18284269
0000a0 cd c9 59 3e 3b 44 17 3c e4 0a 71 be 47 4f 08 bd
       0.21268387 0.009232576 -0.2353931 -0.03327873
0000b0 d4 95 f9 3b bf 4b eb bd 43 d9 1f 3e 1b bb 06 be
       0.007616738 -0.11489057 0.15610223 -0.13157313
0000c0 79 02 4b 3d ef e7 9e bc 92 dd a0 3e 72 07 3b bc
       0.049562905 -0.019397704 0.31419045 -0.011415349
0000d0 eb 33 39 be 91 ba 45 be f9 a2 1a bf 6e f8 68 be
       -0.18086211 -0.1930945 -0.60404927 -0.22751018
0000e0 66 93 0c 3c 8b 8a 2e bc be f1 6d 3f 82 ab 1d 3e
       0.008580064 -0.010653148 0.92946994 0.15397456
0000f0 33 fd 30 3e b8 3f 8e 3d 49 85 de 3e ae a1 86 3d
       0.17284088 0.06945747 0.43461064 0.06573807
000100 5a 6e c8 3c 9c b2 97 bd 18 9b 81 3e a1 25 f8 3c
       0.024466682 -0.07407114 0.2531364 0.03029138
000110 2a af b2 3e 70 f5 ca 3d e7 00 d5 3e da 99 86 3d
       0.34899265 0.09910095 0.4160225 0.065723136
000120 1e b1 cc 3d a2 c7 4e 3e 9d 71 e0 be d7 99 59 3d
       0.0999472 0.20193341 -0.4383668 0.05312523
000130 47 e5 41 3e db 20 7c be 9c a4 cf 3d 97 c5 a7 bd
       0.18935119 -0.24621908 0.101388186 -0.08191984
000140 f3 97 a3 bd 7c 1f 43 3d 7a ba 61 3d fa 87 a7 3c
       -0.079879664 0.047637448 0.05510948 0.02045058
000150 15 9e 8d 3d a2 83 a4 bd a4 59 ef be 17 29 9f bd
       0.069149174 -0.080329195 -0.46748078 -0.07771509
000160 9e 29 36 be 11 d6 03 3e 5e dd 5b 3f da 83 75 3e
       -0.17789313 0.12874629 0.85884655 0.23976079
000170 f4 20 e2 bb cd cf f0 bb 67 0d 0a bd 21 be 8d bc
       -0.006900901 -0.0073489905 -0.033704188 -0.017302575
000180 2d 8d 00 3f c4 c6 b9 3d 7d d4 fb 3e be ef 86 3d
       0.5021542 0.09071115 0.49185553 0.06588696
000190 e3 75 e6 bd a1 84 94 bd 2f 22 eb be f5 0d 04 be
       -0.11252954 -0.072518595 -0.45924518 -0.12895949
0001a0 2a 82 89 3e 06 03 ce 3d 16 1e 03 3f 28 60 d0 3d
       0.2685712 0.100591704 0.5121778 0.1017459
0001b0 db 86 04 3f cf 10 cc 3d 60 ef 06 3f b7 23 92 3d
       0.51768273 0.099641435 0.5270901 0.07135718
0001c0 04 92 c1 bb 16 70 c7 bc aa 8d b5 bf 74 60 1e bd
       -0.005907299 -0.024345439 -1.4183857 -0.038666204
0001d0 c0 3d 1d bd cf cd 85 3d 9f 3e 2b bd 17 e3 a9 bd
       -0.038388968 0.065333955 -0.041807767 -0.08295267
0001e0 6c 42 75 bc fd 48 0a bd 48 58 ec bf a1 ce 90 be
       -0.0149694495 -0.033761013 -1.8464441 -0.28282645
0001f0 8d f8 7a 3c 59 87 fa bc ba f1 ae 3f 29 c4 50 3e
       0.015318048 -0.030582117 1.3667519 0.20387329
000200 47 f7 20 3e 30 a4 39 3e e4 6c 5a 3f e0 e5 65 3e
       0.15719329 0.18129039 0.85322404 0.22450972
000210 be 1e 1e 3e aa 82 0d 3e 63 34 30 3f f4 d8 4c 3e
       0.15441415 0.13819376 0.68829936 0.20004636
000220 ec a2 e4 3e 8a 94 76 3d 20 52 fa bd 5d 60 05 3c
       0.4465555 0.06020025 -0.12222695 0.008140651
000230 6d 37 00 3e 49 20 65 be 62 e3 14 bf a5 6f 0a be
       0.12521143 -0.22375597 -0.5815946 -0.13519152
000240 d6 ad 3b bd 8c 89 91 3c 31 03 21 3c 8d a8 b3 bb
       -0.04582008 0.017765783 0.009827421 -0.0054827393
000250 b1 12 e3 3c 2c ae 64 bd c2 6b f6 be ee 78 87 bd
       0.027718874 -0.055830166 -0.48129088 -0.066148624
000260 ff 54 40 bd c0 12 09 3d 1e 70 72 bf ca 1c 8a be
       -0.04695606 0.033465147 -0.9470233 -0.2697509
000270 33 c7 c6 3a bc 6b ff 3b c0 0c cc bd c3 17 6e 3c
       0.0015165567 0.0077948254 -0.09963369 0.014532032
000280 a0 6d 15 3d 49 ac f9 bd 6c a0 17 bf cb 4b 4a be
       0.0364815 -0.12191064 -0.5922916 -0.19755475
000290 29 0b 76 be 70 24 3c be 6a 8c de be 7f 4b 3f be
       -0.24027695 -0.18373275 -0.43466502 -0.18681143
0002a0 95 c9 21 3d 15 95 e4 3d 06 27 32 3e 68 94 2c 3d
       0.039498884 0.11161248 0.17397699 0.04213372
0002b0 76 ee fa be 14 ce ed 3d 30 64 8e 3f f4 3d 8d 3e
       -0.49010056 0.11611572 1.1124325 0.2758633
0002c0 9b c1 a7 3d e6 76 82 bd 6b b8 c8 3e a4 df c3 3b
       0.08191224 -0.06370334 0.392032 0.005977588
0002d0 08 7f fd 3d 67 e0 35 3e 71 86 0e 3f 54 1d 75 3e
       0.12377745 0.17761384 0.5567389 0.23936969
0002e0 a6 27 fd bc 23 e3 cd 3c 64 3b 82 3f 7e b7 b4 3d
       -0.030902695 0.025132721 1.0174375 0.08824061
0002f0 b6 a3 27 3e ee 11 4d be 3f 7e 87 3e 29 05 cb bd
       0.16371045 -0.20026371 0.26463506 -0.099130936
000300 85 02 b1 bc 69 8b 38 3e bb 25 d8 3e ad 0b 94 3e
       -0.021607647 0.18021931 0.42216286 0.28915158
000310 e1 ce 21 3b 96 bd 54 3b e3 1f b3 3e 3b d7 1b 3d
       0.002468996 0.0032461635 0.34985265 0.038047057
000320 8b 6d 39 3d 36 ce 85 bd be 05 93 bd cc 43 a1 bd
       0.045270484 -0.06533472 -0.071788296 -0.07874259
000330 31 29 a1 bc 2f e0 f8 3b a7 8d 92 3e ea 4e 18 3c
       -0.019672962 0.007595084 0.28623697 0.009296158
000340 ed 2c 3a 3d 7e 77 cf bd 95 e7 d3 be 4d 65 be bd
       0.045453 -0.10130213 -0.4138762 -0.09296665
000350 da 77 5d 3e 31 bd 5f be 24 8f 90 3d 83 2e 20 be
       0.21627751 -0.21849515 0.07058552 -0.15642743
000360 85 15 6f 3e 97 c6 e2 3d ee 9b 05 3f 26 05 d2 3d
       0.23348053 0.11073034 0.52191055 0.10254888
000370 51 eb cf bd da 5e cb 3d 2c 1e 5a 3d 76 e3 8f 3d
       -0.10152305 0.09930201 0.05325143 0.070258066
000380 b4 48 26 bf bd 8d 2d be a8 b4 fb be 5e 5b dd bd
       -0.64954686 -0.169486 -0.49161267 -0.108084425
000390 0a 7a e9 3c a4 6b c8 3c 35 df c9 3f f4 af 83 3e
       0.028500576 0.02446539 1.5771242 0.2572018
0003a0 fa 4d 3e 3c 0f df 15 bd 62 4e 87 bf 82 47 9a be
       0.011615271 -0.03658968 -1.0570796 -0.3013268
0003b0 4a 20 60 be 5c ef 0e 3e 06 35 7a 3f 8a b4 73 3e
       -0.21887317 0.13958496 0.9773716 0.23799339
0003c0 4e ac 90 3e 3b b7 6d 3a 01 71 eb be 71 55 6f bd
       0.28256458 0.0009068136 -0.45984653 -0.058431093
0003d0 35 8b 80 be f0 63 89 3d 57 37 0c 3f 5e 5f d3 3d
       -0.25106207 0.06708515 0.5477194 0.10320924
0003e0 9b d5 c9 bb 01 1e 75 3a ba a1 44 3d 3d 5d b9 bc
       -0.006159497 0.0009350479 0.048005797 -0.022627467
0003f0 6c 86 77 3c 78 01 39 3d 68 c4 8e bf 21 cd 10 be
       0.015107732 0.045167416 -1.1153688 -0.1414075

fc1.bias f4 [128]
000000 b2 40 c3 be 79 17 a4 be 17 38 45 bd 22 4e 34 bd
       -0.38135296 -0.32049158 -0.048149195 -0.044019826
000010 ef 15 f4 bd b8 80 55 be 8a d4 9d be 13 d4 aa be
       -0.11918246 -0.20849884 -0.30826217 -0.33364925
000020 3a f9 f3 be 0d c7 bb be 98 9d d5 be f1 1e 48 bd
       -0.47651082 -0.366753 -0.41721797 -0.048857633
000030 a2 0e 38 be 53 0c 15 be 08 c1 72 be 2c dc ac be
       -0.17974332 -0.14555483 -0.23706448 -0.33761728
000040 9e 64 3d 3e 96 40 39 3d cf fd 5d be de db 32 be
       0.18495414 0.04522761 -0.21678852 -0.17466685
000050 58 6e 14 be 3c c6 8f bd 44 01 a2 be 2e 59 bd bd
       -0.14495218 -0.07020232 -0.3164159 -0.09245525
000060 2a 1b 7b bc 2a 85 8a be 0c ff bf 3d 5c b2 2c 3d
       -0.015326301 -0.2705472 0.09374818 0.042162284
000070 c5 1a 8f be 8c 03 46 bd 03 bc c9 be 00 10 d4 be
       -0.2795011 -0.048343226 -0.39401254 -0.41418457
000080 f5 dd 2e be 60 62 1b bf b7 b5 1a 3e 47 18 8b be
       -0.17076857 -0.60696983 0.15108381 -0.2716696
000090 50 54 e9 bd 50 41 65 be 3c 53 0d bf 93 4e 14 bd
       -0.113930345 -0.22388196 -0.5520513 -0.036207747
0000a0 cb f8 7f be 34 4b d9 bd 66 bc b3 3d a4 13 b1 be
       -0.2499725 -0.10610047 0.087761685 -0.34585297
0000b0 57 a2 ec 3d f5 c4 0f bf 05 8c 5c be 7a ee bf be
       0.11554401 -0.5615991 -0.21537788 -0.3748663
0000c0 29 5a 93 be e2 de fb bb 88 a7 2e be 12 f7 0a be
       -0.28779724 -0.007686482 -0.17056096 -0.13570812
0000d0 10 1d 8a be 17 07 c7 bb 29 0c 82 bd 47 4e be bd
       -0.26975298 -0.006073843 -0.063499756 -0.09292274
0000e0 99 1f 86 be ea 31 bc be 39 20 bf be ec 58 9c be
       -0.26195982 -0.3675683 -0.3732927 -0.30536592
0000f0 dd 4b 85 3e dc 5d 07 be d3 6a 04 be 1a f8 5d be
       0.26034442 -0.13219398 -0.12931375 -0.21676674
000100 fb f5 58 be a9 5f 7f be 18 be 8d be 3a 7c ca bb
       -0.21187584 -0.24938835 -0.27684093 -0.0061793597
000110 5e 0f 92 be 0f 30 17 be e7 35 b5 be 1e 6c ad be
       -0.2852735 -0.14764427 -0.35392687 -0.3387155
000120 37 8d c4 3d 74 19 1a 3d 51 bd b5 be b3 13 1a bd
       0.09597247 0.03762193 -0.35496 -0.037616443
000130 08 7d c3 bd 00 b5 0a 3e 49 85 95 be 42 b7 50 3d
       -0.09545332 0.13545609 -0.2920325 0.05095602
000140 9a 52 aa 3d bc 9e 1e bf 0f 61 19 bc 5e c1 29 be
       0.08316536 -0.6196096 -0.0093615195 -0.1657767
000150 c0 9a ab be 00 7e 90 be da a6 a9 be e0 e1 cc be
       -0.33516502 -0.2822113 -0.3313511 -0.4001608
000160 85 98 ec be c2 00 0d 3e ca f3 bc be 80 5e b9 be
       -0.46210113 0.1376982 -0.36904746 -0.3620491
000170 94 ba 0a be 3e b7 3e be 07 99 79 3c 8e cc 91 3e
       -0.13547736 -0.18624589 0.0152342385 0.28476375
000180 cc 77 58 3e 09 a2 80 be 7d c5 90 be 8f 70 03 be
       0.21139449 -0.25123623 -0.28275672 -0.12835906
000190 b6 f5 c6 3b e2 3a 6b be fc 54 55 be 2d 91 2a bd
       0.0060717715 -0.22971681 -0.208332 -0.041642357
0001a0 78 6c 3d be b0 a8 3a be 38 b7 e4 be a2 d0 0c be
       -0.18498409 -0.18228412 -0.44671035 -0.13751462
0001b0 47 62 7b be 22 a7 08 be d4 40 65 bd 73 62 e5 be
       -0.24549209 -0.13345006 -0.055970028 -0.44801673
0001c0 3e 30 18 3e 13 6a af be 6d 72 67 3d ec cf 71 be
       0.14862153 -0.34260616 0.05650561 -0.23614472
0001d0 20 f2 1e be 3b 78 1b be 7a b3 ba be 8b 78 76 be
       -0.15522051 -0.15182583 -0.36465055 -0.24069421
0001e0 75 9a b1 bd af c2 8e be df 33 f0 bd 25 40 c5 3d
       -0.086720385 -0.27882907 -0.117286436 0.09631375
0001f0 90 28 aa be 60 e7 9c 3b 10 c7 a8 be 52 27 9c 3d
       -0.33234072 0.0047883242 -0.32964373 0.07624687

fc2.weight f4 [128, 128]
000000 24 62 7d 3d f8 fa 2d bf 74 15 17 be e8 75 61 3d
       0.061861172 -0.6796107 -0.14754277 0.055044085
000010 f1 e8 87 3d c3 21 ba 3d 20 2e a8 be f8 e4 8b 3e
       0.06636227 0.09088471 -0.3284769 0.27323127
000020 05 6c 5e bf e5 c1 86 3e d3 ce ce be a9 ef 55 3d
       -0.86883575 0.26319805 -0.4039217 0.05223051
000030 ac 5d a9 3e 47 82 5a 3e 6e 7a db 3c 90 53 bc 38
       0.33079278 0.2133876 0.026791777 8.980103e-05
000040 33 46 ba 3a e6 a6 98 3e f2 1a 3f 3d 6d fc fa 3c
       0.0014211595 0.29814833 0.046656556 0.030637944
000050 8c 26 ba 3e ca c5 58 3d 48 3a 23 bf 88 13 34 3e
       0.36357534 0.052923 -0.63760805 0.17585576
000060 69 64 7e bd 51 70 01 3e 1a 20 3d bd b8 4d 58 3e
       -0.062107477 0.12640502 -0.046173193 0.21123397
000070 53 56 39 be af af ea 3d 92 db 9e bc 1c e4 d1 3c
       -0.18099336 0.1145929 -0.019391809 0.025621466
000080 2d 06 ff 3e e5 8f 1f bf 12 4b c5 3d 2a 70 93 be
       0.498094 -0.6232894 0.09633459 -0.28796512
000090 41 0a 78 3e c7 21 e0 bd 36 4a a4 be 50 f3 cd 3c
       0.24222662 -0.109439425 -0.32087868 0.025140435
0000a0 c8 33 41 3e 00 1d ee 3e a5 75 a3 bd 1e 49 2a be
       0.18867409 0.465065 -0.07981423 -0.16629454
0000b0 38 15 14 3e 65 c2 d4 be 14 cf 71 3d fd 45 df bd
       0.1446122 -0.4155456 0.059035376 -0.10902021
0000c0 26 e7 d8 3d bf c5 25 3e 5e d4 9c bd 61 0b 1a bc
       0.10590963 0.16188715 -0.07657693 -0.009402127
0000d0 ba 92 56 be 15 75 b6 3c d6 89 b7 3a 9b cc 51 3e
       -0.20954409 0.022272626 0.001400287 0.20488207
0000e0 b9 f8 96 3d 63 d7 15 bc 9a 3b f2 3c 09 8e 94 bf
       0.07371659 -0.0091455905 0.029569436 -1.1605846
0000f0 d0 b7 05 be 85 e6 1b 3e 41 1f fa 3d eb bb ab bc
       -0.130584 0.15224655 0.122129925 -0.02096363
000100 c6 32 05 3b bc 1b 5d bf 2c e4 67 3e 72 6a 0f bf
       0.0020324453 -0.86370444 0.22645634 -0.560218
000110 cb 18 9a 3e 82 e9 0a 3e c2 48 6e bf d7 e5 53 3e
       0.3009704 0.13565639 -0.9307977 0.20693146
000120 38 56 70 bf df c3 37 be ba 60 33 bf 70 71 bb 3d
       -0.9388156 -0.17945813 -0.7006947 0.09152496
000130 3d 56 84 bd 88 10 c5 3d b1 b8 67 be 46 1a f2 3d
       -0.06461761 0.09622294 -0.22629048 0.118214175
000140 3b 6d 8d bd 0f 28 b6 be fc 45 1c be 02 45 52 3e
       -0.069056 -0.35577437 -0.15261072 0.20534137
000150 ea 02 11 bf 91 91 24 be fd f6 d9 be 27 ff 31 bf
       -0.5664507 -0.16071154 -0.4257125 -0.69529957
000160 d7 4b e7 3c 24 31 8c 3e a1 c5 f3 3d b5 56 13 be
       0.028234405 0.2738124 0.11902929 -0.14388545
000170 94 2f 73 bd e6 7c 81 3e ff 2d 9a 3d 00 16 b4 bd
       -0.059371546 0.25290602 0.07528304 -0.08793259
000180 59 22 ae bd 99 f1 04 3d d7 54 8d bc 05 7b 23 bf
       -0.08502645 0.032456968 -0.017252369 -0.6385959
000190 4b e0 e7 3e 1f 5d 37 3e 74 90 89 bc 18 37 01 be
       0.4528831 0.17906617 -0.016792513 -0.12618673
0001a0 8e 64 61 bd b0 6e 5b 3e 6c af 55 bd c6 e1 82 bd
       -0.055027537 0.21428943 -0.05216925 -0.06390719
0001b0 dd 6d 7b bd 8c 22 f8 3c d8 b2 ee 3d 0d 24 fa bd
       -0.06138407 0.03028991 0.116552055 -0.122139074
0001c0 20 8d cd 3d 25 65 71 bf c2 80 3a 3e 9d df fb bc
       0.10036683 -0.9429496 0.1821318 -0.030746276
0001d0 da 5f 80 bd b6 ff bb 3d 3a 64 00 bf 4a a9 af bd
       -0.06268282 0.09179632 -0.50152934 -0.08577211
0001e0 96 7e a5 bd bc 97 d1 3d 3c 23 a8 bd 2c e2 26 3c
       -0.08080785 0.10234019 -0.082098454 0.0101857595
0001f0 7d 69 c9 bc d2 67 ad 3d b6 4a 1c bf 99 35 90 3e
       -0.024586434 0.08467068 -0.610515 0.28165892
000200 be ee 73 be ad 20 d1 bc 51 ea 92 be 15 a7 2f 3d
       -0.23821542 -0.025528276 -0.28694394 0.04288395
000210 ee 7c a5 3e 1f 0f 4f bf 8a 25 19 3e 05 9c 62 bf
       0.32321876 -0.8088245 0.14955726 -0.88519317
000220 64 06 28 bf 47 d2 6c bf 5f 15 54 bd db c3 3d 3e
       -0.6563475 -0.9250836 -0.051778194 0.18531744
000230 91 38 98 bd 89 8b 3d be ba 36 86 3c 7f 32 b4 be
       -0.07432664 -0.1851026 0.016383518 -0.35194775
000240 b4 5a 11 be ad 26 2b be d4 a0 bc bd 03 01 c1 bc
       -0.14194757 -0.16713972 -0.09210363 -0.023560053
000250 df 6b bb bd 84 47 26 b9 e9 8b c2 be 5f 85 a1 3d
       -0.09151434 -0.00015857635 -0.37997368 0.07886767
000260 ee 94 c1 bd 31 7a cf be e8 cb 96 be bf 0e 0f be
       -0.09452234 -0.40522912 -0.29452443 -0.13970469
000270 37 11 39 bf df 0b 46 bb f9 72 86 3e 5a d0 d8 be
       -0.7229189 -0.0030219478 0.26259592 -0.4234646
000280 5e 29 6e 3e 73 0a 2a be 11 36 6f 3e 8a e8 a8 3e
       0.23257968 -0.16605549 0.23360468 0.32989913
000290 30 59 3a 3e 94 db 05 3e bc d7 97 bf 72 45 4c 3d
       0.18198085 0.13072044 -1.1862712 0.049870916
0002a0 ac 2f 83 bd 4a 35 60 be ea 47 9f 3d 8c 02 ac bf
       -0.06405577 -0.21895328 0.077773884 -1.3438277
0002b0 08 a9 dd bd e8 b0 be be 39 5b da bd 62 62 c1 3d
       -0.10823256 -0.37244344 -0.106619306 0.09442593
0002c0 16 a6 9f be 0e 7c f9 3d 44 3d 81 bd e4 b6 2c 3d
       -0.311814 0.12181865 -0.063105136 0.042166606
0002d0 5a ef 49 3e 36 6a ec 3c 03 63 79 3d f4 e8 cd bd
       0.19720212 0.02885924 0.06088544 -0.10054198
0002e0 51 ba a2 be 07 ed e1 be a1 68 5e 3e b7 20 1e bf
       -0.31782773 -0.4412615 0.217196 -0.6176867
0002f0 0c fe 0e 3e 80 5a b2 bb 2c 38 10 bc 7a 90 2c 3e
       0.13964099 -0.0054429173 -0.008802455 0.16851988
000300 8e 8a cf 3d 3a cd 2f bf 06 6b 6c be ba a4 0a be
       0.10133849 -0.68672526 -0.23087701 -0.135394
000310 7f e8 0e bf dc 54 32 bd d3 3e 03 c0 a0 8f 34 bb
       -0.5582351 -0.04353796 -2.0507095 -0.0027551427
000320 2f 38 e3 bd c9 e3 00 bd d7 73 a3 bc ef 5b 0e be
       -0.110947005 -0.031467233 -0.019952698 -0.13902257
000330 3c c5 8d bd 15 3a 8b 3e 5e aa 89 3d 89 54 91 3e
       -0.06922385 0.2719275 0.06721948 0.28384808
000340 1e be de 3c f3 3f ea bd 16 60 15 3e 7a 7b 66 3d
       0.027190264 -0.114379786 0.14587435 0.0562701
000350 81 60 75 bf 0b 3b 88 be 0a de 4f bd f9 b1 8c 3a
       -0.9585038 -0.26607546 -0.050748862 0.0010734192
000360 12 8b 16 bf 65 7c df 3c 4c c6 1e be 9b 1e 41 bf
       -0.58805954 0.027280996 -0.15505332 -0.75437325
000370 c9 d0 ce be 14 55 a4 bd cc c4 18 be 2a bf 42 3e
       -0.40393665 -0.0802404 -0.14918822 0.19018236
000380 c8 f1 81 3d ea 0c 85 3e ae c6 61 3d a5 24 5f 3e
       0.06344944 0.25986415 0.055121116 0.21791323
000390 b7 f8 40 3c fd a5 aa be b4 36 a1 bd c3 77 0a 3e
       0.011778048 -0.33329764 -0.07871762 0.13522248
0003a0 12 e9 d2 bd 41 56 85 3c e8 4e 2a be 3c 04 af be
       -0.10298361 0.01627648 -0.16631663 -0.34182918
0003b0 98 2d 44 bc ac 64 9a be 9f 64 38 bc fe ca bc be
       -0.011973761 -0.30154932 -0.011254459 -0.3687362
0003c0 2d fe 33 be 76 54 8b bf c5 1b 94 be b9 4d 2d bc
       -0.17577429 -1.088515 -0.28927436 -0.010577613
0003d0 5c 62 f0 bd 8c 96 83 3d de 0f 0f 3e bf 06 7c bd
       -0.117375106 0.06425199 0.13970897 -0.06152987
0003e0 93 23 18 be 07 a1 ca 3d 21 eb 46 3e 0b 3c b5 3d
       -0.1485732 0.09893995 0.19425632 0.08849343
0003f0 22 31 25 be a5 8a d5 bc 9e 01 f0 be 16 81 3a 3e
       -0.16132024 -0.026067087 -0.46876234 0.18213305

fc2.bias f4 [128]
000000 08 d5 84 3e 2f 91 8e 3e b3 82 c2 bc 99 52 b0 be
       0.2594378 0.2784514 -0.023743963 -0.34438017
000010 23 3d b8 3e f4 e3 a9 3e 1e 65 98 be 98 b7 80 3e
       0.35984144 0.33181727 -0.29764646 0.2514007
000020 11 33 85 bc 89 e3 7e 3e 66 6b f6 3d ec 2e c9 3e
       -0.016259702 0.24891485 0.120322034 0.3929361
000030 c1 42 07 3f 1a 37 8c 3e 10 29 56 be 79 e4 00 3e
       0.52836233 0.2738579 -0.20914102 0.12587155
000040 9f c7 25 bd d0 21 a8 3c 39 b7 8a bd 83 fb ad 3e
       -0.040473577 0.020523936 -0.06773228 0.3398095
000050 6d 7f 64 be 79 8b 62 be f1 cc cf 3e 5b b9 76 bc
       -0.22314234 -0.22123517 0.40586045 -0.015058841
000060 ea 8b 65 bd f6 15 24 3e a2 80 f3 3e 74 07 0c 3e
       -0.056041636 0.16024002 0.47559077 0.13674718
000070 12 15 2b 3e f9 12 39 bd 0a 0f 1b bd be c5 7e 3d
       0.16707256 -0.04518411 -0.03785614 0.0622003
000080 fa da c0 3e 6d db ff 3e 22 7e c6 bd 24 bc 85 be
       0.37667066 0.49972096 -0.09692027 -0.26120102
000090 ac 95 6a bd c6 13 ab 3e 52 34 9a 3e 8b c1 fe bc
       -0.057271644 0.33413523 0.30118042 -0.031098148
0000a0 30 0c 38 bd 6f 1f 37 3e 4e 3c 8c 3b e6 7c 97 3e
       -0.044933498 0.17883085 0.00427965 0.29587477
0000b0 68 3d 58 be c1 58 03 3f 8b 2a a6 3a e5 b7 f6 3d
       -0.21117175 0.513073 0.0012677474 0.12046794
0000c0 eb 09 a8 3e 78 26 1e bd b1 b4 19 3e 92 ba 7a be
       0.32820067 -0.038610905 0.15010335 -0.24485233
0000d0 fc 64 35 bd f3 c1 c3 be b2 7b c1 3e 9d a2 ae bd
       -0.04428576 -0.3823391 0.37789685 -0.0852711
0000e0 63 dc 81 3e 53 a5 b3 3e ed 7f 59 bd 1a 7d 83 bc
       0.25363454 0.3508707 -0.053100515 -0.016050864
0000f0 84 36 62 be 34 cf a1 3e f4 ae 5c 3e 1a 5c be 3c
       -0.22091109 0.31603396 0.21551114 0.023237277
000100 1a c9 4d bd 65 d8 b5 bd 70 69 c9 bd de 9f 31 bf
       -0.050240614 -0.088791646 -0.09834564 -0.6938456
000110 3c 28 9c be d8 14 f4 bc 86 e1 31 be 99 03 dd ba
       -0.30499446 -0.029795095 -0.17371187 -0.0016862034
000120 26 33 9c 3e 49 93 9a 3e e2 6b 99 bc 7b d7 82 3e
       0.30507773 0.30190495 -0.0187282 0.25555024
000130 68 1e 97 be b6 5a 24 bd c9 89 ee be e0 00 a4 bc
       -0.29515386 -0.04012557 -0.46589497 -0.020019948
000140 b4 3e 7c 3e 9a fb 8f 3e c7 71 82 3e 45 9e c5 3d
       0.24633294 0.28121644 0.2547743 0.09649328
000150 1f 8b f7 bc 91 cc 3b be 20 99 c2 3e 6b 6d 58 3e
       -0.030217705 -0.18339755 0.3800745 0.2113549
000160 43 bd bb 3e f9 40 84 3e 5d d0 f1 3e 5d f0 92 3e
       0.36667833 0.2583082 0.4722928 0.28699008
000170 96 8a c0 3c 33 10 91 3d f0 48 74 3e 6d dc 40 be
       0.023503583 0.07083168 0.23855948 -0.18834086
000180 1c 5f cc 3c 93 14 bf 3e d9 b6 b9 bd 94 a0 66 be
       0.024947695 0.37320384 -0.090680785 -0.22522193
000190 bf c3 c8 3e ce 05 52 3e de be c3 3e 4f f6 6d bc
       0.39211842 0.20510027 0.38231558 -0.014524057
0001a0 cd 0c 65 3e 88 9f 1a 3c 9a 7d 4f 3e 89 e5 81 bd
       0.22368164 0.009437449 0.20262757 -0.063426085
0001b0 48 de ad bd 5f 1f 46 be df 7f 19 3e 41 d9 02 be
       -0.084896624 -0.19347905 0.14990185 -0.12778188
0001c0 86 d2 e3 3e de 84 8b 3d 4f 98 40 be 8d 03 f8 3e
       0.44496554 0.06812452 -0.18808101 0.4844021
0001d0 19 e8 8c be 7c 8d 90 bd cf a7 ee 3b d4 df 58 3e
       -0.27520826 -0.07058236 0.007283188 0.21179134
0001e0 5a 09 28 be a1 a3 92 3e fb 98 aa 3e 38 d2 7c 3e
       -0.16409817 0.28640464 0.3331984 0.24689567
0001f0 fc 24 81 3e 7e 21 e6 3e 9a 56 7f bc 61 ab 57 3d
       0.2522353 0.44947428 -0.015584612 0.052653674
