Project/output/old/ddqn_duel_per/final_model.pth (torch, 292575 bytes, 36 tensors)

feature.0.weight f4 [128, 4]
00000000: 712f f9bd 38ca b53e c16a b63e 13e7 2abd
00000010: a3c9 383e d837 84be 297b 493f a3fb 873e
00000020: b7b6 733e 9cba 503e d12a 8ebe 2aac 903e
00000030: c5bf 00be ce7e 87bd 6b45 80bf ed02 32be
00000040: 24a7 2bbe fe17 49be e946 f43e 6f38 82be
00000050: d2e5 57bd 3db9 81bc 4a3c efbe 6c4e 05be
00000060: bc7d 3f3e 0306 8fbe cfc4 05bf 1ba3 d6bd
00000070: 2331 283e c685 573e 456b 3f3e b628 32b8
00000080: 7e60 633e 2d79 fd3c 94fa 09bf 6adc 0dbe
00000090: 1916 433e cdb1 883e 9ebe b43e 4860 c2bc
000000a0: bb46 d03b 4799 763d ae4b 1f3d fe45 9e3d
000000b0: f382 97be caa0 e1bd 4733 583f 63e9 8a3e
000000c0: dd09 fabc 9da4 a13e a0d3 a3be c911 dcbe
000000d0: 0fa8 0bbe 4657 9cbe 7108 4f3d 9d0e 61be
000000e0: b3bf 87bc 6782 9abd c91d 13be 97a1 a2be
000000f0: 8e55 b13e 139b 29be dcbd bc3e bd64 98bc
00000100: a7df 863e ea54 c03d 6c3a 74bf 43c3 a1bd
00000110: 61dc 14be c86d a7bb d47c b2be f1a1 853e
00000120: 5ba9 0abe 7e0b 7b3e 478f 0f3f fa57 5dbe
00000130: c8c0 543e a6a3 e1bc 5857 c3be 1317 0d3e
00000140: f064 53be a3ac 00bd bfed f9be 261f 8cbd
00000150: ab1d 09bd 9a7e 153d f9d4 d53c a8cd ddbc
00000160: d643 85be 1d0d 31bd 90cb 983e 15dd a2be
00000170: b034 463e 477a 203e d114 823f 3b3c 22bd
00000180: 6c3c 113c 44de 943d ab44 263e 49ab f93c
00000190: 526f a8be 6731 873c 1ae7 443f 137e 133e
000001a0: 94df f9be 4e53 433e 65bd df3e d520 00be
000001b0: 5a91 92be 56ab 823e 3f94 313f 9a1b acbc
000001c0: 1373 b93e 153e 83bd 0331 44bf 2ba4 70be
000001d0: 5fe7 3bbe b57f da3d a872 403f 9f83 d6bd
000001e0: ac27 2b3e 85de 503c d4d8 4f3e 1575 1f3e
000001f0: 1c1b e3bd 1207 1f3e b862 403f d48a 723d
00000200: ca1a d6bd f3c6 74bd 5599 14be 57f4 eb3e
00000210: 71a7 133e 4013 36bd bbfe 91be 1e56 80be
00000220: 8eec 873e fc15 12bf 2ab6 4ebe f9f3 80bd
00000230: 7fd8 4abe d2ce 933d 0e39 7c3f 9e0f 59be
00000240: dfa4 6a3d 93e3 26be edc3 e4be d800 483e
00000250: 8cdc dbbd ccbc 44be b2fd 45bf a915 0dbe
00000260: 40b3 aabd 380c a53d e07f c1be 1ba7 a5bd
00000270: b549 16be fdf4 c4bd 7a6e 8d3f c9d4 5b3e
00000280: 8c19 80be 3265 48bd 0c8d 98bf 0b1e d4bd
00000290: 0d79 47bd 73fd 883e b83c cabe 411e f5be
000002a0: ed39 cebd 5cb0 0a3e c1ac c93f cc56 cf3e
000002b0: 475c 183e c3fd 0fbe 87a1 b9bf 3853 adbe
000002c0: 904f 063e d49d b0be be3a 4ebf dd6b be3d
000002d0: 4844 2d3e 4b5c 993e 6986 3fbe cd8c 47bd
000002e0: 38c4 3dbc 29b8 03bd 78d8 3dbf 38bc 4fba
000002f0: debc 973d 84c2 af3e 09ca 1dbf f06d 81be
00000300: ed57 a53c 6c09 9abb 8182 c63f f843 283e
00000310: cc2c a3be 39be 84bd 9e59 a63f dae4 903e
00000320: 9a88 3f3d df08 e7bd 2aca 44bc c76a 8c3d
00000330: df17 d1bd 271d 8fbe b052 12be 3b68 a1bd
00000340: 00ce a2bd 9640 3cbe bdfd af3e 173a bcbc
00000350: c7e7 68bc 8031 dbbd 101a 0bbf 9260 463c
00000360: a994 e8be 9e9f 1fbd b255 323f 70e8 c23d
00000370: 842b 813e 84df 1ebe 20cf f3be eec0 fe3e
00000380: b9a3 b83d d117 f13c faaf 12bf 20ba 6cbe
00000390: 6f18 d63c 34e7 cabd 3b57 38bf 46ee 47be
000003a0: f233 8e3e 013b db3d e89f 28bb f42c 29be
000003b0: 66b4 c7bd bf63 933d 2812 d3bd 32be 1dbe
000003c0: 7c1f 413d 798b 873e 8bd3 2c3d 07fb 08be
000003d0: 9eb4 503e 3dda a3bd 08d6 17bf 180a 6e3d
000003e0: 6d17 073e 4fc4 44bc 8d2c 083f e6e7 b13e
000003f0: 97a9 403d c41f 033e a75a e4be 3604 8a3d
-0.12167252 0.35505843 0.35628322 -0.041724276 0.18045668 -0.25823855 0.7870355 0.2655917
0.23800169 0.20383686 -0.2776704 0.2825635 -0.12573154 -0.06615983 -1.0021185 -0.17383929
-0.16762978 -0.19638059 0.4771035 -0.2543368 -0.052709408 -0.015835399 -0.46725684 -0.13018197
0.18700308 -0.27934274 -0.5225343 -0.10480329 0.16424994 0.21047124 0.18693264 -4.2476422e-05
0.22204778 0.03094157 -0.53897977 -0.13853613 0.19051398 0.2669815 0.3530168 -0.023727551
0.006356088 0.06020477 0.038890533 0.07728194 -0.29592094 -0.11016996 0.84453243 0.27131185
-0.030522281 0.31570902 -0.31997395 -0.4298232 -0.13638328 -0.30535334 0.05054516 -0.21978231
-0.016570901 -0.075444035 -0.14366831 -0.31763908 0.34635586 -0.16563062 0.368636 -0.018602723
0.26342508 0.09391196 -0.95401645 -0.07898571 -0.14537193 -0.0051095225 -0.3486086 0.26100114
-0.13541166 0.24516103 0.56078 -0.21615592 0.20776665 -0.027543854 -0.38152575 0.13778333
-0.20643973 -0.03141464 -0.48814198 -0.068418786 -0.03347556 0.03649769 0.02610253 -0.027075604
-0.26028317 -0.043225396 0.29842806 -0.31809297 0.19356036 0.15671645 1.0162603 -0.03960822
0.008864503 0.07268956 0.16237132 0.030477183 -0.3289743 0.016503049 0.76915133 0.14403562
-0.4880339 0.19074747 0.43699184 -0.12512524 -0.2862652 0.25521344 0.6936683 -0.021009255
0.36220607 -0.064083256 -0.76637286 -0.23500125 -0.1834998 0.106688894 0.7517495 -0.104743235
0.16714352 0.012748365 0.20297557 0.15572007 -0.11089155 0.15530041 0.7515063 0.059214428
-0.10454328 -0.059760045 -0.14511617 0.46084854 0.14419343 -0.044451952 -0.28514656 -0.25065702
0.26547664 -0.57064795 -0.20186678 -0.06296534 -0.19809149 0.07217182 0.9852456 -0.21197364
0.05728614 -0.1629775 -0.4468073 0.19531572 -0.10735425 -0.19212645 -0.77340233 -0.13777794
-0.083349705 0.08058971 -0.37792873 -0.080885135 -0.14676555 -0.0961704 1.104934 0.2146789
-0.2501949 -0.048924632 -1.1918044 -0.10357293 -0.048699427 0.26755866 -0.3949945 -0.47874644
-0.10069642 0.13543838 1.5755845 0.40495908 0.14878951 -0.14061646 -1.4502419 -0.33852553
0.13116288 -0.34495413 -0.80558383 0.09297917 0.16920578 0.29953226 -0.18703617 -0.048718262
-0.011582427 -0.03215805 -0.7415843 -0.000792447 0.074090704 0.3432809 -0.61636406 -0.25279188
0.020183528 -0.00470083 1.5508577 0.16432178 -0.31870115 -0.064815946 1.2996099 0.282996
0.046761133 -0.11280989 -0.01201109 0.06856304 -0.10209631 -0.2795193 -0.14289355 -0.078812085
-0.07949448 -0.18384013 0.34373274 -0.022976918 -0.014215416 -0.10702801 -0.54336643 0.012107985
-0.4542592 -0.038970582 0.6966201 0.0951699 0.25228512 -0.15514952 -0.4761896 0.4975657
0.090156026 0.029430302 -0.5729977 -0.23117876 0.026134698 -0.0990738 -0.72008103 -0.19524488
0.27774006 0.107046135 -0.0025730077 -0.16521055 -0.09751205 0.071967594 -0.103061974 -0.15404585
0.047149166 0.26473597 0.04219393 -0.1337701 0.203814 -0.0800061 -0.5931096 0.058115095
0.1319253 -0.012009694 0.5319298 0.34747237 0.047036733 0.12805086 -0.44600412 0.067390844

feature.0.bias f4 [128]
00000000: 3e35 bc3d 57e4 8fbe fcb8 f03d 90b7 7cbe
00000010: 3537 6bbd 8cf3 983e 687a 593e bb34 b1be
00000020: 8035 7abe f8e2 80be 9fc4 973e 1293 c13e
00000030: b994 bbbc 59f1 1e3d 6bde 9b3e a3cc 3f3e
00000040: a414 55be 39ef 18bd 7571 fcbb f4fa 853d
00000050: 84f8 d8be 4c18 9a3e 6a05 80be 56be f93d
00000060: 9776 de3d d0ff 4abe 162e 263e b341 2b3e
00000070: a43c 7dbe 84d2 d6bd c651 693e 1cfd b73e
00000080: 9a3c d13d cb4d 9abe 0d89 16bd bebd 58bd
00000090: c0f6 d23d 30c3 bc3e 2a9d 9d3e 62a7 3cbe
000000a0: d63f ca3e 5736 ae3d 3a1c 843d e4bb a6be
000000b0: 3a12 9f3d 52d8 94be 8c51 613e a6e8 05be
000000c0: f85b 98be 0cf2 5abe 3f71 a93e a34a 583d
000000d0: 3c8b 4c3e 81b1 ee3d 9163 a63e 8d58 98be
000000e0: 18ab 9bbe 7a00 ac3e ad7d 96be a67a 993e
000000f0: 348a 76be 8cfa 78bc 36a5 91be bc8d d43d
00000100: f702 92be f1a4 1ebe 62ec b43e aa39 8f3e
00000110: 27d8 123d 1d54 833e d7d8 783e a93a 5d3e
00000120: b3d5 c1be 8e3f e7bd 47e8 af3e 4c56 633e
00000130: e55f 573c 7852 93bd f7a4 413e be89 e53d
00000140: 2b4a a1be 3b8b 9d3e 85f2 313d ee2f ce3e
00000150: 8f25 073e e5df 2abe e492 84be 491f 963e
00000160: 90c2 7c3e f38c 85be 910f b53d 3f6a 0abd
00000170: 33bf 8e3e 4e5d b1be 493e 5a3e b068 293d
00000180: 77cc 9f3e 037b c9bc 0d74 71be 10c0 12be
00000190: 1527 7bbe a502 46be 1083 b4bb 9888 03bd
000001a0: 1d6c 90bd 5ad4 81be eda8 573e f9e0 84be
000001b0: f541 88be 811b eb3d 1a27 5e3e 24e3 93be
000001c0: 1c7b 2c3e 6c8f 54be ac81 6d3e 81c0 68be
000001d0: 3b8a 81be c5dd 3fbc 25ed 29be 88ac d13c
000001e0: f432 dcbd 7a06 36bd 7e60 913e 335b 83be
000001f0: 0e87 efbe 74bd 9bbe 947b f13d dd85 2c3e
0.09189843 -0.28103897 0.11754033 -0.24679399 -0.057425696 0.29873312 0.212381 -0.34610543
-0.24434471 -0.25173163 0.29642197 0.37807518 -0.022898065 0.038804386 0.3044313 0.18730406
-0.20808655 -0.037337516 -0.007703955 0.06542006 -0.42377102 0.30096662 -0.2500413 0.12194507
0.10862463 -0.19824147 0.16228518 0.16724281 -0.24730164 -0.104893714 0.227851 0.35935295
0.10216637 -0.30137476 -0.036751796 -0.052915327 0.1030097 0.36867666 0.3078397 -0.18423226
0.39501828 0.08506458 0.06450696 -0.32565224 0.07767148 -0.2907129 0.22003764 -0.1307703
-0.29757667 -0.21381396 0.33094212 0.052805554 0.19974989 0.1165495 0.32497838 -0.2975506
-0.30403972 0.33594114 -0.29392758 0.29976386 -0.24076158 -0.015196454 -0.28446358 0.10378596
-0.28517887 -0.15492608 0.35336596 0.27973682 0.03585067 0.2565011 0.24301468 0.21604408
-0.37858352 -0.11291419 0.343569 0.22200888 0.013145422 -0.07193464 0.18910585 0.11207913
-0.31501898 0.30770287 0.043444175 0.40270942 0.13197921 -0.16686971 -0.2589332 0.29320744
0.24683595 -0.26084098 0.0884086 -0.03379273 0.27880248 -0.34641498 0.21312822 0.041359603
0.31210682 -0.02459479 -0.23579426 -0.14331079 -0.24526627 -0.19336946 -0.005508788 -0.032112688
-0.07051871 -0.25357324 0.21060534 -0.2595289 -0.2661282 0.11479855 0.21694604 -0.28884232
0.16843837 -0.20757836 0.23193997 -0.22729684 -0.25300774 -0.011710589 -0.1659437 0.025594965
-0.10751906 -0.04443977 0.2839393 -0.25655517 -0.46782726 -0.3041798 0.11791149 0.1684794

value_stream.0.weight f4 [64, 128]
00000000: 4b92 a7bc 1c6e ea3e e071 8bbd fe4c 5cbf
00000010: bdf6 25bc d7c6 d13e a1d3 063e f892 25bd
00000020: 4493 30be 1041 9d3d 18ab 813e 8693 42bd
00000030: 7b7b e3bd ef23 ba39 d111 9b3c b4d7 b1bd
00000040: 0881 edbd cd09 a03e a16b 94bd 9002 eebd
00000050: 61bc b5bf 6915 583e 687f e6bd b075 6b3e
00000060: 484d 353e 46cf e0be a20b 8fbd 1c8d 783c
00000070: bda0 02be cb55 d0bd ca13 d43d 226e c63e
00000080: f079 cc3c 1c31 b1be a696 c9bd 3e1f 323d
00000090: 9b5a 5dbe f635 a8be 4cac 883e 66fb cf3d
000000a0: 232e 913c c38e b3be 0e24 48be 8927 73bf
000000b0: 5477 e43d c4b1 09be 6c3f f63d e5e8 b7ba
000000c0: d6c8 4b3e 819b 83bd 0380 18bc 6f08 703c
000000d0: 9f8e 963d 416e ca3d 1460 143e f134 1abd
000000e0: 765f e5be d17c bf3e eb87 3cbb dd81 bf3e
000000f0: 8b36 a73c b0b1 3cbe ad49 3c3e 8021 333e
00000100: e3d9 82be 5360 203d ba70 853e 3449 263e
00000110: 9991 843d 8d46 f2bd bc93 8f3e b1a8 883e
00000120: 38e1 fdbf de16 30bd 24b3 5d3e cda8 173f
00000130: f801 ac3d f821 3f3c 78ac b53d 8871 6bbe
00000140: 3b9a 68bf 7a36 c83d e7dd a73d 7d5b c93d
00000150: e659 da3d 558f db3d fe01 7a3e 05fa d8bc
00000160: c554 cebc 7fed 0b3e a79f 723d 11c0 80be
00000170: f321 7b3e 400b 313e cfd7 573e 3a6c eebc
00000180: 179c 0c3e 47ef 87bd 61d7 03bf 28d3 11bd
00000190: 7140 af3c 8203 96bc 1c05 c2bd 523c b13d
000001a0: 2b6d c73d f42f 93be 0c89 463e fdd6 4d3e
000001b0: 834d 57bf 42c0 8e3d 7266 efbd 6c0d 71bd
000001c0: a23c 0a3e 72ba d1bf 2cd3 c1bc 07fa b9bd
000001d0: f7db f3bc be11 af3d bb5a 8cbc 15e9 66be
000001e0: c866 433d d320 a23d 27d0 993d 3fae e4bf
000001f0: 1090 253e f374 75bd a51f 19be 2ac7 7cbd
00000200: 6d13 76be 1ce5 3f3e b071 28be 3140 03bf
00000210: 732c 193e 90f2 b83e fe6c 783c 3421 15be
00000220: 7715 95be a35c a43d 3de2 053e 7b63 99bd
00000230: 4e69 91bd bc91 b83c ad4d f43d 70a7 103e
00000240: 76e4 f1bd bfe7 43bd f54c 603e e751 ab3e
00000250: f623 66bf 6251 123e 54d0 41bd 90e2 ff3d
00000260: f828 043e ad9a b6be 1788 553b 871e 633d
00000270: 0500 573e b46c 87bd be6c 9c3d 2352 2b3e
00000280: 0132 b0bc 4cbe 2abe 8504 553d 94bd 813d
00000290: b88b 833c 5801 2abe d437 a43e 8f30 55be
000002a0: 991e 6ebb e2ae e43d 218b a53d 6900 bbbe
000002b0: 699b 9a3d f233 cc3c a792 bf3d 4988 31be
000002c0: 14c1 b53e 7aac 10be 7b14 403d 2eb9 05be
000002d0: 0376 fc3d 7653 e33d 916d 2abe ef3b 77ba
000002e0: b817 1a3e f11e 203e 46a8 15be 04f2 1dbd
000002f0: 1619 cdbd ab60 17be ab40 453d af56 67bd
00000300: 17dd 86be 2b3c cabd 9398 913e 1fef b63e
00000310: d5e7 80bc e232 613e 4987 993e 87d5 033e
00000320: 5c1a dbbf 88be 3a3d aa70 9a3e 3779 f53d
00000330: 162a 3ebb 9c6c 8a3e d77c f23d e2d6 67be
00000340: 9869 5dbf 112f 453e ba84 de3a 1c81 413d
00000350: 8707 a0bd 7756 4bbd 4d3e cc3d 3b46 d7bd
00000360: 0d35 4ebd b7e9 8ebd aa5a 95be 439a 41be
00000370: 67fd bb3d b6cc 1a3e 15fb 273e b338 b33d
00000380: 0317 a23d 4376 9f3b c2fb 27bd d00d 2e3e
00000390: 57fb 32be 318b 17be 0cc2 523e caf7 b5ba
000003a0: 173c 503e c6bd 9b3d e46e b03d 75c3 30be
000003b0: 484b dbbe f874 5d3e b3e8 0e3d 8e9b 1ebd
000003c0: a648 c93d a189 9cbe b5a3 c93d 8dad b73d
000003d0: d7f9 bf3d 9712 ac3e cc27 b1bd 7296 413e
000003e0: b5a3 7cbe 7066 653e 6fa9 653e cb59 8cbc
000003f0: 17af 08be 8aa9 c8bc 6872 9cbd d274 83bb
-0.0204555 0.45787132 -0.06808829 -0.8605498 -0.010129628 0.40972015 0.13166668 -0.040423363
-0.17243677 0.07678425 0.25325847 -0.04750397 -0.111075364 0.00035503457 0.018929394 -0.0868372
-0.115968764 0.31257477 -0.07247091 -0.116215825 -1.4198114 0.21101917 -0.112547696 0.22994113
0.17705262 -0.43908137 -0.06984641 0.015170362 -0.1275663 -0.10172614 0.10355337 0.387559
0.024960488 -0.3460778 -0.09843187 0.043486826 -0.21616594 -0.3285367 0.26693952 0.10155372
0.017722195 -0.35069856 -0.19545004 -0.949822 0.111555725 -0.13446718 0.120238155 -0.00140312
0.19900832 -0.064261444 -0.009307864 0.014650448 0.073514216 0.098843105 0.14489776 -0.037648145
-0.44799393 0.37399915 -0.0028767537 0.37403765 0.02041175 -0.18427157 0.1838748 0.17493248
-0.2555686 0.039154362 0.26062566 0.16238862 0.06473083 -0.11829863 0.280424 0.266912
-1.9834356 -0.042990558 0.21650368 0.59241945 0.08398813 0.011665814 0.088707864 -0.22992527
-0.90860337 0.097760156 0.081966214 0.09831903 0.10661678 0.10720698 0.24414822 -0.026486406
-0.025186906 0.13664816 0.059234288 -0.25146535 0.2452467 0.17289448 0.21078418 -0.02910434
0.13731419 -0.066374354 -0.5150052 -0.035601765 0.021393033 -0.01831222 -0.09473631 0.08654083
0.09737619 -0.28747523 0.19388217 0.20101543 -0.8410265 0.06970264 -0.11689462 -0.05885069
0.13499692 -1.6385024 -0.023660265 -0.09080892 -0.029767973 0.08548306 -0.017133107 -0.22549851
0.04770544 0.07916417 0.07510405 -1.7865676 0.16168237 -0.059925985 -0.14953478 -0.061713375
-0.24030848 0.18739742 -0.16449618 -0.51269823 0.14958362 0.3612256 0.0151627045 -0.14563447
-0.2911794 0.080254816 0.13074584 -0.074896775 -0.071001634 0.022530429 0.11928878 0.14126372
-0.118111536 -0.047828432 0.21904357 0.33460924 -0.8989862 0.14288858 -0.047317818 0.12494385
0.12906253 -0.35664883 0.0032582337 0.055449035 0.20996101 -0.0661253 0.076379284 0.16730551
-0.021508219 -0.16674155 0.052006263 0.06334987 0.016057834 -0.16602075 0.32073843 -0.20819305
-0.0036334156 0.11166169 0.08083177 -0.3652375 0.075491734 0.024927113 0.093541436 -0.17337145
0.3549887 -0.14128295 0.04689453 -0.13058922 0.123271964 0.11099903 -0.16643359 -0.0009431233
0.1504811 0.15636803 -0.14614972 -0.038560882 -0.100145504 -0.1478297 0.048157375 -0.056479152
-0.26340553 -0.098747574 0.28436717 0.3572931 -0.015735546 0.21992067 0.29986027 0.12874423
-1.7117419 0.04559186 0.3016408 0.119860105 -0.0029016784 0.27035987 0.118402176 -0.22640565
-0.8648925 0.19256236 0.0016976811 0.04724227 -0.07813936 -0.049643006 0.099728204 -0.10511442
-0.050343562 -0.06978171 -0.29170734 -0.18906502 0.09179192 0.15117154 0.16404374 0.08751049
0.079145454 0.004866393 -0.04101158 0.16997457 -0.17478691 -0.14799191 0.20581836 -0.0013883051
0.20335422 0.07604556 0.08614901 -0.17262061 -0.42830873 0.21626651 0.034889888 -0.038722567
0.0982831 -0.30573753 0.09845678 0.08968649 0.09373825 0.33607933 -0.08650169 0.18905047
-0.24671824 0.22402358 0.22427915 -0.01713266 -0.13348041 -0.024494905 -0.07639009 -0.004011729

value_stream.0.bias f4 [64]
00000000: d1ff 293e fcc2 fc3d fa30 2f3e 6f36 e33d
00000010: 7959 a8be 0797 f73d d108 543e 841b 623e
00000020: 87a8 093e 3946 313e bd58 df3d 18f9 833e
00000030: e0fa 1f3e eab1 583e fa6c 013e 3906 033e
00000040: 86e1 6dbe 9f49 b13d fb94 2cbe c507 053e
00000050: 7902 ed3d db28 e9be c29b 42be 5dcf 22bd
00000060: 02a8 0c3c ee8a 323e 6b8d e23d 70f9 043e
00000070: cbfe 25bd ad61 23bc fcaf 913c ec36 863e
00000080: fc67 013e ae84 3b3e e127 783e 89c3 0d3e
00000090: a4af 093e efff 1cbc d917 393e de4e 723c
000000a0: a24d 553e 4053 f23d dd89 863e c22f e93d
000000b0: 70d3 d7bd 7751 33bd fae7 bdbc 1e97 fe3c
000000c0: 349e bebc 8bd6 45be 0363 833e bb35 053e
000000d0: 0000 0000 990f 283e c2d5 cbbe 35bf f43d
000000e0: a62a ae3d e5c6 283e c863 bd3d f4ac 153e
000000f0: 4875 213e 949f 283e 4c6c ef3d bad7 ca3d
0.16601492 0.12341878 0.17108527 0.11094367 -0.32880762 0.12089353 0.20706488 0.22080809
0.13443194 0.17311944 0.10905597 0.2577598 0.15623045 0.21161619 0.12639228 0.12795343
-0.23230562 0.0865662 -0.16853707 0.12991245 0.11572737 -0.45538983 -0.1900473 -0.03974854
0.008584978 0.1743581 0.110621296 0.12985778 -0.040526193 -0.009972018 0.017784111 0.26213777
0.12637323 0.18312332 0.24233963 0.13844122 0.13445908 -0.009582504 0.18075503 0.014789311
0.20830396 0.11832285 0.26277056 0.11386062 -0.105383754 -0.043778863 -0.023181904 0.031077918
-0.023268797 -0.19320123 0.25661477 0.13008778 0.0 0.164122 -0.39811522 0.11950532
0.08504228 0.16482122 0.092475474 0.14616758 0.15767395 0.16467124 0.11690578 0.09904428

value_stream.2.weight f4 [1, 64]
00000000: 8543 143f e079 7b3e ad91 ab3e 7847 fe3d
00000010: a6a9 0ec0 f607 febf ac27 9b3e 6e55 573f
00000020: ea23 793e 51be a13e c725 c03e b834 153f
00000030: b114 f33e c41c 273f ea5d 6d3e 6179 a13e
00000040: 6779 06c0 1817 d33e 07fb f2bf 07da 9b3e
00000050: 7728 933e 6856 6dc0 b4d5 23c0 ea9a e3bf
00000060: 06a5 88bf 1052 db3e 60f1 c13d a8f6 923e
00000070: 0279 2bbf fee2 59bc 0827 6bbf 1b4f a63e
00000080: 1702 4d3e 9c0f dc3e 3112 183f 78a2 003f
00000090: e14d 48c0 b058 38be cd4c 7abf 3d49 26bf
000000a0: a2d9 c53e 3c83 003f bc38 a53f 4bd1 753e
000000b0: 784c 3dc0 2c9e 2cc0 25c3 b6bf 3c8a d9bf
000000c0: cf63 a4bf d470 06c0 02e2 8e3f afe2 813e
000000d0: 0f60 8a3e db31 883e 13af 38c0 11a1 8d3e
000000e0: 9e75 cdbf 7e38 1c3f a212 cc3e cb6c 143f
000000f0: b554 003f da52 d23e d363 663e e11c c9bf
0.57915527 0.2455821 0.3350958 0.12415975 -2.2291045 -1.984618 0.30303705 0.8411473
0.24330106 0.31590512 0.37528822 0.5828357 0.47476724 0.6527827 0.23180357 0.31537917
-2.1011598 0.41228557 -1.8982857 0.3043978 0.2874181 -3.7083988 -2.5599184 -1.7781651
-1.0675361 0.42836046 0.09469867 0.2870381 -0.6698152 -0.013298748 -0.9185643 0.32482228
0.20020328 0.4298066 0.5940276 0.5024791 -3.1297534 -0.18002582 -0.9777344 -0.649555
0.38642603 0.5020025 1.2907939 0.2400562 -2.9577923 -2.697154 -1.4278303 -1.6995311
-1.2842959 -2.1006365 1.1162722 0.25368258 0.27026412 0.26600537 -2.8856857 0.27661946
-1.6051519 0.610237 0.39857966 0.57978505 0.5012925 0.41078836 0.22499017 -1.5711938

advantage_stream.0.weight f4 [64, 128]
00000000: 137b 813d c536 54bd 2d5b 87bd c87d 6d3e
00000010: 7fc5 27be 714c ce3d 390a 18be d98f ca3d
00000020: 186f 21bd 2946 67bc 6dea 453e ff52 123e
00000030: 24e9 bd3d 3886 9d3c 4d0f 81be b109 a5bd
00000040: 9882 d73b aa3f 493d 26eb 56bd 7fc6 ba3d
00000050: 10df 073e f919 cf3c 8bdd 06be f3bb 54bd
00000060: 1f9a 2abd c499 3ebe 53d1 1bbe 8905 3cb9
00000070: 7de3 69bd e8ec 1e3c a4f0 ccbd 98bc 81be
00000080: 4ad7 dfbd 9481 763d 215d 69bd a4b5 81be
00000090: 5b45 cb3c a402 47be 752e b63d 74e5 63be
000000a0: 05f5 293e 2f6c 02be fd48 d6bc a1d3 8b3d
000000b0: db99 6a3d f0ef 4b3e 3f0a c3bd f3ae 233c
000000c0: b4a6 0cbe de8e c53d 891f d63d a76a 36be
000000d0: c023 143e dab4 5d3e 73db a53e 50be 03be
000000e0: c5de 5d3b fa64 e43d 389a 333d e054 fbbd
000000f0: 9ba1 89be 3808 55bd d1c9 42bd 5075 65be
00000100: bcfb 4e3d 7206 7fbd 1375 a4bd d332 19be
00000110: ccc5 44be 455d a43d ef9c 31bd 6cd8 dcbc
00000120: 2c37 92bd 4b21 3d3d 1c4c 213e dfb1 5cbd
00000130: 9d41 efbc f36d f53d 9cf0 26be e251 f43d
00000140: ce61 853d 4dec 11bd 61c9 3e3e b68f 4cbe
00000150: 2500 40bd 5222 27be 31e1 8cbd 39ae aa3d
00000160: 1dc9 c5bd 89f3 d53a fba3 a2bd 8dfd 5cbe
00000170: 7c34 cbbd ff9f 31bd d969 39be 313f 21be
00000180: 0bd8 1bbd 0bd9 31bd 4508 1ebd 0c52 b03d
00000190: cd3b 21be 013f 35be ce90 3abe 3877 103e
000001a0: 3cc1 a1bd 6a7b 65be d2d2 1dbc e3ec 88bc
000001b0: 963c 6b3d 8b01 9f3c e536 1fbe 8212 bd3d
000001c0: 89db bc3c 4e8c 3dbe b316 38bd e476 1a3e
000001d0: bafa 613d 01fd 003c b9f4 bcbd 5fb7 59be
000001e0: 4efe ddbd 8934 133e a7b2 353e 0cd3 713d
000001f0: 83a5 a63d 30f0 c93b 391a 44be a864 e93c
00000200: 39ad cb3c bd6b 54be ad76 9b3d 7c72 d5bd
00000210: 9cdc 42bd c915 43be 6b3c 1abe 4167 79be
00000220: b14e d4bc 64c5 10bb 3b7f b73d 8cfc d6bd
00000230: e35f d03c 58b4 b0bd 2b66 99be d8a7 28be
00000240: fffc 403d f4bf 22bd 5374 6f3d c386 05bd
00000250: 5b0e 58be 5087 c839 a998 14be ceff 83bd
00000260: 6651 05be 64ed 5d3d f3b8 3cbd bcab d63c
00000270: 06c4 e33d ca28 afbd ad2c da3d b13f 3d3d
00000280: 7217 f23d 7e17 8a3c cb04 37be 7c87 3bbb
00000290: 0dcc 0abd f0be 8abd f867 07bc 88e7 69b9
000002a0: 7088 753d 461e 86bd 46a2 78bc e571 0a3e
000002b0: 7770 16bd be84 b73d 1aa8 abbd f22e 51bd
000002c0: 6512 8e3b e778 803b fc07 273e 8fbb b9bd
000002d0: d90b 2c3e 7c31 41be 2026 d13c d915 283e
000002e0: f5d8 b1be 7946 0bbe dddd c43d 42b3 88bd
000002f0: 9338 1bbe f48b 33be 9855 6e3e 57af 3c3e
00000300: 0995 733e 3eed bcbe 179c 0a3e 8b48 e5bd
00000310: 6bbc 8abd 30f2 fcbd 9cbe f43d 69e4 d73c
00000320: dd12 073e 6868 493d 14e8 d2bd b3a1 1fbd
00000330: a3e7 343c 5840 fabd a5c2 05bd 0883 81bc
00000340: 9bc0 8f3d 8c58 e73d 1488 7dbd e02b bd3e
00000350: 214d 8fbd e382 5e3d 856e e13c 0e74 28be
00000360: 2fe9 61bd b230 3abe 594a 133e cc82 dcbd
00000370: 9aa4 83be a751 a2bd 35f8 e0bd f953 3cbd
00000380: 4b24 fdbd ea79 95be 7f01 a13d 19ab f0bc
00000390: 804c 3d3d 1a69 35bd 6b31 f3bd 0a2b c33d
000003a0: b9a3 c3bc db28 02bc 9d7f 87bc f19e 823d
000003b0: c9cb 943e 94ea 92bd bbc0 173e 821e 623d
000003c0: e5dc ddbd 9c05 e5bd 891d ba3d 9247 313c
000003d0: 497d 84bd be7b 2cbd d4a7 933d f57b 653d
000003e0: fcbe 1b3d acba 43be 5b75 603d 3a7f e2bd
000003f0: 989a dabc 443e 8d3d 83b2 1a3e dc56 1abd
0.06322303 -0.051810045 -0.06609187 0.23192513 -0.16383933 0.10073174 -0.1484765 0.09890718
-0.039412588 -0.014115849 0.19327708 0.14289473 0.09272984 0.01922904 -0.25206986 -0.08058489
0.0065768473 0.04913298 -0.05247035 0.091198914 0.13268685 0.02528094 -0.1317045 -0.051937055
-0.041650888 -0.18613344 -0.1521657 -0.00017931139 -0.057101715 0.009700038 -0.10006836 -0.25339198
-0.10929735 0.06018217 -0.05697358 -0.25333893 0.024813345 -0.19434601 0.0889558 -0.22255498
0.16597374 -0.12736581 -0.02615785 0.068274744 0.057275634 0.19915748 -0.09523439 0.009990442
-0.13735467 0.096463904 0.104552336 -0.17814122 0.14466763 0.2165102 0.3239399 -0.12865567
0.0033854705 0.11152072 0.043848246 -0.12272048 -0.26881108 -0.05200979 -0.04755575 -0.22408032
0.05053304 -0.062262006 -0.08030143 -0.14960794 -0.19216079 0.08025602 -0.043362554 -0.026958667
-0.071394295 0.04617433 0.1575169 -0.05388057 -0.029206092 0.11983862 -0.16302723 0.119296804
0.065127954 -0.035625745 0.18631507 -0.19976696 -0.046875138 -0.16321686 -0.06878889 0.083340116
-0.096575 0.001632319 -0.07941433 -0.21581097 -0.0992212 -0.043365475 -0.18106784 -0.15746762
-0.03804783 -0.04341988 -0.038582105 0.08609399 -0.15745468 -0.17699815 -0.18219301 0.14107978
-0.07898185 -0.2241036 -0.009632783 -0.016714519 0.057430826 0.019409915 -0.15548284 0.09232046
0.023053901 -0.18510553 -0.044943523 0.15084416 0.055170752 0.007872821 -0.09226365 -0.21261357
-0.108395204 0.1437551 0.17743932 0.05903916 0.081370376 0.006162666 -0.19150628 0.02849038
0.024862872 -0.20744224 0.07590995 -0.10422227 -0.04757367 -0.19051279 -0.1506211 -0.24355794
-0.02591643 -0.002209031 0.08959814 -0.10497388 0.025436347 -0.08628148 -0.2996076 -0.16470277
0.047116276 -0.039733842 0.058460545 -0.032599222 -0.21099226 0.00038247788 -0.1451136 -0.06445275
-0.13019332 0.05418147 -0.04607482 0.026204936 0.11121373 -0.08552702 0.106530525 0.04620332
0.11820878 0.016856905 -0.17872922 -0.002861469 -0.033886004 -0.067747 -0.008264534 -0.00022306864
0.05994457 -0.06548743 -0.015175408 0.1352001 -0.03672835 0.089608654 -0.08381672 -0.05107016
0.004335689 0.0039206627 0.1631164 -0.09068977 0.16801395 -0.18866533 0.025530875 0.16414584
-0.34735838 -0.13601102 0.096126296 -0.06674816 -0.151583 -0.17533857 0.23274839 0.18426262
0.23787321 -0.3689975 0.13536106 -0.11195477 -0.06774219 -0.12350881 0.11950418 0.026354032
0.1319079 0.049171835 -0.10298172 -0.038972568 0.011041555 -0.12219304 -0.03265633 -0.01580955
0.070191585 0.11296186 -0.061897352 0.36947536 -0.06997133 0.054324042 0.02751852 -0.16450521
-0.05515402 -0.18182638 0.1438383 -0.10767135 -0.2571152 -0.0792573 -0.10984842 -0.04597852
-0.12360438 -0.29194576 0.078616135 -0.02937846 0.046215534 -0.044289686 -0.1187466 0.095296934
-0.02388178 -0.007944311 -0.016540343 0.06377972 0.29061726 -0.071736485 0.14819615 0.055204876
-0.10833148 -0.111827105 0.09087665 0.010820286 -0.06469209 -0.042110197 0.07209745 0.056026418
0.038023934 -0.19114178 0.05479942 -0.11059423 -0.026685044 0.06896642 0.1510716 -0.03768049

advantage_stream.0.bias f4 [64]
00000000: 2526 2dbc eeb9 88bb a83e a93d 9bd5 b93d
00000010: 5301 833d 5ade b53d 58a6 583d 59c1 6fbe
00000020: 2f7d f93c 3e25 163e 701c 84bd 1821 80bc
00000030: c633 063e 2972 01bd 74e0 89bd ec62 e8bb
00000040: 3da4 383e d881 20bd 9f78 453e 31f4 cc3d
00000050: d22b e23d dfc5 05be 1be6 113e 9242 fe3c
00000060: 21e2 043d f6c8 863c 7183 99bd 7405 103d
00000070: d363 f7bd 46c8 e1bb d6f9 c2bd bc2a aabc
00000080: fc15 9b3d 7f4c 83bd 9bc7 c63d 21ea 38bd
00000090: 4ea2 793e 334a 30bd 21ec d93d 999d 2cbc
000000a0: b00e 70bc 0b3b bbbd d0a1 56bd dd94 aabd
000000b0: 951e f53d 622b e73b e781 ddbd 5215 f13b
000000c0: 518a 83bd 6667 27be c6dd 09be 2eb1 6dbe
000000d0: b44e f73d 121d 07be 5ae7 e1bd 9c10 66bd
000000e0: e940 d3bd 3faa 7b3b e9dd 403d 9e27 943d
000000f0: d40b 503e 7ecf 9ebd 6aa8 823d cd36 ea3a
-0.010568176 -0.004172555 0.08263904 0.09073945 0.06396737 0.08880301 0.052893013 -0.234136
0.0304552 0.14662644 -0.064507365 -0.01564078 0.13105687 -0.031603012 -0.06732264 -0.0070918705
0.18031402 -0.03918633 0.19284295 0.10007513 0.11043514 -0.13063763 0.14247935 0.031037603
0.032442216 0.016453248 -0.074957736 0.03516145 -0.12079587 -0.0068903295 -0.09520309 -0.02077233
0.075725526 -0.06411075 0.097060405 -0.045145158 0.2437832 -0.043039512 0.10640741 -0.010535621
-0.014651939 -0.09142121 -0.05240041 -0.08329175 0.11968724 0.007054732 -0.108157925 0.007357278
-0.06422866 -0.16348037 -0.13463506 -0.2321212 0.12075558 -0.13194683 -0.11030455 -0.056168184
-0.10315115 0.0038401035 0.04708663 0.07234119 0.20317012 -0.0775442 0.06379779 0.0017869115

advantage_stream.2.weight f4 [2, 64]
00000000: b844 5b3e 99bf adbd cc17 8e3e 7775 3b3e
00000010: 1d11 80bf 519c b63f a2b4 8f3f b7b8 abbf
00000020: 2e82 023f 3c2e 23be 169f 003f 0855 f73e
00000030: 13da e73e cfa1 ec3e 99a2 b4be f318 8bbd
00000040: d149 743f 02c3 a3bf cb46 383f 2bcb 3bbf
00000050: d5ca 8ebe f812 06c0 da05 5bbe 8f59 c73f
00000060: ad81 21c0 8a36 8bbf f594 a33f 1557 b23e
00000070: c70d 53bf bd43 0dbe 4bad b53f 0457 253e
00000080: 22bc fc3e a1bd 5dbf 014a df3e 8304 2ec0
00000090: 5ea8 48bf a23b c239 8e32 153f 712e 2ebf
000000a0: 4972 33be c25e 3fbe ded9 e33f 8a5c 0040
000000b0: e165 b1be 4580 a03d f3e1 243f 79f6 b6be
000000c0: 5ce2 8fbf fa9a 4b3f 75e7 0dc0 5f56 c5bf
000000d0: 5f0a 763f 019c 5abf faea 87bf bcba 0b3d
000000e0: 4a0c bc3f 941c 6abe 8352 04bf f7f8 07bf
000000f0: c7ef 45bf 2da0 443f 5a15 073f bfa3 b6be
00000100: f3c4 b13e d225 17bd d2de eabe 468b 29bf
00000110: fa14 7b3f de61 e3bf 9495 33bf 5518 7e3f
00000120: 29ee 6ebe b505 103f 44d0 b5be bff4 05bf
00000130: eb7b a2be 2f3c b5be fb87 333f d233 54be
00000140: 9923 63bf 3ebd 8e3f 4dd2 29bf c3cf 8f3d
00000150: b3e7 033f 48f6 1140 10a6 7a3e 56b1 a7bf
00000160: 052b 1d40 2ed7 a43f d3f5 51bf 071c 533d
00000170: e841 823f f1c2 213c f1ad 9abf 0e4e c33d
00000180: 5a7f bcbe 27fc 5a3f 5ac7 aebe d2c5 3a40
00000190: c9d2 823f c110 7a3e c0f0 21bf 7748 273f
000001a0: 692f b1be fa8e 2d3f 8e7f c2bf 61c5 06c0
000001b0: 4543 a23e 8b95 a6bd a5f8 21bf 0f82 fb3e
000001c0: d2b4 9f3f 80ad 19bf b9ec 1240 65e4 c63f
000001d0: 092a 96bf 0df4 3d3f 39d6 543f 9c1c 533d
000001e0: 14dd aebf e6d2 3f3e ac9f c33e e843 de3e
000001f0: a53f 663f d158 4abf 3753 a5be aa8f 533f
0.21412933 -0.0848381 0.2775253 0.18306528 -1.0005223 1.4266454 1.1227 -1.3415745
0.5097989 -0.15935606 0.50242746 0.4830706 0.45283565 0.462172 -0.35280302 -0.06791868
0.95425135 -1.2793887 0.7198302 -0.73356885 -0.27889124 -2.0949078 -0.21388951 1.5574206
-2.5235398 -1.0876019 1.2779833 0.34832063 -0.824429 -0.13795371 1.419351 0.16146475
0.49362284 -0.86617476 0.43611148 -2.7190254 -0.7838191 0.00037046993 0.58280265 -0.68039614
-0.17524065 -0.18688491 1.7800863 2.0056481 -0.3464804 0.078369655 0.6440727 -0.3573492
-1.1240954 0.7953335 -2.217252 -1.5416983 0.96109575 -0.85394293 -1.0618584 0.03411363
1.469125 -0.22862464 -0.516884 -0.53114265 -0.77318996 0.7680691 0.52766955 -0.35671803
0.34720573 -0.036901303 -0.45873123 -0.6622814 0.9807888 -1.7764242 -0.70150113 0.9925588
-0.23333038 0.5625871 -0.35510457 -0.5232658 -0.31735167 -0.3539748 0.70129365 -0.20722893
-0.8872619 1.1151502 -0.6633652 0.07022049 0.5152542 2.2806568 0.2447741 -1.3100994
2.4557507 1.2878168 -0.82015723 0.0515404 1.0176363 0.009873138 -1.2084333 0.09536372
-0.36815912 0.85541004 -0.34136468 2.918324 1.0220577 0.24420454 -0.6325798 0.6534495
-0.34606484 0.6779629 -1.5195177 -2.105797 0.31691948 -0.08133992 -0.63270026 0.49122664
1.2477057 -0.60030365 2.2956984 1.553845 -1.1731578 0.74200517 0.8313938 0.051540956
-1.3661218 0.18732795 0.38207757 0.43411183 0.89940864 -0.79041773 -0.3229005 0.8264109

advantage_stream.2.bias f4 [2]
00000000: f526 edbd f526 ed3d
-0.11579696 0.11579696

feature.0.weight f4 [128, 4]
00000000: ee46 fbbd 62de b53e 2acf b23e b65d 30bd
00000010: 897f 3f3e 7398 84be bd78 453f 7777 893e
00000020: 4100 723e 768e 4f3e 84d4 92be 7d17 903e
00000030: 6275 00be dcaa 83bd 0ea9 7dbf 308e 31be
00000040: 244f 29be 2f25 45be 6d5d fb3e df34 80be
00000050: 18bd 5bbd 99ad 6abc 8d51 e9be d9c3 06be
00000060: b7f1 3d3e d064 8dbe dc27 fdbe dec6 d7bd
00000070: c008 263e 67bb 543e 9eb8 403e e9bf 73bb
00000080: 9177 5f3e 3342 e83c e9b6 06bf cca1 17be
00000090: fddd 433e a285 883e 19d5 b33e b74a d9bc
000000a0: 20b2 cd3b 5ca7 773d bc52 183d 4122 a13d
000000b0: e011 92be 3065 c6bd 6d99 573f 474a 8d3e
000000c0: a7a1 11bd 914d a03e e713 9ebe ac32 dbbe
000000d0: cd9e 09be 36fb 9abe c199 6c3d 320b 5ebe
000000e0: e87f 49bc dfe1 9ebd 6738 0fbe 35c9 a7be
000000f0: c5bd ae3e ee80 26be b0ee b43e bf31 b8bc
00000100: 81a2 863e 321b c03d ef12 70bf 0ff8 a6bd
00000110: 380a 14be 2750 9cbb 3cec aabe 5ffe 853e
00000120: 70e5 09be dd23 7f3e fbb7 0b3f 2662 57be
00000130: 8eab 533e ba3b ddbc 643c cbbe 60f6 003e
00000140: 53a9 53be e55b eabc 9e70 f5be 3b3e 86bd
00000150: 7b5f 0abd 9a74 143d 9480 b33c df9c c9bc
00000160: 93d6 85be c3e8 2dbd 5fda a13e b69e a1be
00000170: 4ca6 473e c74d 183e a48e 803f 8d4b c9bc
00000180: 1938 4c3c df6a 9f3d e55c 1e3e 92b9 0b3d
00000190: c154 a8be 7957 a03c 893f 433f 3fb5 133e
000001a0: a5d7 f8be da2e 4a3e 4af5 e03e d493 f5bd
000001b0: 3598 93be b9c2 833e b78a 2d3f 6e70 91bc
000001c0: 5bf7 b83e dcb8 80bd 413e 3fbf 47c6 6fbe
000001d0: 72ea 3dbe 6da6 d63d ddab 3d3f 44de d4bd
000001e0: 2602 2c3e 2b24 703c 36be 3f3e b4ed 1c3e
000001f0: 3ecc e3bd fd1b 1f3e 1403 3e3f 6ca1 793d
00000200: cb73 debd 68cd 61bd 4910 fbbd 0c3f e73e
00000210: 649d 1e3e 5f09 0fbd bb48 89be 11e3 7abe
00000220: a510 873e 7f2a 10bf 1c09 3fbe dde0 5dbd
00000230: 3522 4cbe a197 8e3d 3ce7 7c3f 277f 5dbe
00000240: 99df 683d 4664 28be e604 e3be 40aa 483e
00000250: df67 d8bd ecf1 44be 5513 43bf 41d6 09be
00000260: c5cf adbd 86e0 a43d a91c bcbe ff59 9fbd
00000270: a98a 17be 51ee c1bd 3ca2 8b3f e60d 5d3e
00000280: 16d9 7dbe dabb 47bd 0fee 97bf e71c d9bd
00000290: 80c3 63bd 4efa 853e 6fb2 c4be 3244 f6be
000002a0: 8dbe ccbd 6684 063e 5f63 c63f bcad d33e
000002b0: bf6d 163e 2055 10be 45c0 b4bf 5a7b aabe
000002c0: 34f0 083e d481 afbe 2584 4ebf 9480 bb3d
000002d0: f77b 2d3e f3d0 983e c28b 3cbe 5439 50bd
000002e0: 55a1 35bc b03e 04bd 4d91 3cbf 023c 543a
000002f0: e63f 963d 34b6 af3e e670 1cbf 57a2 82be
00000300: 0af1 a43c 0e70 0ebc 80ae c13f 7258 243e
00000310: 66e3 a3be 8e71 8dbd 6090 a63f 4b05 8b3e
00000320: f9c6 3d3d 661a e7bd 8803 c1bc 67ee 8c3d
00000330: 983d babd 4073 8dbe 67f8 15be f222 a9bd
00000340: ab69 9cbd 7429 3abe 4ba0 a73e 5ac1 c3bc
00000350: 234c b5bc fe5c e1bd 4df0 07bf fe10 223c
00000360: 6bd2 e8be 3511 18bd 742d 303f 53af bc3d
00000370: 132d 803e 531f 1ebe 9498 f4be f10d fc3e
00000380: 12d2 b43d 1f83 db3c e3b2 12bf 9ff5 64be
00000390: e56e c83c cbdc ccbd 1474 33bf baf7 47be
000003a0: 6b33 8e3e 045f da3d 8051 f03b d9c6 2cbe
000003b0: 8281 c7bd c8ae 943d a80c a8bd 8143 23be
000003c0: d12c 2f3d 350c 863e bb66 033d 3924 12be
000003d0: 7199 4f3e bd6d a9bd 5d67 16bf df2f 6c3d
000003e0: d50a 0b3e 7bdc c9bb 183d 083f 9fc9 af3e
000003f0: ea53 3e3d 8a2c 023e 47ef e1be 6102 893d
-0.12269388 0.35521227 0.3492368 -0.04305812 0.18700995 -0.2589756 0.77137357 0.26848957
0.2363291 0.20269188 -0.28677762 0.2814292 -0.12544778 -0.06429073 -0.9908608 -0.17339396
-0.16534096 -0.19252466 0.49094716 -0.25040337 -0.05364713 -0.0143236155 -0.4557003 -0.13160647
0.18549238 -0.27615976 -0.49444473 -0.10535978 0.16214275 0.20774613 0.18820426 -0.0037193245
0.21822955 0.028351879 -0.5262285 -0.14807814 0.1912765 0.26664454 0.35123518 -0.026524885
0.0062773377 0.06046234 0.037188277 0.078678615 -0.28529263 -0.09687269 0.84218484 0.27595732
-0.035554554 0.31309178 -0.3087456 -0.42812097 -0.13439484 -0.30269784 0.05776382 -0.21683958
-0.012298562 -0.07757925 -0.1398636 -0.32770696 0.34129158 -0.1626012 0.35338354 -0.022484658
0.26295856 0.09380187 -0.9377889 -0.08152782 -0.14457023 -0.004770297 -0.33383358 0.26170632
-0.1346643 0.24916025 0.54577607 -0.21033534 0.20670912 -0.027006019 -0.39694512 0.12593985
-0.20670061 -0.028608272 -0.47937483 -0.06554838 -0.033782464 0.036244012 0.021911897 -0.024610935
-0.2614027 -0.042458307 0.31611916 -0.315664 0.19497031 0.1487342 1.004353 -0.024572158
0.012464547 0.07784056 0.15465124 0.03411252 -0.32877162 0.01957296 0.7626882 0.14424609
-0.48602024 0.19744435 0.4393714 -0.119910866 -0.28827062 0.257345 0.6778979 -0.017753806
0.36126217 -0.06285259 -0.74704367 -0.2341548 -0.18546465 0.10480962 0.7409037 -0.10393956
0.16797695 0.014657061 0.18724903 0.15325052 -0.111229405 0.1553802 0.74223447 0.06094496
-0.108619295 -0.05512753 -0.122589655 0.45165288 0.15489727 -0.034921046 -0.268133 -0.24500681
0.26379886 -0.56314844 -0.18655819 -0.054169524 -0.19934924 0.06962515 0.98790336 -0.21630536
0.056853864 -0.16444501 -0.44339675 0.19596195 -0.10566687 -0.19232911 -0.76201373 -0.13460638
-0.084868945 0.08050637 -0.36740616 -0.07780837 -0.14798988 -0.09469283 1.0908885 0.21587333
-0.24789843 -0.048763134 -1.1869525 -0.10601216 -0.055606365 0.2616753 -0.38417384 -0.48098904
-0.09997282 0.13136443 1.5499076 0.41343486 0.14690302 -0.14094973 -1.4121176 -0.33297235
0.1337288 -0.34278738 -0.80670387 0.09155384 0.1694182 0.29846916 -0.18412688 -0.050835922
-0.011085828 -0.032286346 -0.7365921 0.00080961 0.073364064 0.34318697 -0.6110977 -0.2551448
0.020134468 -0.008693708 1.5131378 0.16049364 -0.3200943 -0.069064245 1.301281 0.27152476
0.046332333 -0.11284332 -0.023561254 0.06881409 -0.09093779 -0.2762699 -0.14645539 -0.082586184
-0.07637342 -0.18179876 0.3273948 -0.023895908 -0.022131031 -0.11004065 -0.53101045 0.009891747
-0.45473036 -0.037125785 0.68819356 0.09213128 0.2503439 -0.15441637 -0.47772658 0.49229386
0.0882913 0.026795922 -0.5730421 -0.22359322 0.024466941 -0.100030504 -0.70098996 -0.19528094
0.27773604 0.10662654 0.0073339343 -0.1687273 -0.097414985 0.072598994 -0.08205539 -0.1594372
0.04276735 0.26181188 0.032080393 -0.1427163 0.20273377 -0.08272884 -0.5875147 0.05766284
0.13578351 -0.0061603165 0.5321822 0.34333512 0.046466745 0.12712303 -0.44127867 0.06689907

feature.0.bias f4 [128]
00000000: 24ec bd3d 7284 85be ca60 e23d 84e9 7abe
00000010: 7cf9 52bd 91bd 973e a7cb 563e b8f6 b2be
00000020: ccac 7fbe 180a 82be 297d 973e ae77 c23e
00000030: 8558 b6bc 954f 1b3d 7689 9a3e 4b4b 393e
00000040: 1782 57be 0445 22bd 591f 91bb 3cff 653d
00000050: 7773 d9be a3ff 993e 7d2c 7abe bfdc 043e
00000060: 733b d63d e1a2 48be b863 2f3e 4fb0 293e
00000070: dac8 7abe 12e6 d3bd be68 643e a6c7 b73e
00000080: d843 d13d db3b 99be 373d 21bd 176e 38bd
00000090: 834f cc3d e1b0 bc3e 7275 9d3e 7aae 38be
000000a0: 8083 c83e 5ffe b73d 5b66 743d b45d a3be
000000b0: b805 a43d 0d23 96be 621d 623e 4228 06be
000000c0: 5acb 93be 4d7e 56be c873 a93e 3312 3f3d
000000d0: e0b6 463e 7c7a e13d 16dc a13e e726 96be
000000e0: b8c8 9abe 95d8 a93e 6f62 97be 23da 993e
000000f0: 4942 7dbe ca01 80bc cb1e 90be 3d73 cf3d
00000100: df2b 8fbe 3f55 24be e481 b33e 9ceb 8d3e
00000110: 57d4 083d 7981 833e e22a 723e 05e3 563e
00000120: 8448 c2be 70c0 efbd 77ef ae3e 4e9c 613e
00000130: 288a 593c 5066 a1bd 7545 423e b0f4 f33d
00000140: fa6e a1be 10cb 9c3e 750a 253d 8fac cb3e
00000150: eda3 063e 4f1d 2ebe 9971 77be 6e8b 953e
00000160: 92ae 7f3e 82a7 84be 5eab b03d fc4f 19bd
00000170: f94d 8a3e 2ecb b3be 20ab 543e 9583 173d
00000180: fccc 9d3e b16d 78bc f57b 6cbe 9821 13be
00000190: 0d26 76be 3e85 47be 0fab 123a ccba b0bc
000001a0: f5ae 89bd 5378 81be e445 563e 3032 82be
000001b0: 68e8 86be 755c f23d 0fb6 563e 3928 90be
000001c0: a945 263e 72de 50be 4949 6d3e ea4e 5bbe
000001d0: b833 82be a5fd 26bc 41fa 25be 4da5 ad3c
000001e0: 7ab6 d8bd ddbf 0dbd 8e72 903e e1d7 7fbe
000001f0: 0168 e9be 76c1 9cbe 5d6e f73d ad03 273e
0.09273556 -0.2607761 0.11053617 -0.24503142 -0.051507458 0.29636815 0.20976125 -0.34953856
-0.2496826 -0.25398326 0.29587677 0.37981933 -0.022259006 0.037917692 0.30183 0.18095128
-0.21045719 -0.0396166 -0.0044287858 0.056151614 -0.42470905 0.30077848 -0.24431033 0.12974833
0.10460558 -0.19593383 0.17127883 0.16571163 -0.24490681 -0.10346617 0.22305581 0.35894507
0.10218018 -0.2992848 -0.03936502 -0.045026865 0.09976103 0.36853698 0.30753666 -0.18035308
0.39162827 0.08984064 0.059667926 -0.31907427 0.08008903 -0.29323617 0.22081521 -0.13101295
-0.28866082 -0.20946617 0.33096147 0.046648216 0.19405699 0.1100969 0.31613225 -0.29326555
-0.3023126 0.3317305 -0.29567286 0.30049238 -0.24732317 -0.015625853 -0.28148493 0.10129402
-0.27963158 -0.16048144 0.35060036 0.27718818 0.033405628 0.25684717 0.23649171 0.20985039
-0.3794595 -0.117066264 0.34167072 0.22032282 0.013277568 -0.07880843 0.18971808 0.11911905
-0.3152998 0.30623674 0.040293176 0.3978009 0.1314847 -0.17003368 -0.24164428 0.2920794
0.24968937 -0.25909048 0.08626436 -0.037429795 0.27012613 -0.3511595 0.20768404 0.03699072
0.30820453 -0.015162871 -0.23094161 -0.14368284 -0.24037953 -0.19484422 0.0005594948 -0.021573447
-0.067228235 -0.25287113 0.20925099 -0.25428915 -0.26349187 0.11834041 0.20967887 -0.28155687
0.1623751 -0.20397356 0.23172487 -0.21416822 -0.25430083 -0.0101923095 -0.16208746 0.021196986
-0.1058168 -0.034606803 0.28212398 -0.24984695 -0.4558716 -0.3061635 0.12081597 0.16309996

value_stream.0.weight f4 [64, 128]
00000000: e64f acbc aed9 e83e d948 8cbd f38f 5bbf
00000010: 7dad 75bc 3928 cf3e 0ff9 073e 66a5 12bd
00000020: ffef 2bbe e9e5 9d3d 108d 803e 4d3c 44bd
00000030: 4fe1 e8bd ac6f 91b9 cfc6 703c 90df b4bd
00000040: 2db1 eabd d187 9f3e 165a 95bd bae6 eabd
00000050: 9698 b6bf 9ecd 543e bf80 f5bd 7e12 6b3e
00000060: b85a 343e 7018 e2be 8b82 95bd 1f90 893b
00000070: 01d3 00be b478 d3bd f428 d23d c492 c43e
00000080: 957a d43c 3148 aebe fe67 c9bd b487 143d
00000090: f238 5dbe 14a7 a8be 1ebe 863e a0da cd3d
000000a0: 30b9 903c 38eb b5be fde3 48be a971 6abf
000000b0: fce4 e83d 1f2c 08be eea3 f33d 78a0 8dbb
000000c0: e6e6 523e b060 86bd ebb3 3cbc c788 6a3c
000000d0: 681c 943d ddea cc3d 5d9a 123e 8d72 14bd
000000e0: 4258 e1be 3a89 bc3e 5c46 36bb cab7 bd3e
000000f0: d8d9 a13c 5b7a 3dbe b717 393e c470 333e
00000100: b440 80be bfce 293d 77cb 823e dbad 233e
00000110: 5240 853d b137 f7bd da3a 8d3e d9f8 873e
00000120: 4f6d febf 9a78 46bd 902a 5b3e 37c6 163f
00000130: 4b3f af3d c60b 373c 0f9f bb3d 5874 6bbe
00000140: e7f3 67bf 91b7 be3d 800f a33d 98d8 bf3d
00000150: 0bf8 d83d 95af db3d d406 793e fa10 eabc
00000160: 1428 e3bc 0743 0b3e dc19 763d 0d43 82be
00000170: 743b 793e bf31 313e 2c1a 583e 93da efbc
00000180: d9b7 0a3e f4cd 85bd 7068 03bf 32b1 11bd
00000190: a4e6 ed3c 67cd 8fbc 6478 c6bd 2d4a b33d
000001a0: ede8 c03d 9603 93be 8af0 443e 33a4 4d3e
000001b0: 1829 59bf d972 8b3d b201 f2bd a139 58bd
000001c0: 7d2a 0b3e 392c cebf 9bbb c3bc b236 cbbd
000001d0: c04c fcbc 51f0 aa3d 9673 46bc 2b36 6abe
000001e0: 3c3d 423d 0e48 a13d 5f92 943d 5e68 ddbf
000001f0: 98a9 253e e5d8 5ebd ce16 1fbe b320 81bd
00000200: 5713 74be 9dad 3d3e 329b 29be 8a95 02bf
00000210: f1b6 193e 45d6 b73e 8580 7c3c 4351 12be
00000220: 6465 95be 6f65 a33d 0387 043e 042b 97bd
00000230: 4d8b 92bd 3e58 da3c b933 f33d ff1c 0e3e
00000240: 87ce f5bd 26bb 41bd e36e 643e c487 ab3e
00000250: de04 63bf ab0e 113e 67b2 39bd 5c1e 003e
00000260: 2832 043e 3116 b6be 88f8 cf3b 50d5 4c3d
00000270: 026d 543e ffe5 5fbd 9797 993d bafc 293e
00000280: e957 a3bc e36b 30be aa7c 5f3d 4632 8a3d
00000290: 6d94 893c 5b28 27be 17a0 a33e 3873 54be
000002a0: 530d 1f3a 0440 e03d c748 a33d a4ff bbbe
000002b0: 1377 a23d 0fa3 cd3c 0f28 bf3d 650c 34be
000002c0: f941 b93e 247f 0fbe b1ed 383d cd2c 02be
000002d0: 7b96 fe3d 9abc e93d 1daa 29be cce2 ae3a
000002e0: 035c 153e 645b 1c3e 7dba 17be 4dcb 1dbd
000002f0: d0cf cdbd 1f3a 1abe 3046 3a3d 74db 66bd
00000300: fe6a 84be 67d1 cbbd 651d 903e 18e5 b53e
00000310: cb7b 2ebc 8b1f 613e 07c2 973e 70d7 013e
00000320: a3bd d8bf 2a19 413d c02e 993e 27e9 f33d
00000330: 1890 303b 3517 8a3e 19f1 f93d 6e2f 65be
00000340: b97b 59bf c77e 433e 967e ac3a 0eb4 383d
00000350: e29f 9bbd 18c2 55bd a966 d13d 98a5 dbbd
00000360: 6f57 44bd 9d4b 8fbd dabc 93be 86de 42be
00000370: be0d b83d d686 1a3e f202 293e 9d69 b43d
00000380: f94a 9f3d 9971 3e3c 16ef 14bd 7507 2d3e
00000390: 6946 2bbe adb4 16be caa6 4d3e 04cc 823b
000003a0: 86bd 4c3e c95a 993d e665 b33d 7d34 2dbe
000003b0: d459 e2be 26d1 5e3e a059 073d c37a 07bd
000003c0: f35d ca3d 813a 9ebe 8da3 c93d f3a7 b63d
000003d0: a5dd b93d 3296 af3e b6c0 a5bd 09b6 3e3e
000003e0: 3d04 7abe 4f51 693e 5a7e 633e 55d0 abbc
000003f0: 7224 08be 0169 b7bc 00ea 9abd 947b 58bb
-0.021034192 0.45478576 -0.06849832 -0.85766524 -0.014994976 0.40460375 0.13278602 -0.035802267
-0.1679077 0.077098675 0.25107622 -0.04790907 -0.11371099 -0.00027739757 0.014695837 -0.08831704
-0.11459575 0.31158307 -0.07292573 -0.11469789 -1.4265316 0.20781562 -0.11987447 0.22956273
0.17612731 -0.4415927 -0.0730029 0.004198089 -0.12580492 -0.10325757 0.102617174 0.38393223
0.025937358 -0.34039453 -0.09834288 0.03626223 -0.21603754 -0.3293997 0.26316923 0.10051465
0.01766643 -0.3553102 -0.1961822 -0.9157968 0.113718 -0.13298081 0.118965015 -0.004322108
0.20595893 -0.065614104 -0.011517505 0.014314837 0.072319806 0.10005734 0.14316697 -0.036242057
-0.44012648 0.36823446 -0.0027812934 0.37054282 0.019757196 -0.18503706 0.18075453 0.17523485
-0.25049365 0.041456934 0.25545856 0.1598429 0.06506409 -0.12071169 0.27583963 0.26557043
-1.9877108 -0.04845486 0.21402955 0.588962 0.08556994 0.011172241 0.091611974 -0.229936
-0.9060654 0.09312356 0.07961941 0.09367484 0.105941854 0.10726849 0.24319011 -0.028572548
-0.027729072 0.13599788 0.060083255 -0.2544178 0.24339086 0.17304133 0.21103734 -0.029279029
0.13546695 -0.06533423 -0.51331234 -0.035569377 0.029040642 -0.017553998 -0.096909314 0.08754382
0.09419427 -0.28713673 0.19232383 0.20082168 -0.8482833 0.06809015 -0.118167296 -0.052789334
0.13590427 -1.6107246 -0.023893168 -0.09922542 -0.030798316 0.08346618 -0.012112519 -0.22872226
0.04742168 0.078750715 0.072544806 -1.7297475 0.16177976 -0.054406065 -0.15536043 -0.06305065
-0.23835503 0.1852326 -0.16563109 -0.5100943 0.15011193 0.35905662 0.015411501 -0.14288811
-0.29178917 0.07978331 0.12942128 -0.073812515 -0.07155476 0.026653405 0.118751 0.13878249
-0.120022826 -0.04729762 0.22307925 0.33502018 -0.886793 0.14165752 -0.045336153 0.12511581
0.12909758 -0.35563806 0.006346766 0.05000812 0.20744708 -0.0546627 0.074996166 0.16600314
-0.01993938 -0.17228656 0.05456225 0.0674787 0.016794408 -0.16323988 0.31958076 -0.20747077
0.0006067354 0.1094971 0.079728656 -0.36718476 0.07932868 0.025102166 0.093338124 -0.17582853
0.36183146 -0.14013344 0.045148555 -0.12712403 0.124310456 0.11412926 -0.165688 0.0013342737
0.14585881 0.15269238 -0.14817233 -0.03852396 -0.10049403 -0.15061234 0.045477092 -0.05636163
-0.2586288 -0.0995205 0.28147426 0.35526347 -0.010649632 0.21984689 0.2964022 0.12679839
-1.6932873 0.04714314 0.2991848 0.11909705 0.0026941355 0.2697083 0.12204189 -0.22381374
-0.8495441 0.1909133 0.0013160284 0.04509359 -0.075988546 -0.052187055 0.10224659 -0.10724944
-0.047934946 -0.06996844 -0.2885502 -0.19030198 0.08986996 0.15090498 0.1650503 0.08809207
0.07777972 0.0116237635 -0.036360823 0.16897376 -0.16726078 -0.1471736 0.20083156 0.0039916057
0.19994172 0.07488019 0.0875967 -0.16914554 -0.44209158 0.21759471 0.033044457 -0.03307606
0.09881201 -0.3090401 0.09845648 0.089187525 0.090754785 0.34294277 -0.08093397 0.18624128
-0.2441568 0.22784923 0.22216168 -0.020973364 -0.13295153 -0.022388937 -0.07564163 -0.0033032643

value_stream.0.bias f4 [64]
00000000: ae8a 263e 00e0 f83d d17f 2c3e 6a13 df3d
00000010: e07b aabe fb78 f93d 9ebb 513e 8c8d 5e3e
00000020: 3966 073e bdf1 2d3e eef7 d93d e48f 823e
00000030: 9351 1d3e cdd9 543e ee57 fe3d 83b5 003e
00000040: 79d1 6ebe 2596 ae3d 6f07 2ebe f4b8 023e
00000050: 636c e83d 3103 ebbe f7e2 46be 6e3a 39bd
00000060: 6924 163c 9c57 303e 9ca7 de3d 1fad 023e
00000070: 0d28 2cbd 6f61 23bc 3a11 9d3c fd0e 853e
00000080: 5c5f fe3d 8f04 373e 5e48 733e e364 0b3e
00000090: 2885 093e d6ff 1cbc 8de5 373e 0a64 823c
000000a0: f068 523e 8394 ed3d 93de 833e 9ea2 e43d
000000b0: 4013 dbbd c56e 45bd 4328 aabc baae f23c
000000c0: 9a50 c8bc 00cc 4cbe 0499 803e 35f0 023e
000000d0: 0000 0000 8e59 253e aeda ccbe 6727 f03d
000000e0: a0c2 a63d cc41 253e 3371 b93d ad4a 133e
000000f0: 8416 1f3e f1b8 243e eee6 ea3d 248b cb3d
0.1626384 0.121520996 0.16845633 0.10892375 -0.33297634 0.12181278 0.20481727 0.21733683
0.13222589 0.16986747 0.10642992 0.25500405 0.1536315 0.2078621 0.12419115 0.12569241
-0.23322095 0.085247315 -0.16995023 0.12765867 0.11348798 -0.45900872 -0.19422518 -0.04522174
0.009163954 0.1722092 0.10871813 0.12761353 -0.042030383 -0.00997196 0.019173253 0.25987998
0.12420532 0.17872833 0.23758075 0.13612704 0.13429701 -0.00958248 0.1795866 0.015916843
0.20547843 0.11600592 0.25755748 0.11163829 -0.10697031 -0.04820134 -0.020771151 0.029624332
-0.024452496 -0.19999695 0.25116742 0.12786944 0.0 0.16147444 -0.4001059 0.117262654
0.081425905 0.16138381 0.09054794 0.14383955 0.15535933 0.16086175 0.114698276 0.09938648

value_stream.2.weight f4 [1, 64]
00000000: d354 133f fd3f 7a3e e5a1 aa3e 9784 fd3d
00000010: d250 0fc0 ed56 fcbf 17e7 9a3e 341a 563f
00000020: 4237 793e 610c a03e 1dc3 be3e d8eb 123f
00000030: bfb6 f03e fd19 253f fe4d 6c3e 192c a13e
00000040: 74f7 05c0 a5e6 d13e f722 f3bf 728c 9b3e
00000050: 8a0b 933e 8ac3 6ec0 b2eb 24c0 ca27 e2bf
00000060: 4515 87bf 697e d93e a0d8 c23d ae49 923e
00000070: 3f4a 2bbf 59e3 59bc ddcb 67bf b00b a63e
00000080: d58e 4c3e 6ee8 d93e 20b4 153f ec76 003f
00000090: 0a33 43c0 6759 38be 3992 72bf fab5 25bf
000000a0: 6c71 c43e 413f 003f 735c a33f d995 753e
000000b0: 9377 3ec0 3cf7 28c0 342a b2bf ee35 d6bf
000000c0: acb2 a1bf d5f2 07c0 e010 8d3f c99c 813e
000000d0: 0f60 8a3e 5f2e 873e ce67 39c0 e341 8d3e
000000e0: 2098 cbbf d74c 1b3f 7404 cb3e 006b 143f
000000f0: 2116 003f ad61 d03e acb6 653e 6307 c6bf
0.57551306 0.24438472 0.3332664 0.12378805 -2.2393079 -1.9714028 0.30254433 0.8363373
0.24337485 0.31259444 0.37258235 0.5739112 0.47014424 0.6449278 0.23076627 0.31478956
-2.0932283 0.4099628 -1.8995045 0.3038059 0.2871974 -3.7306848 -2.5768857 -1.7668393
-1.0553366 0.42479256 0.09513974 0.28571838 -0.66910166 -0.013298833 -0.90545446 0.32430792
0.19976361 0.42560142 0.58477974 0.5018146 -3.0499902 -0.18002854 -0.9475437 -0.647308
0.38367784 0.5009652 1.2762588 0.23982944 -2.9760482 -2.64009 -1.3919129 -1.6735208
-1.2632651 -2.1241963 1.1020775 0.2531493 0.27026412 0.26402566 -2.8969607 0.2758933
-1.59058 0.60664123 0.39651835 0.5797577 0.50033766 0.4069952 0.22432965 -1.5471004
