Project/output/cartpole_ddqn_duel/final_model.pth (torch, 826722 bytes, 44 tensors)

fc1.weight f4 [128, 4]
0.040102106 -0.13076991 -0.071950234 -0.09074101 -0.02664639 0.00826625 0.031333964 0.08571437
0.17057516 0.012962646 0.9619855 0.15806471 0.034184843 0.1125841 -0.5765018 -0.039482426
-0.09581663 0.07936629 -0.33375332 -0.0019792551 -0.026833935 0.12845735 0.39282456 0.123901896
-0.1501191 -0.19875054 -0.49028623 -0.017844506 0.12267042 0.052895293 1.2853773 0.12375644
0.23267154 -0.14809692 0.66675174 0.19228141 0.061074235 0.18178755 -0.60026646 -0.059736326
-0.1080242 -0.22479318 0.15512037 -0.14296108 0.1054396 0.107534334 0.179965 0.06999263
-0.19875914 -0.08162913 -0.014744685 -0.019570839 0.0024111893 0.02395602 0.22572157 -0.02290314
0.38786298 -0.12231569 -0.041901387 -0.11702743 -0.004028847 0.20247 1.0150894 0.2653145
0.0268611 -0.11369848 -0.71044874 0.09027196 0.059880704 0.09938855 -0.21927297 -0.027550673
-0.008791842 0.030809982 -0.47291476 -0.01817791 0.13080768 0.026330413 -0.45059794 -0.04798344
0.15406705 -0.090679415 -0.4477285 -0.042924367 -0.006701445 0.008760903 -0.93468636 -0.10087377
0.20482452 0.0707289 0.21291529 0.14344046 0.0022647893 -0.24797343 -0.856234 -0.20198932
-0.03763317 0.09830559 0.44312817 0.10741318 0.0059193396 0.01973956 0.52576035 0.10441481
-0.03212684 -0.20204915 -1.0534028 -0.23884894 0.14558233 0.011028002 0.4684044 -0.0873126
0.2102516 0.040747557 0.08537161 0.039735865 -0.04814438 0.10661586 0.57932025 0.116888866
-0.2118762 -0.1652011 -0.7771638 -0.30828106 -0.016800024 0.20031482 0.28534362 0.060387217
0.32834005 0.04559638 0.21302912 -0.018413596 -0.18506384 0.102013215 -0.7662678 -0.22028033
0.24300666 0.03771126 0.21011128 0.041742455 -0.22421664 -0.17341183 -0.2997505 -0.13667342
0.07855387 0.12776168 -0.031548437 0.006679542 0.045264095 -0.09333724 0.110080615 -0.09138305
0.1530996 -0.1453873 0.1568024 -0.08853678 0.18232453 0.15213141 0.21001253 0.051008154
0.12832439 -0.1034706 0.182164 -0.06037765 0.30846074 -0.034214146 -0.30166802 0.106234066
-0.1730699 0.03681094 -0.7184633 -0.016907172 0.08849949 -0.049938798 -0.35864398 -0.10507713
0.05398061 0.10477992 -0.395388 -0.13175282 0.17072687 -0.18767303 -0.7585517 0.11039722
-0.24217573 -0.027149523 0.8698519 0.1298317 0.1599976 -0.010306573 0.3698186 0.11197233
-0.24654295 -0.03421174 -0.9432167 -0.17065068 -0.21888193 -0.13131787 -0.07575928 0.15779726
-0.15266268 -0.08915541 0.985882 0.12197581 0.1944584 -0.02272415 -0.37101376 -0.08985981
-0.07471727 -0.058927566 0.7431528 0.15023181 -0.09709789 -0.17137504 -0.4623864 -0.1429131
0.26347145 0.05041288 0.14669971 -0.008403136 0.192148 0.0019550347 0.5693483 -0.09407439
-0.014142932 0.19354075 -0.80007106 0.01779923 0.042327393 0.20960493 -0.41996127 0.0855609
0.23599185 0.17400819 0.441923 0.12825543 -0.19561605 0.11255018 0.2643537 -0.018456958
0.0038082951 -0.20817956 -0.8617324 -0.2682603 -0.049895853 -0.14118801 0.006447399 -0.0962654
-0.18741305 -0.35583112 0.40452853 -0.17092401 0.21640512 0.009129399 1.0538453 0.20114826
00000000: 1b42 243d 8ce8 05be a55a 93bd 6cd6 b9bd
00000010: 8849 dabc 2a6f 073c 0b58 003d 048b af3d
00000020: 41ab 2e3e 4761 543c af44 763f b7db 213e
00000030: 6805 0c3d 7e92 e63d 9f95 13bf 53b8 21bd
00000040: 823b c4bd cb8a a23d b7e1 aabe 64b6 01bb
00000050: d7d2 dbbc 538a 033e 4d20 c93e 47c0 fd3d
00000060: d2b8 19be 4385 4bbe cc06 fbbe a42e 92bc
00000070: a13a fb3d bca8 583d 3e87 a43f 0474 fd3d
00000080: 7341 6e3e b8a6 17be 3eb0 2a3f 6be5 443e
00000090: fa28 7a3d 8426 3a3e 10ab 19bf 14ae 74bd
000000a0: cb3b ddbd 2f30 66be e0d7 1e3e 6464 12be
000000b0: b8f0 d73d f63a dc3d bf48 383e 4c58 8f3d
000000c0: 8487 4bbe 2c2d a7bd b193 71bc 0653 a0bc
000000d0: 0b05 1e3b 6a3f c43c 8e23 673e 5e9f bbbc
000000e0: fa95 c63e a680 fabd caa0 2bbd 14ac efbd
000000f0: 6b04 84bb 4c54 4f3e 73ee 813f 4dd7 873e
00000100: cf0b dc3c c0da e8bd f8df 35bf 81e0 b83d
00000110: 7845 753d 398c cb3d 1889 60be f3b1 e1bc
00000120: a80b 10bc 3765 fc3c e221 f2be d7e9 94bc
00000130: 73f2 053e e1b2 d73c c6b4 e6be 498a 44bd
00000140: c1c3 1d3e 21b6 b9bd ac3c e5be 76d1 2fbd
00000150: cc97 dbbb e489 0f3c 9b47 6fbf e896 cebd
00000160: 85bd 513e 50da 903d 7706 5a3e 0ee2 123e
00000170: dc6c 143b bfec 7dbe 2732 5bbf 4ad6 4ebe
00000180: 3d25 1abd 7154 c93d b2e1 e23e 71fb db3d
00000190: 05f7 c13b dcb4 a13c 3b98 063f 6fd7 d53d
000001a0: 6f97 03bd f9e5 4ebe e7d5 86bf d194 74be
000001b0: 8913 153e cbae 343c b4d2 ef3e f3d0 b2bd
000001c0: 324c 573e e9e6 263d 50d7 ae3d 13c2 223d
000001d0: 0b33 45bd 6a59 da3d 554e 143f 6e63 ef3d
000001e0: 13f6 58be 7a2a 29be 35f4 46bf 04d7 9dbe
000001f0: 34a0 89bc 541f 4d3e 8f18 923e 9658 773d
00000200: 301c a83e 45c3 3a3d 4e24 5a3e 1cd8 96bc
00000210: 6081 3dbe 4eec d03d 202a 44bf 2b91 61be
00000220: bdd6 783e 1f77 1a3d 6927 573e 23fa 2a3d
00000230: 0c99 65be df92 31be e678 99be 1ef4 0bbe
00000240: dae0 a03d f5d3 023e ef38 01bd 0fe0 da3b
00000250: d866 393d 9827 bfbd f271 e13d 0927 bbbd
00000260: 24c6 1c3e 69e0 14be cf90 203e c552 b5bd
00000270: 48b3 3a3e 56c8 1b3e 860d 573e eded 503d
00000280: 7867 033e 65e8 d3bd 3389 3a3e 8e4e 77bd
00000290: 91ee 9d3e 2224 0cbd 3b74 9abe 3f91 d93d
000002a0: 3c39 31be 11c7 163d 36ed 37bf e980 8abc
000002b0: 383f b53d a08c 4cbd 2fa0 b7be ae32 d7bd
000002c0: c61a 5d3d db96 d63d 4c70 cabe 36ea 06be
000002d0: 06d3 2e3e 5c2d 40be 7230 42bf f017 e23d
000002e0: eafc 77be ad68 debc 9dae 5e3f 9af2 043e
000002f0: 69d6 233e e6dc 28bc dd58 bd3e c051 e53d
00000300: c175 7cbe 9c21 0cbd a676 71bf 0dbf 2ebe
00000310: 9622 60be 3178 06be ae27 9bbd 9b95 213e
00000320: 9b53 1cbe 1d97 b6bd c362 7c3f 74ce f93d
00000330: 1a20 473e ff27 babc 84f5 bdbe 6c08 b8bd
00000340: 5e05 99bd 085e 71bd 433f 3e3f 5ed6 193e
00000350: 42db c6bd f07c 2fbe e9bd ecbe d057 12be
00000360: bbe5 863e bc7d 4e3d 7338 163e 4fad 09bc
00000370: 72c2 443e 0a20 003b cfc0 113f 13aa c0bd
00000380: c2b7 67bc 8c2f 463e 75d1 4cbf b1cf 913c
00000390: 7d5f 2d3d ada2 563e 2a05 d7be 8e3a af3d
000003a0: d9a7 713e 342f 323e bb43 e23e 6455 033e
000003b0: 934f 48be b580 e63d 5e59 873e 0c33 97bc
000003c0: 9794 793b 062d 55be 7f9a 5cbf 6a59 89be
000003d0: 985f 4cbd 9793 10be b444 d33b cb26 c5bd
000003e0: 35e9 3fbe 7f2f b6be 5d1e cf3e b406 2fbe
000003f0: 4e99 5d3e 7a93 153c 67e4 863f cff9 4d3e

fc1.bias f4 [128]
0.0779168 0.21143804 -0.12637839 -0.03597467 0.090229854 0.15991034 0.020375373 0.0049778707
-0.1437864 -0.014261648 0.08610326 0.124355085 0.11086488 0.19561039 -0.11334479 -0.111813344
0.069058985 -0.11285299 0.13167046 0.19397077 0.13320735 -0.18659824 0.19558479 -0.11985809
0.15906535 0.21663934 -0.14585511 0.045199342 0.09214732 -0.03411085 -0.13451001 -0.17588
-0.05537091 -0.16662982 0.11704618 -0.01219737 -0.025279822 0.21929352 0.20178273 0.13520457
0.23992297 0.045858458 -0.030297453 0.20841031 0.019722536 0.1367044 -0.07040973 0.26099855
-0.08008398 0.073971175 -0.017571146 -0.08672784 -0.15531528 -0.28408197 0.13292623 0.051385622
0.025771711 0.08839519 -0.023014933 0.07039468 -0.08205578 -0.19122644 -0.051854245 -0.050486106
0.088329114 0.17570269 0.16123673 -0.20867796 -0.16288179 -0.005457866 0.13789181 0.0876119
-0.21378784 -0.088151835 0.017872361 0.25703275 0.2174323 -0.037549227 -0.13134906 -0.13751529
0.04976647 -0.19912589 0.13053936 0.112963855 -0.054344162 0.037799206 -0.20467703 -0.021629695
0.07287378 -0.057123393 -0.015236782 -0.13139276 0.07806211 -0.07395618 0.18730508 0.12897845
-0.16509095 0.17632888 0.24014986 0.14289132 0.13905846 0.022189261 -0.052260872 -0.035363924
0.013330094 0.08560494 0.11461026 -0.074727945 0.06319002 -0.05516912 -0.23572354 0.10409137
-0.12186986 0.22537096 0.19514301 -0.06080715 0.0029311255 -0.14044945 0.2766923 0.030827645
0.163507 -0.1383894 -0.13204853 0.055416428 0.16386704 0.055405263 0.13783114 0.06402004
00000000: d892 9f3d 3783 583e 5669 01be 2d5a 13bd
00000010: 6eca b83d 89bf 233e 41ea a63c 681d a33b
00000020: be3c 13be b0a9 69bc e856 b03d e1ad fe3d
00000030: 200d e33d 174e 483e 5021 e8bd 65fe e4bd
00000040: cc6e 8d3d 781f e7bd 9fd4 063e 46a0 463e
00000050: 8267 083e 9c13 3fbe 6147 483e 2978 f5bd
00000060: 07e2 223e b4d6 5d3e 0b5b 15be f222 393d
00000070: bcb7 bc3d d2b7 0bbd febc 09be e319 34be
00000080: 9bcc 62bd 02a1 2abe e8b5 ef3d 7ad7 47bc
00000090: a117 cfbc 7b8e 603e 22a0 4e3e 1173 0a3e
000000a0: 5eae 753e 14d6 3b3d 5d32 f8bc 8369 553e
000000b0: 2891 a13c 3dfc 0b3e fa32 90bd 9aa1 853e
000000c0: 1203 a4bd 337e 973d 5df1 8fbc 5e9e b1bd
000000d0: f80a 1fbe 3173 91be d01d 083e bb79 523d
000000e0: 321f d33c 8a08 b53d d089 bcbc 162b 903d
000000f0: dc0c a8bd ddd0 43be 1e65 54bd 85ca 4ebd
00000100: e5e5 b43d 68eb 333e 3e1b 253e adaf 55be
00000110: 7cca 26be e6d7 b2bb 8333 0d3e de6d b33d
00000120: 33eb 5abe f388 b4bd 0f69 923c cc99 833e
00000130: 93a6 5e3e 38cd 19bd 5e80 06be cfd0 0cbe
00000140: edd7 4b3d a8e7 4bbe 1cac 053e 9859 e73d
00000150: fc97 5ebd 57d3 1a3d db96 51be c230 b1bc
00000160: d93e 953d 38fa 69bd b2a3 79bc d38b 06be
00000170: 07df 9f3d 5676 97bd e7cc 3f3e ed12 043e
00000180: 9a0d 29be 8f8f 343e d8e9 753e 1a52 123e
00000190: 5765 0e3e 41c6 b53c 7f0f 56bd c3d9 10bd
000001a0: 7766 5a3c a551 af3d c9b8 ea3d f70a 99bd
000001b0: c569 813d 04f9 61bd 8361 71be db2d d53d
000001c0: e896 f9bd a5c7 663e 92d3 473e eb10 79bd
000001d0: 2018 403b fbd1 0fbe 9daa 8d3e 428a fc3c
000001e0: 616e 273e f3b5 0dbe bb37 07be 56fc 623d
000001f0: c3cc 273e a1f0 623d 9b23 0d3e f01c 833d

fc2.weight f4 [128, 128]
-0.050066084 0.24443148 -0.103312954 -0.17060973 -0.14706059 0.13320324 0.1539028 -0.124526516
-0.028228963 0.07614088 0.04364759 0.10231316 0.23076037 0.0041159308 0.10414498 -0.2592713
0.022717442 -0.0049806763 0.1377105 0.11723763 0.08044245 -1.1284876 -0.081391536 0.04008149
0.098163776 0.17966273 -0.14121573 -0.013760168 0.14230564 0.09905921 -0.09199243 0.071608596
-0.067414165 -0.12621842 0.08627943 -0.048219576 -0.07117864 -0.0033500607 0.14518528 0.14909832
0.087392956 0.010088693 -0.3176481 -0.013587421 -0.056278646 0.11393454 -0.094353266 0.035043888
-0.06696999 0.027907517 -0.08901038 -0.25836277 0.16458085 -0.032647043 0.11065045 -0.08568272
-0.0851234 0.126251 0.13067052 0.18425333 -0.2057845 -0.22306456 0.12125089 -0.1804178
0.032365013 0.10942315 -0.072670646 -0.1676962 -0.313553 0.017437128 -0.0009654968 0.20282236
0.080008514 -0.023509892 -0.102740265 -0.06493613 0.20150419 -0.04650862 -0.015025062 -0.07916571
0.06345197 -0.019321281 0.1081595 0.16090931 -0.15821607 0.10447838 0.055430986 0.15359867
0.112651594 -0.14108646 -0.016144687 0.08388432 -0.07035551 -0.058610726 0.19189085 0.1856086
-0.09701045 -0.11009627 0.025093447 0.19303265 0.04941714 -0.004676022 -0.041959964 0.00016683621
-0.12916283 -0.03232904 -0.08267691 -0.10709365 -0.14636329 -0.11695419 -0.055967182 0.093979344
-0.07233742 0.14702958 0.019039927 -0.51509 0.14025816 0.11836078 0.021606004 -0.03140534
-0.07221289 -0.55647635 -0.23201296 -0.17075267 0.010887853 0.13864368 0.19785534 0.057584193
0.023420729 0.11643725 0.12656647 0.03786412 0.065301165 -0.073876046 -0.14432113 -0.044161975
-0.018041937 -0.049815517 -0.051320605 0.03808465 -0.10442467 -0.07699198 -0.1487359 0.080941066
-0.0130953975 0.018840823 -0.09455406 -0.13062954 -0.0048769503 0.055914562 0.032894243 0.04337531
0.06631744 -0.113493435 0.040362384 0.0839746 0.13003996 -1.5193479e-05 0.029436544 0.12078214
-0.014889471 -0.10394905 0.044228867 -0.12190695 0.078098565 0.08148065 0.051415898 -0.07234464
0.10590945 0.041612547 0.108700305 0.0055742445 -0.014506662 -0.006526056 -0.13995397 -0.13459092
-0.054206736 0.024208985 -0.17375302 0.08091373 0.030461015 0.1132319 -0.07325539 -0.046560064
0.050715473 -0.11109257 -0.043932058 -0.111869685 0.14211212 0.13229103 -0.18297748 -0.1128315
-0.043904983 -0.045582775 0.05443056 -0.06839795 0.08802345 0.04821411 -0.07496644 -0.08667015
0.13648438 -0.06110546 0.06876272 -0.02582546 0.016375996 0.010925633 -0.014638352 -0.056850903
0.016892258 -0.116619416 -0.0079135895 -0.134979 0.021690466 -0.04154161 -0.063921 0.0030823075
-0.04217191 0.13533503 -0.10812089 0.028967865 -0.04687339 0.08603467 0.027788207 0.123143315
0.012322713 0.07510369 0.039309274 -0.07517119 -0.01961446 -0.17062381 0.08425514 -0.04540802
0.07488559 -0.024656385 -0.1158115 0.0113361515 0.07360968 -0.09535106 -0.04028948 -0.11596007
0.0630882 -0.14641973 -0.1292687 0.059358016 -0.12736902 0.013575945 0.09788004 -0.068574
-0.08541221 -0.14570355 0.11104502 0.122283295 -0.052237887 0.018124558 -0.10222351 -0.027126642
00000000: 1812 4dbd 3f4c 7a3e be95 d3bd 51b4 2ebe
00000010: 0d97 16be 6e66 083e b298 1d3e c207 ffbd
00000020: 6d40 e7bc c0ef 9b3d d1c7 323d 9089 d13d
00000030: 724c 6c3e eede 863b f749 d53d 35bf 84be
00000040: ee19 ba3c f134 a3bb fb03 0d3e 481a f03d
00000050: 03bf a43d 4872 90bf 9bb0 a6bd 7d2c 243d
00000060: 170a c93d 82f9 373e db9a 10be 5472 61bc
00000070: 92b8 113e 8edf ca3d 8766 bcbd 87a7 923d
00000080: 7010 8abd 673f 01be 45b3 b03d e481 45bd
00000090: 1bc6 91bd b18c 5bbb 73ab 143e 3bad 183e
000000a0: 14fb b23d 0c4b 253c c6a2 a2be c69d 5ebc
000000b0: 7084 66bd 8356 e93d 493c c1bd 2e8a 0f3d
000000c0: 9027 89bd 4e9e e43c 134b b6bd 2048 84be
000000d0: e287 283e e8b8 05bd b49c e23d 6c7a afbd
000000e0: 2d55 aebd f147 013e 7ece 053e e8ac 3c3e
000000f0: 2cb9 52be 096b 64be 6352 f83d 72bf 38be
00000100: 2d91 043d 3f19 e03d 59d4 94bd 8db8 2bbe
00000110: 058a a0be 4fd8 8e3c 6519 7dba aab0 4f3e
00000120: 81db a33d d197 c0bc 7d69 d2bd 3cfd 84bd
00000130: 1d57 4e3e d37f 3ebd ad2b 76bc a221 a2bd
00000140: 1bf3 813d aa47 9ebc ba82 dd3d 69c5 243e
00000150: 6503 22be c3f8 d53d 9a0b 633d f848 1d3e
00000160: e1b5 e63d f878 10be dd41 84bc 8bcb ab3d
00000170: 8d16 90bd cd11 70bd 097f 443e 2e10 3e3e
00000180: 6aad c6bd 277a e1bd c690 cd3c 5aaa 453e
00000190: a169 4a3d 5139 99bb 36de 2bbd c1f0 2e39
000001a0: 4343 04be 756b 04bd 8352 a9bd ea53 dbbd
000001b0: 42e0 15be ae85 efbd d83d 65bd 3e78 c03d
000001c0: a425 94bd ec8e 163e 9ff9 9b3c f0dc 03bf
000001d0: d69f 0f3e 2367 f23d 13ff b03c e3a2 00bd
000001e0: 5ae4 93bd 3c75 0ebf ce94 6dbe cad9 2ebe
000001f0: f762 323c 9cf8 0d3e 979a 4a3e 67dd 6b3d
00000200: d4dc bf3c a776 ee3d a49a 013e 6817 1b3d
00000210: 9ebc 853d 534c 97bd ebc8 13be 30e3 34bd
00000220: afcc 93bc 5b0b 4cbd 8e35 52bd a6fe 1b3d
00000230: 9adc d5bd f9ad 9dbd 394e 18be 6ec4 a53d
00000240: 148e 56bc 1258 9a3c 8fa5 c1bd c0c3 05be
00000250: d3ce 9fbb ab06 653d 1dbc 063d 4faa 313d
00000260: 70d1 873d 3f6f e8bd 0753 253d e0fa ab3d
00000270: 3229 053e 7fe7 7eb7 e824 f13c a05c f73d
00000280: f8f2 73bc 3de3 d4bd 5429 353d 5aaa f9bd
00000290: 24f2 9f3d 54df a63d 7a99 523d 6d29 94bd
000002a0: 0ee7 d83d eb71 2a3d 449e de3d 27a8 b63b
000002b0: 5aad 6dbc 87d8 d5bb 1850 0fbe 34d2 09be
000002c0: e207 5ebd ec51 c63c 50ec 31be 19b6 a53d
000002d0: 6189 f93c 20e6 e73d ec06 96bd c4b5 3ebd
000002e0: 07bb 4f3d 8084 e3bd 1af2 33bd ef1b e5bd
000002f0: d785 113e 4d77 073e 735e 3bbe 3414 e7bd
00000300: b6d5 33bd 01b5 3abd 94f2 5e3d 3914 8cbd
00000310: a345 b43d 297c 453d 0188 99bd 1f80 b1bd
00000320: 90c2 0b3e b849 7abd 78d3 8c3d ea8f d3bc
00000330: f426 863c 6d01 333c b3d5 6fbc 7edc 68bd
00000340: a261 8a3c 29d6 eebd 00a8 01bc ef37 0abe
00000350: 34b0 b13c 8927 2abd 03e9 82bd 8a00 4a3b
00000360: 74bc 2cbd 4495 0a3e 7c6e ddbd 044e ed3c
00000370: 50fe 3fbd f232 b03d 18a4 e33c 9032 fc3d
00000380: 34e5 493c f7cf 993d c302 213d 5af3 99bd
00000390: 81ae a0bc 02b8 2ebe f58d ac3d c3fd 39bd
000003a0: 9e5d 993d 30fc c9bc 942e edbd 44bb 393c
000003b0: acc0 963d 6b47 c3bd 9506 25bd 797c edbd
000003c0: 6334 813d 0eef 15be 045f 04be 6421 733d
000003d0: 066d 02be a46d 5e3c 5575 c83d 8670 8cbd
000003e0: 99ec aebd 5033 15be 926b e33d aa6f fa3d
000003f0: 65f7 55bd f479 943c 8f5a d1bd b138 debc

fc2.bias f4 [128]
0.17012502 -0.021847114 0.110225245 0.0074081696 0.1400873 0.15836377 0.12270313 -0.032837808
0.14235842 0.086540185 -0.13085996 0.14179806 0.12699504 -0.018553277 0.16117066 0.17772795
-0.20831758 0.10483869 0.12551096 0.11844964 0.1783526 -0.14919686 0.086688854 0.15125789
0.08896374 0.01457181 0.18807282 0.1974035 0.002778212 -0.17715119 0.18283191 0.18051465
0.10155768 -0.09104753 0.13545083 -0.12968938 0.18955556 0.11854108 0.14401406 -0.061225187
0.14010184 -0.01593339 0.1668847 0.1966368 0.17736815 -0.08890911 -0.061165705 0.17789795
0.19733658 -0.0002794697 0.14641546 0.19621651 0.13519245 0.17622155 0.176253 -0.13453436
-0.16153406 -0.12929392 -0.09747007 0.1620253 0.10474292 0.10406592 0.17313418 0.14407244
-0.17624387 0.15801698 -0.010737706 -0.15479206 0.18254173 0.15099856 0.17786533 -0.16599068
0.16942702 -0.016458765 0.16840258 0.120733954 0.012642196 0.13953754 0.12218311 0.15780097
-0.10696546 0.1830723 -0.16214535 0.15027946 -0.1766455 -0.13612314 -0.14516857 0.12754513
-0.21090585 -0.19602762 0.17003687 0.17617257 -0.1819587 0.18063484 -0.109527886 0.043904357
0.16056031 -0.11036044 0.13905461 0.1794976 -0.025475122 -0.19318959 0.17384042 0.17076597
0.12691101 -0.16322866 0.15449487 0.18679717 -0.1359817 0.12825264 -0.19647247 0.20239381
0.1372394 -0.1237412 0.15498671 0.12484622 0.14131007 0.027655803 0.15540263 0.11353363
0.18076508 0.1532341 0.029423414 0.16099918 0.08436908 0.18729116 0.19959128 0.13563079
00000000: 4135 2e3e b8f8 b2bc c6bd e13d 3bc0 f23b
00000010: 0c73 0f3e 1d2a 223e c74b fb3d f080 06bd
00000020: 68c6 113e fb3b b13d 2700 06be 8333 113e
00000030: fd0a 023e 0bfd 97bc ec09 253e 51fe 353e
00000040: 3451 55be abb5 d63d f285 003e ba95 f23d
00000050: 10a2 363e 10c7 18be ed89 b13d 59e3 1a3e
00000060: 9f32 b63d 9abe 6e3c 2996 403e 2524 4a3e
00000070: aa12 363b 1f67 35be 4a38 3b3e d5d8 383e
00000080: 79fd cf3d 2177 babd 9fb3 0a3e 4bcd 04be
00000090: da1a 423e aac5 f23d 6c78 133e 43c7 7abd
000000a0: db76 0f3e be86 82bc d3e3 2a3e 285b 493e
000000b0: ff9f 353e fb15 b6bd e488 7abd e12a 363e
000000c0: 9a12 4a3e ca85 92b9 efed 153e fbec 483e
000000d0: e46f 0a3e 6c73 343e ab7b 343e 60c3 09be
000000e0: 2f69 25be a065 04be 639e c7bd f6e9 253e
000000f0: 7583 d63d 8320 d53d 164a 313e ba87 133e
00000100: 4679 34be 34cf 213e 34ed 2fbc cf81 1ebe
00000110: 38ec 3a3e 5e9f 1a3e 5422 363e 76f9 29be
00000120: 477e 2d3e 88d4 86bc ba71 2c3e 5d43 f73d
00000130: 3721 4f3c eee2 0e3e 233b fa3d 9496 213e
00000140: b510 dbbd 4e77 3b3e 6e09 26be dce2 193e
00000150: 8fe2 34be dd63 0bbe 12a7 14be 319b 023e
00000160: b4f7 57be 77bb 48be 251e 2e3e 9566 343e
00000170: 6253 3abe 57f8 383e 2850 e0bd 0ed5 333d
00000180: ec69 243e a804 e2bd 5564 0e3e 38ce 373e
00000190: 34b1 d0bc 7ed3 45be 3903 323e 46dd 2e3e
000001a0: f6f4 013e 6a25 27be e733 1e3e c247 3f3e
000001b0: c93e 0bbe a954 033e 1430 49be 5340 4f3e
000001c0: 7c88 0c3e 076c fdbd d6b4 1e3e 60af ff3d
000001d0: 96b3 103e 6c8e e23c de21 1f3e 5284 e83d
000001e0: 7b1a 393e 66e9 1c3e 5f09 f13c f8dc 243e
000001f0: b2c9 ac3d 41c9 3f3e a861 4c3e cce2 0a3e

fc_value.weight f4 [128, 128]
0.12820202 0.06154534 0.11258665 0.13563389 0.2096584 -0.04742868 0.2198037 -0.2318146
0.22527401 0.0060557444 0.015014352 0.08327736 -0.0034953328 0.13399997 0.19183007 0.20078528
-0.116292186 0.21685088 0.19761273 -0.006520666 0.0320682 -0.048525073 -0.11950043 -0.01116489
-0.022269204 0.19067341 0.019360809 0.2187023 -0.13580157 0.5397317 -0.0001663363 0.007943181
0.16870873 -0.33702326 -0.04859597 -0.2905371 0.2478449 0.036385793 0.21505116 -0.1380931
-0.008348191 0.112739086 -0.046567705 0.20328198 -0.019764358 -0.15340877 -0.27093217 0.26739112
0.1832496 0.10441884 0.13870977 0.004836232 0.027624508 0.28214115 0.19741485 -0.23619737
0.7271951 -0.09397819 0.41130984 0.20268129 0.013553842 -0.51028746 0.078990996 -0.022862462
-0.26156184 0.07754898 0.0722394 -0.27555248 0.273824 0.18343937 0.20488058 -0.24979162
0.019642668 -0.057502482 0.23145261 0.016853146 -0.012836134 0.08082361 0.2211296 0.2548294
0.030777952 0.2812773 -0.0070160385 0.07002568 -0.108823255 -0.23243368 0.26815894 0.06644499
-0.38974836 -0.2167121 0.11391717 0.023872828 -0.3730803 0.28871953 -0.30028936 0.114535116
-0.0043680207 -0.051738933 0.16406225 0.1268359 -0.06910563 -0.43840387 0.15794782 0.15569103
-0.06377823 -0.28394476 0.25884932 0.23262005 -0.3494559 0.21586566 -0.73769313 0.22447924
0.0894817 -0.06552561 0.105614774 0.13505143 0.0025902558 0.018529406 0.0295824 0.24500068
0.2109978 0.18400967 0.12310504 0.008441022 0.0035645105 0.13366073 0.19841689 0.11689918
-0.0977207 0.1238041 -0.20230386 -0.07967119 0.015722148 -0.14708108 -0.13983552 0.018953456
0.0676408 -0.5057011 0.0628164 -0.1207998 0.007926429 -0.0065767113 -0.5895321 -0.6543541
0.13021566 -0.06939602 0.12970719 0.1198454 0.029787902 0.2249028 -0.6855049 -0.38551727
-0.56991017 0.19049981 0.18693149 0.2787686 -0.08078467 -0.59643054 -0.53463167 -0.3576661
-0.21265636 0.3808917 -0.17110564 0.005871117 -0.084495865 -0.12894672 0.14084804 0.035342723
-0.19314222 0.079952024 -0.35489005 0.04588819 -0.62821037 -0.0041540335 0.14229132 -0.607232
-0.60144657 -0.08815937 -0.13809817 0.11903403 -0.46140817 -0.8672445 -0.38016427 0.010684312
-0.15319248 -0.055034794 0.15175733 0.30028597 -0.09870265 -0.30845472 -0.12335316 -0.5227846
0.4369803 -0.28036675 0.012107055 0.18301407 -0.14643517 0.037385095 -0.58855635 -0.21062635
0.05457738 -0.08211065 -0.0015870488 0.25693017 -0.2933123 0.16142432 0.17587125 -0.27863058
-0.06363941 -0.5450909 -0.114626504 0.015664289 0.3324579 0.49389663 -0.57770663 -0.274379
-0.13160346 0.013078076 0.060502447 -0.22922403 0.024169365 -0.13664243 0.018963447 0.073067024
-0.10099818 0.017577931 0.24295703 0.019573782 -0.1477173 0.4988194 -0.26342124 0.21877034
-0.043510366 0.44751042 -0.40312925 -0.57063985 0.28112322 0.09894818 0.76011896 -0.8049322
0.0724548 0.0546219 -0.27485186 -0.17852882 -0.16404879 -0.1964058 0.24321538 -0.050329
-0.17894712 0.06322028 -0.27749014 0.018248923 -0.14026336 -0.10274995 -0.7504867 0.008376935
00000000: 6447 033e f716 7c3d d493 e63d 9ce3 0a3e
00000010: b1b0 563e 9344 42bd 3914 613e ce60 6dbe
00000020: 3bae 663e 446f c63b c2fe 753c 528d aa3d
00000030: f411 65bb 4a37 093e 1a6f 443e a89a 4d3e
00000040: 992a eebd 280e 5e3e fe5a 4a3e 50ab d5bb
00000050: f259 033d 3ac2 46bd a4bc f4bd f1ec 36bc
00000060: e86d b6bc e43f 433e 8f9a 9e3c 7ff3 5f3e
00000070: 910f 0bbe db2b 0a3f 8f6a 2eb9 1e24 023c
00000080: fbc1 2c3e 508e acbe 910c 47bd 47c1 94be
00000090: 0ecb 7d3e 4509 153d 5f36 5c3e 4768 0dbe
000000a0: dac6 08bc c0e3 e63d c7bd 3ebd 2729 503e
000000b0: dde8 a1bc 3017 1dbe 9fb7 8abe 7de7 883e
000000c0: c8a5 3b3e 8bd9 d53d ef09 0e3e 4179 9e3b
000000d0: cb4c e23c ce74 903e 1e27 4a3e b9dd 71be
000000e0: 7529 3a3f a377 c0bd 3497 d23e af8b 4f3e
000000f0: ef10 5e3c 33a2 02bf 08c6 a13d 0f4a bbbc
00000100: 6feb 85be 00d2 9e3d 40f2 933d 3715 8dbe
00000110: a932 8c3e 88d7 3b3e 37cc 513e 60c9 7fbe
00000120: a9e9 a03c b987 6bbd ea01 6d3e 9c0f 8a3c
00000130: a64e 52bc d986 a53d cc6f 623e 0079 823e
00000140: 0b22 fc3c 9403 903e cce6 e5bb a069 8f3d
00000150: bade debd 1803 6ebe 214c 893e 5014 883d
00000160: 198d c7be c7e9 5dbe 684d e93d f390 c33c
00000170: 6204 bfbe 0cd3 933e 87bf 99be 6391 ea3d
00000180: 9d21 8fbb 34ec 53bd efff 273e 45e1 013e
00000190: 4187 8dbd 7976 e0be 13bd 213e 786d 1f3e
000001a0: 299e 82bd 3561 91be e687 843e f333 6e3e
000001b0: e2eb b2be e30b 5d3e 75d9 3cbf e3dd 653e
000001c0: 2e42 b73d 4b32 86bd 8f4c d83d ec4a 0a3e
000001d0: 48c1 293b fbca 973c ca56 f23c 75e1 7a3e
000001e0: cf0f 583e 086d 3c3e 7f1e fc3d 364c 0a3c
000001f0: 909a 693b 5cde 083e cc2d 4b3e d668 ef3d
00000200: ca21 c8bd 018d fd3d be28 4fbe a62a a3bd
00000210: bccb 803c 6c9c 16be 0b31 0fbe 4744 9b3c
00000220: 4287 8a3d a175 01bf e2a5 803d e365 f7bd
00000230: dadd 013c 7481 d7bb 93eb 16bf c083 27bf
00000240: 4157 053e 801f 8ebd f6d1 043e 8171 f53d
00000250: c205 f43c eb4c 663e 407d 2fbf 8562 c5be
00000260: a2e5 11bf 6212 433e f86a 3f3e c2ba 8e3e
00000270: 6f72 a5bd acaf 18bf 9fdd 08bf 0320 b7be
00000280: 97c2 59be 3d04 c33e 5136 2fbe 8062 c03b
00000290: 2b0c adbd 9c0a 04be 783a 103e 88c3 103d
000002a0: 13c7 45be e3bd a33d 26b4 b5be 41f5 3b3d
000002b0: 65d2 20bf 8f1e 88bb d1b4 113e 8e73 1bbf
000002c0: 67f8 19bf e68c b4bd 9b69 0dbe 1dc8 f33d
000002d0: b13d ecbe bc03 5ebf e4a4 c2be 410d 2f3c
000002e0: 7dde 1cbe 2a6c 61bd 4666 1b3e 15bf 993e
000002f0: 9d24 cabd c7ed 9dbe 95a0 fcbd 36d5 05bf
00000300: e2bb df3e 3b8c 8fbe ab5c 463c 0a68 3b3e
00000310: 1af3 15be 1d21 193d a1ab 16bf 6fae 57be
00000320: 888c 5f3d a129 a8bd 8504 d0ba 5a8c 833e
00000330: 082d 96be 6b4c 253e 9817 343e aba8 8ebe
00000340: 6155 82bd 148b 0bbf 4dc1 eabd 6552 803c
00000350: ec37 aa3e 05e0 fc3e 95e4 13bf 677b 8cbe
00000360: 0fc3 06be 6d45 563c 6ad1 773d b4b9 6abe
00000370: d5fe c53c feeb 0bbe 3b59 9b3c 2aa4 953d
00000380: 22d8 cebd 98ff 8f3c bac9 783e 3259 a03c
00000390: 3443 17be 4265 ff3e 26df 86be 5505 603e
000003a0: ed37 32bd 1620 e53e f566 cebe 7415 12bf
000003b0: 62ef 8f3e 58a5 ca3d 2897 423f 0910 4ebf
000003c0: 2f63 943d 37bb 5f3d 62b9 8cbe 42d0 36be
000003d0: 68fc 27be 9a1e 49be 740d 793e c825 4ebd
000003e0: ea3d 37be a279 813d 3013 8ebe c47e 953c
000003f0: 33a1 0fbe 916e d2bd e51f 40bf 693f 093c

fc_value.bias f4 [128]
0.15411508 -0.013513989 0.12788332 -0.013496302 -0.025618479 0.17994052 0.17255223 0.05890381
0.15379718 0.17250945 -0.008010447 0.13812244 0.016782051 0.14780945 0.0 0.0
-0.012244257 0.14542425 -0.008140071 -0.051808484 0.14404841 0.14384373 0.14698224 -0.004813219
-0.078191355 0.16272752 0.18268368 0.19513199 0.14340414 0.16364759 -0.003797445 0.13263528
0.14321846 -0.014184106 0.06291422 0.16084103 0.16427481 0.14520225 -0.08646593 0.14365467
-0.079078496 -0.10210943 -0.09109289 0.13671707 0.16562751 0.16102885 0.14471102 -0.02243651
0.10488986 0.1551907 -0.007774058 -0.06289625 -0.005234068 0.14719431 0.0075020622 0.15838574
0.20146179 0.18654078 -0.0058872947 -0.008515329 0.1550351 0.1571848 0.05751192 0.14709291
0.13912289 0.15028787 -0.006838631 -0.008159753 0.15433864 -0.009620524 -0.061481804 0.14777388
0.18887047 0.0325855 0.16993123 -0.029291775 0.1437432 0.042609464 0.16243047 0.14386345
0.12013946 0.15175618 0.1757796 -0.013042584 -0.014879615 -0.010492283 0.15705429 0.18618424
0.14824092 -0.010072436 -0.047632564 0.14479467 -0.04187463 -0.0029429086 0.15128918 0.14539157
-0.028719079 -0.011417807 0.17085135 0.14663725 0.018666226 0.13370475 -0.018102655 0.1577326
0.14836974 0.15693614 0.14455594 0.16525151 -0.0050185043 0.14043717 -0.079313636 0.14359018
0.20015885 -0.0045442204 0.17487684 0.1666485 0.15153816 0.15217078 0.1622754 -0.0164697
0.14671813 0.01633642 0.18263052 -0.013726254 -0.008539614 -0.053522106 0.14516585 -0.005448489
00000000: 58d0 1d3e c769 5dbc d8f3 023e 981f 5dbc
00000010: d8dd d1bc 5442 383e 88b1 303e 1f45 713d
00000020: 027d 1d3e 51a6 303e 403e 03bc f86f 0d3e
00000030: 837a 893c 5c5b 173e 0000 0000 0000 0000
00000040: 239c 48bc 18ea 143e ef5d 05bc 2235 54bd
00000050: 6d81 133e c54b 133e 8382 163e 35b8 9dbb
00000060: ca22 a0bd 0ba2 263e 6e11 3b3e aed0 473e
00000070: 89d8 123e 3c93 273e 8ede 78bb 8bd1 073e
00000080: dca7 123e 7464 68bc 2cd9 803d 83b3 243e
00000090: a837 283e e6af 143e 0d15 b1bd 361a 133e
000000a0: e8f3 a1bd c01e d1bd e98e babd 8fff 0b3e
000000b0: 429a 293e bfe4 243e 202f 143e c6cc b7bc
000000c0: 7fd0 d63d 50ea 1e3e 86bd febb c0cf 80bd
000000d0: 8b82 abbb 1bba 163e dcd3 f53b df2f 223e
000000e0: 004c 4e3e 8c04 3f3e 35ea c0bb e183 0bbc
000000f0: 85c1 1e3e 0df5 203e 9e91 6b3d 869f 163e
00000100: 3b76 0e3e 10e5 193e 9816 e0bb 7cb0 05bc
00000110: f30a 1e3e 679f 1dbc 58d4 7bbd 0952 173e
00000120: 4367 413e 6078 053d 7402 2e3e 4ef5 efbc
00000130: 6b31 133e 4387 2e3d 2c54 263e f150 133e
00000140: ad0b f63d f965 1b3e 91ff 333e 90b0 55bc
00000150: a1c9 73bc d3e7 2bbc d7d2 203e 15a7 3e3e
00000160: 78cc 173e dc06 25bc 5d1a 43bd 0e45 143e
00000170: bb84 2bbd d0dd 40bb 8deb 1a3e 87e1 143e
00000180: 4644 ebbc c111 3bbc a8f3 2e3e 1328 163e
00000190: eae9 983c e6e9 083e 054c 94bc a884 213e
000001a0: 3dee 173e deb3 203e 7906 143e b137 293e
000001b0: 4472 a4bb c3ce 0f3e 306f a2bd 4e09 133e
000001c0: 71f6 4c3e afe7 94bb ea12 333e e8a5 2a3e
000001d0: d22c 1b3e a8d2 1b3e 862b 263e 77eb 86bc
000001e0: 473d 163e f5d3 853c 7f03 3b3e 15e4 60bc
000001f0: bde9 0bbc ff39 5bbd 5ba6 143e 3d89 b2bb

value.weight f4 [1, 128]
0.24027483 -1.0520818 -0.8423027 -0.037485376 -0.758195 -0.75585896 0.43666708 -1.0251881
-0.6504204 0.33996782 -0.13615362 0.39225978 -1.2058555 0.26385608 0.13102329 -0.0042182356
-0.8229999 0.22389068 -0.052386355 -0.86221534 0.23231414 0.28163472 0.227434 -0.15944369
-0.450617 0.25766373 0.48030633 0.41156775 0.28848338 0.35177532 -0.16855898 0.27687475
0.3017062 -0.47852203 -1.1040959 0.17059128 0.40433446 0.2345662 -0.4096034 0.21582861
-0.33149996 -0.24918066 -0.32152408 -0.8841359 -0.90262955 0.14781447 0.2660894 -0.13738711
0.4316021 0.20435242 -0.011341421 -0.3014414 -0.17449379 0.21646956 -0.71452487 0.3696159
0.3883989 0.39263302 0.20319599 -0.012078766 -0.7560871 0.12774146 -0.7498724 0.21726298
-0.95586103 0.18333995 -0.027292142 -0.04900986 0.28373522 -0.1610341 -0.78978884 0.32853103
0.38538748 -0.8122274 0.4805761 -0.38001174 0.33394706 -0.95298874 0.24241215 0.29192653
0.39596692 0.21828635 0.44686738 -0.04320407 -0.39604732 -0.1905629 0.28013292 0.24589634
0.1946653 -0.1315231 -0.6207041 0.25075144 -0.63560027 -0.8042564 0.22084074 0.22241282
-0.6528642 -0.03966964 0.43617257 0.15846223 -0.9761722 0.3374045 -0.18601184 0.17855453
0.18385135 0.17269629 0.34553036 0.30439317 -0.13412178 -0.58423847 -0.2580995 0.2993414
0.3603106 -0.88015676 0.1800417 0.14939573 0.25602704 0.22369373 0.29188263 -0.16369918
0.19814536 -1.0339559 0.47745326 -0.83256173 -0.14826345 -0.44223458 0.2507167 -0.037476614
00000000: 9b0a 763e 9eaa 86bf 26a1 57bf 448a 19bd
00000010: 1119 42bf f97f 41bf d492 df3e 5d39 83bf
00000020: f481 26bf 4310 ae3e db6b 0bbe 46d6 c83e
00000030: 7959 9abf 2518 873e f82a 063e 2039 8abb
00000040: 1fb0 52bf 9943 653e 1393 56bd 25ba 5cbf
00000050: c2e3 6d3e 6d32 903e 75e4 683e 3545 23be
00000060: 45b7 e6be 80ec 833e b6ea f53e 02b9 d23e
00000070: 18b4 933e e51b b43e ba9a 2cbe 87c2 8d3e
00000080: 3c79 9a3e d700 f5be 0453 8dbf 7baf 2e3e
00000090: ed04 cf3e 1f32 703e 89b7 d1be 2d02 5d3e
000000a0: 5dba a9be 3729 7fbe ce9e a4be bb56 62bf
000000b0: bb12 67bf ad5c 173e df3c 883e 35af 0cbe
000000c0: f3fa dc3e c341 513e 5ed1 39bc 8756 9abe
000000d0: 80ae 32be 32aa 5d3e 1aeb 36bf 4c3e bd3e
000000e0: 38dc c63e 3207 c93e 9c12 503e 04e6 45bc
000000f0: ed8e 41bf a8ce 023e a3f7 3fbf 307a 5e3e
00000100: 4fb3 74bf 78bd 3b3e c593 dfbc 90be 48bd
00000110: be45 913e 20e6 24be 9a2f 4abf 3835 a83e
00000120: 8251 c53e 23ee 4fbf 120e f63e e690 c2be
00000130: 1cfb aa3e 12f7 73bf e43a 783e 6577 953e
00000140: 2dbc ca3e 7586 5f3e cdcb e43e c0f6 30bd
00000150: b7c6 cabe ec22 43be 956d 8f3e 40cc 7b3e
00000160: 5756 473e fead 06be 77e6 1ebf 7e62 803e
00000170: b3b6 22bf bfe3 4dbf 1324 623e 30c0 633e
00000180: 1c22 27bf a27c 22bd 0352 df3e ec43 223e
00000190: 6ce6 79bf 48c0 ac3e e379 3ebe 00d7 363e
000001a0: 8743 3c3e 4cd7 303e 5be9 b03e 6cd9 9b3e
000001b0: 3857 09be a790 15bf 9e25 84be 4743 993e
000001c0: a27a b83e f451 61bf da5c 383e 32fb 183e
000001d0: fa15 833e f80f 653e a471 953e c2a0 27be
000001e0: 9ee6 4a3e ab58 84bf c174 f43e c422 55bf
000001f0: 60d2 17be 926c e2be f05d 803e 1481 19bd

fc_adv.weight f4 [128, 128]
0.030227857 -0.1356267 0.045020428 -0.056660015 -0.007850536 0.07649236 0.049367733 -0.14284275
-0.03913782 0.0144474115 -0.15286465 -0.12770215 -0.15520549 0.02066525 -0.022212103 -0.10068913
0.024876576 0.0037473456 0.041054957 0.121262535 -0.11504805 -0.121237606 0.15054499 -0.11047168
0.101953186 -0.029503677 -0.0451591 -0.08652997 0.0468134 -0.003954355 0.08281446 -0.17212915
-0.021870572 0.015393376 0.03736205 0.11926636 -0.015673138 -0.14107531 0.0059512504 -0.057985585
0.058860518 -0.07036003 -0.10621186 0.017754512 0.06898532 -0.07343927 0.11385459 -0.1807354
-0.08629711 -0.096347675 0.023131637 -0.13176987 -0.09285834 -0.11568547 0.027271666 -0.12162816
-0.06688012 -0.13559373 -0.10755804 0.0049801087 0.0635302 0.07405067 -0.13742521 -0.12609944
-0.03434195 0.06266219 -0.015184509 -0.015762623 -0.1559122 -0.18513224 -0.060445853 0.0712983
-0.09173623 0.032614768 0.06577664 -0.08730672 0.13829051 0.13267349 0.084794655 -0.023583837
-0.10312253 0.00020721235 -0.026560552 0.10023756 -0.11353177 -0.010671773 0.122275464 0.0054803616
0.05002894 -0.019294506 -0.17296885 -0.012106443 0.15870513 0.063115925 -0.094536535 -0.105819955
0.122166604 -0.019201925 0.05748556 0.0009780861 -0.10480481 0.13291915 -0.075194694 -0.09879394
0.13458815 0.08141394 0.033228666 -0.1477985 0.11385341 -0.100192115 -0.044869483 -0.18344717
0.020124532 -0.087435454 -0.21514826 0.10579521 -0.14869955 -0.031221833 -0.084803775 0.005886676
-0.0032686559 0.1213435 0.04794251 -0.057535827 -0.08433251 -0.07366235 0.020672431 -0.16398373
0.010324459 0.0006192591 0.09081696 0.34717733 0.002172226 0.042753197 -0.15866075 0.18550219
-0.06820677 -0.32994273 -0.13331015 0.06274453 0.025124935 0.47839034 -0.3399557 0.038856175
0.3289149 0.44985333 0.011091061 -0.15202563 -0.036171876 0.37606397 -0.027372079 -0.2037108
-0.32792673 -0.09666127 0.06289647 -0.33437422 -0.083982594 0.36551765 -0.07528812 -0.010095529
0.31973997 0.83912015 0.19512686 -0.29210654 -0.07906053 0.19119665 -0.013774693 0.2661346
-0.074374594 0.13983408 -0.16972135 -0.22066143 -0.38916874 -0.3226051 0.2199456 0.025976008
0.07298518 0.25186855 0.07745848 -0.3534932 -0.15048707 0.014993877 -0.15885171 0.37587646
0.111269385 0.5791057 0.15931286 0.03917713 0.15100965 -0.14779454 -0.00013573362 -0.0039149653
0.47243577 -0.12964211 -0.0658027 -0.44635087 0.045805357 0.076538 -0.24092901 -0.015650598
-0.22740506 0.12454998 -0.32288054 0.17736614 -1.1475983 -0.075476795 -0.02004962 -0.38163924
0.498663 -0.0067227483 0.3731546 0.18251686 0.052042022 -0.24992082 0.731869 -0.43030512
-0.5045198 0.25710234 0.11526732 0.19957693 -0.05452078 0.049480747 0.26526183 0.17373481
0.18697187 -0.22815809 0.035001572 -0.14122371 -0.012309593 0.48762748 -0.30957413 -0.6955102
-0.037316393 0.39831585 0.012855468 -0.18205501 0.39460117 -0.32631373 0.55635136 -0.1453615
-0.22367153 -0.5556753 -0.2696247 0.028721156 0.032446068 0.005652215 0.0845398 0.3095862
-0.3042181 0.08034002 -0.15564075 0.07275362 0.26944545 0.06625683 -0.09686449 -0.009095507
00000000: 69a0 f73c bae1 0abe 5767 383d 5514 68bd
00000010: 899f 00bc 07a8 9c3d d235 4a3d 5f45 12be
00000020: fb4e 20bd d6b4 6c3c 8d88 1cbe 5ac4 02be
00000030: 30ee 1ebe 2c4a a93c 28f6 b5bc 1a36 cebd
00000040: f6c9 cb3c 0796 753b 3e29 283d 7e58 f83d
00000050: 509e ebbd 6c4b f8bd 7728 1a3e fa3e e2bd
00000060: d5cc d03d b2b1 f1bc c0f8 38bd a036 b1bd
00000070: 68bf 3f3d 8993 81bb a19a a93d a042 30be
00000080: ea29 b3bc 8034 7c3c f308 193d ec41 f43d
00000090: f464 80bc 0c76 10be b502 c33b 4b82 6dbd
000000a0: ba17 713d eb18 90bd 9b85 d9bd e971 913c
000000b0: 2d48 8d3d 5467 96bd 982c e93d b312 39be
000000c0: 8abc b0bd ee51 c5bd 8f7e bd3c aeee 06be
000000d0: 832c bebd 81ec ecbd d468 df3c 2f18 f9bd
000000e0: 72f8 88bd 15d9 0abe 6447 dcbd 2e30 a33b
000000f0: 1f1c 823d e1a7 973d 32b9 0cbe 3620 01be
00000100: 25aa 0cbd 0955 803d 72c8 78bc 9e20 81bc
00000110: 73a7 1fbe 4e93 3dbe 1296 77bd d804 923d
00000120: 34e0 bbbd 1097 053d e7b5 863d decd b2bd
00000130: 079c 0d3e 8fdb 073e d2a8 ad3d e432 c1bc
00000140: e831 d3bd 2447 5939 8495 d9bc 5a49 cd3d
00000150: 5883 e8bd a9d8 2ebc 8f6b fa3d 9b94 b33b
00000160: 25eb 4c3d 830f 9ebc bf1e 31be 1a5a 46bc
00000170: 9983 223e ec42 813d 5f9c c1bd 22b8 d8bd
00000180: 7c32 fa3d 5b4d 9dbc fb75 6b3d 2033 803a
00000190: e7a3 d6bd f51b 083e adff 99bd 7a54 cabd
000001a0: 7ad1 093e 5abc a63d c81a 083d 7d58 17be
000001b0: fa2b e93d 8631 cdbd 10c9 37bd 93d9 3bbe
000001c0: 34dc a43c 5c11 b3bd d34f 5cbe 29ab d83d
000001d0: b244 18be eec4 ffbc 9aad adbd 04e5 c03b
000001e0: f236 56bb f182 f83d 5e5f 443d b0aa 6bbd
000001f0: 86b6 acbd 49dc 96bd 3b59 a93c 5aeb 27be
00000200: eb27 293c c655 223a 3efe b93d 3ac1 b13e
00000210: e85b 0e3b fa1d 2f3d f777 22be 49f4 3d3e
00000220: feaf 8bbd 41ee a8be 7582 08be 3480 803d
00000230: cfd2 cd3c 94ef f43e ac0e aebe a727 1f3d
00000240: 8967 a83e 2d53 e63e 48b7 353c 9bac 1bbe
00000250: f628 14bd 758b c03e 693b e0bc 9099 50be
00000260: 03e6 a7be 58f6 c5bd ddcf 803d 1933 abbe
00000270: 11ff abbd 2125 bb3e a830 9abd b867 25bc
00000280: f5b4 a33e 94d0 563f 56cf 473e fd8e 95be
00000290: 7dea a1bd 0ec9 433e 40af 61bc cb42 883e
000002a0: b551 98bd aa30 0f3e 6fcb 2dbe 12f5 61be
000002b0: 2041 c7be 7f2c a5be 6b39 613e a3cb d43c
000002c0: 4179 953d eaf4 803e 8da2 9e3d 10fd b4be
000002d0: 4819 1abe e1a8 753c 06aa 22be e172 c03e
000002e0: 34e1 e33d 4540 143f e922 233e 3378 203d
000002f0: 46a2 1a3e 7457 17be b753 0eb9 1c49 80bb
00000300: 1ae3 f13e e7c0 04be 91c3 86bd 1a88 e4be
00000310: 669e 3b3d f4bf 9c3d 18b6 76be af35 80bc
00000320: dfdc 68be 0f14 ff3d 9950 a5be 789f 353e
00000330: 80e4 92bf 9493 9abd 1a3f a4bc 3866 c3be
00000340: c250 ff3e 804a dcbb 1f0e bf3e b3e5 3a3e
00000350: 042a 553d 3eeb 7fbe c45b 3b3f f450 dcbe
00000360: 3628 01bf eba2 833e 4611 ec3d e55d 4c3e
00000370: 2e51 5fbd 53ac 4a3d 66d0 873e 8ae7 313e
00000380: 8e75 3f3e 46a2 69be cf5d 0f3d f39c 10be
00000390: 2dae 49bc 4faa f93e 8080 9ebe f50c 32bf
000003a0: 13d9 18bd 0ef0 cb3e be9f 523c a16c 3abe
000003b0: 2a09 ca3e 9812 a7be 0b6d 0e3f a5d9 14be
000003c0: 260a 65be bd40 0ebf 400c 8abe a148 eb3c
000003d0: 2be6 043d 3736 b93b 3423 ad3d 1582 9e3e
000003e0: 7ac2 9bbe 4f89 a43d 4a60 1fbe daff 943d
000003f0: c1f4 893e a9b1 873d e460 c6bd 5205 15bc

fc_adv.bias f4 [128]
-0.022011852 0.02187624 0.047127634 -0.014831794 -0.016387274 0.025890587 0.021552507 0.062287882
-0.066870585 0.053270448 -0.0075667333 0.04170202 -0.021416534 0.023448152 0.00054859824 -0.0004748338
0.028776439 0.02535166 0.13278463 -0.0028824627 0.016673198 -0.009706353 0.019610597 -0.01082433
0.0067986273 0.0138882445 -0.049249195 0.031418815 0.04083907 -0.14047213 0.039642364 0.033214353
-0.0069940262 0.017365435 0.02018544 0.007821236 -0.032503143 0.00034517611 0.022655504 -0.007564937
0.054525774 0.021758063 0.016862787 0.04570258 -0.004406988 0.042251427 0.03155494 0.04768647
0.013854785 0.09286135 -0.016034134 0.11976145 -0.03270449 0.0089809755 0.087276906 0.08643221
0.12285096 0.00012347526 0.076486126 0.12839499 -0.007683437 0.016549516 0.048028823 0.09922207
0.09265864 0.07350374 0.07770743 0.09426687 -0.0033190004 0.050331112 0.044157814 0.003272203
0.06131505 -0.0037836195 0.008026227 0.06918058 -0.0031002045 0.044977073 0.0058662808 -0.015958944
-0.004904343 -0.0021619564 0.020117959 0.05921814 0.032446112 0.051842004 0.025353765 -0.009049507
0.035413153 0.06906714 0.022493582 0.08733772 0.12182477 -0.022954889 0.0023688755 0.061630372
0.05344563 -0.003119935 0.0027979887 0.0 0.010049147 0.0 0.0049341843 0.020637369
0.07556549 -0.0040742843 0.0 0.0067371423 0.013102217 0.102188155 0.0 0.022963656
0.03264261 -0.031068658 0.023668287 0.019001415 0.08633762 -0.023311328 0.06114558 0.0061413553
0.024504805 0.0006427347 0.0 -0.0064111995 -0.026565375 0.04908768 0.048930444 0.02679664
00000000: 3352 b4bc cd35 b33c e808 413d 0e01 73bc
00000010: 9b3e 86bc 7f18 d43c e28e b03c 9421 7f3d
00000020: 72f3 88bd 1d32 5a3d 5cf2 f7bb bdcf 2a3d
00000030: ba71 afbc 5716 c03c cecf 0f3a 1df3 f8b9
00000040: 91bc eb3c 49ae cf3c b2f8 073e b3e7 3cbb
00000050: 3b96 883c 6507 1fbc 67a6 a03c 8858 31bc
00000060: 05c7 de3b 858b 633c 86b9 49bd 04b1 003d
00000070: de46 273d edd7 0fbe 0860 223d c60b 083d
00000080: 252e e5bb f541 8e3c f05b a53c a424 003c
00000090: 0422 05bd c1f8 b439 0998 b93c 4be3 f7bb
000000a0: 6b56 5f3d f73d b23c d423 8a3c a132 3b3d
000000b0: 7f68 90bb d50f 2d3d c13f 013d e352 433d
000000c0: 2eff 623c 172e be3d 045a 83bc 7e45 f53d
000000d0: 25f5 05bd f124 133c 3cbe b23d 5f03 b13d
000000e0: 4999 fb3d 2379 0139 c2a4 9c3d fa79 033e
000000f0: 57c5 fbbb da92 873c dfb9 443d f134 cb3d
00000100: d0c3 bd3d 2189 963d 1325 9f3d fd0e c13d
00000110: 9683 59bb ff27 4e3d d3de 343d 7572 563b
00000120: 7d25 7b3d 9af6 77bb 7080 033c 8cae 8d3d
00000130: cd2c 4bbb e139 383d ee39 c03b 55bc 82bc
00000140: 9cb4 a0bb 9caf 0dbb 6bce a43c b88e 723d
00000150: 37e6 043d 4858 543d b3b2 cf3c 6244 14bc
00000160: 620d 113d 1373 8d3d 7644 b83c 1ede b23d
00000170: 447f f93d e40b bcbc 233f 1b3b 2170 7c3d
00000180: cee9 5a3d d377 4cbb 765e 373b 0000 0000
00000190: 2da5 243c 0000 0000 f0ae a13b b30f a93c
000001a0: 14c2 9a3d 9381 85bb 0000 0000 3fc3 dc3b
000001b0: aeaa 563c 0648 d13d 0000 0000 471e bc3c
000001c0: 42b4 053d b383 febc ffe3 c13c dba8 9b3c
000001d0: c7d1 b03d 66f7 bebc ca73 7a3d 6c3d c93b
000001e0: 4dbe c83c 327d 283a 0000 0000 0a15 d2bb
000001f0: a19f d9bc 2a10 493d 4a6b 483d a184 db3c

advantage.weight f4 [2, 128]
-0.18620612 0.98378193 0.2062116 0.12192136 0.16221857 -0.533988 -0.043858685 0.20506115
0.59842193 0.25163093 0.19777368 0.08666525 -0.18918718 -1.0531923 -0.12311579 -0.5039343
0.2886299 -0.15769075 -1.0959756 -0.029869923 0.2811755 0.2585569 -0.2861339 0.0033218805
-0.23183805 0.31191346 1.265671 -0.94450295 -0.18704106 1.6131616 -0.72670275 0.9234805
1.5150129 -0.32130688 0.7061888 -0.18671899 -0.085237205 -0.06805273 0.8301927 0.03447053
0.1351198 -0.15102217 0.25689843 -0.40231088 -0.14616098 -0.23730946 0.46309215 0.31465667
-0.43887508 -1.1503253 0.7075553 -0.94736904 0.9918495 -0.31363925 -0.8789969 -1.1231767
-0.94888926 -0.30682865 -1.3821106 -1.0411185 0.9418093 -0.24911956 -0.03128482 -1.1151778
-0.78294414 0.46389195 0.04382283 -0.74100417 -0.074354224 0.41064474 -0.10310005 0.17469828
-0.33351752 0.11722117 0.715977 0.29050666 0.10075646 0.36418983 -0.14427558 0.0891526
0.1550254 0.21800184 -0.62524384 -0.38727525 0.2624566 1.219041 0.49986112 1.2402766
-0.16630192 0.13280194 0.003879035 -1.1321214 -0.8770849 0.036996916 -0.41680694 0.20577197
-0.34980354 -0.07613744 0.17871618 0.020282477 0.44308254 -0.04437521 -0.23640305 -0.16666038
-0.84268713 0.35575402 0.0994042 -0.21406463 0.837892 -1.300854 0.1522889 1.5552912
0.43488434 -0.23188312 1.2975721 0.93106616 0.3220533 0.50142777 -0.4842976 -0.10949301
0.85564166 0.0051852874 0.089891925 -0.28886876 0.19524162 -0.4008923 -0.31628323 0.9659218
0.18498585 -0.8848609 -0.22516751 -0.022341551 -0.09573831 0.85590905 -0.0025730447 -0.33063072
-0.62415683 -0.22727877 -0.28978974 -0.15843205 0.14287104 1.0449554 0.25222316 0.40632972
-0.2554615 0.12272175 0.9540379 0.13142319 -0.3202188 0.063062295 0.047355432 0.11369234
0.13818216 -0.15884338 -1.536195 0.74308133 0.17139755 -1.438034 0.8729672 -0.99612236
-1.1143366 0.104300775 -0.9298035 0.06354037 0.1259396 0.032988857 -0.5910816 0.073997654
-0.38268834 0.10732058 -0.059521124 0.026970465 0.17767294 0.30231282 -0.17243436 -0.22565871
0.38862157 0.9967119 -0.46218634 0.8006087 -0.9732979 0.014124055 0.9001084 1.1412233
1.0704446 0.6275892 1.090586 0.6875156 -0.9130143 0.21527289 0.32350427 1.2392223
0.8733503 -0.55310637 -0.39548117 0.77399474 0.122907646 -0.04005264 0.40280586 -0.24459983
0.34032497 0.12387192 -0.79046434 -0.2355752 -0.2100862 -0.2784393 0.173247 -0.009945155
0.052451972 -0.19410357 0.46370083 0.35619637 -0.17420729 -1.0097893 -0.599383 -1.4427524
0.3149675 -0.35557276 0.343069 1.3225688 0.9203641 0.095015205 0.62861055 -0.42470813
0.40941456 -0.13887863 -0.20241019 -0.11189045 -0.53971845 0.1287566 0.2427271 0.04876061
0.99359095 -0.29984593 0.21070208 0.09538924 -0.56367356 1.3644412 -0.13454755 -1.3612142
-0.3437015 0.20065002 -1.5304549 -0.73823595 -0.34422433 -0.6600935 0.4464006 -0.18554369
-0.8458114 0.15946354 -0.20752288 0.3382639 -0.15042181 0.31916425 0.43590963 -0.61559325
00000000: d1ac 3ebe 22d9 7b3f 2229 533e e8b1 f93d
00000010: a01c 263e 70b3 08bf 2aa5 33bd 8dfb 513e
00000020: 2e32 193f c5d5 803e 2f85 4a3e 8d7d b13d
00000030: 49ba 41be 01cf 86bf 2224 fcbd d701 01bf
00000040: 4cc7 933e af79 21be ee48 8cbf c5b1 f4bc
00000050: 3cf6 8f3e 9261 843e 2480 92be e8b3 593b
00000060: f466 6dbe 1fb3 9f3e 8201 a23f f2ca 71bf
00000070: b187 3fbe 147c ce3f 3109 3abf 3869 6c3f
00000080: f1eb c13f 5682 a4be cac8 343f 4333 3fbe
00000090: d890 aebd 3b5f 8bbd 8287 543f f830 0d3d
000000a0: d85c 0a3e 8ea5 1abe 3188 833e b1fb cdbe
000000b0: 39ab 15be 4001 73be 6a1a ed3e ae1a a13e
000000c0: 3cb4 e0be dc3d 93bf 5822 353f c786 72bf
000000d0: d9e9 7d3f 5395 a0be f105 61bf 41c4 8fbf
000000e0: 68ea 72bf a518 9dbe 00e9 b0bf 5f43 85bf
000000f0: 6a1a 713f 3319 7fbe 8324 00bd 25be 8ebf
00000100: 076f 48bf 3f83 ed3e 917f 333d 73b2 3dbf
00000110: 0747 98bd 0740 d23e 1e26 d3bd 1be4 323e
00000120: cfc2 aabe a711 f03d 454a 373f 4abd 943e
00000130: 6759 ce3d 1777 ba3e fabc 13be a395 b63d
00000140: fabe 1e3e e03b 5f3e fb0f 20bf f148 c6be
00000150: b660 863e 8909 9c3f cced ff3e 62c1 9e3f
00000160: 0d4b 2abe 3bfd 073e 6837 7e3b 5be9 90bf
00000170: a388 60bf 148a 173d b867 d5be e3b5 523e
00000180: 7319 b3be f2ed 9bbd 6001 373e 7027 a63c
00000190: b7db e23e c8c2 35bd a413 72be 05a9 2abe
000001a0: 58ba 57bf 6425 b63e 6e94 cb3d c233 5bbe
000001b0: 1780 563f 6282 a6bf 9ff1 1b3e c813 c73f
000001c0: 29a9 de3e c572 6dbe d816 a63f 5a5a 6e3f
000001d0: 2ce4 a43e 925d 003f dbf5 f7be df3d e0bd
000001e0: 550b 5b3f 58e9 a93b 4219 b83d 9be6 93be
000001f0: 6bed 473e c141 cdbe e0ef a1be a746 773f
00000200: ee6c 3d3e 3e86 62bf 5092 66be a105 b7bc
00000210: 7212 c4bd db1c 5b3f 87a0 28bb 6e48 a9be
00000220: bec8 1fbf c4bb 68be 525f 94be 033c 22be
00000230: c94c 123e 19c1 853f 6523 813e 730a d03e
00000240: dacb 82be 8a55 fb3d d43b 743f cd93 063e
00000250: b8f3 a3be ce26 813d c5f7 413d 88d7 e83d
00000260: a07f 0d3e d7a7 22be 0aa2 c4bf 943a 3e3f
00000270: d782 2f3e 8011 b8bf c77a 5f3f e001 7fbf
00000280: 95a2 8ebf a59b d53d 9a07 6ebf 7421 823d
00000290: 4ff6 003e 531f 073d 2051 17bf 158c 973d
000002a0: baef c3be e4ca db3d 6ccc 73bd 2af1 dc3c
000002b0: e5ef 353e bfc8 9a3e a292 30be 1413 67be
000002c0: 68f9 c63e 8328 7f3f b0a3 ecbe b1f4 4c3f
000002d0: 0d2a 79bf 9568 673c 816d 663f 9b13 923f
000002e0: 5404 893f b0a9 203f 5298 8b3f 0601 303f
000002f0: 4ebb 69bf 7f70 5c3e 5aa2 a53e d69e 9e3f
00000300: e393 5f3f 6198 0dbf 827c cabe 8524 463f
00000310: 01b7 fb3d 3d0e 24bd 923c ce3e 6178 7abe
00000320: 133f ae3e 90b0 fd3d df5b 4abf a03a 71be
00000330: d620 57be 998f 8ebe a967 313e 01f1 22bc
00000340: e1d7 563d 16c3 46be 326a ed3e 5f5f b63e
00000350: 6563 32be c740 81bf 2a71 19bf 1cac b8bf
00000360: 6c43 a13e a20d b6be bda6 af3e ef49 a93f
00000370: fb9c 6b3f 5597 c23d 9fec 203f 5873 d9be
00000380: c99e d13e 3336 0ebe 9e44 4fbe d226 e5bd
00000390: fd2a 0abf c5d8 033e 748d 783e 35b9 473d
000003a0: fa5b 7e3f 6885 99be 49c2 573e 6f5b c33d
000003b0: e94c 10bf 02a6 ae3f d5c6 09be 443c aebf
000003c0: a5f9 afbe 3377 4d3e f2e5 c3bf 08fd 3cbf
000003d0: 2c3e b0be e3fb 28bf 9f8e e43e 2aff 3dbe
000003e0: 1987 58bf 694a 233e e180 54be ed30 ad3e
000003f0: 2d08 1abe 7f69 a33e 8c2f df3e 8597 1dbf

advantage.bias f4 [2]
0.0034302997 -0.0034302997
00000000: e1ce 603b e1ce 60bb
