Project/output/acrobot/ddqn_duel/best_model.pth (torch, 832802 bytes, 44 tensors)

fc1.weight f4 [128, 6]
000000 65 f5 05 be e3 d9 47 3e b4 4a 50 3e f1 7e 16 3e
       -0.13081892 0.19516711 0.20340997 0.14696862
000010 22 88 95 be c7 c0 07 be fc df a7 bd 20 a4 b3 be
       -0.29205424 -0.13257132 -0.081970185 -0.35086155
000020 3b 38 39 be 11 3a ac 3e e6 0d b7 bc a8 4a ce bd
       -0.18087856 0.3363805 -0.022345494 -0.10072833
000030 db 5f 4b 3e 26 c6 93 3e 61 2c cb bd 64 0d ab 3e
       0.19860785 0.28862113 -0.09920574 0.33408654
000040 97 7a d3 39 c8 93 93 3d 6b 32 55 be 9f cf 1a bd
       0.00040336393 0.072059214 -0.20820014 -0.03779566
000050 24 4c d5 3d 2e 14 9e bd f2 33 5f 3e c4 fb 29 3d
       0.10414913 -0.07718693 0.2179716 0.041499868
000060 c6 00 3f 3e 72 4a 42 3e be 42 a8 bd 40 db 3a 3e
       0.18652639 0.18973711 -0.08215855 0.182477
000070 ec 78 50 be e7 7b 10 be a9 fb f9 3d e3 41 af 3e
       -0.20358628 -0.14109765 0.122062035 0.34229955
000080 57 6e 33 be 6d 68 13 be 10 90 12 be 3c 3f c5 bd
       -0.1752256 -0.14395304 -0.14312768 -0.096312016
000090 4e b3 5f 3e 9d 8e 86 3e ca d7 dc be 9c 67 05 3e
       0.21845743 0.2628068 -0.43133384 0.13027805
0000a0 0c d6 41 bd e4 c4 d8 3c 88 b5 2f be 06 b2 fc 3d
       -0.04732327 0.026461072 -0.17159092 0.12338643
0000b0 3a af 61 3e ec 23 b3 3d b1 58 f3 bd 3d ab 25 3d
       0.220395 0.08747086 -0.11882151 0.04044651
0000c0 aa 91 39 3d 86 c4 d2 3d 10 71 78 3c b2 c1 53 be
       0.04530493 0.1029139 0.015163675 -0.20679358
0000d0 67 a0 67 3e 14 73 3d 3d 1c ca 2a be 98 3e 6b be
       0.22619782 0.046252325 -0.16678661 -0.22973096
0000e0 fa 94 ad be 9b ea 52 3e f8 09 12 bb 6c 37 d2 bd
       -0.33902723 0.20597307 -0.0022283774 -0.10264477
0000f0 56 5c 68 3e b6 63 64 3e 9c f6 cb 3d 7e d8 c3 be
       0.22691473 0.22303662 0.099591464 -0.38251108
000100 69 f6 53 3d 62 9f 0d 3e bf 59 33 3d 28 b9 3f 3e
       0.051748667 0.13830331 0.04378676 0.18722975
000110 03 87 89 be 27 44 8b bc af 46 38 3c 3a 99 b7 3c
       -0.26860818 -0.017000271 0.011247321 0.022411931
000120 c2 ce 9c 3b 81 6e 4f 3e 5f 55 4f 3e 5f 55 23 3e
       0.0047853896 0.20256998 0.2024741 0.15950535
000130 c6 1d 5b 3c 62 96 13 be ca c4 8c be a3 61 7f 3e
       0.013373798 -0.14412835 -0.27493888 0.24939589
000140 fc 15 50 bd a1 eb 30 3c 16 75 d5 3d a1 08 c6 bd
       -0.050802216 0.010798366 0.10422723 -0.096696146
000150 7c 8e ba be a6 ce 2f be a0 5e 51 3d bd a0 95 3e
       -0.36436832 -0.17168674 0.051115632 0.29224196
000160 f2 10 27 bd e5 38 11 be 7f 0a a0 bd c8 d9 78 be
       -0.040787645 -0.1418186 -0.07814502 -0.24301827
000170 82 46 6d 3d 60 d9 bd be 11 8f 67 be b6 44 93 3d
       0.05792857 -0.37079906 -0.22613169 0.0719084
000180 be 4c 00 be cd 23 01 3f 7d af fa 3d a1 28 99 3e
       -0.12529275 0.5044525 0.12240503 0.2991381
000190 48 b6 53 3e 98 a3 76 bd 97 eb f6 bd 4f c7 c7 3d
       0.20675004 -0.06021461 -0.12056654 0.09754812
0001a0 b5 33 64 be 9a ac 5a 3e 77 c5 68 bd ae 27 ae 3d
       -0.2228535 0.21354905 -0.056828942 0.08503662
0001b0 e8 08 cd be bd 45 af be c0 fb 20 be 0f 50 06 3e
       -0.40045857 -0.34232894 -0.15721035 0.13116477
0001c0 8a b4 98 3d c5 d8 e0 bd 9e 5e 51 3d eb fc 5c be
       0.0745631 -0.109788455 0.051115625 -0.21580856
0001d0 97 77 80 3e d7 a2 75 3e 23 9e 21 3d ce d9 a4 3d
       0.2509124 0.239879 0.03945745 0.080493554
0001e0 cf ef 34 be c7 48 76 3d f4 ca cd bd 05 81 ba 3c
       -0.17669605 0.060128 -0.10048476 0.0227666
0001f0 18 d1 0e 3c 97 c0 52 3e ba a0 ad be c7 86 c5 be
       0.008716844 0.2058128 -0.33911687 -0.3857939
000200 99 09 b3 3e 98 84 a0 3c e7 56 07 be 5d 41 0d be
       0.3496826 0.019594476 -0.13216744 -0.13794465
000210 f8 ce a3 3d d0 ff c6 3e 43 c0 30 be ae 4d 23 bd
       0.079984605 0.38867044 -0.17260842 -0.039869003
000220 c0 e6 f0 3d ea a8 80 3c cd bc 95 3c df 80 b9 3e
       0.11762762 0.015705545 0.018278504 0.36231133
000230 70 8c ac be 79 4b fe 3d 1a bc b6 bd b5 5c 72 3d
       -0.33700895 0.12416739 -0.08922596 0.059170444
000240 15 c7 92 3e e1 67 92 3e b2 f9 68 3e 2a e7 74 3e
       0.28667513 0.28594878 0.22751501 0.23916307
000250 d0 de db bd 5e c3 95 bd 3e de 80 3e 76 fb e4 bd
       -0.107358575 -0.07312654 0.25169557 -0.11180775
000260 7d e4 aa 3d cc f9 05 3e 46 6c 21 3d b6 33 8a 3d
       0.08344362 0.13083571 0.0394099 0.06748144
000270 84 8f 99 3e 32 c3 00 be ab b7 84 3e 2a 10 ca 3d
       0.29992306 -0.12574461 0.25921378 0.09866364
000280 61 9e 43 bd 6d af db 3d 18 8f 86 be 1e 79 19 be
       -0.047758464 0.10726819 -0.26281047 -0.14987609
000290 a4 96 0d be 4a 87 56 3d 58 8b 39 3e 17 f8 18 bc
       -0.13826996 0.052375115 0.18119562 -0.009336493
0002a0 be 3b a2 bd eb e2 cc be c4 fb c0 be 2a 62 60 be
       -0.07921551 -0.40016875 -0.37692082 -0.21912447
0002b0 eb 26 ea 3d 1c 89 f1 bd 13 e0 30 3c 5b 1b 05 3e
       0.11433204 -0.1179373 0.010795611 0.12998717
0002c0 10 ec 4f bd 3f e7 a9 be 4e a0 4b 3d 20 db 09 3e
       -0.050762236 -0.3318424 0.049713425 0.13462496
0002d0 11 38 38 3e 53 e9 dc 3e 06 95 93 be 34 b7 b5 be
       0.17990138 0.43146762 -0.28824633 -0.35491335
0002e0 f3 60 f7 3d d1 92 24 3e 5c d3 9a 3d b5 58 04 3e
       0.120790385 0.16071631 0.07559845 0.12924464
0002f0 34 5c c2 be 2b 8b c4 3d 3b e4 33 be 57 e0 49 3d
       -0.3796097 0.09596857 -0.17567532 0.049286213
000300 1f c6 ee 3c fe 6d c3 be 2c b4 7b be 0a f3 3d be
       0.029147206 -0.38169855 -0.24580449 -0.18549743
000310 16 f9 6a bc dd da 64 bd a7 b0 3a 3e 3e 61 4f 3e
       -0.014341613 -0.055872787 0.1823145 0.20251939
000320 0d ef ca 3c fc 20 c1 be ee 3e 92 bd 30 93 bf 3d
       0.024772191 -0.37720478 -0.07140909 0.09354246
000330 a4 67 1c be ff 9c b0 3e f2 c1 af be 47 5e ba bc
       -0.15273911 0.3449478 -0.34327656 -0.022750033
000340 cb d8 d5 3d 04 ad 1f 3e da 17 8e 3e 6d d8 60 be
       0.104417406 0.15593344 0.27752572 -0.2195756
000350 04 d2 21 3e c8 e6 02 3e c7 22 d5 3d 3b 1e 05 3d
       0.15802771 0.12783349 0.10407024 0.032499533
000360 59 3c 16 bd ec 6b 83 be 9a 60 83 bd 78 1f dd be
       -0.036678646 -0.25668275 -0.0641491 -0.4318807
000370 4d 90 d5 bd f3 9a 21 3d d7 95 8f 3e 4a db 75 be
       -0.10427914 0.03945441 0.28044006 -0.24009433
000380 b5 b5 6f be 52 f5 47 be e2 c7 8f 3d 35 29 fe bc
       -0.2340916 -0.19527176 0.070205465 -0.031025508
000390 c7 03 38 3e 04 33 8d bc 79 ff 13 bc 8d 12 1c 3e
       0.17970191 -0.01723624 -0.009033077 0.15241452
0003a0 47 57 d0 bd d5 24 0e be 16 28 73 be 6e 7d 81 be
       -0.10172897 -0.13881238 -0.2374576 -0.25291008
0003b0 48 f4 a8 be ee b9 57 3c d6 0b 5a 3c cd 61 a9 3b
       -0.32998872 0.013166888 0.013308486 0.0051691295
0003c0 8d 8e 67 3e 4f 59 8b be 73 0e 18 be 93 ca 7c 3e
       0.22612973 -0.27216575 -0.14849262 0.24686651
0003d0 6a 4b 9c 3d 0b b4 93 3c 48 1f 9c bd 36 0d 12 3e
       0.076315716 0.018030187 -0.07623154 0.14262852
0003e0 e2 5c 9d be 81 94 56 be 02 ed b6 bd fe 1f d7 3d
       -0.30734926 -0.20955087 -0.089319244 0.10504149
0003f0 89 da 5e 3e 9a 6e 85 3e bd 62 b4 3d 41 0f d1 3d
       0.21763052 0.26060945 0.08807895 0.102079876

fc1.bias f4 [128]
000000 b8 c9 0e be b4 4e 00 3d 16 43 2d 3e 3f d4 a7 bd
       -0.13944137 0.031325057 0.16920123 -0.081947796
000010 c9 93 04 be f3 d8 b5 3d 4c 94 17 3d 51 50 ed bd
       -0.12947 0.088792704 0.03700666 -0.11587585
000020 0b 3b 82 bd 3d 46 7e 39 62 ec e8 bd 63 e1 60 3d
       -0.06358918 0.00024249493 -0.113732114 0.054902446
000030 3a 4a 8a 3c 32 57 15 be 48 a3 d9 3c 8b 35 8b bc
       0.016881097 -0.14584044 0.026567116 -0.016993305
000040 b4 e4 83 3c 2c 83 bd 3c 33 d2 87 3c 5e 50 32 3e
       0.016100265 0.023133837 0.016579723 0.1741347
000050 da 17 ff bd dd f6 eb 3c 26 f7 f1 3d db 4e bb bb
       -0.12455721 0.028804237 0.11814718 -0.0057161874
000060 98 5e 05 3e b1 b1 18 3e 42 05 c7 3d 64 63 64 be
       0.13024366 0.14911534 0.097178 -0.2230354
000070 e2 1f 8e be f4 c9 26 3e 32 86 94 3c 93 17 b9 bd
       -0.277587 0.16287977 0.018130396 -0.090376996
000080 c0 fa 80 3d e3 cd 00 3e 00 e4 34 be 85 48 f2 3d
       0.06297827 0.1257854 -0.176651 0.11830238
000090 55 a1 b1 bb 5b 52 de 3d 06 8f 42 3d c7 db 25 3e
       -0.0054208436 0.10855552 0.04749968 0.1619712
0000a0 94 d3 14 3e ea 3e 79 bd 63 12 8b 3d 6f 5b 76 3d
       0.14533836 -0.060851015 0.06790616 0.06014579
0000b0 f8 c8 93 bd 39 ce ce 3d 0b 81 c0 3d 48 9c 1f bb
       -0.07216066 0.100979276 0.09399613 -0.0024354625
0000c0 bd f3 76 bc ae 4d de 3d e2 11 3e be f9 a5 a5 3d
       -0.01507276 0.1085466 -0.18561509 0.080882974
0000d0 87 95 83 bd 30 20 be bd ee 4a 09 bd b0 f8 c5 3d
       -0.064250045 -0.09283483 -0.033518724 0.09666574
0000e0 4c 60 a2 3d 2e bf ef 3d 27 bf 3d 3e d8 4c df bd
       0.079285234 0.117063865 0.1852995 -0.10903329
0000f0 e3 27 1e 3e d9 8d 29 bd 77 8b 1d be ca e3 f9 3d
       0.15444903 -0.041395042 -0.15385233 0.122016504
000100 4b 3d 07 be 82 c4 f1 bc b8 49 a4 3d 28 01 9a 3d
       -0.13206975 -0.029512648 0.08021873 0.07519752
000110 54 88 00 3a f3 58 11 3e a9 cd 96 3d 06 ce dd 3d
       0.0004903127 0.14194088 0.07363445 0.108303115
000120 6c 31 51 3d af eb 9b 3d 4d 80 26 3e b7 ca 31 be
       0.051072523 0.076133125 0.1625988 -0.17362486
000130 41 1a ce bd 78 27 bb 3d 9d 9f ee 3d 73 8f 0e 3e
       -0.10063601 0.091383874 0.116515376 0.13921909
000140 49 d5 40 be 13 64 05 be 66 00 c0 3d ea 87 1b 3e
       -0.18831362 -0.13026457 0.09375076 0.15188566
000150 88 5d d3 3c 2f 60 87 3c da d2 ab 3d 2f ec f2 bc
       0.025801435 0.016525356 0.08389826 -0.029653637
000160 dd 28 49 be cb f1 8f bd dd 67 05 3e ee d5 ad bd
       -0.19644494 -0.0702854 0.13027902 -0.084880695
000170 2d 7e 8d be 29 64 b6 bc 58 f1 a2 bd 1c 69 44 3d
       -0.27635327 -0.022264557 -0.07956189 0.047951803
000180 c8 0d cd 3d 64 3a 0f 3e 8e ac 10 be 98 d9 0d 3e
       0.10012394 0.13987118 -0.14128324 0.13852537
000190 27 eb e6 3d b3 d2 9b 3d c2 e6 28 3e 27 2d 58 bd
       0.112753205 0.07608547 0.16494277 -0.052777436
0001a0 4d c5 0b bd db ae 17 be 12 28 3b 3d 8f ee 48 3e
       -0.034123708 -0.14812796 0.04569251 0.19622253
0001b0 51 25 d5 3d b7 c3 fd bc 8c 90 4c 3d 1f 72 bb ba
       0.10407508 -0.030977113 0.04994254 -0.0014300979
0001c0 0d c7 32 3e 7f 69 e6 bd cb 13 39 3e f4 35 b3 3d
       0.17458744 -0.112505905 0.18073957 0.08750525
0001d0 11 ab b4 3d a8 7a 9f 3d 47 c4 21 3e f5 eb ee bd
       0.08821691 0.07787067 0.1579753 -0.11666099
0001e0 f8 3d 95 3d 16 54 1e be 1a 6b 26 3e d7 5a 2d 3e
       0.0728721 -0.15461764 0.16251794 0.16929184
0001f0 39 97 c5 3d 89 fa b8 3d 02 e1 11 be b9 ee 0d 3e
       0.09647984 0.09032161 -0.1424599 0.13860597

fc2.weight f4 [128, 128]
000000 0d 6e e9 bd 42 2e ab 3d 5d 86 ef bd 7a 06 37 3d
       -0.11397944 0.08358432 -0.1169555 0.04468391
000010 ef ea 08 3e 20 4b 2f 3e 5a f8 0d 3e 56 5f a4 bd
       0.1337087 0.17118502 0.1386427 -0.080259964
000020 64 62 02 be 20 b8 7d 3c 18 b1 da bd 5c 40 0c 3e
       -0.12732846 0.015485793 -0.10678309 0.13696426
000030 32 8a 1c 3e a7 4b 7e 3d a1 48 6d bd 6b d4 01 3e
       0.15287092 0.062083866 -0.057930592 0.12678687
000040 91 70 ec 3d 58 cf b6 3d e2 f5 63 3d c7 5a 9d 3d
       0.11544908 0.089262664 0.055654414 0.0768333
000050 04 8c a1 3d b5 6b 18 bd cb 3d 19 3e a6 92 b2 3d
       0.07888034 -0.037212092 0.14964978 0.08719377
000060 97 e0 60 3e 8b 96 b8 3d dd 22 7b ba 42 c6 83 bd
       0.21960674 0.09013089 -0.0009580085 -0.06434299
000070 3a bb 7e bd b3 ef 12 3e 49 43 02 3e e0 7e 1f bd
       -0.062190272 0.1434925 0.1272098 -0.038939357
000080 e2 58 2d 3d 7f cb aa bd 0d b7 96 bb 83 e4 d9 bc
       0.042321093 -0.08339595 -0.004599458 -0.02659822
000090 95 18 61 3c 0d d4 17 3d 6d 41 20 3e 52 a2 ee bd
       0.013738771 0.03706746 0.15649958 -0.11652054
0000a0 f6 60 60 3e 2c ae af bd e4 a9 c2 3d 54 13 22 3e
       0.21911988 -0.085781425 0.0950506 0.15827686
0000b0 65 09 3c bc 02 40 b8 3d 7b 56 69 3d 4a 64 69 bc
       -0.011476849 0.089965835 0.05696724 -0.014245102
0000c0 82 18 2c be 42 88 cb 3d 7d a5 1e be 8f 4c a6 bd
       -0.16806224 0.099380985 -0.15492816 -0.08120071
0000d0 dc 35 26 be b3 8c 8c bd 5e b2 fe 3c 96 f5 4f bd
       -0.16231483 -0.06862774 0.031090911 -0.05077132
0000e0 38 9f 76 3d cb 35 9e 3d 65 b3 9b 3d 94 ec 4f bd
       0.060210437 0.07725104 0.07602576 -0.050762728
0000f0 e5 d2 81 bd 75 43 14 be 4c 0f 81 3d c4 a6 23 3e
       -0.06339053 -0.14478858 0.06301746 0.15981585
000100 43 a6 4d bd b6 81 87 bd 7e fe 43 3c 2d f2 c3 3d
       -0.050207388 -0.06616537 0.011962531 0.09567676
000110 93 2d 18 3e e6 53 5e 3e 89 2f a2 3c a0 ef 03 3e
       0.14861135 0.21711692 0.019798057 0.12884378
000120 4e 4d c1 bc 35 67 80 bc 50 ca 8f 3c f9 58 0a be
       -0.023596432 -0.015674213 0.017552525 -0.13510503
000130 31 ad 11 3d 1f a8 47 bc f3 bd 14 3d 9e 4b e2 bb
       0.03556556 -0.012186079 0.036313962 -0.006905987
000140 e5 d8 ba 3d b7 61 eb bd e8 fc 2b 3e 10 7a 9b bd
       0.091234006 -0.11493247 0.16795695 -0.07591641
000150 5a 6f 53 3d 1d 8c 34 bd b2 f2 25 3e 81 07 c4 3d
       0.051619865 -0.044078935 0.16205862 0.09571744
000160 4d 43 35 3c 7b 9e 11 3e 75 c5 6b bd 09 40 d8 3d
       0.011063409 0.14220612 -0.057561357 0.10559089
000170 e1 e7 b1 bd 69 25 b4 bd 61 6f c1 3d 77 b8 f0 3d
       -0.086868055 -0.08796198 0.09445072 0.11753934
000180 a5 35 39 3d 5a e6 8d 3c 25 95 eb bd b6 28 10 3e
       0.045217175 0.017321754 -0.115030564 0.1407803
000190 fb 34 15 3e 41 4b ca 3c a6 42 31 3b 49 ee 13 be
       0.14570992 0.024694087 0.0027047782 -0.14446367
0001a0 80 da e2 3d 97 e2 f5 3b 7a 2c 1d be fb c7 d7 3c
       0.11076832 0.0075038183 -0.15348998 0.026340475
0001b0 8a d2 36 be 2a c5 c7 bc 52 8b ae bd 70 46 97 3d
       -0.17853752 -0.024386007 -0.08522667 0.07386482
0001c0 5d 14 16 be 8e 66 45 be 60 55 1f bd 2d 78 a4 3c
       -0.14656205 -0.19277403 -0.03889978 0.020076836
0001d0 8b 2a ed bc 41 87 8b bc 5d 44 ee 3d 02 43 94 bd
       -0.02895095 -0.017032268 0.11634133 -0.07239343
0001e0 38 db f3 3d 76 94 13 be 7e ee 1e 3e e8 84 2b 3e
       0.11907047 -0.14412102 0.15520665 0.16749918
0001f0 df 88 f6 3c 56 bf 95 3d 46 60 31 bd 2c 30 4a 3e
       0.030094562 0.07311885 -0.043304704 0.19744939
000200 ca 93 05 be d0 28 45 be e7 27 3a bc de 61 a3 3d
       -0.13044658 -0.1925385 -0.0113620525 0.07977651
000210 1e 1b b1 bc 64 81 6f bd ee 72 38 3d ab ae 86 3c
       -0.021619376 -0.058473006 0.04503148 0.01644071
000220 3a 45 14 be 07 47 87 be 0b a4 c7 bd e7 92 51 3e
       -0.14479533 -0.26421377 -0.097480856 0.20466195
000230 f0 af d1 3d ae 0f 95 bd e9 b3 62 bd 24 7a b1 3c
       0.102386355 -0.07278381 -0.055347357 0.021664687
000240 63 67 de bb ff 94 f3 bc 8b 49 e2 bc 1c 4a 14 3c
       -0.006787227 -0.029734133 -0.027622959 0.009050872
000250 82 78 82 bd 29 e6 e6 bc ce f3 84 bd 1a 4a cf 3d
       -0.06370641 -0.02818592 -0.064918146 0.101215556
000260 f9 f0 a5 bd 44 9c 14 3d 22 8c b6 3d 61 1a ad bd
       -0.081026025 0.03628184 0.08913447 -0.08452297
000270 d9 3a 2e 3c 03 ef af 3d cb 08 3a bd 7b 8f ff bd
       0.010634148 0.0859051 -0.045418542 -0.124785386
000280 2b a6 81 3c 2c 60 df 3d f4 69 a8 bd 2d d1 f5 bd
       0.015826305 0.10907015 -0.08223334 -0.12002788
000290 0c 0d 9b 3d 77 99 bc 3d 11 9d 12 3e 27 91 0f 3e
       0.07570848 0.092089586 0.14317729 0.14020215
0002a0 b2 44 c9 3d 8c c5 39 3d 66 5e 3b be 90 d9 8f 3d
       0.09827556 0.04535441 -0.18297729 0.07023919
0002b0 ab 2b 38 3c 5d 5e c0 bd 2a f7 dd bd bd 95 4c 3d
       0.01124088 -0.09392998 -0.108381584 0.04994749
0002c0 92 9a 9b bd 47 b7 a2 bd 81 66 b8 3c 22 63 36 3c
       -0.07597841 -0.07945114 0.022509815 0.011132034
0002d0 1a f2 d7 3d 89 b2 bf 3d 63 c7 dc bc f2 dc 0e 3e
       0.10544224 0.09360225 -0.026950544 0.13951471
0002e0 e4 72 3f be 21 57 0a 3e ca 2c 8e bd 71 bc b7 3d
       -0.18696171 0.135098 -0.069421366 0.08971489
0002f0 d7 c7 1e be 96 d5 80 bd 36 58 ed 3d 4b 25 02 3e
       -0.1550592 -0.06290738 0.115890905 0.12709539
000300 db 4a 15 be f5 18 95 3c eb 1d 0b be 50 b0 c4 bd
       -0.14579336 0.018200377 -0.13585632 -0.096039414
000310 51 e6 00 3e ca cb 7d bd c4 40 9f bc 72 41 bb 3c
       0.12587859 -0.061961927 -0.019440062 0.022858355
000320 f2 c4 8c bc aa c5 5a 3c 0f 54 90 be d6 81 06 be
       -0.017183755 0.013352791 -0.28189132 -0.13135466
000330 de a4 d9 3d 0e bf 01 3e 8f b8 3b bd 51 d9 52 3e
       0.10627149 0.12670538 -0.045830306 0.20590712
000340 4d dd 05 be 38 6b 51 be 3b 48 12 3e 93 2b 1f 3e
       -0.13072701 -0.20451057 0.14285366 0.15543966
000350 3b b7 e0 3c 6a ed a3 bd 37 cd 69 bd 79 b8 41 bc
       0.027431121 -0.080042675 -0.057080474 -0.011823767
000360 a7 40 7e be 82 40 be 3d 19 95 0f 3d 42 ff f2 bb
       -0.2482935 0.09289648 0.0350543 -0.007415683
000370 22 6e 24 3d cb 78 ab bc d8 5a 44 3e c0 c5 47 3e
       0.040144093 -0.020931622 0.19175279 0.1950903
000380 0c b0 36 bd fd 39 26 3e 4d 56 0b be 01 e4 9d bc
       -0.044601485 0.16233058 -0.1360714 -0.01927376
000390 d4 04 d3 bc 89 85 e3 bd 26 c2 07 be 76 83 06 be
       -0.025759138 -0.11109454 -0.13257656 -0.13136086
0003a0 b6 43 95 bd bc 91 d4 bd 5a 09 87 bd 00 cd f1 3d
       -0.072883055 -0.10379359 -0.065935805 0.11806679
0003b0 98 64 23 be 5d 29 2a 3d 0f 03 30 3d 7d 20 6b be
       -0.15956342 0.041543353 0.042971667 -0.22961612
0003c0 3f ad 64 bd ab a0 f6 3c 11 24 65 bd 8f 8b 9f bb
       -0.055829283 0.03010591 -0.0559426 -0.0048689316
0003d0 1c e8 3b be f9 be 33 3e b7 7b 2a bd fd 30 30 3e
       -0.18350261 0.17553319 -0.04162189 0.17206188
0003e0 72 85 44 be d6 40 04 3e 56 51 a4 bd 66 65 54 3d
       -0.1919153 0.12915358 -0.08023326 0.051854514
0003f0 64 b0 21 3e f1 19 82 3d 2f 6e 2c 3e 97 01 93 bd
       0.15789944 0.06352604 0.16838907 -0.071780376

fc2.bias f4 [128]
000000 1e d4 cc 3d e0 cb 84 3d 5a f5 7b 3d 0a 5d ba 3d
       0.10001396 0.064841986 0.061513282 0.09099777
000010 8e ca 91 bd 72 dd 01 3e b9 40 28 3e 22 6b ab 3d
       -0.07118712 0.12682131 0.1643094 0.08370043
000020 83 bc 18 3e 5f ab ea 3d 3f 85 02 3e 5b 49 bf bd
       0.14915662 0.11458468 0.12746142 -0.09340163
000030 e9 f8 ed bb e5 9d e8 3d 52 52 c7 3d ec 6b a8 3d
       -0.0072623384 0.11358241 0.09732498 0.082237095
000040 c7 95 e2 3d 07 b9 3a bc 53 0f dc 3a d1 34 14 bd
       0.11063724 -0.011396653 0.0016789235 -0.036183182
000050 30 bb 16 3e ab 4a e9 3d bb a1 34 3e 9e 82 e4 3d
       0.14719844 0.11391195 0.1763982 0.11157726
000060 a6 60 d9 bc 16 94 02 3e 5e f4 b7 3d e2 10 84 bd
       -0.026535343 0.12751803 0.08982156 -0.06448533
000070 90 65 16 bd a4 3e 1f bd ca 06 fa 3d 13 bf 03 bd
       -0.03671795 -0.038878098 0.12208326 -0.032164644
000080 86 60 a8 3d 69 29 6f 3c fe e1 88 3d df a7 0d 3e
       0.082215354 0.014597275 0.066837296 0.13833569
000090 ba 5a f7 3d df e2 cb 3d 19 6a 19 3e dc c9 f0 3d
       0.120778516 0.099553816 0.1498188 0.117572516
0000a0 76 29 cf 3d 07 b4 f3 3d 85 0d d9 3d 80 80 d5 3d
       0.1011533 0.11899572 0.10598282 0.104249
0000b0 67 18 32 39 3d ac b6 3d a5 40 b1 3d a9 97 d8 bd
       0.00016984493 0.089195706 0.08654908 -0.10575802
0000c0 45 eb 8c bd 05 96 1d bc cb 87 d5 3d e8 03 f0 3d
       -0.068808116 -0.009618287 0.10426291 0.11719495
0000d0 cd 10 fa 3d a2 09 db 3d 94 4f 82 bd cd 1b 99 bd
       0.12210236 0.10695197 -0.063628346 -0.07476006
0000e0 2a 02 3e bc 71 53 a7 3d 11 87 d5 3d ca b3 d0 3d
       -0.011597196 0.08170212 0.104261525 0.10190542
0000f0 6d 12 07 3e 7c ab eb 3d 18 db 78 3d c6 eb ce 3d
       0.13190623 0.115073174 0.06075582 0.10103564
000100 c1 33 3e bd ec ea d5 3d b1 47 ed 3d 31 d4 9f 3d
       -0.046436075 0.104451984 0.1158594 0.07804144
000110 ce a2 0b 3e 45 8e ca bd 8d 84 87 3d 8e 3b cd 3d
       0.13636324 -0.09890417 0.06617079 0.10021125
000120 8f 0d 04 3e dc 93 c4 3d 62 64 93 bd 8c be 62 bd
       0.12895797 0.095985144 -0.07196881 -0.0553575
000130 6c e9 fe 3d 2a 2d a9 3d bd 3f 0c 3c 7f 37 cc 3d
       0.124468654 0.082605675 0.008560118 0.099715225
000140 8d 75 e8 3d f8 18 d3 3d 2f 6b c3 3d c1 c7 02 3e
       0.11350546 0.10307497 0.09541928 0.12771513
000150 8b 4d c6 3d 06 1c dd 3d b9 3f f2 3d 79 07 02 3e
       0.09682759 0.10796361 0.118285604 0.12698163
000160 a3 f5 b2 bd 2b ef c1 3d e2 6a 9a 3c 6c 68 d7 3d
       -0.08738258 0.09469446 0.018849794 0.10517964
000170 b3 04 e1 3d 32 ff 87 3d 2a 6e 18 3c 60 45 f2 3d
       0.109872244 0.066404715 0.009303609 0.118296385
000180 b0 9d b9 3d 2b 22 8f bd 28 41 08 3e 00 5b d1 bd
       0.0906328 -0.06988939 0.13306105 -0.10222435
000190 05 5c e3 3d 84 2e 00 3d 11 df 0d bd b0 1d 16 3e
       0.11101536 0.03129436 -0.03463656 0.14659762
0001a0 df 79 f2 bc 2f 8b 82 bd 27 22 85 3d d1 19 ea 3d
       -0.029599128 -0.063742034 0.06500655 0.11430705
0001b0 fd 49 c7 3d 01 fb 24 bd 62 b8 cc 3d 72 e1 f4 3d
       0.09730909 -0.04027844 0.09996106 0.11957063
0001c0 8e 83 22 bd 9f df 82 3d 93 c8 8a 3d dd 40 d7 3c
       -0.03967624 0.063903086 0.06776538 0.026276046
0001d0 e5 8d b5 3d 2c e8 e0 3d 25 97 1d 3e be 93 aa 3d
       0.08864955 0.10981783 0.15389688 0.08328961
0001e0 e0 ec a2 bd 98 ce c9 3d 66 93 11 bd 1e 6c 91 3d
       -0.079553366 0.09853858 -0.03554096 0.071007
0001f0 eb 40 d0 3d 6e e1 0d 3e 8c c6 ff 3d 96 7a ec 3d
       0.10168632 0.13855526 0.12489042 0.11546819

fc_value.weight f4 [128, 128]
000000 65 67 1e 3e 26 ac 42 3e 7f d9 0e 3e cb 8a f3 bc
       0.1546913 0.19010982 0.13950156 -0.029729268
000010 0a 8e 92 be a4 bc 62 3c b1 c7 00 3e 24 79 a9 bb
       -0.28623992 0.013838921 0.12576176 -0.005171912
000020 04 01 93 3d a9 46 56 bd 90 e0 e9 bd 21 ee 46 be
       0.07177928 -0.05231348 -0.11419785 -0.19426776
000030 77 94 f4 bd 34 9e 99 bd 11 00 4b 3e aa 1f 26 bd
       -0.1194238 -0.07500878 0.19824244 -0.04055754
000040 e2 df fd bc 3d 6c 12 bd 83 2f f9 3d 70 6f 8e be
       -0.030990545 -0.035747755 0.12167265 -0.27819395
000050 78 85 1e 3e 82 ef 63 3d 7a 28 98 3d e7 12 96 3d
       0.15480602 0.055648334 0.07429595 0.07327824
000060 f4 17 5a 3e d9 69 88 bd 3a 12 38 3e 3e 46 6d be
       0.212982 -0.06660814 0.17975703 -0.23171327
000070 8f b0 6a be bd c4 2a 3d 08 17 ac bd e5 9b 7a bd
       -0.22918914 0.04169153 -0.0840283 -0.06118383
000080 57 63 a2 3d 43 76 00 be a3 30 14 bd f5 00 6e 3d
       0.07929104 -0.12545113 -0.036179196 0.05810638
000090 7e 7f 0c 3e b1 eb d3 3c d7 08 0d 3e eb 08 2b 3e
       0.1372051 0.025869222 0.13772903 0.1670262
0000a0 9f 82 58 3e 45 3a b4 bb 8b d7 2e 3e cc 4f 86 bc
       0.21143578 -0.0055001103 0.1707441 -0.016395472
0000b0 e1 62 88 3e ea b0 41 3c 79 6f 52 3e 04 35 99 be
       0.2663794 0.011821965 0.20550336 -0.2992326
0000c0 45 6b 6a be de 60 88 3c 2a d5 ae 3d 18 37 cd 3d
       -0.22892483 0.016647752 0.085367516 0.10020274
0000d0 f3 d7 6e bb 9e 7a ad 3d cf 7f 68 be e2 bc 1b 3d
       -0.0036444634 0.08470653 -0.22705005 0.03802193
0000e0 6b 13 e1 bd 70 e0 83 bd f4 ce 25 3e b2 46 17 3d
       -0.10990032 -0.064392924 0.16192228 0.036932655
0000f0 4e 1f 4b 3e c2 de 16 3e 82 89 43 3e 9a a5 14 3e
       0.1983616 0.14733413 0.19095424 0.14516297
000100 e0 1d 25 be 46 3c 75 3e a6 6c 57 3e a0 0c 53 3e
       -0.16124678 0.23948774 0.2103754 0.20610285
000110 8f 38 8b 3e 43 83 98 be 22 a5 47 3e 6f 63 40 3d
       0.27191588 -0.29787645 0.19496587 0.046969827
000120 bb 42 28 3d c5 39 02 3e ba f1 05 be 7a 27 b0 3d
       0.041079264 0.1271735 -0.13080493 0.086012796
000130 20 f4 68 3c 7c 85 19 bd 67 d3 83 3e 7d be f8 3c
       0.01421836 -0.037480816 0.25747225 0.03036427
000140 45 00 1a ba 02 e7 b1 3c 33 d7 e6 3d 39 ff 64 3e
       -0.0005874674 0.021716598 0.11271515 0.22362985
000150 08 8c c8 3d 24 37 d0 3d 44 c0 57 bc 13 d3 60 3e
       0.09792334 0.10166767 -0.013168398 0.21955518
000160 0f 0a 8f be e5 63 32 3e 15 05 1e 3e 38 85 d2 bc
       -0.27937362 0.17420919 0.15431626 -0.02569829
000170 a2 b8 38 3e 94 64 93 3b 57 be a8 bc d1 12 87 bd
       0.18039182 0.004498074 -0.020598574 -0.06595386
000180 10 4b 69 3d 0e 4e a8 be 9b 98 2c 3e 2d f0 8e be
       0.05695635 -0.3287205 0.1685509 -0.27917615
000190 d0 71 ed 3d fd d5 90 3e 54 a7 67 be a7 03 27 be
       0.11593974 0.2828826 -0.22622424 -0.16309987
0001a0 c2 7e 1d 3e 3a 16 86 be 6b 62 03 be 9c 52 1e 3e
       0.15380386 -0.26188833 -0.12830512 0.154612
0001b0 ea 46 ba bd 6d 88 21 bf 79 7a 58 3d c0 67 81 bc
       -0.09095557 -0.63098794 0.052851174 -0.015796542
0001c0 18 14 21 be ad 4a bb bd 2b f7 87 bd 0f fe 0d 3e
       -0.15730321 -0.09145103 -0.066389404 0.13866447
0001d0 2e 61 3a 3e f6 15 c3 3d d7 69 94 3d fc ef 27 3e
       0.18201134 0.09525673 0.0724675 0.1640014
0001e0 ff e1 ce bd 5c 6c b9 3d 97 21 21 3c ab 7f 54 3e
       -0.10101699 0.09053871 0.009834669 0.20751826
0001f0 e5 25 20 3e ca db 2e 3e 94 57 54 3e 55 03 37 3d
       0.15639456 0.1707603 0.20736533 0.044680912
000200 7a 15 2d 3e ec 15 7e 3e f5 1e 28 3e 00 18 2e 3d
       0.16902724 0.2481305 0.16418059 0.042503357
000210 a6 08 70 be fd e9 80 3c 17 4d c9 3d a9 3c b8 3d
       -0.23440799 0.015736574 0.09829157 0.08995945
000220 29 d0 c6 bc 3e bb 36 3c c2 40 56 3d 57 08 78 be
       -0.02426918 0.01115304 0.05230785 -0.24221931
000230 72 59 15 be 8d 90 9d bd 48 50 19 3e b1 74 49 3e
       -0.14584902 -0.076935865 0.14972031 0.1967342
000240 88 1b 8a bd 87 81 9c 3d 47 b8 c6 bd 81 13 ba be
       -0.067435324 0.07641893 -0.09703117 -0.36343005
000250 b7 0d 77 bd 01 11 92 bc cd 25 01 3e 1e 90 a0 3d
       -0.060315814 -0.017830374 0.12612076 0.07839988
000260 a5 a1 a0 3d d7 a4 78 bd 10 9b 21 3e 76 aa 91 3d
       0.07843331 -0.06070408 0.15781808 0.07112591
000270 cf 2f 7c be 03 20 1e 3c 9f 37 07 3e 29 30 90 bd
       -0.24627613 0.009651187 0.13204812 -0.07040436
000280 72 6f 4d bd 86 a4 e6 3c ef 05 10 3d f1 67 1a 3e
       -0.05015511 0.028154623 0.03516191 0.15078713
000290 c2 56 f5 3c 68 75 92 3e 75 ea 9a 3b 43 ae 39 3e
       0.029948596 0.286052 0.0047276565 0.18132882
0002a0 64 84 85 3d 54 a1 b4 bc 1f 99 36 3e 0f 67 78 3c
       0.06519392 -0.022049583 0.17831849 0.01516129
0002b0 bc 9a 37 3e 7d ef 08 bc 02 14 53 3e 67 32 c9 bd
       0.1793012 -0.00835788 0.20613101 -0.098240666
0002c0 f3 18 ba be 55 53 94 3d 6d a4 8e 3d 74 23 42 3e
       -0.3634716 0.07242457 0.069649555 0.18958837
0002d0 fd 48 4b bd a8 b5 48 3e 12 e8 f8 bd ec aa a9 bd
       -0.049630154 0.19600546 -0.12153639 -0.08284554
0002e0 7d bb 13 be 1d 7b 6a bd b0 0d 54 bc 1d 1a b2 3d
       -0.1442699 -0.057246316 -0.0129427165 0.08696387
0002f0 a7 e7 5f 3e b7 4f 0c 3e f7 f5 b0 3d 8e 64 30 bc
       0.21865712 0.13702284 0.08640664 -0.010766162
000300 f5 20 16 be db e4 83 3e e8 d9 1f 3e a5 45 2b 3d
       -0.1466101 0.2576054 0.15610468 0.041814465
000310 dd b1 83 3d b7 a5 1d be fb 2e 97 3d ab 80 80 3d
       0.06430409 -0.15395246 0.07382008 0.062745415
000320 75 2f fa bb a7 42 3f 3e e5 e8 45 bd f3 01 ae 3c
       -0.007635052 0.1867777 -0.04831781 0.021241164
000330 a5 ae ca 3d d0 b4 18 3d 23 74 b5 3e 56 2a 13 3d
       0.09896592 0.03728181 0.35440168 0.035929047
000340 92 0a 21 3e 11 40 13 3e 2d 81 b5 3d d3 60 4e 3e
       0.15726689 0.14379908 0.08862529 0.20154123
000350 8c 56 d8 3d 6c 8c 66 3e 3b 20 46 3e c8 5a d9 3d
       0.105633825 0.22514504 0.19348232 0.10613018
000360 2e 0a 2d bd 73 4e 70 bd e5 15 ad 3c 60 61 4b 3e
       -0.042246036 -0.058668565 0.021128604 0.19861364
000370 df 98 cc 3d 06 9d 15 3e 94 4f eb bd ad 4e 93 3d
       0.09990095 0.14610681 -0.11489788 0.071927406
000380 ed d8 7b 3d 16 72 d7 be f2 cd 2d 3d d2 fd 33 be
       0.061486173 -0.42079228 0.042432733 -0.17577294
000390 fc 8c 85 3e c7 30 ac 3e 99 d0 a2 3c 2f 16 b5 bd
       0.26084125 0.33630964 0.019874858 -0.08842122
0003a0 80 d4 3b 3d 7c 30 b4 be f1 93 eb bd 79 fa 43 3e
       0.045856953 -0.3519324 -0.11502827 0.19138516
0003b0 37 bd 6d bc 52 dd a7 be 03 98 3b 3e 6b aa 35 3d
       -0.014510444 -0.32786041 0.18319707 0.044351976
0003c0 95 f3 26 be 5e 7c ea 3d d5 90 8d bc 34 17 6b 3e
       -0.16303857 0.114495024 -0.017280975 0.2295807
0003d0 1c fe 11 3d df b2 18 3e d7 24 5b 3e 1c cf 94 3c
       0.03564273 0.14911984 0.21400772 0.018165164
0003e0 06 a6 31 be 9f 4f 22 3c 83 64 39 3d 86 70 f0 3c
       -0.17348489 0.009906678 0.04526187 0.02935053
0003f0 88 17 6f 3c ec 6b 00 3e 58 c5 e9 3d a5 1e 67 3d
       0.014593013 0.12541169 0.114145935 0.05642571

fc_value.bias f4 [128]
000000 93 27 b3 3d 59 8b bd 3d 7d 78 ab 3d 7b f7 d7 3b
       0.087477826 0.09255094 0.08372591 0.0065907813
000010 22 31 98 3d 2f 72 08 3b 3b d1 b4 bb 79 47 c2 3d
       0.07431246 0.0020820012 -0.0055181063 0.094862886
000020 fd b1 ba 3d 42 15 32 bb 00 00 00 00 b6 1c 26 3d
       0.0911598 -0.0027173315 0.0 0.040554725
000030 71 27 4b bd 91 e9 74 bd 04 2e 34 3d 2a ee ad 3c
       -0.04959816 -0.05979306 0.043989196 0.02123173
000040 45 5b 7d 3d 5e 17 b2 3d 1c e5 ba 3d 92 42 1a bb
       0.06185462 0.08695863 0.091257304 -0.0023538214
000050 fd 91 21 3c 71 94 8e 3c 92 3b 7f bc 99 9f c0 3d
       0.0098614665 0.017404767 -0.0155781675 0.09405441
000060 ec 87 04 bc f9 a3 35 bc 9b 9c a8 bb 7b 0c 7d bb
       -0.008089047 -0.011086457 -0.005145622 -0.0038612175
000070 8c 88 ec 3c 39 4a ba 3d 08 c3 6f bc 2f e4 80 bc
       0.028873704 0.09096188 -0.014633901 -0.015733806
000080 4a 0d 4e 3d 20 44 ad 3d 96 92 00 3d d3 52 c3 3d
       0.050305642 0.084602594 0.031389795 0.09537282
000090 e1 bb cb 3d 8c 17 ab 3d 93 c8 c0 ba 7c f7 b7 3b
       0.099479444 0.083541006 -0.0014708213 0.0056142192
0000a0 45 f2 82 ba c4 86 bb 3d e8 86 ae 3d bc 01 01 3e
       -0.0009990415 0.09156564 0.08521825 0.12598318
0000b0 57 96 71 3d 8e f0 af 3d 05 a6 aa 3d 84 b8 c9 3d
       0.058981266 0.08590804 0.08332447 0.09849647
0000c0 ad 3d 7b 3d bb 3e ab 3d cf 53 72 3d 6c 52 d0 3d
       0.061338115 0.08361574 0.059161957 0.10171971
0000d0 76 8b f3 3d 00 00 00 00 88 37 51 3a 6f 8c b0 3d
       0.118918344 0.0 0.0007980992 0.086205356
0000e0 cb 9f b8 3d 39 c4 45 3d 3a d3 a4 3c 1d f5 0b 3e
       0.09014853 0.048282836 0.020120252 0.13667722
0000f0 f0 79 fe 3c 2a 43 8f 3d dc b6 45 3d 0b ff b0 3d
       0.031064004 0.069952324 0.04827009 0.086423956
000100 5a dc c5 3d 9e 0f c0 3b 4b 15 96 3d e0 02 02 bd
       0.09661169 0.0058612367 0.0732828 -0.031741023
000110 5b f4 d4 3d a2 70 1c 3b 9b f7 56 3d 02 3a 64 3d
       0.103981696 0.0023870845 0.05248223 0.055719383
000120 b4 54 b1 3d 13 e7 b9 3d de 31 96 3c 34 0c 19 3d
       0.08658734 0.09077277 0.018334325 0.037365153
000130 1e 50 b1 3d a5 bd b2 bc ef 99 80 bc 8c 36 d5 3d
       0.08657859 -0.021818945 -0.015698401 0.104107946
000140 85 df af 3c 00 00 00 00 63 82 e1 3d 09 dd 06 3d
       0.021468887 0.0 0.110111974 0.03292564
000150 8e 26 55 bc dd 2a fd 3c bb c4 b4 3d 19 b6 32 bc
       -0.01300968 0.030904228 0.08826586 -0.010907673
000160 b4 66 8a 3b 1f 1f b1 3d db 49 fa 3d 78 ad 5d 3d
       0.004223669 0.08648514 0.12221118 0.05412051
000170 2d 53 0e 3b 6d 50 bf 3d 6d a5 46 3d 90 1c ad 3d
       0.0021717057 0.09341512 0.048497606 0.084527135
000180 e9 09 36 3d bd 10 bb 3d 6c a6 8c 3b 36 64 c0 3d
       0.044443045 0.09134052 0.0042923 0.09394114
000190 77 5a 14 3d 4f 6f b2 3d dc 38 05 3c c0 23 81 bc
       0.036219086 0.08712637 0.008131232 -0.015764117
0001a0 46 30 13 3c ee 81 ef 3c ab f3 aa 3d 55 0f b0 3d
       0.008983677 0.02923676 0.08347257 0.08596674
0001b0 52 1c c3 3d 5a 5d ad 3d 91 95 d1 3d cd 7b e4 3d
       0.09526886 0.08465071 0.10233606 0.111564256
0001c0 71 6a bc 3d 1d cd 91 bc 99 b5 aa 3d be da c6 3d
       0.091999896 -0.017798001 0.08335418 0.097096905
0001d0 ed 09 21 3d 59 a6 2c bc 7f c8 36 bc 98 38 b5 3d
       0.039316107 -0.010537707 -0.0111562 0.08848685
0001e0 04 78 ac 3d 4b 6d ae 3d 2c 04 0d 3c d9 24 c8 3d
       0.08421329 0.0851694 0.008606952 0.09772653
0001f0 84 eb bf 3a c1 8a b6 3c b2 c1 8e bc a8 7f 98 bb
       0.0014642333 0.02228296 -0.017426345 -0.0046538897

value.weight f4 [1, 128]
000000 0c c9 a0 be f3 52 48 be e0 4c 92 be da 7f e7 3e
       -0.31403387 -0.19562893 -0.28574276 0.4521473
000010 9a e2 57 3f 27 fe e1 3d 6c f7 2e bf fe ab 9e be
       0.8433014 0.11034804 -0.68346286 -0.30990595
000020 55 7d 9a be a1 cf d7 3d 60 3c 09 3d 08 4d 05 3f
       -0.30173746 0.10537649 0.033504844 0.52070665
000030 c4 63 b8 3e 82 07 6e 3f 45 f4 33 3f d9 ac c9 3e
       0.36013615 0.92980206 0.702946 0.39389685
000040 8f a6 f6 3e 03 35 6d be ba ce a4 be 93 b0 d2 3e
       0.4817395 -0.23164754 -0.3218897 0.4115034
000050 af a6 c8 3d ae fe f9 3e 92 73 d7 be 3d 83 03 be
       0.09797417 0.48827118 -0.4208036 -0.12843032
000060 6c 82 f5 be 21 c3 4d 3f 3f 4b f7 3e 46 33 08 3f
       -0.47951066 0.8037587 0.48299596 0.5320324
000070 cf ba b0 3e e3 b3 23 be 1b 7a 6b 3f dc c0 7b 3e
       0.34517524 -0.1598659 0.91983193 0.24585289
000080 4f 9e 06 3f 46 04 3e be 48 ee 41 3f c2 dc 0b be
       0.5258531 -0.18556318 0.75754213 -0.13658431
000090 16 c3 13 be 5c e1 71 be 94 e6 53 3e e1 c0 89 3f
       -0.14429888 -0.23621124 0.20693427 1.0761987
0000a0 f5 47 b3 3e 5a c8 c8 bd 28 39 84 be 1c 7d 5e be
       0.35015836 -0.09803839 -0.25824857 -0.21727413
0000b0 c6 18 3c 3f 3b 5e 78 be 18 c9 91 be f5 7a 2a be
       0.734753 -0.24254696 -0.28473735 -0.16648467
0000c0 67 0d b6 3e b9 23 70 be a2 27 e1 3e 30 42 52 be
       0.355571 -0.23451127 0.4397555 -0.20533061
0000d0 2f 2e 9c be 99 69 04 be 4f a0 23 bd 3c f0 7b be
       -0.30503985 -0.12930907 -0.039947804 -0.24603361
0000e0 2a 2e 0a be 0f 28 3f bf ad 79 10 3f 1e 30 79 be
       -0.13494173 -0.746705 0.5643566 -0.24334762
0000f0 ae 28 b2 3e ee 41 0b bf ac 6b 0d 3f 29 2b 94 be
       0.3479666 -0.54397476 0.5524242 -0.2893918
000100 35 3f 52 be 69 86 94 3e 66 93 98 3f 7c 1e 49 3f
       -0.20531924 0.29008797 1.1919982 0.7856214
000110 99 e8 81 be 5a cf a3 3e b2 71 ba bd 8f 33 49 3f
       -0.2537277 0.31994134 -0.09103717 0.785943
000120 53 2f 08 be 54 0a eb be 78 d7 e4 3e ae 50 f5 3e
       -0.13299303 -0.45906317 0.4469564 0.47913116
000130 91 ff 44 be 81 9c 36 3e bb 06 67 3e 71 c1 96 be
       -0.19238116 0.17833139 0.22561161 -0.2944446
000140 d4 34 8a 3f ed 15 ce bd 8e 2a 39 be e4 d7 ee 3e
       1.0797372 -0.10062776 -0.1808264 0.46649086
000150 91 42 44 3f 54 fd 63 3f 29 71 a4 be f2 4b bd 3e
       0.7666407 0.89058423 -0.32117584 0.36972004
000160 88 13 d1 3e 55 9f 08 be 61 db 41 be c4 ed d7 3e
       0.40835214 -0.1334203 -0.18931343 0.42173588
000170 c8 3b 29 3f 36 17 99 be 50 41 7b 3e 02 02 6d be
       0.66106844 -0.2990052 0.24536633 -0.23145297
000180 fd c7 4c bd 64 66 68 be e8 25 01 3f 24 4a 9d be
       -0.04999541 -0.22695309 0.50448465 -0.30720627
000190 81 ac f9 3e 7b 07 7a be c4 35 57 3f e1 cc 24 be
       0.48764423 -0.24416916 0.84066415 -0.1609378
0001a0 df d7 0b 3f 00 b0 e4 3e fe c1 92 be 24 cb 88 be
       0.5462627 0.44665527 -0.2866363 -0.26717484
0001b0 11 52 46 be 30 19 6f be 17 95 aa be 80 d0 a2 bd
       -0.19367243 -0.23349452 -0.33316872 -0.079499245
0001c0 09 ef db be c8 c5 9e 3d c1 c7 95 be 24 fc 6e be
       -0.42955807 0.077525675 -0.29253963 -0.23338372
0001d0 7c c6 c6 3e 40 88 10 3e c5 ec 43 3e 6d 67 8a be
       0.38823307 0.14114475 0.19133289 -0.27032033
0001e0 30 3d 84 be 30 22 1e be 31 b4 20 3f ca a3 26 be
       -0.25827932 -0.15442729 0.6277495 -0.16273418
0001f0 5f 91 18 3f 96 a2 9d 3e bd 39 4c 3a ec 38 22 3e
       0.5959682 0.30788106 0.0007790586 0.15842026

fc_adv.weight f4 [128, 128]
000000 bd 30 9f 3d 43 86 b8 3d c6 a4 6c 3d d3 40 8b 3d
       0.07772968 0.090099834 0.057774328 0.067994736
000010 7c 38 60 bb 9c 90 b1 bc 35 71 a2 be 8b 12 0e be
       -0.0034213355 -0.0216754 -0.31726995 -0.13874261
000020 e4 a3 75 3d 06 e5 9a 3d 94 4c b3 3c af 70 73 3c
       0.05997075 0.07563214 0.021887101 0.014858409
000030 8e 2c a0 3d 81 ea 87 bd fa 2d dc bc 5f 9c db bd
       0.07820998 -0.06636525 -0.026877392 -0.10723185
000040 bd e7 e0 3d 44 d9 de 3d 9b d4 81 bd 89 ad ce bd
       0.109817006 0.10881284 -0.063393794 -0.10091693
000050 44 95 03 be af 23 ba bd 99 48 14 3e 1f 50 24 3e
       -0.12849909 -0.09088837 0.14480819 0.16046189
000060 82 9f 76 be 8b 7f 70 be 28 55 e6 3a ba 79 32 be
       -0.24084285 -0.23486154 0.0017572986 -0.17429247
000070 1e 59 02 3e 46 a8 5f 3b f7 43 9c bd f5 7b 0e be
       0.12729308 0.0034127398 -0.07630151 -0.13914473
000080 20 6c 0a be 06 4f 63 bd 3d d2 e5 3d c0 cc 22 3e
       -0.13517809 -0.055495284 0.112217404 0.15898418
000090 b7 10 14 be 6d 95 81 3e ef 1e 8f bb ba 12 63 3e
       -0.14459501 0.25309315 -0.0043677012 0.22175112
0000a0 79 3a 14 3e 5d 01 a6 bd 2b e3 e8 3d a3 90 18 3e
       0.1447543 -0.08105729 0.11371454 0.14898925
0000b0 c1 91 7c bd e3 e4 11 3e fe 15 c9 bd 72 b5 3a 3d
       -0.06166244 0.1424747 -0.09818648 0.045583196
0000c0 8f ab 90 be f9 20 bf bd ab fb 9e 3c a1 cc d1 bd
       -0.2825589 -0.09332461 0.019407114 -0.10244108
0000d0 e5 10 55 be 59 11 b1 3d 8d 6a 44 3c 73 41 0d be
       -0.20807226 0.08645887 0.011988294 -0.13794498
0000e0 38 e1 05 3e d8 3a 22 3e 37 2c 1c be 67 4d 84 3d
       0.13074195 0.1584276 -0.15251242 0.06460076
0000f0 1b 25 66 bd cf b5 39 3e a1 88 39 3d eb 29 29 3e
       -0.05618773 0.1813576 0.045296315 0.16519897
000100 00 6a bc 3d 07 c0 02 ba 11 04 2c be bc b9 87 bd
       0.091999054 -0.0004987721 -0.16798426 -0.06627223
000110 a3 c0 95 3d d3 ea b7 be 2e 5e e4 3b 53 1a 67 3d
       0.07312133 -0.35921344 0.006969235 0.05642159
000120 0e 39 41 be ac ef 3f 3d 27 05 01 3e c8 23 a7 3c
       -0.18869421 0.04685943 0.12599622 0.020402804
000130 8a ed a1 bd d7 1c ab be 8c aa 10 be 94 1c 26 3d
       -0.07906635 -0.3342044 -0.14127558 0.040554598
000140 5b 47 02 3e ea e5 34 3c ae b0 cc ba b0 b6 b7 bd
       0.12722532 0.011041144 -0.001561662 -0.08970392
000150 a6 2c e2 bd 1a 39 7a 3d 23 22 3f bd 15 b3 93 bc
       -0.11043672 0.061089613 -0.046663415 -0.018029729
000160 a6 5b 00 3e d4 84 c7 3c a4 27 98 3d a6 7a 0b be
       0.12534961 0.02435533 0.07429436 -0.13621005
000170 c7 4a 27 3e 2b 3b c9 bd a2 c6 91 bd fb 38 97 bd
       0.16337119 -0.098257385 -0.07117964 -0.07383915
000180 af b4 ad bd 6a 5c fc b9 43 4e 89 bc cb 54 91 3d
       -0.08481728 -0.0004813404 -0.01676095 0.07096251
000190 ff e7 44 3d 7a 12 ae 3d b0 20 71 be 32 b9 72 3d
       0.04807281 0.08499618 -0.23547626 0.059258647
0001a0 0d ac 33 bc 45 47 59 3d af 04 54 be cf 3f 3a be
       -0.010966313 0.053046484 -0.20704912 -0.18188404
0001b0 04 41 a3 be 36 49 c5 bd b2 f2 35 be ff 5b 71 bd
       -0.3188554 -0.096331045 -0.17768362 -0.058925625
0001c0 5b 97 bd bc de 1d 3e 3d f4 a9 f6 bd 04 b7 f2 bd
       -0.023143461 0.046415202 -0.12044135 -0.11851314
0001d0 44 72 22 be 31 03 af bd c2 40 22 bc 19 db 3c be
       -0.15863901 -0.085455306 -0.009903135 -0.18442954
0001e0 4b d5 42 bd 21 8e c2 bc a8 17 5b 3d 19 2a 41 be
       -0.047566693 -0.023749413 0.053489357 -0.18863715
0001f0 18 91 53 3a 8c 63 0e be 7a dc 67 bd a7 d7 b7 3d
       0.0008070632 -0.13905162 -0.056606747 0.08976679
000200 0e fc 2b bd 3a 0e f1 bd ff 9a fd bc 9c 05 a2 bd
       -0.041988425 -0.117702916 -0.030957697 -0.07911226
000210 70 a7 1f be eb 5e a1 3b 58 00 0d bd 14 f2 64 3e
       -0.15591216 0.004924645 -0.034424156 0.2235797
000220 a3 1d ce 3d f4 7a 07 3e aa e6 7b bd c7 1a 22 3b
       0.100642465 0.13230497 -0.061499275 0.0024735199
000230 16 e5 9d 3d 2d 9c 40 be f3 6a 86 3d 81 db 91 bd
       0.0770971 -0.18809576 0.06563368 -0.07121945
000240 97 2a 75 bd 47 61 55 3d a1 7c 0a bd 47 5c ff 3c
       -0.05985507 0.052094724 -0.03381026 0.031171931
000250 1f be fc 3d ca df 2f bd 3d 4a 17 3e 0c b4 64 3d
       0.1234095 -0.04293803 0.14774413 0.05583577
000260 3a b3 fe 3d 36 b7 0b 3e 68 6e 68 bd 0b a9 c9 3b
       0.124365285 0.13644108 -0.056745917 0.0061541847
000270 aa ca b5 ba 3b b9 05 be a9 96 19 3e 1e 30 d2 3d
       -0.0013869603 -0.13058941 0.14998879 0.10263084
000280 66 88 af 3c 82 11 8e 3d 21 6f 4f bd 64 57 a4 bc
       0.021427345 0.06936933 -0.05064309 -0.020061202
000290 3c 5a b5 bc 0a 5f c0 3d 60 fb 21 3d eb 47 18 3e
       -0.022137754 0.09393127 0.03954637 0.14871185
0002a0 ff 5c 08 3e a8 5a ba 3d 8b 74 4e bd 42 1d 81 bd
       0.13316725 0.090993226 -0.050404113 -0.063044086
0002b0 a1 6a 62 bd bb a9 cc 3d 63 c2 24 3e 9c b2 aa 3d
       -0.05527747 0.09993311 0.16089778 0.08334848
0002c0 da d3 8a 3d 05 33 e6 bd d7 39 10 be 0b 60 b2 3d
       0.06778689 -0.112402 -0.14084564 0.08709725
0002d0 e8 8e 6e bd 8e 24 e7 3d d3 c3 54 bc ec bc 0d 3d
       -0.058241755 0.11286269 -0.012986141 0.034603998
0002e0 97 c6 b8 3d 24 af d7 bd 8b 99 ef bc 14 a7 e6 3d
       0.09022253 -0.10531452 -0.02924802 0.112623364
0002f0 8b 8a b9 bb 29 64 7b 3d 2d cb 80 bd a0 b7 0e 3e
       -0.0056622676 0.061374817 -0.06288753 0.13937235
000300 23 42 05 be d2 40 b6 bd d4 9f d7 3d 06 1b 1b 3c
       -0.1301351 -0.08899082 0.10528532 0.009466892
000310 29 9b fe 3d 0c b9 93 3d 72 cd 02 3e 51 d5 16 bd
       0.12431938 0.07213029 0.12773684 -0.036824528
000320 c0 88 9d 3c 38 dd 22 3d 8c c9 24 be 2c 86 8c 3d
       0.019230247 0.039761752 -0.16092509 0.06861529
000330 27 ba d4 bd 55 6a 05 be d7 44 84 3e dd f1 2a 3d
       -0.10387068 -0.13028844 0.2583377 0.041734565
000340 86 3a c1 3d 49 64 fd 3d 17 c8 dc bd 13 6b ca bd
       0.094349906 0.123726435 -0.107803516 -0.09883704
000350 5d fe e0 3c 93 6b d5 3c 05 b9 3a bd 58 48 85 bd
       0.02746504 0.026052272 -0.045586605 -0.06507939
000360 e9 20 37 3e e7 20 9f 3d 7f b2 14 be f7 2e e2 3d
       0.17883648 0.077699475 -0.14521216 0.11044114
000370 b8 7e 16 3b 0c 6b 11 3e 5b 34 2c be da 35 0c bc
       0.0022963714 0.14200991 -0.16816847 -0.008557761
000380 a0 13 f5 bd 4d dc 3f be c7 23 9a 3d dc c7 98 3b
       -0.11966634 -0.18736382 0.07526355 0.004662497
000390 d0 b2 fe 3d 03 91 ba bd 6a 47 3a 3d eb b3 ac bd
       0.124364495 -0.0910969 0.045478262 -0.08432754
0003a0 55 d0 81 bd 0f c3 27 be 6f fa 1c 3e 87 3d 1b 3e
       -0.06338564 -0.16383003 0.15329908 0.1516019
0003b0 ec dc 31 be d6 9b 3c be b0 ad b0 3d 56 9c f9 bd
       -0.17369431 -0.18418822 0.08626878 -0.12188022
0003c0 87 43 07 be bf 07 14 be 1c e1 9d bd 10 5a 82 3e
       -0.13209353 -0.1445608 -0.07708952 0.25459337
0003d0 48 64 c7 bd a5 f8 c9 3d b3 90 92 3d 59 b7 1d be
       -0.09735924 0.09861878 0.071565054 -0.15401973
0003e0 bc c4 5d bd 6e 59 98 3b 53 70 17 3e 14 b0 10 be
       -0.0541427 0.0046493327 0.14788942 -0.14129668
0003f0 ab c8 e7 3d ba f0 18 be 98 91 f0 bc 09 8b 67 bd
       0.11317571 -0.1493558 -0.0293663 -0.05652908

fc_adv.bias f4 [128]
000000 ba 3c 67 bd 6f 85 17 3c 75 1f d6 ba 8e eb 66 3c
       -0.056454398 0.009248122 -0.0016336279 0.014094247
000010 12 bf 05 bd 9d 33 bd bc 8c fb 7b bc 15 cd 25 3c
       -0.032652922 -0.0230959 -0.015379798 0.010119696
000020 90 8f 45 bd 86 93 34 3b c2 66 d9 bc 18 7e 32 3b
       -0.048232615 0.002755375 -0.026538257 0.0027235802
000030 23 70 3e bd b6 1a 29 ba c8 ce 8f 3d b3 da ca 3c
       -0.04649366 -0.00064508186 0.07021862 0.024762487
000040 75 0c 96 3c 10 1b e6 3b 21 06 0c 3d 45 6f c8 bb
       0.018316487 0.007022269 0.034185532 -0.00611678
000050 2c 93 1f bc e2 f3 b0 bb 5d 9b b6 bc 94 59 0f bd
       -0.009739678 -0.005400167 -0.02229088 -0.034997538
000060 78 ea 72 3c a4 9f db bb cf 6a bf 3c 61 b9 61 bc
       0.0148264095 -0.0067023803 0.02336636 -0.013777108
000070 08 9b 61 bc 12 a6 18 bd db 2f 51 39 82 cd 34 3a
       -0.0137698725 -0.037267752 0.00019949621 0.0006897078
000080 69 3d 03 bc c2 b0 98 3a fe 6a ee b9 d8 d9 3f ba
       -0.008010247 0.0011649358 -0.00045474613 -0.0007318533
000090 9e 1e e1 3c a9 2c 70 3c 42 91 90 bd cd 95 7a bb
       0.02748042 0.014659085 -0.07058956 -0.003823626
0000a0 2b c9 84 3a 7f 91 44 bd 98 e0 02 bc d5 a5 5f 3c
       0.0010130754 -0.04799032 -0.007988118 0.013650377
0000b0 63 a5 46 3c 78 ec a3 3c 46 f3 86 bc 33 2a 1c bd
       0.012124392 0.020010218 -0.016473424 -0.03812618
0000c0 a1 ee 6b 3b d4 88 d0 3a f8 77 9d 3c 54 2e d7 bc
       0.0036000388 0.0015909919 0.019222245 -0.026267208
0000d0 c8 03 aa 3a ae d2 1c bd 4b 29 34 bc 9c fd cc bb
       0.0012971098 -0.038286857 -0.010996173 -0.0062558185
0000e0 1f 0a 3c bc b9 ba 27 bd 9c b1 03 3d 81 20 1d 3d
       -0.011477022 -0.040949557 0.032151803 0.038361076
0000f0 64 57 c5 bc 3c a3 2a bd 50 de 59 3d 88 e6 f4 bc
       -0.024089523 -0.04165958 0.05319053 -0.029895082
000100 ab 71 7e 3c 46 ee 4d ba d7 e3 33 bd da 6b 0c bd
       0.01553003 -0.0007855635 -0.043918457 -0.034282543
000110 28 48 b7 bc 3b 85 b2 bc 10 f6 cb ba 18 75 62 bd
       -0.022373274 -0.021792045 -0.0015561003 -0.05528745
000120 0b f2 57 bd 00 00 00 00 5e de 8f bc 5d 26 64 3d
       -0.052721065 0.0 -0.017562088 0.05570065
000130 fc d4 b9 bc 9d f2 16 3d 39 e4 2f 3c 6d 20 14 bc
       -0.022684567 0.036852468 0.010735565 -0.009040934
000140 10 b5 3f bc d2 ef 95 bc 44 94 b3 3b e6 05 1b 3d
       -0.0117008835 -0.018302832 0.005480321 0.037847422
000150 bc 1f 6d bb 0b 77 8c bb 69 10 a6 bb 43 a0 8b 3b
       -0.0036182245 -0.004286652 -0.005067874 0.004261048
000160 c7 06 b7 bc b2 a6 92 3c 44 2a 0d bc dd 71 f5 3c
       -0.022342099 0.017901752 -0.008616034 0.02996152
000170 3d 78 4d 3c 99 46 68 3b 5e a1 6f 3c ac 7d 93 3c
       0.012540874 0.003544247 0.014625875 0.018004261
000180 d3 87 e9 3c 84 97 fe ba aa 79 a8 3b f3 73 16 bd
       0.028507149 -0.0019423817 0.0051414566 -0.03673167
000190 ad 7a 4d bd d7 00 bd bc 1c 89 91 3c a4 cb 87 bc
       -0.05016582 -0.02307169 0.017765574 -0.016576596
0001a0 0f e8 14 bc 81 33 a8 3c 55 80 10 bd 20 bf 97 bc
       -0.00908853 0.020532371 -0.035278637 -0.018523753
0001b0 fe bf 21 bc 83 e8 01 3c 0c 89 46 bd 99 59 3b bc
       -0.009872435 0.00792897 -0.04847054 -0.011434936
0001c0 a3 50 da 3c b7 53 69 3c 21 47 0b bd dd 10 8c 3c
       0.026649779 0.014241151 -0.03400338 0.017097885
0001d0 16 e5 ca bc 00 00 00 00 1c 3c c4 bc a7 62 f0 3c
       -0.02476744 0.0 -0.023954444 0.029343916
0001e0 5e c5 8e 3b 0e cc a0 3c ee 79 89 bc 54 87 c6 3c
       0.004357024 0.01962855 -0.016781773 0.024234451
0001f0 2b 9c 33 3c 2a 9f 33 bc ed 7b 13 3d a1 6c c0 bd
       0.010962526 -0.010963241 0.036006857 -0.09395719
