Project/output/acrobot/ddqn_duel/final_model.pth (torch, 832866 bytes, 44 tensors)

fc1.weight f4 [128, 6]
0	0xbe0871a0	-0.13324594
1	0x3e757e46	0.2397395
2	0x3e5404d7	0.20704971
3	0x3e23bf26	0.15990886
4	0xbe99e84a	-0.30060035
5	0xbe0b21e8	-0.13587153
6	0xbd356829	-0.044288788
7	0xbeb5bc20	-0.3549509
8	0xbe32f9ca	-0.174781
9	0x3eb5019b	0.35352787
10	0xbc426383	-0.011864546
11	0xbde0f9c6	-0.109851405
12	0x3e6b2f8d	0.22967358
13	0x3e9b1807	0.3029177
14	0xbdea3fa6	-0.11437921
15	0x3ea1a060	0.3156767
16	0xbbe84e17	-0.007089387
17	0x3d976299	0.07391853
18	0xbe5409a6	-0.20706806
19	0xbd719ad7	-0.058985557
20	0x3e01f172	0.1268976
21	0xbd7d9147	-0.061906125
22	0x3e624cfe	0.22099683
23	0x3d46f4b7	0.048573222
24	0x3e4843ac	0.19557065
25	0x3e2f1ae4	0.17100102
26	0xbdd95ae0	-0.10613036
27	0x3e51fa6b	0.20505683
28	0xbe4fedf2	-0.20305613
29	0xbe116788	-0.1419965
30	0x3e02e7de	0.12783763
31	0x3ea8bda7	0.32957193
32	0xbe2de44b	-0.16981618
33	0xbe0d5507	-0.13801967
34	0xbe275460	-0.1634078
35	0xbdab97e5	-0.08378581
36	0x3e74ac5e	0.23893878
37	0x3e73886d	0.23782511
38	0xbed30d97	-0.41221306
39	0x3e16d23c	0.14728636
40	0xbd24db22	-0.040248044
41	0x3cddffc8	0.027099505
42	0xbe1bd680	-0.15218544
43	0x3dee8e85	0.11648277
44	0x3e694190	0.22778916
45	0x3d82bb33	0.06383362
46	0xbdfe5cb2	-0.12420024
47	0x3d196041	0.03744531
48	0x3d3f43b2	0.04669542
49	0x3dbee697	0.09321325
50	0x3ce9ba8d	0.028531337
51	0xbe41fbfc	-0.1894378
52	0x3e6d76ec	0.23189896
53	0x3d2e9121	0.042618874
54	0xbe0aca8d	-0.1355383
55	0xbe706a8c	-0.23478144
56	0xbea1f689	-0.31633404
57	0x3e4d0288	0.20020497
58	0xbc9c6d64	-0.01909513
59	0xbde97332	-0.11398925
60	0x3e5ecd17	0.21757923
61	0x3e6d234b	0.23157994
62	0x3dc9add0	0.09847605
63	0xbed5389b	-0.4164475
64	0x3d81a9d6	0.06331222
65	0x3e07d9a2	0.13266614
66	0x3cef7ceb	0.02923437
67	0x3e472c0a	0.19450393
68	0xbe86cea4	-0.2632953
69	0xbd116f50	-0.035506546
70	0x3c0fc949	0.008776017
71	0x3ca03a6f	0.019559113
72	0x3cdae4f2	0.026720498
73	0x3e5132ce	0.20429537
74	0x3e630cdd	0.22172876
75	0x3e6800bd	0.22656532
76	0x3cbb2189	0.02284314
77	0xbe15084f	-0.1455395
78	0xbe880451	-0.26565793
79	0x3e802bc5	0.25033394
80	0xbd05206c	-0.032501623
81	0x3d0183f6	0.03161999
82	0x3dfe3256	0.124119446
83	0xbda74876	-0.08168118
84	0xbeb33e41	-0.35008433
85	0xbe457651	-0.19283415
86	0x3d9c69e3	0.07637384
87	0x3e9d08a1	0.30670646
88	0xbcf957b7	-0.030437334
89	0xbe118866	-0.14212188
90	0xbd955dca	-0.072932795
91	0xbe80aebc	-0.25133312
92	0x3db2cce5	0.08730487
93	0xbec6f45c	-0.38858306
94	0xbe618a44	-0.220254
95	0x3d9a9a93	0.07549014
96	0xbe01cc17	-0.1267551
97	0x3f0b9da1	0.545374
98	0x3de95af6	0.113943025
99	0x3e8780ed	0.2646555
100	0x3e365616	0.17806277
101	0xbd8039a7	-0.06260996
102	0xbdec7111	-0.11545003
103	0x3d9abb3d	0.07555244
104	0xbe7f4dc2	-0.24932006
105	0x3e490c58	0.19633615
106	0xbd544176	-0.05182024
107	0x3dc2fcc3	0.09520867
108	0xbed48753	-0.41509494
109	0xbeb77c1e	-0.3583688
110	0xbe1f67c0	-0.15566921
111	0x3e1cb92e	0.15305015
112	0x3d8e3fea	0.069457844
113	0xbdd60d71	-0.104517825
114	0x3d8f5ce7	0.070001416
115	0xbe6322d0	-0.22181249
116	0x3e799af0	0.2437551
117	0x3e693cbb	0.22777073
118	0x3d289b54	0.041163757
119	0x3d995473	0.074868105
120	0xbe2e6ce0	-0.1703372
121	0x3d4d736f	0.050158914
122	0xbde47cbc	-0.11156604
123	0x39e3dca7	0.00043461213
124	0x3bf10af9	0.0073560444
125	0x3e4fbce1	0.20286895
126	0xbeb73a2d	-0.35786572
127	0xbedac5c8	-0.4272902
128	0x3ea79b67	0.3273575
129	0x3c8a9b22	0.016919676
130	0xbe12ba12	-0.14328793
131	0xbe01ed4b	-0.12688176
132	0x3dc259fb	0.09489819
133	0x3ec7938d	0.3897976
134	0xbe2ced45	-0.16887386
135	0x3c29c965	0.010362958
136	0x3df4b4e2	0.11948563
137	0x3c99b53b	0.018763175
138	0x3c0698f7	0.008215181
139	0x3ec2d09f	0.3804979
140	0xbeb02ad6	-0.3440768
141	0x3e1104a6	0.1416193
142	0xbdb45b13	-0.088064335
143	0x3d86df18	0.065855205
144	0x3e8ff620	0.28117466
145	0x3e9a9a3d	0.301958
146	0x3e663e7d	0.22484775
147	0x3e75d58c	0.24007243
148	0xbde0414c	-0.109499544
149	0xbda0d7f3	-0.07853689
150	0x3e7fe403	0.24989323
151	0xbdf5f248	-0.12009102
152	0x3dc93e55	0.09826342
153	0x3df18407	0.1179276
154	0x3d07578d	0.03304248
155	0x3d848bbe	0.06471966
156	0x3e9f16aa	0.3107198
157	0xbdd14938	-0.102190435
158	0x3e85a277	0.26100513
159	0x3d8e4ebc	0.06948611
160	0xbd2c2cf2	-0.04203505
161	0x3db90fca	0.09036215
162	0xbe7cf7ed	-0.24703951
163	0xbe26c974	-0.16287786
164	0xbdc48ce3	-0.095971845
165	0x3d934200	0.07190323
166	0x3e455e16	0.19274172
167	0xb990b7ff	-0.00027602908
168	0xbde069a4	-0.10957649
169	0xbecf489d	-0.40485087
170	0xbebf8d03	-0.3741227
171	0xbe64b1cb	-0.22333448
172	0x3da9423b	0.082645856
173	0xbdf8dba2	-0.12151267
174	0x3b8e125c	0.0043356847
175	0x3e064960	0.13113928
176	0xbd894db5	-0.067042746
177	0xbeb55a9d	-0.35420695
178	0x3d176a69	0.036966715
179	0x3dfa76c0	0.12229681
180	0x3e0c79b5	0.13718303
181	0x3ef0b5f2	0.47013813
182	0xbe99d7e3	-0.3004752
183	0xbebc9a35	-0.368364
184	0x3db39676	0.087689325
185	0x3e30d792	0.17269734
186	0x3dbd5443	0.09244587
187	0x3e158d9f	0.14604805
188	0xbecc9c9e	-0.3996324
189	0x3ddcca4a	0.10780771
190	0xbe32b62f	-0.1745231
191	0x3d4024a7	0.046909954
192	0x3c9c7b77	0.019101841
193	0xbecee07d	-0.40405646
194	0xbe961163	-0.2931014
195	0xbe33a4fa	-0.17543402
196	0xbaa97f62	-0.001293164
197	0xbd6c5348	-0.05769661
198	0x3e26e2b6	0.16297421
199	0x3e622a1f	0.2208638
200	0x3d25c361	0.04046953
201	0xbec56268	-0.3855164
202	0xbd617e82	-0.055052288
203	0x3dc88c0b	0.09792336
204	0xbe1c825c	-0.15284103
205	0x3ebd0fd7	0.36926147
206	0xbeb23906	-0.3480913
207	0x3c961a88	0.018323198
208	0x3dd2e545	0.10297636
209	0x3e22fc2e	0.15916511
210	0x3e906146	0.28199214
211	0xbe4ebd9d	-0.20189519
212	0x3e12ef51	0.14349104
213	0x3df2bad3	0.1185204
214	0x3de27f61	0.11059452
215	0x3d322606	0.043493293
216	0xbd02f389	-0.031970534
217	0xbe8c5f87	-0.27416632
218	0xbd8c49a7	-0.068499856
219	0xbee34736	-0.44390267
220	0xbdc5ce3c	-0.09658477
221	0x3d272468	0.040806204
222	0x3e91a7ba	0.28448278
223	0xbe6390ba	-0.22223178
224	0xbe7f573b	-0.2493562
225	0xbe4871ab	-0.19574611
226	0x3d7fe8e4	0.06247796
227	0xbcf98b20	-0.030461848
228	0x3e412ee3	0.18865542
229	0xbd4bf463	-0.049793612
230	0xbc08e7cb	-0.008356045
231	0x3e28c34e	0.16480753
232	0xbdaec102	-0.08532907
233	0xbe14ee4a	-0.14544025
234	0xbe8400c5	-0.25781837
235	0xbe85ba9a	-0.26118928
236	0xbe9c13fe	-0.30484003
237	0x3c6890a6	0.014194643
238	0x3c86832e	0.016419973
239	0x3c89a607	0.0168028
240	0x3e66bd63	0.22533183
241	0xbe8520da	-0.26001626
242	0xbe1e8d11	-0.154835
243	0x3e8118c0	0.25214195
244	0x3d96d292	0.07364382
245	0x3cc3db78	0.023908362
246	0xbdb9a1af	-0.09064042
247	0x3e0c2f95	0.13690026
248	0xbe920888	-0.28522134
249	0xbe6a34a8	-0.2287165
250	0xbdaaa685	-0.08332542
251	0x3dd6db77	0.10491078
252	0x3e59ab04	0.21256644
253	0x3e85e1ff	0.26148984
254	0x3db108a7	0.086442284
255	0x3d7fe171	0.062470857

fc1.bias f4 [128]
0	0xbdeb59a3	-0.11491706
1	0x3d2fb233	0.042894553
2	0x3e466aea	0.19376722
3	0xbd9d1c98	-0.076714694
4	0xbe251c0e	-0.16123983
5	0x3da9b9d4	0.08287397
6	0x3cc7db1c	0.024396472
7	0xbdd7eaca	-0.10542829
8	0xbd91dec0	-0.07122564
9	0xbc9bc054	-0.019012608
10	0xbdee48ac	-0.11634955
11	0x3d4999ed	0.04921906
12	0x3ceebd73	0.02914307
13	0xbe253d12	-0.16136578
14	0x3d27cb83	0.04096557
15	0xbb929d0a	-0.004474287
16	0xbbf7e78d	-0.007565445
17	0xbc40e10d	-0.011772406
18	0x3c0595e0	0.008153409
19	0x3e376060	0.17907858
20	0xbdeef5c5	-0.116679706
21	0x3cdebac9	0.027188675
22	0x3ded32db	0.115819655
23	0xbd16af04	-0.036788
24	0x3e0b23d2	0.13587883
25	0x3e1945fe	0.14968106
26	0x3dca119a	0.098666385
27	0xbe562b5b	-0.20914976
28	0xbe937351	-0.28798917
29	0x3e24bd97	0.16087948
30	0xbc7e1d97	-0.015509984
31	0xbdc45849	-0.095871516
32	0x3d25f74c	0.040519044
33	0x3e00d9a0	0.12583017
34	0xbe4b8738	-0.198758
35	0x3df557fc	0.11979672
36	0x3b940ea8	0.0045183487
37	0x3de4f8f3	0.11180296
38	0x3d6b9a4e	0.057520203
39	0x3e1e02df	0.15430783
40	0x3e145e48	0.1448909
41	0xbd742f4b	-0.059615415
42	0x3d485d78	0.048917264
43	0x3d8f4386	0.06995301
44	0xbd85722b	-0.065159164
45	0x3dee749d	0.11643336
46	0x3dc43543	0.09580471
47	0xbbe65412	-0.007029065
48	0xbb4f95f1	-0.0031675065
49	0x3df85b74	0.12126818
50	0xbe54f2af	-0.20795701
51	0x3d9af03b	0.075653516
52	0xbd90130b	-0.07034882
53	0xbdc2b099	-0.095063396
54	0xbc855561	-0.016276063
55	0x3dc93d92	0.09826197
56	0x3dadcfdb	0.08486911
57	0x3de7720d	0.1130105
58	0x3e47936b	0.19489829
59	0xbddd3302	-0.108007446
60	0x3e173683	0.14766888
61	0xbd83e88d	-0.0644084
62	0xbe27c7ae	-0.16384766
63	0x3df4fbfa	0.11962123
64	0xbdffba13	-0.12486663
65	0xbbcbbeca	-0.006217812
66	0x3d4f79e6	0.05065336
67	0x3dae7ebe	0.08520268
68	0x3b880086	0.004150453
69	0x3e0e584b	0.13900869
70	0x3d7cd1cb	0.06172351
71	0x3de5712b	0.11203226
72	0x3d467c1c	0.048458204
73	0x3d050f9b	0.032485586
74	0x3e2e0d1e	0.16997191
75	0xbe2e77b6	-0.17037854
76	0xbe00caf9	-0.12577428
77	0x3da53fb9	0.08068795
78	0x3de1ce04	0.110256225
79	0x3e0667a6	0.13125476
80	0xbe5bfa21	-0.21482135
81	0xbe1035dc	-0.14083046
82	0x3db10103	0.08642771
83	0x3e1d9f81	0.15392877
84	0x3c5e4727	0.013566769
85	0x3ce8bb5e	0.028409656
86	0x3d955ffa	0.07293697
87	0xbd32b532	-0.043629833
88	0xbe584bbb	-0.21122639
89	0xbdac48c7	-0.08412319
90	0x3deeb2da	0.11655207
91	0xbdb8d253	-0.09024491
92	0xbe9f917b	-0.3116568
93	0xbc691b08	-0.014227636
94	0xbda57064	-0.080780774
95	0x3d9842cb	0.07434615
96	0x3e0e231e	0.13880584
97	0x3e0c7fa4	0.13720566
98	0xbded68d9	-0.11592264
99	0x3e266c9a	0.16252366
100	0x3dd8fbbe	0.10594891
101	0x3d8c7b47	0.06859451
102	0x3e1ffac7	0.15623008
103	0xbd749ce9	-0.059719954
104	0xbd0d4b3e	-0.034495585
105	0xbe0e8516	-0.13917956
106	0x3d01edba	0.031720854
107	0x3e556c55	0.20842107
108	0x3de8f2fa	0.11374469
109	0xbccdef2c	-0.02513846
110	0x3d03e756	0.03220304
111	0xbc3c8ccd	-0.011508179
112	0x3e2e5d70	0.17027831
113	0xbdd2bc38	-0.10289806
114	0x3e442779	0.19155683
115	0x3da70475	0.08155147
116	0x3da6a95a	0.0813777
117	0x3dab2cce	0.08358155
118	0x3e19ea73	0.15030842
119	0xbdf87238	-0.121311605
120	0x3da2afc7	0.07943683
121	0xbe1eb439	-0.15498437
122	0x3e215608	0.15755475
123	0x3e29e805	0.16592415
124	0x3df41d9f	0.11919712
125	0x3da4b6cd	0.08042679
126	0xbdef8e4a	-0.11697061
127	0x3e0dcdbb	0.13848011

fc2.weight f4 [128, 128]
0	0xbdfdb2c6	-0.12387614
1	0x3d7d28a2	0.06180633
2	0xbdebec7c	-0.11519715
3	0x3d6d1f5c	0.057891235
4	0x3e0b89c3	0.1362677
5	0x3e2b8625	0.16750391
6	0x3e0b3ec0	0.13598156
7	0xbdb82053	-0.0899054
8	0xbe05ccbf	-0.13066386
9	0x3b4f2b53	0.0031611517
10	0xbde981ed	-0.114017345
11	0x3e0c5849	0.13705553
12	0x3e215b1b	0.1575741
13	0x3d5a5e93	0.05331285
14	0xbd9417e4	-0.07231119
15	0x3dd91205	0.1059914
16	0x3dd92cf3	0.106042765
17	0x3daf7b16	0.08568399
18	0x3d248b04	0.040171638
19	0x3d9c2798	0.076247394
20	0x3d99a8cf	0.07502901
21	0xbdc951c2	-0.09830047
22	0x3e0a89a4	0.13529068
23	0x3dbb52da	0.09146662
24	0x3e698d64	0.22807842
25	0x3dc2f1f4	0.09518805
26	0x3b153c3d	0.00227715
27	0xbd4560b7	-0.048187938
28	0xbda12939	-0.07869191
29	0x3e0994bf	0.13435648
30	0x3df61fb1	0.120177634
31	0xbd30ad8e	-0.043134265
32	0x3d1d92e3	0.03847016
33	0xbdc42721	-0.09577776
34	0x3c3ce52b	0.011529247
35	0xbc942a62	-0.018086616
36	0x3b3ffb52	0.0029294086
37	0x3d1a4b4f	0.037669476
38	0x3e30ccd3	0.17265634
39	0xbdf9d365	-0.121985234
40	0x3e610c77	0.21977411
41	0xbddd1bc8	-0.107963145
42	0x3dd202b2	0.1025442
43	0x3e1211c2	0.14264587
44	0xbc9bf70b	-0.019038698
45	0x3d973726	0.073835656
46	0x3d650dc1	0.05592132
47	0xbc7c323f	-0.015392839
48	0xbe141696	-0.14461741
49	0x3d04919b	0.032365423
50	0xbe2e7fd0	-0.17040944
51	0xbda8390c	-0.08214006
52	0xbe34b610	-0.17647576
53	0xbda5141f	-0.080604784
54	0x3cbbeeaf	0.022940962
55	0xbd7be60c	-0.061498687
56	0x3d9cfb83	0.076651596
57	0x3da8575e	0.08219789
58	0x3da75c42	0.08171894
59	0xbd3bf468	-0.04588738
60	0xbd771afb	-0.060328465
61	0xbe143a1a	-0.14475289
62	0x3d0ea876	0.034828626
63	0x3e23f783	0.16012387
64	0xbd97bc97	-0.074090175
65	0xbda92c88	-0.08260447
66	0x3b93c71c	0.0045098197
67	0x3dd51bed	0.10405717
68	0x3e31fce1	0.17381622
69	0x3e5b32e4	0.21406132
70	0x3c101225	0.0087933885
71	0x3e0e88cc	0.13919371
72	0xbcb0e82a	-0.02159508
73	0xbcd50bc9	-0.026006596
74	0x3ce11462	0.02747554
75	0xbe26d136	-0.16290745
76	0x3ca4b298	0.020104691
77	0xbcbe6a5e	-0.02324408
78	0x3d2b0a7b	0.04175804
79	0x3afcff7b	0.0019302213
80	0x3d98036b	0.07422527
81	0xbdfeb727	-0.12437277
82	0x3e162ee1	0.1466632
83	0xbdb6cb4f	-0.08925497
84	0x3d31ac29	0.043377075
85	0xbd620437	-0.0551798
86	0x3e287264	0.16449887
87	0x3d9b253b	0.075754605
88	0x3d02694b	0.031838696
89	0x3e1d21e1	0.15344955
90	0xbd84483b	-0.06459089
91	0x3e02b493	0.12764196
92	0xbdd5c624	-0.10438183
93	0xbdc47411	-0.095924504
94	0x3dbd4ed3	0.0924355
95	0x3de75c2e	0.11296879
96	0x3d39617a	0.045258977
97	0x3c878e0a	0.016547222
98	0xbdd68dd5	-0.10476271
99	0x3dfca89b	0.123368464
100	0x3e0d3748	0.1379062
101	0x3ca3ff47	0.020019187
102	0xbb559748	-0.0032591391
103	0xbe0f48e9	-0.13992657
104	0x3db98d05	0.090601005
105	0x3bb800de	0.0056153378
106	0xbe137ef5	-0.14403899
107	0x3ce90660	0.028445423
108	0xbe457a3b	-0.19284908
109	0xbd1fce6b	-0.039015215
110	0xbdaded01	-0.084924705
111	0x3d8ced3e	0.06881188
112	0xbe17b1b3	-0.1481388
113	0xbe4708e3	-0.19436984
114	0xbd3c749d	-0.04600965
115	0x3cc30bd5	0.023809353
116	0xbc999619	-0.01874833
117	0xbc2a3aa5	-0.0103899585
118	0x3dd7bc25	0.105339326
119	0xbd6b543c	-0.05745338
120	0x3df40c37	0.11916392
121	0xbe227a6a	-0.1586701
122	0x3e1efd4d	0.15526314
123	0x3e3097c7	0.17245398
124	0x3d0bbd80	0.03411627
125	0x3d88b4d7	0.066751175
126	0xbd25c2a6	-0.040468834
127	0x3e493124	0.19647652
128	0xbdb32b58	-0.087485015
129	0xbe45efde	-0.19329783
130	0xbc868a3b	-0.016423335
131	0x3dab1500	0.08353615
132	0xbb490cbe	-0.003067776
133	0xbd902013	-0.07037368
134	0x3c5a1601	0.01331091
135	0x3bbf5520	0.005839005
136	0xbe10eecc	-0.14153594
137	0xbe914b54	-0.28377783
138	0xbdcb76cd	-0.09934769
139	0x3e2e0628	0.16994536
140	0x3deaaed0	0.11459124
141	0xbd8a4049	-0.06750543
142	0xbd78eded	-0.06077378
143	0x3cb52f36	0.022117238
144	0xbb6f4854	-0.0036511617
145	0xbcc074d5	-0.02349321
146	0xbd227349	-0.039660726
147	0x3bc1a192	0.0059091533
148	0xbd455c37	-0.048183646
149	0xbd495b89	-0.04915956
150	0xbda8718f	-0.082247846
151	0x3dbb3947	0.09141784
152	0xbd838f35	-0.06423799
153	0x3d155d7b	0.036466103
154	0x3db4dac1	0.088307865
155	0xbda30951	-0.07960761
156	0xbc0ffe14	-0.008788604
157	0x3da822ad	0.08209739
158	0xbd28bd0c	-0.041195914
159	0xbdf72440	-0.12067461
160	0x3ca38e09	0.019965189
161	0x3de2c4e1	0.11072708
162	0xbd6afd0a	-0.057370223
163	0xbdea40a0	-0.114381075
164	0x3daf5672	0.0856141
165	0x3dc56c17	0.09639757
166	0x3e2d6e89	0.16936697
167	0x3e0a3842	0.13498023
168	0x3ddf098c	0.10890493
169	0x3d4d6763	0.050147425
170	0xbe3d11e7	-0.1846386
171	0x3d8a97c1	0.06767226
172	0x3c640c91	0.013919012
173	0xbdc884c4	-0.09790948
174	0xbde92db0	-0.11385667
175	0x3d692387	0.056918647
176	0xbd8ffaf5	-0.07030288
177	0xbde6f253	-0.112766884
178	0x3c7ac86c	0.015306573
179	0x3badd41f	0.005304828
180	0x3de30c04	0.11086276
181	0x3dc9b4c9	0.09848935
182	0xbc893a41	-0.01675141
183	0x3e09acac	0.13444775
184	0xbe8bc02b	-0.2729505
185	0x3e0d00e5	0.13769872
186	0xbd8cdb67	-0.06877785
187	0x3de53d2b	0.111933075
188	0xbe15f71b	-0.14645045
189	0xbda0bbad	-0.07848296
190	0x3deacddf	0.11465048
191	0x3e01b99a	0.12668458
192	0xbe17726e	-0.14789745
193	0x3c944823	0.018100804
194	0xbe2cbc40	-0.16868687
195	0xbdc65ea3	-0.09686019
196	0x3e1ba910	0.15201211
197	0xbd71861c	-0.058965787
198	0xbc987d94	-0.018614568
199	0x3d1c44a5	0.038151402
200	0xbc958632	-0.018252466
201	0x3c27f040	0.010250151
202	0xbe889953	-0.26679477
203	0xbdf83491	-0.12119401
204	0x3dde8797	0.108657055
205	0x3e04f44f	0.12983821
206	0xbd23b3fb	-0.039966565
207	0x3e58470e	0.21120855
208	0xbe01d136	-0.12677464
209	0xbe55f941	-0.20895864
210	0x3e09295d	0.13394685
211	0x3e1f5434	0.15559465
212	0x3d11f149	0.035630498
213	0xbdb0ce49	-0.08633096
214	0xbd38b1b4	-0.045091346
215	0xbc70897f	-0.014681219
216	0xbe823313	-0.25429592
217	0x3dca214a	0.09869631
218	0x3cb5d22f	0.02219495
219	0xbc6c7a23	-0.014433417
220	0x3d328dee	0.043592386
221	0xbcbd5614	-0.023112334
222	0x3e5c984b	0.2154247
223	0x3e49d7e2	0.19711259
224	0xbce9e55b	-0.028551748
225	0x3e2a1d7a	0.16612807
226	0xbdfa8217	-0.12231844
227	0xbd1e0dd3	-0.038587403
228	0xbcdaed41	-0.02672446
229	0xbe13f35e	-0.14448306
230	0xbe108faa	-0.14117303
231	0xbdffe252	-0.12494339
232	0xbd8fa6e2	-0.07014252
233	0xbde73035	-0.11288492
234	0xbcee2f4c	-0.029075287
235	0x3dee10f6	0.11624329
236	0xbe2a8b90	-0.16654801
237	0x3d346d57	0.044049587
238	0x3cbce0c0	0.023056388
239	0xbe61539b	-0.22004549
240	0xbd5aeaa2	-0.05344642
241	0x3cdca0f4	0.026932217
242	0xbd89ac43	-0.067223094
243	0xbb7e23a1	-0.003877856
244	0xbe23c8d0	-0.15994573
245	0x3e407d39	0.18797769
246	0xbd1a205c	-0.037628517
247	0x3e598d8f	0.21245407
248	0xbe526da9	-0.20549645
249	0x3e0ba35c	0.13636535
250	0xbdb9f04b	-0.09079035
251	0x3d822454	0.06354585
252	0x3e23a8b1	0.1598232
253	0x3d88ef29	0.06686241
254	0x3e13cc2a	0.14433351
255	0xbd8e1038	-0.06936687

fc2.bias f4 [128]
0	0x3dc949c9	0.098285265
1	0x3d6e75a2	0.058217652
2	0x3d7d23d6	0.061801754
3	0x3dceb319	0.10092754
4	0xbd901a11	-0.07036222
5	0x3df6894a	0.120379046
6	0x3e283106	0.16424951
7	0x3dad4142	0.084597126
8	0x3e1f2dd5	0.15544827
9	0x3df4b368	0.119482815
10	0x3dfcd329	0.12344963
11	0xbdc4c40b	-0.09607705
12	0xbc0e9f05	-0.008704905
13	0x3de74bd6	0.112937614
14	0x3dba7947	0.09105163
15	0x3d827a8b	0.063710295
16	0x3de163b9	0.11005349
17	0xbba6d611	-0.0050914367
18	0x3c26235b	0.010140265
19	0xbd1062f8	-0.035250634
20	0x3e1bc650	0.15212369
21	0x3dda9537	0.10672992
22	0x3e3718a8	0.178805
23	0x3de75b77	0.112967424
24	0xbd4217a0	-0.04738581
25	0x3e0bfaec	0.13669938
26	0x3d9e0114	0.077150494
27	0xbd71395b	-0.05889259
28	0xbce7e87e	-0.028309103
29	0xbcaa0dc6	-0.02075852
30	0x3de86b5d	0.11348603
31	0xbd17cf4a	-0.03706292
32	0x3da26886	0.079300925
33	0x3cc298b9	0.023754464
34	0x3d5ab24c	0.053392693
35	0x3e0d1017	0.13775669
36	0x3df068a9	0.11738712
37	0x3da967b7	0.08271735
38	0x3e1ec0db	0.15503256
39	0x3debb7c4	0.1150966
40	0x3dd198d0	0.10234225
41	0x3ded9266	0.11600189
42	0x3dd308c6	0.10304408
43	0x3dd8952b	0.105753265
44	0xbc378f85	-0.011203651
45	0x3db74eaa	0.08950551
46	0x3db716b0	0.08939874
47	0xbdc2817c	-0.094973534
48	0xbd8c634f	-0.06854879
49	0xbc1d9605	-0.009618287
50	0x3dd3e95d	0.10347245
51	0x3dedcb09	0.116109915
52	0x3e01e46b	0.12684791
53	0x3de40832	0.11134376
54	0xbd7ecbf3	-0.06220622
55	0xbd8bb7e2	-0.06822182
56	0xbc3e022a	-0.011597196
57	0x3da9cb15	0.08290688
58	0x3dd5b3d4	0.1043469
59	0x3dc1f0de	0.0946977
60	0x3e020e2b	0.12700717
61	0x3ded0493	0.11573138
62	0x3d72fd0a	0.059323348
63	0x3dbc17af	0.09184205
64	0xbd0d8db1	-0.034558956
65	0x3dccac0f	0.09993755
66	0x3def7458	0.11692113
67	0x3d95057c	0.07276437
68	0x3e1733e9	0.14765896
69	0xbdc07877	-0.09397977
70	0x3d88f77e	0.066878304
71	0x3dc4a829	0.096023865
72	0x3e09a35c	0.13441223
73	0x3dc4a10f	0.09601032
74	0xbd82d1f0	-0.06387699
75	0xbd489fde	-0.048980586
76	0x3df35788	0.1188193
77	0x3dadccaa	0.08486302
78	0xbb46f983	-0.0030361123
79	0x3dc35c15	0.09539048
80	0x3df8f6e1	0.121564634
81	0x3dd3419d	0.10315249
82	0x3db5c799	0.08875961
83	0x3e008eb2	0.12554434
84	0x3db5760c	0.08860406
85	0x3dd407e9	0.10353071
86	0x3df2fb6f	0.118643634
87	0x3df4c1c7	0.119510226
88	0xbdb780fa	-0.08960147
89	0x3dafdbfd	0.08586881
90	0x3c9e1978	0.019299254
91	0x3dcf5ddd	0.10125325
92	0x3dd494a4	0.103799134
93	0x3d7bfeb9	0.06152222
94	0x3cd2445b	0.02566736
95	0x3df0f28d	0.11765013
96	0x3db272f5	0.087133326
97	0xbd7960f4	-0.060883477
98	0x3e0d9f4b	0.13830297
99	0xbdc143bc	-0.094367474
100	0x3dd7d176	0.105379984
101	0x3cf30733	0.029666519
102	0xbcd746fa	-0.026278961
103	0x3e23998a	0.15976539
104	0xbd376fae	-0.04478424
105	0xbd5f982a	-0.054588474
106	0x3d8a5447	0.06754356
107	0x3dee1b6a	0.116263226
108	0x3dc5a456	0.09650485
109	0xbd32f887	-0.043694045
110	0x3dd6fdba	0.10497613
111	0x3df1720e	0.11789332
112	0xbcd01337	-0.025399787
113	0x3d95323e	0.072849736
114	0x3d8fe47e	0.07026003
115	0x3c8a8e53	0.016913569
116	0x3da5fce9	0.081048794
117	0x3ddc50fc	0.10757634
118	0x3e187850	0.14889646
119	0x3d9edbf3	0.07756796
120	0xbd96f895	-0.07371632
121	0x3ddb7387	0.107153945
122	0xbd02c98b	-0.031930488
123	0x3d8bf537	0.068338804
124	0x3dc8da0e	0.09807216
125	0x3e1182f1	0.14210106
126	0x3e0427c4	0.12905794
127	0x3de543d5	0.111945786

fc_value.weight f4 [128, 128]
0	0x3e195ce1	0.14976837
1	0x3e3e4cfb	0.18584053
2	0x3e182a7f	0.14859961
3	0xbd042a9c	-0.032267198
4	0xbe864d6b	-0.2623094
5	0x3c50f571	0.01275383
6	0x3dfbf092	0.123017445
7	0xbc83831d	-0.01605373
8	0x3d8bf9f9	0.06834788
9	0xbd4b2345	-0.049594183
10	0xbdf23f02	-0.11828424
11	0xbe575ccf	-0.21031497
12	0xbdd4654e	-0.10370885
13	0xbd9c2a27	-0.076252274
14	0x3e4c78aa	0.19967905
15	0xbd424987	-0.047433402
16	0xbd042b92	-0.032268114
17	0xbd06ab02	-0.03287793
18	0x3e068aa8	0.1313883
19	0xbe8b081e	-0.2715463
20	0x3e1f414d	0.15552254
21	0x3d5f944e	0.054584794
22	0x3da620fe	0.081117615
23	0x3d8b113f	0.06790399
24	0x3e87ae1e	0.26500028
25	0xbd95695b	-0.072954856
26	0x3e388245	0.18018444
27	0xbe6d1578	-0.23152721
28	0xbe5f81b0	-0.21826816
29	0x3d190094	0.037354067
30	0xbdb2a619	-0.08723087
31	0xbd7a37a1	-0.061088208
32	0x3d9ea6d3	0.07746663
33	0xbdf4e080	-0.119568825
34	0xbd2ad673	-0.04170842
35	0x3d686709	0.056738887
36	0x3e061a49	0.13095964
37	0x3cf7d1c0	0.030251384
38	0x3e0a4e9d	0.13506551
39	0x3e2e7b00	0.17039108
40	0x3e58eb32	0.2118347
41	0xbc01eef6	-0.007930508
42	0x3e356a09	0.1771623
43	0xbc4f57eb	-0.012655239
44	0x3e929714	0.28630888
45	0x3c5e1934	0.013555814
46	0x3e535b43	0.20640282
47	0xbe8ab5d1	-0.2709184
48	0xbe5c8119	-0.21533622
49	0x3c8860de	0.016647752
50	0x3db00b69	0.08595926
51	0x3dcbabb7	0.099448614
52	0xbc692d65	-0.014232014
53	0x3d9ed5d1	0.07755626
54	0xbe6a40ec	-0.22876328
55	0x3d1936ff	0.037405964
56	0xbde1136b	-0.10990032
57	0xbd865571	-0.065592654
58	0x3e139eb2	0.14416006
59	0x3d1ce511	0.038304392
60	0x3e5294de	0.20564601
61	0x3e0d8bf8	0.13822925
62	0x3e3be331	0.18348385
63	0x3e10d704	0.14144522
64	0xbe2512eb	-0.16120498
65	0x3e6d1ec7	0.23156272
66	0x3e533207	0.20624553
67	0x3e529e89	0.20568289
68	0x3e8be784	0.2732507
69	0xbe8b1224	-0.27162278
70	0x3e41f0d9	0.18939532
71	0x3d45235d	0.04812943
72	0x3d1a9828	0.037742764
73	0x3e003457	0.12519966
74	0xbdf4e5ad	-0.1195787
75	0x3db47ccf	0.08812868
76	0x3bfa5247	0.0076392028
77	0xbd08bb84	-0.033381954
78	0x3e802636	0.25029153
79	0x3cc7bea5	0.024382899
80	0xba1adf59	-0.0005907915
81	0x3cc068bd	0.023487443
82	0x3dea5db3	0.11443653
83	0x3e6530a4	0.22381836
84	0x3dca0bf6	0.098655626
85	0x3dd8103f	0.10549974
86	0xbc4a4027	-0.012344397
87	0x3e5fc545	0.21852596
88	0xbe8e2b1c	-0.27767265
89	0x3e31599c	0.1731934
90	0x3e3e0725	0.18557413
91	0xbcd9d2e6	-0.026589822
92	0x3e34d9d7	0.17661224
93	0x3a14439f	0.0005655828
94	0xbcb3eb82	-0.021962885
95	0xbd8bb2fd	-0.06821249
96	0x3d52c6a2	0.051458962
97	0xbe936022	-0.2878428
98	0x3e395298	0.18097913
99	0xbe830ae2	-0.2559424
100	0x3de4b702	0.111677185
101	0x3e961afd	0.29317465
102	0xbe6ccf21	-0.23125888
103	0xbe2f7dec	-0.17137879
104	0x3e218681	0.15773965
105	0xbe83464a	-0.25639564
106	0xbe106f85	-0.14105041
107	0x3e1edddd	0.15514322
108	0xbdbb19b7	-0.09135764
109	0xbf1f8298	-0.62308645
110	0x3d5a0f03	0.053236973
111	0xbc8e6b82	-0.017385248
112	0xbe0b309f	-0.13592766
113	0xbdb9d686	-0.0907412
114	0xbd932409	-0.071846075
115	0x3e182212	0.14856747
116	0x3e3ba17b	0.18323319
117	0x3db99d41	0.09063197
118	0x3d97eb17	0.07417887
119	0x3e21fa6b	0.15818183
120	0xbdcf41f1	-0.10119999
121	0x3db0d22d	0.08633838
122	0x3b16bca6	0.0023000627
123	0x3e5b1bce	0.21397325
124	0x3e22597d	0.1585445
125	0x3e2b460f	0.16725944
126	0x3e516dba	0.20452014
127	0x3d377131	0.044785682
128	0x3e276f44	0.16351038
129	0x3e7ad979	0.24497022
130	0x3e307b2a	0.17234483
131	0x3d10ccb7	0.03535148
132	0xbe644939	-0.22293557
133	0x3c5ca88c	0.013467919
134	0x3dc422da	0.0957696
135	0x3da6259b	0.081126414
136	0xbce52b83	-0.02797485
137	0x3c618438	0.013764434
138	0x3d449aa0	0.047999024
139	0xbe88a5d4	-0.26689017
140	0xbe05d495	-0.13069375
141	0xbda086bd	-0.07838199
142	0x3e19c61f	0.15016983
143	0x3e3c29e6	0.18375358
144	0xbd8f3cce	-0.069940194
145	0x3da23e08	0.07921988
146	0xbdc1b765	-0.09458808
147	0xbeb9a43e	-0.3625812
148	0xbd74d414	-0.059772566
149	0xbca662c3	-0.020310765
150	0x3e07f50b	0.1327707
151	0x3d953936	0.07286303
152	0x3ddcd559	0.1078288
153	0xbd8c244d	-0.06842861
154	0x3e220279	0.15821256
155	0x3d8aa94d	0.06770573
156	0xbe7900ab	-0.24316661
157	0x3bb1d433	0.0054269074
158	0x3e03e505	0.12880333
159	0xbd9010f7	-0.07034486
160	0xbd549a2f	-0.051904853
161	0x3cbe5534	0.023233987
162	0x3cf32e8d	0.029685283
163	0x3e18cbd4	0.14921504
164	0x3cc1a61d	0.02363878
165	0x3e8fc929	0.2808316
166	0x3afec144	0.001943626
167	0x3e3cf5f8	0.18453205
168	0x3d85da63	0.065357946
169	0xbccdaf9d	-0.025108153
170	0x3e3d0799	0.1845993
171	0x3c9450d5	0.01810495
172	0x3e470268	0.19434512
173	0xbbda7f30	-0.006667994
174	0x3e53e5f0	0.20693183
175	0xbd903161	-0.07040668
176	0xbeb35785	-0.3502771
177	0x3d945355	0.07242457
178	0x3d8f5a05	0.06999592
179	0x3e410057	0.18847786
180	0xbd704a3f	-0.058664557
181	0x3e40d686	0.18831834
182	0xbdfabff5	-0.12243644
183	0xbdb213c9	-0.0869518
184	0xbe13bb7d	-0.1442699
185	0xbd77f0ff	-0.060532566
186	0xbcfb2061	-0.030655088
187	0x3db4b2a2	0.08823134
188	0x3e6726bd	0.22573371
189	0x3e04bf76	0.12963662
190	0x3da678e8	0.0812853
191	0xbc65a57d	-0.014016506
192	0xbe1a3570	-0.15059447
193	0x3e7f083c	0.24905485
194	0x3e1c1d42	0.15245536
195	0x3d26966d	0.0406708
196	0x3d7fb2ca	0.062426366
197	0xbe0f7cc8	-0.14012444
198	0x3d8c09b6	0.0683779
199	0x3d7d4489	0.06183294
200	0xbc18bba5	-0.009322082
201	0x3e3d252b	0.1847121
202	0xbd2efb95	-0.042720396
203	0x3c756b8d	0.014979255
204	0x3dbcad70	0.09212768
205	0x3d1916bf	0.037375208
206	0x3eb1a32f	0.34694812
207	0x3cf129d6	0.029438894
208	0x3e1fb5e9	0.15596737
209	0x3e129070	0.14312911
210	0x3db80e1d	0.08987067
211	0x3e4e7ae8	0.20164073
212	0x3dd9b28f	0.106297605
213	0x3e6a416e	0.22876522
214	0x3e45200c	0.19250506
215	0x3dd611d4	0.10452619
216	0xbd373cc2	-0.044735678
217	0xbd77895f	-0.06043374
218	0x3d51b205	0.051195163
219	0x3e4a6497	0.19764934
220	0x3dc11f59	0.09429807
221	0x3e0d285b	0.13784926
222	0xbdedd7ef	-0.11613452
223	0x3d8e7de7	0.06957608
224	0x3d6a59f2	0.057214685
225	0xbec3b4aa	-0.38223773
226	0x3d5ff9e7	0.054681685
227	0xbe2a921e	-0.16657302
228	0x3e82a9c5	0.2552015
229	0x3eaf015c	0.34180725
230	0x3c73a977	0.014871947
231	0xbdcc48b0	-0.099748015
232	0x3d4ad9cf	0.049524125
233	0xbeb18242	-0.3466969
234	0xbe05c501	-0.13063432
235	0x3e42bcbe	0.19017312
236	0xbc72aff1	-0.0148124555
237	0xbea3fb27	-0.32027552
238	0x3e3a32ba	0.18183413
239	0x3d2f9107	0.04286292
240	0xbe0f7b77	-0.14011942
241	0x3debfc7c	0.11522767
242	0xbca7a17f	-0.02046275
243	0x3e7358bd	0.2376432
244	0x3d15bda8	0.036557823
245	0x3e140bdd	0.1445765
246	0x3e5b7aca	0.21433559
247	0x3bba2ecf	0.0056818496
248	0xbe327ac2	-0.17429641
249	0x3bb90f78	0.005647596
250	0x3d0f05ce	0.034917645
251	0x3d0fb709	0.035086665
252	0x3c86e35a	0.016465832
253	0x3dfb22e4	0.12262514
254	0x3de0fcc1	0.10985709
255	0x3d67025b	0.05639873

fc_value.bias f4 [128]
0	0x3da6d8c4	0.081468135
1	0x3daf9b20	0.085745096
2	0x3d9e16f1	0.077192195
3	0x3c81d7a8	0.015849903
4	0x3d9b76f3	0.07591047
5	0x3d10fb36	0.035395823
6	0xbb0b8e4a	-0.0021294528
7	0x3db5059d	0.08838961
8	0x3dac73b2	0.08420505
9	0x3cace7e7	0.021106673
10	0x00000000	0.0
11	0x3d69f284	0.057116047
12	0xbd7caeb9	-0.061690066
13	0xbd8f1fdb	-0.06988498
14	0x3d606eb0	0.05479306
15	0x3d2da194	0.04239042
16	0x3d9ae832	0.07563819
17	0x3da3cd06	0.079980895
18	0x3da9ef96	0.082976505
19	0x3ab56772	0.0013840033
20	0x3c78c977	0.015184752
21	0x3ca44867	0.020054055
22	0x3b0bd0f8	0.0021334272
23	0x3db21212	0.08694853
24	0xbb60270a	-0.0034202957
25	0xbb5f5022	-0.0034074862
26	0x3c083049	0.008312293
27	0x3b782926	0.0037866323
28	0x3d19195f	0.03737771
29	0x3dabdc76	0.08391659
30	0xba86b87c	-0.0010278369
31	0xbb2fe980	-0.0026842058
32	0x3d95d435	0.07315866
33	0x3d9ee3cb	0.07758292
34	0x3d21cced	0.039502073
35	0x3db54555	0.08851115
36	0x3dbcee69	0.09225161
37	0x3db4a227	0.088199906
38	0x3b996e65	0.0046823495
39	0x3c7f055c	0.015565243
40	0x3b6069b9	0.0034242703
41	0x3dadb082	0.08480932
42	0x3da13a7f	0.07872485
43	0x3df4ba43	0.11949589
44	0x3d4f4ac2	0.050608404
45	0x3da1aa3b	0.07893797
46	0x3d9e1fd8	0.077209175
47	0x3dbe521f	0.09293007
48	0x3d9b6ae9	0.07588751
49	0x3d9cf482	0.07663824
50	0x3d806ef4	0.06271163
51	0x3dc20156	0.09472911
52	0x3debf80b	0.1152192
53	0xb9426c2f	-0.00018541583
54	0x3cdab844	0.026699193
55	0x3da2b3a9	0.07944424
56	0x3daa2acc	0.08308944
57	0x3d5a8a49	0.053354535
58	0x3cf832f1	0.030297728
59	0x3e04bd4e	0.12962839
60	0x3d2831b2	0.04106302
61	0x3d77cb6a	0.060496725
62	0x3d65e56f	0.056127008
63	0x3da2ec52	0.07955231
64	0x3db78667	0.08961182
65	0x3c499536	0.012303641
66	0x3dc374b8	0.09543747
67	0xbcec7b20	-0.028867304
68	0x3dc6b1ca	0.09701879
69	0xbb77bde0	-0.0037802383
70	0x3d4ed12f	0.05049246
71	0x3d74a2a9	0.059725437
72	0x3da2d081	0.07949925
73	0x3db9be74	0.09069529
74	0x3cd5beab	0.026091894
75	0x3d41a9d0	0.047281086
76	0x3da429b9	0.080157705
77	0xbcc9f58d	-0.02465322
78	0xbc57092f	-0.013124748
79	0x3dc92393	0.09821238
80	0x3cd1c2dd	0.025605613
81	0x00000000	0.0
82	0x3dd49147	0.10379272
83	0x3d2df562	0.042470343
84	0xbca024fd	-0.019548887
85	0x3d2ee317	0.04269704
86	0x3dae09fc	0.08497998
87	0xba0e5e31	-0.0005430906
88	0x3b6b80da	0.0035934956
89	0x3da44282	0.08020498
90	0x3decf371	0.1156987
91	0x3d859e30	0.065243125
92	0xbb014591	-0.0019725303
93	0x3db16427	0.08661681
94	0x3da14b41	0.07875682
95	0x3d9fab1e	0.0779631
96	0x3d01fa9e	0.031733148
97	0x3dae32e9	0.08505804
98	0x3bc3eec2	0.00597939
99	0x3db22dc1	0.08700133
100	0x3d1ac81e	0.037788503
101	0x3da50c79	0.080590196
102	0x3b34b026	0.0027570813
103	0xbd0dc48a	-0.034611262
104	0x3c697b22	0.014250549
105	0x3d069404	0.032856002
106	0x3d9cbdd9	0.07653398
107	0x3da2c5be	0.079478726
108	0x3db4beed	0.08825479
109	0x3da1d06f	0.07901084
110	0x3dc46ce0	0.09591079
111	0x3dd6fa4f	0.10496961
112	0x3dacb71f	0.08433365
113	0xbd0f1c6b	-0.03493921
114	0x3d876d3d	0.066126324
115	0x3db8929c	0.090123385
116	0x3d533ddb	0.05157266
117	0xbc0365dd	-0.008019892
118	0xbcb2899b	-0.021794131
119	0x3da719df	0.081592314
120	0x3d9e3855	0.07725588
121	0x3d9fff78	0.07812399
122	0xbb4fc36f	-0.003170218
123	0x3dbd2af7	0.092367105
124	0x3c032e6a	0.008006671
125	0x3c9221b2	0.017838333
126	0xbcdc35e8	-0.026881173
127	0xbc7030d0	-0.014660075

value.weight f4 [1, 128]
0	0xbe9fe19f	-0.31226823
1	0xbe4621dc	-0.19348854
2	0xbe90f47a	-0.2831152
3	0x3edcde3d	0.43138304
4	0x3f71afc7	0.9440884
5	0x3e802e76	0.25035447
6	0xbf3cb3f6	-0.737121
7	0xbe9d6f88	-0.30749154
8	0xbe993fa8	-0.29931378
9	0x3e3a3ba7	0.18186818
10	0x3d093c60	0.033504844
11	0x3f09f994	0.5389645
12	0x3edef446	0.4354574
13	0x3f781a18	0.96914816
14	0x3f33fed2	0.703107
15	0x3ec59f5c	0.38598144
16	0x3f02b2ec	0.51054263
17	0xbe69f170	-0.22846007
18	0xbea26fd0	-0.3172593
19	0x3ed0f095	0.4080855
20	0x3e73eec1	0.23821546
21	0x3ef9b0d8	0.48767734
22	0xbf06c0ef	-0.52638143
23	0xbdff9778	-0.12480062
24	0xbf0008b7	-0.500133
25	0x3f526457	0.82184356
26	0x3ef827bf	0.48467824
27	0x3f050144	0.51955056
28	0x3ec99427	0.39370844
29	0xbe20dad7	-0.15708481
30	0x3f679d6f	0.904746
31	0x3e85507c	0.26037967
32	0x3f077966	0.52919614
33	0xbe3b6b05	-0.18302543
34	0x3f35c023	0.709963
35	0xbe096bc1	-0.13420011
36	0xbe119fde	-0.1422114
37	0xbe736d05	-0.23772056
38	0x3e87d73d	0.265314
39	0x3f8a0a91	1.0784475
40	0x3ec2cd03	0.38047037
41	0xbdc38098	-0.09546012
42	0xbe82fd0e	-0.2558369
43	0xbe5c2c24	-0.21501213
44	0x3f426c41	0.7594643
45	0xbe75509d	-0.23956533
46	0xbe90aa5f	-0.28254983
47	0xbe298243	-0.16553597
48	0x3ebaa445	0.36453453
49	0xbe6e2394	-0.2325576
50	0x3ee9f460	0.45694256
51	0xbe4f134f	-0.2022221
52	0xbe9d5a1c	-0.3073281
53	0xbe0468c3	-0.12930588
54	0xbe343421	-0.1759801
55	0xbe79ce96	-0.24395213
56	0xbe07bfe1	-0.1325679
57	0xbf5589a4	-0.8341315
58	0x3f0e9600	0.5569763
59	0xbe767f94	-0.24072105
60	0x3eb158f2	0.34638172
61	0xbf0a9cb0	-0.54145336
62	0x3f3afbf5	0.73040706
63	0xbe92c4bb	-0.28665718
64	0xbe4eaa6d	-0.201822
65	0x3ec7c574	0.39017832
66	0x3fa4fe93	1.289019
67	0x3f43a9dc	0.7643106
68	0xbe80b1e8	-0.25135732
69	0x3ee53a71	0.4477115
70	0xbdace853	-0.0844275
71	0x3f4d94bb	0.8030507
72	0xbe04b7e2	-0.1296077
73	0xbee6c15e	-0.45069402
74	0x3edc4ccd	0.43027344
75	0x3ef61c08	0.4806826
76	0xbe436ad2	-0.19083717
77	0x3e3548c7	0.17703544
78	0x3e9e232a	0.30886203
79	0xbe956e25	-0.29185596
80	0x3f829616	1.0202053
81	0xbdce15ed	-0.10062776
82	0xbe358628	-0.17726958
83	0x3ef37257	0.47548172
84	0x3f58d2a8	0.84696436
85	0x3f61debc	0.8823049
86	0xbea794ce	-0.32730716
87	0x3eb68825	0.35650745
88	0x3ece50c7	0.40296003
89	0xbe065219	-0.13117255
90	0xbe3f2153	-0.18665056
91	0x3edce774	0.43145335
92	0x3f1eadbb	0.6198384
93	0xbe9703f2	-0.29495198
94	0x3eccbaba	0.3998621
95	0xbe69cb8b	-0.22831552
96	0xbd5009e3	-0.05079068
97	0xbe6551e5	-0.22394522
98	0x3f0455cb	0.5169341
99	0xbe9c65be	-0.30546373
100	0x3ee4ed90	0.44712496
101	0xbe77209f	-0.24133538
102	0x3f4d69c9	0.8023954
103	0xbe23f71f	-0.16012238
104	0x3f03e825	0.515261
105	0x3ede4d25	0.43418232
106	0xbe90c9c4	-0.28278935
107	0xbe86e4d8	-0.2634647
108	0xbe441bbb	-0.19151203
109	0xbe6cd773	-0.23129062
110	0xbea925a1	-0.3303652
111	0xbd9d5c6c	-0.07683644
112	0xbede7500	-0.4344864
113	0x3e018d8e	0.12651655
114	0xbe96a952	-0.29426056
115	0xbe6c80a8	-0.23095953
116	0x3ecf9fce	0.4055161
117	0x3e8ca3e2	0.27468783
118	0x3eae16ff	0.3400192
119	0xbe896a1f	-0.26838776
120	0xbe82933d	-0.2550296
121	0xbe1ad932	-0.15121916
122	0x3f337dae	0.70113647
123	0xbe22d48f	-0.15901397
124	0x3f1f6466	0.6226257
125	0x3ec59ff0	0.38598585
126	0x3db76ca5	0.08956269
127	0x3e20cd48	0.15703309

fc_adv.weight f4 [128, 128]
0	0x3da3de43	0.080013774
1	0x3d5f1328	0.05446163
2	0x3d5c1f08	0.05374053
3	0x3d83ebda	0.064414695
4	0xbd162aba	-0.03666184
5	0xbc11523b	-0.008869703
6	0xbea88c08	-0.32919335
7	0xbe275394	-0.16340476
8	0x3d8a444e	0.06751309
9	0x3dcf7dc4	0.1013141
10	0x3d36cb0d	0.044627238
11	0xbcb01d1e	-0.02149826
12	0x3db97609	0.090557165
13	0xbd56f29c	-0.052477464
14	0x3c66eac4	0.014094058
15	0xbd9d35d5	-0.07676283
16	0x3dde5c40	0.10857439
17	0x3e0ce572	0.13759401
18	0xbd1383c8	-0.03601435
19	0xbdb2aa70	-0.087239146
20	0xbdfdad8a	-0.123866156
21	0xbda62450	-0.08112395
22	0x3e2b6092	0.16736057
23	0x3e2de0bb	0.16980259
24	0xbe1da220	-0.15393877
25	0xbe587b4b	-0.21140783
26	0x3c8c4c20	0.017126143
27	0xbe7274be	-0.23677346
28	0x3e1b619f	0.15173958
29	0x3c65482e	0.01399426
30	0xbd8569ad	-0.06514297
31	0xbe0e7bf5	-0.13914473
32	0xbe14ec83	-0.14543347
33	0xbcc5d7b9	-0.024150716
34	0x3e07ed65	0.13274153
35	0x3e233cf0	0.15941215
36	0xbe181d13	-0.14854841
37	0x3e89ab16	0.2688834
38	0x3c67da95	0.014151235
39	0x3e60eba4	0.2196489
40	0x3e0d6988	0.13809788
41	0xbda0edfa	-0.078578904
42	0x3dfe5a3a	0.12419553
43	0x3e1b0a9c	0.15140766
44	0xbd55fec9	-0.052244935
45	0x3ddbc247	0.10730415
46	0xbdb548e9	-0.08851797
47	0x3d145852	0.03621704
48	0xbe8a1a84	-0.26973355
49	0xbdbf20f9	-0.09332461
50	0x3d14e0e5	0.03634729
51	0xbdd56bbc	-0.10420939
52	0xbea81e78	-0.32835746
53	0x3e0d1a88	0.13779652
54	0x3d36cbe2	0.04462803
55	0xbe1ff11c	-0.1561932
56	0x3e05e138	0.13074195
57	0x3e150113	0.14551191
58	0xbe23424c	-0.15943259
59	0x3db7e2e5	0.089788236
60	0xbd812334	-0.063055426
61	0x3e204999	0.15653075
62	0x3cbe2c82	0.023214582
63	0x3e21bd04	0.1579476
64	0x3dba918a	0.091097906
65	0xbb1bceb4	-0.0023774328
66	0xbe661bba	-0.22471514
67	0xbde0d16e	-0.109774455
68	0x3daea3bf	0.08527326
69	0xbec9c92d	-0.39411297
70	0x3d358433	0.044315528
71	0x3db1d4bd	0.08683155
72	0xbe5b881f	-0.21438645
73	0x3d39cf6e	0.045363836
74	0x3e1b85a7	0.15187703
75	0x3cae7f46	0.021300923
76	0xbd9d9adc	-0.07695553
77	0xbe54bc81	-0.20775034
78	0xbe5fd8d0	-0.21860051
79	0x3d19ad52	0.037518807
80	0x3e120541	0.14259817
81	0x3cd749a0	0.026280224
82	0xbd216e29	-0.039411698
83	0xbd78822f	-0.060671028
84	0xbdfb53d2	-0.12271847
85	0x3d90d1f7	0.070712976
86	0xbcd39a99	-0.025830554
87	0xbd22a1d7	-0.039705124
88	0x3da57eb4	0.08080807
89	0x3d21c5f7	0.039495435
90	0x3da4a3e0	0.08039069
91	0xbe218b16	-0.15775713
92	0x3e1e19cb	0.15439527
93	0xbdc27c45	-0.09496359
94	0xbd83fcf7	-0.064447336
95	0xbd950065	-0.07275466
96	0xbdb5f28f	-0.08884155
97	0x3c0ef2e1	0.008724899
98	0xbd258f31	-0.04041976
99	0x3d88c984	0.06679061
100	0x3cb5ddbd	0.02220046
101	0x3d2cc1a2	0.04217685
102	0xbe5c6e10	-0.2152636
103	0x3d543c67	0.051815417
104	0x3c56829e	0.013092665
105	0x3d4fd06b	0.050735872
106	0xbe6c8efa	-0.23101416
107	0xbe1f4b56	-0.15556082
108	0xbe97194b	-0.29511485
109	0xbdc54936	-0.096331045
110	0xbe1bb07a	-0.15204039
111	0xbd560efa	-0.052260377
112	0xbcb0e24b	-0.02159228
113	0x3d8efbd6	0.06981628
114	0xbdfa2ff6	-0.12216179
115	0xbdb670ec	-0.08908257
116	0xbe1e3227	-0.15448819
117	0xbd92ad63	-0.07161977
118	0xbb84448e	-0.0040364927
119	0xbe144803	-0.14480595
120	0x39feaac9	0.000485739
121	0x3d0871f8	0.033311814
122	0x3d82a7f2	0.06379689
123	0xbe4d0ed1	-0.20025183
124	0x3c5e4e19	0.013568425
125	0xbe0303f3	-0.12794475
126	0xbdd8fee9	-0.10595495
127	0x3dd94178	0.1060819
128	0xbd1d9dd8	-0.03848061
129	0xbdc5a904	-0.09651378
130	0xbc959243	-0.01825822
131	0xbdad5bc9	-0.08464772
132	0xbe1f6f94	-0.15569907
133	0x3c6a58de	0.014303414
134	0xbd064e60	-0.032789588
135	0x3e6407fd	0.22268672
136	0x3ddcbb5b	0.10777923
137	0x3e06fdf4	0.13182813
138	0xbd835e8e	-0.06414519
139	0x3aa104ec	0.0012284792
140	0x3d83bad5	0.0643212
141	0xbe56207f	-0.20910834
142	0x3d830326	0.06397085
143	0xbd8209ce	-0.06349526
144	0xbd725bf3	-0.05916972
145	0x3d6c88cd	0.05774765
146	0xbd55a79c	-0.052161798
147	0xbc93a77d	-0.0180242
148	0x3e06e2df	0.13172482
149	0xbd67019d	-0.056398023
150	0x3e140466	0.14454803
151	0x3d8f52bc	0.06998202
152	0x3e286d92	0.16448048
153	0x3e1341ae	0.14380524
154	0xbd59bbca	-0.053157605
155	0x3be881be	0.0070955446
156	0xbb6f8cb9	-0.0036552383
157	0xbde13332	-0.10996093
158	0x3e192647	0.14956008
159	0x3dd2301e	0.10263084
160	0x3cf49414	0.029855765
161	0x3d922068	0.07135087
162	0xbd2c9d95	-0.04214247
163	0xbc238beb	-0.0099820895
164	0xbd04f969	-0.03246442
165	0x3dd02cd9	0.10164804
166	0x3d2b280d	0.041786242
167	0x3e1f735f	0.15571354
168	0x3e02d37e	0.1277599
169	0x3dc12300	0.09430504
170	0xbd296663	-0.04135741
171	0xbd870f59	-0.06594724
172	0xbd0f300b	-0.034957927
173	0x3dc93512	0.098245755
174	0x3e299437	0.16560446
175	0x3d9de5f6	0.07709877
176	0x3d8eea9d	0.06978343
177	0xbde63305	-0.112402
178	0xbe0b5f0f	-0.1361048
179	0x3db309a5	0.08742074
180	0xbd558ff0	-0.052139223
181	0x3dd56674	0.10419932
182	0x3d0383f0	0.032108247
183	0x3d5109f7	0.051034894
184	0x3db8c697	0.09022253
185	0xbdbe1028	-0.09280425
186	0xbd4bca65	-0.049753565
187	0x3ddfb530	0.10923231
188	0xbb44916f	-0.0029993912
189	0x3d8d3899	0.06895561
190	0xbd9ec7fa	-0.07752986
191	0x3e143fea	0.14477506
192	0xbe0a1bae	-0.13487121
193	0xbdbb258d	-0.091380216
194	0x3dd6542d	0.10465274
195	0x3c82d1c9	0.015969174
196	0x3df1d55b	0.118082725
197	0x3d973bcf	0.073844545
198	0x3e0765c2	0.13222411
199	0xbd0a6646	-0.03378894
200	0x3bcd4c13	0.0062651723
201	0x3d461082	0.048355587
202	0xbe24062f	-0.16017984
203	0x3da42350	0.08014548
204	0xbdf089c9	-0.117450304
205	0xbe168782	-0.1470013
206	0x3e94e50f	0.29081008
207	0x3d04a6a0	0.03238547
208	0x3dc58546	0.096445605
209	0x3db66744	0.08906415
210	0xbe089229	-0.13337006
211	0xbda7a9b3	-0.081866644
212	0x3cec755f	0.02886456
213	0x3cccf02a	0.025016863
214	0xbd9fc123	-0.0780051
215	0xbd88877f	-0.06666469
216	0x3e0867d3	0.13320856
217	0x3d8d13c6	0.06888537
218	0xbe1a8f09	-0.15093626
219	0x3de9d81a	0.11418171
220	0x3c0c5728	0.008565702
221	0x3e174495	0.14772256
222	0xbe2d30f2	-0.16913202
223	0xbc22c305	-0.009934192
224	0xbdf45414	-0.11930099
225	0xbe42e5e4	-0.19033009
226	0x3dab5bcd	0.08367119
227	0x3ccb12b3	0.02478919
228	0x3e015b6c	0.12632531
229	0xbdb5b6ae	-0.08872734
230	0x3d65355b	0.055959087
231	0xbd9f7926	-0.07786779
232	0xbd843206	-0.06454854
233	0xbe179a9b	-0.14805071
234	0x3e2018b1	0.15634419
235	0x3e18356e	0.14864132
236	0xbe33d64c	-0.17562217
237	0xbe37e599	-0.17958678
238	0x3db3e533	0.08783951
239	0xbde7326f	-0.11288916
240	0xbe1e99be	-0.15488335
241	0xbe0edb21	-0.13950779
242	0xbd70a45a	-0.058750488
243	0x3e927963	0.28608236
244	0xbdc61841	-0.09672595
245	0x3dc995e3	0.09843042
246	0x3d9aa9bf	0.07551908
247	0xbe1821f0	-0.14856696
248	0xbd57a4c0	-0.052647352
249	0xbb647f03	-0.0034865744
250	0x3e23b411	0.15986659
251	0xbe14b8e1	-0.1452365
252	0x3df4ee34	0.11959496
253	0xbe0ed3d3	-0.13947992
254	0xbd3a5127	-0.04548755
255	0xbd32dfda	-0.043670513

fc_adv.bias f4 [128]
0	0xbd2beda7	-0.04197469
1	0x3c153e27	0.009109057
2	0x3b8c3e4b	0.004279887
3	0x3c8e4c84	0.01737047
4	0xbd1bac23	-0.03800596
5	0xbce2fa3c	-0.027707212
6	0xbd0ac1aa	-0.0338761
7	0x3c852b08	0.01625587
8	0xbd6b5cb2	-0.057461448
9	0x3b5f5472	0.0034077433
10	0xbc6f4fdd	-0.014606443
11	0x3beb31db	0.007177574
12	0xbd3e7023	-0.04649366
13	0xbb93a29a	-0.0045054676
14	0x3d60ef6c	0.05491583
15	0x3c65645f	0.014000981
16	0x3cb88c1d	0.022527749
17	0x3c161fa8	0.009162821
18	0x3ce87d57	0.02838008
19	0xbbca30f5	-0.006170387
20	0x3c5c2c1d	0.013438252
21	0x3bf2eb7e	0.0074133268
22	0xbcc4e0f5	-0.02403305
23	0xbd3fa0b0	-0.046784103
24	0x3c678094	0.0141297765
25	0xbc8f94b4	-0.017526962
26	0x3c973a36	0.018460374
27	0xbc53ef85	-0.012935524
28	0xbcad692b	-0.021168312
29	0xbcdf8041	-0.027282836
30	0x3c15d26b	0.009144406
31	0xbac2b483	-0.0014854822
32	0xbbf1b504	-0.007376315
33	0x3aa6ab60	0.0012715869
34	0xbb0db5a2	-0.0021623154
35	0xba9af564	-0.00118224
36	0x3ce0f77c	0.02746176
37	0x3b5dc284	0.0033837864
38	0xbd63b91e	-0.055596463
39	0xbb7a95cd	-0.003823626
40	0x3a078b9d	0.00051706453
41	0xbd4daa12	-0.05021102
42	0xbbd7259e	-0.0065657636
43	0x3c747362	0.0149200875
44	0x3ce519bf	0.027966378
45	0x3c4ae5f8	0.01238393
46	0xbcae8cd1	-0.02130738
47	0xbd3e5bdd	-0.046474326
48	0xbb46c439	-0.003032936
49	0xbc1148cb	-0.008867453
50	0x3c99acbe	0.018759128
51	0xbcf12574	-0.029436804
52	0xbb1bfc0b	-0.0023801352
53	0xbd0e70ab	-0.034775417
54	0xbb862cf6	-0.004094715
55	0xbcfafbba	-0.03063761
56	0xbc26254c	-0.010140728
57	0xbd30a510	-0.043126166
58	0x3cfc0d76	0.030768137
59	0x3d3add35	0.045621116
60	0xbd28dc02	-0.04122544
61	0xbd480b66	-0.048838995
62	0x3d3c3c56	0.04595598
63	0xbd4d6923	-0.050149094
64	0x3c53e530	0.0129330605
65	0xbb55a12e	-0.0032597291
66	0xbd32b2ff	-0.043627735
67	0xbd263bdc	-0.04058443
68	0xbb960753	-0.00457851
69	0xbd0a00b4	-0.033692077
70	0xbc456a9c	-0.012049343
71	0xbd67fd97	-0.056638326
72	0xbd65a674	-0.056066945
73	0xbb231c03	-0.0024888522
74	0xbc8fde5e	-0.017562088
75	0x3d5dc32f	0.05414122
76	0xbc4a33da	-0.012341464
77	0x3d2e0e67	0.042494204
78	0x3c85252f	0.016253082
79	0xbbde81c1	-0.00679037
80	0xbcbd847f	-0.023134468
81	0xbca8f6d8	-0.020625517
82	0x3bc033d2	0.0058655525
83	0x3ce51438	0.027963743
84	0xba53c7ce	-0.00080787844
85	0xbc11b13e	-0.0088923555
86	0x3cbb69a7	0.022877527
87	0x3b1a61ae	0.0023556757
88	0xbd548636	-0.051885806
89	0x3ca0faf3	0.019650912
90	0x3c09f10c	0.008419286
91	0x3d19de24	0.037565365
92	0x3bc3fa87	0.005980793
93	0x3a991fbf	0.0011682435
94	0x3b083175	0.0020781432
95	0x3c3779d7	0.0111984825
96	0x3d5a46b0	0.05329007
97	0xbad7e829	-0.0016472387
98	0x3bd32262	0.0064433077
99	0xbd2ec08c	-0.042664096
100	0xbd2fce47	-0.04292133
101	0xbcfe9c6c	-0.031080447
102	0x3c831081	0.01599908
103	0xbc95b1b1	-0.018273206
104	0xbc3f885c	-0.011690225
105	0x3cd1c34d	0.025605822
106	0xbd0624e2	-0.032750018
107	0xbd0df917	-0.03466138
108	0xbc2b2e2a	-0.010448018
109	0x3bd0ed87	0.0063759717
110	0xbd97ed98	-0.07418364
111	0xbc7dc88a	-0.015489707
112	0x3cc6e14e	0.024277356
113	0x3ca51ba8	0.02015479
114	0xbd4d43c3	-0.05011345
115	0x3b1cda81	0.002393395
116	0xbd03ea89	-0.032206092
117	0x00000000	0.0
118	0xbcf16c1e	-0.0294705
119	0x3cc1a2fe	0.023637291
120	0xbba5e125	-0.0050622397
121	0x3c417231	0.0118070105
122	0xbcc228af	-0.02370104
123	0x3d475d66	0.048673056
124	0xbb14a206	-0.0022679581
125	0xbb4425a3	-0.002992966
126	0x3d4c66b7	0.049902644
127	0xbdf9c340	-0.12195444
