Project/output/cartpole_ddqn/final_model.pth (torch, 287812 bytes, 24 tensors)

fc1.weight f4 [128, 4]
0	0x3d70977a	0.05873821
1	0x3caaa627	0.02083118
2	0x3dc08789	0.09400851
3	0x3dbc7bfb	0.09203335
4	0xbce0f925	-0.027462551
5	0x3e5dee8b	0.21673028
6	0x3f2d40df	0.6767711
7	0x3de4771d	0.111555316
8	0x3ed89fda	0.42309457
9	0x3e7f033c	0.24903578
10	0x3c5361ba	0.012901718
11	0x3dd84ab7	0.10561126
12	0x3cff2551	0.031145724
13	0x3ea1755b	0.31534848
14	0x4001c7cb	2.0278194
15	0x3ef551bb	0.47913918
16	0xbe069c2d	-0.13145514
17	0x3d198b35	0.037486274
18	0x3e18721b	0.14887278
19	0x3e3aab50	0.18229413
20	0x3cb8cdab	0.022559008
21	0x3e0b2700	0.13589096
22	0xbf5ab72f	-0.85435766
23	0xbccc1513	-0.024912393
24	0xbe429497	-0.19001995
25	0x3e3fe3df	0.1873927
26	0x3fa45401	1.2838136
27	0x3d03974e	0.032126717
28	0x3d785355	0.060626347
29	0xbd389cbc	-0.04507135
30	0xbf344305	-0.70414764
31	0xbe53628f	-0.20643066
32	0x3e0bd723	0.13656287
33	0x3c235d18	0.009970926
34	0xbfb08245	-1.3789755
35	0xbe8ec0f5	-0.2788159
36	0xbeab994c	-0.33515394
37	0x3b8f8376	0.004379685
38	0x3ebf77d8	0.3739612
39	0x3de78605	0.11304859
40	0xbe031a63	-0.12803034
41	0x3e165f2a	0.1468474
42	0xbe8f8469	-0.28030708
43	0x3d779fa7	0.06045499
44	0x3d05a691	0.032629553
45	0x3cb67a13	0.022275006
46	0xbfc95351	-1.5728551
47	0xbe518d3c	-0.20464033
48	0x3f52b2e4	0.82304215
49	0x3ea5eb08	0.32405877
50	0xbe39988f	-0.18124603
51	0x3e7e6e0d	0.24846669
52	0xbe8fbf1e	-0.28075498
53	0xbeaca919	-0.3372276
54	0xbfa66f4a	-1.3002713
55	0xbea13762	-0.31487566
56	0xbf03f7c7	-0.51549953
57	0xbe009a8d	-0.12558956
58	0xbf68a29f	-0.9087314
59	0xbe94774a	-0.2899726
60	0xbe6b589c	-0.2298302
61	0x3dab8517	0.08374994
62	0xbef723e8	-0.48269582
63	0xbe0249c6	-0.12723455
64	0xbe1bcb1d	-0.152142
65	0x3e2a5172	0.16632631
66	0x3fa8510d	1.3149735
67	0xbdb9490f	-0.09047138
68	0x3c88ca27	0.016697956
69	0xbcc0b5ed	-0.023524249
70	0xbfd62a28	-1.6731615
71	0xbeb0c6d4	-0.34526694
72	0x3e2b6a6e	0.16739818
73	0xbdcd3e0a	-0.10021599
74	0x3e13766d	0.14400645
75	0xbb93e01b	-0.0045127994
76	0xbf17ede6	-0.5934738
77	0xbdbeef65	-0.09323005
78	0x3e50afc1	0.20379545
79	0xbe164a72	-0.14676836
80	0xbdaba550	-0.0838114
81	0xbd9a4fca	-0.0753475
82	0xbf7ce8f3	-0.9879295
83	0xbe436661	-0.19082023
84	0xbeebecbe	-0.46079057
85	0xbe69a030	-0.22815013
86	0x3c5fe82c	0.013666194
87	0xbd4fc54f	-0.050725278
88	0x3edf1794	0.43572676
89	0x3e935706	0.2877733
90	0xbe566bbf	-0.2093954
91	0x3d53562c	0.05159585
92	0xbedea2f9	-0.43483713
93	0x3e2db7f9	0.16964711
94	0x3d9a7f7b	0.07543846
95	0xbe175bef	-0.14781164
96	0xbe1aca65	-0.1511627
97	0x3dc49d82	0.09600355
98	0x3fce1433	1.6099914
99	0x3ea18bce	0.31551975
100	0x3f2542e5	0.645552
101	0x3df1fe23	0.11816051
102	0xbfbc089b	-1.4690126
103	0xbdc811fe	-0.09769057
104	0x3e140c1a	0.14457741
105	0xbbe97d66	-0.0071255444
106	0xbec879cd	-0.39155427
107	0xbdc3c943	-0.09559872
108	0xbd8f23ec	-0.069892734
109	0xbc902a37	-0.017598255
110	0x3f36d4db	0.7141854
111	0x3e02f997	0.12790523
112	0x3e82dd5d	0.25559512
113	0x3e966dff	0.29380795
114	0x4006da16	2.107061
115	0x3ee7fc2b	0.45309576
116	0xbf4309b2	-0.7618667
117	0xbebccbbb	-0.36874184
118	0x3f2c3925	0.67274696
119	0x3da9fb9e	0.08299945
120	0x3e5acd70	0.2136743
121	0xbc010d71	-0.00787674
122	0x3f35c068	0.70996714
123	0x3d9a4b5e	0.075339064
124	0x3e1f9f70	0.15588164
125	0x3e4b7d28	0.19871962
126	0xbf266fc0	-0.65014267
127	0x3dbc3bab	0.09191068
128	0xbd96b4cf	-0.07358705
129	0x3dd9be73	0.106320284
130	0x3fbc11ab	1.4692892
131	0x3e95bc36	0.29245156
132	0xbdf52941	-0.11970759
133	0x3d5b451f	0.053532716
134	0x3f2dd902	0.6790925
135	0x3e2f271d	0.17104764
136	0x3e41d614	0.1892932
137	0x3ebb9d3c	0.36643398
138	0x3f37bca3	0.7177221
139	0x3e96b317	0.2943351
140	0xbe8adabf	-0.27120015
141	0x3e12209f	0.14270256
142	0x3fb6f8af	1.4294642
143	0x3e8db196	0.2767455
144	0x3d08326d	0.033251215
145	0x3d6c0398	0.057620615
146	0x3e069c1e	0.13145491
147	0x3d74f3f5	0.059802968
148	0xbdae7548	-0.085184634
149	0xbc98c63a	-0.01864921
150	0x3ec19369	0.37807778
151	0x3e094994	0.13406974
152	0x3e53682b	0.20645206
153	0x3b7d581e	0.0038657258
154	0x3f221ec1	0.63328177
155	0xbca07888	-0.019588724
156	0xbd5dc473	-0.054142427
157	0xbd777724	-0.060416356
158	0x3e81b0e8	0.2533028
159	0x3d2ee132	0.04269523
160	0xbf2ccb1b	-0.67497414
161	0xbea3cc96	-0.31992024
162	0x3f0f9b71	0.5609656
163	0x3d8fec42	0.070274845
164	0x3edbad5d	0.42905703
165	0xbcf10864	-0.029422946
166	0xbf9f8d7d	-1.2465054
167	0xbe1b02b4	-0.1513775
168	0xbea5e55c	-0.3240155
169	0xbe085720	-0.13314486
170	0xbecf5568	-0.40494847
171	0xbdd22945	-0.10261778
172	0x3db02bfe	0.08602141
173	0x3dbf02da	0.09326716
174	0x3f4ab053	0.791753
175	0x3df22440	0.118233204
176	0xbd8a4fa7	-0.06753474
177	0x3cc7f633	0.02440939
178	0x3ea3f57d	0.3202323
179	0xbe80cdd7	-0.25157043
180	0x3dfac89f	0.12245297
181	0x3ba0a93d	0.0049029873
182	0xbeb92bd9	-0.36166266
183	0xbe299d14	-0.16563827
184	0xbefc3bb5	-0.49264303
185	0xbeafd4f1	-0.3434215
186	0xbcfb1317	-0.030648751
187	0xbe13f895	-0.14450295
188	0xbf07422b	-0.5283534
189	0xbeea8350	-0.45803308
190	0x3dfa7778	0.12229818
191	0xbd180982	-0.037118442
192	0xbee60c99	-0.44931486
193	0xbee8c12c	-0.45459878
194	0xbf788546	-0.9707836
195	0xbeb1f413	-0.34756526
196	0x3d777e32	0.060423084
197	0xbd087c82	-0.033321865
198	0x3f0dd5f7	0.5540461
199	0x3db70e99	0.08938331
200	0x3eb231dd	0.34803668
201	0x3e9a9a05	0.30195633
202	0x3ea5e78c	0.3240322
203	0x3e7ad5bd	0.24495597
204	0xbf45b2c7	-0.7722592
205	0xbedf321b	-0.43592915
206	0xbfb4ce34	-1.4125428
207	0xbe58c8b0	-0.21170306
208	0x3dcc7e1b	0.0998499
209	0xbde487c0	-0.11158705
210	0xbfdef41f	-1.741825
211	0xbeb63cd5	-0.35593286
212	0x3ed306b0	0.4121604
213	0x3ea4501e	0.32092375
214	0x3e22f06f	0.1591203
215	0x3e581396	0.21101221
216	0xbe981155	-0.29700723
217	0xbea74551	-0.32670072
218	0xbf9788e3	-1.183865
219	0xbeb426f6	-0.35185975
220	0x3ce15662	0.02750701
221	0xbe09159a	-0.13387147
222	0x3ebd4eac	0.36974084
223	0xbcb82ce4	-0.022482343
224	0x3eb1571a	0.34636766
225	0xbe525e86	-0.2054387
226	0xbf3dd430	-0.741519
227	0x3e52214b	0.20520513
228	0xbeb0b217	-0.34510872
229	0xbe67171c	-0.2256741
230	0x3f98033c	1.1875987
231	0x3e943a19	0.28950575
232	0x3daa200e	0.08306895
233	0xbeb6e1d6	-0.35719174
234	0xbfc399a3	-1.5281261
235	0xbdb683af	-0.089118354
236	0x3ebe782c	0.3720106
237	0xbd653755	-0.05596097
238	0xbfa9d72d	-1.3268791
239	0xbe93e68d	-0.28886834
240	0xbe820039	-0.25390795
241	0x3e5f332f	0.21796869
242	0xbee14a44	-0.44001973
243	0xbe807ee4	-0.2509681
244	0xbe449fcc	-0.19201583
245	0x3e09670c	0.13418216
246	0x3f368bb1	0.713069
247	0x3e6fc1ce	0.23413774
248	0x3e841691	0.25798467
249	0x3ca76dc3	0.02043808
250	0x3e53730b	0.20649354
251	0xbcf1b261	-0.029504003
252	0xbe8f42f6	-0.27980775
253	0xbef17c91	-0.4716535
254	0xbf98a1f4	-1.1924424
255	0xbe941a2c	-0.28926218

fc1.bias f4 [128]
0	0x3ebfe20c	0.37477148
1	0x3e066a63	0.13126521
2	0xbe04a51a	-0.12953606
3	0xbe830d7a	-0.2559622
4	0x3ebc8f28	0.3682797
5	0x3eaf81d7	0.34278747
6	0xbcfcb438	-0.030847654
7	0x3ee297f6	0.44256562
8	0xbee84570	-0.45365477
9	0x3ea00dd1	0.3126054
10	0x3ebe9d62	0.3722945
11	0xbec67d33	-0.38767394
12	0x3c393479	0.011304014
13	0x3e16c31d	0.14722867
14	0xbf423629	-0.7586389
15	0x3ed12815	0.40850893
16	0x3e0f616e	0.1400201
17	0xbf093d35	-0.5360902
18	0x3ebede9d	0.37279215
19	0x3e3705be	0.17873284
20	0x3eda445b	0.42630276
21	0xbcce4f15	-0.025184194
22	0xbdea4a6a	-0.114399746
23	0x3f12d959	0.57362896
24	0xbede6c32	-0.4344192
25	0x3d5fd0bc	0.054642424
26	0x3ec61cea	0.38693935
27	0x3ecad23f	0.3961353
28	0x3e2c6964	0.16837078
29	0xbe2808e0	-0.16409636
30	0x3ec502f6	0.38478822
31	0x3f0135dc	0.5047281
32	0xbeb349cd	-0.35017243
33	0x3ec67707	0.38762686
34	0x3f0b041d	0.5430315
35	0x3eba367d	0.36369696
36	0x3ec196e5	0.37810436
37	0x3ebb4499	0.36575773
38	0x3ebe1234	0.37123263
39	0x3eb49f9b	0.3527802
40	0xbe84712d	-0.25867596
41	0x3ed93c9a	0.42429048
42	0x3e87c90a	0.26520568
43	0x3ee0d5fe	0.43913263
44	0x3ebaed93	0.3650938
45	0x3ec47e15	0.38377443
46	0xbeb9ddf0	-0.36302137
47	0xbe6b9289	-0.23005117
48	0x3e2cf167	0.16888963
49	0x3ea4ff85	0.32226196
50	0xbd3b4544	-0.045720354
51	0x3ca82fcb	0.020530602
52	0xbef3f2d8	-0.47646213
53	0xbdbf6450	-0.09345305
54	0xbe39cf6c	-0.18145531
55	0x3eb879c5	0.36030403
56	0x3f31e5b7	0.6949114
57	0x3e7d33d1	0.24726798
58	0x3df09f30	0.117491126
59	0x3e80f13d	0.2518405
60	0xbedde65f	-0.43339822
61	0x3ed6a1dc	0.41920364
62	0x3ed77261	0.42079452
63	0x3e07e65c	0.13271469
64	0x3e128465	0.14308317
65	0xbaca1eae	-0.001542052
66	0x3ec93e2b	0.39305243
67	0x3ed4f468	0.41592717
68	0x3eb3b0c9	0.35095814
69	0x3edfc384	0.43703854
70	0x3ece4bce	0.4029221
71	0xbea74b5e	-0.32674688
72	0x3eba3a6b	0.36372694
73	0x3e812586	0.2522394
74	0x3ec95bb2	0.3932777
75	0x3cf28ef0	0.029609174
76	0x3e8ad6c6	0.27116984
77	0x3eb5c2d3	0.35500202
78	0xbee8df23	-0.4548274
79	0x3ed624e2	0.41825014
80	0x3ecf332e	0.40468735
81	0xbce7295a	-0.02821796
82	0x3eb80463	0.35940847
83	0x3eae3f1f	0.34032533
84	0xbec1d404	-0.37857068
85	0xbdb7addf	-0.0896871
86	0xbba5835b	-0.005051059
87	0x3e7309c4	0.23734194
88	0xbe969404	-0.29409802
89	0x3ed8c967	0.42341158
90	0x3dc4b8ea	0.09605582
91	0xbddf4d08	-0.109033644
92	0x3eb4d5fa	0.353195
93	0xbe8a119b	-0.26966557
94	0x3ec5697c	0.3855704
95	0xbd1caa03	-0.038248073
96	0xbf10fd80	-0.5663681
97	0x3ec50b5b	0.38485226
98	0x3edb3372	0.42812687
99	0xbea66097	-0.32495567
100	0xbeaf51aa	-0.34241992
101	0xbd2a3ef8	-0.041563958
102	0xbdb5c07e	-0.088746056
103	0xbecc41e7	-0.3989403
104	0x3d13fc13	0.03612907
105	0x3eb0219f	0.3440065
106	0x3edc7cc2	0.43063933
107	0x3e0ac8ef	0.13553213
108	0x3ec49ba2	0.38399988
109	0x3eed336b	0.4632829
110	0x3eb1d7b4	0.3473488
111	0xbdaceb2f	-0.08443295
112	0xbecc8b39	-0.39949968
113	0x3eb64440	0.35598946
114	0x3ef3fb79	0.47652796
115	0xbdb123b2	-0.086493865
116	0x3e899fc6	0.2687971
117	0xbeea82c5	-0.45802894
118	0x3ed956b0	0.4244895
119	0x3ead8ba5	0.33895603
120	0xbed18cb4	-0.4092766
121	0x3ee44cb3	0.44589767
122	0xbedfbf6e	-0.43700737
123	0x3ecba0ba	0.39771062
124	0x3eaa1d4e	0.33225483
125	0x3ed8360e	0.4222874
126	0xbe7179cc	-0.23581618
127	0x3ce20276	0.027589064

fc2.weight f4 [128, 128]
0	0xbf28551b	-0.6575486
1	0xbe047b71	-0.12937714
2	0x3f3ccd71	0.7375098
3	0xbddee30b	-0.10883149
4	0xbdc26a91	-0.09492982
5	0xbe3c6385	-0.18397339
6	0x3e0ef33e	0.13959977
7	0xbdd5df70	-0.10443008
8	0x3f591289	0.8479391
9	0xbcad3093	-0.021141326
10	0xbe3014ee	-0.17195484
11	0x3f8d29a9	1.1028339
12	0x3eb1c36c	0.34719408
13	0x3e27884a	0.16360584
14	0x3f065988	0.52480364
15	0xbd14d6c9	-0.036337648
16	0x3e758d57	0.23979698
17	0x3f2faaa8	0.68619776
18	0xbf5782f3	-0.8418419
19	0x3e7b9446	0.2456828
20	0x3e5ed60d	0.21761341
21	0x3eaa1700	0.33220673
22	0x3ed78c76	0.4209935
23	0x3e86cec2	0.2632962
24	0xbd69727b	-0.056993943
25	0x3e7d3bde	0.24729869
26	0xbed21708	-0.41033196
27	0xbf92b3e2	-1.1461146
28	0xbcb42c00	-0.021993637
29	0x3e9bf3d7	0.30459473
30	0xbfac399b	-1.345508
31	0xbf7d5a5e	-0.98966014
32	0x3d041783	0.032248985
33	0xbf7df0c4	-0.99195504
34	0xbdf748cf	-0.12074434
35	0x3d1ceaec	0.038309976
36	0xbf064549	-0.5244947
37	0xbee442cb	-0.4458221
38	0xbfba4aa7	-1.4554032
39	0xbe75a733	-0.23989563
40	0x3f0964ca	0.53669417
41	0xbeb56707	-0.35430166
42	0x3e5813ab	0.21101253
43	0xbfadaf4f	-1.3569125
44	0xbe266dcb	-0.1625282
45	0xbe5c3263	-0.21503596
46	0x3efbd197	0.49183342
47	0x3f08cd97	0.53438705
48	0x3ed05f13	0.40697536
49	0xbf62fef5	-0.88670284
50	0x3ece0927	0.40241358
51	0x3f01a654	0.5064442
52	0x3f4edc96	0.8080534
53	0x3f5ae0b8	0.85499144
54	0x3ebf7a55	0.3739802
55	0xbecf465f	-0.40483376
56	0xbf9331f7	-1.1499623
57	0xbe021ea8	-0.12707007
58	0x3e66c33e	0.22535416
59	0xbeae88b1	-0.34088662
60	0x3f0db6c5	0.5535701
61	0xbf80530a	-1.0025342
62	0xbfad07f2	-1.351805
63	0x3ec88be0	0.39169216
64	0x3e978574	0.29594004
65	0x3f17cdb9	0.5929828
66	0xbf842532	-1.0323851
67	0xbecff73d	-0.40618315
68	0xbe09c78d	-0.13455029
69	0xbfc3e222	-1.5303385
70	0xbfe20125	-1.7656599
71	0xbe47dd51	-0.1951802
72	0xbf938bfb	-1.1527094
73	0x3e9f259e	0.31083387
74	0xbf31a0c7	-0.6938595
75	0x3e8178e8	0.25287557
76	0x3e807d04	0.2509538
77	0xbe06b977	-0.13156687
78	0x3e149ea8	0.14513648
79	0xbd8613a7	-0.06546717
80	0xbe982935	-0.29718938
81	0x3e91c899	0.28473356
82	0xbf4e9269	-0.80692154
83	0xbf076f62	-0.5290433
84	0x3f20138b	0.6252982
85	0x3f145ef7	0.57957405
86	0xbe33dc0a	-0.17564407
87	0xbe236193	-0.1595519
88	0x3f0bc249	0.5459333
89	0xbfc0ccf0	-1.5062542
90	0xbd17c34a	-0.037051477
91	0x3d17edc6	0.037091993
92	0xbf7004a2	-0.9375707
93	0x3f19c58d	0.60067064
94	0xbe72456f	-0.236593
95	0x3ecd4846	0.40094203
96	0x3f55a436	0.8345369
97	0xbee7b399	-0.4525421
98	0xbfc65ed0	-1.5497684
99	0x3f888ad0	1.0667362
100	0x3f069ccc	0.52583003
101	0xbea44988	-0.3208735
102	0x3ebc67fe	0.3679809
103	0x3f67f368	0.90605783
104	0xbe2181e0	-0.157722
105	0xbf3e58b0	-0.74354076
106	0xbe0a218b	-0.13489358
107	0x3d8f87cf	0.07008325
108	0xbed11a76	-0.408405
109	0xbd6935cf	-0.05693608
110	0xbed74d11	-0.42050985
111	0xbe05f23d	-0.13080688
112	0x3d570283	0.05249263
113	0xbe30e1fb	-0.17273705
114	0x3def960d	0.11698542
115	0x3c2eeaa1	0.010676057
116	0xbd84a106	-0.06476025
117	0x3f7ba5de	0.9829997
118	0xbe970d7a	-0.2950247
119	0xbeb8a72d	-0.36065045
120	0x3f0faaa3	0.56119746
121	0xbd3b6677	-0.045752015
122	0x3e8d9297	0.27650902
123	0x3b4bb1b6	0.0031081266
124	0x3da041ff	0.07825088
125	0x3e58dbae	0.21177551
126	0x3f1b563c	0.6067846
127	0x3ecb66e4	0.39726937
128	0x3e66215f	0.22473668
129	0xbe0ec448	-0.13942063
130	0xbefc61df	-0.4929342
131	0x3d98454d	0.07435093
132	0x3e883f2c	0.26610696
133	0xbdbb2f50	-0.091398835
134	0x3edcba67	0.43110964
135	0x3c8a3ea2	0.016875569
136	0xbf354c3f	-0.7081947
137	0x3e71931f	0.23591278
138	0x3e11da15	0.14243348
139	0x3ecb6ac3	0.3972989
140	0xbd9f36cf	-0.07774126
141	0x3e4e5e75	0.2015322
142	0x3e88dfc1	0.2673321
143	0x3a49563d	0.0007680392
144	0x3e879535	0.26481023
145	0xbf0c6a0f	-0.5484933
146	0x3e0f094f	0.13968395
147	0x3ee951ac	0.45570123
148	0xbb6f80a5	-0.0036545184
149	0x3de7b1c1	0.11313201
150	0xbf0b8f85	-0.5451587
151	0x3e809062	0.25110155
152	0xc080b50f	-4.022102
153	0xbf1f5347	-0.62236446
154	0x3e2dc3ff	0.16969298
155	0x3e9a47f9	0.30133036
156	0xbe28cb88	-0.16483891
157	0xbdb05520	-0.08609986
158	0x3c893693	0.016749656
159	0xbdec354e	-0.115336046
160	0xc052182c	-3.2827253
161	0x3dc51624	0.096233636
162	0xbe552f46	-0.20818815
163	0x3e729bb0	0.23692203
164	0x3e73c78b	0.23806588
165	0x3d229929	0.039696846
166	0x3e57b877	0.21066462
167	0x3db11b73	0.08647814
168	0xbeb28677	-0.34868214
169	0xbe23a8e4	-0.15982395
170	0xbcc52502	-0.024065498
171	0x3e7e1d0a	0.24815765
172	0x3e8e4c91	0.2779279
173	0x3e5fe9dc	0.21866554
174	0xbf7e4c9d	-0.9933565
175	0xbe7bd835	-0.24594195
176	0x3d9300e4	0.07177904
177	0x3e8e0320	0.2773676
178	0x3dff317a	0.12460609
179	0x3d890851	0.06691039
180	0x3e5c6948	0.21524537
181	0xbebc86a3	-0.3682147
182	0xbe816a14	-0.25276244
183	0x3d89cc4f	0.06728422
184	0x3e4a2dc8	0.19744027
185	0x3c9fb75d	0.019496614
186	0x3c4b96bd	0.0124260755
187	0xbeacc98d	-0.3374752
188	0xbf37c6de	-0.7178782
189	0x3ea8752d	0.32901898
190	0xbdb7c7f8	-0.08973688
191	0x3e8380ca	0.25684196
192	0x3e8adb61	0.27120498
193	0xbeffd738	-0.49968886
194	0x3e1ece86	0.1550847
195	0x3e82612c	0.2546476
196	0x3dd3a442	0.10334064
197	0x3e67834a	0.22608677
198	0x3e19c327	0.15015851
199	0xc019fdde	-2.4061198
200	0x3e654374	0.22389013
201	0xbe015bfe	-0.12632748
202	0x3e3b1683	0.18270306
203	0x3d34259b	0.043981176
204	0x3dec240b	0.11530312
205	0x3e17de38	0.14830863
206	0xbf941743	-1.1569599
207	0xbdbdf96d	-0.0927609
208	0xbd155762	-0.036460288
209	0xbedb2828	-0.42804074
210	0x3dd887f6	0.105728075
211	0x3dc6ffa5	0.09716729
212	0xbfdead36	-1.739661
213	0xbee9950b	-0.45621523
214	0xbed08aea	-0.40730983
215	0xbe9065d5	-0.28202692
216	0xbe02a3a0	-0.1275773
217	0x3dfb82e4	0.12280825
218	0x3e5cf0fb	0.21576302
219	0x3dd540b9	0.104127355
220	0x3eb42a49	0.3518851
221	0xbef0c965	-0.47028652
222	0xbc7b1b1e	-0.015326289
223	0x3d1a56a0	0.03768027
224	0xc057d67f	-3.3724668
225	0x3e43a648	0.191064
226	0x3d53c636	0.0517027
227	0xbe3b54bf	-0.18294047
228	0xbf509d37	-0.8148989
229	0x3ea7b873	0.3275791
230	0xbed897db	-0.42303357
231	0xbe881b35	-0.26583257
232	0x3e4979d0	0.19675374
233	0x3e7bb247	0.24579726
234	0xbcbc7bb5	-0.023008207
235	0xbe723409	-0.23652662
236	0x3cffe3fb	0.03123664
237	0xbd13ad07	-0.036053684
238	0x3e72fa7f	0.23728369
239	0x3dfadd0f	0.12249195
240	0xc063f502	-3.561829
241	0x3d12d8e9	0.035851393
242	0xbccfbf2c	-0.025359713
243	0xbe4ad1d7	-0.1980661
244	0x3df13a13	0.11778655
245	0x3d8a0b5b	0.06740447
246	0x3d31688d	0.043312598
247	0x3e229ae2	0.15879396
248	0xbea069a3	-0.31330594
249	0xbdbf58a9	-0.093430825
250	0xbfcd34c1	-1.6031724
251	0x3dd91258	0.10599202
252	0x3e52379c	0.20529026
253	0x3e62e06a	0.2215592
254	0xbf1f765f	-0.62289995
255	0x3c8441f9	0.01614474

fc2.bias f4 [128]
0	0xbe828d94	-0.2549864
1	0x3de243f2	0.11048116
2	0xbe2bd3a7	-0.16779958
3	0x3e60213c	0.21887678
4	0x3e6b424f	0.22974513
5	0x3e843b12	0.25826317
6	0xbde982a8	-0.11401874
7	0x3e8f082d	0.27935925
8	0x3e893d98	0.26804805
9	0xbe5f443e	-0.21803376
10	0xbe3cfb76	-0.184553
11	0xbe3c7aae	-0.18406174
12	0xbe4d59a3	-0.20053725
13	0xbc192e43	-0.009349409
14	0x3d5b1237	0.053484168
15	0xbe6f39a5	-0.23361833
16	0xbddc19db	-0.10747119
17	0xbc86f255	-0.016472975
18	0x3e72c6d5	0.23708661
19	0x3e6089c4	0.21927553
20	0x3e68f11f	0.2274823
21	0xbc823784	-0.015895613
22	0xbe10fd41	-0.14159109
23	0x3e74eaf1	0.23917748
24	0x3e842a39	0.25813463
25	0x3e739f06	0.23791131
26	0x3c488d28	0.0122406855
27	0xbd3c4f40	-0.045974016
28	0xbc6af749	-0.014341184
29	0x3e50915d	0.20367952
30	0x3e6ba048	0.23010361
31	0xbb6be962	-0.0035997261
32	0xbe1f807f	-0.15576361
33	0x3e6dbea7	0.2321726
34	0x3e6b5c91	0.2298453
35	0x3e65519b	0.22394411
36	0xbb8a6fbc	-0.0042247456
37	0xbdc5fce0	-0.09667373
38	0x3d8885a7	0.06666117
39	0x3e64977e	0.22323415
40	0x3e564000	0.20922852
41	0x3e912e66	0.28355712
42	0xbe6f4c18	-0.23368871
43	0xbdcc1571	-0.09965027
44	0x3e73c75b	0.23806517
45	0x3d9986c3	0.07496407
46	0xbd86c4fd	-0.06580541
47	0xbc4514be	-0.012028871
48	0x3e5c4f8c	0.2151472
49	0x3e64808d	0.22314663
50	0x3e5a94f9	0.21345891
51	0x3e673df0	0.22582221
52	0x3e697700	0.22799301
53	0x3d791b64	0.060817137
54	0x3e591761	0.21200325
55	0xbc14eaba	-0.009089166
56	0x3e36b554	0.17842609
57	0xbd57ddd1	-0.052701775
58	0x3e559664	0.2085815
59	0x3e5fee30	0.21868205
60	0x3e6722bc	0.22571844
61	0xbcaece12	-0.021338496
62	0x3e34ca3c	0.17655271
63	0x3e98a87a	0.29816037
64	0x3e708ee8	0.23492014
65	0x3e6e0a21	0.23246051
66	0x3e51881f	0.20462082
67	0x3e51690a	0.20450225
68	0x3e8a4724	0.270074
69	0xbe2ddc00	-0.16978455
70	0xbe633588	-0.2218839
71	0x3e615eff	0.22008894
72	0xbc6f8c77	-0.014620892
73	0x3e4fbc36	0.2028664
74	0xbd92df8b	-0.07171544
75	0x3e920c09	0.28524807
76	0x3e7c0401	0.24610902
77	0x3e5bb6e1	0.21456482
78	0x3e543585	0.20723541
79	0xbe0fafd1	-0.14031912
80	0x3e9d16d4	0.3068148
81	0x3d76ae79	0.060224984
82	0x3e898bd9	0.26864508
83	0xbe9b4434	-0.30325472
84	0x3e89243f	0.26785466
85	0xbe830741	-0.25591472
86	0x3e3bf29b	0.18354265
87	0x3dba2668	0.09089357
88	0x3e7c19e1	0.24619247
89	0xbe5e4f50	-0.21709943
90	0xbe63573a	-0.22201243
91	0xbc5432e4	-0.012951586
92	0xbc39abcf	-0.011332466
93	0x3d9bde76	0.076107904
94	0x00000000	0.0
95	0x3e74f022	0.23919728
96	0xbe6b2141	-0.22961904
97	0x3e644568	0.22292101
98	0x3e5b8f90	0.21441483
99	0x3d4c994b	0.04995088
100	0xbe95c652	-0.2925287
101	0xbe63aa3f	-0.22232912
102	0xbe3e4066	-0.18579254
103	0xbd8e67c5	-0.06953386
104	0x3e67b07a	0.22625914
105	0x3e52b049	0.2057506
106	0xbe1a5fb5	-0.15075572
107	0x3e9240f5	0.28565183
108	0xbe153b2b	-0.14573352
109	0xbc3aed67	-0.01140914
110	0x3e7b343a	0.24531642
111	0x3e86e9da	0.2635029
112	0x3daa7f7d	0.08325098
113	0x3e079c28	0.13243163
114	0xbda51829	-0.08061249
115	0x3e5e35f2	0.21700266
116	0x3e53a634	0.2066887
117	0xbe6c59eb	-0.23081176
118	0xbcce159c	-0.025156789
119	0x3e58a81d	0.2115788
120	0x3e5ac74b	0.21365087
121	0xbc8f19d7	-0.017468376
122	0xbe3dec92	-0.18547276
123	0xbb1aac05	-0.0023601067
124	0xbe195d0e	-0.14976904
125	0xbee0ee09	-0.43931606
126	0xbe6af909	-0.22946562
127	0xbc3dea14	-0.011591453

fc3.weight f4 [2, 128]
0	0xbfc4dee1	-1.5380517
1	0x3f806f50	1.003397
2	0xbf8b909d	-1.0903507
3	0x3ed4a0c5	0.41528907
4	0x3dc4710c	0.095918745
5	0x3ed0b444	0.40762532
6	0xbf4c855c	-0.7989099
7	0x3f1db004	0.61596704
8	0x3f20ef05	0.62864715
9	0xbfa55a7e	-1.2918241
10	0x3f269935	0.65077525
11	0xc01f288e	-2.4868503
12	0xbf78b7fc	-0.9715574
13	0xbdc72f26	-0.0972579
14	0xbecc8c81	-0.39950946
15	0xbfc8370e	-1.5641801
16	0x3e31753c	0.17329878
17	0xbe0c6145	-0.1370898
18	0x3eba5c6b	0.36398634
19	0x3ee4b958	0.44672656
20	0x3f1ca7a4	0.611933
21	0xbe1f2908	-0.15542996
22	0xbfea2901	-1.8293763
23	0x3ee2e63c	0.4431628
24	0x3ec57a18	0.38569713
25	0x3f215db2	0.6303359
26	0x3ebe60e4	0.37183297
27	0xbebbe962	-0.36701494
28	0xbe64ae82	-0.22332194
29	0x3f062efb	0.52415437
30	0x3f053d20	0.52046394
31	0xbdda459c	-0.10657808
32	0xc028e1e6	-2.6387877
33	0x3edc486a	0.43023998
34	0x3f2412d1	0.6409121
35	0x3eea2915	0.45734468
36	0xbe538b07	-0.20658503
37	0xbf933b8e	-1.150255
38	0xbee2a20b	-0.44264254
39	0x3bcba5b4	0.0062148217
40	0x3ec204b4	0.37894213
41	0x3f483ec3	0.78220767
42	0xbf3880f4	-0.72071767
43	0xbfd6f0c9	-1.6792232
44	0x3e97cf32	0.29650265
45	0x3f804b20	1.0022926
46	0xbf0a5fe8	-0.5405259
47	0xbdd868e9	-0.10566885
48	0x3e950ccb	0.29111323
49	0xbdc0def4	-0.09417525
50	0x3edc9b10	0.43087053
51	0x3f17a710	0.5923929
52	0x3eb813d3	0.35952625
53	0xbf8222e6	-1.01669
54	0x3e429e7b	0.19005768
55	0x3e18bb36	0.14915165
56	0xbf80ee75	-1.0072771
57	0xbe83aa44	-0.2571584
58	0x3ede7e2f	0.43455645
59	0x3ebe9f59	0.37230948
60	0x3ec2acbb	0.38022408
61	0xbe70e7d7	-0.2352594
62	0x3e19b76b	0.15011375
63	0x3e12c9c2	0.14334777
64	0x3eeb611c	0.45972526
65	0x3f074d61	0.52852446
66	0x3eb2d135	0.34925237
67	0x3ea3b805	0.31976333
68	0x3f2590b1	0.64673907
69	0xc0113f8f	-2.2695043
70	0x3f644c31	0.8917876
71	0x3e3d7a19	0.18503608
72	0x3f4515c0	0.7698631
73	0x3f15a579	0.58455616
74	0xbfa88434	-1.3165345
75	0x3ec76db4	0.38950884
76	0x3ec83670	0.39104033
77	0x3ec39522	0.38199717
78	0x3e52c8c7	0.20584403
79	0xbfc516a8	-1.5397539
80	0x3f167f47	0.5878796
81	0xbf7f0e6a	-0.9963137
82	0x3e85347d	0.26016608
83	0xbfdc20ca	-1.7197506
84	0x3e8a6c4f	0.27035758
85	0xbdb273c8	-0.0871349
86	0x3e47cf66	0.1951271
87	0xbf69025a	-0.91019213
88	0x3db4d549	0.088297434
89	0xbea608ab	-0.32428488
90	0xbfb8dec2	-1.444298
91	0xbd93b4d6	-0.07212226
92	0xbd44bd32	-0.048031993
93	0xbf41351e	-0.75471675
94	0xbe455c9c	-0.19273609
95	0x3f041f62	0.51610386
96	0xbfbec28f	-1.4903125
97	0x3ee5af2b	0.44860205
98	0x3f17611d	0.5913256
99	0xbf89bfbb	-1.0761636
100	0xbee68f54	-0.45031226
101	0x3f2b8acc	0.6700866
102	0xbd98011f	-0.07422089
103	0xbf6d4827	-0.9268822
104	0x3f18c1f5	0.59670955
105	0x3eb2ac60	0.34897137
106	0xc021a732	-2.5258298
107	0x3ebe87c4	0.37212956
108	0x3f06c333	0.526416
109	0xbe41e963	-0.18936686
110	0x3f116c1f	0.56805605
111	0x3f0cc2c9	0.5498472
112	0xbf6e7939	-0.9315372
113	0x3ed86255	0.4226252
114	0xbef26b1f	-0.47347352
115	0x3ed72b74	0.4202534
116	0x3e0fbf3e	0.14037797
117	0xbfc87d99	-1.5663329
118	0xbfc1d013	-1.5141624
119	0xbe4c1432	-0.19929579
120	0x3f0651f5	0.52468807
121	0xbe5236c6	-0.20528707
122	0xbff56fa4	-1.9174695
123	0xbe129d52	-0.14317825
124	0xc01eb2a8	-2.4796543
125	0xbf663888	-0.8993001
126	0x3f436ec3	0.76340884
127	0x3dc112e6	0.09427433
128	0xbfa1efdb	-1.2651323
129	0xbf5160aa	-0.8178812
130	0xbfa84144	-1.3144917
131	0x3ed2eac6	0.41194743
132	0x3f62cece	0.8859681
133	0x3f158ad8	0.58414984
134	0xbfa35e8c	-1.2763228
135	0x3ebca632	0.36845547
136	0x3e887a07	0.266556
137	0xbfb7c0d3	-1.435572
138	0xc0075f6d	-2.1151993
139	0xbe867328	-0.26259732
140	0xc008d98a	-2.1382775
141	0xbe1fb1d0	-0.15595174
142	0x3f5c10e2	0.8596326
143	0xbf9f855d	-1.2462574
144	0xbfe22953	-1.7668861
145	0xbe19f8c8	-0.15036309
146	0x3eb5939f	0.35464188
147	0x3ec120a9	0.3772023
148	0x3eb03ed6	0.3442294
149	0xbda4227a	-0.080143884
150	0x3f83b508	1.0289621
151	0x3ebf51cc	0.37367094
152	0x3e88f864	0.26752007
153	0xbe0812c1	-0.13288404
154	0xbe8f7d6d	-0.2802538
155	0xbe067df2	-0.13133982
156	0xbe81ea1e	-0.2537393
157	0x3e81666a	0.25273448
158	0x3f1b56d6	0.60679376
159	0x3da607f9	0.081069894
160	0xbd57e395	-0.052707274
161	0x3e9bfe8c	0.3046764
162	0x3e77951a	0.24177971
163	0x3ed061be	0.4069957
164	0x3d04c4a5	0.032414097
165	0xbd9b84e3	-0.075937055
166	0x3ea8125e	0.32826513
167	0x3f229850	0.6351366
168	0x3ec6412f	0.38721606
169	0x3e488aab	0.19584148
170	0xc0050ce2	-2.0789113
171	0xbf12217e	-0.57082355
172	0x3ed36140	0.41285133
173	0xbf3d00de	-0.7382945
174	0xbfa781f8	-1.3086538
175	0xbe06d656	-0.131677
176	0x3ec470d3	0.38367328
177	0x3f0225e2	0.50839055
178	0x3e38ed31	0.18059231
179	0x3e04cae1	0.12968017
180	0x3ed8b87e	0.42328256
181	0x3f2d2529	0.67634827
182	0x3ed4a92a	0.41535312
183	0xbe382cab	-0.1798579
184	0xbfbc4de1	-1.4711267
185	0xbf86a4df	-1.0519065
186	0x3e9b2b3d	0.30306426
187	0x3ec79e59	0.38987997
188	0x3ef4b095	0.4779097
189	0xbfa7898f	-1.3088855
190	0x3efa2b2e	0.48861068
191	0x3f0fbcfb	0.56147736
192	0x3ed1a9aa	0.40949756
193	0x3f1321c4	0.574734
194	0x3eba891a	0.36432725
195	0x3ee4cc21	0.44686988
196	0x3f0360ca	0.51319563
197	0xbead7b91	-0.33883336
198	0xc0177ff9	-2.3671858
199	0xbfa6cec7	-1.3031853
200	0xbf64cbf3	-0.893737
201	0x3e64dd28	0.2234999
202	0xbf061eb3	-0.52390593
203	0x3ea16d0a	0.31528503
204	0x3ed5f222	0.41786295
205	0x3e3d588d	0.1849081
206	0x3eb13fc6	0.34618968
207	0xbea1ce7a	-0.31602842
208	0x3ec41b8a	0.3830226
209	0x3f3d4168	0.73927927
210	0x3eaf3e08	0.34227014
211	0xbf78658d	-0.97029954
212	0x3ed7c669	0.42143562
213	0xc01fd26b	-2.497218
214	0x3f34cd5c	0.70625854
215	0x3f843e6d	1.0331551
216	0x3f353884	0.7078936
217	0xc0145860	-2.317894
218	0xbf6109c4	-0.87905526
219	0xbe1ecc8a	-0.15507713
220	0xbdd1460c	-0.102184385
221	0x3f8b22f5	1.0870043
222	0xbdccad6a	-0.099940136
223	0x3eecefd6	0.4627673
224	0x3ebddc47	0.3708212
225	0x3f0c4baa	0.54802954
226	0x3e356261	0.1771331
227	0xbe9379da	-0.28803903
228	0xc0061f93	-2.0956771
229	0xc01cde0a	-2.4510522
230	0xbf49da5a	-0.78848803
231	0xbfc2ef42	-1.5229266
232	0x3d9361f2	0.07196416
233	0x3eed8eee	0.4639811
234	0xbeaa383a	-0.33246022
235	0x3ec72a31	0.38899377
236	0xbfa6b5d1	-1.3024236
237	0x3dc861b1	0.09784258
238	0xbe820350	-0.25393152
239	0x3e81caba	0.2534998
240	0x3f54222a	0.8286463
241	0xbeeae3bc	-0.45876873
242	0xbdefbff3	-0.11706533
243	0xbd2773a5	-0.04088177
244	0x3e97d110	0.2965169
245	0xbf313ef7	-0.692367
246	0x3d029a12	0.031885214
247	0x3ef0218d	0.46900597
248	0x3ef2c5d0	0.47416544
249	0xbd9ac9ec	-0.07558045
250	0xbea15bb2	-0.3151527
251	0xbe1fe00a	-0.15612808
252	0xbf51e9e1	-0.81997496
253	0xbfdfbe1d	-1.7479893
254	0xc021af2f	-2.5263174
255	0xbe4b6d97	-0.19866024

fc3.bias f4 [2]
0	0x3e302613	0.17202024
1	0x3e20a2cf	0.15687107

fc1.weight f4 [128, 4]
0	0x3d732e8c	0.059370562
1	0x3ca3a7f3	0.019977545
2	0x3dbce47e	0.09223269
3	0x3dbc9d6a	0.09209712
4	0xbcf4b329	-0.029870586
5	0x3e5df25c	0.21674484
6	0x3f2c6c9a	0.6735321
7	0x3de09cba	0.10967393
8	0x3ed89954	0.4230448
9	0x3e7f57cf	0.2493584
10	0x3c839173	0.016060567
11	0x3dda6624	0.10664013
12	0x3d0c655f	0.034276363
13	0x3ea2c7e6	0.31793135
14	0x4001adf8	2.0262432
15	0x3ef496bd	0.47771254
16	0xbe063031	-0.13104321
17	0x3d16c714	0.03681095
18	0x3e16eb47	0.14738189
19	0x3e3aeaff	0.18253706
20	0x3cb94ab2	0.022618625
21	0x3e0ae129	0.13562454
22	0xbf5aedb5	-0.8551896
23	0xbccf89d0	-0.025334269
24	0xbe42591c	-0.18979305
25	0x3e3e37ca	0.1857597
26	0x3fa47209	1.2847301
27	0x3d055631	0.0325529
28	0x3d77e576	0.060521565
29	0xbd3a3766	-0.04546299
30	0xbf346557	-0.7046713
31	0xbe53ada2	-0.20671704
32	0x3e099ca8	0.13438666
33	0x3c29511e	0.010334281
34	0xbfb0588d	-1.3777024
35	0xbe8ec695	-0.2788588
36	0xbeab8734	-0.3350159
37	0x3ba633d0	0.0050720945
38	0x3ec00502	0.3750382
39	0x3de9705e	0.113983855
40	0xbe028e61	-0.12749626
41	0x3e1611e7	0.14655267
42	0xbe8fcf31	-0.28087762
43	0x3d78cd45	0.060742635
44	0x3cfd695b	0.030934026
45	0x3cb4a45a	0.022051025
46	0xbfc8d342	-1.5689471
47	0xbe50433e	-0.20338151
48	0x3f52c45b	0.82330865
49	0x3ea5f9e1	0.32417205
50	0xbe385479	-0.18000974
51	0x3e7ea6f8	0.24868381
52	0xbe9054dc	-0.28189743
53	0xbeac8b5f	-0.33700082
54	0xbfa5dc2f	-1.295782
55	0xbea08899	-0.31354216
56	0xbf03c79f	-0.5147647
57	0xbdfa7c25	-0.1223071
58	0xbf675f01	-0.9037934
59	0xbe9759eb	-0.2956079
60	0xbe6b0992	-0.2295287
61	0x3daadb36	0.083425924
62	0xbef6d0cb	-0.4820617
63	0xbe0160b1	-0.12634541
64	0xbe1a3df8	-0.15062702
65	0x3e2b6915	0.16739304
66	0x3fa861fa	1.31549
67	0xbdb64da3	-0.08901527
68	0x3c55ccf5	0.013049354
69	0xbcc14532	-0.023592565
70	0xbfd5db0d	-1.6707474
71	0xbeb0c88b	-0.34528002
72	0x3e2c17d7	0.16805969
73	0xbdcf5ef1	-0.101255305
74	0x3e11bca1	0.14232112
75	0xbb887c0d	-0.0041651786
76	0xbf1827ce	-0.5943574
77	0xbdbcb69c	-0.092145175
78	0x3e5238b2	0.2052944
79	0xbe15c4b8	-0.14625823
80	0xbda8951b	-0.082315646
81	0xbd97a6d0	-0.07404864
82	0xbf7cb916	-0.9871992
83	0xbe446bca	-0.19181743
84	0xbeea28ba	-0.45734197
85	0xbe6488a5	-0.22317751
86	0x3cd0218f	0.025406627
87	0xbd4c585a	-0.049888946
88	0x3edf3b46	0.4359991
89	0x3e93fd9f	0.28904435
90	0xbe536fff	-0.20648192
91	0x3d495369	0.04915181
92	0xbedf34a7	-0.43594858
93	0x3e2ded8e	0.16985151
94	0x3d9d8a12	0.076923504
95	0xbe160518	-0.1465038
96	0xbe1857e6	-0.1487728
97	0x3dc609df	0.096698515
98	0x3fcde638	1.6085882
99	0x3ea1306a	0.3148225
100	0x3f24db90	0.64397526
101	0x3df1d629	0.11808426
102	0xbfbc4295	-1.4707819
103	0xbdc7ac82	-0.097497
104	0x3e1508a7	0.14554082
105	0xbbf68800	-0.0075235367
106	0xbec8e0f4	-0.39234126
107	0xbdc3777a	-0.09544273
108	0xbd8e2608	-0.06940848
109	0xbc96d65f	-0.018412767
110	0x3f36116a	0.7112032
111	0x3e01983b	0.12655728
112	0x3e81f11b	0.2537926
113	0x3e95bcfd	0.2924575
114	0x4006b447	2.1047533
115	0x3ee8786a	0.4540437
116	0xbf434863	-0.7628233
117	0xbebc5aac	-0.36787927
118	0x3f2c73d4	0.6736424
119	0x3daa18c0	0.08305502
120	0x3e5a00c8	0.2128936
121	0xbc293d3d	-0.010329542
122	0x3f34791f	0.70497316
123	0x3d9730f1	0.07382382
124	0x3e1e774e	0.15475199
125	0x3e48f937	0.19626318
126	0xbf275723	-0.65367335
127	0x3db94bb7	0.090476446
128	0xbd92a0f4	-0.071596056
129	0x3dd96595	0.10615078
130	0x3fbbf189	1.4683086
131	0x3e95f65f	0.2928953
132	0xbdf40f0e	-0.11916934
133	0x3d56e367	0.05246296
134	0x3f2d28a9	0.6764017
135	0x3e2ebb55	0.17063649
136	0x3e380be2	0.17973283
137	0x3ebab33b	0.36464867
138	0x3f36379e	0.71178615
139	0x3e9611b9	0.29310396
140	0xbe8a92d0	-0.27065134
141	0x3e12132f	0.1426513
142	0x3fb72371	1.4307691
143	0x3e8d1500	0.27555084
144	0x3d0bb7a7	0.03411069
145	0x3d691f9d	0.056914914
146	0x3e05151b	0.12996332
147	0x3d755e39	0.05990431
148	0xbdadcf73	-0.084868334
149	0xbc9eb805	-0.019374857
150	0x3ec07053	0.37585697
151	0x3e08b9b1	0.13352086
152	0x3e4fa200	0.20276642
153	0x3ab38d19	0.0013698667
154	0x3f211f25	0.6293815
155	0xbcc6079e	-0.024173554
156	0xbd5af2b2	-0.05345411
157	0xbd7946b1	-0.060858432
158	0x3e811a26	0.25215262
159	0x3d3022c3	0.0430019
160	0xbf2cc99b	-0.67495126
161	0xbea2c1f5	-0.31788602
162	0x3f104d2b	0.5636775
163	0x3d919576	0.071085855
164	0x3edc1888	0.42987466
165	0xbcfe73e6	-0.031061124
166	0xbf9fa21f	-1.247135
167	0xbe1b242c	-0.15150517
168	0xbea52561	-0.3225508
169	0xbe075c11	-0.13218714
170	0xbecea8be	-0.40363115
171	0xbdd18eab	-0.1023229
172	0x3db1b026	0.08676176
173	0x3dbaec9a	0.091271594
174	0x3f49944e	0.7874192
175	0x3ded9ad5	0.116017975
176	0xbd88a1d7	-0.066714935
177	0x3cbce0b6	0.02305637
178	0x3ea364aa	0.31912738
179	0xbe7ebf7a	-0.2487773
180	0x3dfc4f62	0.123198286
181	0x3b8db9a7	0.00432511
182	0xbeb9ae32	-0.36265713
183	0xbe298a74	-0.16556722
184	0xbefbb9bd	-0.49165145
185	0xbeadebad	-0.3396887
186	0xbcaa1b85	-0.020765075
187	0xbe0fdd83	-0.14049344
188	0xbf075259	-0.5286003
189	0xbee97692	-0.45598274
190	0x3e0238a4	0.12716919
191	0xbd0bc387	-0.034122016
192	0xbee66056	-0.44995373
193	0xbee86a32	-0.4539352
194	0xbf785942	-0.97011197
195	0xbeb1a92e	-0.34699386
196	0x3d7b5f55	0.061370213
197	0xbd0c402e	-0.034240894
198	0x3f0d29f0	0.55142117
199	0x3db5377d	0.08848474
200	0x3eb10b3a	0.34578878
201	0x3e9a09df	0.30085656
202	0x3ea26262	0.31715685
203	0x3e76f27b	0.24115936
204	0xbf45acf4	-0.7721703
205	0xbede3519	-0.43399885
206	0xbfb42454	-1.4073586
207	0xbe580f6b	-0.21099631
208	0x3dc1f4d0	0.094705224
209	0xbdec81d7	-0.115482025
210	0xbfdea45b	-1.7393907
211	0xbeb52c96	-0.3538558
212	0x3ed34e04	0.4127046
213	0x3ea49608	0.32145715
214	0x3e26a18a	0.1627256
215	0x3e59e9ed	0.21280642
216	0xbe9814aa	-0.29703265
217	0xbea68809	-0.32525662
218	0xbf96f3b3	-1.1793121
219	0xbeb34ba2	-0.3501864
220	0x3ce6b527	0.028162552
221	0xbe09965e	-0.13436267
222	0x3ebc779a	0.3681
223	0xbcb84531	-0.02249393
224	0x3eb104d5	0.34574
225	0xbe53367c	-0.20626253
226	0xbf3e5f58	-0.74364233
227	0x3e5060ad	0.20349379
228	0xbeaf5c43	-0.34250078
229	0xbe67404f	-0.22583126
230	0x3f988038	1.1914129
231	0x3e976993	0.29572734
232	0x3da9475c	0.08265564
233	0xbeb731a1	-0.3578005
234	0xbfc30069	-1.52345
235	0xbdac239c	-0.084052294
236	0x3ebf73ce	0.3739304
237	0xbd654ecc	-0.05598335
238	0xbfaa4b10	-1.3304157
239	0xbe92bf90	-0.28661776
240	0xbe852135	-0.26001897
241	0x3e5c7bae	0.21531555
242	0xbee376d5	-0.444266
243	0xbe81f0bd	-0.2537898
244	0xbe442e62	-0.19158319
245	0x3e086554	0.13319904
246	0x3f35c06a	0.70996726
247	0x3e6e8430	0.23292613
248	0x3e82e952	0.25568634
249	0x3c94a4c3	0.01814497
250	0x3e4ed946	0.2020007
251	0xbd08d1c0	-0.03340316
252	0xbe8f9023	-0.28039655
253	0xbef0db0a	-0.47042114
254	0xbf981f44	-1.1884542
255	0xbe9416fd	-0.2892379

fc1.bias f4 [128]
0	0x3ebfee40	0.37486458
1	0x3e05eb49	0.13078035
2	0xbe036384	-0.12830931
3	0xbe800d23	-0.25010023
4	0x3ebc82d8	0.36818576
5	0x3eaf3fb8	0.342283
6	0xbceec78b	-0.029147884
7	0x3ee256af	0.4420676
8	0xbee79b94	-0.45235884
9	0x3e9fff52	0.3124948
10	0x3ebe8646	0.37211818
11	0xbec76587	-0.38944647
12	0x3c4e1b11	0.012579695
13	0x3e15c64d	0.14626427
14	0xbf42d60e	-0.7610787
15	0x3ed11463	0.40835866
16	0x3e0fa89e	0.14029166
17	0xbf091ef5	-0.5356286
18	0x3ebee399	0.37283018
19	0x3e35e448	0.17762864
20	0x3eda177f	0.4259605
21	0xbcf882d9	-0.03033583
22	0xbde5c012	-0.11218275
23	0x3f12a5e6	0.5728439
24	0xbede9879	-0.43475702
25	0x3d6cce6f	0.057814058
26	0x3ec602b3	0.38673934
27	0x3ecaf752	0.39641815
28	0x3e29a47a	0.16566649
29	0xbe26c4e1	-0.16286041
30	0x3ec5cfcc	0.386351
31	0x3f017cff	0.50581354
32	0xbeb2f20f	-0.349503
33	0x3ec6892b	0.38776526
34	0x3f0bcc8a	0.54608977
35	0x3eba7606	0.3641817
36	0x3ec1a75b	0.37822995
37	0x3ebb4458	0.3657558
38	0x3ebf6f44	0.37389576
39	0x3eb49561	0.35270217
40	0xbe858f6f	-0.26085994
41	0x3ed8ae35	0.4232041
42	0x3e87dee6	0.26537246
43	0x3ee154a9	0.44009903
44	0x3ebb311d	0.36560908
45	0x3ec46256	0.38356274
46	0xbebb34df	-0.36563775
47	0xbe692c32	-0.22770765
48	0x3e2a10ee	0.1660802
49	0x3ea52e4d	0.32261887
50	0xbd358b65	-0.04432239
51	0x3cb62581	0.02223468
52	0xbef49f6f	-0.47777888
53	0xbdba6eb2	-0.09103145
54	0xbe34553e	-0.17610642
55	0x3eb875a3	0.3602725
56	0x3f329d47	0.69771236
57	0x3e7ba54f	0.24574779
58	0x3deb6ea7	0.11495715
59	0x3e8059f1	0.2506862
60	0xbedb21a1	-0.42799094
61	0x3ed6cb5d	0.4195203
62	0x3ed89ca3	0.42307004
63	0x3e07e4ac	0.13270825
64	0x3e11fac5	0.14255817
65	0x3bcf6995	0.006329725
66	0x3ec94bd4	0.39315665
67	0x3ed4f953	0.4159647
68	0x3eb377ae	0.35052246
69	0x3ee03212	0.437882
70	0x3ecf6417	0.4050605
71	0xbea75b2c	-0.32686746
72	0x3eba9f37	0.36449596
73	0x3e812df7	0.2523038
74	0x3ec95cb4	0.3932854
75	0x3cf2679d	0.029590422
76	0x3e88e0e4	0.26734078
77	0x3eb5c5a9	0.35502365
78	0xbee7f2d3	-0.45302448
79	0x3ed5a8e8	0.41730428
80	0x3eceed92	0.40415627
81	0xbce88e9b	-0.028388312
82	0x3eb81151	0.3595071
83	0x3eae5d64	0.34055626
84	0xbec5094e	-0.3848366
85	0xbdb3848f	-0.08765518
86	0xbbe758d5	-0.00706015
87	0x3e76c801	0.24099733
88	0xbe96b6d1	-0.29436353
89	0x3ed92fee	0.4241938
90	0x3dbc17ff	0.091842644
91	0xbdd53c01	-0.104118355
92	0x3eb4e1c5	0.35328498
93	0xbe8997f6	-0.2687375
94	0x3ec50d7c	0.3848685
95	0xbd1e4bb8	-0.03864643
96	0xbf10893f	-0.5645942
97	0x3ec508d5	0.384833
98	0x3edbde45	0.42943016
99	0xbea65d15	-0.3249289
100	0xbeaef1e8	-0.34168935
101	0xbd2403b4	-0.040042594
102	0xbdadcf32	-0.08486785
103	0xbece8cfa	-0.40341932
104	0x3d2d735a	0.042346336
105	0x3eb02d82	0.3440972
106	0x3edbb609	0.4291232
107	0x3e063fc5	0.13110264
108	0x3ec49e37	0.38401958
109	0x3eecccca	0.46249992
110	0x3eb1db81	0.3473778
111	0xbd9a6fef	-0.07540881
112	0xbecc9380	-0.39956284
113	0x3eb63d78	0.35593772
114	0x3ef379fd	0.47554007
115	0xbdac623d	-0.08417175
116	0x3e89ad9f	0.26890275
117	0xbeeb3e32	-0.4594589
118	0x3ed90ced	0.42392674
119	0x3ead9dce	0.33909458
120	0xbed0f2fc	-0.40810382
121	0x3ee4c98f	0.44685027
122	0xbee1030c	-0.43947637
123	0x3ecb7f34	0.39745486
124	0x3eaa014d	0.33204117
125	0x3ed8010b	0.42188296
126	0xbe6f7272	-0.23383501
127	0x3cbf45a5	0.023348639

fc2.weight f4 [128, 128]
0	0xbf28b4a2	-0.65900624
1	0xbdfb69e5	-0.12276057
2	0x3f3cce07	0.7375187
3	0xbdded0aa	-0.10879643
4	0xbdc28a87	-0.09499078
5	0xbe3cf572	-0.18453005
6	0x3e15c152	0.14624527
7	0xbdda0d4f	-0.1064707
8	0x3f592d2e	0.84834564
9	0xbcab9064	-0.020942874
10	0xbe2f4f75	-0.17120154
11	0x3f8d5748	1.1042261
12	0x3eb1c43e	0.34720033
13	0x3e261578	0.16219127
14	0x3f0691b8	0.525661
15	0xbd14f7c6	-0.036369108
16	0x3e7b69d2	0.24552086
17	0x3f3090bc	0.6897085
18	0xbf5887ee	-0.8458241
19	0x3e7b9f76	0.24572548
20	0x3e5d65ec	0.21620911
21	0x3ea9d546	0.33170527
22	0x3ed78ce9	0.42099693
23	0x3e871c43	0.2638875
24	0xbd6c6b10	-0.05771929
25	0x3e7d5f7e	0.24743459
26	0xbed3f86e	-0.41400474
27	0xbf92bea3	-1.1464428
28	0xbcb08750	-0.021548897
29	0x3e9bce92	0.30431038
30	0xbfac3f3b	-1.3456796
31	0xbf7d87ef	-0.99035543
32	0x3d08e82e	0.03342455
33	0xbf7dd064	-0.99146104
34	0xbdee7acc	-0.116445154
35	0x3d266823	0.040626656
36	0xbf066ba2	-0.52507985
37	0xbee482a3	-0.44630918
38	0xbfbab7fc	-1.4587398
39	0xbe76a92a	-0.24087968
40	0x3f095777	0.53649086
41	0xbeb89b99	-0.36056212
42	0x3e575f5a	0.21032467
43	0xbfad648c	-1.354631
44	0xbe26ab03	-0.16276173
45	0xbe5f4338	-0.21802986
46	0x3efb7b1b	0.4911736
47	0x3f08941f	0.53351015
48	0x3ecfc107	0.40576956
49	0xbf6368af	-0.8883161
50	0x3ece09c0	0.40241814
51	0x3f0171b7	0.5056414
52	0x3f503baa	0.8134104
53	0x3f5ae141	0.8549996
54	0x3ebec5d7	0.37260315
55	0xbed03302	-0.40663916
56	0xbf93b481	-1.153946
57	0xbe029490	-0.12751985
58	0x3e63a3ec	0.222305
59	0xbeb0dc6f	-0.34543177
60	0x3f105df4	0.5639336
61	0xbf8026f9	-1.0011894
62	0xbfada43e	-1.3565748
63	0x3ec7ba98	0.39009547
64	0x3e964000	0.29345703
65	0x3f178b20	0.5919666
66	0xbf845a22	-1.0340006
67	0xbecfc20e	-0.4057774
68	0xbe0cdfbc	-0.13757223
69	0xbfc3de4e	-1.5302217
70	0xbfe1b2a7	-1.7632645
71	0xbe477df2	-0.19481638
72	0xbf9362d8	-1.151454
73	0x3e9f7c1a	0.3114937
74	0xbf31b900	-0.6942291
75	0x3e80b8f2	0.25141102
76	0x3e7feaba	0.24991885
77	0xbe04b1d4	-0.12958461
78	0x3e149f4d	0.14513893
79	0xbd8da2d2	-0.06915821
80	0xbe995a63	-0.29951772
81	0x3e91c8bd	0.28473464
82	0xbf4e5251	-0.80594355
83	0xbf08c131	-0.53419787
84	0x3f2057b9	0.62633854
85	0x3f145f3d	0.5795782
86	0xbe33634b	-0.17518346
87	0xbe23416e	-0.15942928
88	0x3f0bb9fc	0.54580665
89	0xbfc079bb	-1.5037149
90	0xbd17c336	-0.037051402
91	0x3d17ee2d	0.037092377
92	0xbf6fd534	-0.936847
93	0x3f199568	0.599936
94	0xbe775181	-0.24152185
95	0x3eccf9c2	0.400343
96	0x3f56446d	0.8369816
97	0xbee77dec	-0.45213258
98	0xbfc65bf8	-1.5496817
99	0x3f88bcc5	1.0682608
100	0x3f06ab48	0.52605104
101	0xbea44977	-0.320873
102	0x3ebe9688	0.3722422
103	0x3f67a408	0.90484667
104	0xbe2181bf	-0.1577215
105	0xbf3f11cf	-0.7463655
106	0xbe0cde91	-0.13756777
107	0x3d8f882c	0.070083946
108	0xbed13576	-0.408611
109	0xbd6fde0c	-0.05856137
110	0xbed73541	-0.42032817
111	0xbe05f245	-0.130807
112	0x3d53fa79	0.05175254
113	0xbe317795	-0.17330773
114	0x3ded8824	0.115982324
115	0x3c2eeb56	0.010676226
116	0xbd866fa4	-0.065642625
117	0x3f7c01cc	0.9844024
118	0xbe99bd41	-0.30027202
119	0xbeb888b3	-0.36041793
120	0x3f0f9f39	0.5610233
121	0xbd30a75b	-0.043128353
122	0x3e8d6277	0.27614185
123	0x3acfad08	0.0015844414
124	0x3d9f2bbb	0.07772013
125	0x3e57ab3e	0.21061417
126	0x3f1b56d5	0.6067937
127	0x3ecb1295	0.39662614
128	0x3e660dc6	0.22466192
129	0xbe0dd259	-0.13849773
130	0xbefa693c	-0.48908412
131	0x3da927ae	0.082595214
132	0x3e87f054	0.26550543
133	0xbdbbac33	-0.09163704
134	0x3edbacf9	0.42905405
135	0x3c8d2044	0.0172273
136	0xbf36dcfc	-0.71430945
137	0x3e70a038	0.23498619
138	0x3e1116ac	0.14168805
139	0x3ec96e1c	0.3934182
140	0xbd9bc4cb	-0.07605895
141	0x3e509480	0.20369148
142	0x3e885237	0.26625225
143	0x39544b1e	0.00020245879
144	0x3e86e0d6	0.2634341
145	0xbf0d27a3	-0.55138606
146	0x3e0fa93c	0.14029402
147	0x3ee9112b	0.4552091
148	0xbb65ef55	-0.003508528
149	0x3de906ed	0.11378274
150	0xbf0b5e0a	-0.5444037
151	0x3e801f5e	0.2502393
152	0xc0808af9	-4.0169644
153	0xbf1eb9f6	-0.62002504
154	0x3e2e364b	0.17012899
155	0x3e9a150c	0.30094182
156	0xbe26f652	-0.16304901
157	0xbdad5526	-0.084635064
158	0x3c8ade0f	0.016951589
159	0xbdec830c	-0.11548433
160	0xc05203b5	-3.2814763
161	0x3dc3ad8c	0.09554586
162	0xbe54604b	-0.20739858
163	0x3e710696	0.23537669
164	0x3e738bb2	0.23783758
165	0x3d2108a2	0.039314874
166	0x3e57fd13	0.21092634
167	0x3db0d4c8	0.08634335
168	0xbeb2338f	-0.3480496
169	0xbe247277	-0.1605929
170	0xbcc5e189	-0.024155395
171	0x3e7dc811	0.2478335
172	0x3e8e2929	0.27765778
173	0x3e604cca	0.21904293
174	0xbf7e445e	-0.9932307
175	0xbe7a0df9	-0.24419393
176	0x3d96577a	0.073409036
177	0x3e8e03a8	0.27737164
178	0x3e01dfdd	0.12683053
179	0x3d88f789	0.066878386
180	0x3e5a6fa8	0.21331656
181	0xbebadc86	-0.3649637
182	0xbe8095ae	-0.25114197
183	0x3d8a5a4b	0.06755503
184	0x3e4ae28b	0.19812982
185	0x3c9a2868	0.018818095
186	0x3c7ce906	0.0154364165
187	0xbeac9242	-0.33705336
188	0xbf384b75	-0.7199014
189	0x3ea7f437	0.3280351
190	0xbdb77aa9	-0.089589424
191	0x3e846d9c	0.25864875
192	0x3e8bbd09	0.2729266
193	0xbf0005df	-0.5000896
194	0x3e1edcc7	0.15513907
195	0x3e82179d	0.2540864
196	0x3dd56fcf	0.104217164
197	0x3e673459	0.22578563
198	0x3e198611	0.14992549
199	0xc019b376	-2.4015784
200	0x3e647490	0.2231009
201	0xbe03eaba	-0.1288251
202	0x3e3aa4f5	0.18226989
203	0x3d380ec9	0.044935975
204	0x3ded60b3	0.115907095
205	0x3e16c1c3	0.14722352
206	0xbf93cdff	-1.154724
207	0xbdbbdc9d	-0.09172938
208	0xbd149078	-0.03627059
209	0xbeda5b39	-0.42647722
210	0x3dd6b085	0.10482887
211	0x3dc870a6	0.09787111
212	0xbfdfa732	-1.7472899
213	0xbee8027a	-0.4531439
214	0xbecfe438	-0.40603805
215	0xbe8e7d90	-0.27830172
216	0xbe035b2b	-0.12827747
217	0x3df9a6eb	0.1219004
218	0x3e5f1bd6	0.21787962
219	0x3dda322c	0.10654101
220	0x3eb3d104	0.35120404
221	0xbeef0f75	-0.4669148
222	0xbc748ae7	-0.014925695
223	0x3d1a9a92	0.037745066
224	0xc05818fb	-3.3765247
225	0x3e4347be	0.19070336
226	0x3d5399bf	0.051660296
227	0xbe3c7dcb	-0.18407361
228	0xbf50d59d	-0.8157595
229	0x3ea8c544	0.32963002
230	0xbed9079e	-0.42388624
231	0xbe81fef3	-0.25389823
232	0x3e4a8279	0.19776334
233	0x3e7bf6be	0.24605843
234	0xbcbb5a01	-0.022870066
235	0xbe721c8d	-0.23643704
236	0x3cfc816e	0.030823436
237	0xbd12932f	-0.035784896
238	0x3e72995c	0.23691314
239	0x3dff7a10	0.124744534
240	0xc063aa8a	-3.5572839
241	0x3d11668c	0.035498187
242	0xbcd07b47	-0.025449408
243	0xbe492187	-0.19641696
244	0x3df0e2ee	0.117620334
245	0x3d7fd033	0.062454414
246	0x3d32eeb0	0.04368466
247	0x3e222763	0.15835337
248	0xbea106dc	-0.31450546
249	0xbdc15d53	-0.09441628
250	0xbfcdda73	-1.608229
251	0x3dd972c2	0.106175914
252	0x3e51cd6a	0.20488515
253	0x3e62e3a7	0.22157155
254	0xbf1f83f0	-0.62310696
255	0x3c828366	0.015931796

fc2.bias f4 [128]
0	0xbe831a96	-0.2560622
1	0x3de211eb	0.11038574
2	0xbe2df358	-0.1698736
3	0x3e600319	0.21876182
4	0x3e6b3c6c	0.22972268
5	0x3e84299b	0.25812992
6	0xbde94c0d	-0.11391459
7	0x3e8efc8d	0.27927056
8	0x3e897471	0.2684665
9	0xbe606d44	-0.21916682
10	0xbe3c0930	-0.1836288
11	0xbe3c3135	-0.18378146
12	0xbe4cae62	-0.19988397
13	0xbc192db6	-0.009349277
14	0x3d5b6a58	0.053568214
15	0xbe71614b	-0.2357227
16	0xbde08eae	-0.10964714
17	0xbc86f1bd	-0.016472692
18	0x3e72a95a	0.23697415
19	0x3e606de1	0.21916915
20	0x3e68dacf	0.22739719
21	0xbc8236cd	-0.015895272
22	0xbe14d9f4	-0.14536268
23	0x3e74cf1c	0.23907131
24	0x3e841e05	0.25804153
25	0x3e73b9c8	0.23801339
26	0x3c3bc43a	0.011460358
27	0xbd3c4eb0	-0.04597348
28	0xbc5ec589	-0.013596901
29	0x3e5091ec	0.20368165
30	0x3e6b7f7c	0.2299785
31	0xbb6be96b	-0.0035997282
32	0xbe1ee65b	-0.15517561
33	0x3e6da5a1	0.23207714
34	0x3e6b9f05	0.2300988
35	0x3e6534e9	0.22383465
36	0xbb8a6f7d	-0.004224716
37	0xbdc49c24	-0.09600094
38	0x3d889429	0.06668884
39	0x3e6439a3	0.22287612
40	0x3e5621b5	0.20911296
41	0x3e90ee79	0.2830694
42	0xbe6d0633	-0.23146896
43	0xbdcbedec	-0.09957489
44	0x3e73a589	0.23793615
45	0x3d9ad2ba	0.07559724
46	0xbd85563f	-0.06510591
47	0xbc4514c9	-0.012028881
48	0x3e5c2e6f	0.21502088
49	0x3e6432c1	0.22284986
50	0x3e5a83c5	0.21339329
51	0x3e67c35a	0.22633114
52	0x3e6956da	0.22787037
53	0x3d782a7a	0.060587384
54	0x3e590de0	0.21196699
55	0xbc14ea4e	-0.009089066
56	0x3e35e664	0.17763668
57	0xbd5976a2	-0.053091653
58	0x3e557d8a	0.2084867
59	0x3e5fcf8e	0.2185652
60	0x3e67018a	0.22559181
61	0xbcac6414	-0.021043815
62	0x3e34b2c3	0.17646317
63	0x3e98fed3	0.29881915
64	0x3e70721f	0.23481034
65	0x3e6dea35	0.23233874
66	0x3e5169ba	0.20450488
67	0x3e514702	0.20437244
68	0x3e8a394e	0.26996845
69	0xbe2d7db7	-0.16942488
70	0xbe63630c	-0.22205752
71	0x3e60d60f	0.21956657
72	0xbc842877	-0.016132576
73	0x3e4fe31e	0.20301482
74	0xbd8e8f36	-0.06960909
75	0x3e91fe9c	0.28514564
76	0x3e7be4fc	0.2459907
77	0x3e5ba3fc	0.21449274
78	0x3e54129d	0.20710225
79	0xbe0f31f2	-0.13983896
80	0x3e9d0a93	0.3067213
81	0x3d797303	0.0609007
82	0x3e897b84	0.26852047
83	0xbe9b4404	-0.3032533
84	0x3e8912d2	0.2677217
85	0xbe8208bf	-0.25397298
86	0x3e3ccb71	0.18436982
87	0x3db949d6	0.09047286
88	0x3e7b8e89	0.24566092
89	0xbe5cb381	-0.2155285
90	0xbe60fef3	-0.21972255
91	0xbc543252	-0.01295145
92	0xbc39abb0	-0.011332437
93	0x3d9bfede	0.076169714
94	0x00000000	0.0
95	0x3e74d303	0.2390862
96	0xbe6bc232	-0.23023298
97	0x3e642446	0.22279462
98	0x3e5b919d	0.21442266
99	0x3d495c26	0.049160145
100	0xbe95ea9b	-0.29280552
101	0xbe6125a5	-0.21987016
102	0xbe3e4058	-0.18579233
103	0xbd8e17ff	-0.06938171
104	0x3e68504d	0.22686882
105	0x3e528e96	0.20562205
106	0xbe1a5171	-0.1507013
107	0x3e9231a9	0.28553513
108	0xbe15a507	-0.14613734
109	0xbc3aecc8	-0.011408992
110	0x3e7b45e4	0.2453838
111	0x3e86bf27	0.26317713
112	0x3da93906	0.082628295
113	0x3e06b1a2	0.13153699
114	0xbda517b7	-0.08061164
115	0x3e5e47ae	0.21707031
116	0x3e53a302	0.20667651
117	0xbe6c7fb5	-0.23095591
118	0xbcd3c5c1	-0.025851132
119	0x3e585be1	0.21128799
120	0x3e5aaa0d	0.21353932
121	0xbc8f193d	-0.01746809
122	0xbe40713a	-0.18793193
123	0xbb1aabbe	-0.0023600901
124	0xbe176027	-0.14782773
125	0xbee0b5d1	-0.43888715
126	0xbe693b6e	-0.22776577
127	0xbc3de9a0	-0.011591345
