Project/output/old2/norm/ddqn_per_test/final_model.pth (torch, 287307 bytes, 24 tensors)

fc1.weight f4 [128, 4]
00000000: bcd0 6dbb 3d95 073f 848c 3ebf b061 d13d
00000010: 55d6 06bf eb6c 8fbf 889d 0fc0 d824 5fbf
00000020: 5841 dcbe df97 39bf 3608 5dbf 0579 cabe
00000030: efff f7bd f3a3 833d 6148 adbf 31f2 a4bd
00000040: 67d7 05be 8541 4bbd b59c 58bf 7c98 50be
00000050: 897e 6bbf 7c43 52bd c079 4e3f 3091 b03e
00000060: 4368 a6bc 049a b0bd bfe7 82bc 8e21 0c3e
00000070: 14be 0bbe 98dc f43d f9b5 193e f098 3d3e
00000080: 6523 d9be a6f5 84be 180e 5c3f 2ea6 5dbe
00000090: f8c1 ef3d 2ab6 69bf 144b 32c0 fb61 81bf
000000a0: a724 c23f fe8f b9bf c580 e13d 11a8 83bf
000000b0: 054b a13d d1b7 6abe 1039 9c3d 9e59 0ebe
000000c0: 3cf3 913e d52c 813e ae03 babe 7af4 8d3d
000000d0: edf6 c5bf 56be 3dbf 3810 0fc0 a1b0 0abf
000000e0: 9b38 513f b73e d33e 12b8 b83f 27b6 ba3e
000000f0: d5c9 1f3d 75fa c63d 3032 2440 97ef 963e
00000100: b12c 68bf 1451 91be d09c 4b3e 9f87 893d
00000110: 40e5 8f3e 9aa8 ba3d 30c3 a03e 06a9 1a3d
00000120: 6140 043e 194c ca3e 2fe0 57bf 1372 16bd
00000130: dec7 963e b9e0 d8be e15d 42bf f3cc d8bd
00000140: b741 a1be db65 e5bc 4f06 143f c883 b33d
00000150: ff49 983d 72a2 f7be 4822 10c0 4c50 963e
00000160: 2fcf 33bf c95c cebe c108 2f3d 72da 34be
00000170: 0a22 00bd ce45 28bf 78b6 babf bdfa 9cbe
00000180: 427a cf3e 60cc e23e 46d9 6c3f a20c 633e
00000190: 478d 65bf e7b3 76bf 8d48 64bf 4ff5 37bf
000001a0: 74a9 983e 4b2a 613e 1bd0 8b3f a004 663e
000001b0: 4749 593f b4ed 963e a967 16bf a572 3c3e
000001c0: 68d9 90be e5e2 26bf 4321 2ec0 5c1a 6fbf
000001d0: 3397 253d 7784 cf3d 874f 0e40 d84a a43e
000001e0: 90f0 84be 86a1 67be b622 3dbd ac23 8dbf
000001f0: ce71 aabc f481 f3bd 9a0e 32bf ef3a 9abe
00000200: dd68 d7be e419 8c3d 42c7 963f 4001 5d3e
00000210: bc6f a43c cbf4 69be 90ec 8a3f c503 0a3e
00000220: 0e2a ca3e 2a77 0d3f 109c 093e 6350 ad3e
00000230: 6e60 8c3e 2723 8abf 2fe7 febf c09a 12bf
00000240: 6c83 1ebf 4973 84bf f035 2dbf e2a6 9e3c
00000250: 7f1a 7c3d 6297 6bbd b9a7 4fbf 26b2 85be
00000260: efbe 9bbe 8716 8abe f241 45bf 218f 74be
00000270: e52d 18be e7f1 93bd 3b47 ddbe b6fe 183e
00000280: f1d7 063e 9ab8 ccbe 6402 ddbf 7d96 3abf
00000290: d16d a9be a44a 063f 9516 eebe 76eb 533e
000002a0: 411a b43e 0981 713e 87e9 3cbd 3523 4b3d
000002b0: d8c0 b1be ab7a 35bf efeb 1cc0 dd0e 30bf
000002c0: 9580 363e c759 bdbe 61b2 ab3d 92d1 a2be
000002d0: a5f7 4dbe 039e 003f b26c 893f 6b38 a73d
000002e0: 792e 5cbe ee1f 3dbd 31d7 24be b18e 3abe
000002f0: 90bb 1f3f e4b4 36be 8132 523f fad5 12bf
00000300: df3f b4bd 0c53 62bd 8072 ff3f 183b 1a3e
00000310: 9109 2b3d c86f b73e 0987 f23f 8f37 503d
00000320: 356b 18bf 6013 0f3e 2234 bb3f 8f96 5fbe
00000330: 9cbb a1bc df25 003d 94b6 89bf 71ca 94bd
00000340: 8c1c b5be 9d8e 2cbf 5254 01c0 f8f2 59be
00000350: 851f 083f 5987 a3be 4f4f 26c0 8dc7 10bf
00000360: 3cb6 10bf fb14 803e d28f 513f 2434 3bbe
00000370: 4bc2 b9be 31c9 b23d 9b44 fd3d 5229 2e3e
00000380: 9df8 32bf 602f 65bd f0e8 8e3f f567 fb3d
00000390: c610 cfbd 2f2f 0a3e f9e7 32bf e01d 1d3e
000003a0: e0d0 a2be 0bbe 6bbf 90f9 bdbf 18cd 41bf
000003b0: e273 b0bd e866 18bf 57f1 f23f b6e2 9fbd
000003c0: 3d0a c93e 7a31 2ebd d93c 11bf cc93 91bd
000003d0: 4ace 10bd 34ed 2abd b842 a83f f76d 873d
000003e0: 531c 9dbd b393 1cbf 38f7 453d 11b9 823e
000003f0: 2b3c 4a3b 75d6 313e 3610 81be 0ade e2be
-0.0036287745 0.52962095 -0.7443316 0.102237105 -0.52670795 -1.1205114 -2.24399 -0.87165594
-0.43018603 -0.7249736 -0.86340654 -0.39545456 -0.12109362 0.06427755 -1.3537713 -0.08054007
-0.1307045 -0.04962303 -0.84614116 -0.20370668 -0.9198995 -0.05133389 0.80654526 0.3448577
-0.020313388 -0.08623126 -0.015979646 0.13684675 -0.13646728 0.119561374 0.15010823 0.18515372
-0.42409816 -0.25968665 0.85959005 -0.21645424 0.117069185 -0.91293585 -2.7858324 -1.0108026
1.5167435 -1.4497068 0.11010889 -1.0285665 0.07875637 -0.22921683 0.07628071 -0.13901374
0.28505886 0.25229517 -0.36330932 0.06931396 -1.5465981 -0.74118555 -2.235365 -0.54175764
0.81727 0.41258785 1.4431174 0.36467096 0.03901084 0.0971574 2.5655632 0.29479668
-0.90693194 -0.2838217 0.19884038 0.06715321 0.2810459 0.091141894 0.31398916 0.03775885
0.12915184 0.39511183 -0.8432645 -0.036729883 0.29449362 -0.4235895 -0.759245 -0.10585966
-0.3149545 -0.02800267 0.57822126 0.0876537 0.07435989 -0.48366123 -2.2520924 0.29358137
-0.7023801 -0.40305164 0.042732958 -0.17661455 -0.031282462 -0.65731514 -1.4586935 -0.30660048
0.40522963 0.4429655 0.9251903 0.22172788 -0.896687 -0.9636826 -0.89173204 -0.71858686
0.29816782 0.2198879 1.0922884 0.22462702 0.8487744 0.29478228 -0.5875192 0.18403108
-0.28290868 -0.65189964 -2.7207801 -0.93399596 0.040427398 0.101326875 2.223604 0.3208835
-0.25964785 -0.2262021 -0.04617568 -1.1026511 -0.02080622 -0.11890021 -0.6955353 -0.30123088
-0.42072192 0.06840876 1.1779559 0.21582508 0.02007281 -0.22847287 1.0853443 0.13478
0.3948521 0.55259955 0.1343844 0.33850393 0.2741732 -1.0791978 -1.9914302 -0.5726738
-0.61919284 -1.0347682 -0.6766043 0.019366685 0.061548706 -0.057517417 -0.811153 -0.2611248
-0.30419108 -0.26970312 -0.7705375 -0.23882724 -0.14861257 -0.072238736 -0.43218407 0.14940915
0.13168313 -0.3998459 -1.7266355 -0.72885877 -0.33091596 0.5245764 -0.46501604 0.2069529
0.3517628 0.2358438 -0.046121147 0.049594123 -0.3471744 -0.708903 -2.4519002 -0.6877268
0.17822488 -0.36982557 0.083836325 -0.31800514 -0.20114 0.50241107 1.0736296 0.08165058
-0.21502103 -0.04617303 -0.16097714 -0.18218495 0.6239557 -0.17842442 0.8210831 -0.5735775
-0.08801245 -0.05525498 1.9956818 0.15061605 0.04175717 0.3582747 1.894746 0.050834235
-0.59538585 0.13972235 1.4625285 -0.21834777 -0.01974278 0.031286117 -1.0758843 -0.07265175
-0.35373342 -0.6740511 -2.0207715 -0.21284091 0.53173095 -0.319392 -2.5985906 -0.5655449
-0.5652807 0.25016007 0.8186008 -0.18281609 -0.36281046 0.087297805 0.12366601 0.1700795
-0.69910604 -0.055953383 1.1164837 0.122756876 -0.10110621 0.13494562 -0.6988521 0.15343428
-0.31799984 -0.9208686 -1.4841785 -0.75703573 -0.08615853 -0.5953202 1.8979901 -0.078069136
0.39265624 -0.042527653 -0.5673347 -0.07108268 -0.035352983 -0.04173012 1.3145361 0.06612771
-0.07671418 -0.6116287 0.04833147 0.2553182 0.0030858617 0.17366965 -0.2520768 -0.44310027

fc1.bias f4 [128]
00000000: 99b5 30be 93a5 db3d 5c1b b43e 3e69 bc3e
00000010: 7c18 b43e 672c e2be 6380 0f3d 752d 373e
00000020: c60b da3c 599f d83e 8b2b 033d 2bdc a43e
00000030: b7d2 06bf 4310 e53d a3b4 bbbb 12f1 39bd
00000040: df4a ef3e b6d9 8f3e 4a57 c2be 3a6c 93bc
00000050: dfc1 2ebf 4b5f 103d a4ca 48be 2244 5fbe
00000060: 8977 063e da73 2bbe 9e35 fdbe 4c60 0dbd
00000070: edff 903e 6175 9dbe 189e e03d 5ab9 c93e
00000080: a728 3dbc b8f6 d6bb 586f 34bd e90d c6bd
00000090: 617d 8d3d c0b7 143d 43f3 28bf 8cd0 fbbd
000000a0: 175f 5a3e 01e0 053d a6a0 2cbf 9c92 b1bd
000000b0: a808 9c3d 7225 23be 894f 883d a549 fbbe
000000c0: adcf 10be 5e65 29be 397b 023d 62a0 973e
000000d0: 787a 15bf fb78 91be c5f3 cdbe c26d 2a3e
000000e0: acd2 763a 73df 22bc 2b31 64bf 6d7e 9cbd
000000f0: 3e30 283e 3a80 80be 09c8 8dbe 6cc9 0ebb
00000100: e606 523e 31e3 39be 894f 26bd 9897 99be
00000110: f584 80bd 852f 8e3b 6bb6 1bbe bc87 143e
00000120: 6978 3ebc 4ece febe 61ee f2be ea67 233e
00000130: 3a9f 0dbf 60a0 9cbe 3bf5 13be 142e 2dbe
00000140: f9ca e1bc 6ba1 9bbd b508 a33d 0d87 28be
00000150: c12a 45be d810 40bf d876 a5be 9f67 2a3d
00000160: 7a5a bf3c d6aa 563d e406 68bd efc3 823e
00000170: bd6b 1b3e 9ac6 223c 1c18 febd 4529 c33e
00000180: 8392 823d 6cc7 1dbd 4f43 163e d73a 3bbf
00000190: ab4a 03be 6eaf 913d 213c 80be fab1 803e
000001a0: 2819 653d d412 513c e245 d33d 2e54 0ebc
000001b0: f27c 0e3f 2d33 88be 922c 21be 4161 bcbe
000001c0: 60ad fb3e 5332 efbe 1f58 02bf 7072 e5be
000001d0: 7d7f fa3b b352 00be d9ea debd 14b6 db3d
000001e0: 6eed 3fbe 0185 be3c 52ef c43e 5deb 7d3e
000001f0: 9fd7 70bc 61a7 2a3e 5e97 87be 716b b3be
-0.17256774 0.1072494 0.35177124 0.36799043 0.3517493 -0.441745 0.03503455 0.17888434
0.026616942 0.42309073 0.032023948 0.32199225 -0.52665275 0.11184742 -0.0057283207 -0.04539592
0.4673681 0.28095788 -0.3795722 -0.017995942 -0.68264574 0.03524713 -0.19608551 -0.21803334
0.13131537 -0.16743413 -0.4945497 -0.034515664 0.28320256 -0.30753615 0.10967654 0.39399225
-0.011545337 -0.006560173 -0.0440515 -0.09670622 0.0690868 0.03630805 -0.6599619 -0.122956365
0.21325336 0.03268433 -0.6743263 -0.08670542 0.076188385 -0.15932253 0.06655795 -0.49079624
-0.14141722 -0.16542575 0.031855796 0.2961455 -0.5839 -0.28412613 -0.40225044 0.16643432
0.0009415548 -0.00994097 -0.89137524 -0.07641301 0.16424653 -0.2509783 -0.27691677 -0.0021787537
0.20510444 -0.18153073 -0.040603194 -0.2999847 -0.062753595 0.004339161 -0.15206306 0.14504904
-0.011625388 -0.49766773 -0.47447494 0.15957609 -0.55321085 -0.30591106 -0.14449017 -0.16912109
-0.027562605 -0.075991474 0.07960645 -0.16457768 -0.1925459 -0.750257 -0.32317233 0.041602727
0.023358572 0.052409016 -0.056647196 0.2554011 0.15177818 0.009935046 -0.12406942 0.38117424
0.06375601 -0.03852026 0.14674114 -0.7313666 -0.12821452 0.07113539 -0.25045875 0.25135785
0.055932194 0.012760837 0.103160635 -0.008687062 0.556594 -0.26601544 -0.15739658 -0.3679295
0.49155712 -0.46718082 -0.5091571 -0.4481387 0.0076445923 -0.12531547 -0.108846374 0.10728088
-0.18742916 0.02325678 0.38463837 0.24796815 -0.014699846 0.16665412 -0.26482671 -0.3504291

fc2.weight f4 [128, 128]
00000000: e280 e3bf 4d89 22c0 0fd4 643f 0097 81bd
00000010: 8bab 153d 950c d0bf c0b8 1fbe 80f9 853d
00000020: 711b 31bf 080e 27c0 17bb 54c0 793d 413e
00000030: 7d33 873e 94a0 1ac0 274d 9dbe afdd 98bf
00000040: 5537 a03e 1226 253e 361c 03bd 3044 33bf
00000050: 2200 b7be b200 51c0 82a7 0dc0 e390 b9bf
00000060: e1ed 97bf 6ee4 13c0 e664 0d3f 824e dbbf
00000070: 250d 22c0 88fb cc3d bc38 29c0 6fab eb3d
00000080: 1026 8dbf 10a1 dabf 99fd 1fc0 b4dc 21c0
00000090: a7ca 3bc0 0800 01c0 54f9 a03e a579 03bd
000000a0: ac97 28c0 f423 8bbf e8ab 93be 3ad6 763f
000000b0: 1b96 583e 156e 9ebf 9733 df3d e894 0cbf
000000c0: db5c 24bd 2d91 19bd 97cc d9bf 9c7a b4bd
000000d0: c1f0 06c0 48d7 ebbf 5a66 85bf 4d14 893d
000000e0: d832 f6bf 7b31 47bd ccc8 abbf ff02 11c0
000000f0: eb78 01be 6f35 5ebd 39ec 0ac0 2ee8 fdbf
00000100: bcd1 01c0 c047 adbf 38bc 05c0 365d 0cc0
00000110: fdb6 61bf 2bf6 a4bf 5496 28c0 49d9 60bf
00000120: 7331 2d3f 1bd1 90bd 4e04 debf bac5 503e
00000130: 92ad c0bc 8f90 2dbe 91a6 05c0 ebef e9bd
00000140: 754b cabf 70d8 bbbf eef0 07c0 c364 593b
00000150: 2304 c3bf 868a bebe ba86 84bf 340e 37c0
00000160: 8982 bebf 06d9 903d b0cd 04c0 ba84 50c0
00000170: bd34 44be 287d 16c0 5d12 59be bb96 91bd
00000180: 756c 97bf dcbc fdbf 2318 173e e428 ebbf
00000190: d54d c2bf 64c1 2bc0 a28a ec3c 1e7a 04be
000001a0: d5b3 21c0 966a d4bf 79ba 8fbf 0949 20c0
000001b0: e478 38be b71a 47bf 5ed3 3bc0 5b7b 10be
000001c0: b4db 573d 77f9 3abf 1fb0 523e 3a99 edbf
000001d0: 7b05 17be ed47 b9bf b715 cbbf fead 51c0
000001e0: 244d f63c da8a 50c0 e85a 303f 3452 46bc
000001f0: 069e babf 1eb9 943d 2611 dabf 7456 073f
00000200: 9a56 93be bc5c 01bf 530c b0be 026f 023d
00000210: edef ba3e 75f6 fdbe 5c65 963e b3bf af3d
00000220: 9d84 86bf 8718 1ebe 41bb 9e3e bbee 843e
00000230: 501f 44be 5bdc fbbe 608a 453e d009 35be
00000240: 6c19 1ebf f3b7 3ebe c190 1abe bd1c 9c3e
00000250: 0df2 19bd ec64 253e 6674 15be 7505 6c3d
00000260: 6ad6 37bf 58bf e6be ad13 00bf 6a58 08bf
00000270: 4d80 09be 54c4 50be 1b3f 3a3e 132e 003c
00000280: 9678 3abe 39f9 483c 95d9 34bf b646 9c3d
00000290: 186c c33d 1e29 46be 9bad 7ebe 3c4c 1ebd
000002a0: edf1 303d 132e 87bd 0631 ae3d 3952 87bf
000002b0: c0d3 34be c289 edbd f0a2 073e 3c4b f23c
000002c0: 9a6c 103e 7384 503d 67d9 b33d d58b f53d
000002d0: 9e5b 813e 5a50 2bbb 7869 74bc 98be 59bc
000002e0: 4094 52bf d915 f8bc 00cf b73d 3a6a c1be
000002f0: de51 503d afc3 9ebd 4350 a03d 517d 84be
00000300: 009b aebe 6719 96bd f43c 09be 440e 88be
00000310: 0a1d b2be b946 0b3d 0811 523d 6089 2cbe
00000320: 00c8 c6bf 7bfe f83d 170b c8be 67da 18bd
00000330: cd46 d1be 85f9 583e 33f9 283e dd4c 623e
00000340: c9b6 3abf 7b6b 8cbd 3827 24bf 60d6 25bc
00000350: 0d47 b4bd e9ca dbbd 2980 82bf 09d8 98be
00000360: 517e 12bf 9dd1 00bd d624 5dbe 482a 61be
00000370: d8d1 95be 01c2 65be 4522 e6bd b732 063e
00000380: 4b61 01be 4a76 17bf 02d9 82bd 58de d6bd
00000390: 3377 dbbe 0839 5f3e f565 56bd c606 3e3e
000003a0: 381d fdbb 582d 26be 482d c2bd 020c f1be
000003b0: 41ec 33be 3564 65bc a90e 4fbd 2801 76bc
000003c0: fc78 e8bd a508 e2be e11b 1fbf 0aea 05be
000003d0: 3789 8abe b74e c7bc 646e 66bc 5ef1 ce3c
000003e0: 4b44 48be dd88 903e 3e7f 073e 58c9 513e
000003f0: c11d 94bd 4e4a b43c bf2f 09bf 2c1b f53d
-1.7773707 -2.5396302 0.89386076 -0.06327629 0.03654055 -1.625384 -0.1559782 0.06541729
-0.691825 -2.6102314 -3.323919 0.18871106 0.2640647 -2.416051 -0.30722925 -1.1942652
0.31292215 0.16127804 -0.032009326 -0.7002592 -0.3574229 -3.2656674 -2.2133489 -1.4497341
-1.186947 -2.3108172 0.55232084 -1.7133334 -2.5320523 0.10008913 -2.6440878 0.11507308
-1.1027241 -1.7080402 -2.4998534 -2.5290956 -2.934244 -2.015627 0.31440222 -0.03209843
-2.6342573 -1.0870347 -0.28842092 0.96420634 0.2115101 -1.2377344 0.10898512 -0.5491471
-0.040127616 -0.037491966 -1.7015561 -0.088124484 -2.1084445 -1.8425074 -1.042186 0.06693325
-1.9234266 -0.048631173 -1.3420653 -2.2658079 -0.12643783 -0.054250177 -2.170668 -1.9836481
-2.0284262 -1.3537521 -2.089613 -2.1931891 -0.8816984 -1.2887625 -2.6341753 -0.8783155
0.6765358 -0.07071134 -1.7345064 0.20387927 -0.023520265 -0.16949676 -2.0882914 -0.11422714
-1.5804278 -1.4675426 -2.1240802 0.003317163 -1.5235637 -0.3721506 -1.0353615 -2.860242
-1.4883586 0.07072644 -2.0750542 -3.258101 -0.19160743 -2.351389 -0.21198411 -0.07108828
-1.1829973 -1.982326 0.14755301 -1.8371854 -1.5180002 -2.6836786 0.028874699 -0.12937209
-2.526601 -1.6595027 -1.1228782 -2.5044577 -0.18014866 -0.7777514 -2.9347758 -0.14109556
0.05269976 -0.73036903 0.20574997 -1.8562386 -0.14748184 -1.4475075 -1.5866002 -3.2762446
0.03006608 -3.2584748 0.6888871 -0.01210456 -1.4579475 0.07261871 -1.7036483 0.5286629
-0.2877701 -0.50532126 -0.34384403 0.031844147 0.36511174 -0.49602094 0.29374206 0.085814856
-1.050922 -0.15439044 0.31002238 0.25963387 -0.1915257 -0.49191555 0.19291067 -0.17679524
-0.6175754 -0.18624859 -0.15094282 0.30490676 -0.037584353 0.1615178 -0.14595184 0.05762239
-0.71811545 -0.4506786 -0.5003002 -0.5325991 -0.13427849 -0.20387393 0.18188135 0.007823485
-0.18210062 0.012266451 -0.70644504 0.076306745 0.095421016 -0.19351622 -0.24870913 -0.03864692
0.04319947 -0.06600585 0.08505444 -1.0571967 -0.17658901 -0.11598541 0.1324575 0.02957689
0.14103928 0.050907563 0.087817006 0.119895615 0.2526521 -0.0026140423 -0.014917724 -0.01329007
-0.8225746 -0.030283855 0.08975029 -0.37776357 0.050859325 -0.077521674 0.07827809 -0.2587686
-0.3410263 -0.07329064 -0.13402158 -0.26573384 -0.3478778 0.034002993 0.051285774 -0.1684928
-1.5529785 0.12157913 -0.3907096 -0.03731766 -0.4087433 0.21188934 0.16501312 0.22099634
-0.7293516 -0.06856438 -0.64122343 -0.010121912 -0.08802614 -0.107320614 -1.0195361 -0.29852322
-0.57223994 -0.031449903 -0.21596083 -0.21988785 -0.2926166 -0.22437288 -0.11237005 0.13105284
-0.1263477 -0.5916487 -0.06389047 -0.104916275 -0.4286438 0.217991 -0.052343328 0.18557271
-0.0077244304 -0.16228235 -0.09481293 -0.47079474 -0.17570592 -0.014000942 -0.05055109 -0.015014924
-0.11351201 -0.4414722 -0.62151915 -0.1307756 -0.27057812 -0.024329526 -0.014064405 0.025261577
-0.19557302 0.28229418 0.13232133 0.20486963 -0.072322376 0.022008087 -0.5358848 0.11968073

fc2.bias f4 [128]
00000000: 82ae ef3d f78e f43d 70ed b13d c2cd 493d
00000010: ac82 8e3d 2486 023e 3bfc b5be 218b 11be
00000020: 162e 5d3d 08d9 cc3e a17c 1bbd fd37 2f3f
00000030: 9021 27be 067f 8bbe bb09 74bd d776 75ba
00000040: ddf3 02be 500f b23e 5208 a9bc b959 ce3d
00000050: c38f 3abf 84dd ab3d 988b b33e bd7c d4bb
00000060: ab0e 393e 5242 3a3e b922 bf3e 0d03 32bd
00000070: fde5 783e 5aa1 67bd 0f51 113d f868 cf3d
00000080: 8771 473e 7984 a43e 3956 35bd 5d12 b9bd
00000090: 5c3d a53e f56c 363d 3f8f d43d ac67 cd3d
000000a0: b1f9 9abd 4528 193e cf47 743d 5351 d73e
000000b0: 3aa3 99be 5d77 c4bd ef0d 8f3d 7b70 683e
000000c0: 064d 5cbc b02a 0e3e 4a15 0c3f f997 48be
000000d0: 6eb2 24bd ffa4 a43c e774 0abe ce47 993e
000000e0: b27b bd3e 1928 bf39 2c2c f9bd d84f 09bf
000000f0: 5f2f d3bd bd45 0d3c 2160 a4be 234f 503e
00000100: a3d4 0c3d 0847 26be aa97 7b3e fc77 7fbc
00000110: 71f0 8dbe baf0 133b f555 dabe a313 f1bb
00000120: 500b 423e 6b07 bc3d 6641 4d3e 302d 8d3e
00000130: 39f6 41be f037 3c3e 4a59 38bf 359f 26bd
00000140: 64ca 1e3e e39f 043e 544e 043e 56a6 393e
00000150: f883 5a3e 3b50 dfbd 135d f03e 4129 193e
00000160: 19cd 25bd 39d8 6abe 7598 893e 1015 7c3e
00000170: 3f57 653d 5b24 b7bc 3527 273e d43d 1ebe
00000180: 1bde 36bd 3bae 4c3d bea6 083d ed92 7bbd
00000190: dd84 f13e 792c 373e c074 9e3d 7868 18bf
000001a0: a76e 023e 7da7 aebd 8dea c23e 02dc c93d
000001b0: 12da 3e3e bd59 f5be f785 0e3e d006 b0bc
000001c0: 7346 ec3d c9c4 303e d865 9dbe bfea 053e
000001d0: dc1f 8bb9 a5a6 c1bc 67e2 333e 7c1b e93d
000001e0: e529 b7be 3b41 f33c d5e9 b6bd 5ffc f73e
000001f0: 6867 9a3e 011c 033e b6ee 753d 5a62 f2bd
0.117032066 0.11941331 0.08687866 0.04926849 0.069585174 0.12746483 -0.35544 -0.1421323
0.05399903 0.40009332 -0.037960652 0.68444806 -0.16321397 -0.2724535 -0.059579592 -0.0009363717
-0.12788339 0.34777308 -0.02063385 0.10075707 -0.7287561 0.0839186 0.3506744 -0.0064845965
0.18072002 0.18189362 0.3733118 -0.04345994 0.24306484 -0.05655036 0.035477694 0.10127443
0.19476901 0.3213232 -0.04427168 -0.09036706 0.32273376 0.044537503 0.103788845 0.100295395
-0.07567156 0.14956768 0.059638795 0.42054233 -0.30007344 -0.09593079 0.069850795 0.22699158
-0.013446098 0.13883471 0.54719985 -0.19589223 -0.040209226 0.020098208 -0.13521157 0.29937595
0.37008435 0.00036460234 -0.12166628 -0.53637457 -0.1031177 0.008622584 -0.3210459 0.20342688
0.034382474 -0.16238034 0.24569574 -0.015592571 -0.27722505 0.0022573904 -0.42643705 -0.007357077
0.18949628 0.09181102 0.20044479 0.27573538 -0.18941583 0.18380713 -0.72011244 -0.040679175
0.15506893 0.12951617 0.12920505 0.18129858 0.21339405 -0.109039746 0.4694601 0.14957143
-0.0404788 -0.22934045 0.26874128 0.2461741 0.055991407 -0.022356203 0.1632355 -0.15453273
-0.04464541 0.049970847 0.033362143 -0.061419416 0.4717168 0.17888059 0.07737112 -0.59534407
0.12737523 -0.085280396 0.38069573 0.09856416 0.18637875 -0.47920027 0.13918291 -0.021487623
0.115368746 0.17262568 -0.30741763 0.1307783 -0.00026535883 -0.023639033 0.17566834 0.11382195
-0.3577415 0.02969419 -0.08931319 0.4843473 0.30157018 0.12803651 0.060042106 -0.11835165

fc3.weight f4 [2, 128]
00000000: 82a3 b03e a73c e43e 3a0d 263d 9aa8 6c3f
00000010: cabf 1fbe cf83 fcbc ba7b 1ac0 29c8 d83e
00000020: f9c1 79be 4925 053e 9163 2b3f 8c5c 003f
00000030: c576 a0be 4143 c53f f339 853d 9735 213f
00000040: f4e7 10be a2bd 023f 1926 1ebe 1819 903e
00000050: e9fd dabf afd1 a83d 27a7 0ebe c5ec 36bd
00000060: 67c0 bc3c 54c1 9ebd 517b 46bd c95d d83d
00000070: 6f75 4bbe ac28 22bd 43ac c3bd f398 a03e
00000080: 457b 903f 48ad fd3e 3299 c4be 2911 6c3d
00000090: 7540 363f b9a9 2e3d 30ef ba3d 470a 203f
000000a0: 1cc8 cebc e620 67be 7817 0a3f 1dbe 6e3e
000000b0: 6b1f 043e 0f8e a33e 7339 d63e bad9 6c3e
000000c0: a876 703d c08c 00be b668 d83e 9b6f 84bf
000000d0: 9079 8dbd b93d eebe d659 03bf 32fa 87be
000000e0: cb27 023e 24ba e93e fdce b23c d265 61bf
000000f0: fee1 babe 732f 1c3f 89b7 903f b3a3 473e
00000100: 3cb0 8c3d 417b da3e a4e3 933d fd81 adbd
00000110: f534 cebe 4cda 413d 9f2b dbbe 4b93 853d
00000120: fb4c a2bd 8476 8bbd 0837 0f3f 7d40 8b3e
00000130: 6a41 563f 04d9 0dbe 841c 1dbf 9c39 b63d
00000140: 1fcb e93d 116e bebd 3001 0f3e 37f2 983e
00000150: 28bd 53be 15f8 683f 4f65 203f 3c5e 9d3d
00000160: 4610 183e b356 253f fa90 133e cf70 593e
00000170: d662 293e 5a7c e53d f94c 103d 10f4 ea3e
00000180: 2eaf fb3c a351 cbbd fd5d bd3c d715 81bc
00000190: 2162 e53e df04 cb3d 3ead 1b3f 0a15 ba3d
000001a0: ae98 bbbb 2752 67be aa70 8d3e 979f 463f
000001b0: 88dd a63e c3e0 823d 13c8 36be 0673 143f
000001c0: 151b 9b3e 435b 753e cf29 32bf 08a7 0f3f
000001d0: cafb e13d ad88 a3bd 9889 92bd 7172 823e
000001e0: 5c6f 77bd fc8f 9b3e 6302 3e3a cf29 8f3e
000001f0: 3350 293f 0ff5 e23e 71da 5fbf ab74 b8be
00000200: b8aa 9540 8a67 823e 3041 093e ba9f 27be
00000210: b9d6 6540 6516 a340 14a9 7dbe db42 f03e
00000220: 33da 8d40 3d2a 353e 7d04 df3f 7754 073f
00000230: 35c4 0f3f 83e0 ce3f d6ba 08bd 7ebf 5cbd
00000240: 34a8 7f3d 2cd0 d93e f45c 9f3e efe5 063f
00000250: 3bab 243f 33c7 10be 115b ab3e 6cb1 82be
00000260: 4c62 a840 b732 af40 63cd a33e 346c 4ebd
00000270: af46 813e f0cb 88bb a6ea 0cbe 2fd4 7bbd
00000280: 5fff 813f dd5e ff3e 8d3f de3e 0cb5 85be
00000290: c2c9 463f c9c5 7c40 faa4 9e40 20b9 653e
000002a0: 9e96 12bd b59b a940 4d41 9440 04ca 403e
000002b0: a55e 63bf 3d3d 143f 960c a340 ee71 cd3e
000002c0: 41f8 623e 4cb3 a640 e6e5 0d3f 41fa 143f
000002d0: 0f26 143e 6dba 5bbf 887a f33e 59cc 293c
000002e0: 543d 453e 63d3 3e40 8659 77be 05a7 21bf
000002f0: 7947 70be 175a 3c40 287b 1ac0 e5db 8e3d
00000300: 9d87 bb3e cc18 c2be dce8 c6be 373d 01c0
00000310: 70f3 433d e94b a5be 3336 073f fd4b 9cbd
00000320: 7230 b040 0fa5 3d3f 53d7 403f 4dad d23e
00000330: 7672 fdbf ca6a ab40 1115 5bbf a8f1 26bd
00000340: 21e1 9a40 b5d7 a740 d23e a040 fcc0 363f
00000350: 65f8 ce40 bc47 90bf 70b7 e53c 7897 a640
00000360: 1be6 a0bd ebb6 263f f446 ad3e 25be 8eba
00000370: 467a 7540 a979 f0bc b464 1e3e d5c6 94bf
00000380: 04db bfbc d62e 8f40 2e2b 8abe 95cb 09bb
00000390: bcb4 833e 9130 f53e dea9 443f 1fb4 40bf
000003a0: 8e59 9240 4531 b93a a31f c53e cf2d d03c
000003b0: d08c dbbc ad0e 09bf d495 b240 6cc9 ed3e
000003c0: 3ba4 1f3f 72b7 a53e 9597 13bf a779 e83d
000003d0: 9fcd f7bd 5116 2c3d 002c ab40 3234 c73d
000003e0: aea8 63be 2049 6540 bda9 78be e733 303e
000003f0: c806 343f 9fac 663e 0437 f2be 614b fa3e
0.34499747 0.44577524 0.040539958 0.92444766 -0.15600505 -0.03082457 -2.4138017 0.4234021
-0.24390401 0.13002504 0.669488 0.50141215 -0.31340614 1.5411149 0.065051936 0.62972397
-0.14150983 0.51070607 -0.1544422 0.28144145 -1.7108737 0.08243119 -0.13930951 -0.044659395
0.023040963 -0.07751718 -0.048457447 0.10564763 -0.19869016 -0.03958957 -0.09554341 0.3136669
1.1287619 0.49546266 -0.3839813 0.057633553 0.71192104 0.04264233 0.09127653 0.6251568
-0.025241904 -0.22571144 0.5394206 0.2331471 0.1290261 0.3194432 0.41840705 0.23129931
0.05870691 -0.12553692 0.42267388 -1.0346559 -0.06907952 -0.46531466 -0.51308954 -0.2655807
0.12710492 0.45649827 0.021827215 -0.8804599 -0.36500543 0.610099 1.130601 0.1949604
0.068695515 0.4267216 0.072211534 -0.08472059 -0.40274778 0.047327325 -0.42806718 0.065222345
-0.07924839 -0.068097144 0.55943346 0.27197638 0.83693564 -0.13852316 -0.61371636 0.08897707
0.114156954 -0.09298337 0.13965297 0.29872295 -0.20677626 0.91003543 0.62654585 0.076839894
0.14849958 0.6458542 0.14410773 0.2123444 0.16541609 0.11205359 0.035229657 0.4588933
0.03072318 -0.0992768 0.023116106 -0.015757484 0.4480143 0.099130385 0.6081122 0.09086044
-0.005724988 -0.22589932 0.27625018 0.77587265 0.3259089 0.06390526 -0.1784976 0.5798801
0.302941 0.23960595 -0.69595045 0.56114244 0.11034353 -0.07985053 -0.0715515 0.25477937
-0.060408935 0.3038329 0.00072482805 0.27961585 0.66138 0.4432759 -0.8744269 -0.3602651
4.6770897 0.2546962 0.13403773 -0.16369525 3.5912306 5.0964837 -0.2477153 0.46926007
4.4328856 0.17691894 1.7423245 0.5286326 0.56158763 1.6162266 -0.033381306 -0.05389356
0.06241627 0.42541635 0.31125605 0.526946 0.64323777 -0.14138488 0.33467916 -0.25525987
5.261999 5.474941 0.31992635 -0.05039616 0.2524924 -0.004174702 -0.13761386 -0.06148165
1.0156058 0.49877062 0.4340786 -0.2611469 0.7765161 3.9495718 4.9576387 0.22433901
-0.03578817 5.300257 4.6329713 0.18827063 -0.8881629 0.5790594 5.0952864 0.40125984
0.22165014 5.209387 0.5542892 0.5819436 0.14467643 -0.8583134 0.4755442 0.010363662
0.19261676 2.981652 -0.24155244 -0.63145477 -0.23464765 2.9429986 -2.4137669 0.06975535
0.36626902 -0.37909544 -0.38849533 -2.0193613 0.047839582 -0.32284477 0.52817076 -0.07631681
5.5059137 0.74079984 0.7532856 0.41147843 -1.9800556 5.356786 -0.8557902 -0.040757805
4.8399816 5.2450814 5.0076685 0.7138822 6.4678216 -1.1271892 0.028041571 5.20599
-0.07856389 0.6512286 0.33843195 -0.0010890408 3.835588 -0.029354887 0.15468103 -1.1623179
-0.023419864 4.4744673 -0.26986068 -0.0021025885 0.25723827 0.47888616 0.76821697 -0.7527484
4.573432 0.0014129063 0.385007 0.025412468 -0.026800543 -0.5353802 5.5807896 0.46442735
0.6235997 0.3236652 -0.5765317 0.11351328 -0.12099766 0.04201347 5.349121 0.09726752
-0.22232315 3.5825882 -0.242835 0.17207299 0.7032285 0.22526787 -0.473076 0.48885635

fc3.bias f4 [2]
00000000: 3a4b 7b3e 21e3 a23e
0.24540415 0.3181391

fc1.weight f4 [128, 4]
00000000: 87e1 0cbc 182c 063f 8579 3fbf 8087 da3d
00000010: 5be0 06bf 44bc 8fbf 1141 0fc0 cb68 5ebf
00000020: 1ea2 dabe 5cff 39bf d195 5abf bf45 cabe
00000030: 76e5 fcbd 055d 8a3d 2494 adbf 197f aebd
00000040: 0db0 04be 2058 45bd de91 57bf 40bb 50be
00000050: f44c 6bbf 41a6 4abd 1101 4d3f 413b ae3e
00000060: 6176 98bc 1439 a1bd 6245 49bc 4356 083e
00000070: ee32 0dbe 5246 ec3d 6944 183e e183 403e
00000080: 8804 d5be b695 86be 8f7e 5b3f f9c4 5dbe
00000090: 5cfd ee3d 8aaa 69bf 8e8b 32c0 279d 81bf
000000a0: 78ce c13f 84b8 b9bf b254 dd3d 8912 83bf
000000b0: faee a33d 9081 6cbe a24e 973d 8258 11be
000000c0: 8975 923e ab5f 803e 0170 c0be 3461 933d
000000d0: 7700 c6bf 7157 3dbf 04f8 0ec0 5c48 0bbf
000000e0: 2ae3 513f d80b d23e 793a b93f 37ec bb3e
000000f0: e8f2 023d e2d8 cb3d 50f0 2340 6aab 943e
00000100: 3be8 68bf f216 91be 5e1e 4a3e 33a6 853d
00000110: 480d 913e 8ff5 c03d 8b78 9f3e 332f 113d
00000120: e9c4 053e da30 cc3e b761 56bf 9374 14bd
00000130: e8a6 963e 849d debe f2a4 41bf c83c c2bd
00000140: 2621 9fbe 5e05 e7bc 1f98 133f 5774 b43d
00000150: 94a6 a33d 4f2f f5be c53e 10c0 b904 973e
00000160: 1bdb 32bf dc10 cfbe 910d 203d 30a8 36be
00000170: c5f6 fcbc 9fad 28bf c04a babf 9ef1 9bbe
00000180: f43e d43e 2031 e23e 09e2 673f c3f3 5d3e
00000190: 427c 64bf 202c 78bf 11cc 62bf 7253 37bf
000001a0: 1b10 983e 873c 633e dcaa 8c3f 75f9 643e
000001b0: 342f 593f b6b3 943e 9301 17bf 5582 3d3e
000001c0: c52d 91be 042c 27bf 32f9 2dc0 b4b5 6fbf
000001d0: 098f 153d 76d7 c23d a44a 0e40 85be a63e
000001e0: ce42 89be 7b36 65be 51b3 19bd ea27 8dbf
000001f0: 7315 b9bc 6581 f5bd 57c8 31bf 3144 99be
00000200: 633e d7be e243 8e3d 5d58 963f 9ebf 5b3e
00000210: dd9e 823c 157f 73be 43fd 8a3f 6cbb 0d3e
00000220: 1835 ca3e 4423 0c3f 168f 0e3e 5497 ad3e
00000230: 3f36 8b3e 96e8 8abf 4284 febf 8a27 10bf
00000240: 2f75 1dbf 2321 85bf b601 2ebf 2b6e bb3c
00000250: e661 593d 5396 87bd 4e21 50bf 87f3 82be
00000260: 8bfe 9abe 7b5f 89be 38ca 42bf 5858 73be
00000270: 5448 1dbe 2dbe 88bd 8eae ddbe ac3d 113e
00000280: 820e 073e cdf5 cfbe 5481 ddbf f677 3abf
00000290: 354f a9be 4c39 073f 4f96 ecbe 5464 553e
000002a0: 83e0 b33e 3597 703e 5422 4dbd 4cc5 283d
000002b0: 34e1 b2be 8ba5 33bf b400 1dc0 72ab 30bf
000002c0: 2ac6 333e 293f bebe 24e5 b33d 59fd a1be
000002d0: 5415 4abe 5365 003f 0798 883f f39a a73d
000002e0: 32f8 5bbe 76de 45bd 9737 1fbe 6e0a 39be
000002f0: cc23 213f ab88 2abe ce80 533f cd91 15bf
00000300: de51 b3bd f2b9 5cbd 5986 ff3f 27c2 193e
00000310: 53e1 4b3d 041c ba3e 375d f13f 091e 3d3d
00000320: c337 19bf f250 0f3e aef1 ba3f 35db 66be
00000330: feff a8bc 7bf6 1c3d 5dce 89bf c515 a3bd
00000340: 32f7 aebe e2e0 2dbf 437e 01c0 e769 57be
00000350: 18bc 073f 0505 a6be f188 26c0 b8f9 0fbf
00000360: 9464 10bf 50d7 7f3e 62a2 513f b525 37be
00000370: aa43 babe 6e0a a93d d25a ec3d 00af 2f3e
00000380: 293d 33bf 8e89 56bd 0c2b 8f3f a7db fb3d
00000390: 9acc cdbd d565 0b3e cae2 2fbf 380c 1f3e
000003a0: d67f a1be 1f31 6bbf bf72 bdbf 7fe1 42bf
000003b0: 661f a9bd 939f 1abf 8d56 f33f 4ae2 98bd
000003c0: 0aa1 c93e 5f0d 37bd e821 11bf db83 88bd
000003d0: ad8b 05bd 733d 49bd 6a32 a73f ae33 8e3d
000003e0: 3c9f 84bd 06ea 1dbf f5e5 4a3d ef21 863e
000003f0: 8571 313c e397 343e 7f7a 7cbe 1390 e3be
-0.008598692 0.5241103 -0.747948 0.10670376 -0.5268609 -1.1229329 -2.2383463 -0.8687865
-0.4270181 -0.7265527 -0.8538485 -0.39506337 -0.12348454 0.06756023 -1.3560834 -0.08520336
-0.12957783 -0.048179746 -0.8420695 -0.2038393 -0.91914296 -0.04947496 0.8007975 0.34029582
-0.018611135 -0.07872215 -0.012284609 0.13314156 -0.1378896 0.1153685 0.14869846 0.18800308
-0.4160502 -0.26286095 0.8573999 -0.2165717 0.11669418 -0.91275847 -2.7897677 -1.0126084
1.5141134 -1.4509435 0.1080717 -1.0240031 0.080045655 -0.23096299 0.07388045 -0.1419392
0.28605297 0.2507299 -0.37585452 0.071962744 -1.5468892 -0.7396155 -2.2338877 -0.54407287
0.8198725 0.4102466 1.447097 0.36703655 0.031969935 0.099534765 2.5615425 0.2903703
-0.90979356 -0.28337818 0.19738147 0.065258406 0.28330445 0.094218366 0.31146654 0.035445403
0.13063397 0.3988102 -0.8374285 -0.036243986 0.29424214 -0.4347955 -0.7564231 -0.09484249
-0.31079978 -0.028200801 0.57653993 0.088112526 0.07990757 -0.47887656 -2.2538311 0.2949579
-0.6986558 -0.4044255 0.039075438 -0.17837596 -0.030879388 -0.65889925 -1.4554062 -0.30457777
0.4145428 0.44178104 0.9057928 0.21675019 -0.892521 -0.9694233 -0.8859263 -0.716117
0.29699787 0.22191058 1.0989642 0.22360785 0.8483765 0.2904336 -0.5898678 0.18506749
-0.28355232 -0.6530154 -2.7183347 -0.9363663 0.036513362 0.09513752 2.2233057 0.3256723
-0.2680878 -0.22384064 -0.037524525 -1.1027806 -0.022593236 -0.11987571 -0.6944632 -0.29934838
-0.42039785 0.06946541 1.1745716 0.21459815 0.015944893 -0.23778947 1.0858539 0.13841027
0.39493632 0.5474131 0.1392177 0.33904517 0.27189824 -1.085223 -1.9884112 -0.5631033
-0.6150693 -1.0400738 -0.6797136 0.02287968 0.05307188 -0.06620469 -0.8130082 -0.25576422
-0.30272326 -0.26830658 -0.7608981 -0.23764169 -0.15359622 -0.06676898 -0.43297237 0.14183682
0.13189128 -0.4061722 -1.7305093 -0.72839296 -0.33068243 0.52821803 -0.46208426 0.20839053
0.35132226 0.23495181 -0.050081566 0.041203782 -0.3493744 -0.70174474 -2.453168 -0.69011605
0.17556062 -0.37157562 0.087839395 -0.316386 -0.19734699 0.5015461 1.0671395 0.08183851
-0.21481398 -0.04830786 -0.1554855 -0.18070385 0.62945247 -0.16653697 0.82618415 -0.584256
-0.08755849 -0.05388827 1.9962875 0.1501547 0.049775433 0.363495 1.8856572 0.046171222
-0.5985071 0.13995722 1.4605005 -0.22544558 -0.02062988 0.038321 -1.0766102 -0.079631366
-0.3417297 -0.6792127 -2.0233314 -0.21036492 0.53021383 -0.32425705 -2.6021082 -0.56240416
-0.5640347 0.24984479 0.818884 -0.17885478 -0.3637975 0.082539424 0.1154076 0.17156601
-0.700152 -0.052377276 1.1185012 0.12297755 -0.1004879 0.13613065 -0.6870543 0.15532005
-0.31542844 -0.9187183 -1.4800643 -0.7612533 -0.08257942 -0.6039974 1.9010788 -0.07465036
0.39380676 -0.044690486 -0.5669236 -0.066657744 -0.03260391 -0.04913087 1.306226 0.06943451
-0.06475684 -0.61685216 0.04953571 0.26197764 0.010830288 0.17636065 -0.24656104 -0.44445857

fc1.bias f4 [128]
00000000: 4803 37be 34d9 d73d a7ae b63e 46a4 bb3e
00000010: 3b0c b53e 12d0 e3be 36c9 0b3d 796e 353e
00000020: 281e eb3c 141e d73e 4136 043d da2c a43e
00000030: 259d 06bf 32c7 e03d 1cff 09bc 59f9 5abd
00000040: 4b76 ef3e 6b4b 8e3e 6374 c1be 9ea5 1cbc
00000050: 55b3 2fbf 601d 203d 25cd 4ebe b3bb 5fbe
00000060: 70bb 043e d6a0 30be 61aa fbbe d4b9 d0bc
00000070: 6548 8f3e 335d 9bbe d41a e13d d7b0 ca3e
00000080: 53cf 26bc f12b 013b bc05 3cbd 98ca c3bd
00000090: 9c7a 983d 6635 453d e66f 29bf 63f4 01be
000000a0: f97b 603e 8a82 053d 7a51 2dbf 5fa4 b1bd
000000b0: 94c7 ac3d b255 26be d421 923d f4ba f6be
000000c0: 16b9 0bbe 05a7 2abe 5f9e 0d3d b4f8 963e
000000d0: b826 14bf 9df2 92be a874 cdbe d6f1 273e
000000e0: 7621 4eba 8d0f 45bc 1453 64bf 8986 93bd
000000f0: 0c99 2a3e 02c3 82be 9845 8abe d8fb 37bb
00000100: ea49 553e 7267 38be d2bc 3fbd d7a3 9abe
00000110: 3719 84bd 951d a7ba 7674 15be 5796 153e
00000120: cb6c 25bc 7f1d 00bf 4f8a f3be 518a 233e
00000130: fb2a 0dbf 1892 9dbe cc6e 12be 532a 2abe
00000140: 46e2 ecbc 9cdb 9ebd d5ea a23d 40af 25be
00000150: 258f 3fbe df38 40bf 24e0 a7be 0511 283d
00000160: de6c 993c 76d3 603d 5bff 80bd 33b6 813e
00000170: ce28 1c3e 832b 173c b95c 00be c7ed c13e
00000180: aa8f 8d3d ed44 45bd e06e 1c3e 1c85 3bbf
00000190: 8b8b 02be 9fcf 833d c50f 78be 4439 803e
000001a0: 21f3 823d ecfa 203c 170c d53d fb68 26bb
000001b0: ba2e 0e3f e4cc 88be 39aa 1abe fb0b bcbe
000001c0: 562f fb3e 6057 efbe 7779 03bf dd57 e3be
000001d0: 9cd1 163c 70a1 01be aa94 cebd 43cd df3d
000001e0: 59ae 42be 4617 da3c 2e23 c23e e626 803e
000001f0: 3d8c 92bc 612b 263e 4efc 82be 3c48 b3be
-0.17872345 0.10539475 0.35680124 0.36648768 0.35360894 -0.44494683 0.034127437 0.17717923
0.028700903 0.42015135 0.032278303 0.3206547 -0.52583534 0.109754935 -0.008422639 -0.053460453
0.46769938 0.27791914 -0.3778411 -0.009560971 -0.68633014 0.039090514 -0.20195444 -0.21848945
0.12962127 -0.17248854 -0.49153426 -0.025479235 0.2798492 -0.30344543 0.10991445 0.39588043
-0.010181266 0.001971003 -0.045903906 -0.09560126 0.07445261 0.048146628 -0.6618637 -0.12690882
0.21922292 0.032595195 -0.6770245 -0.086739294 0.08436504 -0.16243628 0.071353585 -0.4818951
-0.13644823 -0.16665275 0.034574863 0.2948662 -0.5787158 -0.28700724 -0.40128064 0.16400847
-0.00078632624 -0.012027633 -0.8918927 -0.07203395 0.16659945 -0.25539404 -0.2700622 -0.0028073695
0.20828977 -0.18008211 -0.046810932 -0.30203125 -0.06450122 -0.0012749905 -0.14595208 0.14608131
-0.010096739 -0.5004501 -0.4756646 0.15970732 -0.5514371 -0.30775523 -0.14300078 -0.16617708
-0.02891649 -0.07756731 0.07954947 -0.16180134 -0.18706949 -0.7508678 -0.32788193 0.041031856
0.01872867 0.054889165 -0.06298705 0.2533432 0.15249941 0.009226683 -0.12535371 0.37876722
0.06912167 -0.048161436 0.1527667 -0.73249984 -0.12748544 0.06436085 -0.24224766 0.2504369
0.063940294 0.009825449 0.104026966 -0.0025392163 0.5554005 -0.2671882 -0.15103997 -0.3672789
0.49059552 -0.4674635 -0.51357216 -0.44402972 0.009205248 -0.1265924 -0.10086949 0.109278224
-0.19011821 0.026622426 0.37917465 0.25029677 -0.017889136 0.16227485 -0.25583118 -0.35016048

fc2.weight f4 [128, 128]
00000000: e280 e3bf 4d89 22c0 0ed4 643f 0097 81bd
00000010: 8bab 153d 950c d0bf c0b8 1fbe 80f9 853d
00000020: 711b 31bf 070e 27c0 17bb 54c0 783d 413e
00000030: 7c33 873e 94a0 1ac0 264d 9dbe aedd 98bf
00000040: 5437 a03e 1226 253e 361c 03bd 3044 33bf
00000050: 2200 b7be b100 51c0 82a7 0dc0 e390 b9bf
00000060: e0ed 97bf 6ee4 13c0 e664 0d3f 814e dbbf
00000070: 250d 22c0 88fb cc3d bc38 29c0 6fab eb3d
00000080: 1026 8dbf 10a1 dabf 98fd 1fc0 b4dc 21c0
00000090: a7ca 3bc0 0800 01c0 54f9 a03e a579 03bd
000000a0: ac97 28c0 f423 8bbf e8ab 93be 3ad6 763f
000000b0: 1a96 583e 156e 9ebf 9633 df3d e894 0cbf
000000c0: da5c 24bd 2c91 19bd 97cc d9bf 9c7a b4bd
000000d0: c1f0 06c0 47d7 ebbf 5a66 85bf 4d14 893d
000000e0: d732 f6bf 7b31 47bd ccc8 abbf ff02 11c0
000000f0: eb78 01be 6f35 5ebd 39ec 0ac0 2ee8 fdbf
00000100: bcd1 01c0 c047 adbf 38bc 05c0 365d 0cc0
00000110: fcb6 61bf 2af6 a4bf 5496 28c0 49d9 60bf
00000120: 7331 2d3f 1ad1 90bd 4d04 debf bac5 503e
00000130: 92ad c0bc 8e90 2dbe 91a6 05c0 ebef e9bd
00000140: 754b cabf 70d8 bbbf eef0 07c0 c364 593b
00000150: 2304 c3bf 868a bebe ba86 84bf 330e 37c0
00000160: 8982 bebf 06d9 903d b0cd 04c0 ba84 50c0
00000170: bd34 44be 287d 16c0 5c12 59be bb96 91bd
00000180: 756c 97bf dcbc fdbf 2218 173e e428 ebbf
00000190: d54d c2bf 63c1 2bc0 a28a ec3c 1e7a 04be
000001a0: d4b3 21c0 966a d4bf 78ba 8fbf 0949 20c0
000001b0: e478 38be b61a 47bf 5ed3 3bc0 5a7b 10be
000001c0: b3db 573d 77f9 3abf 1fb0 523e 3a99 edbf
000001d0: 7b05 17be ec47 b9bf b715 cbbf fead 51c0
000001e0: 234d f63c d98a 50c0 e85a 303f 3352 46bc
000001f0: 069e babf 1eb9 943d 2611 dabf 7456 073f
00000200: 9a56 93be ff64 f4be a84b a9be 8147 353d
00000210: 5c8b c23e 75f6 fdbe 1a27 9b3e 094a c93d
00000220: 9d84 86bf 4d35 0ebe 6719 a83e 86e8 8b3e
00000230: 4f1f 44be 0f04 f8be 5a8d 513e 8017 2bbe
00000240: bf07 1bbf 68af 30be c190 1abe 66f8 9f3e
00000250: 0cf2 19bd 3050 2a3e 6674 15be 6572 843d
00000260: 0bcf 32bf 57bf e6be ad13 00bf 3f8a 06bf
00000270: 18cc d3bd 54c4 50be 448c 383e b04d bd3c
00000280: c7ad 40be 1ba4 ab3c b2e8 36bf d7a3 a63d
00000290: 4f95 d23d cd54 43be 9bad 7ebe 5990 44bd
000002a0: c8b0 983d df83 86bd 0531 ae3d 6a73 87bf
000002b0: c05b 15be c289 edbd a46f 103e 3b4b f23c
000002c0: 9a6c 103e 7284 503d 67d9 b33d 153c 083e
000002d0: 9e5b 813e 2679 2fbb 7769 74bc ec75 7fb9
000002e0: d986 52bf 525d 22bd 00cf b73d 98a8 b9be
000002f0: 2465 843d aec3 9ebd 4a98 8f3d 78ad 84be
00000300: ff9a aebe a2f3 99bd f43c 09be 440e 88be
00000310: 0a1d b2be b946 0b3d 90e6 463d 13da 20be
00000320: 9836 c7bf 7afe f83d 170b c8be 8160 cbbc
00000330: cd46 d1be 84f9 583e 32f9 283e dc4c 623e
00000340: 24af 3abf d204 75bd 9027 1fbf 3d9d 37bc
00000350: 0d47 b4bd e9ca dbbd 2980 82bf aab6 90be
00000360: d020 12bf e38c ccbc e89b 5fbe 164e 55be
00000370: 1b8e 8dbe 05eb 54be 4422 e6bd 62d9 133e
00000380: 9c4c f3bd dc0f 12bf 0aa5 5cbd 57de d6bd
00000390: 3377 dbbe 0d6e 643e f465 56bd 8fc6 4b3e
000003a0: 85a2 13b9 68f6 1fbe 4809 97bd 08b7 efbe
000003b0: e93b 27be 3564 65bc 880e 2fbd 2701 76bc
000003c0: 789a cbbd a508 e2be e11b 1fbf 0aea 05be
000003d0: de3e 7ebe b64e c7bc 646e 66bc 67bb 033d
000003e0: f862 4bbe b6f0 933e f189 143e ffdf 613e
000003f0: aa22 96bd dc1f 143d bf2f 09bf 2c1b f53d
-1.7773707 -2.5396302 0.8938607 -0.06327629 0.03654055 -1.625384 -0.1559782 0.06541729
-0.691825 -2.6102312 -3.323919 0.18871105 0.26406467 -2.416051 -0.30722922 -1.1942651
0.31292212 0.16127804 -0.032009326 -0.7002592 -0.3574229 -3.2656672 -2.2133489 -1.4497341
-1.1869469 -2.3108172 0.55232084 -1.7133332 -2.5320523 0.10008913 -2.6440878 0.11507308
-1.1027241 -1.7080402 -2.4998531 -2.5290956 -2.934244 -2.015627 0.31440222 -0.03209843
-2.6342573 -1.0870347 -0.28842092 0.96420634 0.21151009 -1.2377344 0.10898511 -0.5491471
-0.040127613 -0.037491962 -1.7015561 -0.088124484 -2.1084445 -1.8425072 -1.042186 0.06693325
-1.9234265 -0.048631173 -1.3420653 -2.2658079 -0.12643783 -0.054250177 -2.170668 -1.9836481
-2.0284262 -1.3537521 -2.089613 -2.1931891 -0.88169837 -1.2887623 -2.6341753 -0.8783155
0.6765358 -0.07071133 -1.7345062 0.20387927 -0.023520265 -0.16949674 -2.0882914 -0.11422714
-1.5804278 -1.4675426 -2.1240802 0.003317163 -1.5235637 -0.3721506 -1.0353615 -2.8602417
-1.4883586 0.07072644 -2.0750542 -3.258101 -0.19160743 -2.351389 -0.2119841 -0.07108828
-1.1829973 -1.982326 0.147553 -1.8371854 -1.5180002 -2.6836784 0.028874699 -0.12937209
-2.5266008 -1.6595027 -1.1228781 -2.5044577 -0.18014866 -0.7777513 -2.9347758 -0.14109555
0.052699756 -0.73036903 0.20574997 -1.8562386 -0.14748184 -1.4475074 -1.5866002 -3.2762446
0.030066079 -3.2584746 0.6888871 -0.012104559 -1.4579475 0.07261871 -1.7036483 0.5286629
-0.2877701 -0.47733304 -0.33065534 0.044257645 0.37996948 -0.49602094 0.3030327 0.09828574
-1.050922 -0.1388752 0.3283188 0.2732584 -0.19152568 -0.48440596 0.20464078 -0.16708183
-0.60558695 -0.17254412 -0.15094282 0.312442 -0.03758435 0.16632152 -0.14595184 0.064671315
-0.6984717 -0.45067856 -0.5003002 -0.52554697 -0.10341662 -0.20387393 0.18022257 0.023108333
-0.18816291 0.020952275 -0.71448815 0.08136719 0.102823846 -0.19075318 -0.24870913 -0.047989223
0.07455593 -0.06568121 0.085054435 -1.0582097 -0.14585781 -0.11598541 0.14105088 0.029576888
0.14103928 0.05090756 0.087817006 0.1330417 0.2526521 -0.002677509 -0.014917723 -0.00024362624
-0.8223701 -0.03963978 0.08975029 -0.3626144 0.064646035 -0.07752167 0.07011469 -0.25913596
-0.34102628 -0.075171724 -0.13402158 -0.26573384 -0.3478778 0.034002993 0.048559725 -0.15708189
-1.5563536 0.121579126 -0.3907096 -0.02482629 -0.4087433 0.21188933 0.1650131 0.22099632
-0.72923493 -0.05981905 -0.6216974 -0.011206922 -0.08802614 -0.107320614 -1.0195361 -0.28264362
-0.5708132 -0.024969524 -0.21836817 -0.20830569 -0.2764748 -0.20792778 -0.112370044 0.14438394
-0.118798465 -0.5705545 -0.05386833 -0.10491627 -0.4286438 0.22307606 -0.052343324 0.19899963
-0.00014079556 -0.1562134 -0.07374817 -0.4681933 -0.16331448 -0.014000942 -0.042738467 -0.015014923
-0.09941572 -0.4414722 -0.62151915 -0.1307756 -0.2482867 -0.024329524 -0.014064405 0.032161143
-0.19861972 0.28894585 0.14505745 0.22058104 -0.073308304 0.036163196 -0.5358848 0.11968073

fc2.bias f4 [128]
00000000: 82ae ef3d 9c17 053e 620c ac3d 98e4 613d
00000010: ab82 8e3d 2486 023e 426c b6be 8295 0bbe
00000020: 152e 5d3d ab99 cc3e a07c 1bbd 3919 2f3f
00000030: fe6d 28be 067f 8bbe ba09 74bd d676 75ba
00000040: ddf3 02be b34c b53e 5108 a9bc b859 ce3d
00000050: 4644 3bbf 1d3f a63d ff04 b33e 2fb3 8fbb
00000060: aa0e 393e 5142 3a3e 56e3 be3e 0d03 32bd
00000070: 051d 783e 59a1 67bd 40c3 0b3d 9de1 d03d
00000080: 8904 463e 6ffc a23e 3956 35bd 5d12 b9bd
00000090: 2631 a43e f46c 363d 3e8f d43d 2a5c ce3d
000000a0: b0f9 9abd 4528 193e cf47 743d 2595 d73e
000000b0: bc20 99be 5c77 c4bd ee0d 8f3d cae1 673e
000000c0: ad3e 52bc b02a 0e3e 2ced 0b3f b044 4ebe
000000d0: 6eb2 24bd 3743 ab3c 8cd9 0fbe be68 993e
000000e0: b744 be3e 1928 bf39 2b2c f9bd 35f5 09bf
000000f0: 30e6 ccbd bd45 0d3c d25f a1be 8566 4c3e
00000100: 3a5f 003d 0847 26be 8728 7a3e be89 5fbc
00000110: f7a8 90be 5dfe aa3a 0cec d8be a213 f1bb
00000120: 500b 423e 0b6a a93d d68b 4e3e 9d14 8c3e
00000130: 39f6 41be f037 3c3e 8e19 38bf 349f 26bd
00000140: 64ca 1e3e e39f 043e 544e 043e 2a24 373e
00000150: f783 5a3e 1945 dfbd ae56 f03e 4129 193e
00000160: 18cd 25bd e032 69be 0fd7 883e 9663 7f3e
00000170: 3f57 653d 5a24 b7bc dfae 213e 40ab 1abe
00000180: 1bde 36bd 3bae 4c3d 9b45 f63c ed92 7bbd
00000190: 7c03 f13e c79b 313e c074 9e3d 7868 18bf
000001a0: a76e 023e bddd a5bd c578 c33e 1ee1 c43d
000001b0: b1c4 3a3e a05e f4be f785 0e3e 8639 b9bc
000001c0: 7346 ec3d 902b 2f3e 722b 9dbe bfea 053e
000001d0: dc1f 8bb9 a5a6 c1bc 66e2 333e 7b1b e93d
000001e0: b712 b7be 3b41 f33c 685a b1bd 5a3c f83e
000001f0: 7062 993e 011c 033e 2ab1 6f3d 5a62 f2bd
0.117032066 0.12997288 0.08400799 0.055149645 0.06958517 0.12746483 -0.3562947 -0.13631251
0.053999025 0.3996099 -0.03796065 0.6839786 -0.16448209 -0.2724535 -0.05957959 -0.0009363716
-0.12788339 0.3541008 -0.020633848 0.10075706 -0.7315105 0.08117507 0.3496475 -0.004385374
0.18072 0.1818936 0.3728282 -0.04345994 0.2422982 -0.056550357 0.03412175 0.10199282
0.19337668 0.31833217 -0.04427168 -0.09036706 0.32068747 0.0445375 0.10378884 0.10076173
-0.07567155 0.14956768 0.059638795 0.42105976 -0.29907787 -0.095930785 0.06985079 0.22644725
-0.012832326 0.13883471 0.5465877 -0.2014339 -0.040209226 0.020906074 -0.14047831 0.29962724
0.371618 0.00036460234 -0.121666275 -0.5388978 -0.10004842 0.008622584 -0.31518418 0.19960983
0.031340815 -0.16238034 0.24429522 -0.01364368 -0.2825391 0.0013045777 -0.4236759 -0.0073570767
0.18949628 0.08272179 0.2017053 0.27359477 -0.18941583 0.18380713 -0.71913993 -0.04067917
0.15506893 0.12951617 0.12920505 0.17884889 0.21339403 -0.10901851 0.4694113 0.14957143
-0.040478796 -0.22773314 0.26726577 0.24940333 0.055991407 -0.022356201 0.15789364 -0.15104389
-0.04464541 0.049970847 0.030062487 -0.061419416 0.4707297 0.1734458 0.07737112 -0.59534407
0.12737523 -0.08098934 0.38178077 0.0961325 0.18239094 -0.47728443 0.13918291 -0.022610437
0.115368746 0.17106462 -0.3069721 0.1307783 -0.00026535883 -0.023639033 0.17566833 0.113821946
-0.35756466 0.02969419 -0.08659822 0.48483545 0.29957914 0.12803651 0.058518566 -0.11835165

fc3.weight f4 [2, 128]
00000000: 81a3 b03e bf29 f43e 5e8b 293d b864 6c3f
00000010: cabf 1fbe ce83 fcbc b4ab 19c0 1106 da3e
00000020: f9c1 79be 9a9f 053e 9063 2b3f e64c 003f
00000030: 94d4 9ebe 4143 c53f f339 853d 9635 213f
00000040: f3e7 10be cee9 033f 1926 1ebe 1819 903e
00000050: cd08 dabf 9aa7 a23d b96b 0fbe 1f7f 3fbd
00000060: 66c0 bc3c 54c1 9ebd 4c14 41bd c85d d83d
00000070: 5980 4cbe ab28 22bd 872b c0bd f690 9e3e
00000080: 7d1c 933f 0eb1 003f 3199 c4be 2911 6c3d
00000090: 5898 363f b8a9 2e3d 30ef ba3d 470a 203f
000000a0: 1bc8 cebc e620 67be 7817 0a3f 5294 6e3e
000000b0: 9248 033e 0e8e a33e 7339 d63e 3be1 6c3e
000000c0: e388 663d c08c 00be a326 d83e 0a84 84bf
000000d0: 9079 8dbd 5fa3 edbe 4647 03bf 92c9 88be
000000e0: ae9f 023e 24ba e93e fdce b23c 90ea 61bf
000000f0: e9c0 babe 722f 1c3f dea9 903f d559 433e
00000100: 3970 8c3d 417b da3e 2e8b 933d 3cb6 a4bd
00000110: 4e3e cfbe 35f7 3c3d cd90 dbbe 4b93 853d
00000120: fb4c a2bd 78ad 8bbd 2fe0 0c3f 48c7 8c3e
00000130: 6a41 563f 04d9 0dbe 665e 1dbf 9c39 b63d
00000140: 1fcb e93d 116e bebd 3001 0f3e e39d 973e
00000150: 28bd 53be f480 693f fc24 203f 3c5e 9d3d
00000160: 4610 183e cd6e 243f 95b7 123e 68ba 5a3e
00000170: d662 293e 5a7c e53d 7273 f23c ed25 eb3e
00000180: 2daf fb3c a351 cbbd 7170 c43c d715 81bc
00000190: 274f e53e 8399 cd3d 3ead 1b3f 0a15 ba3d
000001a0: ae98 bbbb 9627 6cbe aa26 8e3e 4e76 443f
000001b0: 0fd2 a53e be95 753d 13c8 36be 55b0 133f
000001c0: 141b 9b3e 0cce 763e 9156 32bf 08a7 0f3f
000001d0: cafb e13d ad88 a3bd 9889 92bd 7172 823e
000001e0: 6e02 85bd fc8f 9b3e a81f fb3a 8f10 8f3e
000001f0: c050 2a3f 0ff5 e23e 4bcd 5fbf ab74 b8be
00000200: b8aa 9540 e336 8d3e bbd0 083e 5e91 1abe
00000210: b8d6 6540 6516 a340 041f 80be 6a41 f23e
00000220: 33da 8d40 2ff7 353e 7d04 df3f 267c 073f
00000230: 2aac 0f3f 83e0 ce3f d6ba 08bd 7dbf 5cbd
00000240: 34a8 7f3d 743a d83e f45c 9f3e efe5 063f
00000250: ee2a 253f 9456 0cbe d1d0 ab3e 6b4a 82be
00000260: 4c62 a840 b632 af40 d318 a43e 346c 4ebd
00000270: 59a8 7f3e f0cb 88bb 4fd8 0cbe f21b 72bd
00000280: 9e24 7f3f e561 fd3e 8d3f de3e 0cb5 85be
00000290: 92e7 463f c8c5 7c40 faa4 9e40 e0d2 653e
000002a0: 9d96 12bd b49b a940 4c41 9440 7dd9 423e
000002b0: ee26 64bf 3c3d 143f 960c a340 e9fc ca3e
000002c0: 5b38 673e 4cb3 a640 bd63 0e3f ed9e 143f
000002d0: 0f26 143e e325 5bbf 468b f53e 9ad3 683c
000002e0: e5c4 453e 62d3 3e40 8659 77be 86c2 21bf
000002f0: e631 73be 175a 3c40 fec3 1ac0 cc96 8e3d
00000300: b44d bc3e cb18 c2be 0e64 c6be 733d 01c0
00000310: 3a8a 363d e626 a5be c3de 073f fd4b 9cbd
00000320: 7230 b040 506a 3c3f d588 413f 6f1b d23e
00000330: 7672 fdbf c96a ab40 f49b 5bbf a8f1 26bd
00000340: 21e1 9a40 b4d7 a740 d23e a040 1826 373f
00000350: 64f8 ce40 db24 8fbf c45d f33c 7897 a640
00000360: 1be6 a0bd 24a1 273f c146 ad3e 5a63 11bb
00000370: 457a 7540 a879 f0bc f35d 283e 9116 94bf
00000380: 03db bfbc d62e 8f40 8d00 86be 95cb 09bb
00000390: 4ce6 833e 3c0b f43e dda9 443f 1eb4 40bf
000003a0: 8e59 9240 28f1 fd3a 631d c33e fa26 a83c
000003b0: aba9 babc e22c 08bf d395 b240 66be f03e
000003c0: 3ba4 1f3f 03f5 a43e 06d6 14bf a679 e83d
000003d0: 9fcd f7bd 5016 2c3d 002c ab40 3234 c73d
000003e0: 6f44 62be 1f49 6540 ad3c 7bbe d949 333e
000003f0: 6e65 323f 9fac 663e 1416 f4be 614b fa3e
0.34499744 0.476881 0.041392677 0.92341185 -0.15600505 -0.030824568 -2.401105 0.42582753
-0.24390401 0.13049164 0.66948795 0.5011734 -0.3102156 1.5411149 0.065051936 0.6297239
-0.14150982 0.5152863 -0.1544422 0.28144145 -1.7033936 0.07942124 -0.14005937 -0.04675209
0.023040961 -0.07751718 -0.047138497 0.10564762 -0.19970836 -0.039589565 -0.09383302 0.3096997
1.1493069 0.50270164 -0.38398126 0.057633553 0.7132621 0.042642325 0.09127653 0.6251568
-0.025241902 -0.22571144 0.5394206 0.23298767 0.12820652 0.31944317 0.41840705 0.23132794
0.05628289 -0.12553692 0.42216977 -1.0352795 -0.06907952 -0.46413705 -0.5128063 -0.26716286
0.12756225 0.45649827 0.021827215 -0.8824854 -0.36475304 0.61009896 1.1301839 0.19077237
0.06857342 0.4267216 0.07204281 -0.08042571 -0.40477222 0.046134192 -0.42883912 0.065222345
-0.07924839 -0.06820196 0.55029577 0.2749579 0.83693564 -0.13852316 -0.61472166 0.08897707
0.114156954 -0.09298337 0.13965297 0.29612646 -0.20677626 0.9121239 0.62556434 0.076839894
0.14849958 0.6423157 0.14327843 0.21360171 0.16541609 0.11205359 0.029596064 0.45927373
0.030723179 -0.0992768 0.023979397 -0.015757484 0.4478695 0.10039046 0.6081122 0.09086044
-0.005724988 -0.23061976 0.27763873 0.7674302 0.32386824 0.05995726 -0.1784976 0.57690936
0.30294096 0.24102038 -0.6966334 0.56114244 0.11034353 -0.07985053 -0.0715515 0.25477937
-0.06494604 0.3038329 0.0019159215 0.2794232 0.66529465 0.4432759 -0.8742263 -0.3602651
4.6770897 0.27580938 0.13360874 -0.15094516 3.5912304 5.0964837 -0.25023663 0.47315532
4.4328856 0.17770074 1.7423245 0.5292381 0.56122077 1.6162266 -0.033381306 -0.053893555
0.06241627 0.42232096 0.31125605 0.526946 0.6451863 -0.13704902 0.33557752 -0.254474
5.261999 5.4749403 0.3205019 -0.05039616 0.24966563 -0.004174702 -0.1375439 -0.059108682
0.9966525 0.4948875 0.4340786 -0.2611469 0.776971 3.9495716 4.9576387 0.22443724
-0.035788167 5.3002567 4.632971 0.19028278 -0.891219 0.57905936 5.0952864 0.3964608
0.22580092 5.209387 0.5562094 0.58055 0.14467643 -0.85604686 0.4795782 0.014210606
0.1931339 2.9816518 -0.24155244 -0.63187444 -0.23749503 2.9429986 -2.4182124 0.06962356
0.36778033 -0.3790954 -0.3874821 -2.0193756 0.044565417 -0.3225624 0.5307428 -0.07631681
5.5059137 0.7359972 0.75599414 0.41036555 -1.9800556 5.3567853 -0.8578484 -0.040757805
4.8399816 5.245081 5.0076685 0.715425 6.467821 -1.1183122 0.029707797 5.20599
-0.07856389 0.65480256 0.33843043 -0.0022184462 3.8355877 -0.029354885 0.16442089 -1.1569387
-0.023419863 4.4744673 -0.26172295 -0.0021025885 0.2576164 0.4766482 0.7682169 -0.75274837
4.573432 0.0019374238 0.38108358 0.020526398 -0.022785982 -0.53193486 5.580789 0.47020262
0.6235997 0.3221818 -0.58139074 0.113513276 -0.12099766 0.042013466 5.349121 0.09726752
-0.22096418 3.582588 -0.24534865 0.1750864 0.6968602 0.22526787 -0.47673094 0.48885635

fc3.bias f4 [2]
00000000: 6638 7b3e 87ef a23e
0.24533233 0.3182337
