Project/output/old/ddqn/best_model.pth (torch, 287275 bytes, 24 tensors)

fc1.weight f4 [128, 4]
000000 51 68 d6 bc a3 d1 4a 3c 6e 18 ab be 24 2d 4b be
       -0.026172789 0.012379083 -0.33417076 -0.19841439
000010 55 26 39 be 5a ec 47 be 91 42 d2 bd 07 db aa bc
       -0.18081029 -0.19523755 -0.10266603 -0.020856394
000020 2c 63 43 be 3d 1f 9b bd 29 5e 2b 3e f8 8c 0f 3c
       -0.190808 -0.075743176 0.16735138 0.008761637
000030 28 72 54 bd 05 95 bb 3d 70 cd be be f8 3e 3d be
       -0.05186668 0.091592826 -0.3726611 -0.18481052
000040 ce 16 13 3d 40 5a 61 bd 8b 63 8f 3e 2f 89 85 bd
       0.03591042 -0.05501771 0.28005633 -0.06520306
000050 97 64 4a bd 40 dd 93 3d 3a e4 31 3f d4 eb 4e 3d
       -0.049412336 0.072199345 0.6948887 0.050517872
000060 cc 65 8a 3d 55 3d 03 be 59 db a5 be 71 33 31 3e
       0.067576975 -0.12816365 -0.3239391 0.1730478
000070 01 a9 73 be d8 28 15 3e 9b b5 cb 3e 72 cc 66 3e
       -0.23794939 0.14566362 0.3978699 0.22538927
000080 3a 97 fe 3c 7e fd 6f bb ab 0f 2b 3f 80 6a c4 3d
       0.03107797 -0.00366196 0.6682078 0.09590626
000090 48 0c c8 3c 43 22 11 be c8 81 b2 be a5 66 ce bd
       0.024419919 -0.14173226 -0.3486464 -0.10078172
0000a0 fe 6c 08 3e 01 d3 84 be 3e d7 ca bd c6 8c b4 bd
       0.13322827 -0.25942233 -0.099043354 -0.08815913
0000b0 75 9c 91 3d 74 24 4d be 95 0a f8 bd 5f ca 71 bd
       0.0710992 -0.20033437 -0.12111393 -0.059030887
0000c0 70 de c7 3e da d7 eb ba 47 1f a1 bf 68 86 37 be
       0.39036894 -0.0017993406 -1.258767 -0.17922366
0000d0 94 3e 69 be af 83 fe bc 4b 14 50 be 3a d6 23 3d
       -0.22777778 -0.031068651 -0.20320241 0.039999224
0000e0 80 f7 4c 3e 3b 5c f7 3d 25 f0 a4 3e 65 43 80 3d
       0.20016289 0.120781384 0.32214466 0.062628545
0000f0 93 44 57 3e ca b0 1a bd 9a 42 1b 3f ce c4 84 3e
       0.21022253 -0.037766255 0.606485 0.259314
000100 23 14 86 3d b9 45 90 bd bd 71 9d 3e 18 a4 1c bd
       0.065468095 -0.070445485 0.30750838 -0.03824243
000110 38 28 39 3e d3 3c 88 3c e0 7e 8a be 60 a4 1d 3d
       0.18081748 0.016630566 -0.27049923 0.03848684
000120 71 70 f1 bd f5 30 ab 3d 57 f4 78 bf 75 fe 86 bd
       -0.117890246 0.08358947 -0.97247833 -0.065915026
000130 2c 26 9a 3d bb e3 5b be 3a 13 0d be e2 a2 94 3d
       0.07526812 -0.21473591 -0.13776866 0.0725763
000140 a1 3d d7 bd 28 0f 98 3d a5 8b 73 3e 1c 8a 13 3e
       -0.10509802 0.07424766 0.23783739 0.14408153
000150 3b 03 aa 3d 63 d6 fc bb d4 90 3c bf 67 15 91 3d
       0.083013974 -0.0077159866 -0.7365849 0.0708416
000160 b9 45 06 be 32 56 0a bd 49 f7 b3 3e 2e 1e 93 3d
       -0.13112535 -0.03377361 0.351496 0.07183491
000170 0b 26 70 3e b2 19 00 bd c9 9e 61 be 64 67 48 3d
       0.23452012 -0.031274505 -0.22033228 0.048926726
000180 5c 88 c1 3d 90 5c 4b be d4 7f e9 bb 17 9e d0 bd
       0.094498366 -0.19859529 -0.007125834 -0.10186403
000190 63 b0 c1 bd f8 64 8c bd 2d 23 9a 3e e4 cb dd 3c
       -0.09457471 -0.06855196 0.30104962 0.027074762
0001a0 27 29 8b bd 26 64 09 3d 2d 1d 1e 3f 09 90 aa 3d
       -0.067949586 0.033542775 0.6176327 0.08328254
0001b0 9e f6 cf 3e b1 3b 30 bd 75 c8 f1 bd f7 b6 b3 3d
       0.4061784 -0.043025676 -0.11805812 0.08775132
0001c0 ac a4 07 be d3 88 67 3d 3e cf 4f bf 84 31 9e be
       -0.13246411 0.05652697 -0.811756 -0.30897152
0001d0 ba 26 7d bd c4 81 82 3d f8 76 22 3f 99 06 34 bd
       -0.06180451 0.06372407 0.6346278 -0.043951605
0001e0 40 49 d2 bd 1e 1b a2 bd af 1b 71 3e 91 ca 50 be
       -0.102678776 -0.079153284 0.23545717 -0.20389773
0001f0 dc 74 2d bd 87 85 11 bc 68 c2 20 3f ec 67 6a be
       -0.042347774 -0.008881933 0.6279664 -0.22891206
000200 c8 65 9a bc 3f 30 33 3e 93 64 13 3f 6e be db 3d
       -0.018847361 0.17498873 0.5757534 0.10729681
000210 21 a3 5a 3d 29 4f a7 bd 1c c8 71 3e 1b 46 67 3e
       0.053378228 -0.081693955 0.23611492 0.22585337
000220 cf 7b 78 3e 0c 90 dc bc 48 48 bf be 30 7a 65 3b
       0.24265979 -0.026924156 -0.37359834 0.0035015456
000230 ca 01 1f 3e 9f df 64 be c8 1f c1 be 44 78 3a bc
       0.15528026 -0.2235093 -0.3771956 -0.011381213
000240 31 07 0c be e0 67 20 be 91 7e 9d bc d0 32 0d 3e
       -0.13674618 -0.15664625 -0.01922539 0.13788915
000250 59 d5 26 3d 58 2e dc bd 2b 0b 57 be e2 07 66 be
       0.040730808 -0.10751027 -0.21000354 -0.22463945
000260 85 06 e6 bd 51 52 b7 bd dc 0b e5 bc 17 e8 3b 3d
       -0.11231712 -0.089512475 -0.027959757 0.045875635
000270 26 ce f6 3d e0 9c b1 3d 34 30 9c bd 76 9b 62 3b
       0.120510384 0.086725 -0.076263815 0.0034577525
000280 fe d8 57 3d d5 35 9f bd 91 41 69 bf 00 34 9b be
       0.052697174 -0.077739395 -0.9111567 -0.3031311
000290 f6 46 e6 bd d6 d6 31 3d 64 68 9b 3e 75 ea 68 bd
       -0.112440035 0.043417774 0.3035308 -0.05686422
0002a0 74 2e b7 3d d9 94 dc 3d 96 53 1f 3e a9 a5 a2 3d
       0.08944407 0.10770578 0.15559229 0.079417534
0002b0 73 e6 49 be e5 5a be 3c 77 80 13 3e b1 53 07 3e
       -0.19716816 0.023236701 0.14404474 0.1321552
0002c0 0d 99 cb 3d fb fb a8 bd 4b 9a 50 3e 33 1c 5e bd
       0.099413015 -0.082511865 0.20371358 -0.05422611
0002d0 81 b6 a4 3d 7b 88 a3 3d 76 44 f3 be 1b b5 d0 bd
       0.08042622 0.07985016 -0.4751317 -0.10190793
0002e0 61 e5 0c bd cd d8 e7 3d cb 95 a0 3e 20 1a 9a bd
       -0.03439844 0.11320648 0.31364283 -0.07524514
0002f0 4c d0 6e 3e ff 09 eb 3b ae 83 cf 3e ee c4 5b bd
       0.23321646 0.0071728225 0.4053015 -0.053654604
000300 ca c7 40 be 92 4e d7 3d 97 58 c0 3e bb 0f 18 3e
       -0.18826213 0.10513033 0.3756759 0.1484975
000310 0e e9 84 3d ae c0 17 3e 55 a9 b2 3e 1d a5 72 bd
       0.06489764 0.14819595 0.34894815 -0.059239496
000320 db 24 c8 bc 55 da b2 bd 71 84 93 3e 76 b1 19 be
       -0.024431637 -0.0873305 0.28811982 -0.15009102
000330 62 58 40 3c aa b9 65 3d ba 95 3f 3e 36 94 b2 bd
       0.011739822 0.056085266 0.1870946 -0.08719675
000340 45 98 16 be 76 57 99 bd 9f 5c 52 be 17 84 cc bc
       -0.14706524 -0.07487385 -0.20543145 -0.02496533
000350 dd 32 77 bc df 44 f0 bd c9 3b a2 3d 73 cd a6 bd
       -0.01508781 -0.11731886 0.07921559 -0.08144655
000360 52 75 be 3d 94 aa b5 3d 6b 2f ad be 0c d9 a4 3c
       0.09299721 0.08870426 -0.3382524 0.020123027
000370 a9 0a 45 be 75 27 81 3e 4b 47 77 3e b1 30 3d 3d
       -0.19242348 0.25225416 0.2414829 0.046189014
000380 dd 21 7d be ea ea 14 3e 3a f1 05 3f 46 4a 23 3e
       -0.24719949 0.14542738 0.5232121 0.15946302
000390 2f de 61 bd a2 13 f3 3c 18 ab 5c be 2f 29 61 3e
       -0.05514353 0.029672448 -0.21549642 0.21988367
0003a0 d6 52 24 be 58 ea 40 bc b9 1e 8b be e0 ea a6 be
       -0.16047224 -0.011774622 -0.27171877 -0.3260107
0003b0 a6 a4 e9 bd 39 69 5f bd d4 f4 31 3f e2 bf b4 3d
       -0.11408357 -0.054543708 0.69514203 0.08825661
0003c0 2d 80 1b 3e 9b 8b f4 bd 64 4e 13 bf 31 0b 48 3d
       0.15185614 -0.1194069 -0.5754149 0.048838798
0003d0 b1 4e 1c be b4 ce 96 3e 8c 91 e9 3e 0d 2e c9 3d
       -0.15264393 0.29454577 0.45618856 0.098232366
0003e0 a1 8d a7 3c 0b e9 df bd de 2a b6 3d b6 38 07 3e
       0.020453276 -0.10933121 0.08894895 0.13205227
0003f0 0c da fa 3d b1 5a bb bd fb 7a 86 bf af 6b 8e be
       0.122486204 -0.091481574 -1.0506281 -0.2781653

fc1.bias f4 [128]
000000 b5 9f 53 be 6f 7d d6 3d 08 6e 23 3e e5 54 4a be
       -0.20666392 0.10473143 0.15959942 -0.19758947
000010 ae f7 14 3e 0b 99 e6 3b 56 df 9c bc b2 c3 c3 bd
       0.14547607 0.007037287 -0.019149464 -0.0955881
000020 9c bd dc bd 50 70 86 be 7c 72 6e 3d 7b 28 cc 3d
       -0.107783526 -0.26257563 0.05821465 0.099686585
000030 13 2f 37 be 50 c6 3a be 22 c5 15 3e ac 22 9b bd
       -0.17889051 -0.18239713 0.14625981 -0.075749725
000040 b4 78 27 3e df a1 b2 3d 8c 1a 3e be f3 09 4a 3d
       0.16354638 0.08722281 -0.18564814 0.049325895
000050 79 b2 69 3e 0e 65 04 3e 37 de e6 bd 5f 66 0d 3d
       0.22821988 0.12929174 -0.11272853 0.034521457
000060 c6 f6 1f 3e 21 73 b3 bd ad 2e 5f 3e 6c ee 8c 3d
       0.1562148 -0.087621935 0.21795149 0.06881413
000070 b7 57 49 be c5 90 26 3e 4f 14 eb bd e8 51 96 3d
       -0.19662367 0.16266163 -0.11478483 0.07339841
000080 1a e1 03 3e 3c b0 62 bd a5 ee 20 3e dd 08 0d 3e
       0.12878838 -0.05534385 0.15716036 0.13772912
000090 c7 6f b4 bd 60 38 8f 3d 14 a9 10 3e 53 31 cf 3d
       -0.08810382 0.069931746 0.14126998 0.1011683
0000a0 01 63 8e be 43 27 0b 3e bd 1b d8 3d da 85 d0 3d
       -0.2780991 0.13589196 0.10552166 0.1018178
0000b0 7b 5c 0f 3e dd b5 5d be 12 79 0b 3e c9 c4 cc 3d
       0.14000122 -0.21651407 0.13620403 0.09998471
0000c0 10 f2 3d bd 5b e1 50 3d 1d 56 fe 3d 50 6b f4 3d
       -0.046373427 0.050996166 0.124187686 0.11934531
0000d0 7b de d1 bd 1f 1c 00 3e 2d 7f 75 be 96 44 0b 3e
       -0.10247513 0.12510727 -0.23974295 0.13600382
0000e0 41 7d d5 bd 99 57 ec 3d af 12 48 be 9d 93 2d be
       -0.10424281 0.115401454 -0.19538377 -0.16950841
0000f0 0e 7f 5c 3d 9a c9 a9 3c cf 78 19 3d f6 68 0e be
       0.053832106 0.020726014 0.037468728 -0.13907227
000100 df 7b 07 3e 6a 53 43 3e c7 bd 87 bd 94 da b3 bd
       0.13230847 0.19074789 -0.06627994 -0.08781925
000110 63 50 ed bd c7 83 18 be 14 17 99 3d f9 e9 16 be
       -0.11587598 -0.14894019 0.07475105 -0.14737691
000120 29 14 23 3e 22 23 ed 3d a8 41 3d bc ef ad 0d 3e
       0.15925659 0.11578967 -0.011551298 0.13835882
000130 b6 ff 89 3d 34 9e b4 3d ed e6 41 be b5 37 c0 3d
       0.06738226 0.08819237 -0.18935747 0.09385625
000140 4e 10 14 be dd 8a d0 3d 4f 7b 73 3c 86 4a 27 3e
       -0.14459345 0.10182736 0.014860942 0.16337022
000150 bd 76 f4 3d cb 67 8a be 04 5b 66 be 64 5f 1e be
       0.1193671 -0.27032313 -0.22495657 -0.15466076
000160 e1 6d de bd 70 fe b0 3d 2d 6a 14 be 24 d4 53 3c
       -0.108608015 0.0864228 -0.14493628 0.012928996
000170 64 2a 05 3e 15 eb 12 bd b8 59 b5 3d 0d 3d 22 3e
       0.13004452 -0.035868723 0.08855003 0.15843602
000180 b3 dd bd 3d 43 44 33 be e9 a8 0f 3e 60 55 cd bd
       0.092708014 -0.17506509 0.14029278 -0.100260496
000190 57 e6 3f 3e 5a 8c 18 be 99 a3 f0 3d be 18 e8 3d
       0.18740211 -0.1489729 0.11749954 0.11332844
0001a0 f8 ed 64 be fb c4 05 3d 8e 9e 02 be a6 cb b5 bd
       -0.22356403 0.03265856 -0.12755796 -0.088767335
0001b0 73 da 8d 3d 2c 3b a3 bd 09 a0 46 3d aa 45 82 3d
       0.069264315 -0.079702705 0.048492465 0.063609436
0001c0 06 13 02 3e ef 96 02 be 33 c3 4f bd c1 62 e8 bd
       0.1270257 -0.12752889 -0.050723266 -0.11346961
0001d0 8d 9e 06 3e c4 7b 19 3e b6 4d 4b be a1 aa 0d 3e
       0.1314642 0.14988619 -0.19853863 0.13834621
0001e0 84 00 e3 3d a3 f9 a1 bc 38 05 fb bc e2 cf 06 3e
       0.11084083 -0.019772356 -0.030642137 0.13165238
0001f0 e6 0c 51 be 1b 3d 5e 3e de fc d1 3d a3 33 07 3e
       -0.20415077 0.21702997 0.10253309 0.13203292

fc2.weight f4 [128, 128]
000000 f9 f1 80 be 53 7f e6 bc 65 4c 13 3e 14 d0 db bd
       -0.2518461 -0.028136885 0.14384611 -0.10733047
000010 c1 e3 18 3e 62 df de bd 88 0e 55 be 6f 15 b9 bd
       0.14930631 -0.10882451 -0.20806324 -0.09037291
000020 82 59 c3 be 40 22 85 bf d0 a5 cb 3d 7d ee 74 3e
       -0.38154227 -1.0401077 0.099437356 0.23919101
000030 14 47 82 3e 2c 9c 26 3d 3d af 8d 3d c1 e1 2d 3c
       0.25444853 0.04067628 0.0691819 0.010612906
000040 7f 20 4b 3e 72 86 77 3e ed bf 06 bf c9 ab 29 3e
       0.19836615 0.2417238 -0.52636606 0.16569437
000050 c3 79 d1 3e 42 10 05 3e 90 9c a7 bc 8f 99 1b 3e
       0.4091321 0.12994483 -0.020460397 0.15195297
000060 39 0a b9 3e 8b cc d8 bd 19 ed a0 3e 0c ff b4 3d
       0.36140612 -0.105858885 0.3143089 0.08837709
000070 0c b9 90 be 21 f1 83 3e 2c c6 27 3c 2f e9 58 3e
       -0.2826618 0.25769904 0.010240119 0.21182702
000080 e3 36 34 3e 64 24 82 bd 50 ad fc bc e5 5d 77 3d
       0.17599063 -0.06354597 -0.03084436 0.06039228
000090 1d e6 26 3d f8 cd de 3d cf f6 28 3e c0 6b 7c 3d
       0.040746797 0.10879129 0.165004 0.061626196
0000a0 cb 7b 74 bd 81 26 93 bd 5d c4 31 bd 6c 5e 58 3e
       -0.05968837 -0.071850784 -0.043400157 0.21129769
0000b0 16 6c 96 3e ad b3 b8 be 9c 50 63 3e b9 0a b7 3c
       0.29379338 -0.36074582 0.22198719 0.02234398
0000c0 ca 50 98 bd 05 a7 24 3e 16 3b bc bd 7a b6 4a ba
       -0.07437284 0.16079338 -0.09190957 -0.00077328796
0000d0 f5 97 17 be bc f1 1b 3e d4 e2 e2 be 37 d2 0d 3e
       -0.14804061 0.15228933 -0.4431368 0.13849722
0000e0 77 14 3c bf e3 60 8f bd 6f 78 b9 3d 89 c3 4a be
       -0.73468727 -0.070009016 0.09056174 -0.19801153
0000f0 a1 08 af bd be d2 26 3e dd 71 a7 3d 12 f2 00 bd
       -0.08546568 0.1629133 0.081760146 -0.031480856
000100 c4 0e 35 3d 6f df a3 be f5 a6 f7 bb 3e 95 ef bd
       0.044203535 -0.32006404 -0.0075577446 -0.116983876
000110 f3 d4 28 bf a0 8d 80 bd 6f 0a 65 be 50 00 ab bd
       -0.65949935 -0.06277013 -0.22367261 -0.08349669
000120 92 5b 21 bd 7c bc 2b be bf a3 4c bd a1 40 9b 3e
       -0.03939397 -0.1677112 -0.049960848 0.30322745
000130 86 ea 0a be 40 7f a6 3d af c0 92 be 3a 58 2a 3e
       -0.13566026 0.0812974 -0.2866263 0.16635218
000140 f2 06 b5 bf 9b 84 f9 3d d9 45 35 3d d5 2e 32 3e
       -1.4142745 0.121834956 0.044256065 0.17400678
000150 9e d2 8a 3e 5e b4 af bd 1b 6a 82 be f7 bc 65 bd
       0.27113813 -0.08579324 -0.25471577 -0.056088414
000160 98 08 80 be 67 68 9b 3e 1a ad 90 bd dc c5 0b be
       -0.25006557 0.3035309 -0.070642665 -0.13649696
000170 04 00 c3 bd 6b 63 43 bd e0 0c 4e 3c b3 19 93 3d
       -0.09521487 -0.047702234 0.012576312 0.07182636
000180 e7 1f 97 bd 06 ae 92 bf 68 0d 21 3e 1f b8 3c be
       -0.07379132 -1.1459358 0.1572777 -0.18429612
000190 46 7b 43 3e 0f 90 ee 3d 88 1d 4e 3e 89 f8 7e bd
       0.19089994 0.11648571 0.20128453 -0.06224874
0001a0 c1 98 47 bd ea 62 86 3d d1 40 c9 3d 97 fc f3 bd
       -0.04872966 0.06561835 0.09826816 -0.11913412
0001b0 12 67 6c be 50 b8 c3 be 36 92 87 bc a2 ba b5 bd
       -0.23086193 -0.38226557 -0.016549211 -0.08873488
0001c0 38 25 2e 3e 32 7d bc bd 46 ed bf 3c db a4 4a be
       0.17006385 -0.092035666 0.02342857 -0.1978945
0001d0 fc c4 20 bd 5e 7a 9d 3e 83 0c 69 be 61 03 2f 3d
       -0.03925036 0.3075742 -0.22758679 0.04272783
0001e0 21 48 68 3d 2b 68 65 3d c3 bc 3a 3d 63 4d 03 3e
       0.056709412 0.056007545 0.045590173 0.1282249
0001f0 43 ab 8a be 78 03 a3 3e 69 dc 5b be 2a fe 98 3e
       -0.27083787 0.31838584 -0.21470799 0.29881412
000200 63 70 c7 be cb 89 f6 3a 3b 3d fd bd d2 55 68 bd
       -0.38952932 0.0018809376 -0.123651944 -0.05672247
000210 93 6a c7 3e fa a6 6c be 73 a5 6c 3e 7c c7 8f be
       0.38948497 -0.23110572 0.23109989 -0.28081882
000220 96 df 1e bf ea 09 65 bf 9f 87 c8 3d 4a 6c 78 3e
       -0.62059915 -0.8946825 0.09791493 0.24260059
000230 36 3b f4 bd d7 ae a7 bd 20 fe a3 3e d6 be 17 be
       -0.11925356 -0.08187645 0.3202982 -0.14818892
000240 72 e0 bf bb 5a e6 22 be 7a 3f c1 be ef 2e 8e bc
       -0.0058556134 -0.15908185 -0.3774374 -0.017356364
000250 a2 a0 1e 3e 6d 14 ab 3d 9e 0c 20 be 27 c0 8c 3d
       0.15490964 0.08353505 -0.15629813 0.06872588
000260 62 26 1d 3d 81 bf cc bd cb aa 18 3e 83 5c 4f be
       0.038366683 -0.09997464 0.14908902 -0.20250134
000270 a7 ef 91 be f8 ee 83 3d 77 e4 26 3d 1c 24 1f 3e
       -0.28503153 0.06442064 0.040745225 0.15541118
000280 c0 a1 19 ba 80 55 6f 3c 3b 7a 66 3e 84 33 88 3e
       -0.00058605894 0.014607787 0.22507565 0.26601803
000290 46 59 01 3e cf f6 3a 3d 8c ca 70 bc ae 99 f5 3d
       0.12631711 0.04564553 -0.014696728 0.11992203
0002a0 0e 5a 9f bd d1 4c bd 3d d9 cf 20 3e 8c 50 94 bd
       -0.077808484 0.09243167 0.15704288 -0.072419256
0002b0 06 be b8 bc cd 5c 86 be f8 c3 9f 3e 83 e4 45 3e
       -0.022551548 -0.26242676 0.312042 0.19325452
0002c0 27 a7 96 bd e2 16 55 3e 90 95 ae 3c 0c 7b 68 3e
       -0.073561005 0.2080951 0.021311551 0.22703189
0002d0 03 c0 05 3e f8 a6 3f 3e a9 82 46 be ff 86 3c 3d
       0.13061528 0.18716037 -0.1938578 0.04602718
0002e0 37 4c 26 bf 88 d2 6e bd 2c 4a 7f 3d c0 08 cd bd
       -0.64960045 -0.058306247 0.062326595 -0.100114346
0002f0 30 d9 f0 3d 42 8d af 3d ea ae 49 bd d8 2f 1d 3d
       0.11760175 0.08571865 -0.049239077 0.038375705
000300 55 79 2f 3e 86 86 35 3e 9a e4 8d be f9 dd 7e bd
       0.17136128 0.17727098 -0.27713472 -0.06222341
000310 c4 75 49 bf 8a de 5f be c9 79 4f 3e 41 85 08 bd
       -0.7869532 -0.21862236 0.20261301 -0.033330206
000320 d9 ab 8d bd 88 11 cc 3d 06 a8 3a 3d d4 33 2e 3d
       -0.06917543 0.09964281 0.045570396 0.042529896
000330 c3 81 39 bd 39 57 b0 3e d6 fe c9 bd e2 4d af 3e
       -0.045289766 0.34441546 -0.09863059 0.34239107
000340 81 57 85 bf 80 ef 0f 3e 41 21 dd 3c 36 d7 d6 3d
       -1.0417329 0.14056206 0.026993396 0.10490267
000350 a7 82 93 3c 53 65 cd be 84 32 28 be be c8 9c 3d
       0.018006636 -0.40116367 -0.1642552 0.07655476
000360 b5 fd 43 bf 0f d9 c3 3d 79 60 85 be 59 c7 10 be
       -0.76559 0.09562885 -0.26050165 -0.14138545
000370 99 a0 2e be bb 87 e4 bd c9 36 52 bd 00 04 85 3e
       -0.1705345 -0.11158701 -0.05132178 0.25979614
000380 2e bd bb 3d 60 f2 2c bf 21 0c 4b 3e f8 d2 b3 3e
       0.091669425 -0.67557335 0.19828846 0.35121894
000390 5b b2 8a 3e 06 b6 03 3e d4 fc b3 3d 2b f5 a6 3e
       0.270892 0.12862405 0.087884575 0.32608923
0003a0 d4 1a d9 bd a3 19 ed bd 41 54 ec 3c 41 36 8f be
       -0.1060082 -0.115771554 0.02884877 -0.2797108
0003b0 b4 15 f9 bd 26 ee cd be 52 e2 be bd 14 59 9b 3c
       -0.12162343 -0.40220755 -0.09320511 0.018963374
0003c0 13 9b c2 bc 7f fe dc be ec f3 af be b6 26 81 bd
       -0.023755586 -0.43162915 -0.34365785 -0.06306212
0003d0 a6 4e 88 bd b5 c4 2c 3e af 2c 4a be a5 f7 b7 3d
       -0.06655626 0.16871913 -0.19743608 0.08982781
0003e0 03 57 e8 bd d7 86 90 3d da 3a ca 3d 37 c7 92 3e
       -0.11344721 0.07056969 0.09874506 0.28667614
0003f0 77 73 f9 be e4 c4 4d 3e 31 03 eb bd 56 ed 97 3e
       -0.48720905 0.20094639 -0.11475218 0.2967326

fc2.bias f4 [128]
000000 1c be 27 3e 78 8b 1b 3e 56 43 82 bb 86 1d f0 bd
       0.16381115 0.15189922 -0.003975312 -0.11724381
000010 24 df ee 3d b7 9d 9c 3d a0 61 a3 bd 66 16 1c 3e
       0.116636544 0.07647269 -0.07977605 0.1524292
000020 05 6b 1a bd 95 88 d8 3d e9 b9 e8 3d 3e 57 09 3e
       -0.037699718 0.10572926 0.113635845 0.13412187
000030 39 76 f2 3d ab 70 16 3e 0d 24 19 3e a5 47 00 3e
       0.118389554 0.14691417 0.14955159 0.1252733
000040 60 99 12 bc ab cd 0a 3e d2 49 b9 3d 74 94 ea 3d
       -0.0089477 0.13555019 0.09047283 0.114540964
000050 42 79 e3 bd ea 11 3b bd 7b ed a9 3d 2f 46 c8 bd
       -0.111071125 -0.04567138 0.08297249 -0.097790115
000060 fb 2a d0 3d a7 0c 1a 3e 3e 74 a4 3d ef d1 dd 3d
       0.10164448 0.15043889 0.08029984 0.10831057
000070 18 ad ca 3d b4 3f 5e 3d 68 38 d7 3c 92 b3 6e 3d
       0.09896296 0.05425997 0.026272014 0.05827672
000080 6d 0a 09 3e 3b f6 1c 3e 3a 79 1f 3d 06 35 3c bd
       0.13382883 0.15328304 0.03893397 -0.045949005
000090 1e 51 01 3d f9 4a 94 3d aa 89 8a 3d fc 35 a3 3d
       0.0315715 0.072408624 0.067645386 0.07969281
0000a0 45 8e b2 bb 5d c9 e6 3d 1c 3d 0c 3e 8f 39 bc 3d
       -0.0054490888 0.11268876 0.13695186 0.09190666
0000b0 ae 25 75 bd 12 13 22 3e 2e fd 05 3e de cf a5 3d
       -0.059850387 0.15827587 0.13084862 0.08096288
0000c0 d6 e1 f7 3d 3d d4 15 3e 24 98 cc 3d 7a ba ce 3c
       0.12103622 0.14631744 0.09989956 0.025235403
0000d0 fc cb e0 3d b0 e8 4b bd 9e e3 89 3d d6 df 2c bc
       0.10976407 -0.049782455 0.06732868 -0.0105514135
0000e0 98 87 03 3e c8 4b 13 3e c8 ab 09 bb fc 8d 39 3d
       0.12844694 0.14384377 -0.002100693 0.045301422
0000f0 49 bb 12 bd 8e 43 b7 3d ea 54 50 3e 7f 97 e6 3d
       -0.03582314 0.08948432 0.20344892 0.11259364
000100 86 d2 80 bd 9a 63 14 bc 94 d5 69 bc 8b 06 19 bd
       -0.06290154 -0.00905695 -0.014272112 -0.037359755
000110 7e eb a2 bd ef 67 73 ba 7d 98 5b 3d 2d 83 8e bb
       -0.07955073 -0.00092852017 0.05361222 -0.0043491335
000120 d3 aa 18 3e 92 7a d1 3d 66 d7 ec 3d be 0b 1f 3e
       0.14908914 0.102284566 0.115645215 0.15531823
000130 43 8b b1 bd 8b cd b8 bc cb be aa bd 00 00 00 00
       -0.0866914 -0.022558948 -0.08337172 0.0
000140 58 d6 05 3e 1c 88 15 3e e5 6a 02 3e d8 61 66 3d
       0.13070047 0.14602703 0.1273609 0.056245655
000150 cd 41 04 bc e9 c0 75 3d 4d a1 15 3e 44 6a b1 3d
       -0.008072329 0.059998427 0.14612313 0.08662847
000160 dd d7 dc 3d de a4 2c 3e 5d 99 f7 3d 6f cc fb 3d
       0.1078336 0.16859767 0.120897986 0.12294852
000170 14 53 fa 3d ec 68 19 3e 9f 13 95 3d 6a 48 ad bc
       0.12222877 0.14981431 0.07279133 -0.021152694
000180 e5 81 13 3e 66 05 88 3d 65 1b 97 3d 10 21 48 bd
       0.1440502 0.06641655 0.07378272 -0.048859656
000190 8a 71 d3 3d cb c1 f6 3d 82 ff 21 3e 61 3d bd bd
       0.1032439 0.12048682 0.15820125 -0.09240223
0001a0 f0 b4 b5 3d cd 78 93 bd 5f c7 1d 3e a8 61 3a bc
       0.08872402 -0.07200775 0.15408085 -0.011375822
0001b0 54 fa 95 bd a8 ae ba bd 82 ca 94 3d 59 81 b9 bd
       -0.07323137 -0.09115344 0.07265188 -0.09057874
0001c0 fe d9 cc 3d 6c 49 da 3d 94 00 50 3d 45 73 dd 3d
       0.10002516 0.10658535 0.0507818 0.108130015
0001d0 83 cb 1a bd 00 00 00 00 0a a1 17 3e f8 c5 8d 3d
       -0.03779174 0.0 0.14807525 0.06922525
0001e0 98 61 48 bd 3a 31 36 3e 00 37 bb 3d ff 86 d0 3d
       -0.048921198 0.17792216 0.0914135 0.101819985
0001f0 b1 67 0a 3e d4 2a ce 3d 84 4c 84 bd c7 bd d1 bd
       0.13516118 0.100667626 -0.06459907 -0.10241275

fc3.weight f4 [2, 128]
000000 25 85 a7 3e 41 2b f2 3e a0 ef 9c be 4a 5e e2 bd
       0.3271877 0.47298625 -0.3065157 -0.110531405
000010 f1 4f 28 bd b6 6e 6e 3d f0 ce 1d bf 71 70 06 3f
       -0.041091863 0.05821105 -0.61643887 0.5251532
000020 da 1c f4 bd f6 75 89 3e 87 a3 a1 3e 15 7c e0 3e
       -0.119195655 0.2684781 0.31570074 0.43844667
000030 eb 7d 9c 3e 76 c6 10 3f 7c 78 a2 3e fa a3 b5 3e
       0.30564818 0.5655283 0.31732547 0.35476667
000040 47 76 1e be 1b c1 aa 3e b5 30 69 bf f8 7a 5f 3e
       -0.15474807 0.33350453 -0.91089946 0.21824253
000050 8e f0 30 bf 1f fb 10 3d b0 2e 09 3e bd a0 bd be
       -0.6911706 0.035395738 0.13396716 -0.37036696
000060 fc 66 e0 3d d7 93 22 3e 6c 32 e8 3d 19 20 93 3e
       0.10957143 0.15876709 0.11337742 0.28735426
000070 77 fc 9e 3e 6a dd dc be 2e a7 04 bf 36 68 7c 3e
       0.3105199 -0.43137676 -0.51817596 0.24649128
000080 f0 e6 07 3e ff a6 10 3f 31 2e 95 be e5 d6 03 3e
       0.1327169 0.56504816 -0.29136804 0.12874945
000090 cd 38 71 be c1 7c a3 3d 86 3d 2e 3e 82 87 af 3d
       -0.23556824 0.07982779 0.17015657 0.08570768
0000a0 af a9 7b bd ad a9 ca 3c 70 ff c3 3e 89 ef 7e 3e
       -0.06144112 0.02473911 0.3828082 0.24896063
0000b0 b8 3c 3a be 33 2c fa bb b6 0b 9c 3e ec fb 05 3e
       -0.18187225 -0.0076346635 0.30477685 0.13084382
0000c0 0d 34 93 3e 55 6c 0c 3e 6f 13 94 3e 07 ef c6 be
       0.2875065 0.137132 0.28921077 -0.38854238
0000d0 5a b0 87 3e 52 1d 08 bf 11 e9 64 3d 96 96 fc bd
       0.26501733 -0.5316974 0.055886332 -0.123334095
0000e0 d4 9e b5 3e 4f bf f2 3e 5a a8 d9 be ee df 3c bf
       0.3547274 0.47411582 -0.42511255 -0.7377919
0000f0 4a bd ee be c6 7b ee 3d be f2 08 3f 8d 49 a6 3e
       -0.4662879 0.11644702 0.53495395 0.3247799
000100 e7 80 20 bf 65 a1 82 3e df 70 84 bc 74 eb 0f bf
       -0.6269669 0.2551376 -0.016167102 -0.5621865
000110 44 f2 56 bf ca 7a 33 bf 6d 93 0c bf 4b 93 85 3d
       -0.8396342 -0.70109236 -0.54912454 0.065222345
000120 f3 a4 b8 3e b7 96 65 3c a6 b3 c9 3e ae 4f 04 be
       0.36063346 0.014012984 0.39394873 -0.1292102
000130 1d 60 df bd b2 4c 5c bd 91 84 73 bf ab fe c3 3d
       -0.10907004 -0.05378408 -0.95124155 0.095700584
000140 0c 99 c7 3e c2 2e 6b 3e 2f 8b c6 3e 6b 7a 84 ba
       0.38983953 0.22967055 0.38778064 -0.0010107284
000150 1b d3 4b be 70 40 36 3d 55 06 78 3e c6 7f 4b 3e
       -0.19904749 0.044495046 0.24221165 0.1987296
000160 e2 c4 9e 3e 98 1a 01 3f 23 8b 86 3e b1 b4 9d 3e
       0.31009585 0.50431204 0.26278028 0.3080192
000170 1a f1 d5 3e 6e d2 ab 3e c0 8c ec 3d 95 90 69 bf
       0.41785508 0.33558983 0.115502834 -0.9123624
000180 50 4b 8a 3e 31 72 86 3c f6 ca 47 3e cf b2 8a bf
       0.27010584 0.016411873 0.19511017 -1.0835818
000190 cc bc 87 3e 09 b4 b2 3e 10 93 04 3f 9a 41 a1 be
       0.26511228 0.3490298 0.517869 -0.31495363
0001a0 17 1c 74 3d 73 e7 80 bf b4 ce 0b 3f 5c 1d 6f bf
       0.0595971 -1.0070633 0.5461228 -0.93404174
0001b0 a4 9f 60 be 6a 5f e1 3c d1 a1 3c 3d 0d 61 fc be
       -0.21935898 0.027511317 0.046052758 -0.49292794
0001c0 1d 1f 5c 3e 34 9f 8d 3e f6 e5 b0 3e fe 09 7d 3e
       0.21496244 0.27660525 0.34550446 0.24710843
0001d0 8f 8d d3 3d 82 86 97 bd 4d 48 e9 3e 10 db 95 3d
       0.103297345 -0.07398702 0.45562974 0.073171735
0001e0 00 18 a3 bd 7f 52 f0 3e a8 8d ac 3d ec 49 7e 3e
       -0.07963562 0.4693794 0.08425456 0.24832886
0001f0 bb c1 c3 3e f0 06 49 3e 41 a0 57 be 15 b4 b1 be
       0.38233742 0.19631553 -0.21057226 -0.34707704
000200 9a 0f 70 3e 9e d7 18 3e 66 4d ae 3e 16 68 46 bf
       0.23443452 0.14926001 0.34043425 -0.7750257
000210 2d 39 b8 3e 14 e4 6a 3e 8d d3 0d bf 58 1b 42 3e
       0.35981122 0.22938567 -0.55400926 0.18955743
000220 7b f2 dc 3d 41 6a 77 3d 32 73 8b 3e e5 eb 4b 3e
       0.10788437 0.060404066 0.27236325 0.19914205
000230 ab 8a ae 3e 0a 38 cd 3e d4 e6 87 3d 4c c2 b0 3e
       0.3409017 0.40081817 0.06635824 0.34523237
000240 13 09 cb bd 8c 49 48 3e dd 23 ac bd 1e 09 17 3e
       -0.0991384 0.19559306 -0.08405278 0.14749572
000250 7f e5 29 3d 1e 02 2d be 4e e5 58 3e 3a da 3f bf
       0.04147863 -0.16895339 0.21181223 -0.7494236
000260 f7 1d fb 3d 07 1a a0 3e 6b fa 5c 3e 82 87 5d 3e
       0.12261575 0.31269857 0.21579902 0.21633723
000270 a2 c7 56 3e 3e b4 61 bd 7e 89 e5 3d 2e 90 21 be
       0.20974591 -0.055103533 0.11207865 -0.15777656
000280 91 89 ab 3e 1c e2 9f 3e c6 55 c3 3d 99 66 09 bf
       0.33503392 0.31227195 0.09537844 -0.53672177
000290 69 63 a8 be 4e bb d2 3d 24 c8 7a 3e 3e 4f 0a 3e
       -0.32888344 0.10289632 0.2449041 0.13506791
0002a0 a7 06 e3 bd ca 43 fb 3e 72 89 a1 3e 90 0a 71 3e
       -0.11085253 0.49075156 0.31550175 0.23539186
0002b0 61 05 fc be 89 fc ff 3e d9 1c 0f 3e 1d 9c 84 3e
       -0.49222854 0.49997357 0.13975848 0.25900355
0002c0 6f b8 e9 3e cc ad 0b 3f e9 89 38 bd 24 4f 21 bc
       0.45648524 0.5456207 -0.045053396 -0.009845529
0002d0 6f 93 b8 3e bb bf 05 bf bf 44 a0 3e 31 76 bc bb
       0.36049983 -0.5224568 0.3130245 -0.005751394
0002e0 44 2a 20 3e ba c0 fe 3e 2f b3 ce be 52 96 1f be
       0.15641123 0.49756414 -0.4037108 -0.15584686
0002f0 17 59 21 bf 86 89 0d 3e 62 e3 43 3e 86 51 15 bd
       -0.63026565 0.13821992 0.19129708 -0.0364547
000300 ef 8b 5c 3f 43 38 c7 be 82 d1 78 be 03 37 43 bf
       0.8615102 -0.38910112 -0.24298671 -0.76255816
000310 e9 20 ff be a5 68 7b bf c1 ec 4d 3e 30 01 92 bd
       -0.49829796 -0.9820655 0.20109846 -0.07129133
000320 09 4e c9 3e fd a0 ec 3e 81 7c c3 bb 0b d0 ea 3e
       0.3931735 0.46216574 -0.0059657698 0.4586185
000330 9c 30 e6 be d5 1e 79 3d a5 15 66 bf 40 5f 3a bb
       -0.4495896 0.06082042 -0.89876777 -0.002843812
000340 3e 4f 9f 3e 34 65 f0 3e 07 03 a7 3e 6b 68 13 3e
       0.31115144 0.46952212 0.32619497 0.14395301
000350 45 59 76 be 83 9a 57 be 10 13 5d 3d 02 43 2b 3e
       -0.24057491 -0.21055035 0.053973258 0.1672478
000360 93 ec 1d 3d d1 cd ab 3e 95 22 6d 3e cb 1b 80 3e
       0.038555693 0.33555463 0.23157723 0.25021204
000370 59 04 d0 3e bc c5 82 3d 81 5d c2 3e 45 4b 4a bf
       0.40628317 0.06385371 0.37961963 -0.790211
000380 d0 41 f1 3d a1 c2 bf 3e 9b ef c5 bd 4f db 69 be
       0.11780131 0.37453178 -0.09664842 -0.22837566
000390 87 24 00 3e 4f 3c 10 3d 02 28 a0 3e 2e 1c cf be
       0.12513934 0.035213765 0.31280524 -0.40451187
0003a0 ca 19 5f 3e 94 b7 62 be 88 e3 1b 3e 27 a0 d6 be
       0.21787181 -0.22140342 0.15223515 -0.41919062
0003b0 4e a2 98 bd aa ec b3 be fe c2 43 3e 74 01 92 be
       -0.07452832 -0.35141498 0.19117352 -0.28516734
0003c0 00 3c 37 3e e3 42 08 bd d0 a2 6a bf bc 67 02 3e
       0.17893982 -0.033266913 -0.9165468 0.12734884
0003d0 bf ef 3f bf 17 1f 91 3d 52 e1 b8 3e 3d ae 87 3e
       -0.749752 0.07086008 0.36109406 0.2650012
0003e0 0c 3c ee be 8b 88 b0 3e 30 ac 84 3e 45 f5 aa 3d
       -0.46530187 0.34479174 0.2591262 0.08347563
0003f0 38 57 8c 3e 05 4b 16 3e 1f df 2b 3f 8d 0b 35 bd
       0.27410293 0.14677055 0.6713733 -0.04420047

fc3.bias f4 [2]
000000 f2 24 da 3d d5 b7 82 3d
       0.10651578 0.063827194

fc1.weight f4 [128, 4]
000000 85 a1 cd bc dd 1d 58 3c 28 5b 9a be b2 ca 47 be
       -0.025101433 0.013190714 -0.30147672 -0.19510916
000010 10 5b 38 be a2 98 45 be e5 ff c1 bd fb 42 b2 bc
       -0.18003488 -0.19296506 -0.09472636 -0.021760454
000020 98 1f 47 be d9 84 a3 bd e1 e3 21 3e 9d cc a7 3b
       -0.19445646 -0.07984323 0.15809585 0.0051208274
000030 47 38 44 bd 39 f0 af 3d aa d3 b0 be 90 f6 35 be
       -0.047905233 0.08590741 -0.34536487 -0.17769837
000040 ba 75 17 3d 76 54 5d bd 9d f5 8f 3e 22 85 83 bd
       0.036977507 -0.054035626 0.28117076 -0.064218774
000050 38 14 58 bd 89 dd 94 3d e8 c5 2f 3f 97 56 3e 3d
       -0.052753657 0.07268817 0.68661356 0.046469297
000060 df e7 85 3d 9c f0 03 be c5 5d a2 be 86 ee 2f 3e
       0.065383665 -0.12884754 -0.31712165 0.17180833
000070 56 32 70 be 80 1b 14 3e 59 70 c4 3e 85 ea 64 3e
       -0.23456702 0.14463615 0.38366964 0.22355087
000080 6d 48 ef 3c 4c 77 99 3b 16 64 26 3f 68 80 c4 3d
       0.02920934 0.0046834107 0.6499647 0.09594804
000090 30 2e db 3c b0 31 0f be 2d b5 ae be 79 c6 cc bd
       0.026755422 -0.13983798 -0.341226 -0.09998793
0000a0 e6 9f 09 3e a3 cb 83 be 9f 7c bb bd 23 be b2 bd
       0.13439903 -0.257413 -0.09154629 -0.08727672
0000b0 a4 43 93 3d 09 ad 4b be 9d 0f ec bd c3 13 6e bd
       0.07190636 -0.19890226 -0.115264155 -0.058124315
0000c0 46 8c cb 3e d1 79 63 3c a4 c5 97 bf ba 11 2e be
       0.39755458 0.013884024 -1.185719 -0.1699895
0000d0 1a e7 67 be 59 b6 04 bd 34 0e 4d be 2d b4 08 3d
       -0.22646752 -0.032400463 -0.2002495 0.033374954
0000e0 82 cf 4f 3e 8d 93 fa 3d e7 19 a4 3e 9c f7 76 3d
       0.20294002 0.12235174 0.32051012 0.060294732
0000f0 2c 1f 59 3e 02 71 0c bd 06 0e 14 3f d0 be 82 3e
       0.21203297 -0.03428746 0.578339 0.25536203
000100 52 a6 87 3d 9e b9 8e bd 3f a5 9c 3e 9f aa 1c bd
       0.0662352 -0.069689974 0.30594823 -0.038248654
000110 47 86 38 3e c7 a6 48 3c 22 1f 85 be 23 db 3a 3d
       0.18019973 0.012246794 -0.26000315 0.04561914
000120 d4 c1 f0 bd 69 86 af 3d c9 5c 74 bf 28 0f 7e bd
       -0.1175572 0.085705586 -0.9545408 -0.062026173
000130 7d d1 9a 3d 4d 17 5b be 90 e4 0c be 40 82 9a 3d
       0.07559488 -0.21395607 -0.13759065 0.075443745
000140 a5 fd d8 bd ed 46 97 3d d2 ee 68 3e ce 9c 0f 3e
       -0.10595254 0.07386575 0.22747353 0.1402466
000150 24 3c a9 3d e6 cd e4 bb 93 88 38 bf 75 86 92 3d
       0.08263424 -0.006982553 -0.72083396 0.07154552
000160 b8 3e 03 be d7 c4 06 bd 72 a2 b0 3e 8b 06 98 3d
       -0.12816894 -0.032902565 0.34498936 0.07423123
000170 78 8f 72 3e c2 2b e4 bc e2 59 4d be bb 1a 57 3d
       0.23687541 -0.027852897 -0.20053819 0.052515727
000180 8e 30 c2 3d fe 34 4a be c2 cd 3b bb 15 48 d2 bd
       0.09481917 -0.19746777 -0.0028656577 -0.10267655
000190 3d 1b bc bd db 85 8b bd 92 59 98 3e 97 53 ec 3c
       -0.09184883 -0.0681264 0.29755837 0.028848452
0001a0 6a 4d 8d bd b5 b8 0e 3d ca 80 1b 3f da 71 9b 3d
       -0.06899531 0.03484412 0.6074339 0.07590075
0001b0 47 67 d1 3e e6 95 38 bd 73 50 f5 bd 98 fb ae 3d
       0.40899107 -0.04506483 -0.11978235 0.085440814
0001c0 b9 ce 06 be c7 33 7c 3d 0b c1 49 bf 05 eb 9d be
       -0.13164796 0.061572816 -0.78810185 -0.30843368
0001d0 68 7b 7d bd 79 4b 83 3d b4 af 20 3f a0 26 32 bd
       -0.061885267 0.0641088 0.627681 -0.043493867
0001e0 3f 70 c9 bd 2e 79 9b bd 55 47 77 3e 23 7c 51 be
       -0.09835862 -0.075914726 0.24148305 -0.2045751
0001f0 a8 f7 35 bd 0f 81 1d bc 9f f9 1e 3f 9d d4 6a be
       -0.044425637 -0.0096132895 0.6209964 -0.22932668
000200 66 7b 7d bc 11 2d 34 3e 11 41 10 3f 65 97 de 3d
       -0.015471315 0.17595316 0.56349283 0.1086872
000210 5d 73 55 3d 03 4c aa bd ea 74 61 3e 78 a4 64 3e
       0.052111972 -0.08315279 0.22017255 0.22328365
000220 34 c4 73 3e 25 bd f6 bc 71 89 bd be 1c ad b7 3b
       0.23805314 -0.030119488 -0.37018922 0.005605353
000230 9f 9b 1e 3e 39 e1 63 be 72 7a c0 be 45 7e 7d bc
       0.15489052 -0.22253884 -0.37593418 -0.0154719995
000240 0d da 0a be 6f 6e 1f be 2a 8b df bc 0a 74 0b 3e
       -0.13559742 -0.15569471 -0.027288038 0.13618484
000250 e3 13 21 3d 95 d6 e1 bd 46 7d 3b be f2 64 59 be
       0.039325606 -0.110272564 -0.18309507 -0.21229914
000260 52 35 e5 bd 24 42 b9 bd 3e 3f 1b bd dd 99 49 3d
       -0.11191811 -0.090458184 -0.03790211 0.049219
000270 22 96 f4 3d 3c 79 aa 3d e3 80 8c bd 95 f2 ac 3b
       0.11942698 0.08323905 -0.06860521 0.0052779415
000280 05 c4 3f 3d 2b f1 9a bd 5b 77 58 bf b0 69 9b be
       0.0468178 -0.075655304 -0.8455712 -0.3035407
000290 29 0f ea bd f8 58 27 3d 52 46 95 3e d5 07 68 bd
       -0.11428673 0.04085633 0.29155213 -0.056648094
0002a0 bb 3b b7 3d 14 ea da 3d 54 0d 25 3e 80 20 99 3d
       0.089469396 0.10689178 0.16118366 0.07476902
0002b0 ad 25 4a be 6b 2d af 3c d4 9c 12 3e 75 a2 09 3e
       -0.19740935 0.021383962 0.14317638 0.13440879
0002c0 0e 8c ce 3d 4c 96 a5 bd c4 68 50 3e 0d 5f 61 bd
       0.10085307 -0.080853075 0.20352465 -0.055022288
0002d0 2d 7a 9a 3d b6 3f ae 3d e5 6e e4 be 5c bd c2 bd
       0.075428344 0.08508246 -0.44615856 -0.09508774
0002e0 c0 e3 0d bd f4 41 e6 3d d1 70 9f 3e 25 a8 94 bd
       -0.034641027 0.11243048 0.3114076 -0.072586335
0002f0 a9 32 6e 3e ed 40 c5 3b 1f cb d0 3e d1 46 68 bd
       0.23261513 0.0060197026 0.4077997 -0.05670816
000300 c2 36 3a be f1 a2 dc 3d 0e bc b9 3e 39 d5 11 3e
       -0.18184951 0.10773266 0.36276287 0.14241494
000310 1e c6 87 3d e8 1f 1a 3e 65 de b2 3e 88 23 7c bd
       0.06629585 0.15051234 0.349353 -0.061557323
000320 74 ba e4 bc 15 6c b0 bd 02 3d 95 3e cd 32 1d be
       -0.027920939 -0.08614365 0.29148108 -0.1535141
000330 b0 e2 17 3c 47 d1 56 3d e7 60 40 3e 8f 01 ae bd
       0.009270355 0.052445676 0.18786965 -0.08496391
000340 9c c4 18 be 0a a7 99 bd db ea 46 be 19 a0 a7 bc
       -0.1491875 -0.07502563 -0.19425528 -0.020462083
000350 8d 4f 74 bc 20 96 ee bd ed 43 ad 3d 99 bd a0 bd
       -0.0149115445 -0.11649728 0.084602214 -0.07848663
000360 96 07 b6 3d 39 95 b3 3d 51 2e b6 be b5 05 92 3c
       0.08888166 0.08768696 -0.35582212 0.017824987
000370 cf 27 4d be f3 80 7e 3e 24 f5 6d 3e d2 4b 4b 3d
       -0.20034717 0.24853878 0.23238045 0.049632855
000380 f3 4f 7b be bc fc 14 3e b4 bf 03 3f 20 73 1e 3e
       -0.24542217 0.14549536 0.5146439 0.15473604
000390 79 71 6c bd d3 a8 dd 3c b6 94 68 be a2 41 62 3e
       -0.057725403 0.02705804 -0.22712979 0.2209535
0003a0 97 41 23 be 2c 10 3c bc d9 b3 88 be dd 82 a8 be
       -0.1594299 -0.011478465 -0.26699713 -0.3291234
0003b0 e1 a4 e3 bd e7 e1 62 bd ff 3a 2f 3f 92 6d b6 3d
       -0.111154325 -0.05539122 0.68449396 0.08907618
0003c0 49 72 1a 3e 93 53 f3 bd fe b9 10 bf 41 50 47 3d
       0.15082659 -0.11881175 -0.565338 0.04866052
0003d0 43 c5 1b be ca 46 96 3e 0c 90 e6 3e f6 09 c7 3d
       -0.15211968 0.29350883 0.45031774 0.09718697
0003e0 fc f9 a3 3c 1b 4f e1 bd 5d 3e 8f 3d d6 d7 05 3e
       0.020016663 -0.11001416 0.06994317 0.13070616
0003f0 d3 ec e8 3d af 76 b7 bd 0d 99 81 bf 41 d4 8d be
       0.11373296 -0.08958184 -1.0124832 -0.27701

fc1.bias f4 [128]
000000 78 20 41 be fd 26 db 3d 2a 95 19 3e 13 e1 37 be
       -0.18860042 0.10700796 0.14998308 -0.17956953
000010 b3 0e 0f 3e 3d 11 dd 3b ee 83 98 bc 4a 7f c4 bd
       0.13970451 0.0067464397 -0.018617596 -0.09594591
000020 d6 cc cd bd 70 7b 81 be 08 f3 4b 3d 1b c4 c0 3d
       -0.10048835 -0.25289488 0.04979232 0.09412404
000030 81 32 2a be 48 81 2a be 43 69 0c 3e 8b 59 89 bd
       -0.16620828 -0.1665088 0.13712029 -0.06706532
000040 9a 32 23 3e ac a5 a9 3d 99 51 39 be ec 94 48 3d
       0.15937272 0.082835525 -0.18097533 0.048970148
000050 d1 39 60 3e 20 d7 00 3e 1c f8 e1 bd 05 0a d9 3c
       0.21897055 0.12582064 -0.11033651 0.026494035
000060 4d c5 1b 3e 97 95 a9 bd 88 ad 55 3e 4f 4e 83 3d
       0.15211983 -0.08280485 0.20866978 0.064114206
000070 7a 5a 3a be 07 60 20 3e c6 bb e2 bd 57 4b 8d 3d
       -0.18198577 0.15661632 -0.11070971 0.068991356
000080 cf 9d 00 3e 3e 02 5c bd 1a 83 19 3e 7a 99 07 3e
       0.12560199 -0.053713076 0.14991418 0.1324214
000090 14 6e b0 bd 79 1f 83 3d a3 49 0b 3e ce 45 c7 3d
       -0.08614746 0.06402487 0.13602309 0.09730111
0000a0 38 b6 85 be a2 e6 04 3e 0e 90 d5 3d c7 26 c7 3d
       -0.26115584 0.12978604 0.10427867 0.09724193
0000b0 cd 68 0b 3e be a1 4f be b0 e0 06 3e b7 a0 c9 3d
       0.13614197 -0.20276543 0.13171649 0.09845107
0000c0 73 83 33 bd 9b 2a 4f 3d 8c 8b ec 3d 5b c0 ed 3d
       -0.04382653 0.05057774 0.11550054 0.116089545
0000d0 b5 96 d0 bd 9e ca fa 3d ae d9 6b be 77 5e 02 3e
       -0.10184995 0.122456774 -0.23032257 0.12731348
0000e0 5b 5b d7 bd b5 75 d6 3d d6 73 38 be 74 8f 2a be
       -0.105154715 0.104716696 -0.18012938 -0.16656286
0000f0 2d 90 58 3d 91 6a 9d 3c 41 3a 0b 3d 4a 0f 03 be
       0.05287187 0.019215854 0.033991102 -0.12798801
000100 3a 16 03 3e e6 71 3d 3e 7f 97 83 bd 0b 79 b0 bd
       0.12801448 0.1850048 -0.0642538 -0.08616837
000110 01 e9 e9 bd ab 3b 0a be 97 e5 91 3d ef f7 0a be
       -0.11421395 -0.13499324 0.07123869 -0.13571142
000120 a7 ea 1e 3e f5 bf e0 3d fe 3e 2f bc 90 ce 08 3e
       0.155192 0.10974113 -0.010696171 0.13360047
000130 a7 f3 76 3d bd da b0 3d e2 9a 3d be ec e6 c0 3d
       0.06029096 0.08635471 -0.18516114 0.09419045
000140 e5 f3 09 be a4 0d ca 3d 61 bd 47 3c 3e 07 1f 3e
       -0.13471945 0.09865883 0.012191148 0.15530106
000150 f4 c9 de 3d 6a 64 84 be a7 9a 51 be 19 20 16 be
       0.10878363 -0.2585786 -0.20469151 -0.14660682
000160 ab 23 d8 bd 42 cc ad 3d a3 5b 11 be 3a 38 28 3c
       -0.10553678 0.08486225 -0.14195113 0.010267312
000170 f5 18 fc 3d 11 96 04 bd 8c 14 ae 3d 3a 63 1d 3e
       0.12309448 -0.032369677 0.08500013 0.15369883
000180 03 e7 b7 3d 9f 1c 2d be 0c a7 0a 3e 1d a8 b3 bd
       0.08979609 -0.1690545 0.13540286 -0.087722994
000190 c5 90 39 3e c7 b4 13 be 86 dc ea 3d 3c c1 e2 3d
       0.18121631 -0.1442443 0.11467843 0.11072013
0001a0 86 00 57 be 07 32 c0 3c b1 da f4 bd 0b 73 98 bd
       -0.20996293 0.023461355 -0.119557746 -0.07443818
0001b0 7f c3 7f 3d b4 d8 9e bd 6f cd 33 3d b1 38 87 3d
       0.0624423 -0.077561766 0.04389709 0.0660261
0001c0 f6 62 ff 3d 4b c3 00 be 9b c8 55 bd 66 12 e3 bd
       0.12470047 -0.12574498 -0.052193265 -0.110874936
0001d0 a6 b5 00 3e e1 a1 15 3e 69 e0 43 be 6b ff 07 3e
       0.12569293 0.14612533 -0.19128574 0.13281028
0001e0 cc 69 db 3d 39 93 ad bc 3d 09 bb bc a1 dd 04 3e
       0.107135385 -0.021188365 -0.022831554 0.1297517
0001f0 5c b6 48 be 93 86 51 3e e6 e9 d0 3d 39 07 05 3e
       -0.19600815 0.20461492 0.102008626 0.12991036

fc2.weight f4 [128, 128]
000000 44 b2 67 be 71 63 01 bd 37 a9 0e 3e 80 39 ae bd
       -0.22626597 -0.031588975 0.13931738 -0.08507061
000010 50 0f 15 3e 8f 23 f2 bd 2d 42 54 be 95 18 af bd
       0.14556623 -0.118231885 -0.20728369 -0.085496105
000020 03 fe bf be 1a e2 79 bf fc f1 c0 3d f6 5a 6f 3e
       -0.37498483 -0.9761063 0.09421155 0.23374543
000030 37 e2 85 3e aa 36 1c 3d 04 18 8d 3d 7f 3d 4c 3c
       0.2614915 0.03813807 0.06889346 0.012465834
000040 fb 44 47 3e 41 04 78 3e d5 82 00 bf 6e 56 29 3e
       0.19459908 0.24220373 -0.50199634 0.16536877
000050 fe d5 ce 3e 11 69 00 3e 60 12 a3 bc 68 be 1d 3e
       0.40397638 0.1254008 -0.019906223 0.15404665
000060 c3 5c b6 3e bf 17 dc bd 3f bc 9e 3e 76 c8 b9 3d
       0.35617647 -0.10746717 0.31002995 0.09071438
000070 88 eb 8e be 02 4d 83 3e bf eb 48 3c fd 15 59 3e
       -0.2791407 0.2564469 0.0122632375 0.21199794
000080 4c ab 32 3e 79 79 87 bd d6 82 01 bd 9b e6 64 3d
       0.17448157 -0.06614966 -0.031618915 0.055883985
000090 f7 78 23 3d aa ed d6 3d f9 7b 24 3e a3 83 7e 3d
       0.039910283 0.104945496 0.16062917 0.062137257
0000a0 c0 24 3e bd 01 26 98 bd c7 0b 35 bd 06 4f 55 3e
       -0.046421766 -0.07429124 -0.044200685 0.20830926
0000b0 39 cd 94 3e 27 14 a3 be f4 87 62 3e 68 02 be 3c
       0.29062822 -0.31851313 0.22122175 0.023194507
0000c0 a7 17 86 bd 1e d3 28 3e 30 7b c3 bd d6 4a df ba
       -0.0654748 0.16486785 -0.095449805 -0.0017035853
0000d0 d6 16 1c be 32 76 17 3e df 8e d3 be 1b 5d 0f 3e
       -0.15243086 0.14791182 -0.4131994 0.1400036
0000e0 3c 9e 3a bf de 1d 91 bd b7 7a bb 3d 18 34 49 be
       -0.72897696 -0.07085775 0.091542654 -0.19648778
0000f0 63 55 b3 bd ce 53 2f 3e 57 49 aa 3d 1c 99 00 bd
       -0.087565206 0.17121813 0.0831477 -0.031396016
000100 dd 67 22 3d cf 32 a6 be 95 d6 e8 bb 65 57 f4 bd
       0.039649833 -0.3246064 -0.0071056583 -0.11930732
000110 16 52 27 bf 22 b6 4d bd c5 d6 6a be fc e7 93 bd
       -0.6535963 -0.050222524 -0.2293349 -0.07221982
000120 11 64 34 bd 2b 49 2d be 7d dd 51 bd a6 ce 98 3e
       -0.044040743 -0.16922443 -0.05123662 0.2984516
000130 9b 06 0b be dc 31 a5 3d 78 86 89 be 43 20 29 3e
       -0.13576739 0.080661505 -0.26860404 0.16516213
000140 20 21 af bf a3 2c fa 3d 0b 07 40 3d cd d1 2e 3e
       -1.3681984 0.12215545 0.046881717 0.1707222
000150 03 90 89 3e fa 22 a7 bd c1 67 6a be 61 db 6f bd
       0.26867685 -0.08160968 -0.22891141 -0.058558825
000160 43 a2 79 be 9e 60 9b 3e 87 c6 95 bd da 87 0a be
       -0.24378304 0.3034715 -0.07313257 -0.13528386
000170 1f 11 c6 bd 3d 4f 42 bd 74 e1 79 3c bb e1 8b 3d
       -0.09671234 -0.04743885 0.015251506 0.06830164
000180 94 92 98 bd 40 08 8e bf 13 ce 1c 3e 24 3c 3c be
       -0.074498326 -1.1096268 0.15312986 -0.18382317
000190 c8 5b 42 3e 15 3c e8 3d 37 eb 4c 3e 1b 83 7c bd
       0.18980324 0.11339585 0.20011602 -0.06164847
0001a0 ad 12 4b bd 53 9a 8c 3d 97 e0 c8 3d f1 6d f8 bd
       -0.049578357 0.068653725 0.09808462 -0.12130345
0001b0 82 a6 6e be ed a3 c1 be de 06 72 bc 89 14 bf bd
       -0.23305705 -0.37820378 -0.014772145 -0.09330089
0001c0 7d ce 2a 3e 17 30 b6 bd d8 71 ce 3c b1 cc 4d be
       0.16680332 -0.08895891 0.02520077 -0.20097615
0001d0 57 f3 28 bd cd 97 9b 3e e6 d9 63 be 48 1b 18 3d
       -0.041247692 0.30389252 -0.2225109 0.037135392
0001e0 33 f9 5f 3d b5 1d 66 3d d8 32 32 3d 83 b9 ff 3d
       0.054681014 0.056180675 0.04350552 0.124865554
0001f0 ca 25 76 be 68 19 a1 3e b8 14 59 be 46 bb 98 3e
       -0.24037853 0.31464696 -0.2119931 0.29830378
000200 cb c3 b9 be 45 7d 42 3b 09 57 fd bd 44 4b 26 bd
       -0.3628219 0.0029676717 -0.12370116 -0.040599123
000210 8d 08 c5 3e 75 20 61 be b3 b3 66 3e 8b 40 80 be
       0.38483086 -0.21985038 0.22529487 -0.25049242
000220 d2 f7 0e bf 57 02 55 bf 6c 73 c0 3d 92 1f 75 3e
       -0.55846894 -0.83206695 0.09397015 0.23937824
000230 b7 47 ed bd 7f 93 a2 bd 02 ad a2 3e 45 d4 12 be
       -0.11585944 -0.07938289 0.3177262 -0.14338787
000240 87 a9 34 bc 6a b2 25 be ba 5a b2 be 4d e1 a3 bc
       -0.011026747 -0.16181341 -0.34834844 -0.020004893
000250 3c 0d 1a 3e 17 fb 97 3d 59 07 1d be 47 6e 8d 3d
       0.15044111 0.074209385 -0.15334834 0.06905799
000260 d0 f2 0b 3d fb 7b c9 bd ea 00 15 3e 92 4e 4e be
       0.03416711 -0.098381005 0.1455113 -0.2014716
000270 9b 18 8e be e2 b9 78 3d 83 a7 57 3d e7 c7 1d 3e
       -0.27753147 0.060724147 0.052649986 0.15408288
000280 cc 40 f8 ba fb b5 39 3c bc b8 61 3e 30 f3 85 3e
       -0.0018940209 0.011334891 0.22043127 0.261621
000290 45 87 01 3e ba 30 35 3d 03 5a 7f bc 40 78 ec 3d
       0.12649257 0.044235922 -0.015585425 0.11546373
0002a0 05 ec 84 bd d0 54 ba 3d 47 11 1e 3e 7b 25 93 bd
       -0.0649033 0.09098208 0.15436278 -0.07184883
0002b0 50 24 e8 bc 3b 7d 71 be eb 82 9b 3e 6c 04 43 3e
       -0.028337628 -0.23582928 0.3037332 0.19044656
0002c0 08 3e 2b bd 2d d1 50 3e 82 3d a4 3c 6a 0c 61 3e
       -0.041807204 0.20392294 0.02004886 0.21977392
0002d0 76 52 07 3e db 69 3d 3e 34 af 32 be 60 76 1e 3d
       0.1321505 0.18497412 -0.17449647 0.03868711
0002e0 1a c8 1e bf 07 93 73 bd 37 c7 8e 3d 86 6c bf bd
       -0.6202408 -0.059466388 0.06971591 -0.09346871
0002f0 61 b6 e2 3d 08 58 ac 3d 5f d1 48 bd 9b 58 21 3d
       0.11069942 0.08415228 -0.049027797 0.03939114
000300 2c 64 2f 3e 10 8a 31 3e 0f 07 8b be 07 b9 70 bd
       0.17128056 0.17337823 -0.27153823 -0.058770206
000310 12 c3 41 bf 76 5c 57 be 24 f1 49 3e 63 86 0b bd
       -0.7568828 -0.21031365 0.19720894 -0.034063708
000320 e7 ed 8f bd 3c 66 c7 3d 74 37 30 3d 13 6e 13 3d
       -0.07027798 0.097362965 0.043021634 0.035993647
000330 8b 23 3e bd c0 31 b0 3e 75 9c 93 bd 1c 3c ae 3e
       -0.046420615 0.34412956 -0.07207576 0.34030235
000340 61 3d 7e bf 5a 4c 0e 3e d4 59 d9 3c 6b aa c4 3d
       -0.99312407 0.13896313 0.026532091 0.09602817
000350 dc 1a 7f 3c 22 3b cc be 70 8b 14 be ac 4d 9d 3d
       0.015570369 -0.39888865 -0.14506316 0.0768083
000360 d9 e8 3b bf 4c 5d c3 3d e7 e1 86 be ca 79 12 be
       -0.7340217 0.09539279 -0.26344225 -0.14304271
000370 5f b2 35 be ef 48 e3 bd dc 85 6f bd c4 74 82 3e
       -0.17743824 -0.11097895 -0.058477268 0.2547971
000380 ab 94 ad 3d 2b 0d 26 bf 5f 9e 49 3e a4 a5 b2 3e
       0.08475622 -0.6486384 0.1968932 0.34892
000390 3b db 86 3e 7f ff 05 3e 30 e3 a4 3d 74 12 a4 3e
       0.26339135 0.13085745 0.08051145 0.3204533
0003a0 6e 78 dc bd 48 fe ec bd ca 3d 14 3d de 53 96 be
       -0.10765158 -0.11571938 0.03619174 -0.2936086
0003b0 d3 77 f9 bd ff 37 cd be 50 99 ba bd 9e 92 a1 3c
       -0.12181058 -0.40081784 -0.09111273 0.019723233
0003c0 97 e6 b4 bc 65 21 cc be 75 8f ac be fd 66 6a bd
       -0.02208261 -0.39869228 -0.337032 -0.057227124
0003d0 0a 12 91 bd ac 07 2d 3e f7 20 3b be 37 4c ad 3d
       -0.07083519 0.16897458 -0.18274294 0.084618025
0003e0 b6 46 ea bd 3a f1 88 3d 78 0b cc 3d 4a 66 92 3e
       -0.11439268 0.06686635 0.09963125 0.28593665
0003f0 89 27 ea be 6d 35 49 3e 55 27 e2 bd c3 c7 95 3e
       -0.45733288 0.19649287 -0.11042658 0.2925397

fc2.bias f4 [128]
000000 be 3a 22 3e c5 c3 14 3e 61 16 27 bc 00 ab df bd
       0.15842721 0.14527805 -0.010198207 -0.109212875
000010 dc 21 de 3d 34 37 98 3d 7e 8a a1 bd 3e 6d 16 3e
       0.10846302 0.07432404 -0.078877434 0.1469011
000020 05 19 1a bd 5e cd d4 3d f8 ff e2 3d eb 7e 03 3e
       -0.037621517 0.10390733 0.110839784 0.12841384
000030 b2 66 ec 3d b7 16 13 3e 98 13 13 3e e2 9c f6 3d
       0.11543025 0.14364134 0.14362943 0.12041642
000040 56 99 12 bc 73 0c 05 3e 3d 09 b5 3d d6 05 e5 3d
       -0.008947691 0.1299303 0.08839653 0.11182754
000050 46 b7 dd bd 2d 3d 39 bd 63 fe a5 3d 1e dc b9 bd
       -0.10825972 -0.045224357 0.08105161 -0.09075187
000060 2c 80 cc 3d 74 96 14 3e 44 8d a0 3d 15 aa d9 3d
       0.09985384 0.14510518 0.07839444 0.10628144
000070 21 8a c6 3d 8b 05 53 3d 3e d2 a7 3c db d5 6c 3d
       0.09694315 0.051518958 0.020485993 0.057821136
000080 22 a6 03 3e 0e 37 19 3e e2 43 0b 3d cd 40 15 bd
       0.12856343 0.14962408 0.034000285 -0.036438752
000090 1a 97 01 3d 19 5c 92 3d 55 89 87 3d 50 9c 9f 3d
       0.031638242 0.071464725 0.06617991 0.07793486
0000a0 d0 8d b2 bb 7d 05 de 3d af 8d 06 3e 7e 10 b8 3d
       -0.0054490343 0.108408906 0.13139986 0.08987521
0000b0 59 ba 65 bd e5 2e 19 3e ac ec fe 3d 0d dd a1 3d
       -0.056085918 0.14959295 0.12447485 0.0790349
0000c0 db 20 ee 3d b2 53 10 3e 6f a3 c9 3d 49 b5 b4 3c
       0.116273604 0.14094427 0.098456256 0.0220591
0000d0 1d ae df 3d d6 4a 46 bd 60 06 87 3d 1f df 2c bc
       0.10921881 -0.048411213 0.06593013 -0.010551243
0000e0 f7 56 fc 3d c0 44 0d 3e 7f d0 12 ba be 2b 36 3d
       0.12321275 0.13795757 -0.00056005263 0.04447531
0000f0 cd 90 10 bd ec 8f b2 3d c0 6f 4a 3e a3 4e dd 3d
       -0.035294343 0.08718857 0.19769192 0.108060144
000100 b6 e6 85 bd 26 63 14 bc 5a cd 69 bc 77 24 1b bd
       -0.06538145 -0.009056842 -0.014270151 -0.037876572
000110 0d 09 9b bd 68 67 f4 bb ee f7 3e 3d 75 82 8e bb
       -0.07570086 -0.007458616 0.046623163 -0.004349048
000120 b4 ba 12 3e dc f1 cd 3d f2 04 e6 3d 12 eb 15 3e
       0.14329034 0.10055897 0.11231412 0.14640453
000130 26 1a a4 bd 2b ba b8 bc 49 f9 a8 bd 00 00 00 00
       -0.080128 -0.02254971 -0.08250672 0.0
000140 0e 90 ff 3d b7 7e 10 3e 62 c5 fe 3d e5 dd 60 3d
       0.12478648 0.14110838 0.124399915 0.054899115
000150 e6 57 a3 bb 64 c5 72 3d 96 ed 0f 3e 82 72 af 3d
       -0.0049848435 0.059270278 0.14055476 0.085667625
000160 ca 2e d9 3d df 01 29 3e a5 7f f1 3d 76 8d f2 3d
       0.106046274 0.1650462 0.117919244 0.11843388
000170 94 c6 f1 3d c9 d8 12 3e bb 2f 91 3d 7c 83 d9 bc
       0.11805454 0.1434051 0.07089182 -0.026551954
000180 f0 c9 0c 3e d3 43 84 3d 4b bd 95 3d ab c6 53 bd
       0.13748908 0.06458249 0.073114954 -0.051703136
000190 0b 71 cf 3d c3 89 ee 3d 1f ed 1c 3e 0c 8e b7 bd
       0.10128983 0.1164737 0.1532483 -0.0896264
0001a0 72 5c b1 3d 79 d2 91 bd 51 ed 17 3e 92 87 7f bc
       0.08660211 -0.071202226 0.14836623 -0.015596287
0001b0 a5 4c 8b bd 9b 69 ab bd a6 50 92 3d 20 1d be bd
       -0.06801728 -0.08369752 0.07144289 -0.09282899
0001c0 17 6d c8 3d ab 3c d7 3d a4 18 4e 3d ba bb d7 3d
       0.09786432 0.10509618 0.050316468 0.10533853
0001d0 df 62 fc bc 00 00 00 00 4a f5 12 3e bb 14 8a 3d
       -0.030808864 0.0 0.14351383 0.06742235
0001e0 57 6d 42 bd e9 d3 30 3e db 82 b1 3d 87 af cc 3d
       -0.047467556 0.17268337 0.08667537 0.09994417
0001f0 ed 38 05 3e 5c 2d c8 3d f0 68 8a bd b6 01 cc bd
       0.13009997 0.097742766 -0.067582965 -0.09961264
