Project/output/old/ddqn/final_model.pth (torch, 287307 bytes, 24 tensors)

fc1.weight f4 [128, 4]
000000 ae d0 ee bc 15 b5 14 3c 37 5d ad be ea 68 4c be
       -0.02915224 0.009076376 -0.3386018 -0.19961897
000010 bc 11 39 be 31 3c 48 be 55 cd d4 bd 1d 7c a4 bc
       -0.18073171 -0.19554211 -0.103907265 -0.020078713
000020 26 f9 42 be 25 c6 99 bd ed 3f 2b 3e 33 3e 08 3c
       -0.19040355 -0.07508496 0.16723605 0.008315611
000030 2f 07 66 bd 2c 18 b9 3d b3 7b c1 be 7d e4 3e be
       -0.056159195 0.090378135 -0.37789688 -0.18641849
000040 83 05 12 3d 81 0d 62 bd 77 e7 8e 3e 57 2e 85 bd
       0.035649788 -0.05518866 0.2791097 -0.06502979
000050 64 9d 4e bd 55 21 91 3d b2 9d 32 3f 8b 10 51 3d
       -0.05044307 0.07086436 0.69771874 0.051041167
000060 56 73 85 3d 2b 58 05 be af 11 a6 be 3b e7 2f 3e
       0.06516139 -0.13021915 -0.32435367 0.17178051
000070 1d 2c 73 be 21 4f 16 3e 48 aa cd 3e 95 c6 66 3e
       -0.23747297 0.14678623 0.40168977 0.2253669
000080 75 2e 08 3d 97 fc fa ba c2 3c 2c 3f e1 eb c2 3d
       0.03324743 -0.0019148764 0.6728021 0.095176466
000090 c9 91 c0 3c 5b b8 11 be 2a 5d b3 be 23 18 d5 bd
       0.023507016 -0.14230482 -0.35032016 -0.10404994
0000a0 88 c1 08 3e d3 ed 84 be eb fb cb bd 83 3c b2 bd
       0.13355076 -0.25962695 -0.09960159 -0.08702948
0000b0 83 e5 93 3d fc 6f 4c be 1d 23 f9 bd 6d cf 73 bd
       0.0722151 -0.19964594 -0.121649005 -0.05952399
0000c0 40 a4 c7 3e 79 57 4d bb df 90 a1 bf a7 5d 37 be
       0.389925 -0.0031332655 -1.2622336 -0.1790682
0000d0 5f 44 6a be 6e a7 01 bd 43 06 53 be 60 4a 1b 3d
       -0.22877644 -0.031653814 -0.20607857 0.037912726
0000e0 c0 4c 4c 3e 22 94 f7 3d 57 16 a5 3e 18 61 7d 3d
       0.19951153 0.12088801 0.32243606 0.061860174
0000f0 59 59 57 3e c6 2f 1a bd 41 01 1c 3f e4 b6 84 3e
       0.21030177 -0.037643217 0.60939413 0.25920784
000100 7e 05 86 3d 74 f2 8f bd b9 31 9d 3e eb 9e 1c bd
       0.06544016 -0.07028666 0.30701998 -0.038237493
000110 73 93 38 3e 94 b5 80 3c 14 0c 8b be 5e 44 1e 3d
       0.18024997 0.015711583 -0.27157652 0.03863942
000120 9b 05 f2 bd 74 05 aa 3d 0c 3a 79 bf 3f 4c 88 bd
       -0.118174754 0.08301821 -0.973542 -0.06655168
000130 54 1d 9c 3d 67 87 5b be b9 f3 0b be df 2e 98 3d
       0.076227814 -0.2143837 -0.13667192 0.07430815
000140 0a 46 d7 bd 82 85 98 3d 28 ee 73 3e 4a a8 13 3e
       -0.10511406 0.074473396 0.23821318 0.14419666
000150 e2 43 a8 3d 72 f9 0c bc 30 19 3d bf b1 3b 8f 3d
       0.082160726 -0.008604394 -0.7386656 0.06993807
000160 e4 64 06 be 9c 79 09 bd df 1c b5 3e 5a 08 92 3d
       -0.13124424 -0.03356324 0.3537359 0.07130499
000170 28 57 6e 3e a7 ca 07 bd 14 24 63 be 16 05 49 3d
       0.23275435 -0.03315225 -0.22181731 0.049077116
000180 41 36 c1 3d 6f 7d 4b be 13 d7 09 bc 28 70 d1 bd
       0.09434176 -0.19872068 -0.008413094 -0.1022647
000190 8c e7 c1 bd fb 47 8c bd 4d f7 9a 3e 0d 27 de 3c
       -0.09467992 -0.06849667 0.302668 0.02711823
0001a0 4c b5 8a bd 31 3d 09 3d 69 78 1e 3f f2 b0 ae 3d
       -0.06772861 0.033505622 0.6190248 0.085298434
0001b0 64 67 cf 3e 25 ad 30 bd e2 6a f5 bd 53 ee af 3d
       0.40508568 -0.043133873 -0.11983277 0.085903786
0001c0 b9 19 08 be 8d 19 65 3d b8 46 50 bf 54 b7 9e be
       -0.13291062 0.05593257 -0.8135791 -0.30999243
0001d0 e9 73 7e bd 2a d0 81 3d ca 87 22 3f b0 8e 31 bd
       -0.06212226 0.06338532 0.6348845 -0.043348968
0001e0 cd 3e d2 bd bb 61 a2 bd 07 d0 72 3e 4c d4 4e be
       -0.102658845 -0.07928797 0.23712169 -0.20198172
0001f0 48 77 31 bd 75 c8 20 bc c2 d8 20 3f 5b 86 69 be
       -0.043326646 -0.009813418 0.62830746 -0.22805159
000200 a2 b5 9b bc ec 83 32 3e 73 de 13 3f 83 d8 dc 3d
       -0.019007508 0.17433137 0.57761306 0.10783484
000210 52 b4 4f 3d 17 d6 aa bd 54 fa 73 3e 4c d7 67 3e
       0.050709076 -0.08341616 0.23825961 0.22640723
000220 23 b7 77 3e 1a 27 e7 bc 27 5b bf be 48 e6 69 3b
       0.24190955 -0.028216887 -0.3737423 0.0035690237
000230 ab 28 1f 3e 76 b2 64 be ad 8d c1 be 66 b1 39 bc
       0.15542857 -0.22333702 -0.37803403 -0.011333799
000240 2b 10 0c be 43 4a 20 be c7 5c 9c bc 97 9e 0c 3e
       -0.13678043 -0.15653329 -0.019087208 0.13732372
000250 74 cc 22 3d f1 fa dc bd c2 13 59 be 50 94 67 be
       0.039745763 -0.10790051 -0.21198943 -0.2261517
000260 e1 d9 e5 bd 7e b3 b8 bd 62 9a de bc 77 fd 48 3d
       -0.11223198 -0.090186104 -0.027173225 0.049069848
000270 c5 e0 f5 3d d7 4b b2 3d ec cd 9f bd 1d 96 cd 3a
       0.12005762 0.087058716 -0.07802948 0.0015684996
000280 68 95 4f 3d e0 2a a2 bd 09 a9 6a bf 73 78 9c be
       0.050679594 -0.07918334 -0.9166418 -0.30560645
000290 84 0b e6 bd 5d 1e 32 3d e0 ab 9b 3e 50 ed 66 bd
       -0.11232665 0.043485988 0.30404568 -0.056378663
0002a0 97 bc b6 3d a6 fa dc 3d 69 81 1e 3e ba ff a1 3d
       0.089226894 0.10789995 0.15479054 0.07910104
0002b0 3f 62 49 be c5 3e c3 3c 64 0d 16 3e 82 29 08 3e
       -0.19666384 0.023833642 0.14653546 0.13297084
0002c0 9d 53 cb 3d 9b cd a8 bd d1 ca 4f 3e cd cc 5d bd
       0.09928057 -0.08242341 0.20292212 -0.05415039
0002d0 cd 26 a5 3d 32 0f a2 3d c9 ca f3 be 30 45 d1 bd
       0.08064041 0.079130545 -0.4761565 -0.102182746
0002e0 6e 24 06 bd 5d 09 ed 3d 3f 0e a1 3e 2a 1e 9a bd
       -0.032749586 0.115740515 0.3145618 -0.075252846
0002f0 c7 c3 6e 3e 51 e0 08 3c 7f 33 cf 3e 1a 9e 5f bd
       0.2331687 0.008354262 0.40468976 -0.054594137
000300 7e ec 3f be 7d b7 d9 3d a2 ff c1 3e 4a 24 19 3e
       -0.18742558 0.10630701 0.37890345 0.1495525
000310 3b ee 83 3d 37 a9 18 3e 95 ee b2 3e 43 26 74 bd
       0.06441923 0.149083 0.3494765 -0.0596068
000320 93 7c b9 bc 3e 7c b0 bd cd 7b 93 3e a1 3e 1a be
       -0.02264241 -0.08617447 0.2880539 -0.15062954
000330 d2 47 48 3c 8f 85 69 3d 20 32 3f 3e 93 b2 b3 bd
       0.012224155 0.057012137 0.18671465 -0.08774295
000340 60 2a 17 be 72 5b 99 bd 6b 59 53 be 25 74 e7 bc
       -0.14762259 -0.07488145 -0.20639579 -0.028253624
000350 85 2d 77 bc b8 0d f0 bd d8 08 a1 3d 14 a8 a7 bd
       -0.015086536 -0.11721367 0.07863015 -0.08186355
000360 79 af bf 3d 9c b8 b6 3d be a8 ab be aa 01 9a 3c
       0.09359641 0.0892193 -0.33527178 0.018799622
000370 02 3c 44 be 23 99 81 3e c7 2e 79 3e 7e 46 3f 3d
       -0.19163516 0.25312147 0.2433425 0.046698086
000380 78 25 7d be 05 40 15 3e f3 d4 06 3f af 4b 24 3e
       -0.24721324 0.14575203 0.52668685 0.16044496
000390 ec 89 61 bd 32 f6 f2 3c c6 64 5c be 85 3a 60 3e
       -0.055063173 0.02965841 -0.21522817 0.21897323
0003a0 e2 67 24 be 6c 2c 3d bc 0d 32 8a be 32 f5 a6 be
       -0.16055253 -0.0115462355 -0.2699131 -0.32608944
0003b0 a8 57 e9 bd 14 14 5d bd 80 c4 32 3f 74 9d b5 3d
       -0.11393672 -0.053974226 0.69831085 0.088679224
0003c0 ba ed 1a 3e 2e 4c f6 bd 20 ad 13 bf f0 8f 48 3d
       0.15129748 -0.12026249 -0.5768604 0.048965394
0003d0 35 98 1c be 90 8e 97 3e ca 99 e8 3e 75 18 c4 3d
       -0.15292437 0.29600954 0.45429832 0.09574977
0003e0 b0 75 af 3c be 0e de bd c1 59 b5 3d a4 4c 07 3e
       0.021418422 -0.108426556 0.0885501 0.1321283
0003f0 07 c1 f7 3d 70 6a c0 bd 50 f0 86 bf 59 94 8e be
       0.12097364 -0.09395301 -1.0542088 -0.27847555

fc1.bias f4 [128]
000000 6a b5 52 be 87 cc d5 3d 00 49 24 3e d4 1e 49 be
       -0.20577016 0.10439401 0.16043472 -0.19640666
000010 fe 5b 15 3e 8a d6 e4 3b a7 a6 9d bc aa b5 c4 bd
       0.14585873 0.006983583 -0.019244505 -0.09604962
000020 8f cf d8 bd 33 d8 85 be b3 00 70 3d 5e 71 ce 3d
       -0.10586464 -0.2614151 0.058594417 0.10080217
000030 e9 39 38 be 36 18 3a be e2 95 16 3e 4f 80 9b bd
       -0.17990841 -0.18173298 0.14705613 -0.07592832
000040 14 9e 27 3e e0 45 b3 3d 8e 09 3e be fd 4e 46 3d
       0.16368896 0.08753562 -0.18558332 0.048415173
000050 cb 07 6a 3e 0b f6 04 3e ff e4 e5 bd 14 ae 0e 3d
       0.22854535 0.12984483 -0.11225318 0.034833983
000060 5e 3a 20 3e 94 d7 b2 bd 8e c3 5e 3e d3 ba 8e 3d
       0.15647265 -0.087325245 0.21754286 0.06969228
000070 90 5d 49 be 2d 28 27 3e ea ed ed bd 32 91 95 3d
       -0.19664598 0.1632392 -0.11617644 0.073030844
000080 9b bb 03 3e e0 d3 5e bd 26 88 21 3e cb 68 0d 3e
       0.12864535 -0.05440128 0.15774593 0.13809507
000090 fa bf b5 bd f6 94 91 3d a0 1a 10 3e 35 b2 cf 3d
       -0.08874507 0.0710849 0.14072657 0.10141412
0000a0 59 c9 8d be 95 64 0b 3e 38 07 d8 3d b4 a6 cc 3d
       -0.2769268 0.13612588 0.10548252 0.099927336
0000b0 e4 8c 0f 3e 11 dc 5e be 25 ae 0a 3e 56 f8 cc 3d
       0.1401859 -0.21763636 0.13542993 0.10008304
0000c0 88 51 43 bd c4 96 4c 3d 08 75 00 3e a1 2e f4 3d
       -0.047685176 0.04994847 0.12544644 0.11922956
0000d0 09 63 ce bd 96 07 00 3e 46 ee 75 be 3f 31 0b 3e
       -0.10077483 0.12502894 -0.24016675 0.13593005
0000e0 9c 8a d3 bd a8 2d ee 3d 4d c2 49 be 14 be 2d be
       -0.10329172 0.11629802 -0.19703026 -0.1696704
0000f0 5f af 5c 3d 58 ee b4 3c 5b d2 14 3d be f0 0e be
       0.053878184 0.022086307 0.036333423 -0.13959023
000100 68 ee 07 3e 86 8d 43 3e e4 a4 87 bd 1e 9c b4 bd
       0.13274539 0.19096956 -0.06623247 -0.088188395
000110 39 3f ec bd 7f dd 18 be fe 3b 9b 3d cf 86 17 be
       -0.11535496 -0.14928244 0.07579802 -0.14797519
000120 da e7 23 3e 88 34 ed 3d 23 44 33 bc 0a f4 0d 3e
       0.16006413 0.11582285 -0.010941538 0.13862625
000130 9f 86 82 3d 24 0d b4 3d b7 8c 42 be cc c3 c1 3d
       0.06373333 0.08791569 -0.18998991 0.094611734
000140 53 ea 14 be 20 32 d3 3d 09 11 7a 3c 56 2e 28 3e
       -0.14542513 0.10312295 0.015262851 0.16423926
000150 91 3c f4 3d 30 da 8a be 83 2a 64 be f7 85 1e be
       0.119256146 -0.2711959 -0.22281842 -0.15480791
000160 1e 14 dc bd f7 9d b2 3d e2 57 15 be a5 d5 48 3c
       -0.107460245 0.08721536 -0.14584306 0.012257968
000170 df dd 05 3e 5f 20 19 bd 05 a7 b1 3d 70 5d 22 3e
       0.13072918 -0.037384387 0.086744346 0.15855956
000180 5b 20 bd 3d e9 f7 32 be ab d7 0f 3e df 69 cb bd
       0.09234687 -0.17477383 0.14047115 -0.09932303
000190 f1 1b 40 3e 96 ee 18 be ca 06 f0 3d a4 c9 e7 3d
       0.18760659 -0.14934763 0.11720045 0.11317757
0001a0 a3 0c 65 be 60 bc 0a 3d e1 5c 03 be 8f 55 b9 bd
       -0.22368102 0.033871055 -0.12828399 -0.09049522
0001b0 a5 72 91 3d 40 b5 a3 bd ac e0 44 3d 44 05 83 3d
       0.07101945 -0.07993555 0.048065826 0.06397489
0001c0 23 74 02 3e c3 61 03 be f1 0a 54 bd a4 83 e9 bd
       0.12739615 -0.12830262 -0.051768247 -0.114020616
0001d0 e7 41 07 3e 94 d9 19 3e 29 fb 4b be ef bb 0d 3e
       0.13208733 0.15024406 -0.19920029 0.13841222
0001e0 1e e9 e2 3d 35 14 a6 bc ff cb f5 bc 7e 02 07 3e
       0.1107962 -0.020273307 -0.0300045 0.13184544
0001f0 9f 7b 50 be 03 2e 5e 3e 8a ab d2 3d 89 51 07 3e
       -0.20359658 0.2169724 0.10286625 0.13214697

fc2.weight f4 [128, 128]
000000 97 8c 82 be be 81 e6 bc 86 57 13 3e 61 dc de bd
       -0.25497887 -0.028138038 0.14388856 -0.10881878
000010 78 e6 18 3e cd fb e0 bd 83 4b 55 be 55 83 bd bd
       0.14931667 -0.10985527 -0.20829587 -0.09253565
000020 40 de c3 be a1 70 85 bf e0 46 cc 3d 0d 1d 75 3e
       -0.382555 -1.0424997 0.09974456 0.23936863
000030 8d f4 81 3e 31 53 26 3d 4f 16 8d 3d f3 e1 2c 3c
       0.2538189 0.04060668 0.06889021 0.010551917
000040 c4 26 4b 3e 75 27 77 3e 69 5b 07 bf a8 bf 29 3e
       0.19839007 0.24136145 -0.52873856 0.16577017
000050 ed 87 d1 3e 64 2a 05 3e 4c 09 aa bc 2c 1f 1b 3e
       0.40924016 0.13004452 -0.020756386 0.1514861
000060 28 27 b9 3e 3e 13 d9 bd 2b ed a0 3e 9f 03 b4 3d
       0.36162686 -0.10599373 0.31430945 0.08789753
000070 0d 65 91 be 35 c8 83 3e 78 e8 18 3c 9e 51 58 3e
       -0.28397408 0.25738683 0.009332769 0.21124884
000080 89 f6 33 3e 41 d2 83 bd 55 ff fd bc 05 75 78 3d
       0.17574514 -0.06436587 -0.03100554 0.060658474
000090 64 2a 27 3d f1 0a df 3d 68 0c 29 3e 78 08 7b 3d
       0.04081191 0.10890759 0.16508639 0.061287373
0000a0 fa f3 7e bd 9d 73 93 bd b9 08 33 bd 3b 63 58 3e
       -0.062244393 -0.07199786 -0.04370949 0.21131603
0000b0 7e 6d 96 3e d8 21 ba be e1 f2 62 3e 5d 9b b4 3c
       0.2938041 -0.36353946 0.22162963 0.02204674
0000c0 69 8b 9c bd 86 5b 24 3e 06 28 bc bd 21 a7 94 ba
       -0.07643778 0.16050538 -0.09187321 -0.0011341312
0000d0 36 89 17 be d7 03 1c 3e 8a 78 e4 be a9 50 0d 3e
       -0.14798436 0.1523584 -0.44623214 0.138003
0000e0 23 03 3d bf 55 60 8f bd c6 8f b7 3d 91 59 4c be
       -0.7383291 -0.07000796 0.089629695 -0.19956042
0000f0 18 f6 ae bd 0c 93 25 3e 8a 36 a7 3d 8b 39 07 bd
       -0.085430324 0.16169375 0.081646994 -0.03301386
000100 24 69 35 3d 26 dc a3 be d3 b2 fe bb 65 fa ef bd
       0.044289723 -0.32003897 -0.0077727824 -0.11717681
000110 7b a4 29 bf 25 c0 83 bd b6 c5 64 be 49 8e ac bd
       -0.662666 -0.06433133 -0.22341046 -0.08425576
000120 b8 f8 20 bd c1 2f 2c be dc 58 50 bd c1 5b 9b 3e
       -0.039299697 -0.16815092 -0.050865993 0.3034344
000130 0f de 0a be 90 e5 a5 3d 10 f6 93 be e0 06 2a 3e
       -0.13561271 0.08100426 -0.28898668 0.16604185
000140 77 8b b5 bf e5 1d f9 3d 74 56 34 3d 71 09 32 3e
       -1.4183186 0.12163905 0.04402776 0.17386414
000150 e3 ed 8a 3e 12 ce b0 bd 53 5a 84 be 87 e2 65 bd
       0.27134618 -0.08633055 -0.25850162 -0.056124236
000160 92 7a 81 be a3 3e 9b 3e 2b 94 92 bd a8 c8 0b be
       -0.25288826 0.30321226 -0.07157167 -0.13650763
000170 ef 92 c3 bd 7c 63 44 bd e0 12 46 3c 3a 1e 93 3d
       -0.0954951 -0.04794644 0.012089461 0.071835
000180 28 fb 97 bd d4 03 93 bf 0f 1c 21 3e 11 b8 3c be
       -0.07420951 -1.1485543 0.1573336 -0.18429591
000190 f2 23 43 3e fd 6d ee 3d b2 d6 4d 3e 8b 33 80 bd
       0.19056681 0.11642072 0.20101431 -0.06259831
0001a0 e6 b8 47 bd 8c 90 85 3d 6d 28 c8 3d 7c 27 f5 bd
       -0.048760317 0.06521711 0.097733356 -0.11970422
0001b0 2b 6a 6c be d9 e9 c3 be f3 e7 88 bc f5 93 b5 bd
       -0.23087375 -0.3826435 -0.016712165 -0.08866111
0001c0 87 19 2e 3e 83 62 bd bd 59 03 b8 3c cc ba 4a be
       0.17001925 -0.09247305 0.022462534 -0.1979782
0001d0 59 3c 22 bd 62 7c 9d 3e 82 e8 69 be c9 3a 30 3d
       -0.039608333 0.3075896 -0.22842601 0.043024812
0001e0 f0 0b 68 3d a7 0f 66 3d 55 1f 3a 3d 55 42 03 3e
       0.05665201 0.05616727 0.045440037 0.12818272
0001f0 06 72 8c be 6c 00 a3 3e fa 7e 5c be eb d9 98 3e
       -0.27430743 0.3183626 -0.21532813 0.29853758
000200 1d 7c c8 be 31 bb e2 3a 0c 76 fd bd f6 59 69 bd
       -0.3915719 0.0017298219 -0.12376031 -0.05697056
000210 03 8b c7 3e 87 24 6f be 3f 1c 6d 3e 01 98 91 be
       0.38973245 -0.23353778 0.23155306 -0.28436282
000220 26 ba 1f bf 09 da 65 bf d4 4b c9 3d b1 94 78 3e
       -0.62393415 -0.8978582 0.09828916 0.24275471
000230 98 f5 f4 bd 0d 82 a8 bd 2c e5 a3 3e 3a 38 17 be
       -0.11960906 -0.0822793 0.32010782 -0.14767542
000240 18 f7 b6 bb 84 17 23 be b9 61 c2 be ed 3d 8b bc
       -0.005583655 -0.15926939 -0.3796518 -0.016997302
000250 43 c3 1e 3e 25 9d ab 3d e9 12 20 be e2 3e 8c 3d
       0.15504174 0.08379582 -0.15632214 0.068479314
000260 64 7c 1e 3d ab cc cc bd dd cd 18 3e 83 a2 4f be
       0.038692847 -0.09999975 0.1492228 -0.20276837
000270 44 54 92 be b9 fe 83 3d 12 e3 22 3d 3a 4c 1f 3e
       -0.28579915 0.06445069 0.039767332 0.15556422
000280 5d 50 7a ba 9a 08 69 3c cc 8c 66 3e 06 5e 88 3e
       -0.0009548718 0.014223242 0.22514647 0.26634234
000290 1a 89 01 3e de 27 3c 3d 33 86 71 bc 87 64 f5 3d
       0.12649956 0.045936458 -0.014741468 0.11982065
0002a0 f1 31 a2 bd 31 5f bd 3d 41 8b 20 3e 4b 65 94 bd
       -0.07919682 0.09246672 0.15678121 -0.072458826
0002b0 66 41 b6 bc 33 87 87 be 30 d6 9f 3e c5 cc 45 3e
       -0.022247981 -0.26470336 0.312181 0.19316395
0002c0 40 42 9c bd cd 3f 55 3e 08 01 b0 3c bb 9b 68 3e
       -0.07629824 0.2082512 0.021484867 0.22715656
0002d0 02 6e 05 3e dd b5 3f 3e e2 d7 49 be 2d be 3c 3d
       0.13030246 0.18721719 -0.19711259 0.046079803
0002e0 0d 66 27 bf 8d 46 6e bd 65 87 7c 3d 34 0e d0 bd
       -0.6539009 -0.05817275 0.06165256 -0.10158959
0002f0 dd 79 f1 3d 82 26 ad 3d a1 67 48 bd 82 82 1a 3d
       0.11790822 0.084546104 -0.048926953 0.03772212
000300 7b 7b 2f 3e 4e a0 35 3e 98 f2 8d be 31 f6 7f bd
       0.17136948 0.17736933 -0.27724147 -0.062490646
000310 1c a9 4a bf b3 5f 60 be e7 b6 4f 3e c6 b7 08 bd
       -0.7916429 -0.21911506 0.20284615 -0.033378385
000320 c9 a9 8d bd 16 10 cb 3d 24 f9 38 3d 42 42 2f 3d
       -0.069171496 0.099151775 0.045159474 0.042787798
000330 b1 98 37 bd bc 22 b0 3e e1 ff ce bd b0 03 af 3e
       -0.044823352 0.344015 -0.10107399 0.341825
000340 f1 c7 85 bf 92 ff 0f 3e 72 72 df 3c ec 02 d7 3d
       -1.0451642 0.14062336 0.027276251 0.10498604
000350 a4 fb 95 3c 4f 9c cd be 6e 9c 2a be a9 85 9c 3d
       0.018308468 -0.40158316 -0.16661236 0.07642681
000360 f2 27 45 bf 81 08 c3 3d 1f b8 85 be 06 57 10 be
       -0.77014077 0.09523106 -0.26117036 -0.14095697
000370 11 65 2e be a6 1f e4 bd bb 1b 52 bd 0b 2a 85 3e
       -0.17030741 -0.11138849 -0.051295977 0.2600864
000380 66 1a bc 3d 11 54 2d bf 33 13 4b 3e b4 f7 b3 3e
       0.091847226 -0.677064 0.19831543 0.3514992
000390 d0 c1 8a 3e 2d 70 03 3e 24 42 b4 3d 22 e8 a6 3e
       0.27100992 0.1283576 0.08801678 0.32598978
0003a0 48 04 d9 bd d6 f3 ec bd 97 05 e7 3c bb 2c 8f be
       -0.1059652 -0.115699455 0.028200908 -0.27963814
0003b0 85 b5 f8 bd c7 08 ce be 27 74 be bd 3d ab 99 3c
       -0.12143997 -0.40241072 -0.09299498 0.01875841
0003c0 dd 69 c3 bc 5c 67 dd be 16 6c b0 be 54 2f 82 bd
       -0.02385419 -0.4324292 -0.34457463 -0.063566834
0003d0 23 f3 87 bd be b0 2c 3e da 6c 4b be e8 8a b8 3d
       -0.066381715 0.16864297 -0.19865742 0.09010869
0003e0 90 0d e8 bd 9c 87 91 3d 40 49 ca 3d c6 b8 92 3e
       -0.11330712 0.071059436 0.098772526 0.28656596
0003f0 79 93 fa be 1c ef 4d 3e 5a e3 eb bd 7b d5 97 3e
       -0.48940638 0.20110744 -0.11517973 0.2965506

fc2.bias f4 [128]
000000 7d e4 27 3e f3 d5 1b 3e 33 e7 47 bb d8 e5 f2 bd
       0.16395755 0.15218334 -0.0030502796 -0.118602455
000010 d3 22 f0 3d 39 69 9d 3d 82 a5 a4 bd ba 18 1c 3e
       0.11725392 0.07686085 -0.080393806 0.15243807
000020 05 6b 1a bd ef ee d8 3d 17 5e e9 3d 85 f4 09 3e
       -0.037699718 0.10592448 0.11394899 0.13472183
000030 da 57 f2 3d fc bb 16 3e 32 74 19 3e 1b 87 00 3e
       0.118331626 0.14720148 0.14985731 0.12551539
000040 60 99 12 bc 36 ef 0a 3e a1 dc b9 3d 6e 49 eb 3d
       -0.0089477 0.13567814 0.09075285 0.11488615
000050 8f 83 e1 bd 53 39 3c bd 59 a6 aa 3d 76 8c c9 bd
       -0.11011421 -0.045953106 0.083325095 -0.09841244
000060 42 d1 d0 3d e5 8b 1a 3e 31 33 a5 3d 9e 6e de 3d
       0.10196163 0.15092428 0.080664046 0.10860942
000070 36 44 cb 3d 6c 9f 5f 3d 18 16 dc 3c 2b 0b 6e 3d
       0.099251196 0.054595396 0.026866004 0.05811612
000080 ab 85 09 3e e3 1e 1d 3e 1a 9c 1d 3d a3 5c 45 bd
       0.13429897 0.15343814 0.03847895 -0.04818405
000090 4d dd fd 3c d5 20 94 3d c1 b5 8a 3d d9 e8 a3 3d
       0.030989313 0.07232825 0.06772948 0.080033965
0000a0 45 8e b2 bb 26 dd e6 3d 6b 68 0c 3e ec e0 bc 3d
       -0.0054490888 0.112726495 0.13711707 0.09222588
0000b0 7a 74 76 bd 1d c8 22 3e 2f ac 06 3e 71 90 a6 3d
       -0.060169674 0.1589665 0.1315162 0.08133019
0000c0 d5 81 f8 3d e4 01 17 3e 72 b8 cc 3d 8b 57 d2 3c
       0.121341385 0.14746815 0.09996118 0.02567651
0000d0 d8 39 e1 3d e8 db 4c bd 72 43 8a 3d d6 df 2c bc
       0.10997361 -0.050014406 0.067511454 -0.0105514135
0000e0 09 86 03 3e eb 83 13 3e 36 68 39 bb eb 04 39 3d
       0.12844099 0.14405791 -0.0028290874 0.045170706
0000f0 be a3 0d bd bc ee b7 3d ff 02 51 3e e3 94 e8 3d
       -0.034579985 0.08981082 0.20411299 0.11356523
000100 cc 5f 7e bd 9a 63 14 bc 94 d5 69 bc c0 9a 00 bd
       -0.062103078 -0.00905695 -0.014272112 -0.03139758
000110 b5 d2 a2 bd df cc ea 37 ec 08 5b 3d 2d 83 8e bb
       -0.079503454 2.7990374e-05 0.053475305 -0.0043491335
000120 fc 57 19 3e 2f b8 d1 3d e7 2e ed 3d 16 7a 1f 3e
       0.1497497 0.10240208 0.115812115 0.15573916
000130 f9 58 a7 bd 8b cd b8 bc 26 32 aa bd 00 00 00 00
       -0.08171267 -0.022558948 -0.08310346 0.0
000140 3a 22 06 3e c2 12 16 3e 45 a5 02 3e af 00 68 3d
       0.13098994 0.14655593 0.12758358 0.056641277
000150 55 67 04 bc 15 a6 75 3d 56 0e 16 3e fa 25 b2 3d
       -0.008081277 0.05997284 0.14653906 0.0869865
000160 99 30 dd 3d 12 dd 2c 3e 65 52 f8 3d e8 dc fb 3d
       0.10800285 0.16881207 0.121250905 0.12297994
000170 26 24 fb 3d 56 dc 19 3e fb e0 95 3d b2 00 a0 bc
       0.12262754 0.15025458 0.07318302 -0.019531582
000180 ee d3 13 3e 27 e1 88 3d fd e3 96 3d 37 34 42 bd
       0.14436314 0.066835694 0.07367704 -0.047413077
000190 2e f7 d3 3d bc b5 f7 3d 16 33 22 3e 18 fd bd bd
       0.1034988 0.1209521 0.158398 -0.092767894
0001a0 00 7f b6 3d df 55 92 bd 18 2b 1e 3e 3b 5b 32 bc
       0.08910942 -0.07145285 0.15446126 -0.010886009
0001b0 6a 87 96 bd 2d 9c bb bd 50 4e 95 3d bd 84 ba bd
       -0.07350047 -0.091606475 0.072903275 -0.09107349
0001c0 fd 79 cd 3d 71 71 da 3d 5b ef 50 3d 71 21 de 3d
       0.10033033 0.106661685 0.051009517 0.10846222
0001d0 04 42 04 bd 00 00 00 00 60 19 18 3e 94 92 8e 3d
       -0.03228952 0.0 0.1485343 0.06961551
0001e0 2f bf 4a bd 22 91 36 3e e3 a8 bd 3d 6b fc d0 3d
       -0.049498733 0.17828801 0.09260728 0.10204395
0001f0 04 93 0a 3e fa fe ce 3d ee 70 85 bd dc 86 d2 bd
       0.13532645 0.10107227 -0.0651568 -0.10279629

fc3.weight f4 [2, 128]
000000 73 c1 a7 3e 89 7f f2 3e c9 be 9d be 82 50 e2 bd
       0.32764778 0.47362927 -0.3080962 -0.11050512
000010 fc a7 29 bd 93 ee 6f 3d d2 a0 1e bf e4 94 06 3f
       -0.041419968 0.05857713 -0.6196414 0.5257094
000020 da 1c f4 bd db a0 89 3e 5b 90 a1 3e 5d e7 e0 3e
       -0.119195655 0.26880535 0.31555447 0.43926516
000030 a8 ab 9c 3e a0 e4 10 3f ea ba a2 3e 44 c8 b5 3e
       0.30599713 0.56598854 0.3178323 0.35504353
000040 47 76 1e be 6f 15 ab 3e 13 93 69 bf ab 11 60 3e
       -0.15474807 0.3341479 -0.9124004 0.2188174
000050 1b f9 30 bf d1 5f 13 3d 98 7e 09 3e 09 87 be be
       -0.69130105 0.03598005 0.13427198 -0.372124
000060 dc 23 e1 3d c3 af 22 3e d4 54 e8 3d f7 42 93 3e
       0.10993168 0.1588736 0.11344305 0.28762028
000070 b8 28 9f 3e 71 83 dd be 7c 00 05 bf d2 a6 7c 3e
       0.31085753 -0.43264344 -0.51953864 0.24673012
000080 ba cf 07 3e cb d9 10 3f 87 2c 95 be e7 3c 03 3e
       0.13262835 0.56582326 -0.29135534 0.12816201
000090 db 9a 70 be ce 6e a4 3d d1 ff 2e 3e dc 20 b0 3d
       -0.23496573 0.08028947 0.17089774 0.086000174
0000a0 af a9 7b bd 85 e5 c6 3c 23 4f c4 3e d5 4e 7f 3e
       -0.06144112 0.024279365 0.38341627 0.24932416
0000b0 90 e9 39 be 0e d1 03 bc d8 62 9c 3e 73 2d 06 3e
       -0.18155503 -0.008045448 0.30544162 0.13103275
0000c0 6a 4f 93 3e e9 7b 0c 3e b5 3b 94 3e 43 a5 c7 be
       0.28771526 0.13719143 0.28951803 -0.38993272
0000d0 05 3f 88 3e 28 16 08 bf 2c 4d 65 3d 96 96 fc bd
       0.2661058 -0.5315881 0.0559818 -0.123334095
0000e0 62 e8 b5 3e 54 df f2 3e 0f c8 d9 be f7 55 3d bf
       0.35528857 0.4743601 -0.42535445 -0.73959297
0000f0 33 76 ee be 4d 08 ef 3d 8e 10 09 3f 04 a4 a6 3e
       -0.46574554 0.11671505 0.53540885 0.3254701
000100 65 94 20 bf 65 a1 82 3e df 70 84 bc d0 c5 0f bf
       -0.6272643 0.2551376 -0.016167102 -0.5616121
000110 0b 3a 57 bf fc 2d 34 bf 7b f4 0c bf 4b 93 85 3d
       -0.8407294 -0.70382667 -0.5506055 0.065222345
000120 4d ea b8 3e ab 0a 5a 3c e3 03 ca 3e 92 1a 05 be
       0.36116257 0.0133082075 0.3945609 -0.12998417
000130 f1 8d df bd b2 4c 5c bd ba 75 74 bf ab fe c3 3d
       -0.10915745 -0.05378408 -0.95492136 0.095700584
000140 9e f7 c7 3e 29 54 6b 3e cb d9 c6 3e f3 2b 36 ba
       0.39056104 0.22981323 0.38838038 -0.0006949298
000150 2c 42 4c be 23 76 35 3d 42 70 78 3e a1 3d 4c 3e
       -0.19947118 0.044302117 0.24261573 0.19945385
000160 7d 0c 9f 3e b3 46 01 3f d3 c8 86 3e 8c d7 9d 3e
       0.31064215 0.50498503 0.26325092 0.30828512
000170 57 3f d6 3e dc 1b ac 3e 64 4e ed 3d d0 80 6a bf
       0.418452 0.33615005 0.115872175 -0.916028
000180 e4 8e 8a 3e f0 da 89 3c 2f 0b 48 3e 09 c3 8b bf
       0.27062142 0.01682803 0.19535516 -1.0918895
000190 76 e0 87 3e 4a 07 b3 3e 8b b1 04 3f 03 54 a1 be
       0.26538438 0.349665 0.5183341 -0.31509408
0001a0 38 af 74 3d d7 16 81 bf 9a f6 0b 3f a3 17 70 bf
       0.059737414 -1.0085095 0.5467316 -0.93786067
0001b0 c7 e8 62 be df bd e6 3c 68 b6 3f 3d 87 2e fc be
       -0.2215911 0.02816671 0.046804816 -0.49254248
0001c0 3c aa 5c 3e 7c f4 8d 3e af d3 b0 3e e3 81 7d 3e
       0.21549314 0.2772559 0.34536502 0.24756579
0001d0 02 e6 d4 3d 82 86 97 bd f4 9f e9 3e eb b0 96 3d
       0.10395433 -0.07398702 0.45629847 0.07357963
0001e0 75 bd a1 bd f1 9d f0 3e f7 08 aa 3d 6c b0 7e 3e
       -0.07897464 0.469955 0.08302491 0.24871987
0001f0 60 0e c4 3e 6c 7e 49 3e cf bb 53 be c6 ea b1 be
       0.38292217 0.19677132 -0.20677112 -0.3474943
000200 07 67 70 3e 8a 32 19 3e 4a 20 ae 3e 60 5f 47 bf
       0.23476802 0.14960685 0.3400901 -0.77879906
000210 ed e6 b8 3e fc 4f 6b 3e f2 49 0f bf 52 0f 42 3e
       0.36113682 0.2297973 -0.55972207 0.18951157
000220 7b f2 dc 3d 3e e8 78 3d 9f 8e 8b 3e ef 1c 4c 3e
       0.10788437 0.06076836 0.2725725 0.19932912
000230 0f cb ae 3e 11 54 cd 3e 24 f3 87 3d bf 2f b1 3e
       0.34139296 0.401032 0.06638172 0.3460674
000240 13 09 cb bd 6d 58 48 3e 88 71 aa bd 54 89 17 3e
       -0.0991384 0.19564982 -0.083224356 0.1479848
000250 26 69 2d 3d f0 6b 2d be 7c 5a 59 3e bc 04 40 bf
       0.042336605 -0.16935706 0.21225923 -0.75007224
000260 04 70 fb 3d f2 c2 a0 3e 29 72 5d 3e a5 d6 5d 3e
       0.12277225 0.3139873 0.2162558 0.21663912
000270 a9 27 57 3e b0 d1 5f bd 12 48 e7 3d 68 2b 21 be
       0.21011223 -0.054643333 0.11293043 -0.15739214
000280 d1 21 ac 3e 14 e2 9f 3e a0 9c c2 3d 80 8b 0a bf
       0.3361955 0.3122717 0.0950253 -0.5411911
000290 05 4a a9 be f4 87 d2 3d 1d 5d 7a 3e be bb 0a 3e
       -0.33064285 0.10279837 0.24449582 0.1354818
0002a0 a7 06 e3 bd f3 a5 fb 3e 56 fc a1 3e 90 4f 71 3e
       -0.11085253 0.49150047 0.3163783 0.23565507
0002b0 40 25 fd be 21 51 00 3f 0c 41 0f 3e ca d7 84 3e
       -0.49442482 0.5012379 0.13989657 0.25945884
0002c0 46 38 ea 3e 07 10 0c 3f 70 5a 37 bd 62 13 16 bc
       0.45746058 0.54711956 -0.044763982 -0.009159895
0002d0 f8 ec b8 3e 77 56 07 bf 71 6c a0 3e 31 76 bc bb
       0.36118293 -0.5286631 0.31332734 -0.005751394
0002e0 33 5f 20 3e 5b 2a ff 3e a9 d6 ce be 40 09 1f be
       0.15661316 0.49837002 -0.40398148 -0.15530872
0002f0 07 ed 21 bf 72 ef 0d 3e 1c e9 43 3e 2a b4 15 bd
       -0.632523 0.13860872 0.19131893 -0.03654877
000300 3a 09 5d 3f 43 38 c7 be 82 d1 78 be 0b d4 45 bf
       0.86342204 -0.38910112 -0.24298671 -0.77276677
000310 b1 17 ff be 92 24 7b bf 8c 17 4f 3e 30 01 92 bd
       -0.49822763 -0.98102677 0.20223826 -0.07129133
000320 56 d9 c9 3e 40 04 ed 3e 0a 17 be bb a1 77 eb 3e
       0.39423627 0.46292305 -0.0058010863 0.45989707
000330 02 9a e9 be d5 1e 79 3d 21 05 66 bf 40 5f 3a bb
       -0.4562531 0.06082042 -0.89851576 -0.002843812
000340 45 9c 9f 3e 3b ec f0 3e 4f 3f a7 3e 32 97 13 3e
       0.31173912 0.4705523 0.32665488 0.14413145
000350 35 71 77 be 93 e3 57 be 57 35 5c 3d 08 31 2b 3e
       -0.24164279 -0.21082906 0.053761806 0.16717923
000360 07 c1 1f 3d 5d eb ab 3e 81 ea 6d 3e f2 73 80 3e
       0.039002445 0.33578005 0.23233987 0.2508846
000370 0e 2a d0 3e 42 e4 82 3d 18 89 c2 3e dc db 49 bf
       0.40657085 0.06391193 0.3799522 -0.78851104
000380 f6 39 f1 3d b1 03 c0 3e 95 7b c5 bd df ad 65 be
       0.11778633 0.37502816 -0.09642712 -0.22429608
000390 a5 51 00 3e 8b 47 11 3d cc 32 a0 3e bd cc cf be
       0.12531145 0.03546862 0.31288755 -0.4058589
0003a0 81 c6 5f 3e 0d 42 61 be eb a4 1b 3e 58 47 d4 be
       0.21853067 -0.21997853 0.1519963 -0.4146068
0003b0 6b e0 9d bd 6a 6e b4 be bc 49 44 3e 62 c6 93 be
       -0.0770882 -0.3524049 0.19168752 -0.28862292
0003c0 01 9f 37 3e 33 b6 07 bd eb c1 6a bf 46 ec 02 3e
       0.17931749 -0.033132743 -0.91702145 0.12785444
0003d0 f7 fc 41 bf 17 1f 91 3d 28 19 b9 3e ec ee 87 3e
       -0.7577662 0.07086008 0.36152005 0.2654947
0003e0 ef 72 ee be cc d3 b0 3e 81 02 85 3e 2e 71 ab 3d
       -0.46572062 0.34536588 0.25978473 0.08371197
0003f0 ee 8d 8c 3e b2 d0 16 3e 1c 9e 2c 3f 69 4d 42 bd
       0.27452034 0.14728048 0.67428756 -0.047437105

fc3.bias f4 [2]
000000 b0 6f da 3d c2 97 83 3d
       0.10665834 0.0642543

fc1.weight f4 [128, 4]
000000 b3 ae ce bc 73 d8 55 3c 3d 8a 9b be 4a 04 48 be
       -0.025229787 0.013052094 -0.30378905 -0.19532886
000010 8a 6c 38 be fd c5 45 be b6 35 c3 bd 60 d2 b1 bc
       -0.18010154 -0.19313808 -0.09531729 -0.02170676
000020 bc d7 46 be b8 de a2 bd b3 8a 22 3e 38 af ae 3b
       -0.19418234 -0.079526365 0.15873222 0.0053309463
000030 38 af 45 bd 0d a9 b0 3d 40 d5 b1 be 5f 7a 36 be
       -0.048262805 0.08625994 -0.3473301 -0.17820118
000040 f8 1b 17 3d 3f a3 5d bd db e8 8f 3e fd ab 83 bd
       0.036891907 -0.05411076 0.28107342 -0.064292885
000050 29 3b 57 bd 8a c1 94 3d 20 f3 2f 3f 3c 96 3f 3d
       -0.052546654 0.07263477 0.68730354 0.046774134
000060 74 0a 86 3d e0 f5 03 be a1 97 a2 be 3c fe 2f 3e
       0.065449625 -0.12886763 -0.3175631 0.17186826
000070 4c 6c 70 be df 37 14 3e 8f ff c4 3e bf 06 65 3e
       -0.23478812 0.14474438 0.38476226 0.22365855
000080 4d 2b f1 3c 48 0f 8a 3b 6b c3 26 3f 2d 76 c4 3d
       0.029439593 0.0042132474 0.65141934 0.09592853
000090 82 a7 d9 3c ab 59 0f be 72 fd ae be 66 06 cd bd
       0.026569132 -0.1399905 -0.34177738 -0.10010986
0000a0 2b 8f 09 3e 79 de 83 be 86 92 bc bd 3e d3 b2 bd
       0.1343352 -0.2575567 -0.09207635 -0.087316975
0000b0 c9 45 93 3d cb bd 4b be 5a e0 ec bd c9 6d 6e bd
       0.07191045 -0.19896619 -0.11566229 -0.058210168
0000c0 d0 4a cb 3e d8 b1 51 3c fa 6c 98 bf f7 bf 2e be
       0.39705515 0.012798749 -1.1908257 -0.17065416
0000d0 c7 f8 67 be df 45 04 bd e8 45 4d be 00 9b 0a 3d
       -0.22653495 -0.032293197 -0.20046198 0.033839226
0000e0 d6 98 4f 3e 81 5e fa 3d 80 2e a4 3e ee 81 77 3d
       0.20273146 0.122250564 0.32066727 0.060426645
0000f0 0e fe 58 3e a4 5d 0d bd e0 93 14 3f 4e e2 82 3e
       0.21190664 -0.03451313 0.5803814 0.25563282
000100 00 85 87 3d 9d d6 8e bd 25 b2 9c 3e ec b5 1c bd
       0.066171646 -0.06974528 0.30604663 -0.03825943
000110 ed 8d 38 3e 2a 1f 4d 3c 09 83 85 be 3e d2 38 3d
       0.1802289 0.012519637 -0.26076534 0.045122378
000120 0c d2 f0 bd ee 2e af 3d c3 af 74 bf c2 2d 7f bd
       -0.11758813 0.08553873 -0.9558069 -0.062299497
000130 b0 cf 9a 3d a7 24 5b be 1b e1 0c be d0 2a 9a 3d
       0.075591445 -0.214007 -0.13757746 0.07527697
000140 02 e8 d8 bd 72 52 97 3d 4a a8 69 3e 9e d8 0f 3e
       -0.10591127 0.07388772 0.22818103 0.14047477
000150 09 3b a9 3d de 95 e7 bb 1f d4 38 bf 0f 5d 92 3d
       0.08263213 -0.007067426 -0.7219867 0.07146656
000160 02 76 03 be 79 04 07 bd 90 e5 b0 3e a2 af 97 3d
       -0.12837985 -0.03296325 0.34550142 0.07406546
000170 25 56 72 3e 51 7c e6 bc 2d ba 4e be 31 29 56 3d
       0.23665674 -0.02813545 -0.20188208 0.052285377
000180 d9 1d c2 3d bc 4c 4a be 86 6f 51 bb 4e 38 d2 bd
       0.09478349 -0.19755834 -0.0031957342 -0.102646455
000190 0f 76 bc bd 6b 8e 8b bd 7a 83 98 3e 3a ae eb 3c
       -0.092022054 -0.068142734 0.2978781 0.028769601
0001a0 ec 2c 8d bd ee 4a 0e 3d bd b1 1b 3f 6a 93 9c 3d
       -0.06893334 0.034739427 0.6081808 0.076453045
0001b0 87 49 d1 3e 0d 0c 38 bd be 1d f5 bd 25 37 af 3d
       0.4087641 -0.044933368 -0.119685635 0.0855544
0001c0 27 df 06 be eb c2 7a 3d 9c 2e 4a bf 37 f2 9d be
       -0.13171063 0.061221045 -0.7897737 -0.30848858
0001d0 a6 89 7d bd 8d 34 83 3d 65 cf 20 3f e4 44 32 bd
       -0.06189885 0.06406508 0.6281646 -0.04352273
0001e0 86 05 ca bd 95 ee 9b bd e5 eb 76 3e 5f 56 51 be
       -0.09864335 -0.07613865 0.24113424 -0.20443104
0001f0 2c 80 35 bd e0 2d 1d bc 1b 1b 1f 3f 54 c5 6a be
       -0.044311687 -0.009593457 0.62150735 -0.22926837
000200 0c a6 80 bc 9a 19 34 3e 5d 7a 10 3f 2a 68 de 3d
       -0.015704177 0.17587891 0.5643671 0.108597115
000210 b1 66 55 3d f2 3b aa bd 8c 9e 62 3e c2 d3 64 3e
       0.052099887 -0.08312215 0.22130793 0.22346404
000220 27 11 74 3e 59 3f f5 bc 0e af bd be c5 51 b2 3b
       0.23834668 -0.029937433 -0.3704762 0.0054418766
000230 7b a1 1e 3e f5 f3 63 be f0 89 c0 be 0a 3c 79 bc
       0.15491287 -0.22261031 -0.37605238 -0.015212068
000240 d5 e9 0a be 33 7b 1f be 92 dd da bc 1c 95 0b 3e
       -0.13565762 -0.1557434 -0.026716981 0.136311
000250 9e 56 21 3d d9 79 e1 bd d3 69 3d be 5c 55 5a be
       0.039389245 -0.11009569 -0.184974 -0.21321625
000260 7a 47 e5 bd bd 2d b9 bd 7d 65 18 bd 61 f8 48 3d
       -0.11195274 -0.09041927 -0.03720616 0.049064998
000270 50 b9 f4 3d a6 03 ab 3d 15 ad 8d bd cc 47 a6 3b
       0.11949408 0.08350305 -0.069177784 0.005074477
000280 b8 1a 41 3d e1 58 9b bd 47 a7 59 bf 01 6e 9b be
       0.04714462 -0.07585312 -0.8502087 -0.30357364
000290 b1 c4 e9 bd 4f 1d 28 3d 2f b7 95 3e 0f 08 68 bd
       -0.11414469 0.041043576 0.2924132 -0.05664831
0002a0 6c 3a b7 3d 01 0b db 3d 6f af 24 3e 22 c5 99 3d
       0.0894669 0.10695458 0.16082548 0.07508303
0002b0 4c 22 4a be cb 2f b0 3c 0c c1 12 3e b9 7f 09 3e
       -0.19739646 0.021507164 0.14331454 0.13427629
0002c0 12 53 ce 3d d0 d0 a5 bd f3 66 50 3e f6 35 61 bd
       0.10074438 -0.080964684 0.20351772 -0.0549831
0002d0 74 2f 9b 3d f8 76 ad 3d d8 72 e5 be 8d ac c3 bd
       0.0757741 0.08469957 -0.4481418 -0.09554396
0002e0 ea b9 0d bd 21 7a e6 3d 82 86 9f 3e bd 16 95 bd
       -0.03460113 0.11253763 0.3115731 -0.072797276
0002f0 93 3c 6e 3e c2 51 c9 3b a2 b7 d0 3e af 91 67 bd
       0.23265295 0.0061437795 0.407651 -0.05653542
000300 ce 9f 3a be 33 5f dc 3d 84 3e ba 3e bd 4a 12 3e
       -0.18225023 0.10760345 0.3637582 0.14286323
000310 e2 88 87 3d ac fd 19 3e 00 e0 b2 3e 97 97 7b bd
       0.06617905 0.15038174 0.34936523 -0.061423864
000320 d7 4a e2 bc 8e 7e b0 bd 85 20 95 3e fa 01 1d be
       -0.027623577 -0.086178884 0.29126373 -0.15332785
000330 7b 7a 1a 3c 6e da 57 3d 35 4a 40 3e eb 6c ae bd
       0.009428616 0.052698545 0.18778308 -0.08516868
000340 f7 a1 18 be 3b a0 99 bd d3 b6 47 be c5 c8 aa bc
       -0.14905535 -0.07501265 -0.19503336 -0.020847687
000350 75 b6 74 bc c2 b5 ee bd d6 7c ac 3d 86 35 a1 bd
       -0.014936079 -0.11655761 0.08422248 -0.07871537
000360 ef a6 b6 3d 56 c7 b3 3d 11 80 b5 be 10 41 93 3c
       0.08918559 0.08778255 -0.3544927 0.01797536
000370 f3 89 4c be da d2 7e 3e bd b1 6e 3e 3d 63 4a 3d
       -0.19974498 0.24885121 0.2330999 0.049411047
000380 80 6e 7b be 7c 00 15 3e 1e ee 03 3f 13 d1 1e 3e
       -0.24553871 0.14550966 0.51535213 0.15509443
000390 e8 d7 6b bd d0 fc de 3c 62 c0 67 be 81 1a 62 3e
       -0.05757895 0.02722016 -0.22631982 0.22080423
0003a0 b8 51 23 be f9 27 3c bc 7f d4 88 be a0 64 a8 be
       -0.15949142 -0.01148414 -0.26724622 -0.3288927
0003b0 29 04 e4 bd cd 82 62 bd 71 72 2f 3f 26 5e b6 3d
       -0.11133606 -0.055300523 0.68534 0.08904676
0003c0 c2 7f 1a 3e 08 79 f3 bd 81 ea 10 bf 2b 40 47 3d
       0.15087798 -0.11888319 -0.56607825 0.04864518
0003d0 9a cf 1b be c3 55 96 3e 93 c2 e6 3e 96 0f c7 3d
       -0.15215912 0.29362306 0.45070323 0.0971977
0003e0 93 54 a4 3c e3 31 e1 bd cc dd 91 3d 65 f5 05 3e
       0.02005986 -0.10995843 0.071223825 0.13081892
0003f0 e2 18 ea 3d 13 d5 b7 bd 1e f1 81 bf bd df 8d be
       0.11430527 -0.089761876 -1.0151708 -0.2770976

fc1.bias f4 [128]
000000 ff 67 42 be 86 cc da 3d 39 45 1a 3e cb 26 39 be
       -0.18984984 0.10683541 0.15065469 -0.18081205
000010 2e 77 0f 3e 8d f7 dd 3b 22 0c 99 bc d7 71 c4 bd
       0.14010307 0.006773895 -0.018682543 -0.09592026
000020 15 95 ce bd 1f cd 81 be e3 61 4e 3d 7f a0 c1 3d
       -0.10087029 -0.25351807 0.05038632 0.0945444
000030 65 17 2b be 97 a3 2b be 32 12 0d 3e 01 8d 8a bd
       -0.16708143 -0.16761623 0.13776472 -0.067651756
000040 b4 7c 23 3e ca 44 aa 3d 53 a2 39 be 83 8b 48 3d
       0.15965539 0.08313902 -0.18128328 0.048961174
000050 bb e2 60 3e 7f 19 01 3e 08 38 e2 bd 25 0f dd 3c
       0.21961491 0.12607382 -0.11045843 0.02698476
000060 ab 0f 1c 3e ed 3c aa bd e8 4d 56 3e 7e f4 83 3d
       0.15240352 -0.08312402 0.20928156 0.064431176
000070 03 5e 3b be 1d d0 20 3e 33 6c e3 bd 7b d4 8d 3d
       -0.18297581 0.15704389 -0.11104622 0.06925293
000080 d1 da 00 3e 5a 31 5c bd 05 0b 1a 3e 97 fa 07 3e
       0.12583472 -0.053758003 0.15043266 0.13279186
000090 7e c5 b0 bd c0 07 84 3d 24 a2 0b 3e 3f cc c7 3d
       -0.08631419 0.06446791 0.1363607 0.09755754
0000a0 c9 47 86 be c0 50 05 3e ad b4 d5 3d 31 aa c7 3d
       -0.26226643 0.13019085 0.10434852 0.09749258
0000b0 cd ad 0b 3e b7 a1 50 be 94 2a 07 3e fb cb c9 3d
       0.13640518 -0.2037419 0.13199836 0.09853359
0000c0 36 5f 34 bd ef 18 4f 3d 7d d2 ed 3d e8 35 ee 3d
       -0.044036113 0.050560888 0.11612413 0.116313756
0000d0 28 96 d0 bd 6c 23 fb 3d 1d 84 6c be dd f4 02 3e
       -0.1018489 0.122626156 -0.23097272 0.1278872
0000e0 c2 24 d7 bd ae fa d7 3d 92 96 39 be 28 c5 2a be
       -0.10505058 0.1054586 -0.18123844 -0.16676772
0000f0 18 ca 58 3d e5 8c 9e 3c 1b 03 0c 3d 21 d6 03 be
       0.052927107 0.019354293 0.03418265 -0.12874652
000100 a1 64 03 3e f1 d7 3d 3e 95 db 83 bd 64 b8 b0 bd
       0.12831356 0.18539406 -0.06438366 -0.0862892
000110 b8 0a ea bd 83 3d 0b be 0a 77 92 3d 21 d1 0b be
       -0.11427826 -0.13597684 0.07151611 -0.13653995
000120 88 39 1f 3e 95 94 e1 3d b6 ca 2f bc 27 25 09 3e
       0.1554929 0.11014668 -0.010729482 0.13393079
000130 f4 97 78 3d 11 12 b1 3d b5 eb 3d be a5 e5 c0 3d
       0.06069179 0.08646024 -0.18546946 0.09418801
000140 6d a1 0a be b8 b1 ca 3d 8f 4e 4b 3c 0a 9b 1f 3e
       -0.13538142 0.098971784 0.012408867 0.15586486
000150 8d 38 e0 3d de d1 84 be 63 ef 52 be e9 b4 16 be
       0.10948286 -0.25941366 -0.20599131 -0.14717449
000160 20 6f d8 bd f4 0c ae 3d 98 94 11 be 10 62 2a 3c
       -0.105680704 0.08498564 -0.1421684 0.0103993565
000170 d7 1e fd 3d a9 ae 05 bd de 6c ae 3d 22 b8 1d 3e
       0.12359398 -0.032637272 0.085168585 0.15402272
000180 db 4e b8 3d 53 8e 2d be 35 fc 0a 3e 2e 4e b5 bd
       0.089994155 -0.16948824 0.13572772 -0.08852802
000190 6e fe 39 3e 98 13 14 be 19 38 eb 3d 08 13 e3 3d
       0.18163463 -0.144606 0.11485309 0.11087614
0001a0 c8 f7 57 be f8 06 c5 3c 6e f8 f5 bd 9a 91 9a bd
       -0.21090615 0.024051175 -0.12010275 -0.075473025
0001b0 99 ef 80 3d 01 1c 9f bd 23 00 35 3d dc e5 86 3d
       0.062956996 -0.07769013 0.044189584 0.06586811
0001c0 1e b6 ff 3d 9b e8 00 be 53 6c 55 bd 2f 74 e3 bd
       0.12485908 -0.12588732 -0.05210526 -0.11106145
0001d0 bf 1e 01 3e 7c e4 15 3e ed 67 44 be 5c 62 08 3e
       0.12609385 0.14637941 -0.1918027 0.13318771
0001e0 30 e6 db 3d e8 22 ad bc 24 40 bf bc b1 fe 04 3e
       0.10737264 -0.021134809 -0.023346014 0.12987782
0001f0 2b 49 49 be 26 5e 52 3e 22 04 d1 3d 1a 2a 05 3e
       -0.19656818 0.20543727 0.102058664 0.13004342

fc2.weight f4 [128, 128]
000000 85 8e 69 be 05 6c 00 bd 60 fa 0e 3e 6b 62 b1 bd
       -0.22808273 -0.031353015 0.13962698 -0.0866135
000010 2e 52 15 3e b1 fb f0 bd 40 4f 54 be ab e1 af bd
       0.1458213 -0.11766756 -0.20733356 -0.085879646
000020 63 3b c0 be 10 04 7b bf 9d b2 c1 3d 31 bd 6f 3e
       -0.37545308 -0.98053074 0.09457896 0.23412015
000030 cd a1 85 3e 4f ed 1c 3d 9e 1d 8d 3d 94 63 4a 3c
       0.26100007 0.038312253 0.06890415 0.012352843
000040 64 88 47 3e 70 f8 77 3e 43 f3 00 bf 5f 5e 29 3e
       0.19485623 0.24215865 -0.5037119 0.16539906
000050 a4 03 cf 3e 82 b9 00 3e 63 44 a3 bc 73 96 1d 3e
       0.40432465 0.12570766 -0.01993007 0.15389423
000060 87 8c b6 3e 53 d9 db bd f1 e1 9e 3e fb 6f b9 3d
       0.3565409 -0.10734811 0.31031755 0.09054562
000070 8b 0d 8f be 96 56 83 3e 57 59 46 3c d6 12 59 3e
       -0.2794002 0.25651997 0.012106261 0.21198592
000080 b1 c2 32 3e 1b 1f 87 bd f0 50 01 bd 67 32 66 3d
       0.17457081 -0.0659773 -0.03157133 0.05620041
000090 03 c3 23 3d e2 7b d7 3d a9 ca 24 3e 89 56 7e 3d
       0.0399809 0.10521676 0.16092934 0.062094245
0000a0 21 0f 42 bd 4c d1 97 bd 98 de 34 bd 11 85 55 3e
       -0.04737771 -0.07412967 -0.044157594 0.20851542
0000b0 9b e9 94 3e 60 95 a4 be 5f 93 62 3e 81 7f bd 3c
       0.29084477 -0.32145214 0.2212653 0.023132088
0000c0 c4 6c 87 bd 9e 8a 28 3e 50 fb c2 bd 0a ce d7 ba
       -0.06612542 0.16459128 -0.0952059 -0.0016464603
0000d0 09 c7 1b be a0 c4 17 3e 85 a7 d4 be 74 3c 0f 3e
       -0.15212645 0.148211 -0.41534057 0.13987905
0000e0 7c be 3a bf df 01 91 bd ce 51 bb 3d 48 52 49 be
       -0.72946906 -0.07080435 0.091464624 -0.19660294
0000f0 df 09 b3 bd 37 b1 2e 3e 5b 19 aa 3d 1b c0 00 bd
       -0.08742117 0.1705979 0.083056174 -0.031433206
000100 3f b1 23 3d cc 0a a6 be f6 ac e9 bb 3a 02 f4 bd
       0.039963957 -0.32430112 -0.0071312143 -0.11914487
000110 39 71 27 bf ad 4e 51 bd bf 70 6a be c2 7f 95 bd
       -0.6540714 -0.05110042 -0.22894572 -0.072997585
000120 9d 15 33 bd 51 33 2d be 91 9a 51 bd 92 f9 98 3e
       -0.043721784 -0.16914107 -0.051172797 0.29877907
000130 a2 03 0b be a5 41 a5 3d f6 2e 8a be 38 2f 29 3e
       -0.13575605 0.08069161 -0.26988953 0.16521919
000140 1b 8b af bf c4 1f fa 3d a7 51 3f 3d 95 0a 2f 3e
       -1.3714327 0.1221309 0.04670873 0.1709388
000150 43 a6 89 3e 81 bd a7 bd 26 4e 6c be 0c 21 6f bd
       0.2688466 -0.08190442 -0.23076686 -0.058381125
000160 62 22 7a be 62 5f 9b 3e 2b 6d 95 bd 43 9b 0a be
       -0.24427179 0.3034621 -0.07296213 -0.1353579
000170 34 db c5 bd 24 5d 42 bd 0e b5 76 3c 29 60 8c 3d
       -0.0966095 -0.047452107 0.015057815 0.068542786
000180 34 7a 98 bd b1 5a 8e bf 61 18 1d 3e 0d 41 3c be
       -0.074451834 -1.1121427 0.15341331 -0.1838419
000190 97 6b 42 3e 8c ad e8 3d a8 fe 4c 3e 70 b9 7c bd
       0.18986355 0.113612264 0.20019019 -0.061700284
0001a0 28 cb 4a bd db 2c 8c 3d 7f e3 c8 3d bf 1b f8 bd
       -0.04951015 0.06844493 0.098090164 -0.12114667
0001b0 ee 7d 6e be d4 c8 c1 be de f5 73 bc 48 70 be bd
       -0.23290226 -0.37848532 -0.014890162 -0.0929876
0001c0 f1 08 2b 3e d3 9f b6 bd 57 62 cd 3c 2f 95 4d be
       0.1670263 -0.08917203 0.025071306 -0.2007644
0001d0 04 68 28 bd bd b8 9b 3e f8 38 64 be 02 b2 19 3d
       -0.041114822 0.30414382 -0.22287357 0.037523277
0001e0 16 8d 60 3d aa 21 66 3d 10 c7 32 3d d0 17 00 3e
       0.05482205 0.05618445 0.043646872 0.12509084
0001f0 b2 59 78 be 33 3a a1 3e 17 4a 59 be 6a be 98 3e
       -0.24252966 0.31489715 -0.2121967 0.29832774
000200 ed b6 ba be da 0d 3e 3b 55 52 fd bd b6 c5 2a bd
       -0.36467686 0.0028999955 -0.12369219 -0.041692458
000210 48 33 c5 3e 03 0d 62 be 90 1d 67 3e f4 5b 81 be
       0.38515687 -0.22075276 0.22569871 -0.25265467
000220 63 16 10 bf 9d 1d 56 bf 41 0a c1 3d 32 5b 75 3e
       -0.5628416 -0.83638936 0.09425784 0.2396057
000230 e8 c4 ed bd 8c ea a2 bd 26 c3 a2 3e 57 23 13 be
       -0.116098225 -0.079548925 0.3178951 -0.1436895
000240 27 c8 2e bc 4e 84 25 be a3 62 b3 be 41 4a a2 bc
       -0.010667837 -0.16163751 -0.3503619 -0.019810798
000250 d4 5b 1a 3e 70 45 99 3d b5 36 1d be bf 60 8d 3d
       0.15074092 0.07483947 -0.153529 0.069032185
000260 8c 2e 0d 3d 75 ad c9 bd 58 40 15 3e 97 61 4e be
       0.03446822 -0.098475374 0.14575326 -0.20154415
000270 25 5a 8e be 3a c1 79 3d 2e 57 54 3d d9 e6 1d 3e
       -0.2780315 0.06097529 0.051840954 0.15420093
000280 4a aa ee ba b7 49 3d 3c f6 0a 62 3e ff 1b 86 3e
       -0.0018208709 0.0115532195 0.22074494 0.26193234
000290 c2 88 01 3e 0c ac 35 3d a5 44 7e bc 1d 14 ed 3d
       0.12649825 0.04435353 -0.015519296 0.11576102
0002a0 82 be 86 bd a1 8c ba 3d 48 3e 1e 3e 65 36 93 bd
       -0.06579305 0.09108854 0.15453446 -0.07188109
0002b0 7f da e4 bc 2f 67 73 be fe cc 9b 3e 8f 36 43 3e
       -0.027936218 -0.2376983 0.30429834 0.19063781
0002c0 30 58 34 bd 10 1e 51 3e 58 11 a5 3c a6 8e 61 3e
       -0.044029415 0.20421624 0.020149872 0.22027072
0002d0 8e 39 07 3e d9 92 3d 3e c3 24 34 be 2b 72 20 3d
       0.13205549 0.18513049 -0.17592148 0.03917138
0002e0 b8 52 1f bf ca 49 73 bd d4 c7 8d 3d 52 60 c0 bd
       -0.62235594 -0.059396543 0.0692288 -0.09393372
0002f0 36 ae e3 3d c2 73 ac 3d b9 d9 48 bd e8 0b 21 3d
       0.111172125 0.084205166 -0.04903576 0.039317995
000300 1a 69 2f 3e ef cf 31 3e d0 35 8b be a4 a7 71 bd
       0.17129937 0.17364477 -0.27189493 -0.058997765
000310 fe 50 42 bf 68 ee 57 be 29 53 4a 3e c9 50 0b bd
       -0.75904834 -0.21087039 0.19758286 -0.03401259
000320 fa c1 8f bd a7 aa c7 3d 0f e4 30 3d d9 3f 15 3d
       -0.0701942 0.09749346 0.043186244 0.036437843
000330 ac c9 3d bd 80 32 b0 3e b0 63 97 bd d3 4a ae 3e
       -0.046334907 0.34413528 -0.07392061 0.3404146
000340 d2 1a 7f bf f9 68 0e 3e e2 c2 d9 3c 2f e3 c5 3d
       -0.996503 0.13907231 0.026582185 0.096624725
000350 c2 eb 80 3c ed 4f cc be 64 ef 15 be 0f 4b 9d 3d
       0.015737418 -0.3990473 -0.14642102 0.07680332
000360 f6 7c 3c bf e2 5e c3 3d a6 c7 86 be 2f 58 12 be
       -0.73628175 0.09539582 -0.26324195 -0.14291452
000370 e9 33 35 be c1 5b e3 bd bd 8f 6d bd 63 a2 82 3e
       -0.17695583 -0.11101485 -0.057998408 0.25514516
000380 e2 91 ae 3d c0 86 26 bf 46 b9 49 3e 5a bc b2 3e
       0.08523919 -0.6504936 0.19699582 0.34909326
000390 4d 1d 87 3e e9 d9 05 3e 8a ea a5 3d 53 43 a4 3e
       0.26389542 0.13071407 0.081013754 0.32082614
0003a0 82 36 dc bd 4d fb ec bd 6e 38 12 3d a1 d6 95 be
       -0.10752584 -0.11571369 0.035698347 -0.2926531
0003b0 6a 67 f9 bd ba 44 cd be e4 e0 ba bd da 30 a1 3c
       -0.12177928 -0.40091497 -0.09124926 0.019676615
0003c0 1e bf b5 bc 12 4d cd be 3c cd ac be ed fe 6b bd
       -0.022185858 -0.40097862 -0.3375033 -0.057616163
0003d0 17 71 90 bd 25 05 2d 3e d5 28 3c be af 09 ae 3d
       -0.0705282 0.16896494 -0.18374951 0.08497941
0003e0 ac 1c ea bd 5e 80 89 3d b1 f3 cb 3d 1a 6d 92 3e
       -0.1143125 0.06713937 0.0995859 0.28598863
0003f0 70 36 eb be 02 84 49 3e 3e cc e2 bd d1 eb 95 3e
       -0.4593997 0.19679263 -0.11074112 0.29281476

fc2.bias f4 [128]
000000 20 9b 22 3e 45 3b 15 3e d1 67 1f bc 69 b6 e0 bd
       0.15879488 0.14573391 -0.009729342 -0.10972292
000010 99 4e df 3d 8f 86 98 3d a8 ba a1 bd c9 ce 16 3e
       0.10903663 0.0744754 -0.0789693 0.1472732
000020 99 1e 1a bd 4c 11 d5 3d 51 64 e3 3d 20 e9 03 3e
       -0.037626836 0.1040369 0.11103118 0.12881899
000030 25 c7 ec 3d b3 4f 13 3e c6 7f 13 3e 7f 4d f7 3d
       0.11561421 0.14385872 0.1440421 0.12075328
000040 56 99 12 bc 4e 6f 05 3e 70 5c b5 3d 9c 69 e5 3d
       -0.008947691 0.1303074 0.08855522 0.11201784
000050 68 1b de bd 52 57 39 bd f1 45 a6 3d 87 cf ba bd
       -0.10845071 -0.04524929 0.08118809 -0.09121614
000060 f9 c2 cc 3d 07 f9 14 3e 3e d4 a0 3d a8 f5 d9 3d
       0.099981256 0.14548121 0.07852982 0.10642558
000070 59 d5 c6 3d 10 dd 53 3d 43 4f ab 3c 67 f8 6c 3d
       0.097086616 0.051724494 0.020911818 0.057854082
000080 fc 06 04 3e 01 78 19 3e a3 b2 0c 3d 12 2c 18 bd
       0.1289329 0.14987184 0.03435005 -0.037151404
000090 65 7f 01 3d 0f 78 92 3d 22 c2 87 3d e2 dd 9f 3d
       0.031615634 0.071518056 0.06628825 0.07805993
0000a0 d0 8d b2 bb 00 a0 de 3d 56 f1 06 3e 28 5c b8 3d
       -0.0054490343 0.10870361 0.13178 0.090019524
0000b0 68 c1 66 bd a4 cd 19 3e e7 d9 ff 3d d8 24 a2 3d
       -0.05633679 0.15019852 0.124927334 0.07917184
0000c0 de cc ee 3d c6 ba 10 3e 50 d9 c9 3d 90 ac b6 3c
       0.11660169 0.14133748 0.09855902 0.022299081
0000d0 dc b9 df 3d 97 68 46 bd 92 36 87 3d 1f df 2c bc
       0.10924122 -0.04843959 0.06602205 -0.010551243
0000e0 8e 0f fd 3d 9b ae 0d 3e 57 76 36 ba ef 6a 36 3d
       0.123564824 0.13836138 -0.0006960383 0.044535574
0000f0 a3 6c 10 bd c2 e4 b2 3d 9e db 4a 3e 95 02 de 3d
       -0.035259854 0.08735038 0.1981034 0.10840336
000100 4e 96 85 bd 26 63 14 bc ec cd 69 bc 0e ff 19 bd
       -0.06522809 -0.009056842 -0.014270287 -0.037596755
000110 55 96 9b bd bb 7c e4 bb ec e0 40 3d 75 82 8e bb
       -0.07597033 -0.006972877 0.047089502 -0.004349048
000120 49 26 13 3e db 32 ce 3d 7d 79 e6 3d 90 8c 16 3e
       0.14370073 0.10068294 0.11253641 0.14702058
000130 2e 9b a4 bd 79 bb b8 bc a3 0e a9 bd 00 00 00 00
       -0.08037411 -0.022550331 -0.08254745 0.0
000140 cc 32 00 3e 80 d9 10 3e 22 2c ff 3d 67 42 61 3d
       0.12519377 0.1414547 0.124595895 0.054994967
000150 c5 26 aa bb 1c f0 72 3d 59 54 10 3e fd 97 af 3d
       -0.00519261 0.059311017 0.14094676 0.08573911
000160 6f 71 d9 3d cb 3f 29 3e c3 ec f1 3d 02 2e f3 3d
       0.10617339 0.16528241 0.11812737 0.1187401
000170 9d 5e f2 3d a4 4f 13 3e 6f 76 91 3d c3 0f d6 bc
       0.11834452 0.14385849 0.071026675 -0.026130563
000180 14 40 0d 3e f7 87 84 3d 72 d6 95 3d ff e2 52 bd
       0.13793975 0.06471246 0.07316293 -0.05148601
000190 dd b9 cf 3d 6b 1c ef 3d 3e 46 1d 3e 16 f2 b7 bd
       0.101428725 0.11675342 0.15358827 -0.08981721
0001a0 3f aa b1 3d 6d f1 91 bd 59 56 18 3e 94 99 7a bc
       0.0867505 -0.071261264 0.14876689 -0.015295405
0001b0 64 18 8c bd 7a 64 ac bd 0f 7a 92 3d 3a da bd bd
       -0.0684059 -0.08417602 0.07152187 -0.09270139
0001c0 4b bd c8 3d 46 74 d7 3d 31 36 4e 3d 69 22 d8 3d
       0.0980173 0.10520224 0.05034465 0.10553438
0001d0 f2 87 fe bc 00 00 00 00 8f 47 13 3e e6 57 8a 3d
       -0.031070683 0.0 0.14382766 0.067550465
0001e0 22 d2 42 bd d9 33 31 3e bc 45 b2 3d 75 f5 cc 3d
       -0.04756368 0.17304935 0.08704707 0.10007755
0001f0 98 92 05 3e 46 9a c8 3d 4c f7 89 bd 77 82 cc bd
       0.13044202 0.0979505 -0.06736621 -0.09985822
