Project/output/cartpole_plain_dqn/best_model.pth (torch, 287714 bytes, 24 tensors)

fc1.weight f4 [128, 4]
0.029168118 0.036018394 0.006221353 0.07925262 0.05011038 0.0864716 0.11833474 0.06528424
0.48121366 0.18728969 -0.73927826 0.056261368 0.0010750355 0.0023130323 1.3132855 0.16802953
-0.27423355 0.039518163 0.12643841 0.1328935 0.025865827 0.028735178 -0.30864084 0.14613566
-0.5437747 0.0866118 0.8383677 -0.12173982 0.07876585 -0.10584331 -0.7668066 -0.22211823
0.3764462 0.11558964 -0.6390061 -0.045493577 -0.4047236 0.003594641 0.39918244 0.009355561
-0.15819913 0.1257078 -0.22718473 0.08278056 -0.088932574 0.019751474 -1.2883319 -0.17420056
0.57228637 0.29377326 -0.52396166 0.1756308 -0.08678214 -0.1774476 -0.5571773 0.07614113
-0.68617904 -0.32830182 -0.6013515 -0.14408843 0.0037489007 0.23374814 -0.8178881 -0.1424502
-0.18682568 0.11917118 0.83846235 -0.22828765 0.2771433 0.01159386 -1.0486685 -0.21540706
0.17283763 -0.10714658 0.19024941 0.039109312 -0.35322094 0.08754525 0.41947213 -0.092129536
-0.018856328 -0.095084816 -0.8317697 -0.19779798 -0.28280216 -0.329359 -0.11039725 -0.19894959
0.24076521 0.2315668 -0.83645004 -0.3100988 -0.12068089 0.28876013 0.24121088 -0.21065058
-0.11815101 0.10680405 1.3323238 0.26206514 0.5001039 0.09601376 -0.6410133 -0.23611686
0.15238838 -0.03587734 -0.42390344 -0.10163253 -0.07010921 0.06488279 0.7910419 0.15669975
0.3683012 0.07990188 0.8427552 0.2968634 -0.1577384 -0.092311785 1.4350514 0.31861332
-0.05870272 0.17840862 1.147177 0.10747639 0.0071700513 0.15522292 -0.49781564 0.042424258
0.2605539 0.1761745 1.0257281 0.30338392 -0.14403883 0.11866855 0.7199105 0.18871042
-0.026467988 0.5453186 -0.07461839 -0.12244094 -0.2348278 0.1868739 1.1852728 0.2536925
0.04394604 0.07622682 0.121092424 0.055872835 -0.09128489 0.045584757 0.44241506 0.1660424
0.10317267 0.29055625 -0.32456225 -0.027926272 -0.15381135 -0.08062343 0.23800461 -0.014192908
-0.14976375 -0.13280849 1.0616394 0.38522473 0.07992365 -0.19995604 -1.0344533 -0.16887608
-0.021869559 -0.14059225 -0.47553587 -0.11759307 0.023017764 0.29649732 0.8181455 -0.21076304
0.23709764 0.41456473 -0.23988071 -0.03602857 0.092094496 -0.038429894 -0.34173194 -0.119727544
-0.6512738 0.056513432 0.80628407 0.19320224 -0.6427882 -0.27459368 0.61050266 0.17408668
-0.20002207 -0.3495032 -0.7442681 0.06055517 0.009450125 0.016830975 0.5764385 0.050200295
0.016736407 0.17088708 0.07630309 0.21006079 0.108933 -0.27357474 -1.0115641 -0.055671435
-0.004621009 -0.0874247 -1.418144 -0.2953266 0.4706307 0.28555375 -0.42156765 0.20185646
-0.35355577 -0.24800353 -0.9389933 -0.34936824 0.0067454022 -0.113760486 0.34823674 -0.031180566
0.05887256 -0.30698296 -0.8946051 0.13747272 -0.59143525 -0.16718411 1.4829291 0.40834063
0.12486344 -0.37660697 -1.0376424 0.0072882 0.27562386 0.45661563 -0.83524793 -0.07447107
0.11787514 0.17028113 -0.80138963 -0.30232662 -0.22097713 0.17456204 0.74353456 0.26841772
0.040229857 0.03361667 -0.16590841 -0.14069895 0.039515078 -0.3912767 -0.88438845 -0.024117531
00000000: faf1 ee3c 0688 133d 7edc cb3b 334f a23d
00000010: 8b40 4d3d 0618 b13d 7c59 f23d beb3 853d
00000020: a361 f63e dec8 3f3e 5741 3dbf 5272 663d
00000030: 35e8 8c3a 3e96 173b bd19 a83f ef0f 2c3e
00000040: 5768 8cbe ccdd 213d 1279 013e 3c15 083e
00000050: 92e4 d33c 0966 eb3c 2c06 9ebe 96a4 153e
00000060: d234 0bbf 8761 b13d 449f 563f ba52 f9bd
00000070: fd4f a13d 61c4 d8bd 704d 44bf f672 63be
00000080: 8ebd c03e 43ba ec3d e795 23bf 7957 3abd
00000090: ef37 cfbe 1294 6b3b a461 cc3e 1148 193c
000000a0: f4fe 21be 8cb9 003e 1da3 68be db88 a93d
000000b0: 4822 b6bd d8cd a13c 0fe8 a4bf a261 32be
000000c0: 5c81 123f 7369 963e 5a22 06bf 8fd8 333e
000000d0: d6ba b1bd d3b4 35be 2ca3 0ebf e1ef 9b3d
000000e0: 6ea9 2fbf 2d17 a8be 2cf2 19bf eb8b 13be
000000f0: 1eb0 753b ac5b 6f3e 1d61 51bf 77de 11be
00000100: 3b4f 3fbe 0510 f43d 78a5 563f 3dc4 69be
00000110: bae5 8d3e 2cf4 3d3c c53a 86bf ab93 5cbe
00000120: 59fc 303e ab6f dbbd bed0 423e 1631 203d
00000130: 60d9 b4be ed4a b33d 0dc5 d63e 69ae bcbd
00000140: 9678 9abc d4bb c2bd dcee 54bf 8e8b 4abe
00000150: 72cb 90be bea1 a8be f417 e2bd 71b9 4bbe
00000160: 288b 763e d91f 6d3e 9721 56bf 45c5 9ebe
00000170: 8b27 f7bd 5ed8 933e fcff 763e c9b4 57be
00000180: 28f9 f1bd 15bc da3d 9689 aa3f 672d 863e
00000190: cf06 003f dda2 c43d 7319 24bf 9ec8 71be
000001a0: b30b 1c3e 1ef4 12bd df09 d9be b724 d0bd
000001b0: 6b95 8fbd 45e1 843d b981 4a3f e675 203e
000001c0: fa91 bc3e 99a3 a33d cebe 573f 7bfe 973e
000001d0: 2d86 21be f60d bdbd c4af b73f 4921 a33e
000001e0: 4372 70bd c0b0 363e b2d6 923f 951c dc3d
000001f0: c0f2 ea3b c2f2 1e3e b1e1 febe 0fc5 2d3d
00000200: 5267 853e 1767 343e 0f4b 833f 2355 9b3e
00000210: ea7e 13be 7f08 f33d 0e4c 383f 4e3d 413e
00000220: 65d3 d8bc 009a 0b3f 87d1 98bd 51c2 fabd
00000230: b376 70be df5b 3f3e 05b7 973f fce3 813e
00000240: c300 343d cf1c 9c3d 4eff f73d eada 643d
00000250: 93f3 babd 15b7 3a3d 3a84 e23e 0507 2a3e
00000260: 314c d33d cac3 943e 062d a6be a3c5 e4bc
00000270: b980 1dbe e61d a5bd 7bb7 733e 5f89 68bc
00000280: ab5b 19be f3fe 07be cde3 873f 2d3c c53e
00000290: 03af a33d 47c1 4cbe f768 84bf daed 2cbe
000002a0: ca27 b3bc 6af7 0fbe 7079 f3be a3d4 f0bd
000002b0: c08f bc3c 7fce 973e fc71 513f 44d2 57be
000002c0: b9c9 723e d441 d43e 4aa3 75be b292 13bd
000002d0: 0a9c bc3d aa68 1dbd 7df7 aebe b733 f5bd
000002e0: e1b9 26bf a17a 673d a268 4e3f cfd6 453e
000002f0: c48d 24bf 8b97 8cbe e749 1c3f c743 323e
00000300: 96d2 4cbe 15f2 b2be 5b88 3ebf b308 783d
00000310: b2d4 1a3c 1de1 893c 7991 133f d39e 4d3d
00000320: ca1a 893c 06fd 2e3e cb44 9c3d 2d1a 573e
00000330: 4418 df3d fd11 8cbe ef7a 81bf bb07 64bd
00000340: d56b 97bb b90b b3bd be85 b5bf 0c35 97be
00000350: 82f6 f03e 1a34 923e b7d7 d7be 76b3 4e3e
00000360: 4305 b5be a3f4 7dbe dd61 70bf 65e0 b2be
00000370: 8908 dd3b 42fb e8bd 164c b23e 636e ffbc
00000380: 5a24 713d df2c 9dbe d704 65bf a6c5 0c3e
00000390: 4d68 17bf 5032 2bbe 9fd0 bd3f 0612 d13e
000003a0: 67b8 ff3d a1d2 c0be 77d1 84bf dad1 ee3b
000003b0: 921e 8d3e 86c9 e93e cfd2 55bf 4a84 98bd
000003c0: 8568 f13d 2d5e 2e3e df27 4dbf 8eca 9abe
000003d0: d447 62be 64c0 323e 4858 3e3f 0c6e 893e
000003e0: 10c8 243d a2b1 093d e5e3 29be 6313 10be
000003f0: 90da 213d 6b55 c8be 4867 62bf 2192 c5bc

fc1.bias f4 [128]
0.32049227 0.14382097 -0.14082076 -0.3010845 0.32452086 0.27620345 0.014777224 0.3848821
-0.21106279 0.29790783 0.33440214 -0.31484896 0.14648561 0.31005484 0.18373764 0.23431176
0.2090553 -0.3090975 0.315254 0.24149384 0.36489916 0.12271609 -0.0312401 -0.054791365
-0.34763092 -0.01588306 0.33882937 0.35076427 -0.16225734 -0.27112123 0.27854937 0.361666
-0.1711769 0.34819645 0.0013225263 0.24313931 0.31991646 0.3179205 0.069188856 0.3059554
-0.23669988 0.36971003 0.27988854 0.20663212 0.119098544 0.33573523 -0.28225347 -0.02657824
0.29534432 0.23996498 0.15266815 0.29806373 -0.36820188 -0.14080928 -0.24768804 0.33021945
0.19748609 -0.16297291 0.21712616 0.2586973 -0.039412014 0.39071837 0.20534861 0.24178857
0.2913113 0.16949244 0.37068766 0.36054137 0.27325928 0.2794844 0.29123366 -0.31501248
0.35255665 0.020799927 0.34735787 0.3561918 0.21701053 0.30524287 -0.38901564 0.36785275
0.34084672 -0.05435075 0.33002853 0.30741328 -0.3322962 -0.14276183 0.102856115 0.23987061
-0.35203046 0.27540362 0.029039323 0.07883152 0.27324125 -0.1256996 0.3430495 0.29930532
-0.39249808 0.33875015 0.33003244 -0.3267136 -0.30612272 0.2216867 -0.14701669 -0.3521867
0.3643706 0.30454943 0.26047784 0.14276022 0.3418832 0.3964724 0.3005989 0.1793719
-0.3309379 0.30879647 0.40709117 -0.07097553 -0.22110464 -0.3614995 0.3163192 0.30677342
-0.3313372 0.120481394 -0.3658683 0.37312797 0.30572236 0.4110729 -0.3779158 0.20722902
00000000: 9017 a43e ce45 133e 5133 10be bf27 9abe
00000010: 9927 a63e 8a6a 8d3e 2b1c 723c 440f c53e
00000020: d820 58be 6087 983e c236 ab3e e233 a1be
00000030: 5300 163e 82bf 9e3e b825 3c3e 6cef 6f3e
00000040: 9812 563e 0742 9ebe f968 a13e 294a 773e
00000050: 10d4 ba3e 9352 fb3d 3deb ffbc e96c 60bd
00000060: aefc b1be 311d 82bc 0b7b ad3e 6097 b33e
00000070: ca26 26be 67d0 8abe 069e 8e3e 492c b93e
00000080: ff48 2fbe ce46 b23e 9e58 ad3a 83f9 783e
00000090: 17cc a33e 7ac6 a23e e3b2 8d3d 30a6 9c3e
000000a0: 7461 72be a24a bd3e 8d4d 8f3e 5f97 533e
000000b0: f0e9 f33d 7de5 ab3e 8783 90be 9cba d9bc
000000c0: 5f37 973e 61b9 753e 0a55 1c3e cf9b 983e
000000d0: f584 bcbe 4f30 10be efa1 7dbe 8612 a93e
000000e0: cb39 4a3e 5fe2 26be 5256 5e3e f973 843e
000000f0: 7e6e 21bd 3d0c c83e e846 523e 6c97 773e
00000100: c126 953e 6d8f 2d3e c6ca bd3e e198 b83e
00000110: a4e8 8b3e 9418 8f3e 941c 953e 5149 a1be
00000120: 4e82 b43e 9c64 aa3c e4d8 b13e c65e b63e
00000130: 0238 5e3e cb48 9c3e 0f2d c7be 3257 bc3e
00000140: 7683 ae3e e49e 5ebd 80f9 a83e 4665 9d3e
00000150: ba22 aabe 2830 12be 3aa6 d23d a4a0 753e
00000160: 563d b4be b401 8d3e e0e3 ed3c 6c72 a13d
00000170: 47e6 8b3e 65b7 00be 2fa4 af3e 8c3e 993e
00000180: 82f5 c8be a970 ad3e 03fa a83e 0147 a7be
00000190: 1ebc 9cbe d701 633e 8b8b 16be d151 b4be
000001a0: c98e ba3e e7ed 9b3e 5a5d 853e bc2f 123e
000001b0: 510b af3e 6efe ca3e 19e8 993e 44ad 373e
000001c0: b170 a9be 921a 9e3e 416e d03e 9e5b 91bd
000001d0: 4169 62be 7616 b9be 97f4 a13e 6811 9d3e
000001e0: 08a5 a9be f3be f63d 1753 bbbe a10a bf3e
000001f0: a487 9c3e 2678 d23e 2e7e c1be d833 543e

fc2.weight f4 [128, 128]
-0.32182065 -0.1463871 0.38115543 -0.015308128 -0.20707163 -0.26722023 0.20418353 -0.021385876
0.6388663 -0.29715145 -0.20828621 1.0016 -0.0415754 -0.079738416 0.28078184 -0.024348559
0.011387998 0.5663686 -0.67506504 -0.19217125 0.23908494 0.12162185 0.29839426 0.162094
-0.08131182 0.29106176 -0.08636849 -1.5615555 0.048147492 -0.13770917 -0.8450382 -0.12376363
0.049774393 -1.4459721 0.16597332 -0.22575623 -0.22850564 -0.5906158 0.029282099 -0.2897084
-0.1027069 0.31202376 0.11259212 -0.10892449 -0.026399456 0.09156595 0.19808044 0.13744266
0.20606302 -0.57505804 0.104890324 0.2809579 0.8715458 0.5918082 0.27788442 -0.35388368
0.047879554 -0.069219135 0.21634798 0.15019712 0.3060952 -1.2709612 -0.00800497 0.28938246
0.24852376 0.24118493 -1.4034301 -0.2324703 -0.0577517 -0.8967089 -0.46838388 -0.107559636
-0.34572405 -0.009089926 -0.88473016 0.08377715 0.2064373 -0.11703146 0.14768948 0.08260824
-0.027745692 0.123307765 -1.1642 -0.2959332 0.22846515 0.29410592 -0.24498439 -0.00068761746
-0.12660152 -0.79423195 -0.010668207 -0.110098734 -1.0091603 0.6165491 0.09459576 0.16005787
0.1389002 -0.3032072 -0.34825546 -0.066320054 0.46207014 -0.46505246 -0.22039941 0.7052916
-1.2208523 -0.4177388 0.10207491 0.006913095 -0.17622617 -0.02855248 -0.17563283 -0.24939264
0.04287121 -0.25008994 0.15313752 0.06592093 0.109274685 0.94691885 0.075910345 -0.23759857
0.35485888 -0.015594396 0.21729112 0.1276944 -0.07912399 0.15295517 0.50921565 0.18180703
0.21858862 -0.05231286 -0.3040585 -1.3465277 0.22506401 -0.018222166 0.6993513 -0.020225622
-0.19445589 0.14817852 0.12789854 0.14534037 0.0789652 0.23863146 -0.2768663 -0.1942418
0.2640894 -1.1062069 0.1501458 0.2963455 -0.032999497 -0.093743145 -0.40351033 0.24318877
-2.9759855 -0.5311 0.1834291 0.22714731 0.102777205 -0.34113982 0.09609618 -0.009417534
-0.55090743 0.027794426 0.07390146 0.064594135 0.21962798 -0.01067391 0.10691248 0.01604109
-0.30894044 -0.04755322 -0.040564593 0.30564526 0.12243725 0.20473965 -1.0097073 -0.18297966
0.02908513 0.2504457 0.16380769 -0.028161788 0.20934835 -0.15895571 -1.3399895 0.009920278
0.24624088 -0.1410026 0.0025863866 -0.20220084 -0.67577124 0.26808587 -0.11883297 0.1873235
0.26918617 -0.25076768 0.12916309 0.23768364 0.07449603 0.20549151 0.13215436 -2.3407273
0.25776735 -0.023462774 0.124408744 -0.09446006 -0.0139901545 0.11747439 -2.8038669 -0.13959734
-0.020813512 -0.22794709 0.05265911 0.10370191 -2.004869 -0.13890275 0.0075404486 -0.22875966
-0.42690283 0.22985983 0.2650727 0.12055434 0.2726997 -0.62743884 -0.03619334 -0.0579583
-2.778385 0.18924335 0.10163661 -3.342759 -0.79848593 0.20121944 -0.0785639 -0.62436956
0.18400547 0.25421485 0.05146099 -0.13671961 0.021965832 -0.090420194 0.21711686 0.09320428
-2.879635 -0.020639272 -0.05914909 -0.10306459 0.06683808 0.33509913 0.09370612 0.086961426
0.010142794 0.04974635 -1.1786554 0.034300275 0.10201377 0.17752385 -0.5358939 -0.043989453
00000000: adc5 a4be 80e6 15be ce26 c33e f1ce 7abc
00000010: 960a 54be 17d1 88be 7d15 513e 6f31 afbc
00000020: be8c 233f 3c24 98be fb48 55be 6e34 803f
00000030: f74a 2abd e54d a3bd a3c2 8f3e a176 c7bc
00000040: ba94 3a3c 88fd 103f 10d1 2cbf 8ac8 44be
00000050: afd2 743e e014 f93d 22c7 983e f8fb 253e
00000060: d086 a6bd 0c06 953e f6e1 b0bd 0de1 c7bf
00000070: 4e36 453d a203 0dbe 6c54 58bf c977 fdbd
00000080: 3ce0 4b3d 9d15 b9bf e9f4 293e a42c 67be
00000090: 62fd 69be 9932 17bf 03e1 ef3c a954 94be
000000a0: ff57 d2bd 94c1 9f3e b396 e63d ce13 dfbd
000000b0: ac43 d8bc ee86 bb3d 99d5 4a3e c5bd 0c3e
000000c0: 2f02 533e 0137 13bf bdd0 d63d b7d9 8f3e
000000d0: a01d 5f3f be80 173f de46 8e3e 3e30 b5be
000000e0: 5a1d 443d c3c2 8dbd 538a 5d3e 46cd 193e
000000f0: 83b8 9c3e dbae a2bf 4727 03bc f029 943e
00000100: 037d 7e3e 2ff9 763e 99a3 b3bf b20c 6ebe
00000110: 0c8d 6cbd b78e 65bf 03d0 efbe 3a48 dcbd
00000120: be02 b1be eaed 14bc ad7d 62bf 5b93 ab3d
00000130: 4d64 533e 31ae efbd e93b 173e 822e a93d
00000140: ef4a e3bc c888 fc3d 8104 95bf 8e84 97be
00000150: c5f2 693e 0d95 963e 30dd 7abe 3a41 34ba
00000160: d4a3 01be c952 4bbf b4c9 2ebc 727b e1bd
00000170: 2a2c 81bf 29d6 1d3f 6cbb c13d 36e6 233e
00000180: db3b 0e3e f93d 9bbe 8a4e b2be cfd2 87bd
00000190: 7594 ec3e 5b1b eebe 62b0 61be fe8d 343f
000001a0: e344 9cbf dce1 d5be a70c d13d 3e87 e23b
000001b0: a274 34be e4e6 e9bc 18d9 33be c960 7fbe
000001c0: b999 2f3d ca0b 80be 15d0 1c3e 8d01 873d
000001d0: 68cb df3d 4669 723f e276 9b3d 0a4d 73be
000001e0: 10b0 b53e a37f 7fbc 9081 5e3e 52c2 023e
000001f0: c20b a2bd 48a0 1c3e f55b 023f 9f2b 3a3e
00000200: b2d5 5f3e 0246 56bd 8ead 9bbe 055b acbf
00000210: 2e77 663e a746 95bc b008 333f 34b0 a5bc
00000220: 721f 47be 1cbc 173e d6f7 023e 1bd4 143e
00000230: 82b8 a13d ce5b 743e 6bc1 8dbe 53e7 46be
00000240: ba36 873e 3098 8dbf d2bf 193e 99ba 973e
00000250: 7b2a 07bd 68fc bfbd e898 cebe 7a06 793e
00000260: 8c76 3ec0 2bf6 07bf d7d4 3b3e 4e99 683e
00000270: db7c d23d e1a9 aebe 13ce c43d 004c 1abc
00000280: 4508 0dbf 23b1 e33c a659 973d ee49 843d
00000290: 28e6 603e a0e1 2ebc eef4 da3d 9b68 833c
000002a0: 712d 9ebe 2ac7 42bd 0f27 26bd 897d 9c3e
000002b0: 62c0 fa3d 45a7 513e 173e 81bf 055f 3bbe
000002c0: f043 ee3c 6b3a 803e 34bd 273e 8db3 e6bc
000002d0: 6a5f 563e 49c5 22be c784 abbf a988 223c
000002e0: 9226 7c3e fc62 10be 5e80 293b bd0d 4fbe
000002f0: 58ff 2cbf 8d42 893e b35e f3bd bbd1 3f3e
00000300: c5d2 893e 9f64 80be 5443 043e 5763 733e
00000310: 6091 983d 5e6c 523e 7953 073e 7ace 15c0
00000320: 15fa 833e 0135 c0bc 03ca fe3d 4774 c1bd
00000330: f636 65bc 6a96 f03d 8e72 33c0 9bf2 0ebe
00000340: 1981 aabc f66a 69be 14b1 573d ab61 d43d
00000350: c64f 00c0 863c 0ebe de15 f73b f93f 6abe
00000360: 0293 dabe 6060 6b3e 9cb7 873e 32e5 f63d
00000370: 4c9f 8b3e d59f 20bf 783f 14bd af65 6dbd
00000380: 0fd1 31c0 02c9 413e db26 d03d c3ef 55c0
00000390: 9369 4cbf 780c 4e3e 1ce6 a0bd afd6 1fbf
000003a0: ee6b 3c3e 7328 823e c2c8 523d 3a00 0cbe
000003b0: b0f1 b33c 392e b9bd e253 5e3e e3e1 be3d
000003c0: f14b 38c0 b113 a9bc 5146 72bd 8713 d3bd
000003d0: 67e2 883d 1d92 ab3e ffe8 bf3d d518 b23d
000003e0: f62d 263c d4c2 4b3d 2ede 96bf 727e 0c3d
000003f0: 98ec d03d d0c8 353e 5830 09bf 492e 34bd

fc2.bias f4 [128]
-0.12521163 0.07252529 -0.11514535 0.1961926 0.2136354 0.2339032 -0.107857004 0.24513991
0.23952264 -0.023347685 -0.060647387 -0.1738252 -0.21510208 -0.010392184 0.19423907 0.058973875
-0.0962043 0.0067453613 0.21359289 0.19368114 0.18628424 -0.13566232 -0.015300145 0.21327949
0.2353842 0.19566868 -0.2216291 -0.0077766352 -0.0052942196 0.16670676 0.21009444 -0.0037763705
-0.14671294 0.2031472 0.22279055 0.19969791 -0.0041305227 0.0918964 0.017022137 0.18594015
0.18817401 0.26214594 -0.19353247 -0.15297097 0.22435382 -0.19600579 -0.11048461 -0.008268375
0.20039506 0.21551438 0.16568364 0.19557922 0.21004827 -0.008828423 0.22463842 -0.003801144
-0.009381367 0.09475572 0.17870316 0.19758889 0.20875666 -0.106471956 0.19528878 0.23846252
0.2082039 0.211327 0.18405277 0.19038281 0.24328564 -0.13937669 -0.18505773 0.08441489
-0.14039981 0.17703049 -0.1588305 0.25804284 0.22558358 0.17738053 0.1984249 -0.0746772
0.27666435 0.0941429 0.25437695 -0.15218529 0.25544786 -0.18275927 0.24749684 -0.13238525
0.2320524 -0.10002867 -0.065327644 -0.007392433 -0.11619231 -0.14186463 0.0 0.21496448
-0.009115553 0.20385568 0.1811392 0.02785601 -0.2438666 -0.1806088 -0.1808735 -0.101453856
0.18328902 0.19070011 -0.14860675 0.26339108 -0.022974482 -0.01115331 0.18270744 0.2413342
0.059134796 0.16344064 -0.1113345 0.16066998 0.22004361 -0.06383662 0.078777224 0.21560915
0.18827903 -0.01167409 -0.12654392 -0.0023622687 -0.16204111 -0.06349841 -0.18387413 -0.01135992
00000000: 7a37 00be 2488 943d 53d1 ebbd b7e6 483e
00000010: 3dc3 5a3e 5284 6f3e 22e4 dcbd f505 7b3e
00000020: 6c45 753e a543 bfbc 6569 78bd 3cff 31be
00000030: b843 5cbe fb43 2abc 9be6 463e 978e 713d
00000040: c306 c5bd 3108 dd3b 18b8 5a3e 5954 463e
00000050: 4cc1 3e3e 10eb 0abe 76ad 7abc f065 5a3e
00000060: 8e08 713e 5f5d 483e bdf2 62be 25d3 febb
00000070: 227b adbb 2db5 2a3e ff22 573e fc7c 77bb
00000080: eb3b 16be d205 503e 3523 643e 9c7d 4c3e
00000090: 5659 87bb 2e34 bc3d 0272 8b3c 1867 3e3e
000000a0: b0b0 403e fe37 863e 602d 46be 6ca4 1cbe
000000b0: 02bd 653e beb5 48be c145 e2bd 1478 07bc
000000c0: 5d34 4d3e cdaf 5c3e f9a8 293e eb45 483e
000000d0: e516 573e 17a5 10bc 9d07 663e 9d1c 79bb
000000e0: 4eb4 19bc 490f c23d f6fd 363e be54 4a3e
000000f0: 4ec4 553e f80d dabd c8f9 473e 852f 743e
00000100: 6733 553e 1b66 583e 5478 3c3e b6f3 423e
00000110: df1f 793e c3b8 0ebe c67f 3dbe b7e1 ac3d
00000120: f8c4 0fbe 7b47 353e 76a4 22be 311e 843e
00000130: 62ff 663e 3ea3 353e e62f 4b3e 5cf0 98bd
00000140: f3a6 8d3e fecd c03d b23d 823e 76d6 1bbe
00000150: 10ca 823e 3f25 3bbe d06f 7d3e 0090 07be
00000160: 259f 6d3e d5db ccbd 80ca 85bd 393c f2bb
00000170: 3cf6 edbd f644 11be 0000 0000 a61f 5c3e
00000180: 6759 15bc 8bbf 503e 8e7c 393e 4932 e43c
00000190: 2ab8 79be 83f1 38be e736 39be 0ac7 cfbd
000001a0: 1eb0 3b3e e446 433e 5e2c 18be 32db 863e
000001b0: fb34 bcbc 5fbc 36bc a917 3b3e 5020 773e
000001c0: 5437 723d fc5c 273e 5803 e4bd ac86 243e
000001d0: 1d53 613e c6bc 82bd f455 a13d a5c8 5c3e
000001e0: 38cc 403e af44 3fbc bb94 01be 4bd0 1abb
000001f0: 1bee 25be 740b 82bd 8049 3cbe f51e 3abc

fc3.weight f4 [2, 128]
-1.7110661 1.1571722 -1.0576075 0.3602864 0.06638864 0.3483833 -0.9182599 0.56712735
0.55035746 -1.091374 0.24810117 -1.7552168 -0.1639934 -0.095992036 -0.3007038 -0.9748427
0.14125562 0.045823548 0.31784222 0.3854765 0.5497038 -1.8393805 -0.056159757 0.3822888
0.31892094 0.70864934 -0.16906185 -0.12697043 -0.028621526 0.49284863 0.46262473 -0.10658538
-1.8854823 0.37554944 0.7063994 0.40272084 -0.2065753 -0.5983596 -0.4358565 -0.03973575
0.3141791 0.8068247 -0.2859936 -1.6823648 0.2363305 0.10636275 -0.41671303 -0.1056542
0.23926975 -0.14110987 0.39437267 0.5472654 0.30130792 -0.14037625 0.13320525 0.14993763
-0.1322744 0.80384713 0.3879847 0.32084435 0.32420388 -0.3552511 0.089875415 0.093156904
0.40934655 0.47616503 0.3008391 0.25963113 0.59781015 -1.8748553 0.67184424 0.6501487
0.13487585 0.5475776 -1.8908426 0.3347484 0.3271392 0.329081 0.16074309 -1.4545691
0.52192205 -1.1729429 0.1967155 -0.9817759 0.20635195 0.24279627 0.13413689 -1.697656
0.06930758 -0.30021065 -1.1640822 -0.07228749 -1.3381 -1.8625318 -0.19273609 0.44843087
-0.14867263 0.40306446 0.51249945 -0.9553935 0.055919543 0.3314999 0.01319093 -0.3224607
0.61549544 0.2930796 -1.85922 0.30993125 0.56554043 -0.18938355 0.8988228 0.47135675
-0.75053924 0.6642128 -1.5970474 0.43769774 0.07365185 -1.3042928 1.0119423 -0.111390255
0.47514266 -0.20549646 -1.6700776 -0.1431785 -1.6754968 0.22460192 0.5595416 0.09423957
-0.014228057 -0.68895894 -0.86719686 0.3871597 0.7356859 0.56673616 -1.1350149 0.36406094
0.28834468 -1.1135799 -1.0912749 -0.044260778 -2.3652859 -0.15600541 0.4647201 -0.5006272
-1.1393017 -0.7431082 0.33660477 0.37419447 0.330703 0.30495736 0.042530023 0.36134994
0.2640814 -0.21610424 -2.3069718 -0.1247529 -0.10221775 0.25372392 0.5746996 0.08102901
0.15161026 0.30352172 0.31751212 0.4131234 0.03259716 0.47389913 0.18190612 0.5635915
0.38578054 0.17552334 -2.042415 -0.30338633 0.40025684 -2.343049 -1.2661649 -0.1318311
0.36987582 0.4526215 0.1890124 0.18906291 0.42197573 -0.09957385 0.3991075 -0.18139878
-0.19847666 -1.1052948 0.30674866 0.3939332 0.47481927 -1.1399453 0.45231164 0.3327258
0.3833921 0.5699519 0.35746065 0.43718147 0.52614045 -0.028726036 -2.1320424 -1.1688005
-1.6748308 0.24130835 0.08110624 0.3104844 0.40376952 0.18750522 0.34274912 -0.22282702
0.3738042 0.71337265 0.32659444 -0.94268274 0.40168017 -2.3579123 0.6208739 0.4024604
0.6355424 -1.8391536 -0.691653 -0.15536866 -0.7421201 0.17928575 -0.099940136 0.46668172
-0.016930722 0.5157431 0.16693665 0.054274235 -2.4219682 -2.25858 -2.2538166 -1.4137392
0.045892894 0.44250125 -0.04656672 0.35881096 -1.0601662 0.097868726 -0.47929484 0.27304086
0.21599008 -0.09316334 0.2110066 -0.02767319 0.27544913 -0.72796476 -0.7161156 0.44587654
0.46595877 -0.066542394 -0.3749399 -0.15612808 -0.42458874 -1.1180217 -2.2597435 -0.19863668
00000000: 3704 dbbf 381e 943f af5f 87bf 7677 b83e
00000010: c4f6 873d 4c5f b23e 1513 6bbf 422f 113f
00000020: 3ae4 0c3f 25b2 8bbf 3c0e 7e3e f2aa e0bf
00000030: e3ed 27be 7997 c4bd d9f5 99be 4b8f 79bf
00000040: 50a5 103e 79b1 3b3d 37bc a23e 2d5d c53e
00000050: 63b9 0c3f d270 ebbf c607 66bd 5cbb c33e
00000060: 9b49 a33e 0b6a 353f 8d1e 2dbe 8904 02be
00000070: b177 eabc a856 fc3e 26dd ec3e 7049 dabd
00000080: 7c57 f1bf 0448 c03e 97d6 343f 6d31 ce3e
00000090: 7a88 53be 182e 19bf 9528 dfbe f4c1 22bd
000000a0: 15dc a03e 108c 4e3f c16d 92be bb57 d7bf
000000b0: 9f00 723e b7d4 d93d 695b d5be 3b61 d8bd
000000c0: 2103 753e 1b7f 10be 37eb c93e 9619 0c3f
000000d0: 0845 9a3e cbbe 0fbe f566 083e 4089 193e
000000e0: f172 07be edc8 4d3f eea5 c63e b645 a43e
000000f0: 0dfe a53e 79e3 b5be 9a10 b83d 0cc9 be3d
00000100: df95 d13e e7cb f33e 9507 9a3e 5fee 843e
00000110: 160a 193f 42fb efbf fcfd 2b3f 2570 263f
00000120: e51c 0a3e 0c2e 0c3f 2107 f2bf 2464 ab3e
00000130: ca7e a73e 4e7d a83e d699 243e 522f babf
00000140: af9c 053f fe22 96bf ca6f 493e aa55 7bbf
00000150: ed4d 533e 969f 783e 2e5b 093e cb4c d9bf
00000160: 22f1 8d3d 36b5 99be a500 95bf 770b 94bd
00000170: dc46 abbf 7167 eebf 9c5c 45be bb98 e53e
00000180: a33d 18be 775e ce3e 2a33 033f ab94 74bf
00000190: e40b 653d 5bba a93e c51e 583c 9219 a5be
000001a0: 1c91 1d3f 880e 963e ecfa edbf 4faf 9e3e
000001b0: 42c7 103f c3ed 41be 4019 663f ac55 f13e
000001c0: 5723 40bf da09 2a3f 0d6c ccbf eb19 e03e
000001d0: c8d6 963d 11f3 a6bf 5387 813f 9320 e4bd
000001e0: e645 f33e aa6d 52be 1ac5 d5bf 629d 12be
000001f0: ae76 d6bf 0cfe 653e 1e3e 0f3f ad00 c13d
00000200: cc1c 69bc 9d5f 30bf 9d00 5ebf cc39 c63e
00000210: e955 3c3f 9f15 113f 2b48 91bf 3266 ba3e
00000220: eaa1 933e c989 8ebf e5ae 8bbf ca4a 35bd
00000230: d860 17c0 e2bf 1fbe cbef ed3e 1b29 00bf
00000240: a3d4 91bf 573c 3ebf 7657 ac3e 6b96 bf3e
00000250: e751 a93e 5f23 9c3e f633 2e3d dc02 b93e
00000260: ad35 873e 6e4a 5dbe 6da5 13c0 737e ffbd
00000270: 8a57 d1bd 1ae8 813e 831f 133f 8af2 a53d
00000280: b83f 1b3e 3367 9b3e f390 a23e e984 d33e
00000290: 9a84 053d e8a2 f23e 9945 3a3e 8847 103f
000002a0: 0785 c53e 64bc 333e edb6 02c0 7455 9bbe
000002b0: 77ee cc3e 84f4 15c0 b111 a2bf bbfe 06be
000002c0: 5d60 bd3e 01be e73e 778c 413e b599 413e
000002d0: 340d d83e 60ed cbbd d157 cc3e 9ac0 39be
000002e0: 773d 4bbe 4d7a 8dbf 290e 9d3e 9db1 c93e
000002f0: 831b f33e bae9 91bf 6495 e73e 095b aa3e
00000300: f84b c43e 5ee8 113f 1505 b73e 40d6 df3e
00000310: 24b1 063f dd52 ebbc 6273 08c0 419b 95bf
00000320: db60 d6bf 8919 773e 071b a63d d0f7 9e3e
00000330: e1ba ce3e 5e01 403e d07c af3e c42c 64be
00000340: 4463 bf3e 979f 363f 6337 a73e a853 71bf
00000350: 06a9 cd3e 09e8 16c0 98f1 1e3f 4a0f ce3e
00000360: e8b2 223f 6369 ebbf 2c10 31bf f618 1fbe
00000370: 95fb 3dbf af96 373e 6aad ccbd e8f0 ee3e
00000380: 4cb2 8abc bd07 043f 71f1 2a3e a94e 5e3d
00000390: 8701 1bc0 938c 10c0 883e 10c0 68f5 b4bf
000003a0: 30fa 3b3d 868f e23e bfbc 3ebd 12b6 b73e
000003b0: 87b3 87bf 666f c83d 2266 f5be 03cc 8b3e
000003c0: 812c 5d3e 6ccc bebd 1d12 583e e3b2 e2bc
000003d0: ab07 8d3e e65b 3abf 5a53 37bf ee49 e43e
000003e0: 2692 ee3e 6147 88bd 1ff8 bfbe 0ae0 1fbe
000003f0: b263 d9be 561b 8fbf a39f 10c0 6a67 4bbe

fc3.bias f4 [2]
0.11911293 0.17015778
00000000: 7bf1 f33d d73d 2e3e

fc1.weight f4 [128, 4]
0.02855051 0.03611348 0.0055452418 0.07838159 0.050944835 0.08860637 0.12024493 0.0650761
0.48036522 0.1864964 -0.7417774 0.053147007 0.0031806552 0.0014310692 1.3133136 0.16935231
-0.2738186 0.039705265 0.1256922 0.13242564 0.025767164 0.029513706 -0.30923748 0.14399318
-0.5417636 0.09032221 0.83538556 -0.12360509 0.078230344 -0.10623248 -0.7653738 -0.22095363
0.3762861 0.11499937 -0.6405659 -0.04708206 -0.40380782 0.0039133546 0.4001469 0.010685833
-0.15865935 0.12585905 -0.22722338 0.08216613 -0.08629609 0.021596195 -1.282606 -0.17250796
0.57253057 0.2951514 -0.5230709 0.17369524 -0.08328288 -0.17626786 -0.5561598 0.077779
-0.684778 -0.3265803 -0.6018604 -0.14509466 0.0047756815 0.2361487 -0.80977046 -0.14110817
-0.18811987 0.11788558 0.83474743 -0.22999437 0.27836993 0.011806003 -1.0486372 -0.21555486
0.17211604 -0.1072251 0.18889749 0.03809508 -0.35165095 0.08776519 0.41967782 -0.09078019
-0.017281245 -0.09476098 -0.8304104 -0.19691354 -0.28257313 -0.32909366 -0.11233134 -0.1995095
0.24167751 0.23206936 -0.83445585 -0.31097955 -0.12009496 0.28908783 0.24074206 -0.21058695
-0.117551364 0.10521358 1.3306206 0.26191702 0.49975353 0.09664595 -0.64031523 -0.24105543
0.1521863 -0.03568229 -0.42362434 -0.10170352 -0.07122809 0.06362645 0.7898612 0.15762037
0.36762092 0.07882955 0.8435294 0.29589868 -0.1535885 -0.09415959 1.4336902 0.32110655
-0.06313878 0.17630313 1.1458166 0.10708064 0.0069672605 0.15555261 -0.49742803 0.04199101
0.26034364 0.17619231 1.0261655 0.30111873 -0.1452358 0.117385045 0.718764 0.1896344
-0.020592004 0.5507277 -0.068097845 -0.11842255 -0.23588437 0.18520379 1.183962 0.25401995
0.043321565 0.07639167 0.120607294 0.054598715 -0.0920801 0.045141228 0.44138142 0.16585986
0.10485649 0.29540476 -0.31908086 -0.028921172 -0.1547795 -0.08251359 0.23690084 -0.013509226
-0.148367 -0.13323243 1.0639557 0.38711834 0.083817855 -0.2016894 -1.0372475 -0.16747677
-0.020083575 -0.14076684 -0.47620362 -0.11699089 0.021434285 0.2942132 0.81050134 -0.21518172
0.23762536 0.4187548 -0.23347206 -0.03812037 0.091901734 -0.038259134 -0.341297 -0.11955716
-0.6489281 0.059255652 0.8139234 0.19651496 -0.64169544 -0.2742325 0.6118897 0.17646687
-0.19790648 -0.34777534 -0.7404811 0.062482968 0.0082736015 0.016788315 0.5745575 0.04823605
0.015174514 0.16820447 0.07438425 0.21035515 0.11027668 -0.27314627 -1.0129014 -0.0562955
-0.002939544 -0.08707287 -1.4138981 -0.2935289 0.47041216 0.28427058 -0.42406684 0.20099647
-0.352841 -0.24895726 -0.94031614 -0.34833145 0.0061831856 -0.113654956 0.34777892 -0.03230713
0.058942214 -0.30422735 -0.89198446 0.13630132 -0.58660567 -0.16692054 1.4852166 0.4113052
0.124778114 -0.37492436 -1.0369271 0.0060491962 0.2763037 0.46080643 -0.82670563 -0.073867545
0.11928614 0.17181863 -0.79631126 -0.30339065 -0.22192435 0.17443165 0.7415174 0.26673305
0.041197494 0.034816235 -0.1655037 -0.14272034 0.040887546 -0.38892964 -0.8838855 -0.025355779
00000000: c2e2 e93c baeb 133d dcb4 b53b 8786 a03d
00000010: 88ab 503d 4277 b53d f942 f63d 9e46 853d
00000020: 6ef2 f53e eaf8 3e3e 20e5 3dbf adb0 593d
00000030: 8a72 503b b792 bb3a a91a a83f b16a 2d3e
00000040: f431 8cbe fda1 223d 75b5 003e 969a 073e
00000050: a915 d33c bac6 f13c 6054 9ebe f372 133e
00000060: 05b1 0abf dafa b83d d4db 553f aa24 fdbd
00000070: 3b37 a03d 6a90 d9bd 8aef 43bf ab41 62be
00000080: 92a8 c03e ca84 eb3d 20fc 23bf 1ed9 40bd
00000090: e6bf cebe 993b 803b 0ee0 cc3e a213 2f3c
000000a0: 9977 22be 32e1 003e 3fad 68be b746 a83d
000000b0: 01bc b0bd 81ea b03c 6f2c a4bf eda5 30be
000000c0: 5d91 123f 161e 973e f9e7 05bf 2add 313e
000000d0: 3790 aabd 907f 34be 7d60 0ebf 994a 9f3d
000000e0: 9c4d 2fbf 8835 a7be 8613 1abf b293 14be
000000f0: 527d 9c3b f7d0 713e 1e4d 4fbf a97e 10be
00000100: 7fa2 40be ff6d f13d 02b2 553f a583 6bbe
00000110: 8186 8e3e f76d 413c be39 86bf 6aba 5cbe
00000120: 303f 303e d598 dbbd 586e 413e 9609 1c3d
00000130: 980b b4be 3cbe b33d 03e0 d63e f7ea b9bd
00000140: 6691 8dbc 0b12 c2bd c795 54bf b4a3 49be
00000150: 6dad 90be f77e a8be f90d e6bd 384c 4cbe
00000160: 4f7a 773e 97a3 6d3e e69e 55bf b638 9fbe
00000170: 59f4 f5bd 5203 943e 1685 763e 1ba4 57be
00000180: c5be f0bd 387a d73d c751 aa3f fd19 863e
00000190: b2df ff3e 50ee c53d b3eb 23bf 3cd7 76be
000001a0: bad6 1b3e 9827 12bd 4ae5 d8be ef49 d0bd
000001b0: 08e0 91bd 964e 823d 5834 4a3f 3c67 213e
000001c0: cf38 bc3e 6371 a13d 8bf1 573f 0880 973e
000001d0: 4e46 1dbe bed6 c0bd 2983 b73f 1468 a43e
000001e0: e84e 81bd cf88 343e 1eaa 923f 184d db3d
000001f0: 9e4d e43b 2f49 1f3e e3ae febe c4fe 2b3d
00000200: c34b 853e c26b 343e 6459 833f 3c2c 9a3e
00000210: b2b8 14be 9267 f03d eb00 383f 852f 423e
00000220: 90b0 a8bc 7efc 0c3f e276 8bbd 8687 f2bd
00000230: ac8b 71be 10a6 3d3e 118c 973f e70e 823e
00000240: f471 313d 3c73 9c3d f500 f73d e7a2 5f3d
00000250: 7e94 bcbd 02e6 383d bffc e13e 2bd7 293e
00000260: 00bf d63d 4b3f 973e 915e a3be 18ec ecbc
00000270: 847e 1ebe e3fc a8bd 2296 723e cd55 5dbc
00000280: 85ed 17be 156e 08be b32f 883f 6034 c63e
00000290: b2a8 ab3d ab87 4ebe 87c4 84bf 087f 2bbe
000002a0: 4f86 a4bc 2f25 10be f6d0 f3be eb98 efbd
000002b0: f496 af3c 1da3 963e 047d 4f3f 9958 5cbe
000002c0: 1054 733e 0767 d63e 4d13 6fbe 1b24 1cbd
000002d0: fa36 bc3d 9cb5 1cbd 7bbe aebe 62da f4bd
000002e0: 2720 26bf 0eb6 723d 495d 503f 383b 493e
000002f0: 2746 24bf 3468 8cbe cea4 1c3f bbb3 343e
00000300: ffa7 4abe 9c0f b2be 2b90 3dbf 24ee 7f3d
00000310: 008e 073c a687 893c 3316 133f 2a93 453d
00000320: 869e 783c cb3d 2c3e c556 983d 5767 573e
00000330: bdd8 e13d d4d9 8bbe c1a6 81bf 1c96 66bd
00000340: 5da5 40bb 4353 b2bd 9dfa b4bf 6c49 96be
00000350: ddd9 f03e ea8b 913e 4a1f d9be 05d2 4d3e
00000360: 93a7 b4be a7ee 7ebe 8fb8 70bf 8058 b2be
00000370: 529c ca3b eec3 e8bd 1410 b23e 7b54 04bd
00000380: 646d 713d b0c3 9bbe 1859 64bf 9392 0b3e
00000390: ca2b 16bf 38ed 2abe 941b be3f 9896 d23e
000003a0: ab8b ff3d 16f6 bfbe 07ba 84bf 5638 c63b
000003b0: ae77 8d3e d2ee eb3e fba2 53bf de47 97bd
000003c0: 4b4c f43d 39f1 2f3e 0edb 4bbf 0556 9bbe
000003d0: 2340 63be 369e 323e 16d4 3d3f 3c91 883e
000003e0: b4be 283d 789b 0e3d cd79 29be 4825 12be
000003f0: b379 273d c921 c7be 5246 62bf ecb6 cfbc

fc1.bias f4 [128]
0.32059544 0.14240661 -0.14292364 -0.30017278 0.32423642 0.27606964 0.012014359 0.38458508
-0.21188486 0.29797846 0.33425674 -0.3165796 0.14807764 0.3093205 0.18089944 0.23507723
0.20776701 -0.3077205 0.31539154 0.24186827 0.36437935 0.12067578 -0.031024672 -0.054955725
-0.34888083 -0.015254485 0.3385898 0.34996215 -0.15936337 -0.26970854 0.27915666 0.36143926
-0.16932121 0.34751305 0.0075597293 0.24300833 0.31994933 0.3175563 0.07191335 0.30476993
-0.23479256 0.3664353 0.27872956 0.2027832 0.124647096 0.33552054 -0.28518268 -0.02778352
0.29512796 0.24043712 0.15325375 0.29595986 -0.36846253 -0.1406213 -0.24514753 0.33013323
0.20091528 -0.16146943 0.21615408 0.26352066 -0.038294833 0.39084297 0.2046493 0.24014077
0.2895823 0.17401509 0.37019643 0.3606013 0.27215856 0.27868858 0.2885361 -0.31458947
0.35271785 0.023023235 0.34673065 0.3557173 0.21702881 0.30526194 -0.38855714 0.36778712
0.34064606 -0.05389859 0.32940638 0.30745456 -0.33273685 -0.14319596 0.10347115 0.242676
-0.34927672 0.27551737 0.03245043 0.07980362 0.2726072 -0.12705666 0.34354645 0.29786807
-0.39177248 0.33874238 0.33025587 -0.32756966 -0.30763972 0.2193567 -0.14832118 -0.3530544
0.36346096 0.30451795 0.2617449 0.14286233 0.34193596 0.3948194 0.3003193 0.17750336
-0.33083695 0.30823657 0.40744004 -0.0693929 -0.21968758 -0.36322537 0.31623682 0.30683392
-0.33262923 0.12126778 -0.36489192 0.37333664 0.30566752 0.4095752 -0.3781294 0.2049916
00000000: 1625 a43e 0ad3 113e 935a 12be 3fb0 99be
00000010: 5102 a63e 0059 8d3e e0d7 443c 56e8 c43e
00000020: 58f8 58be a290 983e b323 ab3e b916 a2be
00000030: aaa1 173e 425f 9e3e b43d 393e 16b8 703e
00000040: e0c0 543e 8b8d 9dbe 007b a13e 51ac 773e
00000050: ee8f ba3e dd24 f73d 7427 febc 4119 61bd
00000060: 82a0 b2be f3ed 79bc a45b ad3e 3d2e b33e
00000070: 2730 23be 3d17 8abe 9fed 8e3e 910e b93e
00000080: 8a62 2dbe 3bed b13e 9bb7 f73b 2dd7 783e
00000090: 66d0 a33e bd96 a23e 4e47 933d ce0a 9c3e
000000a0: 766d 70be 689d bb3e a4b5 8e3e 66a6 4f3e
000000b0: fa46 ff3d 59c9 ab3e 7703 92be 449a e3bc
000000c0: 031b 973e 2635 763e 8dee 1c3e 0d88 973e
000000d0: 1fa7 bcbe 08ff 0fbe f407 7bbe 3907 a93e
000000e0: bcbc 4d3e 3e58 25be 7f57 5d3e 2eec 863e
000000f0: 0bdb 1cbd 921c c83e 968f 513e 76e7 753e
00000100: 2244 943e 0331 323e 638a bd3e bca0 b83e
00000110: 5e58 8b3e 45b0 8e3e 01bb 933e df11 a1be
00000120: 6f97 b43e 399b bc3c ae86 b13e 9420 b63e
00000130: cd3c 5e3e 4b4b 9c3e f6f0 c6be 984e bc3e
00000140: 2969 ae3e c5c4 5cbd f4a7 a83e af6a 9d3e
00000150: 7c5c aabe f6a1 12be afe8 d33d 0f80 783e
00000160: 66d4 b2be 9d10 8d3e beea 043d 1570 a33d
00000170: 2c93 8b3e 241b 02be 52e5 af3e 2a82 983e
00000180: 6796 c8be a46f ad3e 4c17 a93e 36b7 a7be
00000190: f482 9dbe 0b9f 603e 82e1 17be 8cc3 b4be
000001a0: 8e17 ba3e c7e9 9b3e 6d03 863e 814a 123e
000001b0: 3b12 af3e c525 ca3e 74c3 993e 71c3 353e
000001c0: 7663 a9be 2fd1 9d3e fb9b d03e dd1d 8ebd
000001d0: c8f5 60be adf8 b9be cbe9 a13e 5619 9d3e
000001e0: 614e aabe 3e5b f83d 1dd3 babe fb25 bf3e
000001f0: 7480 9c3e d7b3 d13e 2d9a c1be 51e9 513e

fc2.weight f4 [128, 128]
-0.32341367 -0.14485538 0.379027 -0.015308256 -0.20982039 -0.2699954 0.20205666 -0.024332216
0.63653564 -0.2999206 -0.21061856 0.9952936 -0.041652847 -0.08424923 0.27661872 -0.025853328
0.01083052 0.5640275 -0.6767241 -0.19430506 0.23587497 0.117553756 0.29777166 0.16199677
-0.0813105 0.2907651 -0.08865771 -1.5592378 0.04814756 -0.13771218 -0.840268 -0.12551384
0.049774766 -1.4440122 0.16598912 -0.22292139 -0.2291455 -0.5923615 0.029260587 -0.2926202
-0.102759324 0.3081606 0.10892276 -0.10847897 -0.026239585 0.08916738 0.19983566 0.13504173
0.20145597 -0.57290596 0.10308895 0.27638227 0.86532784 0.58852184 0.27291405 -0.35623768
0.043025944 -0.068496555 0.21108842 0.15012242 0.30513254 -1.2701957 -0.009680117 0.2844153
0.24354137 0.24115996 -1.4023293 -0.23325586 -0.061090447 -0.89013124 -0.46553186 -0.1075604
-0.3452172 -0.009621567 -0.8862864 0.08084419 0.2018893 -0.11811645 0.14769001 0.0794755
-0.030010922 0.12305832 -1.162991 -0.2973234 0.22846334 0.29254907 -0.24052587 -0.0006956205
-0.12659891 -0.7904076 -0.010755738 -0.11011218 -1.004536 0.61197644 0.091395505 0.15625437
0.1389013 -0.30441335 -0.3472224 -0.06631992 0.4613102 -0.46478593 -0.22045332 0.69974786
-1.2144547 -0.419529 0.09883082 0.006877163 -0.17721443 -0.03195894 -0.17802072 -0.24891421
0.042871796 -0.2528313 0.15018098 0.06592205 0.10927553 0.9407189 0.072776265 -0.23857364
0.3557586 -0.015619182 0.21729043 0.12484646 -0.08239701 0.14954464 0.50676924 0.17760341
0.21862534 -0.05179133 -0.30252656 -1.3425006 0.22484007 -0.017935134 0.69706446 -0.02090514
-0.19909312 0.14648257 0.12787764 0.12796494 0.07896688 0.23664573 -0.27798104 -0.19522454
0.2631489 -1.0918059 0.15001595 0.29503372 -0.033699207 -0.09482949 -0.4058266 0.24052316
-2.9714854 -0.53143066 0.18314138 0.22715288 0.10204041 -0.34100533 0.09620871 -0.00929322
-0.5497502 0.027863322 0.07382548 0.06442378 0.21967088 -0.010630937 0.106894135 0.015216184
-0.31350133 -0.049132172 -0.04249429 0.30571657 0.12240306 0.20431864 -1.0288817 -0.18512742
0.027129928 0.25032246 0.16511242 -0.030182565 0.19246359 -0.15804794 -1.3414481 0.009374626
0.24383256 -0.14333302 0.0009366655 -0.20249209 -0.67956865 0.2682491 -0.1193163 0.18554655
0.26700887 -0.25109684 0.12913556 0.23789343 0.0725345 0.20541394 0.13253473 -2.3380923
0.2580354 -0.025363268 0.124393694 -0.095404506 -0.015795553 0.117698394 -2.7986703 -0.14045742
-0.021022428 -0.22866194 0.052834548 0.10344979 -2.0021074 -0.13819648 0.009240575 -0.22871093
-0.4267125 0.22984676 0.26488692 0.12013062 0.27267945 -0.62379783 -0.03697844 -0.059695672
-2.7731814 0.18930459 0.101608045 -3.3390706 -0.80503094 0.20159385 -0.08363232 -0.63902634
0.1839152 0.25417408 0.051168047 -0.1372022 0.022144541 -0.092181936 0.21683495 0.093147375
-2.876327 -0.02093878 -0.059644893 -0.098904125 0.06500977 0.3150753 0.093204714 0.086715914
0.0038674541 0.049720556 -1.1750183 0.033677336 0.10030594 0.17598173 -0.5286391 -0.044875182
00000000: 7a96 a5be f854 14be d40f c23e 7bcf 7abc
00000010: 28db 56be d63c 8abe f1e7 4e3e 5b54 c7bc
00000020: 00f4 223f 318f 99be 64ac 57be 90cb 7e3f
00000030: 2d9c 2abd dc8a acbd f8a0 8d3e 5cca d3bc
00000040: 7e72 313c 1b64 103f ca3d 2dbf e8f7 46be
00000050: 3589 713e 06c0 f03d 8775 983e 7be2 253e
00000060: 1f86 a6bd 2adf 943e 2c92 b5bd 1b95 c7bf
00000070: 6036 453d 6c04 0dbe ce1b 57bf b386 00be
00000080: a0e0 4b3d 64d5 b8bf 0df9 293e 8145 64be
00000090: 1ea5 6abe 01a5 17bf e6b3 ef3c 51d2 95be
000000a0: 7b73 d2bd 3ac7 9d3e e512 df3d 392a debd
000000b0: 66f4 d6bc 639d b63d b8a1 4c3e 6148 0a3e
000000c0: 794a 4e3e f7a9 12bf 4d20 d33d fa81 8d3e
000000d0: 2086 5d3f 5ea9 163f 64bb 8b3e c964 b6be
000000e0: f93b 303d ec47 8cbd 9027 583e b1b9 193e
000000f0: 553a 9c3e c695 a2bf 5a99 1ebc e29e 913e
00000100: e962 793e a3f2 763e 877f b3bf a0da 6ebe
00000110: fa39 7abd a4df 63bf 315a eebe a148 dcbd
00000120: 4fc0 b0be c7a3 1dbc aae3 62bf a491 a53d
00000130: 12bc 4e3e 0ae7 f1bd 0d3c 173e 0dc4 a23d
00000140: 77d9 f5bc 0006 fc3d e4dc 94bf c63a 98be
00000150: 4bf2 693e fec8 953e 6a4c 76be 4d5a 36ba
00000160: 25a3 01be 2758 4abf d638 30bc 7f82 e1bd
00000170: a394 80bf 7daa 1c3f 912d bb3d 2501 203e
00000180: 243c 0e3e 11dc 9bbe 22c7 b1be bdd2 87bd
00000190: da30 ec3e 6cf8 edbe 84be 61be ad22 333f
000001a0: 4073 9bbf 81cc d6be d067 ca3d d359 e13b
000001b0: b377 35be 61e7 02bd 104b 36be 5ee3 7ebe
000001c0: 569a 2f3d 1b73 81be 0bc9 193e 2402 873d
000001d0: d9cb df3d f4d2 703f b90b 953d a64c 74be
000001e0: fe25 b63e 99e7 7fbc 6281 5e3e 80af ff3d
000001f0: c3bf a8bd 3b22 193e a1bb 013f abdd 353e
00000200: 52df 5f3e 2523 54bd c3e4 9abe 0fd7 abbf
00000210: 7a3c 663e b4ec 92bc d172 323f 4241 abbc
00000220: 11df 4bbe 87ff 153e 5bf2 023e 3e09 033e
00000230: 63b9 a13d 4253 723e 8853 8ebe f1e8 47be
00000240: 74bb 863e 4cc0 8bbf c89d 193e a90e 973e
00000250: 2e08 0abd f735 c2bd 81c8 cfbe b44b 763e
00000260: d12c 3ec0 d70b 08bf 6a89 3b3e c49a 683e
00000270: 90fa d03d 4098 aebe 1209 c53d 9742 18bc
00000280: 6ebc 0cbf 9f41 e43c d031 973d 9df0 833d
00000290: 67f1 603e 622d 2ebc 50eb da3d 4d4d 793c
000002a0: 3f83 a0be d13e 49bd 7e0e 2ebd e286 9c3e
000002b0: 75ae fa3d e838 513e 65b2 83bf 0b92 3dbe
000002c0: 953f de3c 442a 803e 3b13 293e 6d41 f7bc
000002d0: 2d15 453e 52d7 21be 92b4 abbf 0898 193c
000002e0: 3eaf 793e e4c5 12be 8f8a 753a 165a 4fbe
000002f0: 36f8 2dbf f257 893e 1b5c f4bd eaff 3d3e
00000300: 63b5 883e c48f 80be 1d3c 043e 569a 733e
00000310: f88c 943d 0858 523e 2fb7 073e 4ea3 15c0
00000320: 371d 843e a1c6 cfbc 1fc2 fe3d 7063 c3bd
00000330: ad65 81bc db0b f13d 6a1d 33c0 12d4 0fbe
00000340: 3a37 acbc 5b26 6abe 0a69 583d 7cdd d33d
00000350: 8722 00c0 6183 0dbe c865 173c 3333 6abe
00000360: 107a dabe f35c 6b3e 429f 873e 0b07 f63d
00000370: a49c 8b3e 37b1 1fbf b476 17bd 7383 74bd
00000380: ce7b 31c0 10d9 413e e117 d03d 55b3 55c0
00000390: 8216 4ebf 9e6e 4e3e 6c47 abbd 3b97 23bf
000003a0: 4454 3c3e 1b23 823e 9695 513d bc7e 0cbe
000003b0: 7868 b53c e2c9 bcbd fb09 5e3e 0dc4 be3d
000003c0: be15 38c0 ce87 abbc 344e 74bd 3f8e cabd
000003d0: d823 853d 8d51 a13e 1de2 be3d 1d98 b13d
000003e0: 1d75 7d3b c8a7 4b3d 0067 96bf 3ff1 093d
000003f0: 336d cd3d 8e34 343e e454 07bf 0acf 37bd

fc2.bias f4 [128]
-0.12740912 0.07228029 -0.11411958 0.19598779 0.21323669 0.2334397 -0.108098224 0.24506205
0.23973346 -0.023821661 -0.059941996 -0.17668283 -0.21524121 -0.010290917 0.1943908 0.05833636
-0.09507254 0.006433673 0.21338984 0.19347647 0.18643948 -0.1357543 -0.015300062 0.21307544
0.23518512 0.1956341 -0.22124703 -0.0077765975 -0.005294155 0.16694744 0.20988643 -0.0037763538
-0.14912838 0.20294592 0.2222095 0.19949219 -0.0041304664 0.09076741 0.016695358 0.18496034
0.18797001 0.262318 -0.1932754 -0.15540247 0.2241541 -0.19645636 -0.10889952 -0.008268198
0.20019498 0.215545 0.1660166 0.1957299 0.2098448 -0.008828295 0.22445178 -0.003801127
-0.009337811 0.094822496 0.17850177 0.19738449 0.20855226 -0.106964916 0.19511154 0.23828311
0.2079991 0.21111864 0.18384948 0.19018163 0.2430781 -0.14222041 -0.1847085 0.08360317
-0.13881738 0.1772388 -0.1584204 0.25784093 0.22537911 0.17731763 0.1982328 -0.076002285
0.27646184 0.094694175 0.2541798 -0.15133677 0.25525126 -0.18264878 0.2470268 -0.13219754
0.23147923 -0.09835142 -0.06600488 -0.007392427 -0.11611482 -0.14124602 0.0 0.2147574
-0.009115515 0.20364887 0.18139946 0.027769506 -0.24398288 -0.1810804 -0.18069214 -0.10202984
0.18337138 0.1904973 -0.15148805 0.26318783 -0.023732832 -0.011153251 0.1819705 0.2415594
0.059567638 0.16345589 -0.11361553 0.16069819 0.21986926 -0.064169474 0.07941465 0.2155728
0.188072 -0.0116740465 -0.12677847 -0.0023622322 -0.16392632 -0.06264432 -0.18386452 -0.011359818
00000000: 8977 02be b007 943d 87b7 e9bd 06b1 483e
00000010: b85a 5a3e d10a 6f3e 9a62 ddbd 8cf1 7a3e
00000020: b07c 753e a525 c3bc bd85 75bd 58ec 34be
00000030: 3168 5cbe 3c9b 28bc 620e 473e 1bf2 6e3d
00000040: 64b5 c2bd 90d1 d23b de82 5a3e b21e 463e
00000050: fee9 3e3e 2d03 0bbe 1cad 7abc 7330 5a3e
00000060: 5ed4 703e 4e54 483e 958e 62be d4d2 febb
00000070: 977a adbb 45f4 2a3e 78ec 563e b47c 77bb
00000080: 1cb5 18be 0ed1 4f3e e38a 633e ae47 4c3e
00000090: dd58 87bb 44e4 b93d b4c4 883c 3e66 3d3e
000000a0: 367b 403e 8b4e 863e fde9 45be d321 1fbe
000000b0: a788 653e db2b 49be b606 dfbd 5677 07bc
000000c0: eaff 4c3e d4b7 5c3e 4100 2a3e 6b6d 483e
000000d0: 8ee1 563e 8ea4 10bc b0d6 653e 541c 79bb
000000e0: 9efd 18bc 4c32 c23d 2bc9 363e 291f 4a3e
000000f0: b98e 553e 6c10 dbbd 52cb 473e 7d00 743e
00000100: b7fd 543e 7c2f 583e 0a43 3c3e f9be 423e
00000110: 77e9 783e 3aa2 11be 3a24 3dbe 2438 ab3d
00000120: 2526 0ebe 177e 353e f538 22be ba03 843e
00000130: c8c9 663e c192 353e 8afd 4a3e 16a7 9bbd
00000140: 688c 8d3e 05ef c13d db23 823e 07f8 1abe
00000150: 4bb0 823e 4808 3bbe 98f4 7c3e cb5e 07be
00000160: e408 6d3e 786c c9bd 912d 87bd 2c3c f2bb
00000170: 9bcd edbd cca2 10be 0000 0000 5de9 5b3e
00000180: 3e59 15bc 5489 503e c8c0 393e e07c e33c
00000190: a6d6 79be 246d 39be 5c07 39be 05f5 d0bd
000001a0: b5c5 3b3e b911 433e af1f 1bbe 8ec0 863e
000001b0: 5b6b c2bc 20bc 36bc 7a56 3a3e 595b 773e
000001c0: 32fd 733d fb60 273e 42af e8bd 118e 243e
000001d0: 6825 613e 496b 83bd 26a4 a23d 1ebf 5c3e
000001e0: f295 403e 8044 3fbc 37d2 01be aecf 1abb
000001f0: 4ddc 27be aa4b 80bd fb46 3cbe 881e 3abc

fc3.weight f4 [2, 128]
-1.7019725 1.1561421 -1.0526494 0.3600886 0.0656638 0.34764117 -0.9170352 0.5670785
0.55021757 -1.0917599 0.24826843 -1.7462783 -0.17127104 -0.096022315 -0.30078897 -0.9730217
0.14142655 0.045352552 0.317681 0.38529205 0.54961395 -1.8401096 -0.05615992 0.3821405
0.31879628 0.708128 -0.1762896 -0.12697142 -0.028621618 0.4926623 0.46251315 -0.10658587
-1.876359 0.3754028 0.7053354 0.40253845 -0.20657648 -0.5975616 -0.43611205 -0.0407632
0.3140227 0.80646133 -0.2930355 -1.6739389 0.23610033 0.0989594 -0.41528204 -0.105654545
0.2390827 -0.14130771 0.39413267 0.54701823 0.30112642 -0.14037651 0.1329335 0.14993712
-0.13227327 0.80396175 0.38781708 0.3206095 0.3240833 -0.3549907 0.08955123 0.0928875
0.40922818 0.47601697 0.30059433 0.25934678 0.5977861 -1.8660088 0.66526616 0.64975154
0.12917705 0.5474149 -1.891555 0.33466038 0.32699332 0.3289527 0.16046156 -1.4548503
0.5218308 -1.1723517 0.19645256 -0.9786279 0.20615943 0.2355753 0.13329262 -1.6984202
0.06861345 -0.30110422 -1.1637614 -0.072287835 -1.3382124 -1.863346 -0.19273609 0.44830292
-0.14867349 0.40287635 0.5122095 -0.9548069 0.048473943 0.32428864 0.0058374917 -0.3219739
0.615075 0.29290736 -1.8502871 0.30978757 0.5649739 -0.18938649 0.8975739 0.47117683
-0.7489415 0.6637757 -1.5878975 0.43723285 0.07336589 -1.3055106 1.0118033 -0.11159297
0.47497097 -0.20549764 -1.6706824 -0.14318092 -1.6672943 0.22484627 0.552584 0.094238766
-0.0151835205 -0.6904835 -0.86870587 0.38690254 0.73469514 0.5661163 -1.1379582 0.3637907
0.2879284 -1.1122538 -1.0875632 -0.045051295 -2.3633091 -0.15600488 0.4642023 -0.5008716
-1.135374 -0.74342346 0.3363537 0.37390825 0.33031833 0.30714747 0.04253056 0.36114886
0.26386088 -0.21612146 -2.3049686 -0.12475338 -0.10221834 0.25327775 0.5744387 0.08102887
0.15064855 0.3032988 0.31668022 0.41287205 0.032596696 0.47370481 0.1818549 0.5630145
0.3855991 0.17515372 -2.040519 -0.30390704 0.40001914 -2.3410218 -1.2629986 -0.13183218
0.36965436 0.45228162 0.18872878 0.18858355 0.42181483 -0.099574864 0.39890763 -0.18139945
-0.19847621 -1.1048003 0.30652526 0.3936946 0.4746039 -1.1360927 0.45212448 0.33239725
0.3830803 0.5697071 0.3573306 0.4369538 0.5258833 -0.0296637 -2.1297815 -1.1684632
-1.6730175 0.2409205 0.08323459 0.31019673 0.40353543 0.18728375 0.34255323 -0.2208307
0.37351373 0.71479726 0.32635844 -0.9436826 0.40144238 -2.3557413 0.62022525 0.4044364
0.6346915 -1.8353566 -0.6898943 -0.15537007 -0.73965377 0.18136086 -0.099940136 0.46644554
-0.0169309 0.515514 0.16659302 0.05428078 -2.4199886 -2.2566302 -2.2519276 -1.409779
0.04575548 0.44224992 -0.04739885 0.35855097 -1.0565149 0.09786869 -0.47865024 0.27257025
0.21636933 -0.093232095 0.20984076 -0.027789202 0.27528268 -0.7239098 -0.7165814 0.4453598
0.4657027 -0.06654343 -0.37261528 -0.15612808 -0.42501497 -1.1141504 -2.2575147 -0.19863713
00000000: 3cda d9bf 77fc 933f 37bd 86bf 885d b83e
00000010: be7a 863d 06fe b13e d2c2 6abf 0e2c 113f
00000020: 0fdb 0c3f cabe 8bbf 143a 7e3e 0c86 dfbf
00000030: ad61 2fbe 59a7 c4bd 0301 9abe f317 79bf
00000040: 1fd2 103e 99c3 393d 16a7 a23e 0045 c53e
00000050: 80b3 0c3f b688 ebbf f207 66bd eba7 c33e
00000060: 4439 a33e e047 353f 4385 34be cc04 02be
00000070: e277 eabc 3c3e fc3e 86ce ec3e b149 dabd
00000080: 882c f0bf cc34 c03e dc90 343f 8519 ce3e
00000090: c988 53be ccf9 18bf 144a dfbe 50f7 26bd
000000a0: 95c7 a03e 4074 4e3f c008 96be a143 d6bf
000000b0: 49c4 713e 3aab ca3d d99f d4be 6961 d8bd
000000c0: 18d2 743e f8b2 10be c2cb c93e 6309 0c3f
000000d0: 3e2d 9a3e dcbe 0fbe b81f 083e 1e89 193e
000000e0: a572 07be 70d0 4d3f f68f c63e ee26 a43e
000000f0: 3fee a53e 57c1 b5be a366 b73d cd3b be3d
00000100: 5b86 d13e 7fb8 f33e 80e7 993e 1ac9 843e
00000110: 8308 193f 60d9 eebf e24e 2a3f 1e56 263f
00000120: fd46 043e 6223 0c3f 791e f2bf 9b58 ab3e
00000130: ab6b a73e 7d6c a83e 0950 243e 8938 babf
00000140: b496 053f 9f0f 96bf dc2a 493e 5c87 7abf
00000150: 751b 533e a73a 713e dc7d 083e d565 d9bf
00000160: 3585 8c3d 552a 9abe 22f6 94bf a50b 94bd
00000170: 8b4a abbf 1f82 eebf 9c5c 45be f687 e53e
00000180: dd3d 18be cf45 ce3e 2920 033f 3a6e 74bf
00000190: 9d8c 463d 2909 a63e 6e48 bf3b c3d9 a4be
000001a0: 8e75 1d3f f4f7 953e 35d6 ecbf 7a9c 9e3e
000001b0: 21a2 103f 88ee 41be 67c7 653f 173e f13e
000001c0: a1ba 3fbf 34ed 293f 3a40 cbbf fcdc df3e
000001d0: db40 963d f91a a7bf c582 813f db8a e4bd
000001e0: 652f f33e f96d 52be ecd8 d5bf 059e 12be
000001f0: e669 d5bf 1a3e 663e 2576 0d3f 4100 c13d
00000200: 4dc4 78bc 87c3 30bf 8263 5ebf 1718 c63e
00000210: fb14 3c3f ffec 103f 9da8 91bf c642 ba3e
00000220: 5a6b 933e 555e 8ebf 4535 8bbf b587 38bd
00000230: 7540 17c0 bebf 1fbe edab ed3e 1f39 00bf
00000240: ef53 91bf 0051 3ebf 8d36 ac3e e770 bf3e
00000250: 7c1f a93e 6f42 9d3e 8634 2e3d 81e8 b83e
00000260: c618 873e f24e 5dbe 9b84 13c0 b37e ffbd
00000270: d957 d1bd 9fad 813e 6a0e 133f 77f2 a53d
00000280: 9d43 1a3e fb49 9b3e e923 a23e f763 d33e
00000290: 1d84 053d 7089 f23e 2c38 3a3e b821 103f
000002a0: 3f6d c53e 7f5b 333e dd97 02c0 b499 9bbe
000002b0: 4fcf cc3e 4dd3 15c0 f0a9 a1bf 04ff 06be
000002c0: 5643 bd3e 7591 e73e 1e42 413e 0c1c 413e
000002d0: 1df8 d73e e8ed cbbd 9f3d cc3e c7c0 39be
000002e0: 593d 4bbe 196a 8dbf e1f0 9c3e 5792 c93e
000002f0: 48ff f23e 7c6b 91bf dc7c e73e f92f aa3e
00000300: 1a23 c43e 53d8 113f 09f4 b63e 69b8 df3e
00000310: 4aa0 063f 4a01 f3bc 574e 08c0 3490 95bf
00000320: 7025 d6bf ddb3 763e e676 aa3d 1bd2 9e3e
00000330: 329c ce3e 50c7 3f3e 2363 af3e 7121 62be
00000340: 313d bf3e f4fc 363f 7418 a73e 2f95 71bf
00000350: db89 cd3e 77c4 16c0 15c7 1e3f 4a12 cf3e
00000360: 247b 223f f7ec eabf ea9c 30bf 5519 1fbe
00000370: f359 3dbf a9b6 393e 6aad ccbd f3d1 ee3e
00000380: acb2 8abc baf8 033f 5c97 2a3e 8655 5e3d
00000390: 18e1 1ac0 a16c 10c0 951f 10c0 a373 b4bf
000003a0: 196a 3b3d 956e e23e 4c25 42bd fe93 b73e
000003b0: e13b 87bf 616f c83d a511 f5be 548e 8b3e
000003c0: ec8f 5d3e 78f0 bebd 7fe0 563e 2ea6 e3bc
000003d0: daf1 8c3e 2752 39bf e171 37bf 3306 e43e
000003e0: 9670 ee3e ec47 88bd 6ec7 bebe 0ae0 1fbe
000003f0: 909b d9be 7b9c 8ebf 1f7b 10c0 8867 4bbe

fc3.bias f4 [2]
0.11896552 0.16998884
00000000: 32a4 f33d 8e11 2e3e
