Project/output/mountaincar/ddqn_per/best_model.pth (torch, 285730 bytes, 24 tensors)

fc1.weight f4 [128, 2]
000000 71 36 0c 3d db 45 15 bf d6 c2 1f be 85 31 90 bf
       0.034231607 -0.58309716 -0.15601668 -1.1265112
000010 89 bc 80 3d 63 3d 31 40 2c 4c c8 bc 21 e6 02 3f
       0.0628596 2.7693717 -0.024450384 0.511324
000020 f4 76 86 bc 29 76 68 40 67 a1 a9 3d 39 19 bc be
       -0.016414143 3.632212 0.08282738 -0.36737993
000030 9f 6d eb 3d e8 c3 ba 3e 69 9e 54 bd 29 22 57 bf
       0.11495518 0.3647759 -0.051908884 -0.840365
000040 aa 09 83 39 12 64 d9 be 18 6f b6 bd 8b 10 25 bf
       0.00024993467 -0.4245916 -0.08907908 -0.6447837
000050 d1 f0 ce 3e 18 37 5e 40 a6 6f af 3d f8 bb 6b bf
       0.40418103 3.4721127 0.08566217 -0.9208369
000060 30 a3 cf 3d df dd 1f 3e b5 44 30 3d 8c a1 8f be
       0.101385474 0.15611981 0.043034274 -0.28052938
000070 3f 59 2d 3c c2 ed fb bd 15 0a a3 be ee 26 4b 40
       0.01058036 -0.12301208 -0.3184363 3.174251
000080 51 6e 3e be 51 f2 4f 40 32 ef 8f bb 9b 6e ec be
       -0.1859677 3.2491648 -0.004392528 -0.46178135
000090 44 74 09 3e ac a3 8d 3f ba 8b 19 ba b8 77 2c 40
       0.13423258 1.1065574 -0.00058573077 2.694807
0000a0 93 3a 50 bd e5 bf a3 bf f2 67 11 3e 47 b3 c3 3e
       -0.05083711 -1.2792937 0.14199808 0.38222715
0000b0 a3 7b 2d bd 43 f4 23 40 75 0b b3 3d ea e6 13 bf
       -0.042354237 2.5617836 0.0874242 -0.5777422
0000c0 57 58 83 bb 98 f9 33 40 c4 ab 39 be 0f 03 21 40
       -0.0040083337 2.812109 -0.1813193 2.5158117
0000d0 32 9e 1b be 95 aa 25 40 80 51 28 3f cd df cb bf
       -0.15197065 2.5885365 0.6574936 -1.5927674
0000e0 3b 94 dd 3d 8d 44 59 40 c8 cf 00 3d 57 ef b1 3e
       0.10819288 3.394809 0.031448156 0.34752914
0000f0 79 89 06 3e 3b 3b 2a bf 52 43 29 3f cb eb 30 40
       0.13138379 -0.6649663 0.6611835 2.7643917
000100 b8 3a 1e 3d d3 1f 45 3e 83 6e 31 bd 12 13 ac 3e
       0.038630217 0.19250421 -0.043318283 0.336083
000110 1e 68 3f 3e 68 25 2c 40 5c 97 16 3e 94 b3 2c 40
       0.18692061 2.689783 0.14706177 2.6984606
000120 17 f3 f6 3d 84 59 52 3f 1e 17 48 3f 65 c3 25 40
       0.120580845 0.8216784 0.78160274 2.590051
000130 ee 84 01 3f 12 50 41 40 95 ac b8 be ce 31 2d 40
       0.5059346 3.020512 -0.3606917 2.7061648
000140 99 05 a2 3e f4 78 34 40 be d3 c1 3d 0f e2 08 3f
       0.31644896 2.8198824 0.09464215 0.5346994
000150 c5 8c d9 bd 8f 16 28 bf 5e bd 7d 3e 20 f9 a5 3e
       -0.10622553 -0.6565942 0.24779269 0.3241663
000160 70 17 39 3d a6 2a 9a 3e 2e 6c b8 3e e3 d9 29 40
       0.045188367 0.30110663 0.36020035 2.6539237
000170 77 77 9e be 98 e1 72 c0 2b a7 2c 3d 12 6e cf be
       -0.3095052 -3.7950191 0.04215161 -0.40513664
000180 94 c8 c7 3b ce ab 60 be 25 77 a4 3d fc 1f 27 40
       0.006096909 -0.21940538 0.080305375 2.6113272
000190 23 c9 34 3e ba 9a 17 3f 19 a8 b7 3c 55 40 10 bf
       0.17654853 0.5922047 0.022419022 -0.5634816
0001a0 f5 8c 86 3a 02 3d 8b bf 7f 5a 32 3f 70 e9 c5 bf
       0.0010265397 -1.0877993 0.69669336 -1.5461864
0001b0 ec 37 55 3d 18 93 5f 40 39 77 db 3e 00 8f 54 bf
       0.052055284 3.493353 0.42864397 -0.830307
0001c0 53 4e 14 3f 8d e3 de bf c3 fc cf 3d 37 cb 3a 40
       0.57932013 -1.7413193 0.10155632 2.9186532
0001d0 09 87 4e 3f 13 ec 3f 40 f6 54 ea 3e ce 08 2d 40
       0.806748 2.9987838 0.45767945 2.7036624
0001e0 f3 07 35 3d 97 45 4b 3f 08 da da 3d bf cd 5f 3f
       0.044197034 0.7940306 0.106861174 0.8742332
0001f0 19 9f 34 3d 3a 6a dc be 37 be d8 bd cb b0 29 bf
       0.04409704 -0.43049794 -0.105831556 -0.6628539
000200 0a 88 ff 3e c7 44 fd bf 78 4f 92 bb b1 61 30 40
       0.49908477 -1.9786614 -0.00446504 2.7559626
000210 33 14 96 3f 17 8f de 3f f9 83 de 3d 4d 5b 68 3f
       1.1724914 1.7387418 0.108650155 0.90764314
000220 9f c0 8e 3f 36 b3 04 40 1c 73 21 3e 18 f9 5e 3f
       1.1152533 2.0734382 0.15766567 0.87098837
000230 01 80 a5 3d 41 72 db 3e 02 71 79 3f 7e 0f 08 40
       0.080810554 0.42860606 0.9743806 2.1259456
000240 c7 ed 42 be 7a ec 21 40 6d 17 56 3f 7f a4 26 40
       -0.19036017 2.5300584 0.83629495 2.60379
000250 fd 7d ba 3e 7f 98 24 40 73 0b a7 3d 3e 2f 29 40
       0.36424246 2.5718076 0.08156481 2.6435084
000260 66 cc 11 3d 34 1f 3d 40 d9 0e 4b 3d 47 28 73 bd
       0.03559532 2.9550295 0.049574707 -0.059364583
000270 cb 35 d4 3d 41 6f 32 bf 9b 8b 03 be 48 5c 1f bf
       0.10361823 -0.6970101 -0.12846224 -0.62250185
000280 9a dd 18 3f d4 1c 2d 40 01 b7 c5 3d ed c5 a5 3e
       0.5971314 2.7048845 0.09654046 0.32377568
000290 06 bb f5 3d 3b e3 46 40 3f 8c 14 3e 0e 98 1d be
       0.119985625 3.107619 0.14506625 -0.15390036
0002a0 a7 80 2a 3f 1a a0 f0 bf b8 83 1c 3f bb 69 06 c0
       0.6660256 -1.8798859 0.61138487 -2.1002033
0002b0 51 13 24 be a3 59 28 40 87 be b8 be f1 7e 39 40
       -0.16022994 2.630471 -0.3608286 2.898373
0002c0 65 ba d6 3e 89 25 35 40 90 c7 ca 3d 38 60 02 3e
       0.41939083 2.830416 0.09901345 0.12732017
0002d0 2f d0 54 be fa 0e 8a c0 a6 18 1c 3f ee c5 22 40
       -0.2078254 -4.314328 0.6097511 2.5433307
0002e0 83 54 4a 3d 16 e8 ac bf 4a b8 20 3e af 69 1a 3f
       0.049397003 -1.3508327 0.156953 0.6031751
0002f0 29 94 1c 3d 08 2a 34 40 09 bd 2a 3d 49 63 e3 3e
       0.038227234 2.8150654 0.041684184 0.44411686
000300 ae 67 d2 3c 79 11 3f 40 ec 8d 68 bd 41 dc 7d bf
       0.025684204 2.9854414 -0.056775972 -0.99164206
000310 1a 4a 53 3f b5 95 1b 40 fd 4a 94 bc 38 46 43 3e
       0.82534945 2.4310124 -0.018102163 0.19069755
000320 43 af 78 3d ab ea 38 3f e8 6f 92 3c 7d de 43 be
       0.060714018 0.72233075 0.017875627 -0.19127841
000330 2c e4 61 3f 1b f2 26 40 35 89 d5 bb f9 4d af 3f
       0.8823879 2.608527 -0.0065166005 1.369567
000340 9a f6 93 3d ce 6e 8d be 3b e5 23 bf 11 2c 11 c0
       0.0722477 -0.276236 -0.6402165 -2.2683146
000350 eb 10 19 bf 0c 15 34 c0 01 69 0d be 61 64 79 c0
       -0.5979144 -2.8137846 -0.13809587 -3.8967516
000360 7a 88 dd bb 84 4a 26 40 6a 93 73 ba d4 36 b3 bf
       -0.006760654 2.598298 -0.0009291681 -1.4001107
000370 74 8d 1b 3e 76 c6 35 40 f5 9c a5 bd 29 e9 9a bf
       0.15190679 2.840238 -0.08086578 -1.2102405
000380 c4 4d 59 3e b0 2e 35 40 2a c5 dd bd 6c 07 61 40
       0.21221071 2.8309746 -0.10828622 3.516078
000390 23 b0 b1 be 01 8a 5e c0 ab 32 73 be e3 a7 60 3e
       -0.34704694 -3.477173 -0.23749797 0.21939044
0003a0 0b f3 18 3e 00 92 00 bd cf 5f 0d 3e 0e ec ce 3d
       0.14936464 -0.031389236 0.1380608 0.101036176
0003b0 d4 98 98 be 54 28 34 40 10 2e 0b 3f 0f 27 39 40
       -0.298041 2.8149614 0.5436716 2.893009
0003c0 36 1c 2a 3a a8 ac 02 3f cc f3 3b 3f 87 fd 2c 40
       0.0006489189 0.510447 0.7341888 2.702974
0003d0 f6 64 87 bd 72 c9 86 be 70 91 6c 3e c3 e7 49 40
       -0.06611054 -0.26325566 0.23102355 3.1547706
0003e0 3e 02 2a be 6e 10 2c 40 23 6f 9c 3d 90 13 3f 40
       -0.16602418 2.6885028 0.07638385 2.985569
0003f0 8a 88 e3 3e 11 a9 2e 40 41 e6 cc 3d e2 b5 52 40
       0.4444011 2.729069 0.10004855 3.2923512

fc1.bias f4 [128]
000000 a5 67 ac 3e d7 1d 94 3e c5 94 05 bd 1e 76 a7 3e
       0.33672825 0.28929016 -0.03261258 0.32707304
000010 72 10 5b 3e dd 20 8c 3e c1 13 bc 3e 44 ca af 3e
       0.21392992 0.27368823 0.3673382 0.34334004
000020 14 4f a7 3e cc f2 99 3e 0f e9 38 3d 23 b3 c3 3e
       0.3267752 0.30068052 0.045144137 0.38222608
000030 09 54 aa 3e a1 13 b6 3e 66 b9 a3 3e 30 5b 8e ba
       0.3326724 0.3556185 0.31977385 -0.0010860916
000040 99 a2 10 be 70 81 a6 3e 5b ca 9a 3e 4c 58 23 bb
       -0.14124526 0.32520628 0.3023251 -0.0024924455
000050 1c 7b 95 3e 3e ec b1 3e 96 11 03 3e 55 5d cc 3e
       0.29195487 0.3475055 0.12799677 0.39914957
000060 39 ec 27 b8 ea 67 21 3d 5b 42 6e 3d b2 75 2a 3f
       -4.0035902e-05 0.03940574 0.05816875 0.6658584
000070 bc 51 45 bd 00 c2 99 3e 43 a2 bc 3e 8b 44 9b 3d
       -0.04817365 0.30030823 0.36842546 0.07581433
000080 8a fa ec bc 44 c2 a6 3e 33 89 06 ba 95 39 06 bc
       -0.02892806 0.32570088 -0.00051321386 -0.00819244
000090 5e 0e a0 3e e0 42 bf 3d ba 57 a5 3d 19 6a 2e 3d
       0.3126096 0.09338927 0.08073373 0.04258165
0000a0 0c 0f 20 3d 2e 94 bc 3e 17 9d a1 3e 6c 9c 10 3f
       0.03907685 0.36831802 0.31565163 0.5648868
0000b0 f8 ed 8d 3e e6 bc 6b 3d 4a 15 63 be c3 ad a1 3e
       0.27720618 0.057553194 -0.2217609 0.31577882
0000c0 bc 0c a1 3e 77 5e 03 bd 73 a2 c2 3e cf 35 c0 3e
       0.31455028 -0.03207251 0.38014564 0.37541053
0000d0 97 2a b2 3e e2 5a 34 3f 2b 22 0c bd a1 9d de 3e
       0.34798118 0.70451176 -0.034212273 0.43479636
0000e0 b5 95 18 3f 83 c1 32 bd 8a 06 82 3d 64 14 90 3d
       0.59603435 -0.04364158 0.063489035 0.07035139
0000f0 0a 69 ba 3e e6 24 be 3e f3 c3 91 3e 7f b1 90 3e
       0.36408263 0.37137526 0.2846981 0.2826042
000100 1d 9f 06 3f fd 0b 28 3a 06 f6 cf bd 7e d1 d4 3e
       0.5258654 0.0006410478 -0.10154347 0.4156608
000110 eb 42 28 bd ce 18 bc 3e fc bf be 3e 12 91 1f 38
       -0.041079443 0.36737674 0.37255847 3.804366e-05
000120 2d 00 14 3d 21 9d e8 3c 5c a4 01 3f 66 db 04 bd
       0.03613298 0.028395237 0.5064142 -0.032435797
000130 a0 9d b0 bc a5 a7 b6 3e 43 d8 a8 3e 48 23 90 3e
       -0.021559536 0.35674778 0.32977495 0.28151917
000140 35 a1 d0 3d 33 2f a8 3e 14 b6 47 bd e4 b5 99 3e
       0.10186998 0.3284851 -0.048757628 0.30021584
000150 02 3c 2e 3f 30 a3 23 3f a0 55 4b 3d a3 1e 08 3d
       0.68060315 0.6392088 0.049642205 0.033232342
000160 df 0d 91 3d a8 0e b8 3e a5 1a af 3d e1 6d b9 3d
       0.07082724 0.35948682 0.08550004 0.09054161
000170 43 04 ab 3e 82 00 99 3e 62 05 b3 bc 2c 7b ba 3e
       0.3340169 0.298832 -0.021853153 0.36422098
000180 95 86 44 bc 0b eb 97 3e 01 e2 81 3d a8 ff c3 3e
       -0.0119949775 0.2967151 0.06341935 0.38280988
000190 3f 42 95 3e 58 d0 11 bc 7c d2 c5 3b 00 33 72 3e
       0.29152104 -0.008899771 0.0060370546 0.23652267
0001a0 97 2d a7 3e dd 58 26 be 88 68 84 be d0 12 67 3e
       0.3265197 -0.16244836 -0.25861 0.2256577
0001b0 55 24 3b bb 45 76 a7 3e cd 97 ed bc 4e 11 9d 3e
       -0.002855559 0.3270742 -0.029003048 0.30677265
0001c0 05 f4 5e 3c 16 e2 a4 bd 7e a4 72 be 50 af a1 3e
       0.0136079835 -0.08050935 -0.23695561 0.31579065
0001d0 08 9c 01 3f d4 06 a7 3e 63 4e 80 be f2 23 84 3d
       0.5062871 0.32622397 -0.25059804 0.064521685
0001e0 e7 62 ad 3e 99 39 d6 3d dc 15 97 3e 46 48 1a bc
       0.3386452 0.10460205 0.29508865 -0.009416645
0001f0 8d 46 3f 3d 6a 7f 1c bd 4e 30 98 3d c1 21 3b bd
       0.04669814 -0.03820745 0.074310884 -0.045686487

fc2.weight f4 [128, 128]
000000 1a 17 83 bd ed c1 85 bd fa 40 6f 3d 6e bb ba bd
       -0.06400891 -0.06531129 0.058411576 -0.091177806
000010 3b 21 a9 3d 3a 73 cd 3d da eb 99 3d 2e 14 ac bd
       0.08258291 0.10031743 0.07515688 -0.084022865
000020 82 8b 13 3e 53 ee 6e 3d fe d8 19 be be 45 17 be
       0.14408687 0.058332752 -0.15024182 -0.14772698
000030 a2 4c 5e 3d 8c a4 90 3d 14 fd 07 3e 02 ae f2 3d
       0.0542723 0.07062635 0.13280135 0.118495956
000040 58 b0 c2 3d 25 ad 3c bd 67 2d 2a bc 31 60 c4 bd
       0.09506291 -0.04606356 -0.010386801 -0.095886596
000050 d6 34 a7 3b 1a 73 04 3d 37 05 8f 3d fd 39 01 3d
       0.005102734 0.032336332 0.069834165 0.031549443
000060 75 96 e3 3c b5 ee 06 39 c1 c2 f5 bd dc a6 88 bd
       0.027781704 0.00012868161 -0.12000037 -0.06672451
000070 6a 80 11 bd ff a0 27 3d 02 31 c2 3b f9 65 b0 bd
       -0.035522856 0.040925022 0.0059262523 -0.086132
000080 7c d2 91 bd 8a e7 1a bd 63 af 05 3e 04 27 d1 3d
       -0.07120225 -0.03781847 0.13055186 0.1021252
000090 86 b9 06 be 14 ec a9 bd 0a 6e 69 3d b4 12 58 bd
       -0.13156709 -0.082969815 0.056989707 -0.05275221
0000a0 3d 8d 43 bd aa 60 ff bd a8 30 80 bc c5 53 58 3d
       -0.047742117 -0.12469609 -0.015648201 0.052814264
0000b0 24 1b 0b 3e 63 2c 2a bd 28 17 78 bd 48 d1 e7 3c
       0.13584572 -0.041546237 -0.06056896 0.028298035
0000c0 d2 dc 46 3c 15 0b 98 3c c9 72 11 be da cf f4 3d
       0.012137609 0.018559972 -0.14203943 0.11953707
0000d0 26 99 ec ba ff 46 57 bc 59 d3 4a bd 69 77 10 be
       -0.0018051013 -0.013139485 -0.049517963 -0.14108051
0000e0 75 59 4f bd 19 eb 0f be 6f 00 81 3d db 7c a4 bd
       -0.050622422 -0.14054526 0.06298911 -0.08031627
0000f0 a3 36 0e be 9f d6 9e bd 87 52 75 3d a8 7e ae bd
       -0.1388803 -0.077557795 0.059893157 -0.085202515
000100 7c 4f f2 bd ff 9c 76 bd 32 5e 13 3e 19 44 ad 3d
       -0.11831567 -0.060208317 0.14391401 0.08460254
000110 3c ff 15 3d e3 6f 21 bd 65 df 7f bd f5 97 00 3d
       0.036620364 -0.039413344 -0.062468905 0.031394918
000120 47 78 e1 3d a4 e3 f1 bd 16 04 f4 3d 7f e4 16 be
       0.11009269 -0.11810997 0.11914842 -0.14735602
000130 49 b6 0d be 4a 85 15 be d1 f0 4a 3d 74 fe cd 3b
       -0.13839068 -0.14601627 0.049546067 0.0062864367
000140 f6 5a 1c 3d e4 01 e6 bd df 5d bd bd 0f 35 84 3d
       0.038172685 -0.11230829 -0.0924642 0.064554326
000150 b2 a9 df 3d 6a 84 03 be 2e 52 0b 3c b2 85 26 bc
       0.10921039 -0.1284348 0.00850348 -0.010163711
000160 e2 a8 18 bd fd de 58 3d cc 05 ef bd c2 00 9a 3d
       -0.037270434 0.052947033 -0.116710275 0.07519676
000170 78 35 74 bd 17 9f d3 3d 79 79 1b bd f2 c8 db 3d
       -0.059621304 0.10333078 -0.037957642 0.10731687
000180 66 6d d1 bd 6a 54 0e be c0 1f 1a 3e 1d f8 54 bd
       -0.10225944 -0.13899389 0.15051174 -0.05199443
000190 cd fb a9 3a 64 90 e5 3d 88 02 0c 3e 48 9e 03 3d
       0.0012968719 0.11209181 0.1367284 0.03213337
0001a0 b6 46 12 be a3 53 c2 bd de 26 c3 3d a2 e7 46 3d
       -0.14284787 -0.09488609 0.09528898 0.048560746
0001b0 09 4d aa 3d 94 62 6b bd ed 6d 11 be b4 07 c9 bc
       0.083154745 -0.05746706 -0.1420209 -0.024539806
0001c0 53 c0 7a 3d 42 e5 da 3d ab 38 d0 bd 27 d4 99 bd
       0.06121857 0.10688259 -0.101670586 -0.07511168
0001d0 ef c9 02 3e 43 a3 00 3e 4e 12 18 3e 50 bb df 3d
       0.12772344 0.1256228 0.14850733 0.10924399
0001e0 ca f5 27 3d e3 a4 bd b9 b4 2d e9 bd f1 71 61 bd
       0.041005887 -0.0003617174 -0.1138567 -0.055040304
0001f0 38 9f 19 be 42 b7 cc 3d e8 62 c1 3d 10 5e 8d 3d
       -0.15002143 0.09995891 0.09442693 0.069027066
000200 72 e9 ff 3d ea f0 50 bd e3 5a 98 bf fb 38 65 3e
       0.12495698 -0.051011004 -1.1902736 0.22385018
000210 90 4a cc 3e 58 8f b0 3d ab 69 24 3e 87 1e 09 3e
       0.39900637 0.08621091 0.16055934 0.13390552
000220 1d 9c fd 3d e9 86 81 3e 78 02 74 bf 23 e7 51 3e
       0.12383292 0.2529824 -0.95316267 0.20498328
000230 13 94 a8 3e 83 80 c5 3d 25 c8 8c 3e 94 ba 7e bf
       0.32925472 0.09643652 0.27496448 -0.99503446
000240 cf 3d be bf 55 88 72 3e 1f 3f 58 3e 1b 50 8f bf
       -1.4862612 0.23684819 0.21117829 -1.1196321
000250 1c 93 4e 3e d2 b3 97 3e ab 4b f1 3c 60 7f 73 3e
       0.20173305 0.2962938 0.029455027 0.23779058
000260 1d 26 ab bf ab 8f a3 3d ef a5 33 3e 05 19 4d 3e
       -1.3371006 0.07986387 0.17543767 0.20029075
000270 29 86 ea bf 07 89 5e 3e 41 f9 55 3e 4c f8 19 bf
       -1.8322192 0.2173196 0.20895864 -0.60144496
000280 7a 58 10 3e 55 a1 08 3e 49 09 36 bf 78 67 5f bf
       0.14096251 0.13342793 -0.7110792 -0.87267256
000290 9e c7 01 3e d2 e7 99 be 4a 51 15 bf 9d 53 27 bd
       0.12673804 -0.30059677 -0.5832716 -0.040851224
0002a0 23 e2 05 bf 45 97 a2 3e 89 c3 1c 3e 46 a4 f2 3e
       -0.5229818 0.31756034 0.15308966 0.47390956
0002b0 92 7a 82 3d 48 3a 09 bf bc 46 0c c0 83 2f 0b 3d
       0.06371035 -0.53604555 -2.1918173 0.033980858
0002c0 9e 09 18 3d d9 60 6c bf 1d 67 cc 3e 87 80 78 3d
       0.037118547 -0.9233528 0.3992242 0.06066945
0002d0 0f 48 85 3e 55 d1 fb 3d 52 14 e2 bf b2 02 91 3e
       0.2603154 0.12295786 -1.7662451 0.2832237
0002e0 cf e5 21 3e 5d 02 c0 bf 0c 8e 15 bf 30 02 12 bf
       0.15810321 -1.5000721 -0.5841987 -0.5703459
0002f0 a1 10 d5 3d 33 9d 96 3e be ca 0a 3d 67 49 65 3e
       0.10403562 0.29416808 0.033884756 0.22391282
000300 ed 78 69 3e 65 60 cd bf 3a 57 8a bf 88 19 e0 3e
       0.22800036 -1.6045042 -1.080787 0.4376948
000310 09 38 3d bf 8f fe bb 3e 29 60 14 3e 69 00 6a bf
       -0.7391363 0.3671765 0.14489807 -0.91406876
000320 2b 2d ad 3d 86 6e 5e bf ef 83 43 3e 8c 44 42 bf
       0.08455881 -0.86887395 0.19093297 -0.75885844
000330 d4 4b e7 bf 3f 17 98 3e 6c 2d 11 3e 3e d7 40 3d
       -1.8070016 0.29705235 0.14177483 0.04708027
000340 47 0b 10 bf 9a 77 96 3e 55 b1 c8 bf 9e 79 b7 3e
       -0.5626721 0.29388124 -1.5679117 0.35834974
000350 7d f2 b7 3e cf 7f 61 3d 26 de f4 3c d2 c5 03 bd
       0.3592719 0.05505353 0.029891085 -0.032171078
000360 5f 78 91 be 1c ba ac 3e 1a 49 7f bf 52 ee a1 be
       -0.28412148 0.3373574 -0.9972092 -0.31627136
000370 08 2a 58 3e fb f1 3a 3e f2 10 80 bf 85 3b b4 3d
       0.21109784 0.1825637 -1.0005171 0.08800415
000380 b5 71 da bf 82 23 37 3c e2 3b c2 be 58 18 ec 3d
       -1.7065951 0.011177899 -0.37936312 0.11528081
000390 10 10 ad 3e 40 4a 04 3e 07 db 54 bf 33 36 84 3e
       0.33801317 0.12918949 -0.8314671 0.258226
0003a0 b5 8e 94 3e dc 42 bf bd 9f bd 29 bf 9e 10 12 bf
       0.29015127 -0.09338924 -0.66304964 -0.57056606
0003b0 5c ce a7 be b8 2b 4b 3e cc 07 a6 bf b5 8c 90 3d
       -0.32774627 0.19840896 -1.297113 0.07058088
0003c0 0c 8a 07 bf d3 e4 c1 bf 39 ae e2 bf a1 75 2e 3d
       -0.5294502 -1.5147957 -1.7709419 0.04259265
0003d0 83 ea f1 3e fb e5 a8 3e 48 3b a2 bf 37 3a 47 bf
       0.4724923 0.3298796 -1.2674341 -0.77823204
0003e0 b7 f8 c6 3d b8 2c b6 be 38 a6 01 3e 02 f2 a3 bf
       0.09715407 -0.35580993 0.12661064 -1.280823
0003f0 07 90 89 3d b3 6b f3 bf b1 7c 96 be d4 6d e9 bf
       0.06716924 -1.9017242 -0.29392007 -1.8236642

fc2.bias f4 [128]
000000 00 00 00 00 5f 40 33 3e 6e aa 14 3e 00 00 00 00
       0.0 0.17505024 0.14518139 0.0
000010 59 eb 2e 3e 9e 5d 82 be 35 d9 36 bc 3a 06 b4 bb
       0.17081966 -0.2546205 -0.011160185 -0.0054939063
000020 c2 c5 38 3e 7d e2 97 3e 00 00 00 00 29 b4 58 bc
       0.18044189 0.29664984 0.0 -0.013226547
000030 20 d6 9f bd a3 7b 50 3e fa c7 25 3e fa c2 89 3e
       -0.07804513 0.20359664 0.16189566 0.26906568
000040 00 00 00 00 fa 35 2e 3d 00 00 00 00 fe 50 20 3e
       0.0 0.042531945 0.0 0.15655896
000050 00 00 00 00 7b 2c 92 bd 09 71 3b 3e 3e 10 3f bb
       0.0 -0.0713739 0.18304838 -0.0029153968
000060 e7 90 89 bc 00 00 00 00 8d 68 9c bc 94 87 92 bd
       -0.016792728 0.0 -0.019092822 -0.07154766
000070 b7 88 38 be 23 52 c0 bb 88 7d 6a 3e dd 57 18 3d
       -0.18020903 -0.0058691665 0.22899449 0.037193168
000080 e1 21 0b 3e 7d d3 26 3c dc 29 62 3e 2a 15 59 3e
       0.13587143 0.010182259 0.2208628 0.2119948
000090 fc 98 f0 bc cb 2f 82 3c f1 f5 c1 3e 00 00 00 00
       -0.029369824 0.01589193 0.3788295 0.0
0000a0 6e a5 ac 3d 69 8b 2e bc f2 ec ff 3e e9 c3 21 3e
       0.08429991 -0.010653355 0.49985462 0.1579739
0000b0 98 49 b0 bd ec 1f 7e bc b5 cf 91 bc 86 4d 2e 3e
       -0.08607787 -0.01551054 -0.017799238 0.1702176
0000c0 d5 57 15 3d 8d 9a 7f 3e 09 84 82 ba 9e 1c 61 3b
       0.036460716 0.249613 -0.0009957562 0.0034349333
0000d0 3a aa f8 3d 58 9f a8 bd ca f1 9a 3c 1a 29 39 3e
       0.12141843 -0.082335174 0.018914122 0.18082085
0000e0 00 00 00 00 b2 b7 80 3e 00 00 00 00 b1 68 38 3e
       0.0 0.25140148 0.0 0.18008687
0000f0 e8 2b 33 3e 7a 21 21 3e 26 e3 c3 bd 89 66 a3 3e
       0.17497218 0.15735427 -0.095648095 0.31914166
000100 68 7e 45 3e 53 f3 e0 bc 20 2c 5d b9 a6 38 6b bc
       0.19286501 -0.027459776 -0.0002109264 -0.014356768
000110 b7 f4 7a 3e f4 f3 87 3e 06 49 91 bc f6 c4 07 bc
       0.24507414 0.2655331 -0.017735016 -0.008286705
000120 38 75 10 bd 62 ff 2f 3e cf c6 40 3e 9c d7 96 bd
       -0.03526804 0.17187265 0.1882584 -0.07365343
000130 26 95 02 3e d8 c2 5e 3c e6 9e a7 bc c5 c4 95 bd
       0.12752208 0.013596259 -0.02046151 -0.073129214
000140 0a f8 a4 bd 3c 79 1e 3e 89 af 69 3e aa a2 b2 ba
       -0.08055122 0.15475935 0.22820868 -0.00136288
000150 5c 5d ea bb 20 97 64 bc 54 00 57 bc 96 3f 5b bd
       -0.0071522426 -0.013952047 -0.013122637 -0.053527437
000160 09 d5 b0 3e 00 00 00 00 58 a1 30 3e a0 29 e4 3c
       0.34537533 0.0 0.17249048 0.02785188
000170 90 81 ac bd 00 00 00 00 00 00 00 00 c7 19 51 bc
       -0.084231496 0.0 0.0 -0.012762493
000180 58 ae 59 3e 00 00 00 00 a0 fc 8d 3e f7 48 34 3e
       0.21257913 0.0 0.277318 0.17605959
000190 34 e6 34 be 00 00 00 00 3e 09 06 bc 4c 8a d4 ba
       -0.1766594 0.0 -0.008180914 -0.0016215532
0001a0 b5 46 0a bd 00 00 00 00 ef da 55 bc c7 5b 88 bd
       -0.033758838 0.0 -0.013052686 -0.0665813
0001b0 25 9b 00 bd 89 c3 55 bc 19 59 81 bd 00 00 00 00
       -0.031397957 -0.0130471075 -0.06315822 0.0
0001c0 84 e7 07 bb 08 34 38 3d 1d e1 21 bc 0b 19 74 3e
       -0.002073736 0.044971496 -0.009880331 0.23837678
0001d0 dc 7b db bb 4a ad d7 bb 4e a5 a0 3e 75 02 06 3d
       -0.006698115 -0.006581937 0.31376117 0.032717187
0001e0 5d 05 d4 3d a0 5c 7b bc 98 95 d7 bb f5 e5 a9 bd
       0.103525855 -0.015341908 -0.0065791123 -0.08295814
0001f0 1a 94 33 3e 00 00 00 00 49 a9 02 3e 55 99 2c 3e
       0.17536965 0.0 0.1275989 0.16855367

fc3.weight f4 [3, 128]
000000 3d f9 35 3e c9 57 ed be 7f 5d 1f bf 88 04 7f 3d
       0.17770858 -0.46356037 -0.6225204 0.06226018
000010 31 a4 b5 be 18 ce a5 bd d6 98 08 bc e0 4f 23 3e
       -0.3547683 -0.0809595 -0.00833722 0.15948439
000020 54 e3 1c bf 68 b8 ec be c4 54 16 3e 51 95 b9 bd
       -0.61284375 -0.4623444 0.14680773 -0.09061683
000030 b5 9f 36 40 c8 22 3b be ee b8 d9 be 38 5c 57 bf
       2.8534977 -0.18274987 -0.42523903 -0.8412509
000040 ff c5 e7 bd 39 2a 17 40 62 4d 3a be 6d 41 cf be
       -0.11317062 2.361952 -0.18193582 -0.40479603
000050 4b dc 24 be 17 8a 2c 40 63 bf a2 be 28 4d 21 3e
       -0.1609966 2.6959283 -0.3178664 0.15752089
000060 98 62 26 3e 2d 22 55 be 85 03 4f 3e dc cf 2c 40
       0.16248548 -0.20813818 0.20216186 2.7001867
000070 75 94 46 be 0c 33 56 3e 62 03 32 bf c2 b6 c0 3f
       -0.1939257 0.2091791 -0.6953641 1.5055773
000080 d4 71 91 3e fc ab aa 3e 7c ef fb be c8 a2 20 bf
       0.28407156 0.3333434 -0.4920615 -0.62748384
000090 c2 2e 92 3f a0 c1 3d 40 2f 4d 3b bf 1a a6 f3 bd
       1.1420519 2.964943 -0.7316465 -0.11896916
0000a0 85 92 83 bd 4c d0 86 bd 14 1b 24 bf 50 2c 1a bf
       -0.06424431 -0.06582698 -0.6410382 -0.60223866
0000b0 8f f2 0a 40 df 0b d9 3d f7 20 cd 3d 38 ca 2c bf
       2.1710546 0.10597967 0.10016053 -0.6749606
0000c0 99 24 b4 3f a6 ce d6 be 18 75 cc 3f f1 84 0f bd
       1.4073669 -0.41954535 1.5973234 -0.035038892
0000d0 0d 8c 53 3e 75 71 2e 40 99 0b 65 3f b8 2c 97 be
       0.20658894 2.7256749 0.8947082 -0.29526305
0000e0 23 8a 12 be 42 c9 25 bf ac e6 57 3e 63 3d 1c bf
       -0.14310507 -0.6476022 0.21084088 -0.6103117
0000f0 e1 59 0e bf e1 72 1f bf 86 7f 14 40 1e 48 24 bf
       -0.55605894 -0.62284666 2.3202834 -0.6417254
000100 7e b4 36 bf 86 78 43 3e c7 70 eb bc 08 36 39 be
       -0.7136916 0.19088945 -0.0287403 -0.18087018
000110 59 a1 25 bf ad aa 36 bf 81 a6 2b 3e 45 14 4f 3e
       -0.6469932 -0.7135418 0.16762735 0.20222576
000120 11 93 b9 3d c6 4b fc be e2 05 05 bf 0b a0 1d 40
       0.09061254 -0.4927656 -0.519621 2.4628932
000130 94 cd a0 3e a3 62 8b 3f d4 f7 04 40 4d e6 23 40
       0.31406844 1.0889477 2.0776262 2.5609314
000140 ef 48 37 40 b5 23 ee be cb eb 17 bf 9e 16 d9 bd
       2.8638265 -0.46511617 -0.59344167 -0.10600017
000150 cb 54 d5 bd 20 01 98 3c b0 b7 4c 3e 3f 30 1a 40
       -0.104165636 0.018555224 0.19991946 2.4091947
000160 24 af 2b bf 30 35 56 be b4 4c d1 be 57 9c bf 3f
       -0.6706412 -0.20918727 -0.40878832 1.4969586
000170 8d 0e 34 40 94 d2 14 be a8 e3 0b 3e 1b 0c 39 be
       2.813388 -0.14533454 0.13661063 -0.18071024
000180 76 d2 a4 be 8b b1 4c be 02 7f 2a bf 42 2d 0d bf
       -0.3219182 -0.19989602 -0.6660005 -0.5514718
000190 8b 32 5b be 82 01 dd bd d0 23 fd 3d a9 30 47 be
       -0.21406 -0.10791303 0.12360346 -0.19452156
0001a0 7c 55 15 40 68 9a 4d be 4e 5f 37 3d 69 1c 31 40
       2.3333426 -0.20078433 0.044768624 2.767359
0001b0 e6 40 1a 40 86 e9 e5 3d cd 4c 14 40 73 79 9e 3d
       2.410211 0.11226182 2.3171875 0.07738008
0001c0 2e f8 68 bd e6 5b 05 40 ac 16 de bd e8 be ef be
       -0.056877308 2.083734 -0.10844168 -0.46825337
0001d0 53 ac c8 bc 40 4f 91 3d 2f 3f 05 bf a4 51 c8 3f
       -0.024496233 0.07095194 -0.52049536 1.5649915
0001e0 18 e6 49 3e ba 53 e9 3d c9 61 52 3d e8 4f 27 40
       0.1971668 0.11392923 0.051362786 2.614252
0001f0 e1 9d 20 bf 32 44 e4 3d 30 a1 5a 3f 09 3b 12 bf
       -0.62740904 0.1114582 0.854022 -0.5712133
000200 11 cb 82 3c 02 1f f4 be a2 ff 9f be ea cc ff 3d
       0.01596597 -0.47679907 -0.3124972 0.12490256
000210 36 9f 1b bf 42 fb 9f bd e1 83 05 bd a7 79 13 3e
       -0.6078981 -0.078115955 -0.032596473 0.14401875
000220 ec 71 19 bf cd ee 17 bf fe c9 d0 bc 2f 61 27 3e
       -0.59939456 -0.59348756 -0.025486942 0.16345666
000230 32 27 28 40 db b9 1f bf 6c 54 24 bf e3 83 f5 be
       2.6273923 -0.6239297 -0.6419132 -0.47952184
000240 df 36 34 3e df 9e 1d 40 1f 4d c1 3d 0c 12 05 bf
       0.17599057 2.4628217 0.09438538 -0.5198066
000250 e8 2f e4 bd b8 10 1d 40 e1 19 f3 be 7e 08 f8 3d
       -0.1114195 2.4541454 -0.47480682 0.12110995
000260 e6 11 bd ba 2e aa 49 3e 93 b0 46 be f3 31 1b 40
       -0.001442489 0.19693825 -0.19403295 2.4249237
000270 08 c2 50 3d e3 09 0c 3d 00 be de be 41 23 51 3f
       0.050966293 0.034189116 -0.43504333 0.8169442
000280 00 d1 b5 3e 4f 8d 31 3f 31 be 0d bf 9b af aa be
       0.35511017 0.69356245 -0.55368334 -0.333371
000290 a8 23 01 40 a8 fc 3a 40 a2 81 2d bf 3a 05 a4 bc
       2.0178013 2.921671 -0.6777593 -0.020022023
0002a0 e2 ff 08 be fe 40 9f bd 35 d2 3f bf 30 cc 35 bf
       -0.13378862 -0.07776068 -0.74930125 -0.7101469
0002b0 e5 0d 26 40 40 dc 16 3e 02 a7 19 3e 15 9f 03 bf
       2.594598 0.14732456 0.15005115 -0.51414615
0002c0 74 f1 95 3f 87 06 37 bf 9a 5f e0 3f 7f 76 3e 3d
       1.1714311 -0.71494335 1.7529175 0.046499725
0002d0 dd 93 87 be c0 53 1e 40 86 98 3e 3f 1d 20 28 bf
       -0.26479998 2.4738617 0.7445148 -0.65674
0002e0 51 b4 ba 3d 4b d2 0e bf 8d 02 13 3e a8 f0 27 bf
       0.09116424 -0.5578963 0.14356442 -0.6560159
0002f0 07 50 24 bf a5 be 00 bf e9 2a 2f 40 b1 06 2e bf
       -0.6418461 -0.502909 2.736994 -0.6797896
000300 da 3b 7f be ae 0d 33 3e 61 aa dd 3d b9 2e 3e 3e
       -0.24925175 0.17485687 0.10823513 0.18572511
000310 e8 d1 19 bf f5 dc a1 be 87 c2 48 be e6 53 57 be
       -0.60085917 -0.3161389 -0.19605456 -0.21028098
000320 81 46 1c 3d ea 09 e3 be a7 20 10 bf 74 f1 30 40
       0.038153175 -0.443435 -0.56299824 2.7647371
000330 79 30 1b 3d 84 f3 3b 3f 2c 8d 05 40 ce 15 30 40
       0.037888024 0.7341845 2.0867414 2.7513309
000340 fe d4 20 40 ed 05 fe be e9 dd 13 bf db 7d 04 3e
       2.513 -0.49613896 -0.57760483 0.12938635
000350 bc 06 36 3d 8a dd 46 bd 6f 06 1b 3d b3 37 14 40
       0.044440016 -0.04855112 0.037847932 2.3158996
000360 c2 3b 16 bf 23 5d d2 3d 14 04 fe be 86 d7 ae 3f
       -0.58684933 0.10271671 -0.49612486 1.3659523
000370 74 34 36 40 72 b5 eb 3d d3 a4 45 bc 78 7f 23 3e
       2.8469515 0.11509217 -0.012063223 0.15966594
000380 86 89 ef be e1 ec 1a be a8 06 da be c6 10 09 bf
       -0.4678461 -0.15129425 -0.42583203 -0.5354122
000390 0f 7e 95 be 1c d3 98 bc 47 ac 2c be c6 4a e1 3d
       -0.29197738 -0.018655352 -0.16862594 0.1100059
0003a0 63 35 2b 40 24 cc da 3d e9 32 f1 3d 40 6d 3a 40
       2.6751335 0.10683468 0.117772885 2.912918
0003b0 75 bd 28 40 62 e2 c6 3d 07 04 28 40 ca a4 bc bd
       2.6365635 0.09711148 2.6252458 -0.092111185
0003c0 74 bd da bd 2a 0a 0d 40 ad 58 c1 3d e0 b3 c0 be
       -0.106806666 2.2037454 0.09440742 -0.37637234
0003d0 f0 df 40 3e 66 25 58 be df 7e 22 bf f4 4f 92 3f
       0.18835425 -0.21108016 -0.6347484 1.143065
0003e0 ce e2 2c bd c3 90 c6 3d 25 74 50 3d b2 d1 37 40
       -0.042208485 0.0969558 0.050892014 2.8721738
0003f0 d3 41 08 bf 4d b7 28 3e cb e4 8c 3f 57 b0 14 bf
       -0.5322544 0.16476174 1.1007322 -0.58081573

fc3.bias f4 [3]
000000 13 7a 7f be c2 c4 24 be 40 6c 02 3e
       -0.24948911 -0.16090682 0.12736607

fc1.weight f4 [128, 2]
000000 cf 5b 05 3d 3d 4f 14 bf f6 37 20 be f7 9c 8d bf
       0.03255826 -0.5793341 -0.15646347 -1.1063527
000010 2e 19 81 3d 2a e4 2f 40 12 8b c6 bc 4c 11 fa 3e
       0.06303631 2.748301 -0.024236236 0.4884132
000020 e7 a5 50 bc bb cf 65 40 82 88 a5 3d d2 34 bb be
       -0.012734867 3.5908039 0.080826774 -0.36563736
000030 ee 9e e8 3d 4a e9 b0 3e f2 8c 58 bd b7 11 54 bf
       0.113584384 0.34552985 -0.05286879 -0.8283953
000040 0e d4 b0 ba ac 4a db be 3a 27 b8 bd 22 12 23 bf
       -0.0013490932 -0.42830408 -0.08991857 -0.63699543
000050 7e a7 cd 3e 31 c2 5c 40 bd 3c aa 3d 3a 68 6a bf
       0.4016685 3.4493525 0.08312366 -0.9156529
000060 43 da cc 3d 5b 34 0f 3e fb 03 2a 3d e1 c5 91 be
       0.100025676 0.13984816 0.041507702 -0.28471282
000070 52 8b 1b 3c 90 43 08 be ad ee a1 be 3b 9b 4a 40
       0.009493666 -0.13307023 -0.31627408 3.1657245
000080 fb 8a 41 be c0 88 4e 40 45 90 cc bb 9f 26 ea be
       -0.18900673 3.2270966 -0.006242784 -0.4573259
000090 99 d4 08 3e 32 80 89 3f c1 65 f5 ba 9f 42 2b 40
       0.1336235 1.0742247 -0.0018722342 2.6759412
0000a0 37 e2 56 bd 4d 86 a1 bf a6 55 10 3e f4 6d b9 3e
       -0.05246183 -1.261911 0.14095172 0.362167
0000b0 7a e8 1d bd 7f 7d 21 40 ad 4a b0 3d df 7a 14 bf
       -0.038551785 2.5232847 0.08607993 -0.57999986
0000c0 4f 5f 87 bb 26 ca 32 40 7a 09 35 be 6b 4f 1f 40
       -0.0041312347 2.7935882 -0.17679396 2.4892223
0000d0 cc 3b 16 be 1d ac 23 40 b2 56 27 3f 4a 4c cc bf
       -0.14671248 2.55738 0.6536666 -1.5960782
0000e0 c0 3b dd 3d 03 f3 57 40 de 3f fb 3c 7e f7 a9 3e
       0.10802412 3.3742073 0.030670103 0.33196634
0000f0 b1 4f 04 3e 05 67 2a bf 7b f7 27 3f 7f 37 2f 40
       0.12921025 -0.66563445 0.65612 2.7377622
000100 75 3b 1e 3d 80 20 45 3e 07 0f 2e bd 44 16 a3 3e
       0.03863092 0.19250679 -0.0424948 0.31852925
000110 b1 d4 3d 3e 47 b7 2a 40 18 3a 16 3e f3 40 2b 40
       0.18538167 2.6674364 0.14670599 2.6758392
000120 86 28 f6 3d c3 d7 4a 3f af 71 46 3f 8b ff 23 40
       0.12019448 0.79235476 0.7751722 2.562472
000130 41 80 00 3f 43 c5 3f 40 bd a7 b7 be 0a 08 2c 40
       0.501957 2.996415 -0.35870162 2.6879907
000140 d7 79 a0 3e 96 ed 32 40 cc 20 c0 3d 5a d7 02 3f
       0.31342956 2.795751 0.093812555 0.5110985
000150 06 7f da bd 11 eb 25 bf c3 f6 7c 3e da 66 9a 3e
       -0.10668759 -0.6481181 0.24703507 0.30156595
000160 c5 bf 33 3d 17 bb 90 3e c4 d4 b6 3e 47 46 28 40
       0.043884058 0.28267738 0.35709202 2.6292894
000170 46 b1 9f be aa b9 6f c0 c4 ef 27 3d 82 f4 ce be
       -0.31189936 -3.745707 0.041000143 -0.4042092
000180 6b c6 ad 3b 12 18 66 be f7 8a a3 3d e8 b4 25 40
       0.0053031943 -0.2247012 0.0798549 2.5891666
000190 80 78 33 3e d7 7c 11 3f f1 e0 a4 3c f9 d3 0e bf
       0.17526436 0.56831115 0.020126792 -0.55792195
0001a0 4f 2c 6f ba e2 a0 89 bf da 71 31 3f 04 ec c6 bf
       -0.0009123729 -1.0752223 0.6931435 -1.5540776
0001b0 db bd 58 3d 92 57 5e 40 79 ba d9 3e 48 6c 56 bf
       0.052915435 3.4740949 0.4252508 -0.83758974
0001c0 01 01 13 3f 05 b3 de bf 7e 5e d0 3d 7d 6d 39 40
       0.57423407 -1.7398382 0.10174273 2.8973076
0001d0 ea b5 4c 3f ea 46 3e 40 60 c2 e7 3e fa 8a 2b 40
       0.7996508 2.9730783 0.45265484 2.6803575
0001e0 75 50 33 3d f4 54 44 3f 5b e6 d8 3d 33 77 58 3f
       0.0437779 0.7669213 0.10590812 0.84556884
0001f0 ea b0 2d 3d d0 7f db be 03 1c da bd 7a ef 26 bf
       0.042405047 -0.4287095 -0.10649874 -0.6520916
000200 ae e7 fc 3e 9e 76 fc bf 28 be 8a bb 7e 32 2f 40
       0.49395508 -1.9723699 -0.004234094 2.7374568
000210 c4 97 94 3f aa 5b dc 3f ec e4 dd 3d 7e f1 60 3f
       1.1608815 1.7215474 0.10834679 0.8786849
000220 06 53 8d 3f 00 52 03 40 87 8f 20 3e 10 92 57 3f
       1.1040962 2.05188 0.15679751 0.8420725
000230 9e 0b a4 3d 64 63 d1 3e 49 de 76 3f d3 84 06 40
       0.08010028 0.40896142 0.9643293 2.101857
000240 1f 81 3d be 31 35 20 40 00 c1 53 3f 78 23 25 40
       -0.18506287 2.5032465 0.8271637 2.5802898
000250 60 20 ba 3e 9c f4 21 40 86 43 a6 3d c9 c0 27 40
       0.36352825 2.5305548 0.08118348 2.6211417
000260 4f d7 1a 3d 24 d9 3b 40 21 ce 45 3d 04 52 8b bd
       0.03780299 2.9351282 0.048292283 -0.068027526
000270 80 cf ce 3d 72 60 31 bf 36 54 03 be da d4 1b bf
       0.10098171 -0.6928779 -0.12825093 -0.6087166
000280 20 84 17 3f 52 73 2b 40 ae 80 c3 3d 5e fc 9a 3e
       0.5918598 2.6789136 0.09546028 0.30270666
000290 bb f7 f6 3d 9f 79 45 40 14 fe 12 3e 92 a0 26 be
       0.120589696 3.0855482 0.14354736 -0.1627219
0002a0 3d 3f 29 3f 88 9c f0 bf 23 40 1b 3f 86 e8 05 c0
       0.6611212 -1.879777 0.6064474 -2.092317
0002b0 6f d5 1e be a6 74 26 40 61 83 b7 be a3 12 38 40
       -0.15511106 2.6008697 -0.35842422 2.8761375
0002c0 99 b6 d4 3e 21 86 33 40 be 9c c7 3d 57 bc e8 3d
       0.4154556 2.8050616 0.09746693 0.11364048
0002d0 a9 36 54 be 39 dc 88 c0 50 b8 1a 3f c8 0a 21 40
       -0.20723976 -4.2768826 0.6043749 2.516283
0002e0 46 91 3f 3d 94 28 ab bf ca 2a 1f 3e a6 be 13 3f
       0.046769403 -1.3371758 0.15543666 0.5771278
0002f0 12 8d 1f 3d d7 ca 32 40 50 f8 2a 3d fa 17 d9 3e
       0.038952895 2.7936304 0.041740716 0.42401105
000300 49 5a cc 3c 82 db 3d 40 59 39 6f bd 12 22 7a bf
       0.024945395 2.9665227 -0.0584043 -0.9770824
000310 1b ec 50 3f 29 04 1a 40 eb 58 97 bc cb 65 36 3e
       0.8161027 2.406504 -0.018475017 0.17812268
000320 c5 64 73 3d 11 c3 31 3f b5 70 92 3c a0 de 43 be
       0.059422273 0.6943827 0.017876009 -0.19127893
000330 17 a6 5f 3f 8d 4e 25 40 02 53 b3 bb 53 6a aa 3f
       0.8736281 2.5829194 -0.005472542 1.3313698
000340 3e 07 90 3d 94 f1 90 be 58 a9 22 bf cb dc 0e c0
       0.07032631 -0.2830931 -0.6353965 -2.2322261
000350 40 3c 18 bf 79 96 31 c0 b3 17 10 be 83 35 77 c0
       -0.59466934 -2.7748091 -0.1407154 -3.862641
000360 93 49 ea bb 19 04 25 40 7f 00 55 bb 30 36 b1 bf
       -0.007149884 2.578375 -0.0032501516 -1.3844662
000370 2c 34 1d 3e 00 55 34 40 49 53 a8 bd 20 67 98 bf
       0.15351933 2.817688 -0.082190104 -1.1906471
000380 b9 45 57 3e 91 b6 33 40 86 a4 de bd 7c de 5f 40
       0.21022691 2.808018 -0.10871224 3.4979544
000390 8a e9 b2 be 1f 76 5b c0 95 97 70 be 67 fd 52 3e
       -0.349438 -3.4290845 -0.23495324 0.20604478
0003a0 f2 bf 17 3e 47 83 3f bd 50 b1 0b 3e cb 1e b1 3d
       0.14819315 -0.046756055 0.13641858 0.086484514
0003b0 a6 99 97 be ae cb 33 40 da f4 09 3f 1c 9c 37 40
       -0.29609412 2.8093066 0.5388924 2.8689032
0003c0 27 a1 35 3a c3 1e fa 3e 0c a3 3a 3f e9 37 2b 40
       0.00069286156 0.48851594 0.7290504 2.6752875
0003d0 bb 72 87 bd d4 84 87 be 94 0a 6c 3e 9b 7f 48 40
       -0.0661368 -0.26468527 0.2305091 3.1327884
0003e0 9e 8b 23 be e0 d9 29 40 84 d5 9d 3d 10 c5 3d 40
       -0.15971228 2.653923 0.077067405 2.9651527
0003f0 dc dd e1 3e 42 f9 2c 40 44 b9 cc 3d e9 69 51 40
       0.44114578 2.7027135 0.09996274 3.2720892

fc1.bias f4 [128]
000000 5f 0b ac 3e bc 89 93 3e 4a 16 03 bd a0 83 a7 3e
       0.33602425 0.2881602 -0.03200368 0.3271761
000010 80 07 5b 3e 0f c0 8b 3e f8 15 bc 3e 30 45 af 3e
       0.2138958 0.27294967 0.3673551 0.34232473
000020 38 1d a7 3e b7 8c 99 3e 15 48 37 3d 53 35 c3 3e
       0.3263948 0.2999017 0.044746477 0.3812662
000030 f1 28 aa 3e a8 e7 b5 3e 2d 9c a3 3e 4d ef 0c bb
       0.3323436 0.35528302 0.3195509 -0.002150494
000040 6e 73 14 be 51 2d a6 3e 37 02 9b 3e 79 db f3 ba
       -0.14497158 0.3245645 0.30275127 -0.0018604837
000050 0d de 94 3e 94 02 b2 3e a6 72 02 3e 70 f7 cb 3e
       0.2907566 0.34767592 0.12739047 0.39837217
000060 1f b5 42 b9 ab de 22 3d 36 ba 70 3d 02 0e 29 3f
       -0.00018568755 0.039763134 0.058771335 0.66037
000070 52 ea 41 bd b4 77 99 3e 8f 4d bc 3e 6b 9b 9a 3d
       -0.047342606 0.2997414 0.36777923 0.07549175
000080 13 fa ec bc aa 8d a6 3e be 01 62 3a af 98 e0 bb
       -0.028927838 0.32529956 0.00086214754 -0.006854139
000090 13 18 a0 3e d5 f8 bf 3d 18 5a a5 3d 13 57 2c 3d
       0.31268367 0.09373633 0.08073825 0.042075228
0000a0 1e 36 1f 3d 04 9e bc 3e 78 27 a1 3e 5f 9d 10 3f
       0.03886997 0.36839306 0.31475425 0.5649013
0000b0 ab 03 8e 3e 4a cc 6a 3d c9 e8 64 be 4c 48 a1 3e
       0.27737173 0.05732373 -0.22354425 0.3150047
0000c0 ca b5 a0 3e 7d 9f 02 bd c2 9c c2 3e a7 b7 bf 3e
       0.31388694 -0.03189038 0.38010222 0.37444803
0000d0 f9 a8 b1 3e c5 f2 32 3f 8c 1b 08 bd c1 36 dc 3e
       0.34699228 0.69901687 -0.033229396 0.43010524
0000e0 97 63 17 3f cc 03 31 bd 13 14 83 3d 44 9c 90 3d
       0.5913634 -0.04321651 0.06400313 0.07061055
0000f0 3d 7e ba 3e bc 54 be 3e c8 43 91 3e 92 35 90 3e
       0.36424437 0.37174022 0.28372025 0.2816587
000100 3c 83 05 3f 21 27 69 39 c6 96 ca bd 56 16 d5 3e
       0.5215337 0.00022235188 -0.09892039 0.41618603
000110 77 56 25 bd 25 3d bc 3e 0f b8 be 3e b6 94 a2 ba
       -0.040365662 0.367654 0.372498 -0.0012403938
000120 ef 9b 17 3d f4 72 e8 3c 40 fa 00 3f ff c0 03 bd
       0.037013944 0.028375126 0.5038185 -0.032166477
000130 79 e1 b4 bc ac 7c b6 3e 58 64 a8 3e 13 9f 8f 3e
       -0.02208017 0.35641992 0.32889056 0.28051051
000140 77 7d d1 3d 68 36 a8 3e 78 25 47 bd 45 7d 99 3e
       0.10229009 0.3285401 -0.048619717 0.29978386
000150 51 ec 2c 3f 11 46 22 3f 5b f8 4b 3d 3c 52 05 3d
       0.6754809 0.6338816 0.049797397 0.032549128
000160 19 f7 90 3d 59 f3 b7 3e 19 82 ab 3d 60 ba b9 3d
       0.0707838 0.35927847 0.083744235 0.09068751
000170 a1 5e aa 3e e9 10 99 3e 50 70 b0 bc 85 7e ba 3e
       0.3327532 0.29895714 -0.02153793 0.36424652
000180 3c af 3e bc 6f 22 97 3e fe 97 85 3d e7 01 c4 3e
       -0.011638459 0.29518458 0.06523131 0.382827
000190 f6 3d 95 3e c6 cf 11 bc 49 f9 75 3b e8 dd 72 3e
       0.29148835 -0.008899635 0.0037532619 0.23717463
0001a0 01 e8 a6 3e 59 8c 23 be a7 d1 83 be c0 52 63 3e
       0.3259888 -0.15971507 -0.2574589 0.22199535
0001b0 7c c7 19 bb 80 dc a6 3e 09 bb de bc 3b 73 9c 3e
       -0.002346485 0.32590103 -0.027188795 0.30556664
0001c0 2a 8f 76 3c 31 e3 a5 bd 96 eb 71 be d8 f2 a1 3e
       0.015048781 -0.08099974 -0.23625025 0.31630588
0001d0 f0 92 01 3f fb eb a6 3e d4 ba 7f be 96 18 84 3d
       0.50614834 0.32601914 -0.24973613 0.06450002
0001e0 65 2b ad 3e 3c 79 d6 3d f0 b1 96 3e dd 16 0e bc
       0.3382217 0.10472342 0.2943263 -0.008672443
0001f0 92 37 41 3d 9d 46 1a bd 8c 37 97 3d e9 a1 37 bd
       0.047172137 -0.037665 0.073836416 -0.044832144

fc2.weight f4 [128, 128]
000000 1a 17 83 bd ed c1 85 bd fa 40 6f 3d 6e bb ba bd
       -0.06400891 -0.06531129 0.058411576 -0.091177806
000010 3b 21 a9 3d 3a 73 cd 3d da eb 99 3d 2e 14 ac bd
       0.08258291 0.10031743 0.07515688 -0.084022865
000020 86 8b 13 3e 53 ee 6e 3d fe d8 19 be be 45 17 be
       0.14408693 0.058332752 -0.15024182 -0.14772698
000030 a2 4c 5e 3d 8e a4 90 3d 14 fd 07 3e 02 ae f2 3d
       0.0542723 0.07062636 0.13280135 0.118495956
000040 58 b0 c2 3d 25 ad 3c bd 67 2d 2a bc 31 60 c4 bd
       0.09506291 -0.04606356 -0.010386801 -0.095886596
000050 d6 34 a7 3b 1a 73 04 3d 37 05 8f 3d fd 39 01 3d
       0.005102734 0.032336332 0.069834165 0.031549443
000060 75 96 e3 3c b5 ee 06 39 c1 c2 f5 bd dc a6 88 bd
       0.027781704 0.00012868161 -0.12000037 -0.06672451
000070 6a 80 11 bd ff a0 27 3d 02 31 c2 3b f9 65 b0 bd
       -0.035522856 0.040925022 0.0059262523 -0.086132
000080 7c d2 91 bd 8a e7 1a bd 63 af 05 3e 04 27 d1 3d
       -0.07120225 -0.03781847 0.13055186 0.1021252
000090 86 b9 06 be 14 ec a9 bd 0a 6e 69 3d b4 12 58 bd
       -0.13156709 -0.082969815 0.056989707 -0.05275221
0000a0 3d 8d 43 bd aa 60 ff bd a8 30 80 bc c5 53 58 3d
       -0.047742117 -0.12469609 -0.015648201 0.052814264
0000b0 24 1b 0b 3e 63 2c 2a bd 28 17 78 bd 48 d1 e7 3c
       0.13584572 -0.041546237 -0.06056896 0.028298035
0000c0 d2 dc 46 3c 16 0b 98 3c ce 72 11 be da cf f4 3d
       0.012137609 0.018559974 -0.14203951 0.11953707
0000d0 33 99 ec ba ff 46 57 bc 59 d3 4a bd 69 77 10 be
       -0.0018051028 -0.013139485 -0.049517963 -0.14108051
0000e0 75 59 4f bd 19 eb 0f be 6f 00 81 3d db 7c a4 bd
       -0.050622422 -0.14054526 0.06298911 -0.08031627
0000f0 a3 36 0e be 9f d6 9e bd 87 52 75 3d a8 7e ae bd
       -0.1388803 -0.077557795 0.059893157 -0.085202515
000100 7c 4f f2 bd ff 9c 76 bd 36 5e 13 3e 19 44 ad 3d
       -0.11831567 -0.060208317 0.14391407 0.08460254
000110 3c ff 15 3d e3 6f 21 bd 65 df 7f bd f5 97 00 3d
       0.036620364 -0.039413344 -0.062468905 0.031394918
000120 47 78 e1 3d a4 e3 f1 bd 16 04 f4 3d 7f e4 16 be
       0.11009269 -0.11810997 0.11914842 -0.14735602
000130 49 b6 0d be 4a 85 15 be d1 f0 4a 3d 74 fe cd 3b
       -0.13839068 -0.14601627 0.049546067 0.0062864367
000140 fe 5a 1c 3d e4 01 e6 bd df 5d bd bd 0f 35 84 3d
       0.038172714 -0.11230829 -0.0924642 0.064554326
000150 b2 a9 df 3d 6a 84 03 be 2e 52 0b 3c b2 85 26 bc
       0.10921039 -0.1284348 0.00850348 -0.010163711
000160 e6 a8 18 bd fd de 58 3d cc 05 ef bd c2 00 9a 3d
       -0.03727045 0.052947033 -0.116710275 0.07519676
000170 78 35 74 bd 17 9f d3 3d 79 79 1b bd f2 c8 db 3d
       -0.059621304 0.10333078 -0.037957642 0.10731687
000180 66 6d d1 bd 6a 54 0e be c0 1f 1a 3e 1d f8 54 bd
       -0.10225944 -0.13899389 0.15051174 -0.05199443
000190 cd fb a9 3a 6b 90 e5 3d 88 02 0c 3e 48 9e 03 3d
       0.0012968719 0.11209186 0.1367284 0.03213337
0001a0 b6 46 12 be a3 53 c2 bd de 26 c3 3d a2 e7 46 3d
       -0.14284787 -0.09488609 0.09528898 0.048560746
0001b0 09 4d aa 3d 94 62 6b bd ed 6d 11 be b9 07 c9 bc
       0.083154745 -0.05746706 -0.1420209 -0.024539815
0001c0 53 c0 7a 3d 42 e5 da 3d ab 38 d0 bd 27 d4 99 bd
       0.06121857 0.10688259 -0.101670586 -0.07511168
0001d0 ef c9 02 3e 43 a3 00 3e 4e 12 18 3e 50 bb df 3d
       0.12772344 0.1256228 0.14850733 0.10924399
0001e0 ca f5 27 3d e3 a4 bd b9 b4 2d e9 bd f1 71 61 bd
       0.041005887 -0.0003617174 -0.1138567 -0.055040304
0001f0 38 9f 19 be 42 b7 cc 3d e8 62 c1 3d 10 5e 8d 3d
       -0.15002143 0.09995891 0.09442693 0.069027066
000200 86 4d 00 3e d5 64 4c bd 14 0a 97 bf e6 ca 63 3e
       0.12529573 -0.04990085 -1.1799951 0.22245368
000210 d2 d7 c7 3e 9a e4 b0 3d 32 16 23 3e 21 c3 09 3e
       0.39031845 0.08637352 0.15926436 0.13453342
000220 e1 c7 fd 3d d9 be 81 3e 3d 95 74 bf 1b b9 52 3e
       0.123916395 0.25340918 -0.9554022 0.20578425
000230 55 16 a8 3e 05 1b c5 3d c9 92 8c 3e 9d 78 80 bf
       0.32829538 0.09624294 0.27455738 -1.0036808
000240 a6 15 bd bf e8 aa 72 3e e4 18 55 3e 42 24 8e bf
       -1.4772232 0.23698008 0.20810276 -1.1104815
000250 ea 36 50 3e 9b fa 96 3e 29 ac a6 3c 59 b7 73 3e
       0.20333448 0.29488072 0.020345764 0.2380041
000260 c9 f6 a9 bf c8 aa 90 3d 82 4c 2a 3e 45 85 4c 3e
       -1.3278438 0.07063824 0.16630748 0.19972713
000270 42 e0 e8 bf ca 37 5d 3e b0 78 56 3e d9 2a 1a bf
       -1.8193438 0.21603313 0.20944476 -0.6022163
000280 c5 58 10 3e 78 7b 07 3e ed 2c 36 bf 49 28 5f bf
       0.14096363 0.13230693 -0.711623 -0.87170845
000290 92 af fe 3d 3d 27 9a be 51 d2 15 bf ce 40 3f bd
       0.12435831 -0.3010806 -0.5852404 -0.046692662
0002a0 bf 7a 06 bf 64 cd a1 3e a2 28 1d 3e 03 12 f2 3e
       -0.52531046 0.31602013 0.15347531 0.47279367
0002b0 e9 e3 7f 3d b4 cc 09 bf 68 f2 09 c0 96 8f 0b 3d
       0.06247321 -0.5382798 -2.1554203 0.03407248
0002c0 9a 0a 17 3d f3 b7 69 bf 32 80 cb 3e 63 48 79 3d
       0.036875345 -0.9129631 0.39746243 0.06086005
0002d0 b7 d4 85 3e aa 2a fa 3d 81 e3 e0 bf c0 6e 90 3e
       0.2613885 0.12215169 -1.7569429 0.28209496
0002e0 70 0a 22 3e 8c 3a be bf b3 86 15 bf 7d 80 12 bf
       0.15824294 -1.4861617 -0.5840866 -0.5722731
0002f0 03 40 d1 3d b0 89 95 3e 38 bf 0b 3d d2 ca 65 3e
       0.102172874 0.2920661 0.034117907 0.22440651
000300 a0 a8 6a 3e 4d 31 cc bf 83 76 89 bf e2 14 df 3e
       0.22915888 -1.5952545 -1.0739292 0.4357062
000310 ab 4a 3c bf a2 d5 ba 3e 29 ff 12 3e 6c 5c 69 bf
       -0.73551434 0.36491114 0.14355148 -0.9115665
000320 71 3f 9a 3d 48 f1 5d bf cb 66 3e 3e 50 9e 3f bf
       0.07531632 -0.8669629 0.185939 -0.7485094
000330 91 2f e6 bf 38 cf 97 3e cf da 11 3e da 7f 42 3d
       -1.7983266 0.29650283 0.14243625 0.04748521
000340 3b 6b 10 bf 5f d1 95 3e 7c bd c6 bf b7 4b b7 3e
       -0.5641362 0.292613 -1.5526576 0.35799953
000350 52 e8 b7 3e a0 e4 63 3d 2b bb a4 3c 5a 3d 1e bd
       0.35919434 0.055637956 0.02010878 -0.03863273
000360 34 8a 92 be cd 45 ac 3e b8 96 7b bf d3 89 a2 be
       -0.28621066 0.33647004 -0.98276854 -0.31745777
000370 f1 ef 59 3e bb cf 38 3e ce eb 7d bf a2 80 b1 3d
       0.21282937 0.18047993 -0.99187934 0.08667113
000380 fd 68 d9 bf 25 90 48 3c ea e1 c1 be 65 4c ea 3d
       -1.6985165 0.012241398 -0.3786767 0.11440352
000390 f3 00 ac 3e 0d 4a 04 3e e0 2a 54 bf c2 66 82 3e
       0.33594474 0.12918873 -0.8287792 0.25469023
0003a0 9f 7b 94 3e 94 2a b6 bd 08 cd 26 bf 48 44 10 bf
       0.29000565 -0.0889484 -0.651566 -0.5635419
0003b0 37 49 a3 be 69 eb 4c 3e 11 38 a5 bf c3 3a 93 3d
       -0.31891796 0.20011677 -1.2907735 0.07188942
0003c0 14 00 08 bf 89 4e c0 bf 7a b5 de bf 0b 3a 2b 3d
       -0.5312512 -1.5023967 -1.7399132 0.0418034
0003d0 c0 95 f1 3e 50 70 a8 3e 52 7a a1 bf d4 8f 47 bf
       0.47184563 0.32898188 -1.2615454 -0.7795384
0003e0 43 0e c4 3d 91 ab b6 be cd 7d 01 3e c6 d0 a3 bf
       0.09573033 -0.3567777 0.12645645 -1.2798088
0003f0 94 97 68 3d 18 fd f1 bf 7e 83 97 be 60 dc e7 bf
       0.05678518 -1.8905363 -0.29592508 -1.8114128

fc2.bias f4 [128]
000000 00 00 00 00 0b 92 32 3e 49 1f 14 3e 00 00 00 00
       0.0 0.17438523 0.1446506 0.0
000010 04 62 2e 3e a0 18 80 be 59 70 35 bc 98 05 b4 bb
       0.17029577 -0.25018787 -0.011074149 -0.005493831
000020 3a 1d 39 3e f5 ed 97 3e 00 00 00 00 72 b3 58 bc
       0.18077555 0.29673734 0.0 -0.013226377
000030 27 f4 9d bd 09 bf 4f 3e 9a 1c 26 3e 97 db 88 3e
       -0.07712584 0.20287718 0.16221848 0.26730034
000040 00 00 00 00 70 e1 28 3d 00 00 00 00 f0 87 1f 3e
       0.0 0.04123062 0.0 0.155792
000050 00 00 00 00 da 13 92 bd 91 b1 3a 3e d9 c7 3d bb
       0.0 -0.07132693 0.18231799 -0.002895823
000060 41 8b 89 bc 00 00 00 00 46 68 9c bc c8 13 91 bd
       -0.016790034 0.0 -0.01909269 -0.07083851
000070 5c 9b 34 be 36 05 c0 bb 2e b0 6c 3e e0 8a 14 3d
       -0.1763739 -0.005859996 0.23114082 0.036265254
000080 1b c9 00 3e e1 9b 11 3c 81 a6 61 3e 77 ed 59 3e
       0.12576716 0.008887262 0.22036172 0.21281992
000090 6f 90 d0 bc c4 26 6b 3c d0 dc c2 3e 00 00 00 00
       -0.025459496 0.014352504 0.38059092 0.0
0000a0 65 bd a8 3d 3f 8b 2e bc 0e 1f 01 3f 1f de 21 3e
       0.08239249 -0.010653316 0.5043801 0.15807389
0000b0 c5 38 ae bd ec 1f 7e bc c8 4e 8f bc 0e 2e 2f 3e
       -0.08506922 -0.01551054 -0.01749362 0.17107412
0000c0 88 99 0f 3d 32 f5 7e 3e 9f 6e 22 ba 78 c3 75 3b
       0.03505853 0.24898222 -0.00061962934 0.0037500542
0000d0 f0 06 f6 3d 30 69 a7 bd 95 59 93 3c 36 96 38 3e
       0.12013042 -0.0817436 0.017987052 0.18026051
0000e0 00 00 00 00 1e d3 7f 3e 00 00 00 00 49 d5 37 3e
       0.0 0.24982879 0.0 0.17952456
0000f0 8c eb 33 3e 77 10 21 3e ab 12 c0 bd 34 81 a3 3e
       0.17570323 0.15728937 -0.09378561 0.31934512
000100 fc a5 45 3e 2b f3 e0 bc fa 2b 5d b9 13 38 6b bc
       0.193016 -0.027459702 -0.00021092585 -0.014356631
000110 ef bd 7c 3e 20 83 89 3e 9e 48 91 bc ad c4 07 bc
       0.24681829 0.26857853 -0.017734822 -0.008286637
000120 e6 74 10 bd cd 39 2f 3e cf a4 41 3e 8e 02 96 bd
       -0.035267733 0.17111893 0.18910526 -0.07324706
000130 6d 9f 00 3e 4d 7f 37 3c b3 21 a8 bc 56 52 93 bd
       0.12560816 0.011199784 -0.020523882 -0.07193439
000140 54 b7 a4 bd 0b b7 1d 3e 82 ec 6c 3e 15 9f b2 ba
       -0.080427796 0.15401857 0.23137096 -0.0013627732
000150 53 5d ea bb 6b 96 64 bc 4a 00 57 bc bd f1 54 bd
       -0.0071522384 -0.013951878 -0.0131226275 -0.051988352
000160 0f ef b1 3e 00 00 00 00 85 e5 2f 3e e3 42 d1 3c
       0.347527 0.0 0.17177399 0.02554459
000170 8b ca ab bd 00 00 00 00 00 00 00 00 ff 81 4d bc
       -0.083882414 0.0 0.0 -0.0125432005
000180 4c b4 58 3e 00 00 00 00 39 4e 8f 3e 79 c0 33 3e
       0.21162528 0.0 0.27989367 0.17553891
000190 cf 54 31 be 00 00 00 00 ed 08 06 bc 46 95 73 b9
       -0.17317508 0.0 -0.008180839 -0.00023229895
0001a0 b7 24 09 bd 00 00 00 00 2c f2 53 bc 60 f4 89 bd
       -0.03348228 0.0 -0.012936156 -0.06736064
0001b0 71 b9 00 bd 1a c3 55 bc 7d 7e 7c bd 00 00 00 00
       -0.03142685 -0.013047004 -0.061644066 0.0
0001c0 29 02 04 bb a0 fe 2f 3d 0f e1 21 bc 7e 5f 73 3e
       -0.002014289 0.04296744 -0.009880318 0.23766896
0001d0 2a 7b db bb ed a7 d2 bb 5f 46 a1 3e 68 18 fe 3c
       -0.006698032 -0.0064287097 0.31499 0.031017497
0001e0 1e 23 bc 3d e8 a1 7a bc ce 55 d4 bb 72 f3 a8 bd
       0.091863856 -0.0152973905 -0.0064799553 -0.082495585
0001f0 16 15 34 3e 00 00 00 00 ac 02 00 3e d3 56 2d 3e
       0.17586169 0.0 0.12501019 0.16927652
